logs/测试学习率策略对训练准确度与稳定性的影响/model.lr=0.005scheduler.MultiStepLR.milestones=[10, 20, 30]scheduler.MultiStepLR.gamma=0.1/test_model_20250419_151422.pth (torch, 193285 bytes, 32 tensors)

weight f4 [128, 1]
0	0xbf6652a4	-0.8996985
1	0xbf7b0b18	-0.980638
2	0xbf34db66	-0.70647275
3	0x3f823bbf	1.0174483
4	0x3eabbb88	0.33541512
5	0x3f398be0	0.7247906
6	0xbf342dae	-0.703822
7	0xbeff4e57	-0.49864456
8	0x3e2b0f42	0.16705039
9	0xbef271af	-0.4735236
10	0x3e5cb9d5	0.21555264
11	0x3f16aa44	0.58853555
12	0x3f861051	1.0473729
13	0xbf3eadc1	-0.7448388
14	0xbf027c43	-0.5097086
15	0xbe69cf8b	-0.22833078
16	0xbf5c5604	-0.8606875
17	0xbe7a1cac	-0.24425
18	0x3eb8fcec	0.36130464
19	0xbf1516c2	-0.5823785
20	0x3e7855d8	0.24251497
21	0xbf3ea2c8	-0.74467134
22	0xbf690b20	-0.910326
23	0xbf69627c	-0.911659
24	0x3f3b709f	0.7321872
25	0xbf242c7b	-0.6413037
26	0xbf4bd61d	-0.79623586
27	0x3f78411b	0.96974343
28	0xbf70b55e	-0.94026744
29	0xbd2a375a	-0.041556694
30	0x3f721ade	0.94572246
31	0x3f038904	0.51380944
32	0xbe746c18	-0.2386936
33	0xbeb09fae	-0.34496826
34	0xbf13bda5	-0.5771125
35	0x3d8eb200	0.069675446
36	0xbf457617	-0.77133316
37	0xbf1006b0	-0.56260204
38	0x3efdad68	0.4954636
39	0xbe15d350	-0.1463139
40	0x3f343193	0.70388144
41	0x3d1a29a0	0.037637353
42	0xbe9c939e	-0.30581373
43	0xbdf53bd0	-0.11974299
44	0x3f6964a1	0.9116917
45	0x3d961b10	0.073293805
46	0x3f58bbbc	0.8466146
47	0xba8fc800	-0.0010969639
48	0x3f6ff5b5	0.93734294
49	0x3f1919fe	0.59805286
50	0xbf1f8b40	-0.62321854
51	0xbc33568e	-0.010945929
52	0xbf0ed7a5	-0.557978
53	0x3f20b6f2	0.6277915
54	0x3f4302a7	0.7617592
55	0xbf406270	-0.75150204
56	0x3daa54c0	0.08316946
57	0x3e9a9638	0.30192733
58	0xbe2222fb	-0.15833656
59	0xbd2afec0	-0.041746855
60	0xbf68e5b8	-0.90975523
61	0x3f38d9cd	0.7220734
62	0xbd28b660	-0.04118955
63	0xbf36f17b	-0.7146222
64	0x3d06bb5f	0.032893535
65	0x3e3dba88	0.18528187
66	0x3f4b4a92	0.7941066
67	0xbe8fe222	-0.28102213
68	0xbf33002c	-0.6992214
69	0x3bd3b064	0.0064602364
70	0xbef68dea	-0.48155147
71	0xbf52ab86	-0.82292974
72	0x3f4bee89	0.7966085
73	0x3f429498	0.76007986
74	0xbe135a48	-0.14389908
75	0x3f3c8b7d	0.7365034
76	0xbf46c95b	-0.77650994
77	0x3f33093a	0.69935954
78	0xbd9bf7e0	-0.07615638
79	0x3f2f6e59	0.6852775
80	0xbf0bf5f8	-0.54672194
81	0xbf025491	-0.5091029
82	0xbed02748	-0.4065497
83	0xbe5e3ec9	-0.21703638
84	0x3f26f1e4	0.65212846
85	0x3f329191	0.69753367
86	0xbe272008	-0.16320813
87	0xbeaa173f	-0.3322086
88	0xbf376d36	-0.7165102
89	0x3f3c95c9	0.73666054
90	0x3f30db8c	0.69085
91	0xbf62dac9	-0.8861509
92	0x3eea5d84	0.45774472
93	0x3e962ba1	0.2933016
94	0x3eec8f12	0.46202904
95	0x3f0a1e97	0.53952926
96	0x3f535ea7	0.82566303
97	0xbe1ccf9c	-0.15313572
98	0x3ed9aefd	0.42516318
99	0xbf1f4d9c	-0.622278
100	0x3eff241c	0.49832237
101	0x3eff1be3	0.49825963
102	0x3ebd2f43	0.3695012
103	0x3f377492	0.7166225
104	0x3dd6473e	0.10462807
105	0x3f1ceb67	0.61296695
106	0x3c779280	0.015110612
107	0xbf46764a	-0.77524245
108	0x3ea30374	0.31838572
109	0x3f78a750	0.971303
110	0xbca4ab80	-0.020101309
111	0x3e138330	0.14405513
112	0xbf6ef639	-0.93344456
113	0xbe5e633c	-0.21717542
114	0x3f3395f8	0.7015071
115	0xbed361fc	-0.41285694
116	0x3e568efc	0.20952982
117	0x3f1e9dba	0.6195942
118	0xbf1b78e7	-0.6073136
119	0xbf08ba94	-0.53409696
120	0x3f82de35	1.0224062
121	0x3f4aeebe	0.7927054
122	0xbf2a1ba7	-0.66448444
123	0x3f68ed8e	0.9098748
124	0xbf575a6c	-0.8412235
125	0xbdd93730	-0.10606229
126	0x3e810d05	0.25205246
127	0xbed5c3a8	-0.41750836

bias f4 [128]
0	0xbe6443bf	-0.22291468
1	0x3f68a84e	0.9088181
2	0xbf4136f2	-0.75474465
3	0xbea000a9	-0.31250504
4	0xbf31fdfa	-0.6952816
5	0xbf65d594	-0.8977902
6	0xbdc062e9	-0.093938656
7	0x3eb118e5	0.34589306
8	0x3f2a1785	0.6644214
9	0x3e857fce	0.2607407
10	0x3f6ee244	0.93314004
11	0xbf7f2374	-0.9966347
12	0x3f0b1d94	0.5434201
13	0xbeeed39b	-0.46645817
14	0x3f427bc7	0.7597012
15	0x3f4d9539	0.8030582
16	0x3ea93d90	0.3305478
17	0x3e39ac07	0.1813203
18	0x3f4619da	0.77383196
19	0x3ea8eecf	0.32994696
20	0x3e4516cd	0.19246979
21	0x3f1af50c	0.6053016
22	0x3f15b228	0.5847497
23	0x3f12b752	0.57310975
24	0xbf00e8c1	-0.50355154
25	0x3f0dd421	0.5540181
26	0xbf2811cb	-0.6565215
27	0x3ed2c4bb	0.41165718
28	0x3e9e8fb5	0.30969015
29	0x3ea3dddb	0.320052
30	0x3e10bbed	0.14134188
31	0x3f201d74	0.6254494
32	0xbf2396a8	-0.6390176
33	0xbe17e722	-0.14834264
34	0x3eadd6ac	0.33952844
35	0xbe8e964c	-0.27849042
36	0x3f1348f3	0.57533187
37	0x3f0f8799	0.5606628
38	0xbf74b51c	-0.9558885
39	0xbf215b7e	-0.6303023
40	0xbe6d8420	-0.23194933
41	0xbf5a6966	-0.85317075
42	0xbe6622ef	-0.22474264
43	0xbf65a92c	-0.8971126
44	0xbf0cdb43	-0.55022067
45	0xbdad22a0	-0.0845387
46	0xbdc75300	-0.09732628
47	0xbdadb460	-0.084816694
48	0xbe135673	-0.14388447
49	0x3ecc96e1	0.3995886
50	0xbe80e183	-0.25172052
51	0x3f1cbc28	0.61224604
52	0x3f1ae777	0.6050944
53	0x3e10957d	0.14119525
54	0x3e982622	0.29716593
55	0xbf077de8	-0.5292649
56	0xbf4010a8	-0.75025415
57	0xbea99428	-0.33120847
58	0x3ef52b97	0.4788482
59	0xbea9ffb8	-0.3320291
60	0x3f2c0945	0.67201644
61	0x3f5cb197	0.8620848
62	0xbe6dfe60	-0.23241568
63	0xbeec38a6	-0.4613697
64	0x3f2fc671	0.6866217
65	0xbf02f880	-0.5116043
66	0x3f3cc259	0.7373405
67	0xbd40cc7a	-0.047070004
68	0x3f0d8d05	0.55293304
69	0x3f0ad00c	0.54223704
70	0xbdfbfe64	-0.123043805
71	0xbed9f97d	-0.42573157
72	0xbedb5f14	-0.42845976
73	0xbf22163f	-0.63315195
74	0xbf7e8a90	-0.9943018
75	0x3eed170e	0.46306652
76	0x3e9d5a1e	0.30732816
77	0xbdf75da3	-0.12078407
78	0xbf65bb88	-0.89739275
79	0xbe5b40ad	-0.2141139
80	0x3dbe1623	0.09281566
81	0xbe8efe0d	-0.279282
82	0xbf4acb96	-0.792169
83	0x3e9f58a3	0.31122312
84	0xbf7e66aa	-0.993754
85	0xbe7d17f5	-0.2471617
86	0xbf3637f8	-0.7117915
87	0x3f23b62d	0.63949853
88	0x3ea32395	0.31863084
89	0x3f6c48cb	0.92298573
90	0xbf43c7d8	-0.7647681
91	0x3eefd3ce	0.46841282
92	0xbefaccd0	-0.48984385
93	0xbe020a7a	-0.12699309
94	0xbd94a5e6	-0.07258205
95	0x3f85b4fa	1.0445855
96	0x3f610443	0.8789713
97	0x3e351ce7	0.17686807
98	0x3f4e2dcf	0.8053865
99	0x3f1fea07	0.6246647
100	0x3f1ac7c8	0.6046109
101	0xbe3472e5	-0.17621954
102	0x3da0fd65	0.07860831
103	0x3df02793	0.11726298
104	0x3eeec6a0	0.46635914
105	0x3f42d8a0	0.76111794
106	0xbf67e99c	-0.90590835
107	0xbf3b8cfb	-0.73261994
108	0xbecb8ee0	-0.39757442
109	0x3ebac6ec	0.3647989
110	0xbf558116	-0.83400095
111	0xbf534f68	-0.8254304
112	0x3f390ac2	0.7228204
113	0xbbc9598f	-0.0061447094
114	0xbf444b16	-0.7667707
115	0xbf11e700	-0.56993103
116	0x3e54d654	0.20784885
117	0x3ed82e4a	0.42222816
118	0xbe749ff8	-0.23889148
119	0x3f09b3d1	0.53790003
120	0x3f65ff15	0.8984235
121	0x3f6bcf0b	0.921128
122	0x3eac54d6	0.33658475
123	0xbf73e016	-0.95263803
124	0x3ec4e420	0.38455296
125	0xbf321f9a	-0.6957947
126	0x3f65578c	0.8958671
127	0xbf53fb04	-0.82804894

weight f4 [8, 128]
0	0xbbbe877e	-0.005814492
1	0xbd2d3d8b	-0.04229502
2	0xbdb47279	-0.088108964
3	0x3e0b1a73	0.13584308
4	0x3c478eb0	0.012180015
5	0x3d31ee4a	0.04344014
6	0xbdcbc273	-0.099491976
7	0xbce79f1e	-0.028274115
8	0x3d940cbc	0.072289914
9	0x3b95dc32	0.0045733685
10	0xbd22ebf8	-0.03977582
11	0xbb251e00	-0.0025194883
12	0x3da501d5	0.0805699
13	0x3d65d8ad	0.05611484
14	0xbd424d88	-0.04743722
15	0x3c730e08	0.014834888
16	0xbcd6bbfc	-0.026212685
17	0xbdac438b	-0.0841132
18	0x3d3dc646	0.046331666
19	0x3d00254d	0.031285573
20	0x3d4ca782	0.049964435
21	0x3cd346c4	0.02579058
22	0xbcd65d8a	-0.02616765
23	0x3bb74567	0.00559299
24	0x3de4c937	0.11171191
25	0x3d755576	0.059895955
26	0x3cee4758	0.029086754
27	0xbcfe6644	-0.031054623
28	0x3d34fd79	0.044187043
29	0xbcdfcaa2	-0.027318303
30	0x3de54b28	0.111959755
31	0x3db2433c	0.0870423
32	0xbd315a6e	-0.04329913
33	0xbcde85d8	-0.027163431
34	0x3d8e7500	0.0695591
35	0x3daa0655	0.08301989
36	0x3cc69f9d	0.024246031
37	0xbd32c1e2	-0.043641932
38	0xbc290ff0	-0.010318741
39	0xbda3b842	-0.07994129
40	0x3defc265	0.11707
41	0xbc33d450	-0.010975912
42	0xbaddb2a3	-0.00169142
43	0xbad6f740	-0.001640059
44	0xbc30fa08	-0.0108018
45	0x3cef9364	0.029245086
46	0xbcaadc2a	-0.020856936
47	0x3d9d1c81	0.07671452
48	0xbc3317fa	-0.010931009
49	0x3dffc2a5	0.124882974
50	0xbddad1c0	-0.10684538
51	0xbb537919	-0.0032268225
52	0xbd8d4068	-0.0689705
53	0x3ba5a3d6	0.005054931
54	0x3d1e40f0	0.038636148
55	0xbd8f7fa0	-0.070067644
56	0xbd2d1100	-0.04225254
57	0xbd3d1f94	-0.046172693
58	0x3de5d6b2	0.112225905
59	0xbd104e62	-0.035231
60	0xbbd5a79e	-0.0065202257
61	0x3d5f9868	0.054588705
62	0xbd288e0b	-0.041151088
63	0xbd2b38e3	-0.0418023
64	0x3df1990f	0.11796772
65	0xbd27e196	-0.04098662
66	0x3d924207	0.071415
67	0xbd567cb5	-0.052365024
68	0x3cccc286	0.0249951
69	0x3e04f422	0.12983754
70	0xbdabb499	-0.08384056
71	0xbd2a33b3	-0.04155321
72	0x3d6abe05	0.057310123
73	0x39839f2e	0.00025104865
74	0xb8d05400	-9.933859e-05
75	0xbd0f4c33	-0.03498478
76	0xba8b9452	-0.0010649061
77	0x3dbb4b92	0.09145273
78	0xbd41d420	-0.04732144
79	0x3dcada75	0.099049486
80	0xbbcf713d	-0.0063306377
81	0x3c86ddb7	0.016463144
82	0x3d65908e	0.05604606
83	0x3da2e18b	0.07953175
84	0x3d733c26	0.059383534
85	0x3dd80889	0.10548503
86	0xbd0712a0	-0.032976747
87	0x3d266ac4	0.040629163
88	0x3d382847	0.044960286
89	0x3df5ce92	0.12002291
90	0x3c61d1bc	0.013782915
91	0x3d4175e2	0.047231562
92	0xbda1bfc2	-0.07897903
93	0x3da9fd5f	0.0830028
94	0x3e011cc4	0.1260863
95	0x3aae3ca2	0.0013293216
96	0x3cf06bfa	0.029348362
97	0xbd0ea6db	-0.034827095
98	0xba90ff28	-0.0011062371
99	0xbd48b54f	-0.049001034
100	0x3c886ef6	0.016654473
101	0x3d297ac2	0.041376837
102	0x3dc6de7f	0.097104065
103	0xbc18ae8e	-0.009318961
104	0xbcf51d3d	-0.029921168
105	0x3d8ed328	0.069738686
106	0x3d882149	0.06646974
107	0xbb3f2377	-0.0029165426
108	0xbd689538	-0.05678293
109	0x3cb6ced8	0.022315428
110	0xbc551d58	-0.013007484
111	0xbd82f956	-0.06395213
112	0xbdd1004b	-0.10205134
113	0xbc9d3492	-0.019190107
114	0x3b88d0c0	0.0041752756
115	0x3dad5e55	0.08465258
116	0xbd05fd78	-0.03271243
117	0x3dd0cf50	0.10195792
118	0xbd8237eb	-0.06358322
119	0xbd999e80	-0.075009346
120	0x3db87019	0.09005756
121	0x3db4c224	0.08826092
122	0xbcdc09dd	-0.026860172
123	0xbc6af7a0	-0.014341265
124	0x3c68ecb8	0.014216594
125	0xbd04c1f3	-0.032411527
126	0x3d46c8d1	0.048531357
127	0xbd949376	-0.072546884
128	0x3d9a6ff0	0.07540882
129	0x3d1a8be1	0.037731055
130	0xbcb698d8	-0.022289678
131	0xbcb96f17	-0.02263598
132	0x3da659b1	0.08122576
133	0x3cda7310	0.026666194
134	0x3d02536d	0.031817842
135	0xbc0607d6	-0.008180579
136	0x3dae1f04	0.085020095
137	0x3de07642	0.10960056
138	0x3c8cdb2d	0.017194355
139	0x3d5fe0ca	0.054657735
140	0x3c05f076	0.008175006
141	0x3d4ba5be	0.04971861
142	0xbce9ffd9	-0.02856438
143	0xb8db4ba5	-0.00010456824
144	0x3dc225ef	0.094798915
145	0x3d813c91	0.0631038
146	0x3c9d9749	0.019237177
147	0x3e0d3390	0.13789201
148	0x3ca9ca08	0.020726219
149	0x3dcea322	0.10089709
150	0xbc8af233	-0.016961193
151	0xbc664cc4	-0.014056388
152	0x3d3991b1	0.045304958
153	0x3da98ba0	0.082785845
154	0x3cee086a	0.029056747
155	0xbbe1f20e	-0.0068953102
156	0x3da8271b	0.08210584
157	0x3df231f6	0.118259355
158	0xbc1f084d	-0.009706569
159	0x3d208e02	0.03919793
160	0xbcae285c	-0.02125948
161	0x3d68f098	0.056870073
162	0xbcc42138	-0.023941621
163	0xbd44990b	-0.047997516
164	0x3d958985	0.073016204
165	0x3c87e5f6	0.016589146
166	0xbd4b7c28	-0.04967895
167	0x3d66f4ba	0.056385733
168	0xbd22c16c	-0.039735243
169	0x3ca5a570	0.020220488
170	0x3c999b7b	0.018750897
171	0xbd0dc59d	-0.034612287
172	0xbdd672c9	-0.10471112
173	0xbc82a1ac	-0.015946232
174	0x3d554391	0.05206639
175	0x3d5a4baa	0.053294815
176	0xbd125169	-0.03572217
177	0xbd65f5d2	-0.056142636
178	0x3cab082a	0.020877916
179	0x3d5c0bf7	0.053722348
180	0x3d8cb809	0.068710394
181	0x3d8d6f95	0.06906048
182	0x3da6b1f3	0.0813941
183	0xbd8f77ec	-0.07005295
184	0xbdafc1e9	-0.08581907
185	0xbd5cb224	-0.053880826
186	0xbc734a9c	-0.014849331
187	0x3d747ae2	0.059687503
188	0x3db5a25e	0.0886886
189	0x3d5d116d	0.053971697
190	0xbd51049d	-0.05102979
191	0xbd88f3b3	-0.06687107
192	0x3da4cd91	0.08047021
193	0x3d800b23	0.06252124
194	0x3dbc7902	0.09202768
195	0xbc19bb2b	-0.009383003
196	0x3dffbdea	0.12487395
197	0x3df06a90	0.11739075
198	0x3b901432	0.0043969387
199	0x3d9ffccf	0.07811891
200	0xbd7024b1	-0.05862874
201	0xbc8496ec	-0.016185246
202	0x3d7156c6	0.058920644
203	0x3d9ceb3a	0.076620534
204	0x3cc923ba	0.024553169
205	0x3d35c853	0.044380497
206	0x3d9cdc8b	0.07659253
207	0xbd6ed1e7	-0.058305647
208	0x3d6aebca	0.057353772
209	0xbc99c421	-0.01877028
210	0x3db43995	0.088000454
211	0x3e00f4ec	0.1259343
212	0x3d634d2e	0.055493526
213	0xbd4fca6d	-0.050730158
214	0x3d9b5cdf	0.07586073
215	0xbc537ebc	-0.012908634
216	0x3ca75c04	0.020429619
217	0xbcb37f77	-0.021911366
218	0xbd65c206	-0.05609324
219	0x3e0e5b61	0.13902046
220	0x3db27a01	0.08714677
221	0xbcfe01c8	-0.031006709
222	0xbda62a27	-0.08113509
223	0xbd2a7fbc	-0.041625723
224	0x3dc282fd	0.0949764
225	0x3dd2524b	0.102696024
226	0x3d15ecbb	0.036602717
227	0x3db2bcc7	0.08727413
228	0x3d5884ec	0.05286114
229	0xbd9f6dca	-0.077846125
230	0xbc3328f0	-0.010935053
231	0x3cb3bea4	0.02194149
232	0x3d8100c4	0.06298974
233	0xbc4d3f3d	-0.012527284
234	0xbc149bc0	-0.009070337
235	0x3d5be888	0.053688556
236	0x3cc64dc4	0.024207003
237	0x3d113ea7	0.03546014
238	0x3d34ca66	0.044138335
239	0x3be78cb0	0.007066332
240	0x3d098896	0.033577524
241	0x3d92bb6e	0.071646556
242	0xbc2f7dd0	-0.010711148
243	0x3cc7569c	0.02433329
244	0xbc70fb87	-0.014708406
245	0xbba7bfd4	-0.0051193032
246	0xbc1df6f8	-0.0096414015
247	0xbd0a45ed	-0.033758093
248	0xbc04f85a	-0.008115852
249	0xbba8cb70	-0.0051512048
250	0x3d8ea3ea	0.06964858
251	0x3d861503	0.065469764
252	0xbc1e048a	-0.009644637
253	0x3d41db12	0.047328062
254	0xbcc2389a	-0.02370863
255	0x3dab9df7	0.08379739

bias f4 [8]
0	0x3d53c012	0.051696844
1	0xbcd7442e	-0.026277628
2	0x3e19488d	0.14969082
3	0x3d078e80	0.033094883
4	0x3d15c215	0.036562044
5	0x3d3d11d3	0.046159577
6	0xbe16fbf2	-0.14744547
7	0xbd73502f	-0.05940264

weight f4 [16, 2]
0	0xbe986489	-0.29764202
1	0x3ee29fd8	0.44262576
2	0x3f10b491	0.5652552
3	0x3d92493b	0.07142874
4	0xbe9b08c1	-0.30280116
5	0xbe126870	-0.14297652
6	0x3ea6ced3	0.3257967
7	0x3ebf466d	0.37358418
8	0xbed26fd5	-0.41100946
9	0x3d82f700	0.06394768
10	0x3ec0c4a3	0.37650022
11	0xbd12eb7a	-0.0358691
12	0x3d4c38c9	0.049858842
13	0xbe92e69d	-0.2869157
14	0xbf083f2e	-0.53221405
15	0xbf2adcf1	-0.6674338
16	0xbf264c1a	-0.6495987
17	0xbee67afa	-0.450157
18	0x3f0dc033	0.553714
19	0xbf2bb2d6	-0.67069757
20	0x3e30b732	0.17257383
21	0x3e48d453	0.19612245
22	0xbb9c9480	-0.0047784448
23	0xbf1c50e1	-0.6106091
24	0x3eb319af	0.34980533
25	0x3f277cc4	0.6542475
26	0xbf3956a9	-0.7239786
27	0x3ca35516	0.019938033
28	0xbec0adf8	-0.37632728
29	0xbe007264	-0.12543637
30	0xbed6dd73	-0.41965827
31	0xbd436cf0	-0.047711313

bias f4 [16]
0	0xbf03503b	-0.51294297
1	0xbeb9a1ed	-0.36256352
2	0xbe117e08	-0.14208233
3	0xbe8d95c5	-0.27653328
4	0xbed0cd08	-0.40781426
5	0xbe7127a5	-0.2355028
6	0xbef83a09	-0.48481777
7	0xbe5041f8	-0.20337665
8	0x3ec12856	0.37726086
9	0xbe2fa1bc	-0.1715154
10	0xbeea5a2d	-0.45771924
11	0xbef84e4e	-0.48497242
12	0x3c838219	0.016053246
13	0x3f26e755	0.65196735
14	0xbecfbb04	-0.4057237
15	0x3ec1a296	0.37819356

weight f4 [16, 16]
0	0x3e012ecd	0.1261551
1	0x3cfd79ba	0.030941833
2	0x3dd0fa94	0.10204044
3	0xbd806d28	-0.0627082
4	0xbd84e36f	-0.06488692
5	0x3d2f1d73	0.042752694
6	0xbcadc952	-0.021214161
7	0xbd406a00	-0.04697609
8	0x3d0d76c0	0.034537077
9	0xbe1e854f	-0.1548054
10	0xbda47b6f	-0.080313556
11	0x3e5d295c	0.21597809
12	0x3dab75c4	0.083720714
13	0x3d0817a3	0.033225667
14	0x3ce19c50	0.027540356
15	0xbda0b424	-0.07846859
16	0x3b56f780	0.003280133
17	0xbded5a98	-0.11589545
18	0xbe69b9bc	-0.22824758
19	0xbe71fa48	-0.23630631
20	0xbceb7210	-0.028740913
21	0x3dae06bc	0.08497378
22	0x3e014144	0.12622553
23	0xbd2deda8	-0.042462975
24	0x3df61afc	0.120168656
25	0x3e530ca8	0.20610297
26	0x3c299f60	0.010352939
27	0x3cde2590	0.02711752
28	0xbddbf228	-0.10739547
29	0x3e509f2c	0.20373219
30	0x3dfef6c8	0.124494135
31	0x3e3ef30e	0.18647406
32	0xbe71d202	-0.23615268
33	0x3e07d3ef	0.1326444
34	0xbe31c09e	-0.17358634
35	0x3ca94f35	0.020667652
36	0x3e0a0554	0.13478595
37	0x3daaae32	0.08334006
38	0xbe833d0b	-0.2563251
39	0x3df0a240	0.11749697
40	0x3d2cfa10	0.042230666
41	0xbc7c9cd9	-0.015418255
42	0xbe83430c	-0.2563709
43	0x3d97b428	0.07407409
44	0xbde228de	-0.11042951
45	0xbe65b6f8	-0.22433078
46	0xbe299b0a	-0.16563049
47	0x3ce9d0c0	0.028541923
48	0xbe7d7ae2	-0.24753907
49	0x3cfe2afa	0.031026352
50	0xbddd3dc4	-0.108027965
51	0xbd223583	-0.039601814
52	0x3e69c120	0.22827578
53	0xbe8cdbf4	-0.2751156
54	0xbc6d5d3d	-0.014487562
55	0xbc405ce0	-0.011740893
56	0x3e53b566	0.20674667
57	0x3e256ebf	0.16155528
58	0xbcd66c03	-0.02617455
59	0x3e31039c	0.17286533
60	0x3b7dafe7	0.0038709582
61	0x3ca13f10	0.01968339
62	0x3c27bc80	0.010237813
63	0xbddb0064	-0.10693434
64	0x3cb68430	0.022279829
65	0xbe35869c	-0.1772713
66	0x3e2dccb4	0.1697262
67	0xbdc59538	-0.09647602
68	0x3dbfaabc	0.09358737
69	0xbdef0884	-0.11671546
70	0xbe04dfa4	-0.12975937
71	0x3dcae07c	0.09906098
72	0xbe325ce6	-0.1741825
73	0xbe56a560	-0.20961523
74	0x3dc95c28	0.098320305
75	0xbcab72e0	-0.0209288
76	0x3cc08710	0.023501903
77	0xbe4386be	-0.19094369
78	0x3e7f1f3e	0.24914262
79	0xbe1c1fda	-0.15246525
80	0x3d768618	0.060186476
81	0xbe465818	-0.19369543
82	0x3d6b8c38	0.05750677
83	0xbda28144	-0.07934812
84	0x3c018860	0.0079060495
85	0x3e5825c6	0.2110816
86	0xbd3ede18	-0.046598524
87	0x3e720000	0.23632812
88	0x3e0a2eb2	0.13494375
89	0x3e28b6e0	0.16476011
90	0x3daced84	0.0844374
91	0x3e7ca498	0.24672163
92	0xbe0f481c	-0.13992351
93	0xbe63dbe6	-0.22251853
94	0x3daa2630	0.08308065
95	0x3e12a26a	0.14319769
96	0xbe60eec2	-0.21966079
97	0x3e08bcf0	0.13353324
98	0x3e3df7aa	0.18551508
99	0xbe12ae42	-0.14324287
100	0xbe405e28	-0.18785918
101	0x3e4e2da4	0.20134598
102	0xbe3d439b	-0.1848282
103	0x3e61f3e4	0.22065693
104	0xbe40629e	-0.1878762
105	0x3e13b051	0.14422728
106	0x3e38f6d2	0.18062904
107	0x3e34c536	0.17653355
108	0x3d5b5cba	0.053555228
109	0xbbe2f0e8	-0.006925691
110	0xbe5de662	-0.21669915
111	0xbe47d0c4	-0.19513232
112	0xbe05f93c	-0.13083357
113	0xbe595e54	-0.2122739
114	0xbe10b66a	-0.14132085
115	0x3e2f0078	0.17090023
116	0xbe345f60	-0.17614508
117	0xbe213dec	-0.15746278
118	0xbd86767c	-0.06565568
119	0x3e2fd100	0.17169571
120	0xbe18a532	-0.14906767
121	0xbe1e0b66	-0.15434036
122	0xbe39c818	-0.18142736
123	0xbda26060	-0.07928538
124	0xbc5fd6a0	-0.01366201
125	0xbc9b3e90	-0.01895073
126	0xbaa5d600	-0.0012652278
127	0x3e533bcc	0.2062828
128	0xbd73ca60	-0.05951917
129	0x3e350aac	0.17679852
130	0xbe64c062	-0.22339013
131	0x3dfba56c	0.12287411
132	0x3d9d50f4	0.07681456
133	0xbe12b603	-0.14327244
134	0x3e3a3c8f	0.18187164
135	0x3e2b9ad8	0.16758287
136	0xbd97f71c	-0.07420179
137	0xbd0ab81c	-0.033866987
138	0x3d3363ab	0.043796223
139	0x3cdd5570	0.027018279
140	0xbe2c3dd4	-0.1682046
141	0x3b2a4a00	0.002598405
142	0x3df91190	0.12161553
143	0xbe23409c	-0.15942615
144	0xbdd0dac9	-0.1019798
145	0xbe4ac4c8	-0.19801629
146	0xbd42ff80	-0.047606945
147	0xbd026467	-0.031834032
148	0x3c87c818	0.016574904
149	0xbd173ccc	-0.036923215
150	0x3d24f771	0.04027504
151	0xbbc7c780	-0.0060967803
152	0xbe634802	-0.22195438
153	0x3e01d7d1	0.12679984
154	0xbdebe0e9	-0.115175076
155	0x3cd511a0	0.02600938
156	0x3dc04cab	0.09389623
157	0x3e150f13	0.14556532
158	0xbce17bb0	-0.0275248
159	0x3d1bc860	0.03803289
160	0xbe0156c2	-0.12630752
161	0xbe53799d	-0.2065186
162	0xbe5aadf6	-0.21355423
163	0xbd91f08d	-0.071259595
164	0x3e1dfa76	0.15427575
165	0x3dd2a470	0.1028527
166	0x3ddc39d8	0.1075322
167	0x3e6461fe	0.22303006
168	0xbcbd2190	-0.023087293
169	0xbc364d55	-0.011126836
170	0xbddb2577	-0.10700505
171	0x3e4644a2	0.19362119
172	0x3da1b369	0.07895548
173	0x3cfd0a70	0.030888766
174	0xbe754fc8	-0.23956215
175	0xbe65af24	-0.22430092
176	0x3d368fb0	0.044570625
177	0xbe052e32	-0.13005903
178	0x3e31af3e	0.17352006
179	0x3e277bc9	0.16355814
180	0x3d6a9f88	0.057281047
181	0x3e27ddfe	0.16393277
182	0xbd57792e	-0.0526058
183	0x3e58e234	0.2118004
184	0xbe6dd02c	-0.23223943
185	0xbd227d60	-0.03967035
186	0xbd101331	-0.035174552
187	0x3e120560	0.14259863
188	0xbe30a965	-0.17252119
189	0xbd18f7c0	-0.037345648
190	0x3e4a85f2	0.19777659
191	0xbdebf844	-0.11521962
192	0x3d826f30	0.063688636
193	0x3e69da89	0.22837271
194	0x3daddb54	0.08489099
195	0x3d05f896	0.032707773
196	0x3e26f3c2	0.16303924
197	0x3cc0242c	0.023454748
198	0x3cf10c16	0.029424708
199	0xbd176250	-0.036958992
200	0xbc6cc0e0	-0.014450282
201	0xbdbcc441	-0.0921712
202	0x3dae237c	0.08502862
203	0xbd0c1de8	-0.03420821
204	0x3de4a876	0.11164944
205	0x3d895b91	0.06706918
206	0x3e42b570	0.19014525
207	0xbe59fd5a	-0.21288052
208	0xbd2e1690	-0.042501986
209	0xbcfe4670	-0.031039447
210	0xbe41fc58	-0.18943918
211	0xbe2d8480	-0.16945076
212	0x3e660d28	0.22465956
213	0x3e13f2bc	0.14448065
214	0xbe355dfc	-0.17711633
215	0x3e043ca8	0.12913764
216	0xbe483ba4	-0.19554001
217	0x3e226b64	0.15861279
218	0xbe76d42c	-0.24104375
219	0x3da38a0c	0.07985315
220	0xbe337ec2	-0.17528823
221	0xbdc73990	-0.09727776
222	0xbcbeb590	-0.023279935
223	0x3e7d1a02	0.24716952
224	0xbdb53bac	-0.08849272
225	0x3d0ca170	0.034333646
226	0x3b55ee80	0.0032643378
227	0xbe18131a	-0.14851037
228	0xbc81f800	-0.015865326
229	0x3e1120ee	0.14172718
230	0xbe2268a4	-0.1586023
231	0xbe7f84ac	-0.24952954
232	0xbcbde270	-0.023179263
233	0xbd78dca0	-0.06075728
234	0xbe711626	-0.23543605
235	0xbd75ecc8	-0.060040265
236	0xbe11c3b8	-0.14234817
237	0xbe0e8bcc	-0.13920516
238	0xbe63b3e2	-0.22236589
239	0xbd8fed6c	-0.070277065
240	0xbd5f66d0	-0.05454141
241	0x3d969198	0.073519886
242	0x3e746cc0	0.2386961
243	0xbd3cee60	-0.04612577
244	0xbe4382a8	-0.1909281
245	0x3e037d78	0.12840831
246	0xbd812ac8	-0.06306988
247	0xbe2030f8	-0.1564368
248	0x3d908200	0.070560455
249	0xbe3c3250	-0.18378568
250	0xbca55bd0	-0.020185381
251	0x3e336e34	0.17522508
252	0xbe4a98c2	-0.19784835
253	0xbe0aed4a	-0.13567081
254	0xbd4b23e0	-0.04959476
255	0x3df2a4ac	0.11847815

bias f4 [16]
0	0xbe64ff21	-0.22362949
1	0xbd487338	-0.048938006
2	0xbe943868	-0.28949285
3	0xbd46b8f7	-0.04851624
4	0xbe2835f4	-0.16426831
5	0xbe27e8fe	-0.16397473
6	0xbddd5eae	-0.10809074
7	0x3e6295ac	0.22127408
8	0xbdda7e6d	-0.10668645
9	0x3e6d02c5	0.23145588
10	0x3e0c9ea8	0.13732398
11	0xbe81555c	-0.25260437
12	0xbda94d9b	-0.08266755
13	0x3a1ae800	0.00059092045
14	0xbd8d226c	-0.06891331
15	0x3e5bc748	0.21462739

weight f4 [32, 16]
0	0xbc6b6875	-0.014368166
1	0x3dcd9da8	0.10039836
2	0x3e19f1f4	0.15033704
3	0xbb247545	-0.0025094312
4	0x3e2d19e2	0.16904405
5	0xbdd0c440	-0.10193682
6	0xbcecb413	-0.02889446
7	0x3ddea084	0.1087046
8	0xbe03e5ba	-0.12880602
9	0xbe13bfd9	-0.14428653
10	0xbdd879f4	-0.10570136
11	0xbe52dd84	-0.20592314
12	0x3d4dcbfe	0.05024337
13	0xbe17695c	-0.14786285
14	0xbe22ed5e	-0.15910861
15	0xbdb4728c	-0.088109106
16	0xbdd0a82b	-0.101883255
17	0x3e4b37e2	0.19845536
18	0xbdafeaed	-0.085897304
19	0xbe1d1314	-0.15339309
20	0x3d9caf20	0.0765059
21	0xbcebc920	-0.028782427
22	0x3e5a21d5	0.21301968
23	0xbe786dac	-0.24260587
24	0xbe30f6c3	-0.17281632
25	0xbd7a56db	-0.061117988
26	0xbb6c2257	-0.003603121
27	0x3e492e37	0.19646536
28	0x3cda54df	0.026651798
29	0xbe707a3e	-0.23484132
30	0x3e68e12c	0.22742146
31	0x3e4532e6	0.19257697
32	0xbc176a68	-0.009241678
33	0xbe50be18	-0.20385015
34	0xbd04e16a	-0.032441534
35	0x3cf17c8a	0.02947833
36	0xbc99f850	-0.018795162
37	0xbe4b2c4a	-0.19841114
38	0x3e465f92	0.19372395
39	0xbe455f56	-0.19274649
40	0x3dcd9d2c	0.10039744
41	0xbd4f9d51	-0.050687138
42	0xbe135153	-0.14386491
43	0xbe52771c	-0.20553249
44	0x3ca2fc8d	0.019895816
45	0x3e4cb0e4	0.19989353
46	0xbe380934	-0.1797226
47	0x3e4b2d0e	0.19841406
48	0xbe19e2b1	-0.15027882
49	0xbe4ee8de	-0.2020602
50	0x3db16bc8	0.08663136
51	0x3d27fa67	0.041010287
52	0xbe13e106	-0.14441308
53	0x3e753e46	0.23949537
54	0xbd45bbd3	-0.048274826
55	0xbe610ea2	-0.21978238
56	0x3e78f0cd	0.24310608
57	0xbe8844e2	-0.26615053
58	0x3df4481d	0.11927817
59	0x3d42264c	0.047399804
60	0x3dc62af2	0.0967616
61	0x3be0a9c0	0.0068561733
62	0xbe2300ae	-0.15918228
63	0xbd0643c8	-0.032779485
64	0xbe0d9332	-0.13825682
65	0x3db5902c	0.08865389
66	0x3df43b40	0.119253635
67	0x3de84aa8	0.113423645
68	0x3e1b2e24	0.1515432
69	0x3d2158a0	0.03939116
70	0xbe839d02	-0.25705725
71	0xbe236c2a	-0.1595923
72	0xbd690cbb	-0.056896906
73	0x3cf68708	0.030093685
74	0xbde44b3b	-0.111471616
75	0xbd5effd4	-0.054443195
76	0xbe60633a	-0.21912852
77	0x3e2b1b86	0.16709718
78	0xbd979c6c	-0.07402882
79	0xbe441a6c	-0.19150704
80	0x3e63f8b5	0.22262843
81	0x3ddb5820	0.10710168
82	0x3d6fd7b8	0.058555335
83	0xbd02d615	-0.031942446
84	0xbdc0c548	-0.094126284
85	0xbe6edaf6	-0.23325714
86	0xbd867a9b	-0.06566354
87	0x3e17f166	0.1483818
88	0xbc15a940	-0.009134591
89	0xbe210e0d	-0.15728016
90	0xbd86880a	-0.06568916
91	0x3e8441ae	0.2583136
92	0xbb0662bd	-0.002050563
93	0xbdc78c04	-0.09743503
94	0x3dcfaa90	0.10139954
95	0x3dbc70c8	0.09201199
96	0xbe245bcc	-0.16050643
97	0x3e1684b6	0.14699063
98	0xbe551a0d	-0.20810719
99	0x3d82cce5	0.06386737
100	0xbe5d4dba	-0.21611682
101	0xbdbb139c	-0.091345996
102	0xbd87b550	-0.066263795
103	0x3e330c76	0.17485222
104	0x3e15473c	0.14577955
105	0x3e3a7d39	0.18211831
106	0xbdb1c1c3	-0.08679535
107	0x3e4ab136	0.19794163
108	0xbd9d6862	-0.07685925
109	0xbe5aeaae	-0.21378586
110	0xbe711fd2	-0.23547295
111	0x3e0959d0	0.13413167
112	0x3dce8a9d	0.10085032
113	0xbe5c82aa	-0.2153422
114	0xbe5f0760	-0.21780157
115	0xbdaad801	-0.08341981
116	0xba1c3000	-0.00059580803
117	0xbd94fc98	-0.07274741
118	0xbe37965e	-0.17928454
119	0xbd46f8c0	-0.04857707
120	0x3d4402ce	0.047854237
121	0xbe1ab6f0	-0.15108848
122	0x3dc25b76	0.09490101
123	0x3e609c6c	0.2193467
124	0xbe6f049c	-0.23341602
125	0x3e723ef8	0.23656833
126	0x3ded62f8	0.115911424
127	0xbc37caa0	-0.011217743
128	0x3e2aa473	0.16664295
129	0x3cadebd0	0.021230608
130	0xbd1d2d2f	-0.03837317
131	0x3ddecee2	0.108793035
132	0xbe37a2f8	-0.17933261
133	0x3d418d48	0.047253877
134	0x3e75f7f4	0.24020368
135	0x3e1e328e	0.15448973
136	0xbd32773a	-0.043570735
137	0xbe305f67	-0.17223893
138	0xbe5ef4b3	-0.21773033
139	0x3d5d6436	0.054050647
140	0xbded549e	-0.11588405
141	0xbd81a000	-0.06329346
142	0xbe630c7c	-0.22172731
143	0x3d3d52e8	0.046221644
144	0x3d35afd0	0.04435712
145	0xbdbf3248	-0.09335762
146	0xbe263c68	-0.1623398
147	0xbe083808	-0.13302624
148	0x3d90f8f8	0.07078737
149	0x3e0744cc	0.13209838
150	0x3e5dee0f	0.21672843
151	0xbe3aab38	-0.18229377
152	0x3e46dd37	0.19420324
153	0x3e3b3ff7	0.1828612
154	0xbe62f294	-0.22162849
155	0x3d7888d8	0.06067738
156	0xbd8ff003	-0.070282005
157	0x3e729dda	0.23693028
158	0xbd6f86f8	-0.058478326
159	0xbe67bf82	-0.22631648
160	0xbd1bf923	-0.038079392
161	0x3dd8c490	0.10584366
162	0x3d5be086	0.05368092
163	0x3e326dd4	0.17424709
164	0x3e5425c4	0.20717531
165	0x3e34a632	0.17641523
166	0xbe47ec0b	-0.19523637
167	0xbda077bc	-0.078353375
168	0xbe6258db	-0.22104208
169	0xbe6cbce5	-0.23118933
170	0x3e6cc534	0.23122102
171	0xbe6c18c8	-0.23056328
172	0x3d65960c	0.0560513
173	0xba1e5c00	-0.0006040931
174	0x3d424540	0.047429323
175	0xbd0010b0	-0.031265914
176	0x3e23b254	0.15985996
177	0x3e601ef2	0.21886805
178	0x3dd63aa9	0.10460407
179	0xbe418b47	-0.18900786
180	0xbdcb886c	-0.0993813
181	0xbe72f6d8	-0.23726976
182	0xbd88f84a	-0.066879824
183	0xbd0fe990	-0.035134852
184	0xbc3da9d0	-0.011576131
185	0xbe2c8f8a	-0.16851631
186	0x3e4a1a4a	0.19736591
187	0x3cec452c	0.028841577
188	0x3decc48f	0.11560928
189	0x3cf962d0	0.030442625
190	0x3dc0d58c	0.09415731
191	0xbe2aced6	-0.16680464
192	0xbe3ffb42	-0.18748191
193	0xbd9f701c	-0.07785055
194	0xbe71c869	-0.23611607
195	0xbe6626bc	-0.22475713
196	0xbe4badc8	-0.19890511
197	0xbe5a327e	-0.21308324
198	0x3dee2bec	0.11629471
199	0xbcb64570	-0.022249907
200	0x3e096baf	0.13419984
201	0xbdc7ebd8	-0.097617805
202	0xbe13d250	-0.14435697
203	0xbe12cb00	-0.14335251
204	0x3d6f695d	0.05845009
205	0xbe1bf0bc	-0.15228552
206	0x3e6a3974	0.22873479
207	0x3e765e8e	0.24059507
208	0xbe593919	-0.21213187
209	0x3e736148	0.23767579
210	0xbe633155	-0.22186787
211	0xbdf9a451	-0.12189544
212	0x3e1385e4	0.14406544
213	0xbe7f92a4	-0.24958283
214	0xbcd30a36	-0.025761705
215	0xbd0b6358	-0.03403029
216	0x3e2677d0	0.16256642
217	0x3deaa3d2	0.114570275
218	0xbc4f992a	-0.0126707945
219	0xbd1b557a	-0.037923314
220	0x3d22e54c	0.039769456
221	0xbde6ffb0	-0.11279237
222	0x3e76f27e	0.24115941
223	0x3d78c2a0	0.060732484
224	0x3e0bd27f	0.13654517
225	0x3e24e6e4	0.16103703
226	0x3dad6e00	0.084682465
227	0x3d9632c6	0.07333903
228	0x3e6ef05c	0.23333877
229	0x3e1cad62	0.15300515
230	0xbe08773c	-0.13326734
231	0xbdbf9390	-0.09354317
232	0x3e1924e6	0.14955482
233	0x3cd59491	0.026071819
234	0xbe35c2e7	-0.1775013
235	0xbd414b69	-0.047191057
236	0xbe4c7545	-0.1996661
237	0x3e46fbd0	0.19431996
238	0x3e64e5a8	0.22353232
239	0xbd79c818	-0.06098184
240	0xbe44d615	-0.19222291
241	0x3d875ea8	0.06609851
242	0xbb873c3a	-0.0041270526
243	0xbe06306c	-0.13104409
244	0x3dc58b7c	0.09645745
245	0xbe010616	-0.12599978
246	0xbe0a6076	-0.1351336
247	0x3e79f80a	0.24411026
248	0x3e09c580	0.13454247
249	0xbe0d1dc3	-0.13780884
250	0x3b26c116	0.0025444678
251	0x3d4a3d1c	0.049374685
252	0xbbe0956c	-0.00685375
253	0x3d0a3da0	0.033750176
254	0xbe67062a	-0.22560945
255	0xbe1e6f7e	-0.15472218

bias f4 [32]
0	0x3e549b5a	0.20762387
1	0x3e6ad6d9	0.2293352
2	0x3e345832	0.17611769
3	0xbdd3b087	-0.10336404
4	0xbe7c5129	-0.24640335
5	0x3d6ec96a	0.058297552
6	0xbdd17bc3	-0.10228684
7	0xbe3eabd7	-0.18620239
8	0x3e31d521	0.17366458
9	0xbdfdf465	-0.1240013
10	0x3e6f3ef9	0.23363866
11	0x3e0211f7	0.12702166
12	0x3c269f95	0.010169883
13	0x3e25fd73	0.16209964
14	0xbe043dae	-0.12914154
15	0xbe18d912	-0.14926556
16	0xbd79314a	-0.06083802
17	0xbdbfe609	-0.093700476
18	0x3e4e3050	0.20135617
19	0xbd3e9829	-0.04653183
20	0xbbd699dc	-0.006549103
21	0x3e3a239c	0.18177646
22	0x3bc1c3d9	0.0059132394
23	0x3de188d9	0.1101243
24	0x3e0309e7	0.12796746
25	0xbe1cc0c2	-0.15307906
26	0xbe4f182f	-0.20224069
27	0x3e2a9043	0.16656594
28	0x3e1b90c7	0.15191947
29	0xbd16bfc2	-0.03680397
30	0xbc26fc50	-0.010191992
31	0x3d13c54b	0.036076825

weight f4 [16, 4]
0	0x3eae30fe	0.34021753
1	0xbde2d238	-0.11075252
2	0xbea4ac73	-0.32162818
3	0xbeb77bdc	-0.35836685
4	0x3d019270	0.031633794
5	0xbe9436a5	-0.2894794
6	0xbebff4a6	-0.3749134
7	0x3edceb4f	0.43148276
8	0xbec34014	-0.38134825
9	0xbec42024	-0.3830577
10	0xbe595414	-0.2122348
11	0xbedf4ab6	-0.43611687
12	0xbebd8218	-0.37013316
13	0xbe00225c	-0.12513107
14	0xbc77f840	-0.015134871
15	0x3db44d48	0.08803803
16	0xbece2b9a	-0.4026764
17	0xbe11efc0	-0.14251614
18	0x3d1a6f90	0.03770405
19	0xbec4d00e	-0.38439983
20	0xbed9d552	-0.42545563
21	0x3dccaa18	0.0999338
22	0x3e8469ea	0.25862056
23	0xbe726768	-0.23672259
24	0xbd51e660	-0.051245093
25	0x3da72e50	0.0816313
26	0xbe4720bc	-0.19446081
27	0xbec695ea	-0.3878625
28	0xbcda9f93	-0.026687419
29	0xbef1872c	-0.4717344
30	0x3d89398c	0.06700429
31	0xbd35385a	-0.044243194
32	0xbe927430	-0.2860427
33	0x3c823ec0	0.015899062
34	0x3d9c81a0	0.076419115
35	0x3e9c79f2	0.30561787
36	0x3cb81e0f	0.02247527
37	0xbe8b47f1	-0.27203324
38	0xbf0d494a	-0.55189955
39	0x3dd55dc2	0.104182735
40	0xbdc172c8	-0.09445721
41	0x3d4ef4e0	0.0505265
42	0xbefec40a	-0.4975894
43	0xbeaf7156	-0.34266156
44	0x3e871318	0.26381755
45	0xbeb00cda	-0.34384805
46	0xbd91dc01	-0.071220405
47	0xbd90ef76	-0.070769235
48	0xbd296a00	-0.041360855
49	0xba740800	-0.00093090534
50	0xbe7347c8	-0.23757851
51	0xbe814d92	-0.25254494
52	0xbdef9328	-0.1169799
53	0xbe98970a	-0.29802734
54	0xbeb429fe	-0.35188287
55	0xbe8df626	-0.2772686
56	0x3ec6a14b	0.38794932
57	0xbea7ef76	-0.32799882
58	0x3e290146	0.16504392
59	0xbdf5f13e	-0.12008904
60	0x3ef0f8a5	0.470647
61	0x3efb0c41	0.49032786
62	0x3ec702ef	0.38869426
63	0x3eb8f1a2	0.3612185

bias f4 [16]
0	0xbdd0d65a	-0.10197134
1	0x3e17f469	0.14839329
2	0xbee4c034	-0.4467789
3	0xbeb93f74	-0.36181223
4	0xbe1fcde4	-0.15605885
5	0xbec7d2b8	-0.39027953
6	0x3e5b2e18	0.21404302
7	0x3e1e1da6	0.15440997
8	0x3de727e0	0.112869024
9	0x3e80393a	0.2504366
10	0x3ec571e8	0.38563466
11	0xbe8f1793	-0.27947673
12	0xbedeaf26	-0.43493003
13	0x3e879032	0.264772
14	0xbea62cf2	-0.32456166
15	0x3e75b14e	0.23993418

weight f4 [16, 16]
0	0x3e7587f1	0.23977639
1	0x3e024fcf	0.12725757
2	0xbc9f7430	-0.019464582
3	0xbe0b9eae	-0.1363475
4	0xbda23dac	-0.07921919
5	0xbcce7f80	-0.025207281
6	0x3d6890f0	0.05677885
7	0xbd6474f6	-0.055775605
8	0xbc82c2f0	-0.015962094
9	0xbddd7e5f	-0.10815119
10	0xbe31fd72	-0.17381838
11	0xbd4c4187	-0.04986718
12	0xbe2bbb16	-0.16770586
13	0x3d280cc0	0.041027784
14	0x3d61763e	0.055044405
15	0x3e44bd22	0.19212773
16	0x3d022dc2	0.03178192
17	0xbdae92f7	-0.08524125
18	0xbe2dc704	-0.1697045
19	0x3b034500	0.002003014
20	0x3d8ac534	0.06775895
21	0xbd21c2f8	-0.039492577
22	0xb7a0c000	-1.9162893e-05
23	0x3d6cd7af	0.05782288
24	0x3e3e2022	0.18566945
25	0x3db9d9d7	0.09074753
26	0x3e4fd414	0.20295745
27	0xbe7f1fa9	-0.24914421
28	0xbe58f446	-0.21186933
29	0x3e345728	0.17611372
30	0x3e527a1e	0.20554397
31	0xbdd791fd	-0.10525892
32	0x3dc4c55c	0.09607956
33	0x3de410fc	0.11136052
34	0x3d9fb0d8	0.07797402
35	0xbe76817a	-0.24072829
36	0x3d513468	0.05107537
37	0xbe79ba34	-0.24387437
38	0xbda3a314	-0.07990089
39	0xbde82d04	-0.11336711
40	0xbe04e128	-0.12976515
41	0xbde23f04	-0.110471755
42	0x3dcd6144	0.100283176
43	0xbd188168	-0.037232786
44	0xbe32eb72	-0.17472628
45	0x3defea88	0.11714655
46	0x3b9c4a80	0.0047696233
47	0xbdbcdf00	-0.092222214
48	0x3e585f2b	0.21130054
49	0xbde05150	-0.10953009
50	0x3e08c450	0.13356137
51	0xbe687302	-0.22700122
52	0xbd93960c	-0.072063535
53	0x3e511c70	0.20421004
54	0xbe01adf4	-0.12664014
55	0xbe2f4e04	-0.17119604
56	0xbd9c789c	-0.07640192
57	0x3df2b230	0.11850393
58	0x3e368974	0.17825872
59	0xbda82656	-0.08210437
60	0xbe367eea	-0.17821851
61	0xbe715d8c	-0.23570842
62	0xbe0ae2f1	-0.13563134
63	0x3e132eee	0.14373371
64	0xbe086f58	-0.13323724
65	0x3de59e58	0.11211842
66	0xbe3d5ee6	-0.18493232
67	0xbe27694a	-0.16348758
68	0xbdb1a750	-0.086744905
69	0xbe7889e0	-0.24271345
70	0xbe2edad6	-0.17075667
71	0x3e785a58	0.24253213
72	0xbe438ae8	-0.19095957
73	0xbdce0278	-0.100590646
74	0xbdc1a2d0	-0.09454882
75	0x3d106d80	0.035260677
76	0x3e12a22e	0.14319679
77	0xbba7f380	-0.005125463
78	0x3ddb3b1c	0.107046336
79	0xbe26e23e	-0.16297242
80	0xbd760343	-0.060061704
81	0x3e2a0bbc	0.16606039
82	0xbdd7c504	-0.105356246
83	0xbe35f39c	-0.17768711
84	0xbd274d98	-0.040845484
85	0x3df79dd4	0.1209065
86	0xbd6f4f08	-0.05842498
87	0xbe371d10	-0.1788218
88	0x3e4d0b68	0.20023882
89	0x3d9dea7d	0.07710741
90	0x3db32e08	0.08749014
91	0x3d64da71	0.055872384
92	0xbc6f7f40	-0.014617741
93	0x3e210280	0.1572361
94	0x3da6c2f4	0.08142653
95	0x3e2c7349	0.16840853
96	0xbdf33bcb	-0.11876639
97	0x3dc2193c	0.09477469
98	0xbe05f174	-0.13080388
99	0x3cfc3150	0.030785233
100	0x3bafdb80	0.0053667426
101	0xbe236e92	-0.15960148
102	0xbc6248a0	-0.01381126
103	0x3e0ba51c	0.13637203
104	0xbe14e322	-0.1453977
105	0xbe657727	-0.22408734
106	0xbda19ac0	-0.07890844
107	0xbd74afea	-0.059738077
108	0x3d53e670	0.051733434
109	0xbe16362c	-0.14669102
110	0xbc4d8870	-0.012544736
111	0x3e1eb8bd	0.1550016
112	0xbe6531ee	-0.22382328
113	0x3e43a876	0.19107231
114	0xbc6fb520	-0.014630586
115	0x3e5ed1b0	0.21759677
116	0x3cc3dbd0	0.023908526
117	0x3c86dd10	0.016462833
118	0x3e7c2f00	0.24627304
119	0x3dc119f8	0.09428781
120	0x3e35ec64	0.17765957
121	0x3e2ab738	0.16671455
122	0x3e235d36	0.15953526
123	0x3c643c80	0.01393044
124	0xbd22f180	-0.039781094
125	0xbd6d1ce0	-0.057888865
126	0x3df925ec	0.12165436
127	0xbdcaaa58	-0.09895772
128	0xbe255813	-0.16146879
129	0xbde2eac8	-0.11079937
130	0x3bba8880	0.0056925416
131	0xbd69d5c8	-0.057088643
132	0xbe47c26c	-0.1950776
133	0x3d159e60	0.03652799
134	0xbd8c10d0	-0.06839144
135	0x3df1091f	0.11769318
136	0xbe7a283c	-0.2442941
137	0x3e0c40b8	0.13696563
138	0xbe17baf2	-0.14817408
139	0x3dbe14e6	0.0928133
140	0xbe7ff6aa	-0.24996439
141	0x3e631240	0.2217493
142	0xbe62a0e9	-0.22131695
143	0x3e23b084	0.15985304
144	0x3d02436a	0.031802572
145	0xbcd5aa14	-0.026082076
146	0x3d0133a8	0.031543404
147	0x3e2f8058	0.17138803
148	0x3d172930	0.036904514
149	0x3e15316a	0.14569631
150	0xbe0de412	-0.13856533
151	0x3e526527	0.20546399
152	0xbcc7f070	-0.024406642
153	0xbd8826eb	-0.06648048
154	0x3d0b9820	0.034080625
155	0x3e84f0b1	0.25964883
156	0x3dbaac3c	0.09114882
157	0xbd0e2910	-0.03470713
158	0x3e75261f	0.23940323
159	0xbdae9ca4	-0.085259706
160	0xbe28800a	-0.16455093
161	0xbe699526	-0.22810802
162	0xbdfb3a2c	-0.12266955
163	0xbe1ccea4	-0.15313202
164	0xbe094d9c	-0.13408512
165	0xbdb50d68	-0.08840448
166	0x3e31a520	0.17348146
167	0x3d8c11c4	0.06839326
168	0x3dbf917c	0.09353921
169	0x3e6e54f4	0.23274595
170	0x3d22a788	0.03971055
171	0x3dc0e2fc	0.09418294
172	0xbca561f0	-0.020188302
173	0x3db220d4	0.08697668
174	0xbdc7daec	-0.09758553
175	0xbd678f08	-0.05653289
176	0x3d969856	0.073532745
177	0xbd989c62	-0.07451703
178	0xbe683160	-0.22675085
179	0xbddc9934	-0.10771409
180	0xbcabbd20	-0.020964205
181	0x3e142ab8	0.14469421
182	0xbb911200	-0.0044271946
183	0x3e3fdc7d	0.18736453
184	0x3e29ced4	0.16582805
185	0xbe3ebcac	-0.1862666
186	0xbe2f4682	-0.1711674
187	0x3cb246a7	0.021762205
188	0x3de4f954	0.11180368
189	0x3e33dcba	0.17564669
190	0x3dd14728	0.1021865
191	0x3e7cdbac	0.24693173
192	0xbe8d43e2	-0.27590853
193	0xbe25d626	-0.16194972
194	0xbd5bc138	-0.053651065
195	0xbd1642b8	-0.03668472
196	0xbdb37958	-0.08763379
197	0x3d8ece80	0.069729805
198	0x3d070b60	0.032969832
199	0xbda1d7e5	-0.07902507
200	0x3e0f8bda	0.14018193
201	0xbd91f126	-0.071260735
202	0xbce703a0	-0.02819997
203	0x3e58885a	0.21145764
204	0x3db692a8	0.08914691
205	0xbdd6901c	-0.104767054
206	0x3dfc1edd	0.12310574
207	0x3d9abac1	0.07555152
208	0xbd862adc	-0.065511435
209	0xbc8270d2	-0.015922938
210	0x3e2a705e	0.16644427
211	0xbda39814	-0.07987991
212	0xbdeb2e9c	-0.114834994
213	0xbb086e80	-0.0020817816
214	0x3df75c2c	0.12078127
215	0x3e0be232	0.13660505
216	0xbdcbaae8	-0.09944707
217	0x3e516fff	0.2045288
218	0xbbf46340	-0.0074581206
219	0xbe3ee9b7	-0.18643843
220	0xbe11205c	-0.141725
221	0x3dc8bae8	0.098012745
222	0x3c62522b	0.013813536
223	0x3c91d026	0.017799448
224	0x3e76ea94	0.24112922
225	0x3cde3a50	0.027127415
226	0xbe023466	-0.12715301
227	0x3da6cb68	0.081442654
228	0x3e2152e6	0.1575428
229	0xbe46f808	-0.19430554
230	0xbde7f36c	-0.11325726
231	0xbd7039e0	-0.058648944
232	0x3d858f80	0.06521511
233	0xbd4c1d20	-0.049832463
234	0x3d64cac8	0.05585745
235	0xbe318622	-0.17336324
236	0x3e2a66a4	0.16640717
237	0xbdf76560	-0.120798826
238	0x3dd986a8	0.10621387
239	0xbe70a3be	-0.23499963
240	0xbe1824e0	-0.14857817
241	0xbe6291f7	-0.22125994
242	0x3e093f1e	0.13402984
243	0xbe731a16	-0.2374042
244	0x3e4e8fea	0.20172086
245	0x3db46578	0.08808416
246	0x3d9817d4	0.0742642
247	0x3e7a3f18	0.24438131
248	0xbdef986c	-0.11698994
249	0xbe0e407f	-0.13891791
250	0xbe437baa	-0.19090143
251	0xbd405063	-0.046951663
252	0x3e6399f4	0.22226697
253	0x3dcb657c	0.09931466
254	0xbdfadf08	-0.12249571
255	0x3dd65543	0.10465481

bias f4 [16]
0	0xbe003014	-0.1251834
1	0xbe8e0352	-0.27736908
2	0x3d55f570	0.05223602
3	0xbdfe1bbe	-0.12407635
4	0xbbfe9380	-0.007769048
5	0x3d9df4eb	0.0771273
6	0x3de86212	0.113468304
7	0xbd176ce8	-0.036969095
8	0xbdcf3619	-0.1011774
9	0xbe367c23	-0.17820792
10	0xbdeeb6c4	-0.116559535
11	0xbd669fdb	-0.056304794
12	0xbe426b8f	-0.18986343
13	0x3e1012eb	0.14069717
14	0x3e69ad36	0.22819981
15	0x3c4be26a	0.012444118

weight f4 [32, 16]
0	0xbe158eaf	-0.1460521
1	0xbe46346c	-0.19355935
2	0xbe10e54a	-0.14149967
3	0x3d71577e	0.05892133
4	0xbbd80200	-0.0065920353
5	0xbe7ff8dc	-0.24997276
6	0x3e49fb76	0.19724831
7	0xbdb97264	-0.090550214
8	0xbe7f570c	-0.2493555
9	0xbe6140c6	-0.21997365
10	0x3d19e7e0	0.03757465
11	0xbd775667	-0.060385134
12	0x3e2bee2f	0.16790079
13	0x3df934aa	0.12168248
14	0xbda77c3c	-0.08177993
15	0x3e4529a5	0.19254167
16	0xbccc13f4	-0.024911858
17	0x3d036ce0	0.032086253
18	0x3e71c4ca	0.23610225
19	0x3caf0eae	0.021369305
20	0xbdb44458	-0.08802098
21	0xbe1fec3b	-0.15617459
22	0xbe3f95e4	-0.18709522
23	0xbe1fa3ec	-0.15589875
24	0xbc87c72f	-0.01657447
25	0xbdd7101f	-0.10501122
26	0xbe5fa8ee	-0.21841785
27	0x3da527e9	0.08064253
28	0x3e346dbc	0.17619985
29	0xbe08f533	-0.13374786
30	0xbda81578	-0.0820722
31	0x3db660f5	0.08905212
32	0xbe3032de	-0.17206904
33	0xbdb07c35	-0.086174406
34	0xbd9d7118	-0.076875865
35	0x3e0fc89d	0.14041372
36	0xbe0aec9e	-0.13566825
37	0x3d6daa75	0.05802389
38	0xbd741d64	-0.05959834
39	0x3de0e27c	0.109806985
40	0xbe04806c	-0.12939614
41	0xbdd51fae	-0.10406433
42	0xbe7a6a56	-0.24454626
43	0x3e038cc6	0.1284667
44	0x3bb76a4c	0.0055973884
45	0x3de21b4b	0.11040362
46	0x3cdbdd30	0.026838869
47	0x3ceb8cf9	0.028753744
48	0xbbb63ccf	-0.005561448
49	0x3c4db991	0.0125564495
50	0x3e36914c	0.17828864
51	0xbde50eaa	-0.111844376
52	0x3d030a18	0.031992048
53	0xbe13c2c5	-0.14429767
54	0x3e35d11f	0.17755555
55	0x3de70860	0.11280894
56	0xbe2d14b9	-0.16902436
57	0x3dae7d1d	0.08519957
58	0x3e490ae0	0.19633055
59	0xbe3e5b2a	-0.18589464
60	0x3c8d152a	0.017222006
61	0x3de0498c	0.10951528
62	0xbe3bec44	-0.18351847
63	0xbe11e0dc	-0.14245933
64	0xbe1d537d	-0.1536388
65	0x3cd9dc0e	0.026594188
66	0xbd9aeda8	-0.075648606
67	0x3e6595fb	0.22420494
68	0xbdcf1ba4	-0.10112694
69	0x3cae12cc	0.021249197
70	0xbe236224	-0.15955406
71	0xbde22674	-0.110424906
72	0x3d9bf333	0.07614746
73	0x3e8b2ab1	0.27181008
74	0xbdda8280	-0.10669422
75	0x3e18cd08	0.14921963
76	0xbe021a5a	-0.12705365
77	0xbe2eb15d	-0.17059846
78	0x3dd623a4	0.10456017
79	0xbe3c4e9a	-0.18389359
80	0xbe38e256	-0.1805509
81	0x3dea8305	0.11450771
82	0x3b238000	0.002494812
83	0xbd5d694d	-0.0540555
84	0x3e5ecf20	0.217587
85	0x3e3f6b38	0.18693244
86	0xbcfb53b7	-0.030679567
87	0xbc80cc90	-0.015722543
88	0x3dddaff1	0.10824574
89	0xbc62eaf4	-0.0138499625
90	0x3daa2a80	0.083088875
91	0xbe742f7b	-0.23846237
92	0xbc4110b8	-0.011783771
93	0x3e884f5e	0.26623052
94	0xbd1f1eb0	-0.038847625
95	0x3d93a904	0.072099715
96	0x3e8e17bf	0.27752492
97	0x3e630635	0.22170337
98	0xbdefd598	-0.11710662
99	0xbdf30940	-0.11866999
100	0xbc84ff00	-0.016234875
101	0x3d8d7f9e	0.06909107
102	0x3e92bc6e	0.28659385
103	0x3dfe7dc4	0.12426332
104	0xbd287b7b	-0.041133385
105	0xbde870f1	-0.11349667
106	0x3e5be162	0.21472695
107	0x3d83613d	0.06415031
108	0x3e646506	0.22304162
109	0x3de977ad	0.113997795
110	0x3d3c2248	0.04593113
111	0x3e067887	0.13131915
112	0x3e84166e	0.25798362
113	0xbd97eed1	-0.074185975
114	0xbe404a68	-0.18778384
115	0x3d9c9166	0.0764492
116	0x3d47f828	0.048820645
117	0xbcc1d140	-0.023659348
118	0xbd67624e	-0.056490235
119	0xbd308c38	-0.043102473
120	0x3e0a7032	0.13519362
121	0x3d0085c5	0.031377573
122	0x3e78a74e	0.24282572
123	0x3d99d545	0.07511381
124	0xbdd1c528	-0.10242683
125	0x3dadc853	0.084854744
126	0x3e04281a	0.12905923
127	0xbdec4680	-0.11536884
128	0x3d909409	0.070594855
129	0xbe62f974	-0.22165471
130	0xbe7dc274	-0.24781209
131	0x3e769eb2	0.24083975
132	0x3e15c992	0.14627674
133	0xbe223569	-0.15840687
134	0x3df563f8	0.11981958
135	0x3d994d64	0.07485464
136	0x3e13c642	0.14431098
137	0x3e210465	0.15724333
138	0x3d8f3f50	0.06994498
139	0x3e724028	0.23657286
140	0xbe1c0c56	-0.15239081
141	0xbe1bc46d	-0.15211649
142	0xbe309b60	-0.17246771
143	0xbc8d9a25	-0.017285416
144	0xbddb214c	-0.1069971
145	0x3cf59731	0.02997932
146	0x3e4da2d2	0.20081642
147	0xbcb2401e	-0.02175909
148	0x3e2a8e8c	0.1665594
149	0xbcfc8ea5	-0.030829737
150	0xbcdde3b6	-0.02708612
151	0xbbb73700	-0.0055912733
152	0xbcd7591b	-0.026287606
153	0x3e3edc99	0.18638839
154	0x3df0e9cc	0.11763343
155	0xbde863f7	-0.11347192
156	0xbe36b523	-0.17842536
157	0x3dacd383	0.0843878
158	0x3d1997d8	0.037498325
159	0xbe358264	-0.17725521
160	0xbd3db2cb	-0.04631309
161	0xbdbb5326	-0.09146719
162	0x3dd3b8c4	0.103379756
163	0x3dfa4930	0.12220991
164	0x3e09521e	0.13410231
165	0xbe09a913	-0.13443403
166	0x3de241dd	0.11047719
167	0x3e5a27c0	0.21304226
168	0x3e7d7fa4	0.24755722
169	0x3e42e185	0.19031341
170	0x3e261500	0.16218948
171	0xbe84b813	-0.25921687
172	0x3c4ba01a	0.012428308
173	0xbe3a3d48	-0.1818744
174	0xbe4c842a	-0.19972292
175	0x3e0210fd	0.12701793
176	0xbe6154e5	-0.22005041
177	0x3e5e2033	0.2169197
178	0xbe533adc	-0.20627922
179	0xbddd8dfc	-0.10818097
180	0x3e5d6012	0.21618679
181	0xbd100825	-0.035164017
182	0x3df15c9d	0.11785243
183	0xbe1f278a	-0.15542427
184	0x3d29eb8d	0.041484404
185	0xbcde0d5f	-0.027105985
186	0xbe3fb08c	-0.18719691
187	0x3e6d7618	0.2318958
188	0xbc2d5201	-0.010578633
189	0xbd633694	-0.05547197
190	0xbe4dd4f6	-0.2010077
191	0x3a6267b2	0.00086366676
192	0xbd6678ed	-0.056267668
193	0x3df4084c	0.11915645
194	0xbdcc4984	-0.099749595
195	0xbd0a4bf6	-0.03376385
196	0xbdfe0f74	-0.12405291
197	0xbe0b7066	-0.13617095
198	0x3cc178da	0.023617197
199	0xbe7c897c	-0.24661821
200	0x3e2f8132	0.17139128
201	0x3e3aab40	0.18229389
202	0x3e38bf06	0.1804162
203	0x3e4a81c8	0.1977607
204	0xbe767d82	-0.24071315
205	0x3e0f9c1b	0.14024393
206	0x3e365c5c	0.1780867
207	0xbe220d94	-0.15825492
208	0xbe2f5d40	-0.17125416
209	0x3e6e8964	0.23294598
210	0x3d5e49a8	0.054269463
211	0x3d86b65a	0.065777496
212	0xbe59bb72	-0.21262911
213	0xbdb3364b	-0.0875059
214	0xbdbc17a3	-0.09184196
215	0xbe1a15d2	-0.15047386
216	0xbddb2b61	-0.10701633
217	0x3d8a270d	0.067457296
218	0x3d22e708	0.03977111
219	0xbdc39b82	-0.09551145
220	0xbdf4c6e9	-0.119520016
221	0xbe1c36b5	-0.15255244
222	0xbe323376	-0.17402443
223	0xbd85d35e	-0.06534456
224	0xbd5436c2	-0.051810034
225	0x3e7079e9	0.23484005
226	0xbd84f14c	-0.06491336
227	0x3df3db40	0.11907053
228	0x3dc04104	0.09387401
229	0xbe67cf7e	-0.22637746
230	0xbe534065	-0.20630033
231	0x3d505808	0.050865203
232	0xbe03fa14	-0.12888366
233	0xbd8e96f5	-0.069623865
234	0xbdc6700c	-0.0968934
235	0xbe3fdb85	-0.18736084
236	0xbe7ebd6c	-0.24876946
237	0xbe273505	-0.16328819
238	0x3e1effe8	0.15527308
239	0xbe932f0c	-0.2874683
240	0xbdce0e17	-0.10061281
241	0x3e13c9d5	0.14432462
242	0x3e4d29ae	0.20035431
243	0x3e6501c5	0.22363956
244	0xbdabb518	-0.0838415
245	0xbe2121c4	-0.15735537
246	0x3d153ed7	0.036436882
247	0xbe31c3b0	-0.17359805
248	0xbe86f7a2	-0.26360804
249	0xbb750492	-0.0037386757
250	0x3dc2fe30	0.09521139
251	0xbddaef0b	-0.10690125
252	0x3dacfa7f	0.08446216
253	0x3dfe215f	0.12408709
254	0xbe6ea570	-0.23305297
255	0x3d2d189f	0.04225981

bias f4 [32]
0	0x3d8f49b3	0.06996479
1	0x3b2abe30	0.0026053302
2	0x3e5369de	0.20645854
3	0x3e6af8d7	0.22946487
4	0x3cedb25b	0.02901571
5	0xbe7581d2	-0.23975304
6	0x3d926ed6	0.071500465
7	0x3daacfeb	0.083404385
8	0x3dbbb4e5	0.09165362
9	0x3da10aa6	0.07863359
10	0xbe2ff602	-0.17183688
11	0xbe089367	-0.1333748
12	0x3e6da3c8	0.23207009
13	0xbe8d2331	-0.2756591
14	0xbdc18d94	-0.09450832
15	0xbd317988	-0.04332879
16	0x3e4f9a8f	0.20273803
17	0x3e22ecc5	0.15910633
18	0x3e1964cc	0.14979857
19	0xbe2c50ba	-0.1682767
20	0xbcef9fe7	-0.029251052
21	0x3e315cc2	0.1732054
22	0xbdf0dee1	-0.11761261
23	0x3d9dc362	0.07703282
24	0x3d41eec5	0.04734685
25	0x3e122c73	0.14274769
26	0xbe20a7bc	-0.15688986
27	0x3ca199c1	0.019726636
28	0xbbb8d561	-0.005640671
29	0xbd61c249	-0.055116925
30	0xbe73de86	-0.23815355
31	0x3c399ccf	0.01132889

weight f4 [16, 2]
0	0x3e83689e	0.25665754
1	0x3e9886b2	0.29790264
2	0xbf2d9bd2	-0.6781589
3	0x3dd669c0	0.10469389
4	0xbda5b0e0	-0.08090377
5	0x3d38ca20	0.045114636
6	0x3e09c61c	0.13454479
7	0x3e6a468c	0.22878474
8	0xbee87eec	-0.45409334
9	0x3f27ae23	0.65500087
10	0xbe12b5b4	-0.14327127
11	0x3e26243c	0.1622476
12	0xbeb5ad24	-0.35483658
13	0x3f25bf85	0.6474536
14	0x3f17e14d	0.59328157
15	0x3f2b01cd	0.6679962
16	0x3f175cd3	0.59126014
17	0xbe042590	-0.12904954
18	0xbf11363d	-0.56723386
19	0xbebe714f	-0.37195823
20	0xbf2d5f7f	-0.6772384
21	0x3e827f68	0.25487828
22	0xbe103d44	-0.14085871
23	0x3e422908	0.18960965
24	0xbf22b0b0	-0.63550854
25	0x3eab5a06	0.3346712
26	0xbece4a07	-0.40290853
27	0x3e495bb0	0.19663882
28	0xbaf1e200	-0.0018454194
29	0xbe85f85c	-0.26166046
30	0xbf30eb76	-0.69109285
31	0xbf0f4502	-0.5596467

bias f4 [16]
0	0x3edf6cc2	0.43637663
1	0xbdd15688	-0.10221583
2	0x3f0490dd	0.51783544
3	0xbf192ddc	-0.598356
4	0x3ec935f6	0.3929898
5	0xbf283d32	-0.65718377
6	0x3f1bfe59	0.6093498
7	0x3ea0abd2	0.31381088
8	0x3f0a710d	0.5407875
9	0xbf2dd21c	-0.67898726
10	0x3db98818	0.09059161
11	0x3e83ac12	0.25717217
12	0xbf118a88	-0.56852007
13	0x3e817b24	0.2528926
14	0x3e93f0c8	0.2889464
15	0x3f2be957	0.67152923
