logs/测试学习率策略对训练准确度与稳定性的影响/model.lr=0.005scheduler.MultiStepLR.milestones=[10, 20, 30]scheduler.MultiStepLR.gamma=0.1/test_model_20250419_161415.pth (torch, 193285 bytes, 32 tensors)

weight f4 [128, 1]
-0.7843187 -0.35044086 -0.0070892936 -0.3070112 -0.8834055 0.39019465 -0.8931109 -0.2096893
0.40125704 0.28418675 -0.58090436 -0.6543664 -0.843015 0.7988293 0.552154 -0.39618284
-0.3242928 0.044762492 -0.52157795 -0.932211 -0.16048373 -0.8955031 -0.7879241 0.26223302
-0.03520119 -0.42148578 0.11276541 0.43562305 -0.99828136 0.62747526 0.4479548 0.4734314
0.62079644 0.19979392 -0.3684789 -0.29667506 -1.0397329 0.957495 0.13626806 0.064866066
0.41045833 -0.3575175 -0.82328176 0.90515375 0.18114257 -0.5646899 -0.023546457 -0.22482347
0.47333598 0.24030375 -0.91521156 -0.1433655 0.060174223 -0.4589758 0.8913307 0.40057343
0.7024014 -0.13372152 -0.68853307 -0.74016815 -0.12615299 -0.3200476 -0.7114073 0.37399736
0.83341885 -0.7765134 0.63919586 -0.6980566 -1.0310885 0.99799025 0.6473639 0.0004028421
0.637015 0.47351766 -0.91006625 -0.7278099 -0.53230363 -0.50742435 -0.16423988 0.20621872
-0.92286307 0.022887224 0.9318787 -0.8892913 0.09922203 0.24571536 -0.65832084 0.7667748
0.51542693 -0.7485199 0.99360496 0.22139148 -0.76649624 0.47185636 0.7787514 0.4070563
0.03874244 0.81447834 -0.54269356 -0.45918116 0.7645711 0.22453228 0.9237736 -0.6472221
-0.41779372 -0.48564348 -0.7660121 0.5293484 0.94937396 0.2875166 -0.16205335 0.35429335
0.13451593 0.0112730265 0.19600858 0.23457706 0.90309393 0.22869992 0.6744619 0.609246
0.30976182 -0.6285316 0.052363873 -0.8494467 -0.9036789 -0.84213907 -0.21921867 0.26696813
00000000: 1cc9 48bf fc6c b3be 4e4d e8bb 9230 9dbe
00000010: dd26 62bf 98c7 c73e eaa2 64bf cbb8 56be
00000020: 9071 cd3e ed80 913e 26b6 14bf 8e84 27bf
00000030: d5cf 57bf 1480 4c3f f759 0d3f 7ad8 cabe
00000040: b509 a6be e058 373d 2286 05bf 61a5 6ebf
00000050: d955 24be b13f 65bf 65b5 49bf 6843 863e
00000060: 1f2f 10bd fccc d7be 8df1 e63d fc09 df3e
00000070: 5e8f 7fbf 38a2 203f 555a e53e 9a65 f23e
00000080: 84ec 1e3f c796 4c3e 44a9 bcbe cbe5 97be
00000090: f815 85bf 641e 753f db89 0b3e 80d8 843d
000000a0: 9827 d23e 890c b7be 98c2 52bf 28b8 673f
000000b0: 707d 393e 848f 10bf 80e4 c0bc 2038 66be
000000c0: 1859 f23e 3012 763e 4e4b 6abf 68ce 12be
000000d0: 3f79 763d e0fe eabe 402e 643f f617 cd3e
000000e0: 94d0 333f 4bee 08be b443 30bf a97b 3dbf
000000f0: 402e 01be 47dd a3be ca1e 36bf 957c bf3e
00000100: f05a 553f 95c9 46bf 57a2 233f d6b3 32bf
00000110: b5fa 83bf 4a7c 7f3f a4b9 253f 8d34 d339
00000120: 6a13 233f e870 f23e 1afa 68bf c051 3abf
00000130: 0d45 08bf 90e6 01bf 802e 28be 002b 533e
00000140: c140 6cbf fd7d bb3c 9a8f 6e3f 98a8 63bf
00000150: eb34 cb3d cf9c 7b3e b787 28bf 5a4b 443f
00000160: 05f3 033f 009f 3fbf e55c 7e3f 73b4 623e
00000170: 1939 44bf 2897 f13e 405c 473f af69 d03e
00000180: 65b0 1e3d a781 503f f7ed 0abf cb19 ebbe
00000190: eeba 433f caeb 653e 6d7c 6c3f 59b0 25bf
000001a0: 0fe9 d5be 43a6 f8be 5e19 44bf 6083 073f
000001b0: 2c0a 733f 6035 933e 50f1 25be f065 b53e
000001c0: 8bbe 093e 80b2 383c 79b6 483e f834 703e
000001d0: 2a31 673f 5030 6a3e 89a9 2c3f 8cf7 1b3f
000001e0: 1a99 9e3e 72e7 20bf 807b 563d 5775 59bf
000001f0: 8057 67bf 6d96 57bf dc7a 60be 0cb0 883e

bias f4 [128]
-0.19530514 0.35669592 0.23638734 -0.052633204 -0.7742234 -0.45536387 -0.07294408 0.12746492
0.73510706 0.75178134 0.6921564 -0.15993027 -0.44427353 0.57471555 0.25183594 0.8426697
0.05776615 -0.14372063 -0.73223925 1.01032 0.56408536 -0.49450842 0.5571792 -0.33004797
0.60680246 -0.6468195 0.33800983 -0.79651916 -0.62945044 0.8879308 -0.16960451 0.9585753
-0.6327541 -0.097484134 0.4998723 1.0237241 -0.44985762 -0.8807987 0.6470878 -0.7239363
-0.8785181 0.4502123 -0.504509 -0.0012061752 -0.4814433 -0.70933115 -0.9971496 0.28741613
-0.65437126 -0.8828347 -0.9060068 -0.78450894 0.52372915 0.4670219 0.35098925 0.63175225
0.2262747 0.64844733 0.73467475 0.48229527 -0.6816201 -0.19756874 -0.4499885 0.78967613
-0.5100135 0.5068358 0.513348 -0.52701306 -0.4360502 -0.09808468 -0.20451666 0.52823544
-0.08976109 -0.36967045 0.6082194 0.03894278 0.10894772 -0.38978547 -0.2207874 -0.57150865
0.086685285 0.00989638 -0.71439636 0.5096621 0.7053201 0.24835956 0.23923126 0.97334445
1.0427818 -0.81417143 0.97583807 0.15294527 -0.24493042 0.41544747 0.51078993 0.9062954
0.5733846 0.6176878 1.0060166 0.71950036 -0.7292218 -0.1307228 -0.5673635 0.3171753
-0.047178045 1.0050794 -0.99899733 -0.9457059 0.37227413 -0.97712266 -0.5142349 -0.6945747
0.99186873 -0.9386183 0.5487987 -0.91037405 0.8145698 -0.8056867 -0.41278082 0.7336445
0.9788957 -0.5878813 -0.5217062 0.8020779 -0.8465563 0.68210477 0.20495836 -0.54648805
00000000: 12fe 47be d9a0 b63e 860f 723e ea95 57bd
00000010: 8133 46bf 7425 e9be b563 95bd 2a86 023e
00000020: fa2f 3c3f be74 403f 2931 313f c3c4 23be
00000030: d277 e3be 8f20 133f a4f0 803e 34b9 573f
00000040: 339c 6c3d 802b 13be 0874 3bbf 2a52 813f
00000050: e667 103f 3530 fdbe 4ca3 0e3f 0cfc a8be
00000060: 6857 1b3f f695 25bf a00f ad3e aee8 4bbf
00000070: aa23 21bf 6f4f 633f ceac 2dbe 3165 753f
00000080: 2cfc 21bf c3a5 c7bd 43ef ff3e 6409 833f
00000090: bd53 e6be 067c 61bf 8ca7 253f e453 39bf
000000a0: 90e6 60bf 3a82 e63e 8027 01bf 8618 9eba
000000b0: bc7f f6be ba96 35bf 3245 7fbf 3528 933e
000000c0: e084 27bf 7401 62bf 10f0 67bf 94d5 48bf
000000d0: 1d13 063f 7f1d ef3e ddb4 b33e 84ba 213f
000000e0: 8eb4 673e a500 263f a513 3c3f 68ef f63e
000000f0: a87e 2ebf 764f 4abe e564 e6be 3728 4a3f
00000100: 3f90 02bf febf 013f c66a 033f 54ea 06bf
00000110: f941 dfbe 9fe0 c8bd d16c 51be 703a 073f
00000120: aad4 b7bd 7245 bdbe 44b4 1b3f 7782 1f3d
00000130: fb1f df3d f691 c7be 1816 62be 644e 12bf
00000140: 0e88 b13d 6d24 223c aee2 36bf 3779 023f
00000150: dc8f 343f f851 7e3e 0af9 743e 1a2d 793f
00000160: e079 853f 8a6d 50bf 86d0 793f af9d 1c3e
00000170: 0acf 7abe 88b5 d43e 21c3 023f fa02 683f
00000180: 55c9 123f ca20 1e3f 27c5 803f 2d31 383f
00000190: 48ae 3abf 33dc 05be bc3e 11bf cd64 a23e
000001a0: c43d 41bd 71a6 803f 4abe 7fbf c819 72bf
000001b0: b79a be3e b624 7abf e6a4 03bf a6cf 31bf
000001c0: 1ceb 7d3f 4a49 70bf 127e 0c3f 460e 69bf
000001d0: a587 503f 7c41 4ebf 0258 d3be 20d0 3b3f
000001e0: e998 7a3f 647f 16bf 8a8e 05bf fa54 4d3f
000001f0: eab7 58bf 6b9e 2e3f 9be0 513e a4e6 0bbf

weight f4 [8, 128]
-0.003047632 -0.011103737 -0.05829968 0.06125201 -0.016364219 0.059343643 0.06585269 -0.007162695
-0.050568104 -0.014188616 0.11192634 0.011342093 -0.034567505 -0.018898692 0.061560266 -0.04438149
0.09204489 0.05895952 0.06419868 0.09102403 0.010034323 -0.032971803 0.06984708 0.016237319
-0.005175546 -0.04971108 0.086485825 0.07499833 0.040643983 0.026384238 0.092922114 0.08719716
-0.07613281 -0.06167195 0.041526128 0.06417464 0.0022187429 0.09826994 0.066904515 -0.08810955
0.042512946 -0.046516694 -0.017843533 -0.026679091 -0.0362043 0.032767415 0.05591937 0.107281424
-0.054215502 -0.08427487 0.007773056 0.022305258 0.08527225 0.011001012 0.053214934 -0.0053487113
0.08438612 -0.0025127002 -0.013154227 0.103181615 0.05330009 0.035620287 0.072047 0.06888031
0.007904454 -0.006561967 0.038753115 0.117428586 -0.03302905 -0.01640777 0.089849144 -0.05038534
0.06283625 0.017864807 -0.0008763916 -0.0359585 0.068038724 0.06513932 0.030811578 -0.028402127
0.039248437 -0.04280478 -0.0063315257 0.07363477 0.068938464 0.010194582 -0.03967921 0.03442258
0.05993735 0.07726275 -0.04554822 0.08239812 0.061212044 0.06759045 0.060304597 0.0077388734
-0.058758657 0.03578114 0.0387802 -0.05652475 0.032969296 0.018809665 0.014834636 0.11538556
-0.032632824 0.03540038 0.056060098 0.015102446 0.031406846 -0.027011588 -0.0024367645 -0.020452678
0.0066822227 -0.080314144 -0.025381485 -0.038322527 0.076321185 -0.016772024 -0.013847484 0.087629005
0.100788504 0.046997786 -0.06133385 -0.04101821 -0.019074636 0.101212054 0.049720675 0.07257887
0.0813935 0.06914178 -0.020287411 0.071821116 -0.037340153 -0.07506936 0.013415697 0.08638284
0.023859737 0.029983869 0.12138708 -0.016074834 -0.025484227 0.10070767 0.10066554 0.10946239
0.010557741 -0.04627019 0.03320454 -0.025256949 0.021496281 0.057294603 0.015838368 -0.052605715
0.06476337 -0.053284932 -0.026891097 -0.021434657 0.11011009 0.12750518 0.027352333 -0.033628967
0.038384415 0.04397548 0.11385652 0.12567076 0.09077935 0.00011014938 -0.03391048 -0.02920115
-0.029413704 0.09590977 -0.014024375 -0.07964379 -0.02368994 -0.06315994 0.08796466 -0.031064574
-0.06472586 0.04924447 -0.048620563 -0.06454778 0.043871578 0.012787344 0.0610922 0.11481997
-0.01786087 0.037780695 0.0941464 -0.03286788 -0.052160263 -0.05382312 0.050579246 0.1029921
-0.057517096 0.0003557549 0.0055565313 -0.05428202 0.12022098 -0.02271542 -0.030335542 -0.030665673
0.062967755 0.06597107 0.10354328 0.033900432 0.03178176 0.076574765 0.077619545 0.03665138
0.053139813 0.032641597 0.08208511 0.097706944 0.057651855 -0.016278546 0.04314262 0.118029654
0.10201216 -0.015346423 -0.03790259 0.053486113 0.05587698 0.048947442 0.08203623 0.026748544
-0.038633663 -0.03142299 0.05670033 0.05381478 -0.018115938 0.073486306 -0.02986024 0.062555075
0.098153986 0.13177964 -0.08690527 -0.06661516 0.05118051 -0.016217962 -0.03172899 -0.024278693
0.07680012 0.005231343 0.11135337 0.04376767 0.12056208 0.041145884 0.011621594 0.030381357
-0.0031179038 -0.043282952 -0.060838986 0.106769525 -0.027726263 0.022268977 0.053286966 0.022652127
00000000: c8ba 47bb 73ec 35bc a5cb 6ebd 63e3 7a3d
00000010: 410e 86bc 5212 733d c6dd 863d 0ab5 eabb
00000020: 8020 4fbd 5e77 68bc a339 e53d 30d4 393c
00000030: a896 0dbd 6ed1 9abc 9e26 7c3d 5ec9 35bd
00000040: 0882 bc3d 8a7f 713d 997a 833d cf6a ba3d
00000050: 0067 243c 710d 07bd fc0b 8f3d 2004 853c
00000060: a097 a9bb d89d 4bbd 7b1f b13d b998 993d
00000070: 4e7a 263d c223 d83c f34d be3d 6d94 b23d
00000080: 85eb 9bbd ba9b 7cbd 4d17 2a3d fe6d 833d
00000090: 5468 113b c041 c93d 3c05 893d c872 b4bd
000000a0: 0e22 2e3d 4a88 3ebd 9a2c 92bc 1c8e dabc
000000b0: f64a 14bd 2037 063d b60b 653d 5db6 db3d
000000c0: 1311 5ebd 4e98 acbd 1fb5 fe3b 84b9 b63c
000000d0: 38a3 ae3d 973d 343c e7f7 593d 3e44 afbb
000000e0: a1d2 ac3d 1dac 24bb d484 57bc e250 d33d
000000f0: 3251 5a3d 94e6 113d 618d 933d 1f11 8d3d
00000100: af81 013c c505 d7bb 96bb 1e3d 667e f03d
00000110: 7849 07bd 9669 86bc d402 b83d dc60 4ebd
00000120: 4bb0 803d 3759 923c a5bd 65ba 3849 13bd
00000130: e357 8b3d c467 853d 9068 fc3c 94ab e8bc
00000140: f8c2 203d 1154 2fbd b078 cfbb d4cd 963d
00000150: 9c2f 8d3d 2d07 273c ab86 22bd b1fe 0c3d
00000160: de80 753d ef3b 9e3d c590 3abd 58c0 a83d
00000170: 7bb9 7a3d dd6c 8a3d f401 773d 6096 fd3b
00000180: ebac 70bd 3f8f 123d fdd7 1e3d 7f86 67bd
00000190: d00a 073d ba16 9a3c f90c 733c 444f ec3d
000001a0: ffa9 05bd fdff 103d 469f 653d 4070 773c
000001b0: 77a4 003d 6847 ddbc 20b2 1fbb 608c a7bc
000001c0: 8cf6 da3b be7b a4bd d5ec cfbc 15f8 1cbd
000001d0: 484e 9c3d 7c65 89bc 8fe0 62bc d676 b33d
000001e0: 346a ce3d c080 403d 3439 7bbd b602 28bd
000001f0: 6942 9cbc 4448 cf3d e8a7 4b3d 3ba4 943d
00000200: a3b1 a63d 359a 8d3d c931 a6bc f316 933d
00000210: fdf1 18bd f7bd 99bd 83cd 5b3c 7de9 b03d
00000220: 7f75 c33c bba0 f53c ca99 f83d 5faf 83bc
00000230: 4cc4 d0bc d33f ce3d bc29 ce3d d12d e03d
00000240: 60fa 2c3c d085 3dbd 7c01 083d a9e7 cebc
00000250: f818 b03c bfad 6a3d 77bf 813c 1779 57bd
00000260: a8a2 843d 4d41 5abd b84a dcbc bc97 afbc
00000270: 6681 e13d b890 023e 0012 e03c 87be 09bd
00000280: fa38 1d3d a21f 343d 9b2d e93d d6af 003e
00000290: 86ea b93d 0000 e738 b7e5 0abd 4037 efbc
000002a0: 02f5 f0bc 576c c43d 7ec6 65bc 491c a3bd
000002b0: 6811 c2bc 005a 81bd d126 b43d 227b febc
000002c0: fe8e 84bd 92b4 493d 5b26 47bd a031 84bd
000002d0: afb2 333d 0282 513c d13b 7a3d bc26 eb3d
000002e0: f650 92bc eebf 1a3d d4cf c03d 78a0 06bd
000002f0: 00a6 55bd a275 5cbd 2f2c 4f3d 86ed d23d
00000300: 0c97 6bbd 9d84 ba39 9013 b63b d356 5ebd
00000310: 6b36 f63d b015 babc 3e82 f8bc 9436 fbbc
00000320: 3df5 803d d71b 873d 800e d43d 2edb 0a3d
00000330: 972d 023d 3bd3 9c3d fff6 9e3d c21f 163d
00000340: 22a9 593d 32b3 053d 3d1c a83d 941a c83d
00000350: 5a24 6c3d 965a 85bc 51b6 303d 88b9 f13d
00000360: c0eb d03d 906f 7bbc bf3f 1bbd 4114 5b3d
00000370: 43df 643d 1d7d 483d 9c02 a83d c31f db3c
00000380: 553e 1ebd 65b5 00bd 9b3e 683d e36c 5c3d
00000390: e067 94bc fd7f 963d 769d f4bc e01c 803d
000003a0: f504 c93d 3ef1 063e 64fb b1bd 876d 88bd
000003b0: a8a2 513d 88db 84bc 42f6 01bd 1ce4 c6bc
000003c0: 6249 9d3d b06b ab3b 3c0d e43d ba45 333d
000003d0: 40e9 f63d 9688 283d 8068 3e3c 53e2 f83c
000003e0: bf55 4cbb 7749 31bd 4d32 79bd fba9 da3d
000003f0: 3022 e3bc 6e6d b63c 6f43 5a3d f490 b93c

bias f4 [8]
-0.006688637 -0.040134482 -0.014695539 -0.08639172 -0.050316762 -0.009086701 0.09938543 -0.051651444
00000000: 5b2c dbbb 0e64 24bd 8fc5 70bc 24ee b0bd
00000010: f318 4ebd 63e0 14bc 978a cb3d 7790 53bd

weight f4 [16, 2]
-0.021671236 0.6825729 0.11417493 -0.05596132 -0.103836834 -0.44692677 -0.4894033 -0.61097336
0.59760207 -0.5072392 -0.5063195 0.5405481 0.016392754 -0.26580822 0.489723 0.6427924
0.4174168 0.22137097 0.12120485 -0.36982745 0.31517178 -0.47771114 -0.46651065 -0.4547466
0.3391582 -0.02939795 0.37852997 0.5878649 -0.09878683 -0.3528928 0.6838122 -0.0037199943
00000000: e087 b1bc 19bd 2e3f 8cd4 e93d b237 65bd
00000010: 68a8 d4bd 96d3 e4be 1293 fabe c068 1cbf
00000020: 73fc 183f 6eda 01bf 289e 01bf 5c61 0a3f
00000030: 194a 863c 0418 88be f9bc fa3e 0b8e 243f
00000040: a8b7 d53e 12af 623e 403a f83d 065a bdbe
00000050: 325e a13e 8e96 f4be 7cda eebe 8cd4 e8be
00000060: 25a6 ad3e f8d3 f0bc aece c13e 507e 163f
00000070: c050 cabd 5dae b4be 510e 2f3f 26cb 73bb

bias f4 [16]
0.2522642 0.4493655 0.48065752 0.3991832 0.038523674 -0.10900816 0.54078853 0.41814384
0.43814555 -0.68387383 -0.24231486 0.32696325 -0.06279717 0.10179078 -0.6425614 -0.16970816
00000000: c628 813e 3c13 e63e be18 f63e be61 cc3e
00000010: 00cb 1d3d ac3f dfbd 1e71 0a3f f316 d63e
00000020: 9d54 e03e 5b12 2fbf 6321 78be ba67 a73e
00000030: cd9b 80bd af77 d03d e77e 24bf fac7 2dbe

weight f4 [16, 16]
-0.27848947 0.01588977 -0.014589667 0.15221035 0.18454716 -0.17367652 -0.030238327 0.21180393
0.029034508 -0.107479185 0.10040702 -0.20703873 -0.26018754 -0.078460746 -0.044225037 -0.1666204
0.2656496 -0.10060163 -0.026758403 0.19665489 0.09414611 0.1307935 -0.16448045 0.10954459
0.16129068 -0.15827411 -0.20023787 0.047849536 0.07325341 -0.0967477 0.2289648 0.1251982
-0.19365144 -0.019552797 -0.03530684 0.11689216 -0.13933605 0.07477322 0.24802524 -0.17269185
0.0071483254 0.21793014 -0.12926915 -0.2449114 0.012226075 -0.053806186 0.0952543 0.24881855
0.053064015 0.046409674 0.138886 0.20367089 0.21024717 -0.024196867 -0.20262523 0.20422064
-0.08628733 0.10514276 0.0025183705 0.12586772 -0.0735381 0.2765856 0.09177616 -0.07697246
0.18594155 0.22983025 -0.15631738 -0.07930502 0.27939317 -0.26827186 0.03503472 0.0042924243
-0.044515084 -0.18512048 0.0950957 0.08370867 0.12063663 0.040783405 0.10550487 0.061824284
-0.17427814 -0.19759206 0.025188863 0.15447965 0.16083047 -0.2328212 0.11972885 -0.035893545
-0.07763556 0.117221445 -0.061248776 0.0625774 0.1545341 0.050147858 -0.23766854 0.06705419
0.26664367 0.2594717 0.14000624 0.18809998 0.0189014 0.030090215 -0.14843166 -0.17406286
-0.10895558 0.19824463 -0.008592499 0.16267964 0.028812928 0.2678577 -0.13434306 0.055310197
-0.10616943 0.15668836 0.20512414 0.10496098 0.034001768 0.031553328 -0.054725856 -0.24136674
-0.0821771 0.11804956 0.1998308 0.22981039 -0.22012386 0.18810153 -0.06536451 -0.11566183
-0.035398208 0.14156646 0.20824468 -0.18833596 -0.1978132 -0.05957055 0.21088262 -0.11045802
0.06868729 -0.22470629 -0.14195457 -0.17069098 0.047383755 -0.15547001 -0.16223189 0.17864756
-0.11566302 -0.22247669 0.13846514 -0.1811822 -0.07683995 -0.1726014 0.091851294 -0.2388086
0.07970944 -0.0008972883 -0.21988356 0.20852289 -0.16176483 -0.07608074 -0.19298676 0.16251555
0.13294251 -0.0785723 -0.08625063 0.0328407 -0.18036702 -0.17214891 0.006378144 -0.20900634
0.11212404 0.18525931 0.08631298 0.028291613 -0.012092714 0.15623781 0.13857472 -0.15908507
0.12611538 -0.17802253 -0.16065651 -0.008057237 -0.23499364 0.13375835 -0.15951493 -0.12374337
-0.043939687 -0.19995111 0.095035106 -0.038202465 0.19654725 0.056506023 -0.1760807 -0.13351564
0.009149045 -0.10063261 0.22619066 -0.15522414 0.115386724 -0.23603937 -0.054045588 -0.13010901
-0.21071312 -0.19258168 -0.22709325 -0.24938369 0.019825667 -0.2216911 -0.10886502 0.13699159
0.027721956 0.0026352108 0.13754794 -0.20220125 -0.13530457 0.17832017 0.1931484 0.114769906
-0.27096626 -0.07648057 -0.06147468 -0.152372 -0.04759991 -0.26960385 0.070069194 0.045820292
-0.032405853 -0.1987963 0.08172345 0.01188767 0.114320576 -0.14553401 -0.20159775 -0.050127685
-0.23183638 0.14139259 0.19930628 -0.043830782 0.053076327 -0.1579594 -0.10594392 -0.07036123
0.022075059 0.20850006 0.16625443 0.20368025 0.119754545 0.110769525 0.077770606 -0.13168707
0.14179674 0.05576233 0.21960156 0.15422517 0.12854542 0.0011055531 -0.107779175 0.043596625
00000000: 2c96 8ebe 432b 823c 8009 6fbc 08dd 1b3e
00000010: eef9 3c3e 42d8 31be 5eb6 f7bc 21e3 583e
00000020: c7d9 ed3c 0c1e dcbd 32a2 cd3d f601 54be
00000030: 4d37 85be 07b0 a0bd 5025 35bd 8a9e 2abe
00000040: 3903 883e 3a08 cebd 7034 dbbc e65f 493e
00000050: adcf c03d bbee 053e 906d 28be ea58 e03d
00000060: 6229 253e 9c12 22be 280b 4dbe e0fd 433d
00000070: e205 963d a823 c6bd c075 6a3e f533 003e
00000080: 904c 46be 302d a0bc e89d 10bd 2865 ef3d
00000090: 1cae 0ebe b422 993d 54fa 7d3e 22d6 30be
000000a0: 803c ea3b 1429 5f3e 225f 04be 0eca 7abe
000000b0: e04f 483c e063 5cbd b014 c33d 4aca 7e3e
000000c0: a759 593d 1218 3e3d 2238 0e3e 1a8f 503e
000000d0: 094b 573e 8238 c6bc fd7c 4fbe 371f 513e
000000e0: 69b7 b0bd 1655 d73d 3f0b 253b 78e3 003e
000000f0: 259b 96bd a19c 8d3e 24f5 bb3d bda3 9dbd
00000100: 7667 3e3e 9f58 6b3e aa11 20be ac6a a2bd
00000110: 9f0c 8f3e ee5a 89be 9180 0f3d 77a7 8c3b
00000120: 7355 36bd 3990 3dbe 89c1 c23d 746f ab3d
00000130: 5610 f73d 800c 273d f012 d83d 763b 7d3d
00000140: f875 32be 9355 4abe e058 ce3c ea2f 1e3e
00000150: beb0 243e ae68 6ebe 6634 f53d 1c05 13bd
00000160: 64ff 9ebd cc11 f03d ffdf 7abd 9428 803d
00000170: 303e 1e3e d767 4d3d 625f 73be b553 893d
00000180: 8585 883e 7ad9 843e cc5d 0f3e 489d 403e
00000190: 1cd7 9a3c c17f f63c 78fe 17be 893d 32be
000001a0: 1a24 dfbd a400 4b3e 8ec7 0cbc 7e95 263e
000001b0: 1709 ec3c a524 893e 3a91 09be f28c 623d
000001c0: 5c6f d9bd ea72 203e 100c 523e c8f5 d63d
000001d0: 7045 0b3d 103e 013d 3828 60bd d828 77be
000001e0: 784c a8bd f8c3 f13d 72a0 4c3e 6a53 6b3e
000001f0: 2668 61be b09d 403e d4dd 85bd 1ce0 ecbd
00000200: b6fd 10bd ccf6 103e 183e 553e 24db 40be
00000210: 8b8f 4abe 4000 74bd 9df1 573e d037 e2bd
00000220: ecab 8c3d 6819 66be 8a5c 11be 9ec9 2ebe
00000230: 7815 423d 8833 1fbe 1e20 26be 63ef 363e
00000240: bce0 ecbd eed0 63be cec9 0d3e d487 39be
00000250: 445e 9dbd 6cbe 30be 881c bc3d 3e8a 74be
00000260: b43e a33d 0038 6bba 2829 61be 0687 553e
00000270: aea5 25be 38d0 9bbd 529e 45be 7a6a 263e
00000280: 1522 083e 84ea a0bd 2ca4 b0bd f883 063d
00000290: 22b2 38be ce47 30be c0ff d03b c205 56be
000002a0: 4aa1 e53d 9eb4 3d3e dcc4 b03d d0c3 e73c
000002b0: 8520 46bc cefc 1f3e 88e6 0d3e 32e7 22be
000002c0: 6424 013e 8a4b 36be 2483 24be 8002 04bc
000002d0: 2ca2 70be f3f7 083e e257 23be 2a6d fdbd
000002e0: 1afa 33bd fcbf 4cbe c4a1 c23d 307a 1cbd
000002f0: af43 493e dc72 673d 804e 34be 53b8 08be
00000300: e0e5 153c 7818 cebd 869e 673e 14f3 1ebe
00000310: e04f ec3d 4eb4 71be e85e 5dbd 4c3b 05be
00000320: 2ec5 57be 2234 45be 228b 68be 705e 7fbe
00000330: 7069 a23c fe02 63be a0f4 debd 8647 0c3e
00000340: 2819 e33c 80b3 2c3b 5ed9 0c3e d80d 4fbe
00000350: 488d 0abe 9099 363e b2c8 453e 7c0c eb3d
00000360: 17bc 8abe d8a1 9cbd e0cc 7bbd 6807 1cbe
00000370: 20f8 42bd 8409 8abe 7080 8f3d 0fae 3b3d
00000380: 00bc 04bd 4291 4bbe a05e a73d 80c4 423c
00000390: e820 ea3d de06 15be a46f 4ebe b052 4dbd
000003a0: 8466 6dbe 38c9 103e f216 4c3e e887 33bd
000003b0: 9066 593d 1cc0 21be 20f9 d8bd 8c19 90bd
000003c0: c1d6 b43c 0a81 553e 9a3e 2a3e 8e91 503e
000003d0: df41 f53d 22db e23d 3246 9f3d fad8 06be
000003e0: 2a33 113e 0a67 643d 3bdf 603e 34ed 1d3e
000003f0: 69a1 033e 35e8 903a 54bb dcbd 6092 323d

bias f4 [16]
-0.25895143 0.25066394 0.2441999 0.0023424192 -0.1169867 -0.117127664 -0.099867105 0.14319739
0.0030140914 -0.12240142 -0.05058032 -0.19603963 0.0038927495 0.07048922 0.10285744 -0.08218771
00000000: 4895 84be 0657 803e 8a0f 7a3e 4683 193b
00000010: b996 efbd a1e0 efbd 2087 ccbd 56a2 123e
00000020: 1088 453b 98ad fabd 4f2d 4fbd 9dbe 48be
00000030: 801d 7f3b a75c 903d eca6 d23d 0852 a8bd

weight f4 [32, 16]
0.23043814 0.1679232 -0.009755045 0.0024271556 0.26355377 0.115611665 0.16102913 0.07948971
0.08573656 0.21210676 -0.12786292 -0.052325785 -0.07376546 0.0979378 0.1942341 -0.1570781
-0.11444801 -0.12234133 -0.12235993 -0.20289661 -0.12648705 0.09375297 -0.12615009 0.13647446
0.102315806 -0.010721773 0.09444404 0.11811603 0.003160745 0.01883683 0.23206359 -0.011277176
-0.06993406 0.2314971 0.22079754 0.17979561 0.072739415 0.13006088 -0.008505936 -0.047458977
-0.2352415 0.23046699 -0.19317691 0.24270253 -0.09771097 -0.012969897 -0.13352 0.13997044
0.08471505 -0.13553742 0.13546193 0.16851154 0.18217155 0.24492541 -0.0104841655 0.057368636
0.056494646 0.18287763 0.13054477 0.09292299 -0.01455158 0.09271479 0.07799739 0.24595813
0.11788956 0.20793621 0.03963262 -0.05632008 0.084426515 -0.17312402 -0.054465707 -0.09926137
0.14838843 0.2481347 -0.095588066 -0.06125026 0.22293341 -0.18506707 0.18390211 0.01738171
0.13879754 -0.22135304 0.07508221 -0.13711874 -0.24979533 -0.03844594 0.09804956 -0.24293202
0.27435493 -0.041252375 -0.026341395 0.14647977 -0.09999046 -0.11404508 0.0706819 -0.12441719
-0.069662906 -0.2997621 0.2174995 0.12762958 -0.02189544 0.17859983 0.008123817 0.13094163
-0.16534665 -0.23627058 0.13776243 -0.26766285 0.07190138 -0.16285123 -0.04242906 -0.22298741
-0.16092847 0.23311518 -0.21151319 0.031414565 -0.08927266 -0.026421448 -0.0019060939 -0.017683774
0.20253725 -0.12221876 0.09193106 0.18225555 0.10259715 0.034600724 -0.018354833 0.15387802
-0.17444713 -0.122562096 0.24364927 -0.18765447 0.1313053 0.12754785 -0.16849986 -0.11300337
0.08905561 -0.13675854 0.06457354 0.17554434 -0.07346454 0.2200384 0.064802974 -0.05113585
-0.20124559 0.13108982 -0.24047413 0.22358201 -0.013557355 0.002283417 0.18488665 -0.026170492
0.05399703 0.111013085 -0.07661114 -0.04228683 -0.14979234 -0.032934457 -0.15896758 0.1906864
-0.11738368 -0.13406108 -0.18053871 0.15152597 0.1685933 -0.04835588 0.22059903 -0.24501783
-0.0043467605 -0.106874794 0.1259797 -0.09649953 -0.023827255 -0.04067569 -0.011344522 -0.19422717
-0.053649813 -0.10601655 -0.1473661 0.14834478 -0.15169026 -0.05801 -0.15120807 0.0013624132
-0.16294931 0.038989633 -0.08244711 0.1944819 0.089107126 0.053244997 -0.036473006 0.08769411
0.18097645 -0.24813525 0.0814805 -0.008222696 -0.01613582 -0.20027694 -0.042150885 0.13991001
0.12255759 -0.20147952 -0.2576946 -0.12815493 0.17248034 0.061430342 -0.031576335 0.10347299
-0.22324574 0.2689655 -0.16249385 -0.2057929 -0.09869519 0.10803881 0.2088976 -0.10945371
0.26151457 -0.16583252 -0.13753308 -0.17376405 -0.00090384483 -0.17262332 -0.22511846 0.17068085
-0.09418753 0.008510387 -0.033985347 -0.12403005 0.1348885 0.079384096 -0.23669064 -0.05676937
-0.008589654 0.07423237 0.12950936 0.027541976 -0.14968586 0.11255541 0.24764109 0.15604234
0.13704824 -0.059988346 -0.18847248 0.15508123 0.15832205 0.015388494 -0.08996302 0.21518749
0.23080775 0.05946812 -0.12364734 0.04918226 -0.19478133 0.11804371 0.12871394 -0.0062979525
00000000: faf7 6b3e 0ff4 2b3e a0d3 1fbc ea10 1f3b
00000010: 85f0 863e cfc5 ec3d d2e4 243e 80cb a23d
00000020: a696 af3d 8432 593e 7fee 02be 9053 56bd
00000030: 5812 97bd 9d93 c83d 4ee5 463e 15d9 20be
00000040: b863 eabd 178e fabd d897 fabd 21c4 4fbe
00000050: d285 01be 8f01 c03d 7d2d 01be f6bf 0b3e
00000060: f38a d13d 60aa 2fbc e06b c13d d1e6 f13d
00000070: 8024 4f3b b24f 9a3c 14a2 6d3e e8c3 38bc
00000080: 9739 8fbd 930d 6d3e c018 623e 571c 383e
00000090: 67f8 943d ae2e 053e 7b5c 0bbc 5864 42bd
000000a0: 26e3 70be 8aff 6b3e 2bd0 45be 0387 783e
000000b0: b01c c8bd b17f 54bc 78b9 08be 6954 0f3e
000000c0: 167f ad3d 52ca 0abe 88b6 0a3e 4a8e 2c3e
000000d0: 2e8b 3a3e bacd 7a3e c7c5 2bbc 60fb 6a3d
000000e0: ee66 673d 4644 3b3e 87ad 053e 694e be3d
000000f0: c069 6ebc 40e1 bd3d 18bd 9f3d 73dc 7b3e
00000100: 1570 f13d 3bed 543e d055 223d e2af 66bd
00000110: cfe7 ac3d 6c47 31be 6f17 5fbd 8c49 cbbd
00000120: 23f3 173e 0617 7e3e adc3 c3bd 8de1 7abd
00000130: a848 643e 3982 3dbe d650 3c3e 1664 8e3c
00000140: f120 0e3e 5faa 62be b4c4 993d db68 0cbe
00000150: 59ca 7fbe 7d79 1dbd 35ce c83d 2cc3 78be
00000160: 4078 8c3e 40f8 28bd e9c9 d7bc cbfe 153e
00000170: ccc7 ccbd 7890 e9bd acc1 903d 71ce febd
00000180: 6dab 8ebd 6b7a 99be 30b8 5e3e 54b1 023e
00000190: 115e b3bc e0e2 363e c219 053c 9015 063e
000001a0: a250 29be eaf0 71be 9811 0d3e 1b0b 89be
000001b0: 0841 933d 79c2 26be 18ca 2dbd d056 64be
000001c0: 6fca 24be bfb5 6e3e ea96 58be 8fac 003d
000001d0: 96d4 b6bd cb71 d8bc e6d5 f9ba 90dd 90bc
000001e0: ed65 4f3e d44d fabd 5a46 bc3d 33a1 3a3e
000001f0: 741e d23d 7db9 0d3d e05c 96bc 3392 1d3e
00000200: 45a2 32be d601 fbbd 327f 793e 7e28 40be
00000210: e674 063e e79b 023e 3a8b 2cbe 506e e7bd
00000220: ca62 b63d 6e0a 0cbe 223f 843d e5c1 333e
00000230: 9474 96bd bf51 613e 6cb7 843d d373 51bd
00000240: 5313 4ebe 693c 063e da3e 76be aff2 643e
00000250: ab1f 5ebc 61a5 153b ed52 3d3e 8063 d6bc
00000260: fd2b 5d3d d45a e33d 4de6 9cbd f434 2dbd
00000270: 2a63 19be 48e6 06bd 66c8 22be 4c43 433e
00000280: db66 f0bd 4f47 09be 24df 38be a029 1b3e
00000290: b9a3 2c3e d110 46bd b6e4 613e f4e5 7abe
000002a0: 456f 8ebb 2ce1 dabd d300 013e 8ca1 c5bd
000002b0: 6031 c3bc 8d9b 26bd 60de 39bc 7de3 46be
000002c0: e8bf 5bbd 341f d9bd 24e7 16be b2e7 173e
000002d0: b154 1bbe e59b 6dbd 4ad6 1abe 0093 b23a
000002e0: 2fdc 26be 98b3 1f3d 08da a8bd 4326 473e
000002f0: cc7d b63d 6d17 5a3d b864 15bd f898 b33d
00000300: e451 393e 2b17 7ebe 40df a63d 7db8 06bc
00000310: 442f 84bc 6615 4dbe 68a6 2cbd 9244 0f3e
00000320: 79ff fa3d a650 4ebe 8cf0 83be 0c3b 03be
00000330: b09e 303e 629e 7b3d 3056 01bd a6e9 d33d
00000340: 889a 64be d9b5 893e ca64 26be 60bb 52be
00000350: b420 cabd 7443 dd3d 41e9 553e 4429 e0bd
00000360: 3de5 853e 00d0 29be 79d5 0cbe 34ef 31be
00000370: 00f0 6cba 2bc4 30be 7485 66be f6c6 2e3e
00000380: 64e5 c0bd 266f 0b3c 3834 0bbd 7803 febd
00000390: 3620 0a3e 2194 a23d 085f 72be 0087 68bd
000003a0: 9fbb 0cbc 2407 983d 1a9e 043e b69f e13c
000003b0: 4047 19be 7383 e63d a095 7d3e 90c9 1f3e
000003c0: 6056 0c3e 57b6 75bd eefe 40be 9dcd 1e3e
000003d0: 2d1f 223e 0620 7c3c 883e b8bd 1c5a 5c3e
000003e0: de58 6c3e d894 733d d13a fdbd 5673 493d
000003f0: c274 47be e7c0 f13d 96cd 033e 0e5f cebb

bias f4 [32]
0.2642153 0.11006403 0.22889872 -0.11816222 -0.0018681359 0.028081954 -0.00839994 0.15702665
-0.048204478 -0.010242944 -0.0352535 0.24749441 -0.20386776 0.00024154272 -0.19907686 -0.114237
0.1713056 -0.115726195 -0.22401142 -0.108238004 0.00219504 0.20927426 -0.07574377 -0.18282004
-0.034638945 0.14938441 0.03774274 -0.0779159 -0.01738104 0.26177695 -0.04281092 -0.071775675
00000000: 3a47 873e 4069 e13d 6d64 6a3e 09ff f1bd
00000010: 3ddc f4ba 200c e63c e79f 09bc 98cb 203e
00000020: 0f72 45bd 05d2 27bc f965 10bd 2d6f 7d3e
00000030: b6c2 50be a146 7d39 ceda 4bbe 17f5 e9bd
00000040: bc6a 2f3e db01 edbd 4063 65be e3ab ddbd
00000050: a9da 0f3b fe4b 563e 8d1f 9bbd 2d35 3bbe
00000060: 91e1 0dbd 3af8 183e 2298 1a3d 5f92 9fbd
00000070: af62 8ebc a107 863e 815a 2fbd 20ff 92bd

weight f4 [16, 4]
0.09812585 -0.053818587 -0.44168636 -0.2935095 0.34910744 0.22106132 0.30598852 -0.004136449
-0.33129638 -0.3576486 -0.19476491 0.40706128 -0.14171058 -0.26459587 0.16328907 -0.2537899
-0.40707618 0.14499599 -0.22587389 0.16684842 -0.46819705 -0.11240089 -0.22190702 0.31929648
-0.018493116 -0.28497565 -0.27525765 -0.087643385 0.28889325 -0.12530206 -0.072088055 0.2929759
0.051833186 0.4202291 0.23310766 -0.16441248 0.031010974 -0.20172808 0.3086174 -0.4611831
0.2871146 -0.1827169 0.47280204 -0.39596394 0.3496541 0.10654237 0.26552427 0.23728842
0.39330232 -0.30315843 0.08130143 -0.42326283 -0.31310028 0.3505733 0.45416242 0.15648443
-0.037384067 -0.2696467 0.20646507 0.3206721 0.16395634 0.4708926 -0.041699197 0.5031063
00000000: 35f6 c83d e170 5cbd b724 e2be e146 96be
00000010: 36be b23e e65d 623e 87aa 9c3e 0d8b 87bb
00000020: ae9f a9be b81d b7be 7470 47be 566a d03e
00000030: 941c 11be 1c79 87be 4035 273e c0f0 81be
00000040: 4a6c d0be d479 143e 7c4b 67be 50da 2a3e
00000050: 86b7 efbe 7032 e6bd 983b 63be d47a a33e
00000060: e07e 97bc 54e8 91be 92ee 8cbe 607e b3bd
00000070: d1e9 933e 2f4f 00be e7a2 93bd f000 963e
00000080: 094f 543d 4528 d73e c6b3 6e3e bf5b 28be
00000090: ba0a fe3c ce91 4ebe 1a03 9e3e 3120 ecbe
000000a0: af00 933e 241a 3bbe 1c13 f23e c9bb cabe
000000b0: dd05 b33e e332 da3d ccf2 873e bcfb 723e
000000c0: ec5e c93e 9537 9bbe 5d81 a63d e8b5 d8be
000000d0: ae4e a0be 587e b33e fa87 e83e 743d 203e
000000e0: 0920 19bd 220f 8abe 946b 533e 222f a43e
000000f0: 2ce4 273e d618 f13e c7cc 2abd 93cb 003f

bias f4 [16]
0.25130525 -0.078692734 0.48638052 -0.24069935 -0.3714111 -0.28559667 -0.30361384 0.035895843
-0.4095388 -0.05881262 0.5099983 -0.00019512745 -0.23544244 0.4875353 0.30831677 0.15329999
00000000: 15ab 803e a829 a1bd de06 f93e e479 76be
00000010: 9829 bebe ba39 92be 4673 9bbe 8507 133d
00000020: 12af d1be 80e5 70bd 408f 023f 209b 4cb9
00000030: d317 71be 3a9e f93e b2db 9d3e acfa 1c3e

weight f4 [16, 16]
0.1777367 0.032546222 0.10457811 0.17006215 -0.1341264 -0.10379952 0.22298217 0.23559327
-0.060935378 0.060584225 0.22066237 0.10041986 0.013433019 -0.14147893 -0.19461137 0.086491264
-0.05194971 -0.2131812 -0.07811725 -0.20457935 -0.13090366 0.058161855 0.23489696 -0.20411322
0.04004273 -0.00947082 -0.17599288 -0.15571827 0.16046289 -0.1351276 0.20961097 0.14055961
0.27503967 0.25975543 0.22082022 0.21668592 0.12878162 0.024544775 0.1558826 -0.022642305
0.21803889 0.21293344 0.26087862 0.23807313 0.17061038 -0.13229054 -0.09569731 -0.14141943
0.035551243 -0.045725867 -0.16334501 -0.07677913 -0.12304005 -0.08926359 -0.17428851 0.1609905
0.12475369 -0.06683486 -0.109428674 -0.07359487 -0.046039227 0.24900833 0.17364997 -0.1825208
-0.13380125 0.02946943 0.24837178 -0.17979008 0.04310593 0.22426116 0.012320578 -0.13210696
-0.07649851 0.10655329 0.005170226 -0.1623551 0.07956609 0.13529035 0.09824526 -0.0014684796
0.19931877 -0.21241918 0.15713966 0.18974063 -0.23726484 -0.019192249 -0.058625042 -0.0931167
0.122739136 -0.0035056472 0.09659985 0.115326315 -0.11912483 -0.22998244 0.022020578 0.17014849
0.056820583 0.038227793 0.23507571 0.06012389 -0.08263758 -0.22195229 0.08735415 0.2092998
-0.036623783 0.15864539 0.2834739 -0.042303365 0.016882828 -0.0628508 -0.17879188 0.25481316
-0.09655917 -0.11477944 -0.16389292 -0.21206349 0.020558953 0.14304453 0.06047702 -0.2213797
0.17987931 0.2071917 0.20978338 -0.10775015 -0.23121217 -0.19136095 0.14383599 0.016196012
-0.24866503 -0.24514985 -0.1706216 -0.07900548 0.2044676 0.07683873 -0.15761119 -0.08098042
-0.1385532 -0.09064156 -0.11351752 -0.00048181415 -0.030002117 0.10148299 0.030754507 0.017014086
0.13561834 0.06607843 -0.102424234 -0.12437838 -0.051380545 -0.18671131 0.2169373 0.012754419
0.15320294 0.011659046 0.029764026 0.28524393 0.2520509 -0.1705184 -0.09759134 0.18878931
0.24821702 -0.17533188 -0.22501817 0.06413275 -0.103761345 -0.11962196 -0.24021903 0.11454693
-0.013534621 -0.12656431 0.072199486 0.090509444 0.059882876 0.115523934 -0.20556512 0.243029
0.08814949 -0.0077432096 0.17445374 0.12355006 0.11353144 0.14919814 -0.04867047 0.09966484
-0.1558092 0.07783607 -0.070014656 0.10209572 -0.24268219 0.0845581 0.1879968 -0.04041192
-0.19202292 0.25255665 0.21000943 0.049444914 -0.15548435 -0.16992494 -0.048270673 0.19729814
-0.16416644 -0.030044407 -0.027321627 0.23862116 0.22355887 0.048339665 -0.14272153 0.16993928
-0.12444919 0.18886238 -0.23594606 0.0007776618 -0.016269237 0.123171866 -0.008831412 0.031779885
0.06632936 -0.16605446 -0.22386095 0.023565054 -0.2454693 -0.20342585 -0.11809254 0.03358677
-0.17594725 0.16195787 0.22928911 -0.036182106 0.15503344 -0.20143104 0.2114043 -0.024152892
-0.05478803 -0.08367298 0.07659855 0.22049831 0.0833582 0.062238067 -0.1321122 -0.06488439
-0.04765746 -0.21052551 0.19741076 0.07165569 -0.19169956 -0.1533131 -0.021939635 -0.11557469
-0.07808635 0.11698896 -0.14436138 0.11490637 -0.11354804 -0.11399561 -0.116539985 0.23027375
00000000: 9c00 363e 304f 053d 0c2d d63d c624 2e3e
00000010: 6e58 09be d894 d4bd 7055 643e 5d3f 713e
00000020: 6097 79bd 2a27 783d 51f5 613e eda8 cd3d
00000030: 2a16 5c3c dadf 10be 3448 47be 5522 b13d
00000040: 38c9 54bd 2c4c 5abe f0fb 9fbd 407d 51be
00000050: 9c0b 06be 203b 6e3d d488 703e 0e03 51be
00000060: d803 243d 802b 1bbc 7a37 34be 9c74 1fbe
00000070: 6250 243e e45e 0abe 42a4 563e dcee 0f3e
00000080: 00d2 8c3e aafe 843e b21e 623e eae2 5d3e
00000090: 54df 033e 2012 c93c b09f 1f3e 5b7c b9bc
000000a0: 9645 5f3e 390b 5a3e e291 853e 71c9 733e
000000b0: 7db4 2e3e 2c77 07be f4fc c3bd 41d0 10be
000000c0: 2e9e 113d 0c4b 3bbd ea43 27be 603e 9dbd
000000d0: 6cfc fbbd d4cf b6bd b078 32be b2da 243e
000000e0: dd7e ff3d b7e0 88bd 241c e0bd e8b8 96bd
000000f0: a193 3cbd 0afc 7e3e 4cd1 313e bce6 3abe
00000100: 3203 09be e069 f13c 2c55 7e3e e41a 38be
00000110: d88f 303d b8a4 653e 40dc 493c 0c47 07be
00000120: 40ab 9cbd 9c38 da3d 006b a93b 6a40 26be
00000130: 8cf3 a23d 8e89 0a3e d034 c93d 007a c0ba
00000140: 381a 4c3e 6a84 59be 38e9 203e 5e4b 423e
00000150: 8ef5 72be 1039 9dbc d020 70bd f8b3 bebd
00000160: a85e fb3d 00bf 65bb 24d6 c53d 3430 ec3d
00000170: b8f7 f3bd 8480 6bbe 8064 b43c 683b 2e3e
00000180: b3bc 683d bf94 1c3d b0b7 703e 7844 763d
00000190: e43d a9bd 7647 63be bce6 b23d b052 563e
000001a0: d202 16bd f073 223e 7e23 913e 4b46 2dbd
000001b0: db4d 8a3c ecb7 80bd 3815 37be df76 823e
000001c0: d0c0 c5bd 7c11 ebbd 8cd3 27be 2c27 59be
000001d0: 406b a83c 447a 123e c0b6 773d 5cb1 62be
000001e0: 4832 383e 102a 543e 74d1 563e 1cac dcbd
000001f0: e2c2 6cbe 20f4 43be be49 133e 80ad 843c
00000200: 0ca2 7ebe 9008 7bbe 6eb7 2ebe a0cd a1bd
00000210: f45f 513e a05d 9d3d d464 21be 10d9 a5bd
00000220: e4e0 0dbe 48a2 b9bd e07b e8bd 009c fcb9
00000230: 00c7 f5bc 50d6 cf3d e0f0 fb3c 2061 8b3c
00000240: 89df 0a3e 2154 873d ccc3 d1bd 18ba febd
00000250: 6874 52bd 4031 3fbe d024 5e3e e9f7 503c
00000260: 3be1 1c3e 9505 3f3c b0d3 f33c 7e0b 923e
00000270: d10c 813e 609c 2ebe f8dd c7bd fc51 413e
00000280: 9a2c 7e3e 338a 33be 2a6b 66be 0858 833d
00000290: d480 d4bd 5cfc f4bd fafb 75be 9597 ea3d
000002a0: 51c0 5dbc 139a 01be 53dd 933d 045d b93d
000002b0: bf47 753d d097 ec3d aa7f 52be 98dc 783e
000002c0: b887 b43d c0ba fdbb 00a4 323e d007 fd3d
000002d0: 2c83 e83d 66c7 183e b05a 47bd 141d cc3d
000002e0: 728c 1fbe 8468 9f3d d863 8fbd 9017 d13d
000002f0: ae81 78be cc2c ad3d 3c82 403e f886 25bd
00000300: a8a1 44be 1b4f 813e b60c 573e c086 4a3d
00000310: 4a37 1fbe ce00 2ebe 78b7 45bd 8608 4a3e
00000320: 3f1b 28be b01f f6bc 9bd1 dfbc 1b59 743e
00000330: 9eec 643e d0ff 453d 9825 12be 9004 2e3e
00000340: 38df febd 2465 413e d89b 71be 00dc 4b3a
00000350: 1047 85bc 8841 fc3d a0b1 10bc a02b 023d
00000360: b0d7 873d 2e0a 2abe ce3b 65be 800b c13c
00000370: 4e5c 7bbe de4e 50be 80da f1bd 4892 093d
00000380: 842b 34be 49d8 253e c4ca 6a3e b033 14bd
00000390: 16c1 1e3e f043 4ebe 5e7a 583e 49dc c5bc
000003a0: 6a69 60bd bd5c abbd b3df 9c3d 4fca 613e
000003b0: b4b7 aa3d 58ed 7e3d 6c48 07be 1be2 84bd
000003c0: 7834 43bd 0094 57be 0c26 4a3e 38c0 923d
000003d0: e44c 44be 1cfe 1cbe c0ba b3bc 6cb2 ecbd
000003e0: bceb 9fbd e897 ef3d 78d3 13be 0854 eb3d
000003f0: e08b e8bd 8876 e9bd 84ac eebd e2cc 6b3e

bias f4 [16]
0.24915068 -0.029865384 -0.19517788 -0.2393877 -0.09959844 -0.0799129 -0.09988395 -0.24462095
-0.11670557 -0.089955166 0.032930158 -0.1664024 0.20691599 0.08604467 0.051488195 0.081534535
00000000: 5b21 7f3e 40a8 f4bc b6dc 47be 0d22 75be
00000010: 44fa cbbd 60a9 a3bd f58f ccbd ea7d 7abe
00000020: 5403 efbd 6a3a b8bd c6e1 063d 6465 2abe
00000030: c9e1 533e 3038 b03d 49e5 523d 94fb a63d

weight f4 [32, 16]
-0.07188841 0.13219273 -0.17143945 0.0017324655 0.16873607 -0.079123914 -0.039481122 -0.13941461
-0.20781475 -0.015435323 -0.2681477 0.13475698 0.07749403 0.086907536 0.052008115 0.22569916
0.17214662 0.1174804 -0.13906819 -0.094976805 0.18561873 0.12011856 0.11534324 0.033254802
0.13970968 0.2558536 0.22032155 -0.033328623 0.2752304 0.14149824 -0.12594235 -0.033708632
-0.02782672 -0.16735736 0.17987458 -0.025732389 -0.2059406 0.16584042 0.106876105 0.23233336
0.026195228 0.07648417 0.010336721 0.23289147 0.16496252 -0.1836907 0.25536382 0.022974104
-0.2067416 0.22431228 0.2085352 0.21715853 -0.18764043 0.09061962 -0.25816306 -0.054983348
0.10637376 -0.09547932 -0.017350888 0.21687865 -0.05702014 0.10427806 -0.14090286 0.11741978
-0.025694402 -0.16293514 0.20069289 -0.01057375 0.011893898 0.22900903 -0.012011084 -0.18923497
0.079829246 -0.036140956 0.19228421 -0.24516228 0.094481744 0.0034865737 -0.18512842 -0.0062322617
0.05372441 0.21743715 -0.2839377 0.020471137 -0.18727165 -0.06831545 0.16511546 0.24380407
-0.16156542 0.0800602 -0.1545882 -0.06262609 -0.054056097 -0.16222578 -0.22113371 -0.023453325
-0.19053845 -0.15975037 -0.16871414 -0.0684531 0.086835384 0.0035387278 -0.29112235 -0.1285553
-0.1463269 0.09874332 0.09953719 -0.17940521 0.17179091 -0.17948914 -0.23093323 -0.041701585
-0.16184562 -0.19523987 -0.15883884 0.050511897 -0.05704525 0.22130096 -0.24962537 -0.17747611
-0.16603297 -0.09079931 -0.19474052 0.19593945 -0.172312 -0.22848856 -0.05585958 -0.16106921
0.17201844 -0.18923068 0.07517199 0.17642593 -0.027581364 -0.19874877 -0.19184084 0.23411259
0.24322584 -0.156906 -0.19825937 -0.1654357 -0.068934426 0.049367964 -0.1508468 0.105086714
0.14855869 0.10046098 -0.16799428 0.09366807 0.10755068 0.24502966 -0.15648817 -0.029183656
-0.05726576 0.08470219 0.17373623 0.22944722 0.00050094974 0.051229775 -0.053567223 0.04063931
0.2064002 0.0117868185 -0.17359194 -0.057574462 -0.21347383 -0.017887115 -0.013371517 0.049088895
0.002723068 0.19532377 0.042476468 -0.23702082 0.1196676 0.05989012 0.19782728 0.096378386
0.1393538 0.0021260977 -0.26755673 -0.010485017 0.06909606 -0.18166271 -0.26584455 -0.13910738
-0.0073399544 0.13487287 0.14775151 -0.09940678 0.10336816 -0.113360435 0.1744376 0.045351088
0.13814737 0.06829527 -0.045105174 0.16316362 0.13179332 0.06905565 -0.1488314 -0.15491143
-0.060192913 0.05299896 -0.2038714 -0.22134629 0.28785598 -0.1620942 0.22018592 0.12903702
-0.24645838 -0.061275184 -0.06843214 -0.14903116 0.093931764 -0.05842185 -0.17364901 -0.080991685
-0.15649503 -0.0028275354 -0.28652358 -0.14718276 -0.14973591 0.14118376 -0.2833961 -0.055768073
-0.0887138 0.17525735 0.22211803 -0.13472721 0.17288777 -0.046979338 0.2192886 0.11294094
-0.14064962 0.21095617 0.15209663 0.20448226 0.15064679 -0.17741352 -0.12835939 0.0053672493
0.18594515 0.18392876 0.2433172 -0.10170311 0.0360111 -0.022800952 0.29317656 -0.17898032
0.14467284 0.08189205 -0.10116821 -0.14036629 0.011362589 0.21184164 0.25900152 -0.23563993
00000000: 3b3a 93bd 885d 073e d38d 2fbe e513 e33a
00000010: 26c9 2c3e b80b a2bd f5b6 21bd b4c2 0ebe
00000020: 64cd 54be 70e4 7cbc a84a 89be bcfd 093e
00000030: 31b5 9e3d 94fc b13d 7606 553d ae1d 673e
00000040: 3447 303e 9099 f03d e467 0ebe 3383 c2bd
00000050: d612 3e3e b800 f63d 1439 ec3d 3036 083d
00000060: 0e10 0f3e 3eff 823e f99b 613e 9883 08bd
00000070: 00eb 8c3e eae4 103e 08f7 00be 1012 0abd
00000080: ddf4 e3bc ba5f 2bbe 0b31 383e bbcc d2bc
00000090: 18e2 52be 12d2 293e dce1 da3d cce8 6d3e
000000a0: 6097 d63c bca3 9c3d 5a5b 293c 1a7b 6e3e
000000b0: efeb 283e 6a19 3cbe 0cbf 823e 3034 bc3c
000000c0: 12b4 53be 1eb2 653e 408a 553e ce5e 5e3e
000000d0: d024 40be c896 b93d f32d 84be 3836 61bd
000000e0: 7cda d93d a98a c3bd 7323 8ebc 7015 5e3e
000000f0: f38d 69bd bc8f d53d d748 10be c879 f03d
00000100: 117d d2bc 78d8 26be 7082 4d3e 863d 2dbc
00000110: a0de 423c 5881 6a3e 23ca 44bc d0c6 41be
00000120: 847d a33d 8a08 14bd 27e6 443e d20b 7bbe
00000130: a57f c13d 007f 643b 4e92 3dbe 0038 ccbb
00000140: 200e 5c3d d8a7 5e3e 4860 91be 16b3 a73c
00000150: 24c4 3fbe f8e8 8bbd 0714 293e c6a7 793e
00000160: 6871 25be 9af6 a33d 5e4c 1ebe 1c42 80bd
00000170: ed69 5dbd 841e 26be e070 62be 3021 c0bc
00000180: 831c 43be 9a95 23be 66c3 2cbe 2431 8cbd
00000190: c0d6 b13d 00ea 673b fd0d 95be 00a4 03be
000001a0: b8d6 15be f039 ca3d 27da cb3d 00b6 37be
000001b0: f5e9 2f3e 00cc 37be c379 6cbe 48cf 2abd
000001c0: dcba 25be f6ec 47be a6a6 22be 90e5 4e3d
000001d0: 48a8 69bd b89c 623e cb9d 7fbe 4cbc 35be
000001e0: 8c04 2abe fdf4 b9bd 0f6a 47be 5aa4 483e
000001f0: 8f72 30be e8f8 69be 04cd 64bd 54ef 24be
00000200: 9a25 303e b0c5 41be c6f3 993d 00a9 343e
00000210: 50f2 e1bc cc84 4bbe ed71 44be 36bb 6f3e
00000220: 3210 793e f7ab 20be 8104 4bbe fa67 29be
00000230: 7e2d 8dbd 1036 4a3d 9577 1abe b437 d73d
00000240: c51f 183e 7cbe cd3d b106 2cbe 0cd5 bf3d
00000250: 8843 dc3d 0ee9 7a3e 6f3e 20be 9012 efbc
00000260: 808f 6abd 5778 ad3d e9e7 313e 36f4 6a3e
00000270: 2b52 033a 50d6 513d 4e69 5bbd 6875 263d
00000280: 935a 533e 801d 413c 16c2 31be 33d3 6bbd
00000290: e298 5abe 0088 92bc 3514 5bbc 7011 493d
000002a0: 8075 323b f402 483e cefb 2d3d 96b5 72be
000002b0: 4914 f53d 584f 753d 3c93 4a3e 0862 c53d
000002c0: c3b2 0e3e 0056 0b3b 32fd 88be 59c9 2bbc
000002d0: 3c82 8d3d ca05 3abe c71c 88be 2a72 0ebe
000002e0: 0084 f0bb 1d1c 0a3e 2c4c 173e c895 cbbd
000002f0: b0b2 d33d 8429 e8bd c59f 323e 10c2 393d
00000300: 8176 0d3e 64de 8b3d 34c0 38bd 5d14 273e
00000310: d4f4 063e 0c6d 8d3d 4267 18be 1aa1 1ebe
00000320: d88c 76bd 7015 593d aac3 50be 9aa8 62be
00000330: dc61 933e 06fc 25be 6b78 613e 4822 043e
00000340: 965f 7cbe b0fb 7abd 2626 8cbd a09b 18be
00000350: 4c5f c03d c04b 6fbd 0cd1 31be f8de a5bd
00000360: 3c40 20be 2c4e 39bb 38b3 92be 14b7 16be
00000370: 5f54 19be 7a92 103e 4b19 91be 106d 64bd
00000380: 95af b5bd aa76 333e e972 633e eef5 09be
00000390: 7e09 313e 686d 40bd 318d 603e 944d e73d
000003a0: 7406 10be e504 583e 38bf 1b3e cc63 513e
000003b0: 2743 1a3e e4ab 35be a570 03be c0df af3b
000003c0: 6868 3e3e d257 3c3e 2528 793e b849 d0bd
000003d0: 6080 133d 10c9 babc 3d1b 963e 9e46 37be
000003e0: 1e25 143e 05b7 a73d 4731 cfbd 2ebc 0fbe
000003f0: 272a 3a3c 04ed 583e d99b 843e 984b 71be

bias f4 [32]
-0.059075043 0.10646385 0.1342459 0.14455938 0.09362221 -0.14782915 -0.05061501 0.107570074
-0.13390003 0.15570514 -0.04652209 -0.0010542755 0.17423324 -0.026846424 -0.16546036 0.036277324
-0.1048649 0.060644194 0.121522 0.12681903 0.063301496 -0.113852896 -0.27270907 0.051642273
-0.1567526 -0.15276942 -0.12316516 -0.25055328 -0.21206564 0.27214268 -0.110992625 0.014667683
00000000: acf8 71bd b809 da3d c277 093e 6007 143e
00000010: 00bd bf3d 8660 17be af51 4fbd b34d dc3d
00000020: 171d 09be 2b71 1f3e f28d 3ebd 9e2f 8aba
00000030: 336a 323e 08ed dbbc 716e 29be 8897 143d
00000040: 69c3 d6bd 0c66 783d 87e0 f83d d9dc 013e
00000050: 37a4 813d b52b e9bd 86a0 8bbe d986 533d
00000060: c183 20be 966f 1cbe 043e fcbd 8548 80be
00000070: bc27 59be 4956 8b3e 1a50 e3bd b950 703c

weight f4 [16, 2]
0.42911798 -0.3311075 -0.20609426 0.70481414 0.41648728 0.15988797 0.697936 0.10271144
0.18563586 0.15626115 0.64675766 0.69775563 -0.48583 -0.4399889 0.54231936 -0.60734254
0.008693635 0.17557889 -0.5550261 -0.5644894 0.51117605 0.14683533 0.2166065 0.15407336
0.39350706 0.5983384 -0.0070680976 0.54979867 0.05543548 -0.5643909 0.6943664 -0.049137414
00000000: 5ab5 db3e ec86 a9be 600a 53be b36e 343f
00000010: d23d d53e acb9 233e efab 323f 605a d23d
00000020: 5417 3e3e ec02 203e e991 253f 1da0 323f
00000030: b6be f8be 3a46 e1be 71d5 0a3f cd7a 1bbf
00000040: c06f 0e3c f4ca 333e 3116 0ebf 6182 10bf
00000050: 6fdc 023f 005c 163e 18ce 5d3e 68c5 1d3e
00000060: c279 c93e b52c 193f 809b e7bb 9bbf 0c3f
00000070: 5010 633d ec7b 10bf ffc1 313f 5044 49bd

bias f4 [16]
0.048705935 -0.057112575 0.013847172 -0.253232 0.23938489 0.11015123 -0.35593832 -0.61563915
-0.052200615 -0.4886633 -0.4370097 0.56981117 0.4163882 0.048520267 -0.45262232 0.67897457
00000000: e07f 473d e0ee 69bd 40df 623c a0a7 81be
00000010: 5021 753e f896 e13d 8c3d b6be 879a 1dbf
00000020: 50d0 55bd 1332 fabe bcbf dfbe 25df 113f
00000030: d630 d53e 30bd 463d 1dbe e7be 47d1 2d3f

weight f4 [16, 16]
0.11354479 -0.17306313 -0.10333052 -0.043618053 -0.24615744 0.038664192 -0.20860872 0.12231287
0.21503505 0.09814027 0.12364584 0.05829391 -0.027657926 0.08213207 0.22595727 -0.22462842
-0.06490922 -0.24319214 -0.06009379 -0.11965102 0.18344787 -0.09547496 0.051220477 -0.035065472
0.05109933 0.18030208 0.058065653 -0.14402547 0.07006875 0.019757241 0.15912446 0.129561
0.098517686 0.20949441 -0.14697328 0.055944175 0.24831119 0.21463686 0.09607887 -0.07289037
-0.072773576 0.121646285 -0.19584107 0.18872356 -0.035316885 -0.21623564 -0.19913548 -0.05177775
0.24607304 -0.23873612 0.2307955 -0.090287596 0.035268545 -0.031285822 -0.07932097 -0.12110123
0.13272494 -0.22770393 0.009800404 0.1448048 0.02744323 -0.057009786 -0.0070043206 0.2484096
0.20893332 -0.07457173 -0.24002147 0.011747986 0.15793654 -0.027882189 -0.09359419 0.23876253
0.05402097 -0.09455982 0.06910637 0.18410781 0.24941668 -0.13700134 0.037260503 -0.15493563
-0.042950064 0.080476075 0.030854762 0.22969124 -0.079674155 -0.20800361 -0.00032648444 0.005012989
0.22278902 0.24957943 0.17762938 0.1554156 -0.06608972 0.043023646 -0.11098054 0.028397083
0.20183471 -0.047203124 0.012589574 0.0828425 -0.14992228 0.18919706 -0.2007814 -0.06313214
-0.020902872 0.08823305 -0.13857788 0.18309653 -0.18836203 -0.21568576 0.050067782 0.20917612
-0.06627607 -0.18785849 -0.14758182 0.009129673 -0.09431255 -0.11108065 -0.23472661 0.10391599
0.0055880547 0.049182117 -0.019207865 0.057072133 0.007325858 0.18230245 0.21239257 -0.16332772
-0.20735642 -0.1509248 -0.22092798 0.20801276 -0.24259612 -0.0024115443 -0.14751592 -0.09696129
0.110297054 0.18904603 0.22322723 0.15442955 -0.1871137 -0.09874749 0.24439475 -0.08933145
0.13441339 -0.09301123 0.12402427 -0.08988157 0.03767711 -0.105008036 -0.21719578 -0.010485709
-0.16365674 0.20413646 -0.09121621 -0.021299958 -0.23208216 0.23444098 -0.1438255 0.19411
0.21951285 -0.036640793 -0.21166277 0.20937464 -0.12528703 0.23384511 -0.08234891 -0.15443474
0.070139885 -0.045664877 -0.027039468 0.2031109 0.02027914 -0.07687488 -0.1688334 0.009289563
0.2465708 0.08491981 -0.24085939 -0.14295122 0.20610654 -0.0137783885 -0.19383714 -0.2444992
-0.16440007 -0.068864584 -0.07324803 0.03137061 0.069003046 0.0120112 -0.17534381 -0.2421273
-0.14955255 0.073017895 0.014272034 -0.19912171 0.09009805 0.1411446 0.11460054 0.0010797977
-0.14285758 -0.21472463 0.080310285 0.07544693 0.09994212 -0.116725534 0.24225718 -0.14313242
-0.0022557974 0.07610017 -0.03482181 0.0071672797 -0.19647151 -0.22154775 -0.0043014884 0.14607704
-0.029378802 -0.10898468 0.0411973 -0.19773367 -0.15053865 0.009549439 0.016599685 -0.16286781
-0.19138542 -0.05616066 0.10563788 -0.15069512 -0.19082883 0.092078924 0.2470899 -0.025642663
0.12303865 0.2333588 0.21460819 0.15384743 0.22459996 -0.08847469 -0.21114102 0.2017633
0.034025192 0.19489023 0.19650528 0.04644212 0.24326676 0.17778945 0.20140687 -0.15091771
-0.24549848 -0.22580811 0.1776981 0.22594863 -0.05019325 -0.06779465 -0.0033975244 -0.22727224
00000000: 2c8a e83d 7637 31be f49e d3bd d8a8 32bd
00000010: b210 7cbe 585e 1e3d 869d 55be 2c7f fa3d
00000020: 2632 5c3e c4fd c83d 083a fd3d 98c5 6e3d
00000030: e092 e2bc dc34 a83d 5861 673e fe04 66be
00000040: 20ef 84bd 5c07 79be e824 76bd 980b f5bd
00000050: c2d9 3b3e 6088 c3bd 90cc 513d d0a0 0fbd
00000060: 884d 513d 1ca1 383e 40d6 6d3d 6a7b 13be
00000070: 3480 8f3d f0d9 a13c 86f1 223e a4ab 043e
00000080: a4c3 c93d b485 563e 2a80 16be b825 653d
00000090: 4a45 7e3e c4c9 5b3e 00c5 c43d 8c47 95bd
000000a0: 500a 95bd b021 f93d 908a 48be c040 413e
000000b0: 70a8 10bd e06c 5dbe 2cea 4bbe e814 54bd
000000c0: 92fa 7b3e 3e77 74be a855 6c3e b4e8 b8bd
000000d0: c075 103d 9025 00bd 0873 a2bd ec03 f8bd
000000e0: 0ce9 073e 382b 69be e091 203c b647 143e
000000f0: a0d0 e03c 1883 69bd 8084 e5bb 165f 7e3e
00000100: 9ef2 553e 10b9 98bd 30c8 75be a07a 403c
00000110: 1eba 213e 3069 e4bc 50ae bfbd 2a7e 743e
00000120: 1845 5d3d 94a8 c1bd a487 8d3d c286 3c3e
00000130: 1667 7f3e 144a 0cbe 789e 183d 72a7 1ebe
00000140: 68ec 2fbd a4d0 a43d 20c3 fc3c 2e34 6b3e
00000150: 342c a3bd e6fe 54be 002c abb9 0044 a43b
00000160: ce22 643e c091 7f3e 7ae4 353e 4425 1f3e
00000170: 0c5a 87bd 9039 303d c449 e3bd 00a1 e83c
00000180: c2ad 4e3e 1058 41bd 8044 4e3c 54a9 a93d
00000190: 3a85 19be e0bc 413e a499 4dbe 6c4b 81bd
000001a0: 803c abbc 88b3 b43d 5ce7 0dbe a87d 3b3e
000001b0: fae1 40be badc 5cbe e013 4d3d 4432 563e
000001c0: c0bb 87bd fa5d 40be b01f 17be a094 153c
000001d0: f026 c1bd 407e e3bd 2c5c 70be e8d1 d43d
000001e0: 001c b73b 3073 493d d059 9dbc 78c4 693d
000001f0: c00d f03b 7ead 3a3e 707d 593e 623f 27be
00000200: 3e55 54be 088c 1abe f23a 62be 4c01 553e
00000210: 1e6b 78be 000b 1ebb 6a0e 17be a493 c6bd
00000220: 6ce3 e13d 4895 413e ae95 643e c822 1e3e
00000230: bc9a 3fbe 203c cabd 9e42 7a3e 68f3 b6bd
00000240: aaa3 093e ac7c bebd 7000 fe3d d413 b8bd
00000250: 5053 1a3d 740e d7bd 9268 5ebe 40cc 2bbc
00000260: a295 27be 2609 513e 90cf babd 407d aebc
00000270: f2a6 6dbe 4c11 703e fe46 13be c6c4 463e
00000280: fac7 603e a814 16bd 20be 58be 4e66 563e
00000290: 3e4b 00be 1875 6f3e 8ca6 a8bd 2424 1ebe
000002a0: 80a5 8f3d 180b 3bbd e081 ddbc 4efc 4f3e
000002b0: 7020 a63c 9470 9dbd aae2 2cbe 4033 183c
000002c0: 0e7d 7c3e 70ea ad3d d8a3 76be ce61 12be
000002d0: 980d 533e c0be 61bc 3e7d 46be 005e 7abe
000002e0: 7e58 28be e008 8dbd 1003 96bd 787e 003d
000002f0: 7851 8d3d a0ca 443c 548d 33be 38f0 77be
00000300: 4e24 19be 688a 953d 40d5 693c 90e6 4bbe
00000310: 5485 b83d 3688 103e b0b3 ea3d 0088 8d3a
00000320: 4249 12be c6e0 5bbe b879 a43d ec83 9a3d
00000330: 74ae cc3d cc0d efbd 4412 783e 4e91 12be
00000340: 00d6 13bb 68da 9b3d 50a1 0ebd 80db ea3b
00000350: d42f 49be 6add 62be 80f3 8cbb 3895 153e
00000360: d0ab f0bc 5c33 dfbd 80be 283d b27a 4abe
00000370: ce26 1abe 4075 1c3c 10fc 873c d2c6 26be
00000380: 8afa 43be b808 66bd ac58 d83d d24f 1abe
00000390: a268 43be e093 bc3d 2205 7d3e 9010 d2bc
000003a0: b0fb fb3d 9cf5 6e3e 40c2 5b3e 2e8a 1d3e
000003b0: 88fd 653e 3832 b5bd 5a35 58be 0a9b 4e3e
000003c0: 005e 0b3d 4e91 473e ae38 493e 183a 3e3d
000003d0: ec1a 793e 700e 363e 9a3d 4e3e 2c8a 1abe
000003e0: f463 7bbe 3e3a 67be 7ef6 353e 145f 673e
000003f0: 7097 4dbd ecd7 8abd 00a9 5ebb 0eba 68be
