logs/测试学习率策略对训练准确度与稳定性的影响/model.lr=0.002scheduler.MultiStepLR.milestones=[10, 20, 30]scheduler.MultiStepLR.gamma=0.5/test_model_20250419_105005.pth (torch, 193285 bytes, 32 tensors)

weight f4 [128, 1]
000000 58 67 2c 3f 53 de 28 3f cd 1a b6 bd f8 b6 e9 be
       0.6734519 0.6596424 -0.088918306 -0.45647407
000010 eb 5f ee 3e b4 00 f3 be 2e 7d 8a 3d 0a 74 25 3f
       0.46557555 -0.47461474 0.067621574 0.64630187
000020 26 00 16 3f b0 56 f3 3e df 13 0b bf 5e 15 3d 3f
       0.58593976 0.47527075 -0.54327196 0.7386073
000030 d7 ef 24 bf 9a 83 79 bf 80 56 0d 3f 72 30 00 bf
       -0.64428467 -0.97466433 0.55210114 -0.5007392
000040 18 d4 d7 3e b9 1d 82 3f e0 e9 3a 3e 40 ee 58 bd
       0.42154002 1.0165321 0.18253279 -0.052961588
000050 2a 6f 0a 3f f0 08 7a 3e 28 34 0d 3f fb 76 54 3f
       0.5407587 0.24417472 0.5515771 0.8299405
000060 7a bf 45 3f 87 94 33 3f 30 dc 16 3f ec 18 1b 3f
       0.77245295 0.7014851 0.5892973 0.605849
000070 f5 13 09 bf 84 1f af be ed 1e 15 bf ec ad 84 be
       -0.53546077 -0.34203732 -0.58250314 -0.25913942
000080 6e 1d 04 bf d1 a2 3f bf 20 7f 6f bd ae ef 27 3f
       -0.51607406 -0.74857813 -0.058470845 0.656001
000090 10 15 0f 3f 80 74 08 bc 7a ac 57 bf fd 27 73 3f
       0.55891514 -0.008328557 -0.84247553 0.9498289
0000a0 27 7c 19 3f fa 4b c8 bd ae e2 75 bf 2a cf 67 bd
       0.59955066 -0.097801164 -0.9604901 -0.05659405
0000b0 0d 58 45 3f b8 cd b4 be 9d 42 0b 3f 05 af 00 3f
       0.7708748 -0.353132 0.5439852 0.5026706
0000c0 5c 97 c1 3e ad 55 5c bf 98 e6 6d be a1 ed 17 3f
       0.3781079 -0.8606823 -0.23232496 0.5934697
0000d0 d4 84 25 bf 28 ac 4e be f2 fc 83 3f a0 47 0c be
       -0.64655805 -0.2018286 1.0311568 -0.13699198
0000e0 e8 80 34 be 0c f8 58 3f 9b f1 0e bf ea 95 31 3e
       -0.17627299 0.8475349 -0.5583741 0.17342344
0000f0 e8 a1 4b 3f 4a 17 e3 3e bc df a9 be 59 a6 ba 3e
       0.79543924 0.44353706 -0.33178508 0.36455038
000100 dc 8b 31 bf 97 eb 89 3d d0 80 35 3e 76 fd 59 3f
       -0.69354033 0.06734388 0.1772492 0.85152376
000110 6c 4e 0c 3f 66 9b a6 3d 3c a7 e6 3e 69 71 6a bf
       0.5480716 0.08135109 0.45049465 -0.915793
000120 ee 67 00 bf 91 9c c3 3e c6 df f1 3e a5 26 7d bf
       -0.50158584 0.38205388 0.47241038 -0.9888709
000130 4a 88 6b 3f d6 a2 0b 3f 48 0c 20 3f 25 c3 be 3e
       0.92004836 0.5454534 0.6251874 0.37258258
000140 78 2d 28 bf 58 53 7a bf f8 b0 69 bf 20 ed c3 bd
       -0.6569438 -0.9778342 -0.9128566 -0.095667124
000150 7a de 32 3f 0f 59 1a 3f a9 88 50 3f 78 db 89 be
       0.6987072 0.6029214 0.81458527 -0.26925254
000160 20 19 6b bd 14 bf 96 3e 25 8f 34 bd c9 40 1e bd
       -0.057397008 0.29442656 -0.044081826 -0.038636003
000170 f9 74 de bc 74 72 86 3e 4c 21 d7 be 5e db c4 3e
       -0.027155386 0.26259196 -0.4201759 0.38448614
000180 d5 fa e9 be 3b 0b 03 bf 02 72 ad 3d de ac 03 bf
       -0.45699182 -0.5118901 0.08469011 -0.5143565
000190 ff da f8 be 4d ab bc 3e 37 cb 84 3f ec 52 58 3f
       -0.4860458 0.36849442 1.0374516 0.8450153
0001a0 1a 6f 5d 3f e8 67 60 be d8 4f 14 3f fc 49 66 3f
       0.8649765 -0.21914637 0.5793433 0.8995664
0001b0 21 d5 21 3f 20 20 f7 be 34 b1 52 bf 5f 91 b2 be
       0.63215834 -0.48266697 -0.8230164 -0.34876534
0001c0 9e 98 87 3f b7 9f 87 39 b8 f8 30 bf e0 6b 23 3f
       1.059345 0.00025868203 -0.69129515 0.6383648
0001d0 72 80 e9 3e 12 dd 12 bf 94 ad 20 3f a7 2a 56 3f
       0.45605808 -0.57368577 0.6276486 0.8365883
0001e0 c5 19 73 3f 50 7a 8b 3e 71 3b 2f 3f e6 34 27 3f
       0.94961196 0.27241755 0.68450075 0.6531509
0001f0 69 d4 51 bf e6 c6 c8 3e dc f9 b7 be d8 61 3d 3e
       -0.8196474 0.39214247 -0.35932815 0.18494356

bias f4 [128]
000000 25 db a3 be ed d1 24 3e 05 0b 83 3f 5c a0 f0 be
       -0.32003132 0.16095705 1.0237738 -0.46997344
000010 ad 5b ed 3d ca e1 16 3f be a1 32 3e 90 94 54 be
       0.115897514 0.58938277 0.17444512 -0.20759797
000020 26 cc 4a 3f d8 ba 2e bf c2 4f 34 3d 5e 26 36 3f
       0.79217756 -0.6825385 0.044021375 0.71152294
000030 25 b1 35 3f d1 d4 2d 3f 32 db ed 3e 90 85 7e 3e
       0.70973426 0.6790286 0.46456295 0.24855638
000040 3f 43 a6 3e c7 50 4b 3f d2 06 06 bf e8 b6 15 be
       0.3247318 0.7942013 -0.52354157 -0.14620554
000050 fa e4 70 bf 52 d8 69 bf e0 f2 51 3f 1b 6d 17 3d
       -0.9409939 -0.91345704 0.8201122 0.036969285
000060 6f 24 60 3f da 1d c0 be 12 de 47 bf b0 7d 20 bf
       0.87555593 -0.37522775 -0.7807323 -0.62691784
000070 46 59 3e 3f e0 a9 37 bf b2 78 d8 be c0 95 1b bf
       0.7435497 -0.71743584 -0.42279583 -0.60775375
000080 62 95 66 3f 11 7c ec 3e 8c c7 79 bf af 22 29 3f
       0.9007169 0.46188405 -0.9757011 0.6606855
000090 bf 40 0a 3f 12 1a 49 bf 10 82 48 bf be b1 c9 3e
       0.54005045 -0.78555405 -0.7832346 0.3939342
0000a0 e8 e4 4a 3e 38 95 28 3f 08 60 1c 3f bb b5 d9 3e
       0.19813883 0.6585269 0.6108403 0.42521462
0000b0 91 f9 85 3f 01 a6 72 be 0f cb 26 be bd c8 58 3f
       1.0466787 -0.23696138 -0.16288398 0.846813
0000c0 70 20 1f bf 32 95 8d bd fe 60 40 bf 68 e6 03 3f
       -0.6215887 -0.069132224 -0.75148 0.5152345
0000d0 68 9f 46 bf 60 1a 7a be 35 8b 0b 3f 54 7f 52 bf
       -0.77586985 -0.24424124 0.5450929 -0.8222554
0000e0 ae 16 5b bf c4 6e 2a be 24 48 6e 3e a1 d4 7c 3f
       -0.8558148 -0.16643816 0.23269707 0.98761946
0000f0 21 7c be 3e 7b df 86 3f ee f1 4e bf 63 b8 95 be
       0.37204078 1.0536951 -0.80837905 -0.29242238
000100 9a 47 67 bf 5e 41 b7 bd 64 07 12 bf ad da 21 bf
       -0.9034363 -0.08948015 -0.5704253 -0.632243
000110 2c e3 46 3f 86 bd cb 3e a7 aa 9e 3e 4b 5d f4 be
       0.77690387 0.39793032 0.30989572 -0.47727427
000120 55 fb d5 be 58 ad 4e 3f 05 b3 86 3e 62 16 25 bf
       -0.41793314 0.8073325 0.26308456 -0.6448728
000130 4c f2 64 3f eb e7 03 3f f8 89 a8 be e3 2d f2 3e
       0.89432216 0.51525754 -0.32917762 0.47300634
000140 d4 b1 71 bf 73 2a 45 3f 5d 61 54 3f 28 02 22 be
       -0.9441197 0.770179 0.82961065 -0.15821135
000150 de bf 3b bf bc 77 83 3f 94 13 20 3f bc 50 46 bf
       -0.7333964 1.0270915 0.62529874 -0.7746694
000160 b0 ac 3c bf 3a 41 07 3f 9f 48 ba 3c 08 b5 cb 3e
       -0.73701 0.528339 0.022739707 0.39786553
000170 db 09 81 3f 8e 44 28 bf 44 8d f7 be d5 50 bb 3e
       1.0081133 -0.65729606 -0.48349965 0.36585107
000180 e4 fc d9 3e 1a f9 4d 3f 49 24 5e 3f cb 65 da 3e
       0.42575753 0.80458224 0.86774117 0.42655787
000190 9f e4 76 3f 4d 1f 9b 3e 58 5b 43 3f 0d be 58 3f
       0.964426 0.30297318 0.76311255 0.84664994
0001a0 bb 66 0c bf ec e4 5a bf 62 33 76 bf 49 5f 1f bf
       -0.54844254 -0.8550556 -0.96172154 -0.6225477
0001b0 5f a0 27 bf 02 b8 74 bf d9 f7 41 3f 45 9c bd be
       -0.6547908 -0.95593274 0.7576881 -0.37033287
0001c0 cc 75 82 be 50 c0 e7 3e d8 76 53 bf 22 70 b7 be
       -0.25480497 0.4526391 -0.82603216 -0.35827738
0001d0 5f a0 74 3f 48 60 3c bf 9f 6d 7d 3f 95 e3 24 be
       0.95557207 -0.73584414 0.98995394 -0.1610244
0001e0 b5 42 77 bf 0e 13 8e bb cf df 20 3f f9 68 61 be
       -0.9658616 -0.0043357676 0.62841505 -0.220127
0001f0 c3 44 09 bf a6 19 27 3f a8 3d 1f bf 34 5f ea 3e
       -0.5362055 0.6527351 -0.62203455 0.4577576

weight f4 [8, 128]
000000 ed ec a2 3d 8f 7d 08 be 39 1d 8a 3d 06 50 6b bd
       0.07955346 -0.13329147 0.06743855 -0.057449363
000010 91 59 04 be 58 5f de 3b 04 62 d3 bd b4 18 ae 3c
       -0.12924792 0.006786268 -0.10321429 0.021252014
000020 32 c9 48 bd 00 bc b0 b8 25 3b 0a bb de c5 6f bc
       -0.04902 -8.427352e-05 -0.0021092382 -0.014634578
000030 9f 6f 1d 3d a7 21 89 bd 6f c5 72 3a f4 be 40 bd
       0.03843653 -0.06695872 0.0009260987 -0.047057107
000040 ab 20 e2 bd 90 54 6b bd 02 af 7f 3d 2a 8e 67 3d
       -0.11041387 -0.057453692 0.06242276 0.056532063
000050 00 51 cb 3a 3e 08 09 bd 3b 9a 01 be 7e 5f 8f bc
       0.0015511811 -0.033455126 -0.1265649 -0.017501589
000060 96 45 e2 bd d0 fe f0 bb e2 15 70 3d e0 da c8 bc
       -0.11048429 -0.0073545948 0.05861462 -0.02451843
000070 2e e5 9f 3d 8a 3d 15 3d 4a 1a b4 3d ab e8 a6 3d
       0.078073844 0.03643564 0.08794077 0.08149847
000080 fe ef 99 3d 63 76 34 3d 2f 02 88 3d 1e d5 42 bd
       0.07516478 0.044058215 0.066410415 -0.047566526
000090 4c b5 6f bd c0 fe be bb bc 7e 0d bd 25 f2 42 bd
       -0.058522508 -0.0058287084 -0.03454469 -0.04759421
0000a0 e5 ad b0 bd c3 86 0a bd 31 6e 79 bd ce 4f c8 bd
       -0.08626918 -0.033819925 -0.060896102 -0.097808465
0000b0 72 57 97 bd af d2 a5 3c 07 52 b2 3d 0e d4 df bd
       -0.07389726 0.020242063 0.08707052 -0.10929118
0000c0 ca 76 4a 3d a1 80 86 bd 62 16 9a bd 11 ab 86 bd
       0.049429692 -0.06567503 -0.075238004 -0.06575597
0000d0 5a 41 22 bd 39 6f 66 bd be 53 8c bd 80 c0 15 bc
       -0.039613105 -0.056258414 -0.0685191 -0.009140134
0000e0 da 4c 7f 3d 82 cf 6c 3d 16 1b 99 bd a2 7b 67 3d
       0.06232915 0.057815082 -0.07475869 0.05651439
0000f0 a6 fa e4 bd de 44 98 bd bd 6d aa 3d 56 6d 2f 3d
       -0.1118062 -0.074350104 0.08321712 0.04282888
000100 7a a9 0c bd 50 99 b1 bc b0 58 54 3c 8c db 4c bd
       -0.034341313 -0.02167955 0.012960598 -0.050014064
000110 41 a3 37 3d 16 37 c4 bd 07 3a f3 bd 22 0f 87 3d
       0.044833425 -0.09580819 -0.11876302 0.06594683
000120 33 9d 0a bc 13 d2 3f bc fc 19 4e bd 3c 15 03 3d
       -0.008460331 -0.0117078 -0.05031775 0.032002673
000130 4b f9 92 bd 1b 62 84 bd 84 df f2 3c c7 1e 60 bc
       -0.07176455 -0.06464025 0.029647596 -0.013679213
000140 50 64 0b 3d f7 4a 80 3c af 0f 9d 3d 4c 7b 47 bd
       0.034031212 0.015660746 0.07669007 -0.04870157
000150 50 e1 e2 bb a2 3d 9d 3c da 4a b3 bc 60 e3 42 3c
       -0.006923832 0.019194428 -0.021886278 0.011895031
000160 c0 db 89 3c e5 fe aa 3c 37 b4 b1 bc 1f 75 09 3d
       0.016828418 0.020873496 -0.021692378 0.03355896
000170 e5 74 f1 3c 40 b5 eb bb b2 00 5e 3d 03 18 0e be
       0.029474685 -0.0071932375 0.05419988 -0.13876347
000180 0e a3 b8 bc a3 4e 37 3d 23 7d 2e 3d b0 72 a3 3d
       -0.022538688 0.04475273 0.04259981 0.07980859
000190 02 bf 4c 3d 42 c7 e4 bd d1 3d ae bd 3b 58 a8 3c
       0.049986847 -0.11170818 -0.08507884 0.020549884
0001a0 90 62 e1 bb f9 23 2d bd 98 3b 5d bc 42 07 af bd
       -0.0068782046 -0.042270634 -0.013502978 -0.08546306
0001b0 47 c0 92 3d 38 b2 7f bd b9 0e 15 3d 67 ee 30 bc
       0.0716558 -0.062425822 0.036390994 -0.010799027
0001c0 c0 70 38 3b 80 70 0d bd c6 e6 9a bd fe 2f 81 bd
       0.0028143376 -0.034531116 -0.07563548 -0.06307982
0001d0 a3 01 25 3d 80 7d 95 bb 8e 34 55 bc 74 46 b2 3c
       0.040284764 -0.00456208 -0.013013018 0.02176211
0001e0 38 ca 8b bd a0 12 12 bc bd 4f ad bc ae 78 4e 3d
       -0.068256795 -0.008915573 -0.021156186 0.050408058
0001f0 8b d3 a4 bc 40 ea 39 3d 28 20 3c 3c 27 27 55 3c
       -0.020120403 0.045389414 0.011482276 0.013009823
000200 fc 18 f6 3d 0d 24 30 3e 44 b2 0f 3e 41 0c 39 3d
       0.12016484 0.17201252 0.14032847 0.0451777
000210 38 99 30 3e b0 18 07 3d f6 8e ed 3d f7 5e 09 3e
       0.17245948 0.03298253 0.11599533 0.13415132
000220 d7 a0 39 3e 1d a0 a2 3d 32 c9 73 3d 43 0e 2a 3e
       0.18127762 0.079406954 0.059518047 0.16607003
000230 65 a2 8a 3d 83 ef 26 3d 98 7d 13 3e 67 94 9e 3d
       0.067692555 0.04075576 0.14403379 0.07743149
000240 4f b2 e1 3d 6e 4a 3d 3e 20 bf 81 bb 1a dc 55 3d
       0.11020338 0.18485424 -0.0039595515 0.05221186
000250 a7 fe 30 bd d6 03 7e bd a6 f0 0a 3e 91 63 18 3e
       -0.043211605 -0.062015377 0.13568363 0.14881732
000260 c9 f4 1d 3e 9b 91 f9 3d f0 09 3d bc ca d5 11 bd
       0.1542541 0.12185975 -0.011538014 -0.035604276
000270 47 bd ac 3c 8f 9d 03 bd 4d 4c 98 3d 20 fc 15 bb
       0.021086348 -0.03213268 0.07436428 -0.0022885874
000280 01 b4 c9 3b 88 cf 8d 3d 90 66 a9 3b 00 45 10 3e
       0.0061554913 0.06924349 0.005169697 0.14088821
000290 b8 86 b2 3d 89 ce 99 3d 2b 30 97 bd 37 97 a9 3d
       0.08717102 0.075100966 -0.07382234 0.08280795
0002a0 e9 75 30 3e d2 0d d1 3b 1c f4 de bc dd 38 5a 3d
       0.17232479 0.0063798213 -0.02721601 0.053276885
0002b0 8c 0e 92 3d cd 65 8e bb 8a 7e f6 3d ad 3a db 3d
       0.07131681 -0.0043456317 0.12035854 0.10704551
0002c0 c0 bc a3 3b 45 8a 27 bc 78 a3 23 bd 38 76 28 3e
       0.004996866 -0.010225837 -0.039950818 0.16451347
0002d0 c0 f6 33 3c 5c d1 cc bc 3b 5c 3c 3e e8 61 e4 bc
       0.010984123 -0.025002174 0.18394558 -0.027878717
0002e0 03 af 9b 3d dd 4c a7 3c 02 b2 2a bc de df fe 3d
       0.0760174 0.020422393 -0.010418417 0.12445043
0002f0 b0 b5 31 3d 74 34 51 3c 6c 57 89 3c 39 5f 06 3b
       0.04338616 0.012768853 0.016765319 0.0020503534
000300 97 67 20 bd 5c be d3 3b 27 0e 85 3d 56 ce d5 3d
       -0.03916129 0.0064619016 0.0649684 0.10439746
000310 64 3f 0b 3e 76 ab 98 3d e7 72 8c 3d a1 c5 00 bd
       0.135984 0.074545786 0.068578534 -0.031438474
000320 d2 62 4c 3d 05 83 25 3e ca d3 e0 3d 6d 96 5f bd
       0.04989893 0.16163261 0.109778956 -0.054586817
000330 dd 2b 6f 3d c7 05 54 3d 16 9d 9a 3d 17 3e 37 3e
       0.05839144 0.051763322 0.07549493 0.17894779
000340 94 56 c0 bc f3 21 6f bd 5e 83 19 3c 47 7b 14 bd
       -0.023478784 -0.058381986 0.009369699 -0.03625038
000350 e0 03 2f 3b 81 45 8d 3d bc 4b 33 3c 08 99 25 3c
       0.002670519 0.068980224 0.010943349 0.010107286
000360 6f 8c 4b bd f2 a7 6d 3d 5d c1 d9 bc 75 60 9c 3d
       -0.049694475 0.058021493 -0.02658146 0.07635585
000370 e3 bd 17 3e ba c5 70 3d 71 6f 90 bd d6 8a 6f 3d
       0.1481853 0.058782317 -0.07052506 0.058482014
000380 16 1d c8 3d 52 38 0f 3e d5 0c 23 3e d4 73 8b bc
       0.09771173 0.13986328 0.15922864 -0.017023005
000390 84 95 16 bb d8 4e 16 3e 17 4f 06 3e 27 8f 4a 3c
       -0.0022977302 0.14678514 0.13116108 0.012363232
0003a0 bd 56 16 3e 52 15 2f 3d e0 f1 e3 bc 2a fc 06 3e
       0.14681526 0.042744942 -0.027825296 0.1318213
0003b0 e4 b3 64 bc c0 b2 18 bc e1 47 26 bd b6 c9 fa bb
       -0.013958905 -0.009319961 -0.040595893 -0.0076534403
0003c0 26 b5 e8 3d 6d e8 95 3d 50 26 f8 bb 18 76 f1 3d
       0.11362676 0.07319722 -0.0075729266 0.11790103
0003d0 8d bc f9 3d a0 ee f7 3c 09 c4 d0 3b 89 4d 9a 3d
       0.12194166 0.030265152 0.0063710255 0.0753432
0003e0 48 ee 33 bd ad 08 2c 3e 08 9d 79 3d ff f2 2b 3d
       -0.043928415 0.16800185 0.060940772 0.041979786
0003f0 b5 a1 4a bb 60 7c 1d 3e 90 6a 25 bc 94 4e 22 3e
       -0.0030919139 0.15379477 -0.010096207 0.15850288

bias f4 [8]
000000 9e cf d2 bd db 5b 0d 3e 2b fa d8 3c e2 5d fc bc
       -0.10293506 0.13804571 0.026486477 -0.030806486
000010 7d fd b6 3c ae 33 bf 3b 1f 5a e9 bd b8 f4 11 be
       0.02233767 0.005835018 -0.11394142 -0.14253509

weight f4 [16, 2]
000000 e3 0a 54 bf 56 0e a0 3e 77 ea ae bc d7 ec 05 3f
       -0.8282911 0.31260937 -0.021352036 0.52314514
000010 9f 64 bc be ca de 29 3f a1 aa 2c 3f 70 99 db 3e
       -0.36795518 0.66355574 0.6744786 0.428905
000020 f3 18 12 bf d8 14 94 bd aa 9d fc be cb b6 a5 be
       -0.5706932 -0.07230538 -0.49339038 -0.32366022
000030 1b 0f 13 bf 5f be dc be 8a 12 6c be a1 c7 19 bf
       -0.57444924 -0.43113992 -0.23053947 -0.60070235
000040 7a 09 5e 3e 8b 1a 3f be 12 da 09 bf a8 81 10 be
       0.21683303 -0.18662469 -0.53848374 -0.1411196
000050 53 9d f0 bd 75 4c 82 3e 32 6a 95 3e 3e 93 b0 be
       -0.11748757 0.25448957 0.29182583 -0.34487337
000060 f3 fb 8d be cd 2b 0e 3c 44 b9 02 3e 4f d0 a7 3d
       -0.27731284 0.008677435 0.12765986 0.081940286
000070 64 ca 34 bf 5a 2f 8c 3e a4 b4 1e 3e 48 1e 21 bf
       -0.70621324 0.27379876 0.15498596 -0.6293683

bias f4 [16]
000000 b5 27 93 be b9 29 50 3e 2f 09 b5 be 32 ec 8d be
       -0.28741232 0.20328416 -0.3535857 -0.27719265
000010 8c 58 17 3e 04 c7 0d 3e e0 7e ec 3d 70 c2 cf 3d
       0.14779872 0.1384545 0.11547637 0.10144508
000020 68 f8 11 3f 98 6c 69 3e 34 36 26 3f cb e8 31 3e
       0.5701966 0.22795331 0.6492646 0.1737396
000030 df 56 27 3f a4 75 06 3e ef e5 1a 3f 80 08 b3 3e
       0.6536693 0.13130814 0.605071 0.34967422

weight f4 [16, 16]
000000 10 4d 0f 3e 0e 5b 5d be c2 6f 39 3e 1e d5 2f be
       0.13994241 -0.21616766 0.18109038 -0.17171142
000010 f0 6e bc bd 04 58 77 be 14 cf b2 bd f6 86 56 be
       -0.09200847 -0.24154669 -0.08730903 -0.20949921
000020 88 4f 23 3e 00 94 8e bc 04 03 0a 3e d8 38 59 bd
       0.15948308 -0.017404556 0.13477713 -0.053032726
000030 2c 41 4f be 40 38 53 3d ae b9 3c be a0 1f f1 3c
       -0.20239705 0.051567316 -0.18430206 0.029434025
000040 71 21 a9 3d de 5b ee 3d aa cc 6a be cf c6 2b 3e
       0.082583316 0.11638616 -0.22929636 0.16775058
000050 a4 9c 01 be b8 53 3b be 00 cf 1e bb 98 2b fe bd
       -0.1265741 -0.18293655 -0.0024232268 -0.124106586
000060 40 61 f0 3d 3a 70 17 be 95 d3 31 be d9 3b 6e 3d
       0.11737299 -0.14788905 -0.17365868 0.058162544
000070 e5 35 2b bd 77 9a 3c 3e 65 1f f5 bd 36 0b e8 3a
       -0.041799445 0.18418299 -0.11968879 0.0017703536
000080 96 a4 34 be 10 0a 24 bd a8 18 c2 bd da 6a 65 be
       -0.1764091 -0.04004866 -0.09477359 -0.22404042
000090 aa c0 3a be 10 bf 61 3d d4 cc 90 bd 68 db b5 bd
       -0.18237558 0.055113852 -0.07070318 -0.08879739
0000a0 12 14 46 be be 16 61 3e 10 12 d8 3c 2c 89 08 be
       -0.19343594 0.21981332 0.0263758 -0.13333577
0000b0 10 d3 92 3d 64 62 b6 3d 9c 77 20 be f0 6f e2 3d
       0.07169163 0.08905485 -0.15670627 0.11056507
0000c0 e2 38 74 be 14 1d 92 bd e6 08 11 3e de 98 1a be
       -0.23849824 -0.071344525 0.1416355 -0.15097377
0000d0 fc 88 05 3e c6 e1 60 3e b2 6d 5a be f4 48 32 be
       0.13040537 0.21961126 -0.21330908 -0.17410642
0000e0 0c 32 7c be a8 d5 86 3d 9e 9e 22 be 3c e7 78 be
       -0.24628466 0.065837204 -0.1588082 -0.24306959
0000f0 e8 7f c1 bd 20 fe c3 3d 3c 63 48 3e 20 8a e7 bd
       -0.09448224 0.09569955 0.19569105 -0.11305642
000100 92 74 e0 3c 1e cf 0b 3e f6 1c 43 3e 78 74 20 bd
       0.027399335 0.13653228 0.19054016 -0.039173573
000110 58 ba 40 bd 00 58 28 39 12 4d 5f be 4c 7f 3e 3e
       -0.04705271 0.00016054511 -0.21806744 0.18603247
000120 26 ed 03 be 64 c0 5e 3e dd 09 c4 bd 03 fb 4e 3e
       -0.12883434 0.21753079 -0.09572194 0.20212941
000130 d7 73 fa 3c d8 ba 16 be 5c be 1d 3e d9 42 9a bd
       0.030572815 -0.14719713 0.15404648 -0.075322814
000140 7c 6a 6c 3e 15 c3 7b bd 5c d7 45 be 4e 59 47 3e
       0.23087496 -0.06146534 -0.19320434 0.19467661
000150 40 9b 07 3e 00 d8 31 b9 46 a8 3b 3e 1c 38 e9 bd
       0.13242817 -0.00016960502 0.1832591 -0.11387655
000160 86 35 8f 3d f8 2d 82 3d a1 00 02 3d ce 08 c5 bd
       0.06992631 0.06356424 0.03173888 -0.0962082
000170 45 70 c3 bd bc d6 ad 3d 1a 50 e2 bd 0d 2f 60 bc
       -0.09542898 0.08488223 -0.110504344 -0.013683093
000180 73 fb ff bd 16 47 a2 3d ea 28 3d 3d 6a 81 6e 3e
       -0.12499132 0.07923715 0.046181597 0.23291555
000190 48 9c 4a 3e 80 cf 4c be a0 0f 33 bd 12 93 50 3e
       0.19786179 -0.2000103 -0.043716073 0.20368603
0001a0 2d 63 92 bd f0 0b 53 bd f3 da 69 3e c5 43 03 be
       -0.071478225 -0.051525056 0.22837429 -0.12818821
0001b0 28 98 4d 3d c9 53 bd 3d 59 ae d1 bd a2 4c 74 3e
       0.050193936 0.092444964 -0.10238332 0.23857358
0001c0 0e c9 a7 bc a9 d8 49 bd 71 5f 61 3d 1a 2f 2f 3e
       -0.020481613 -0.04927889 0.05502266 0.17107812
0001d0 3e 4d 0f 3e bc d5 f7 3d 64 e1 02 be 80 8b 5a bd
       0.1399431 0.121013135 -0.12781292 -0.053355694
0001e0 e2 de 99 bd 7a 4d 2f be e7 36 5e 3e f5 b5 08 3e
       -0.07513215 -0.17119399 0.21700631 0.13350661
0001f0 c1 de 5d 3d 08 ab 0f 3e 02 4a 14 be 2e 16 e0 bd
       0.054167513 0.14030087 -0.14481357 -0.109417304
000200 bd db d9 bb cf 01 19 3e fc 49 9a 3d 4a 57 84 be
       -0.0066485093 0.14942096 0.07533643 -0.25847846
000210 8e 18 1a be c8 08 f4 bd aa 5f 7c be c8 c8 3b 3d
       -0.1504843 -0.119157374 -0.24645868 0.045845777
000220 60 0d 70 3e 8c 9c 13 3e be 85 8d bd b8 3e e7 3d
       0.23442602 0.14415187 -0.06910275 0.112912595
000230 03 70 d7 3d b2 6e 83 be 6b 5a aa bd 06 96 5c be
       0.105194114 -0.2567039 -0.08318027 -0.21541604
000240 68 0a 49 3e 60 66 34 be 6a 35 10 be c8 51 23 bd
       0.19632876 -0.17617178 -0.14082876 -0.039872915
000250 48 6f 2f 3e f4 26 cf 3d ba 1a 4f 3e 00 05 b0 3a
       0.17132294 0.101148516 0.20225039 0.0013429224
000260 5e 44 10 3e 44 60 4e 3e 20 92 fd bd 3e 31 73 be
       0.1408858 0.2015391 -0.12381387 -0.23749253
000270 f0 61 62 3e 5e ba 06 3e 68 7a c9 3d f4 d2 30 3e
       0.22107673 0.13157031 0.098378 0.17267972
000280 0c 60 41 3d 44 27 82 bc db f6 c5 bb ae 62 98 bd
       0.047210738 -0.015887864 -0.0060413904 -0.07440697
000290 a0 97 70 bc 78 ec ea 3d a4 fd 38 be 80 94 67 3d
       -0.014684588 0.11470884 -0.18065506 0.056538105
0002a0 d9 74 41 3e 72 09 1b be 93 4b 59 3b 6d 4a ed bd
       0.1889223 -0.15140322 0.0033156618 -0.11586461
0002b0 47 f7 11 3e 07 f4 e1 3c 2f 4f 66 be a9 76 6b be
       0.14254485 0.027582182 -0.22491144 -0.22994484
0002c0 0f 48 ec 3d 7e 1b 4c be a5 63 7a 3d f0 55 3b 3d
       0.115371816 -0.19932362 0.061130185 0.045736253
0002d0 00 5a a7 3a 38 94 50 bd 50 40 f0 bd c0 ef 5b bc
       0.0012767911 -0.050922602 -0.11731017 -0.01342386
0002e0 00 bc 24 3e c8 11 01 be 2f a2 06 be 54 ff 37 3e
       0.16087341 -0.1260444 -0.13147806 0.17968494
0002f0 fa 8c 22 3e a0 aa f6 bc 1c ea b4 3d 92 15 1b bd
       0.15874091 -0.030110657 0.08833715 -0.037862368
000300 cc ab be 3d 5c 7c 97 3d 86 e9 02 be fd be 16 bd
       0.093101114 0.073967665 -0.12784395 -0.036803234
000310 70 31 73 3e 68 1f 84 bd 14 cc a3 3d f0 ed 47 3d
       0.23749328 -0.06451303 0.07997909 0.0488109
000320 06 e1 98 bd a8 60 ae bd db cf c5 3d 55 dc 08 3d
       -0.07464795 -0.085145295 0.09658786 0.03341325
000330 70 66 9e 3e 66 9b 7c 3d 44 fb 18 3e 1f 14 3c bd
       0.3093753 0.061671637 0.149396 -0.045917626
000340 1b a4 2e be 3a d0 2b 3e 75 1d f1 bc 0f 28 4d bd
       -0.17054789 0.16778651 -0.029432992 -0.05008703
000350 b4 07 76 3e 8c 83 12 3e e8 56 51 be b0 36 24 3d
       0.24026376 0.14307994 -0.20443308 0.040091217
000360 10 71 64 be 1a a1 4b be 0d 73 e8 3d 13 a1 b7 3d
       -0.22308755 -0.19885674 0.11350069 0.08966269
000370 d2 b8 51 3e ee 53 28 3e ee ff 7d 3b fc 07 3a be
       0.2048066 0.16438267 0.0038757282 -0.18167108
000380 b9 41 ef 3d c5 9c 51 3e 2d 79 82 3d c2 b0 36 be
       0.116824575 0.20469959 0.06370769 -0.17840865
000390 0e 88 4b be e4 20 f3 3d 28 bb 4f 3e 00 5e 1b 3e
       -0.1987612 0.11871508 0.20286238 0.15172577
0003a0 ce 39 46 3e 0c e5 9e 3d 26 39 b9 bc 3f e2 2f be
       0.19357988 0.07758531 -0.022610258 -0.1717615
0003b0 d3 bf d4 bd ae 30 06 be 40 f4 51 bc 4c e5 97 bd
       -0.1038815 -0.13104507 -0.012814581 -0.07416782
0003c0 20 0f 6d 3d 38 3d 50 bd 62 40 7c be b0 45 c0 bc
       0.057875752 -0.050839633 -0.24633935 -0.02347073
0003d0 44 aa 10 3e 90 ba d1 3c 56 70 38 be 94 eb d3 3d
       0.14127451 0.025601655 -0.18011603 0.10347667
0003e0 b0 b5 68 bd 8c ce ff 3d 6c 58 59 be 10 e4 98 3d
       -0.056813896 0.124905676 -0.21225137 0.074653745
0003f0 d0 3b b9 bc ac 1e 70 be 8c f7 49 3e f2 fb 59 be
       -0.022611529 -0.234492 0.19723338 -0.21287516

bias f4 [16]
000000 f8 3c ac bd 14 62 83 bd c6 f2 25 3e d0 b5 ca 3d
       -0.08410066 -0.06415191 0.16205892 0.09897959
000010 fc 9a aa ba da db 81 3e 76 9c a8 3d 23 59 9d bd
       -0.001301616 0.25363046 0.082329676 -0.07683017
000020 68 00 08 3d 4c 44 35 3e 25 eb 5e 3e 59 c6 f3 bd
       0.033203512 0.17701834 0.21769388 -0.11903066
000030 b9 6f 2e 3d 26 38 95 bc 66 69 66 be 60 21 f9 3d
       0.042587016 -0.01821525 -0.22501144 0.12164569

weight f4 [32, 16]
000000 52 0a 40 3e 69 a5 74 be 3c 92 e7 3d 30 1d b6 3c
       0.18753937 -0.23891224 0.11307189 0.022230715
000010 c1 01 fe bd 00 1f f9 3d da 78 a5 bc a2 b0 00 be
       -0.12402678 0.12164116 -0.020199228 -0.1256738
000020 79 5a 47 be 0c 1f 0f 3e 7b f1 fd 3c de f2 ba bd
       -0.19468106 0.13976687 0.030998936 -0.091283545
000030 e3 7b 68 3e 5d 68 43 3e f8 42 51 bd de be 26 3e
       0.22703509 0.1908278 -0.051089257 0.16283748
000040 dc 1f 1b 3e 26 aa 31 3e 92 ca 1f 3e 60 26 47 be
       0.15148872 0.17350063 0.15604618 -0.19448233
000050 a3 1d 22 3d d0 8d 14 3e da b7 50 be 39 a5 c2 bd
       0.039579045 0.14507222 -0.20382634 -0.0950417
000060 ac b0 22 3d 36 b4 4e 3e 32 be 2d 3e 0a 21 ca 3d
       0.03971927 0.20185933 0.16967085 0.09869583
000070 fe c1 12 3e 54 08 89 3b 22 1c 39 bd 60 d6 b6 3c
       0.14331815 0.004181901 -0.045192845 0.022319019
000080 08 34 82 bd 08 d1 74 3b b4 3d fd bd 4c 7d 1e be
       -0.063575804 0.0037356038 -0.123652846 -0.15477484
000090 17 ef 12 3e a6 6f 3c 3e f3 ab 8b 3d 80 95 d1 bc
       0.14349018 0.18401965 0.06819906 -0.025583982
0000a0 c9 3c 05 3e e8 c4 33 3e be b9 34 3e 57 36 24 bb
       0.13011469 0.17555583 0.1764898 -0.0025056803
0000b0 1b 16 1b bc ef d1 2e be ea 85 dd bd 30 ea ab 3c
       -0.00946572 -0.17072271 -0.10816558 0.020985693
0000c0 6e 5c 46 be 9a 0e 76 be 7c a1 8a bd 34 a1 f4 3d
       -0.19371197 -0.24029008 -0.06769082 0.119448096
0000d0 06 34 a4 3d 0c ad 18 be 27 5f ee 3d ef 1f dc bc
       0.08017735 -0.14909762 0.116392426 -0.026870696
0000e0 c0 99 bb 3b f2 eb 1d be 48 41 ca bd 77 6a 3c bb
       0.0057251155 -0.15422037 -0.09875733 -0.0028749981
0000f0 12 b3 a9 bd f4 b6 f9 bb da d7 46 3e 04 c5 ca bd
       -0.08286108 -0.0076206867 0.19418278 -0.09900859
000100 24 5a 7c 3e b5 cf 72 3d ac 0e c2 bd 30 d1 5f be
       0.24643761 0.059280116 -0.09475455 -0.21857142
000110 61 8e 04 3e 2f bf bd 3c f3 ae 26 3e a7 01 a9 bd
       0.12944938 0.023162453 0.16277675 -0.08252268
000120 8d ce 9a 3d e0 96 ef bc 1b 94 4b 3e dd 8d 16 be
       0.07558928 -0.029246747 0.19880717 -0.14702554
000130 27 3c 40 3e fa 46 69 be ed b4 7f bd 98 21 ec bd
       0.18772946 -0.22780982 -0.062428404 -0.11529845
000140 f6 41 30 3e 1d c7 71 bd 5a 34 7d 3e 48 03 38 be
       0.17212662 -0.05902778 0.24727002 -0.17970002
000150 eb 0d c0 bd f1 db 15 bd df da 69 be f3 cf 50 be
       -0.09377655 -0.036586706 -0.22837399 -0.20391826
000160 6d c2 2a be d0 7a 29 bd 01 27 77 3d f4 98 0f be
       -0.1667573 -0.04137689 0.06033993 -0.1402319
000170 ab 07 83 3e 48 f4 11 3e d2 01 ce 3d f6 4b 49 be
       0.25591788 0.14253342 0.10058941 -0.19657883
000180 74 06 96 3d 34 c7 85 bd 7a f6 2a 3e 10 91 e2 3c
       0.073254496 -0.065321356 0.16695586 0.027657062
000190 2f df f4 3d 22 df 4e 3d 93 6a 48 3d 7d 7d c2 bc
       0.119566314 0.050505765 0.048929762 -0.023741478
0001a0 04 60 54 bd 0c 7c c6 bd 83 cd 5f bd 55 a7 06 be
       -0.05184938 -0.09691629 -0.05463935 -0.1314977
0001b0 44 2b 27 3e dc 3f 36 be 57 c6 a8 3d 66 74 09 be
       0.16325098 -0.17797798 0.08240955 -0.13423309
0001c0 40 81 41 bc 60 3e 14 3d b4 4b 90 bd 60 9c f1 bd
       -0.011810601 0.036192298 -0.07045689 -0.11797404
0001d0 4d 3f 4f bb 27 9e 6e be 47 27 be bd e8 2b 42 3e
       -0.0031623424 -0.23302518 -0.09284835 0.18962061
0001e0 75 dc 14 3e f0 9c 85 3c 9c 74 84 be 0c 1e 6d be
       0.14537223 0.016310185 -0.25870216 -0.23155993
0001f0 49 0a 0d 3e f7 77 50 3e 7a 70 4a be 90 d5 6b bd
       0.13773455 0.20358263 -0.19769469 -0.057576716
000200 d2 95 69 be 0e 71 a1 bd e0 3e 85 3c 3c 16 fb bd
       -0.22811058 -0.078828916 0.016265333 -0.122601
000210 a7 5a c2 bd 7e 15 bf bd 58 0e 17 3e 9e 86 1a 3e
       -0.09489947 -0.09330271 0.14751565 0.15090415
000220 54 2b 68 be 28 50 f9 3d ff 28 5a bd de c6 ac 3d
       -0.22672778 0.12173492 -0.053261753 0.084363684
000230 e1 1e 91 bd 10 d5 b2 bd 84 82 6f bd a0 a9 46 3c
       -0.07085968 -0.08732045 -0.05847408 0.012125403
000240 e4 97 79 3e 78 14 c9 3d 4e 66 47 be a0 db de bd
       0.24374348 0.09818357 -0.1947262 -0.10881734
000250 4a d9 86 bd 51 14 74 be 4e e1 a1 3d 7f 9f d8 3d
       -0.06584413 -0.23835875 0.079043016 0.105772965
000260 72 d6 2a be 70 e2 5b be c9 10 29 bc 94 53 1c 3e
       -0.16683367 -0.21473098 -0.010318943 0.15266258
000270 2c 28 2c 3e ac a3 81 be 66 0a 34 3e 40 1d fd 3b
       0.168122 -0.25320184 0.17582092 0.007724434
000280 d2 0b 07 3e 10 70 5d be 24 8d fd 3d f0 59 c3 bd
       0.13188103 -0.2162478 0.12380436 -0.095386386
000290 94 17 57 be 70 ef 3b be ec 53 f8 bb c6 05 4a 3e
       -0.21005088 -0.18353057 -0.0075783636 0.19728765
0002a0 7a c0 45 bd 1c f5 3b be d7 f7 5a 3e 39 9a 14 3d
       -0.048279263 -0.1835522 0.21383606 0.03627989
0002b0 86 67 15 3e 2c 8c 64 3e aa 71 28 3e c0 c5 02 3c
       0.14590272 0.22319096 0.1644961 0.007981718
0002c0 84 88 d2 bd ad 3f 1f 3d e4 d5 37 be 44 52 2a be
       -0.102799445 0.038879085 -0.17952687 -0.16632944
0002d0 e4 60 26 be bd da 42 3e d5 87 e0 3d bb fb 18 3e
       -0.16247898 0.19028755 0.10963408 0.14939778
0002e0 a0 a0 39 bd 4a b1 4b be 26 68 fc 3d 0d 8e c2 3d
       -0.0453192 -0.19891849 0.12324552 0.0949975
0002f0 1c 66 7b 3e 35 08 5f be c0 b6 35 3e 90 72 ad 3c
       0.2455067 -0.21780474 0.17745495 0.021172792
000300 f6 49 7c 3e 8d 77 15 3d d0 c8 26 be 24 75 af bd
       0.24637589 0.036490966 -0.16287541 -0.08567265
000310 a7 26 30 3c 0f bc 5d be 6c 06 55 3d 6f 19 18 3e
       0.010751403 -0.2165377 0.052008078 0.14853452
000320 2e 1c 1f be 04 f4 c9 bd 4d 23 c2 3d 54 40 31 be
       -0.15538093 -0.098609954 0.09479389 -0.17309695
000330 55 2f 46 be f5 eb a1 3b 73 25 ab bd d6 5d 64 be
       -0.19353993 0.0049414583 -0.08356752 -0.2230142
000340 20 43 24 3d b5 24 00 bd e0 14 fe bc 48 88 70 3e
       0.040103078 -0.031285007 -0.031015813 0.23489487
000350 5e 4a f1 bc 89 46 ab 3d 92 f7 58 be dd cf 55 3e
       -0.029454406 0.08363063 -0.2118819 0.20880075
000360 58 5c 24 bd c0 98 7b 3c 8d 83 a4 bc eb d4 34 3e
       -0.04012713 0.015356243 -0.02008226 0.17659347
000370 5d 8d 2e be ce 35 7d 3e 9f 2d 8b bc 50 1d d3 bd
       -0.17046113 0.24727556 -0.016989527 -0.10308325
000380 00 82 b7 bb 4c 18 13 be 30 02 df 3d 1c 81 35 3e
       -0.005600214 -0.14364737 0.10889089 0.17725033
000390 4b 4a 16 be 62 27 9a 3d dc 90 47 3d c7 06 49 be
       -0.14676778 0.07527043 0.048722133 -0.19631492
0003a0 4c e6 05 be 20 b2 8d bd 54 d1 51 bd b2 00 55 bd
       -0.13076133 -0.0691874 -0.05122502 -0.052002616
0003b0 03 67 1f be c0 65 7e 3e 6b 4b 8a bd 80 24 6a bc
       -0.1556664 0.24843502 -0.06752666 -0.014290929
0003c0 7e 00 04 be ad 60 17 3e aa 95 7d be b2 b2 75 be
       -0.12890813 0.14782973 -0.24764124 -0.23993948
0003d0 ae ea 3c 3d 92 3d 26 be 55 89 52 3d 6e 31 5d be
       0.046122245 -0.16234425 0.0514005 -0.21600887
0003e0 00 7c 24 3d 04 09 ce bd 48 54 19 be 52 46 bc 3d
       0.040157318 -0.10060313 -0.14973557 0.091931
0003f0 75 45 38 bd 1b 5b 07 bd b8 8f 56 3d c0 8d de bc
       -0.044988114 -0.03304587 0.052383155 -0.027167201

bias f4 [32]
000000 17 95 59 3e 34 33 ad bd 8e 63 89 3d 05 88 87 bd
       0.2124828 -0.08457032 0.06708442 -0.066177405
000010 c0 35 9d 3c fa c3 ef bd d0 bd 47 3e ba 4b 85 be
       0.019190669 -0.117073014 0.19506001 -0.26034337
000020 f1 fe f6 3c 04 90 11 be b1 f8 07 be fc e1 57 3e
       0.030150862 -0.14215094 -0.13278462 0.210823
000030 55 4a 32 3d 30 80 1b bd d0 ff 49 be 60 0f 72 be
       0.04352792 -0.037964046 -0.19726491 -0.23638678
000040 69 90 6c 3e e3 18 ce bb 08 79 5a 3e 62 7a f7 bb
       0.23101963 -0.006289588 0.21335232 -0.007552431
000050 52 56 5a 3e 01 7e 94 be 3a 0c 8e 3e 59 d8 0c 3e
       0.21321991 -0.29002383 0.27743703 0.13754405
000060 2b bc 2d be 47 5a 46 3e 92 37 1e be f5 e8 70 be
       -0.16966312 0.19370376 -0.15450886 -0.23526366
000070 e5 d7 a6 bd 27 07 54 be 54 2e d6 3c 59 c4 61 3e
       -0.08146647 -0.20705853 0.026145138 0.22047557

weight f4 [16, 4]
000000 c8 9a 7a be f4 90 04 be fc 2a 95 3e 00 bf fa be
       -0.24473107 -0.1294592 0.29134357 -0.48973846
000010 7c fc 03 3f 9c fa e3 3e 66 b7 c2 3e 95 22 ae 3c
       0.51557136 0.44527137 0.38030547 0.021256724
000020 00 7d 3c bc 74 90 bd be 76 fb 88 be 20 66 b0 3c
       -0.011504412 -0.3702427 -0.2675435 0.021533072
000030 b6 cf db 3e b9 3c 74 be 7a 72 ee be 59 32 a8 3e
       0.42931908 -0.23851289 -0.46571714 0.32850912
000040 63 48 a2 3e a2 de 9a 3e 55 e9 ad 3e 46 df d7 3e
       0.31695852 0.3024798 0.3396708 0.42162532
000050 05 af 0c 3e 92 f1 b4 3d 5f 77 9b 3e 42 2c e5 be
       0.1373864 0.088351384 0.3036451 -0.4476033
000060 3c 9a 0a be fe 1d d2 3e d0 5d 16 bd 1a d0 b4 3e
       -0.13535398 0.41038507 -0.03671056 0.3531502
000070 0c 4d d7 be 68 19 b3 3d b6 95 ba be 06 b2 ea be
       -0.4205097 0.0874508 -0.36442345 -0.45838946
000080 0d c7 01 3f b1 a3 86 3d a4 1e 5b 3e d1 47 9d 3d
       0.5069435 0.065741904 0.21398407 0.076797135
000090 4e e6 83 bc df 70 8c 3e 96 c7 06 3d 52 fb f0 3e
       -0.016101029 0.27429864 0.032905184 0.47066742
0000a0 58 e9 c2 3e 2a 52 09 be 89 51 06 bc 08 18 08 3c
       0.38068652 -0.1341025 -0.00819815 0.008306511
0000b0 58 52 8d bd 0a fb c8 3e 40 e7 78 be b0 21 e3 bd
       -0.069004714 0.39254028 -0.24306965 -0.1109041
0000c0 a9 34 60 3e 08 e7 a1 3e 50 b7 cb 3c 66 50 8b bd
       0.21895088 0.31621575 0.024867684 -0.06802444
0000d0 60 4e 6e 3e c6 7c b3 3e af e1 52 be a1 1d b9 be
       0.23272085 0.35056132 -0.20593904 -0.36155418
0000e0 70 b0 4e bd 92 84 9f be e4 af 9f be 10 84 50 3d
       -0.050461233 -0.3115583 -0.3118888 0.050907195
0000f0 dc 0e c2 be 20 a0 9c be 82 a1 88 be ea bc 85 be
       -0.37901962 -0.30590916 -0.2668572 -0.26120692

bias f4 [16]
000000 00 e4 1c 3a 55 94 ce 3e 52 02 d2 be cc 60 cc be
       0.00059849024 0.40347543 -0.41017395 -0.399176
000010 dd 6f db 3e 32 15 d5 3c 08 ae 4c 3e e4 ea f1 3e
       0.42858782 0.026011083 0.19988263 0.4724952
000020 1b 41 df 3e 9f d4 ad 3e eb 13 16 bf 8a 1c df be
       0.4360436 0.3395128 -0.5862414 -0.4357646
000030 cb fe 82 3e 26 de b3 bc 60 30 21 3e fc 82 7f 3e
       0.25585017 -0.021956515 0.1574111 0.2495231

weight f4 [16, 16]
000000 04 20 c2 3d 85 ea 99 3d a8 f0 3e 3d f1 1d 8a be
       0.09478763 0.07515434 0.046616226 -0.26975968
000010 16 9d ff 3d f1 86 3d be 2c bd 07 3e 34 a1 04 3e
       0.12481134 -0.18508507 0.13255757 0.12952119
000020 25 da 9c 3d 7c ef ee 3d d7 51 12 be 44 75 1e 3e
       0.07658795 0.11666772 -0.14289032 0.15474421
000030 ce 8e 70 be 20 14 df 3d c0 e3 ad bb c4 50 55 be
       -0.23491976 0.108925104 -0.005306691 -0.20831591
000040 80 b6 68 3c f8 68 de bd 00 d9 3d 3d 9a 94 69 be
       0.014203668 -0.10859865 0.046349525 -0.22810593
000050 2c 92 67 be d0 d1 43 bd 0c 22 f7 bd 1c 38 ab bd
       -0.22614354 -0.047807515 -0.12067041 -0.083603114
000060 10 bf 50 3d 00 20 6a b8 04 57 cb bd 98 09 5a 3e
       0.05096346 -5.581975e-05 -0.09928706 0.21292722
000070 60 6f 1d bc 40 79 26 3d e8 9c 1e 3d a0 de 76 bc
       -0.009609073 0.040642977 0.038723856 -0.015067726
000080 48 50 0b 3e 26 92 2b be 58 fe ab bd 54 98 48 be
       0.13604844 -0.1675497 -0.083981216 -0.19589359
000090 f6 6e 1e be d8 c1 1f bd 58 41 f8 bd 5c 4c 81 3d
       -0.15472016 -0.039003223 -0.12121838 0.063133925
0000a0 e6 ea 36 3e 20 ae 52 3e e0 0a be bc a0 d7 9f bd
       0.17863044 0.20574236 -0.023198545 -0.07804799
0000b0 e0 e0 73 bd c8 17 6e 3d 60 ca e9 bd 62 b2 47 be
       -0.05954063 0.05812815 -0.11415553 -0.19501641
0000c0 ec 98 72 3e d4 b7 cd 3d 8e 95 11 be 08 90 26 3d
       0.23691148 0.10044828 -0.14217207 0.040664703
0000d0 46 ac 67 be 80 0b 1f bb 14 65 4c be a8 72 48 bd
       -0.22624311 -0.002426833 -0.19960433 -0.04893747
0000e0 32 86 0d be 12 21 75 3e b8 d1 4f be 0e 41 01 3e
       -0.13820723 0.23938397 -0.20294845 0.12622473
0000f0 a4 bc 91 3d c6 db 0a 3e 7e ac 6f 3e 80 ba 2e 3e
       0.071160585 0.135604 0.23405644 0.17063332
000100 bc 80 15 be f0 a5 70 bd 3e 4b 20 be 6a 57 64 be
       -0.1459989 -0.058752 -0.15653703 -0.22298971
000110 80 06 9e bb d0 83 45 3e 60 4a 89 3d 70 f7 85 3d
       -0.004822552 0.19288564 0.06703639 0.065413356
000120 00 87 ee 3d 1c c7 6f 3e 82 1f 6f be 4c 77 68 3e
       0.11646843 0.23415798 -0.23351863 0.22701758
000130 00 c2 16 be e2 f6 05 be 50 e9 ef bc 88 56 cc 3d
       -0.14722443 -0.1308246 -0.029286057 0.09977442
000140 90 40 0b 3e 5c 23 96 bd 0c 82 b2 3d a0 dd 25 3c
       0.13598847 -0.07330963 0.08716211 0.01012364
000150 d0 20 4e 3d 0c e8 3d be 78 04 14 bd c0 1f 75 be
       0.05032426 -0.1854555 -0.036137074 -0.23937893
000160 d8 4b 4b 3d bc e3 29 3e 80 15 5b bb e6 d0 62 be
       0.049632877 0.1659078 -0.0033429563 -0.22150001
000170 70 31 3e bd ea 08 14 be c4 9f e2 bd be 43 7b 3e
       -0.046433866 -0.14456525 -0.11065629 0.2453756
000180 26 dd 25 be 00 69 03 3e 68 38 ec bd fc 97 a0 bd
       -0.16197643 0.12833023 -0.11534196 -0.07841489
000190 ce 98 08 be 16 a6 1b be 26 59 5e be 14 f7 62 be
       -0.1333954 -0.15200076 -0.21713695 -0.22164565
0001a0 42 66 28 be 80 a3 c0 3d 80 11 25 3d da f3 1d be
       -0.16445258 0.09406185 0.040299892 -0.15425053
0001b0 00 f4 70 bc c0 c5 f2 bd 58 89 e3 3d 1c f0 eb 3d
       -0.014706612 -0.11854124 0.111101806 0.115204066
0001c0 8c e7 f9 3d ab 00 a0 bd 66 46 3f 3e 22 34 65 be
       0.12202367 -0.078126274 0.18679199 -0.22383168
0001d0 fe c9 02 3e 66 6b f7 3d 60 c9 85 3c 84 fa 75 3e
       0.12772366 0.120810315 0.016331375 0.24021345
0001e0 2a fd 0c 3e f3 1f 1a 3e 66 d8 81 bd f8 fb 2c bd
       0.1376845 0.1505125 -0.06340103 -0.042232484
0001f0 15 78 b6 3d 2d 17 94 bd 06 85 72 be ce c5 26 be
       0.089096226 -0.07230983 -0.23683557 -0.16286394
000200 be 4a 10 be 3f 0e ee 3d b8 65 dc 3d 0a 45 aa 3c
       -0.14091012 0.11623811 0.10761589 0.020784874
000210 07 f9 d7 bd a1 85 32 be dc 2b 91 bd ca 70 31 3e
       -0.10545545 -0.17433788 -0.07088444 0.17328182
000220 6e ce b3 3d b1 08 0c bd 2a 0a 3e be 60 36 4f bc
       0.08779608 -0.034187976 -0.18558565 -0.012647241
000230 ce 94 ef 3d 8e f1 38 3e f6 11 30 be f2 8d 7d be
       0.11698304 0.18060896 -0.17194352 -0.24761179
000240 0e 63 40 be 03 d7 ac bd 80 d0 77 3c 5b 34 c7 bd
       -0.18787786 -0.08439448 0.015125394 -0.09726783
000250 7a 72 3b 3e 59 76 43 3e 28 9d 32 bd 28 fb 2a be
       0.18305388 0.19088115 -0.043606907 -0.16697371
000260 d8 2e 39 3e 06 9e a6 bc 65 96 24 3e 9a 1d 38 be
       0.18084276 -0.020339023 0.16072996 -0.17980042
000270 ca 93 6c 3e a8 16 0c 3d f2 19 03 be 42 f9 44 3e
       0.23103252 0.034201294 -0.12802866 0.1923571
000280 5c 46 67 3e 26 48 8f 3e 50 7c 5e 3e ec 70 94 bd
       0.22585434 0.27984732 0.21727109 -0.07248101
000290 10 3b 86 3e 3b 75 ac bd 08 ee 09 3d 00 70 ac 39
       0.26216936 -0.084207974 0.03367427 0.00032889843
0002a0 86 92 04 3e 05 b5 49 3e 62 87 bb bc 44 6b 59 be
       0.1294652 0.1969796 -0.022891704 -0.21232325
0002b0 e2 5d a0 3d f7 dc a2 3d 28 2f 45 3d 2c 75 70 3e
       0.07830407 0.07952302 0.048140675 0.23482198
0002c0 50 08 c0 3d 98 a9 5a be 30 21 2a be c4 8c 30 be
       0.093765855 -0.21353757 -0.16614223 -0.17241198
0002d0 80 e7 6d be 88 f3 b4 bd 5a 4b 17 3e 6e c0 49 be
       -0.23232841 -0.088355124 0.14774838 -0.19702312
0002e0 de 5d 6c 3e 2c 4b 55 be 70 53 af 3d 4e fc 38 3e
       0.23082682 -0.20829457 0.08560836 0.18064997
0002f0 fc 53 53 be 98 38 01 3d 9c 8b 35 3e 04 84 6a be
       -0.20637506 0.031548113 0.17729038 -0.22901922
000300 38 4f af bd 5e 06 42 3e d2 51 5f 3e 68 0d e3 bd
       -0.08560032 0.18947741 0.21808556 -0.110865414
000310 c0 7a c9 bc 16 a6 18 be 6e ed 5d 3e 2c a4 cb 3d
       -0.024594665 -0.14907107 0.21672603 0.09943423
000320 88 98 1c bd f0 e3 36 bd 58 b9 84 3d 74 1f 30 3e
       -0.038231403 -0.044650972 0.06480664 0.17199498
000330 74 8b e2 bd 14 27 99 bd d2 25 59 be 16 15 10 3e
       -0.11061755 -0.07478157 -0.21205834 0.14070544
000340 98 c1 8f bd bc f6 97 bd 3e 06 0e be 51 2a 1a 3e
       -0.07019347 -0.07420108 -0.13869569 0.15055205
000350 33 ba 1c 3e 19 79 a5 bd 10 39 31 3e 9e 18 75 3e
       0.15305404 -0.08079738 0.17306924 0.23935172
000360 aa 1f 36 3d ef d4 16 3c 57 a5 a1 bd 6a 84 51 3e
       0.04446379 0.009206041 -0.07892864 0.20460668
000370 1a 09 d6 3d 98 e5 33 3e 74 91 32 3e 40 aa cc bc
       0.10450955 0.17568052 0.17438298 -0.024983525
000380 6a f2 01 be 9e 03 0d be f8 18 18 be 30 21 cc 3d
       -0.1269013 -0.13770911 -0.14853275 0.099672675
000390 28 30 66 bd c0 3e a6 bd 06 49 64 3e 5c a1 84 3d
       -0.05619827 -0.08117437 0.22293481 0.06476089
0003a0 c0 65 ca bb c0 75 d8 3d 12 84 22 be 08 3a 2e be
       -0.0061766803 0.10569334 -0.15870693 -0.17014325
0003b0 00 1f fc ba e8 d4 7e be 70 be 67 3d de f9 2d 3e
       -0.0019235313 -0.24885905 0.0565781 0.16989848
0003c0 40 fa 83 3c 43 68 ac 3d 10 ba 4e be 7b 2b 82 be
       0.01611054 0.08418324 -0.20188165 -0.25423798
0003d0 0a 5b 0e be fc ce 0c be 98 a1 a3 bd f8 6f 09 3e
       -0.13901916 -0.13750833 -0.07989806 0.13421619
0003e0 c6 d7 f1 3d ce 29 19 bd ee 7e 4f 3e 58 a4 02 3e
       0.11808734 -0.037393384 0.20263264 0.12758005
0003f0 16 62 02 be 8d 89 bd bd 10 ef 8d bd 24 33 72 3e
       -0.1273273 -0.09254751 -0.06930363 0.23652321

bias f4 [16]
000000 b8 85 cd 3c 40 48 5c bd b4 25 58 be da 52 5a be
       0.025088176 -0.05377984 -0.21108133 -0.21320668
000010 7c 07 91 bd ce 6c 7b be d2 f7 41 be 2e 0e 0f 3d
       -0.07081506 -0.24553224 -0.18942192 0.034925632
000020 11 8a e5 bc d8 22 86 3e 6a 88 64 3e d8 57 85 3d
       -0.028019937 0.2619846 0.22317663 0.065108955
000030 0a 4f 09 be d8 f8 0e be 44 df a6 bd dc 95 8f bd
       -0.13409057 -0.13962114 -0.08148053 -0.07011005

weight f4 [32, 16]
000000 92 09 76 3e 02 19 5b 3e 9c 70 19 3e cc 19 08 3e
       0.24027088 0.21396258 0.14984363 0.1329109
000010 b8 60 21 3e c0 d0 fd 3c 2c a1 09 3e 75 2c 3c 3e
       0.15759552 0.030983329 0.13440388 0.18376334
000020 c1 23 85 bd bb 58 17 3d 61 a5 04 be 40 0b 18 be
       -0.0650096 0.036949854 -0.12953712 -0.14848042
000030 60 24 90 bc 59 1e ca 3d 84 6b d7 bd ab 9d eb 3d
       -0.01759547 0.098690696 -0.10518554 0.11504682
000040 57 d0 8e bd d8 b5 2b bd 00 8e 44 3c 0e f1 7d be
       -0.069733314 -0.041921467 0.011996746 -0.24798986
000050 a4 c8 f9 3d 5e b6 76 be 9e cc 0c 3e 89 bb d8 bd
       0.12196472 -0.24093005 0.1374993 -0.105826445
000060 a6 57 59 3e 9a 2c ba 3c e6 49 fd bc ca a0 67 be
       0.21224841 0.022726346 -0.030919027 -0.2261993
000070 e0 4f 2a be 4a 08 3b be ae d9 52 be ad ed 33 3e
       -0.16632032 -0.18264881 -0.2059085 0.17571135
000080 6c 0e 82 3d 40 21 71 be 14 18 8a bd a0 bf d9 bc
       0.06350407 -0.2354784 -0.06742874 -0.026580632
000090 f6 2c 36 3e e0 77 7e bd 80 60 0e be 06 a1 da bd
       0.17790589 -0.06212604 -0.13904 -0.10675244
0000a0 71 34 7b be ce 7b 20 be 8d a6 91 bd 6c f0 f2 bd
       -0.24531724 -0.15672228 -0.07111845 -0.11862263
0000b0 60 c8 4e 3d 53 16 15 3e 24 49 19 3e 68 9c 44 3e
       0.05048406 0.14559297 0.14969307 0.19200289
0000c0 a2 f4 77 be d8 f0 2d be 70 7d 27 be 20 f9 57 be
       -0.24214414 -0.16986406 -0.16356444 -0.21091127
0000d0 ac df 42 be d4 78 05 be 3c ec 09 3e d3 03 f6 bd
       -0.19030637 -0.13034374 0.13469023 -0.12012448
0000e0 90 c6 b2 bc f6 7f 94 3e 70 79 84 3e 78 31 70 3e
       -0.021823198 0.29003876 0.258739 0.23456371
0000f0 e0 89 57 be 45 be 18 3e 6c a9 79 be fe 89 22 bd
       -0.21048689 0.14916332 -0.24381036 -0.03968238
000100 0a e2 67 3e bc e5 69 be 34 31 86 bd f8 72 5f 3e
       0.22644821 -0.22841543 -0.065523535 0.21821201
000110 c8 c7 5a bd 38 4a 4b 3e 74 ec 73 be d6 c3 9f bc
       -0.053413182 0.19852531 -0.23820668 -0.019502562
000120 c1 2f 3e be 86 b8 33 3e 66 3f 5c be 44 99 68 3e
       -0.18572904 0.17550859 -0.2150856 0.22714716
000130 5a 82 15 be 07 84 5f be e0 27 4f bc e6 89 ee 3d
       -0.14600506 -0.21827708 -0.012643784 0.11647396
000140 c0 a4 13 be c6 5c 2f 3e f8 de 27 3d 30 f3 a8 3d
       -0.14418316 0.17125234 0.040984124 0.08249509
000150 00 c3 3c 3e 28 52 ca 3d 6c f6 7f be 66 08 2a 3e
       0.18433762 0.09878951 -0.24996346 0.16604766
000160 0c 91 38 3e 07 a2 0b be 65 ea ed 3d cc 0d b0 3d
       0.18024081 -0.13636027 0.11616973 0.085963815
000170 00 ac 72 3c 3e 84 0f be 8c 39 8c 3d eb 0a 94 3d
       0.014811516 -0.1401529 0.06846914 0.07228645
000180 9f 08 9e bb b4 68 42 be c0 e0 a1 3b 18 e5 94 bd
       -0.004822805 -0.18985254 0.0049401224 -0.07270259
000190 ea 18 1d 3e de d7 6d 3e 70 ce 41 bd 20 04 04 3e
       0.15341535 0.23226878 -0.047316015 0.12892199
0001a0 34 8b b6 3d 3c 78 d8 3c 0e 55 1e 3e 30 fa 13 3d
       0.0891327 0.02642452 0.15462133 0.03612727
0001b0 9e ab 43 be 18 83 c4 3d 26 84 26 3e 18 e6 35 3e
       -0.19108436 0.09595317 0.16261348 0.17763555
0001c0 1d 4c 46 be f8 ea 02 be f8 66 2f 3d 00 68 2e 39
       -0.19364972 -0.12784946 0.042822808 0.00016632676
0001d0 a8 a2 11 bd c0 8c d3 3b 90 cb ec 3c 9d cb a6 3d
       -0.03555551 0.0064559877 0.02890566 0.08144305
0001e0 7d be 6e 3c 4c c2 d4 bd 02 72 c1 3c be 62 0b 3e
       0.014571783 -0.10388622 0.023613933 0.13611886
0001f0 c0 e9 1f bc b4 fd ae 3d 06 75 6a 3e 20 7d 32 3e
       -0.00976032 0.08544484 0.22896203 0.17430544
000200 f1 f7 76 bd b8 22 40 3e a8 57 90 3d 14 93 5b be
       -0.06029505 0.18763244 0.07047969 -0.21442825
000210 70 1a 86 3d da 3f 2b be b8 d4 48 3d 0f 70 54 3d
       0.06548011 -0.16723576 0.04903099 0.05186468
000220 54 41 41 be 8a 61 cf 3c 50 fa c5 bd c0 9c ee 3c
       -0.18872577 0.025315065 -0.09666884 0.029127479
000230 00 33 70 3b 9d 2d 0f 3e 58 18 79 3e ae f3 a4 bc
       0.0036651492 0.13982244 0.24325693 -0.020135727
000240 00 aa b3 3c 86 bb 0f be 5a 97 41 be 52 2f 3e 3e
       0.021931648 -0.14036378 -0.18905392 0.18572739
000250 18 61 19 3e 50 e7 f5 bc 48 b7 5f bd 2d 83 bd bd
       0.14978445 -0.030017525 -0.05461815 -0.092535354
000260 ba e1 ea 3c e7 44 8b 3b 05 f1 55 3e 00 76 af 3d
       0.028672088 0.004250157 0.20892723 0.085674286
000270 40 70 82 3b 19 ca 8f 3e 02 c4 50 3e aa c9 06 3c
       0.0039806664 0.28083876 0.20387271 0.008226791
000280 cc c9 31 3e 88 81 1d bd 98 0c 35 bd d8 8c 0e 3d
       0.17362136 -0.03845361 -0.044201463 0.034802288
000290 5e 35 18 3e 30 06 35 3d 12 14 4f 3e 26 d4 57 bd
       0.14864108 0.044195354 0.202225 -0.052692555
0002a0 40 a8 2b be 16 8e 31 bd 74 96 ec 3b c6 5e 28 be
       -0.16763401 -0.043348394 0.007220084 -0.16442403
0002b0 7e 65 26 be ec 6f 8f 3d 40 8b 45 3d b5 92 67 bd
       -0.16249654 0.07003769 0.048228502 -0.056536395
0002c0 a4 e9 5e 3e e2 f7 69 be 3a 8f 1c be 90 5f 11 3d
       0.21768814 -0.22848466 -0.15289012 0.035491526
0002d0 f4 ee 4c be f4 57 37 3e 14 0a b3 3d 00 0f e1 bd
       -0.20013028 0.17904645 0.087421566 -0.10989189
0002e0 5e dd 02 bd d1 68 ee bd 85 99 9a bc e4 bf e3 bd
       -0.031949393 -0.11641086 -0.018872032 -0.111205846
0002f0 a2 ab 1f be 03 f8 af bc c0 f4 c2 3b a4 3c 0f bd
       -0.15592816 -0.021480566 0.0059495866 -0.03496994
000300 97 46 70 be 04 d2 50 3e 3e da 5a be 4e 7b 1d 3e
       -0.23464428 0.20392615 -0.21372315 0.15379068
000310 38 c7 42 3d 4e 11 0e 3e 68 36 29 3e 32 ca 3f be
       0.04755327 0.13873789 0.1652466 -0.18729475
000320 60 cf 8d bd 26 ff 4a 3e 22 95 0d 3d 30 8e b0 bd
       -0.06924319 0.19823894 0.034566052 -0.0862087
000330 e0 f1 33 bd 85 ab b2 bd f4 63 ba 3d 1d 6d ce bd
       -0.04393184 -0.08724121 0.09101096 -0.100794055
000340 f1 97 55 bc f8 d1 1b 3d 66 82 06 be 18 8a 11 3e
       -0.013036714 0.03804204 -0.1313568 0.14212835
000350 d8 98 e7 3d 00 13 fa bd 80 63 cc bc dc 59 5a 3e
       0.113084495 -0.12210655 -0.024949789 0.21323341
000360 81 a5 06 be bb b5 4d bd 14 a2 77 bd e8 fc 6d 3e
       -0.13149072 -0.05022214 -0.060457304 0.23241007
000370 d4 0b c4 bd 51 54 77 be 00 8c 62 3d 5c 57 64 bd
       -0.095725685 -0.24153258 0.055309296 -0.055747375
000380 5c 0d 5a 3d 00 9a f3 bc 24 26 eb 3d b0 4a 91 bd
       0.053235397 -0.029736519 0.11481884 -0.07094324
000390 e8 2b 4a 3d ee c0 01 be ca 2b 07 be 93 eb 03 3e
       0.04935828 -0.12671253 -0.13200298 0.12882833
0003a0 8b bb 09 be d0 2b 1c be a5 c5 ba 3c d0 89 a1 bd
       -0.13450448 -0.15251088 0.022799322 -0.07887614
0003b0 ca 50 2d 3e be 62 f9 bd 70 1c 84 bc f9 09 d9 bd
       0.1692535 -0.12177037 -0.016126841 -0.10597605
0003c0 52 e0 c7 3d c0 08 8b bd d4 b4 95 bd 38 57 81 3d
       0.097595826 -0.06788778 -0.07309881 0.06315464
0003d0 1c b0 af bd 2c 78 1a be 66 d5 5d be da d6 0b 3d
       -0.08578512 -0.15084904 -0.21663436 0.034140445
0003e0 a4 a6 1c 3d 6d f6 7e bd cd 1d 6f 3e 4a 95 2e be
       0.03824486 -0.06224673 0.23351212 -0.17049137
0003f0 88 04 0f 3d b9 d8 42 be 86 0f 33 3e c9 99 83 3d
       0.03491643 -0.19027986 0.1748639 0.064258166

bias f4 [32]
000000 dd a3 5f bd 0d 81 ad bd dc 91 bc 3c 57 2d 80 3e
       -0.05459963 -0.0847188 0.02301877 0.25034592
000010 3a f3 91 be 24 40 70 3e a4 57 35 be 3e 46 87 3e
       -0.2850588 0.23461968 -0.17709213 0.26420778
000020 e0 83 87 be 0b 04 54 3e 54 29 83 3e 7e e3 f0 bd
       -0.264678 0.20704667 0.25617468 -0.11762141
000030 3a ef 1a 3e 0b 83 17 be 55 65 a2 3c 38 ba e5 3b
       0.1513032 -0.14796083 0.01982371 0.0070107244
000040 61 17 1b be 03 81 4a 3e 3d 5f 0c 3d c4 48 29 3e
       -0.15145637 0.19775777 0.034270514 0.16531664
000050 f4 ff e1 3d bf 16 c2 3b 2c a4 91 be 9d 2d 2f 3e
       0.11035147 0.0059231217 -0.28445566 0.17107244
000060 b1 0b 3e 3e a3 0d da bd 08 71 58 be 26 fd 2d be
       0.18559147 -0.10647132 -0.21136868 -0.169911
000070 c6 ef a0 3e d4 93 ec bd 01 b9 99 3b 5c c0 45 bd
       0.31432933 -0.115516335 0.0046912436 -0.04827915

weight f4 [16, 2]
000000 9a 31 a4 3e c8 5c 21 bf 12 9a 1a bf 92 3b db 3e
       0.32069093 -0.630322 -0.6039134 0.42818886
000010 80 c7 c6 3b 70 88 bb bd 32 c0 fc 3e 68 f2 80 be
       0.0060662627 -0.09156883 0.49365383 -0.2518494
000020 c0 50 25 3c 59 af 2d bf 71 f1 02 bf bd 59 1a bf
       0.010090053 -0.67845684 -0.5114966 -0.6029318
000030 28 8a 93 bd c0 eb 11 bc ef 4a 25 3f 0a 1e 7b be
       -0.072040856 -0.008906305 0.64567465 -0.24523178
000040 17 37 2f bf 31 6f 06 3f 38 77 c7 3d a9 4b 09 3f
       -0.68443435 0.52513415 0.09739536 0.53631073
000050 73 d5 13 3f 4c c1 88 be c4 c4 27 be ab 50 30 3f
       0.5774757 -0.26709974 -0.16383654 0.6887309
000060 a7 89 26 3f 17 29 26 3f 82 75 eb 3e b2 b6 c7 3e
       0.6505379 0.6490645 0.4598809 0.39006573
000070 50 fd 48 3e b1 76 1c bf 20 62 31 3d b5 17 19 3f
       0.19627881 -0.6111861 0.04330647 0.598018

bias f4 [16]
000000 37 22 07 bf 08 e1 86 3e 8d 1c 2d bf 9c 86 60 3e
       -0.5278658 0.2634356 -0.6762169 0.2192635
000010 5f 55 2c 3f 3c dd 22 bf c2 de e6 be d0 70 0d bf
       0.67317766 -0.63618827 -0.45091826 -0.55250263
000020 70 92 45 3d 06 52 1b bf 48 1c 89 be 46 1c 9d 3e
       0.048235357 -0.6067203 -0.2677939 0.30685633
000030 5a 4b f0 be 8d 43 91 be b8 cd 8e be 41 38 26 3f
       -0.4693249 -0.2837185 -0.27891326 0.64929587
