logs/测试学习率策略对训练准确度与稳定性的影响/model.lr=0.002scheduler.MultiStepLR.milestones=[10, 20, 30]scheduler.MultiStepLR.gamma=0.5/test_model_20250419_101031.pth (torch, 193285 bytes, 32 tensors)

weight f4 [128, 1]
0.11048545 -0.27532464 0.4813922 0.5159425 0.5812683 -0.77533555 -0.1719197 0.58299637
0.4824937 0.14511201 -0.7950012 0.54710704 -0.13664728 0.7980318 0.11448467 0.33259022
-0.42707503 -0.07018185 0.53894085 -0.7208911 -0.4079864 0.244578 -0.27423692 -0.61119485
-1.0106918 0.26779926 -0.20264746 0.8371528 -1.1151595 0.5485401 0.8175979 0.8344965
-0.590674 0.5189949 -0.56876653 -0.33920312 1.1566958 -0.69632053 0.31299612 -0.32995865
0.18920842 -0.10524775 -0.8608154 0.7050098 0.94120526 -0.34534705 -0.13535866 0.072138734
-0.24424434 -1.1273794 0.80688155 -0.8079644 0.12750661 0.44956246 0.27320573 -0.38041264
0.09447273 0.6380712 0.064396285 -0.77444696 0.5846101 -0.39153945 0.00028218733 -0.4177209
-0.9824784 0.3518038 0.05418241 0.6155581 -0.4591841 0.08669543 -0.9848462 -0.0690307
-0.88532424 0.057231918 -0.41913596 0.13364315 0.7984457 0.66636705 0.57035273 -0.19807196
0.24595857 0.7489934 -0.56194675 -0.8929515 0.73992205 -0.0027537013 0.6618961 -0.9271983
0.89667803 0.12607488 0.3128369 0.17499554 -0.07755671 -0.87293386 -0.055711508 -0.7123286
0.3899997 -1.0289904 0.0005863724 -0.34619164 0.2258014 -0.9740624 -0.8464018 0.110017374
0.751859 -0.858491 -0.010557431 0.26264086 0.8604102 -0.3822385 -0.28445625 -0.5712935
-0.6759758 -1.0942241 0.633277 -0.11759162 -1.1995528 -0.63149756 0.53859913 0.70697355
0.78491205 -0.22234571 -0.009574245 0.42700794 -0.9998771 0.8908268 -0.60096276 0.26304722
00000000: 3246 e23d 5af7 8cbe 0a79 f63e cf14 043f
00000010: 00ce 143f 647c 46bf b80b 30be 403f 153f
00000020: 6a09 f73e 3e98 143e 3385 4bbf 350f 0c3f
00000030: 44ed 0bbe d04b 4c3f f076 ea3d 4449 aa3e
00000040: 94a9 dabe 80bb 8fbd 07f8 093f 528c 38bf
00000050: 98e3 d0be a872 7a3e c868 8cbe 4477 1cbf
00000060: 595e 81bf fc1c 893e d182 4fbe a54f 563f
00000070: 8cbd 8ebf 206d 0c3f 194e 513f 90a1 553f
00000080: 6936 17bf dadc 043f af9a 11bf 08ac adbe
00000090: 9c0e 943f 1042 32bf 0741 a03e 57f0 a8be
000000a0: dabf 413e 228c d7bd 665e 5cbf 867b 343f
000000b0: d4f2 703f 54d1 b0be 769b 0abe 79bd 933d
000000c0: 301b 7abe f84d 90bf ca8f 4e3f c1d6 4ebf
000000d0: 1891 023e 0d2d e63e 9fe1 8b3e 72c5 c2be
000000e0: eb7a c13d a258 233f 33e2 833d 2842 46bf
000000f0: 02a9 153f dc77 c8be 8bf2 9339 84df d5be
00000100: b483 7bbf a11f b43e 60ee 5d3d 3795 1d3f
00000110: 2e1a ebbe 608d b13d e11e 7cbf f85f 8dbd
00000120: 9ca4 62bf 046c 6a3d fd98 d6be c0d9 083e
00000130: f066 4c3f 0897 2a3f a302 123f 60d3 4abe
00000140: 90dc 7b3e 08be 3f3f bedb 0fbf 7898 64bf
00000150: 886b 3d3f 7177 34bb 0672 293f de5c 6dbf
00000160: b18c 653f c619 013e 282c a03e 0832 333e
00000170: 0dd6 9ebd 9878 5fbf c031 64bd 2b5b 36bf
00000180: 0aae c73e f5b5 83bf c9b6 193a 0840 b1be
00000190: 7b38 673e 275c 79bf caad 58bf ca50 e13d
000001a0: d579 403f 11c6 5bbf 13f9 2cbc dd78 863e
000001b0: d843 5c3f c4b4 c3be 40a4 91be 4a40 12bf
000001c0: c00c 2dbf 890f 8cbf 711e 223f e0d3 f0bd
000001d0: f28a 99bf d3a9 21bf a2e1 093f 38fc 343f
000001e0: ffef 483f 98ae 63be 4bdd 1cbc c9a0 da3e
000001f0: f2f7 7fbf 3a0d 643f b2d8 19bf 20ae 863e

bias f4 [128]
0.48546734 0.48363927 -0.13591573 -0.3754447 -0.6036264 -0.004969059 -0.97931135 -0.9063543
0.45005897 0.19313005 -0.0054759756 -0.56851417 0.45111355 -0.34629238 -0.9166486 0.84266907
-0.896189 -0.7497649 0.0029701788 -0.9422587 -0.0007474793 -0.74514186 -0.90440774 -0.6669457
-0.3737709 -0.7402017 0.53963244 -0.6522938 0.46849746 -0.5797018 0.83032876 -0.8992858
-0.0073495624 -0.005821813 -0.0014824339 0.47074258 -0.49361283 -0.9833034 -0.20023634 0.26662046
0.8104317 -0.13339598 -0.0021729914 -0.5692264 -0.50677097 0.49369243 0.39988965 0.4749056
-0.997491 -0.39549503 -0.35046303 0.4965191 -0.42562985 0.4511356 0.85938025 -0.39079726
0.5351751 -0.85712314 0.19432595 0.18164478 0.69768274 -0.53611815 0.6657451 -0.52429044
-0.08164843 0.7600965 -0.7667482 -0.15222879 -0.00087744975 -0.55011344 0.41583085 0.6354261
-0.006179066 0.7923132 0.31601244 -0.80799234 -0.8813056 -0.3726638 0.77551156 -0.7473434
-0.88672495 -0.8640635 0.66717774 -0.9314444 0.026024073 0.29951754 -0.004267748 -0.3223036
-0.48770407 0.50422955 -0.8178916 -0.17762291 0.5698453 -0.34200394 -0.57785285 -0.7218543
0.41573814 -0.0106595205 0.7123194 0.7238858 0.22881144 -0.001157719 0.663678 0.14173509
0.003342239 0.059232093 -0.012533289 0.3918303 0.0020757208 -0.0012085352 -0.6278324 -0.6397488
0.008064706 -0.17870119 0.7953128 -0.6347574 0.23110367 -0.0044112313 0.52147925 0.81765074
-0.015696818 0.43507648 -0.010959881 0.2556497 -0.0010454642 -0.2661636 -0.7252914 -0.7052257
00000000: 2d8f f83e 919f f73e 7e2d 0bbe 4a3a c0be
00000010: 4287 1abf 7dd3 a2bb 26b4 7abf d606 68bf
00000020: 216e e63e e2c3 453e d06f b3bb 258a 11bf
00000030: 5bf8 e63e 3c4d b1be 7ca9 6abf 29b9 573f
00000040: a46c 65bf 98f0 3fbf 55a7 423b de37 71bf
00000050: 7df2 43ba 9ec1 3ebf 4487 67bf f4bc 2abf
00000060: e65e bfbe dc7d 3dbf 5a25 0a3f bafc 26bf
00000070: e6de ef3e 5667 14bf 6d90 543f 9837 66bf
00000080: 99d4 f0bb e8c4 bebb 3a4e c2ba 2c05 f13e
00000090: d2ba fcbe c6b9 7bbf c10a 4dbe 7a82 883e
000000a0: 7478 4f3f f598 08be bf68 0ebb d2b8 11bf
000000b0: bebb 01bf 41c5 fc3e 56be cc3e d426 f33e
000000c0: 925b 7fbf 537e cabe e46f b3be c037 fe3e
000000d0: 28ec d9be 3ffb e63e 5800 5c3f 9416 c8be
000000e0: 3c01 093f 6c6c 5bbf 62fd 463e 1701 3a3e
000000f0: 569b 323f 0a3f 09bf 456e 2a3f e637 06bf
00000100: 4b37 a7bd af95 423f 9c49 44bf dde1 1bbe
00000110: a804 66ba 3cd4 0cbf c8e7 d43e 49ab 223f
00000120: c379 cabb 0ad5 4a3f 62cc a13e 96d8 4ebf
00000130: 3e9d 61bf cacd bebe ed87 463f e651 3fbf
00000140: 6800 63bf 4433 5dbf 29cc 2a3f 2473 6ebf
00000150: 7030 d53c 5d5a 993e 77d8 8bbb fa04 a5be
00000160: 59b4 f9be 3015 013f 5861 51bf c8e2 35be
00000170: 62e1 113f 241b afbe 2aee 13bf 72cb 38bf
00000180: a1db d43e 45a5 2ebc 905a 363f 9450 393f
00000190: 8c4d 6a3e 9abe 97ba cde6 293f 0123 113e
000001a0: 7709 5b3b 5a9d 723d 6d58 4dbc fb9d c83e
000001b0: d108 083b b667 9eba a0b9 20bf 94c6 23bf
000001c0: d421 043c 72fd 36be 9f99 4b3f 767f 22bf
000001d0: 71a6 6c3e 178c 90bb aa7f 053f 8f51 513f
000001e0: 9d96 80bc 58c2 de3e 1391 33bc 84e4 823e
000001f0: f507 89ba 9846 88be b2ac 39bf ac89 34bf

weight f4 [8, 128]
0.07526671 -0.004958854 -0.03511874 -0.043353938 -0.170156 -0.2848495 -0.035531268 -0.0864538
0.13076726 0.10566497 -0.31221583 -0.049117956 0.10578587 -0.08789271 0.05426716 0.10306376
-0.050498847 -0.060084812 -0.070331305 0.070946954 -0.31262773 -0.02538257 -0.078730956 0.012619421
-0.25450295 -0.005292736 0.01564015 -0.064737424 -0.04742688 0.0115373805 0.12504783 0.074029885
-0.15134442 0.0029572067 -0.26337877 0.05432509 -0.26329803 0.037661545 -0.038917616 0.06116961
0.100105904 -0.011719805 -0.20846972 -0.098198965 -0.20400298 0.092608556 0.12371615 0.09133766
0.019825727 -0.35348976 -0.0801745 0.09608014 -0.07801353 0.14277248 0.00555071 -0.04162076
0.061614014 -0.07110661 0.02306059 0.035775136 0.14310174 0.022052519 0.11471237 -0.02151385
-0.42818174 0.11200604 0.041846924 -0.09057779 -0.35084516 -0.0019980893 -0.006854457 0.008100223
-0.31478938 0.041824806 -0.03198149 0.061945 0.039090596 -0.106392324 0.030209955 -0.04214604
-0.02363845 -0.06884878 0.055715557 -0.018879473 -0.038920708 0.035414923 -0.06988893 -0.30821103
-0.10708661 0.11034788 -0.08795743 -0.06798769 0.07208393 -0.42271036 0.04855583 -0.03377098
0.081616804 -0.3604422 0.14013173 0.10278993 0.04605714 -0.1795451 0.07332791 0.027316842
-0.099636436 -0.1401914 0.07864731 0.06736066 0.03844403 -0.11090583 0.042797364 -0.043838568
-0.37389392 -0.35284862 0.025290553 0.05134482 -0.12988752 -0.46740967 0.083013825 0.06076101
0.021905497 -0.0021359308 -0.04609198 0.09432269 -0.39426768 -0.011840962 -0.01349584 -0.012689024
-0.18116021 -0.10060533 -0.05507081 0.03416853 -0.009248175 0.28951877 -0.008427598 -0.025783643
-0.12454647 -0.1950355 0.2630823 -0.028357746 -0.109329455 0.06660227 -0.02853426 -0.18517339
-0.08113187 0.034458987 -0.1517525 -0.060058996 0.25815082 0.04795804 -0.01488477 0.01695554
0.1623931 0.056592233 -0.07734134 -0.021222338 0.053716205 0.052998297 -0.07014358 0.019369483
0.2022521 0.014781148 0.17475012 -0.09096027 0.008884607 -0.08682511 -0.056708157 0.04156908
-0.07435087 0.0032651722 0.10850279 -0.0581354 0.059283923 -0.087757014 -0.047423653 -0.15153146
0.07300923 0.17914408 0.068411395 0.074297465 0.06793205 -0.13392167 -0.16521253 -0.015815424
-0.06288256 0.049652852 -0.1383326 0.093456335 -0.12924546 0.00010000169 -0.13366608 0.03235034
0.26235634 -0.15473716 0.006218776 0.005806572 0.18539499 0.008718297 0.023802608 -0.12585795
0.1510621 -0.1433781 -0.09138924 -0.0017684326 -0.060010366 0.04562918 -0.20115335 -0.017064586
-0.031669006 0.05452121 -0.057862908 0.02644936 -0.11782506 -0.030657165 0.0419937 0.21230757
-0.005683152 -0.06869023 -0.07990525 -0.032498267 -0.06651745 0.18581712 -0.057579845 0.123262085
-0.07989506 0.16517061 -0.068547435 0.012976376 -0.09258699 0.27084655 -0.071518674 -0.1511937
-0.073080696 0.0948473 -0.012858198 -0.16168004 0.030871797 0.16688871 -0.048923913 -0.0865848
0.18058245 0.23014541 -0.07527905 0.051222928 0.09750777 0.15598644 -0.13342547 -0.17895386
0.026635734 -0.021438269 -0.00086159096 -0.07113009 0.24678893 0.06198385 0.05159635 0.015558764
00000000: 6f25 9a3d e27d a2bb abd8 0fbd e693 31bd
00000010: 603d 2ebe cbd7 91be 3c89 11bd b10e b1bd
00000020: dae7 053e e066 d83d c1da 9fbe e92f 49bd
00000030: 43a6 d83d 1801 b4bd 3e47 5e3d 1813 d33d
00000040: e1d7 4ebd 7e1b 76bd dc09 90bd a34c 913d
00000050: be10 a0be 1cef cfbc b23d a1bd b0c1 4e3c
00000060: 364e 82be b06e adbb c61f 803c 0e95 84bd
00000070: b042 42bd 4807 3d3c 8a0c 003e fb9c 973d
00000080: 08fa 1abe b2cd 413b 95d9 86be fc83 5e3d
00000090: 00cf 86be fe42 1a3d 1468 1fbd fc8c 7a3d
000000a0: 5304 cd3d 6d04 40bc 1679 55be 8a1c c9bd
000000b0: 28e6 50be 8ea9 bd3d e55e fd3d 3d0f bb3d
000000c0: 9069 a23c 9cfc b4be 8732 a4bd aac5 c43d
000000d0: 8fc5 9fbd f332 123e bbe2 b53b 887a 2abd
000000e0: fa5e 7c3d 58a0 91bd 90e9 bc3c f388 123d
000000f0: 4389 123e 7ca7 b43c 52ee ea3d d03d b0bc
00000100: a33a dbbe 6c63 e53d ae67 2b3d d980 b9bd
00000110: faa1 b3be 60f2 02bb 5a9b e0bb ccb6 043c
00000120: 132c a1be 7d50 2b3d 06ff 02bd 0aba 7d3d
00000130: 761d 203d 38e4 d9bd de7a f73c 53a1 2cbd
00000140: 6ca5 c1bc 9700 8dbd ff35 643d 20a9 9abc
00000150: 526b 1fbd 3d0f 113d ed21 8fbd d6cd 9dbe
00000160: 3950 dbbd 12fe e13d 0623 b4bd 213d 8bbd
00000170: bda0 933d 7e6d d8be 7ae2 463d 7053 0abd
00000180: b626 a73d e18b b8be b17e 0f3e 8783 d23d
00000190: 69a6 3c3d acda 37be f12c 963d 92c7 df3c
000001a0: 300e ccbd 568e 0fbe d711 a13d 63f4 893d
000001b0: 7d77 1d3d 9922 e3bd 4a4c 2f3d 1290 33bd
000001c0: 066f bfbe 93a8 b4be 222e cf3c f24e 523d
000001d0: 3c01 05be 5250 efbe 2703 aa3d 89e0 783d
000001e0: 2873 b33c f9fa 0bbb f2ca 3cbd 412c c13d
000001f0: 74dd c9be 9800 42bc a81d 5dbc a0e5 4fbc
00000200: 1082 39be 2b0a cebd ee91 61bd 4df4 0b3d
00000210: a885 17bc ce3b 943e e813 0abc 3838 d3bc
00000220: 3812 ffbd 63b7 47be b9b2 863e 814e e8bc
00000230: 1fe8 dfbd c566 883d aec0 e9bc 189e 3dbe
00000240: 7728 a6bd de24 0d3d 0265 1bbe 6c00 76bd
00000250: 582c 843e a66f 443d 40df 73bc 58e6 8a3c
00000260: 604a 263e 42cd 673d 2365 9ebd 78da adbc
00000270: 8605 5c3d be14 593d 70a7 8fbd c0ac 9e3c
00000280: 2d1b 4f3e a12c 723c b2f1 323e 6149 babd
00000290: be90 113c 5dd1 b1bd d046 68bd 5744 2a3d
000002a0: 4545 98bd 80fc 553b b636 de3d 631f 6ebd
000002b0: b3d3 723d f3b9 b3bd 4e3f 42bd 102b 1bbe
000002c0: dd85 953d 8c71 373e 461b 8c3d 4529 983d
000002d0: f51f 8b3d c322 09be 792d 29be 598f 81bc
000002e0: 92c8 80bd ca60 4b3d 10a7 0dbe 0966 bf3d
000002f0: ec58 04be 00b8 d138 c3df 08be ca81 043d
00000300: 9253 863e 6b73 1ebe e0c6 cb3b 0e45 be3b
00000310: 2fd8 3d3e 30d7 0e3c b0fd c23c e8e0 00be
00000320: 06b0 1a3e b5d1 12be 482a bbbd c0ca e7ba
00000330: 6ecd 75bd aae5 3a3d 25fb 4dbe 08cb 8bbc
00000340: 5cb7 01bd a251 5f3d a801 6dbd 54ac d83c
00000350: 444e f1bd bc24 fbbc 9601 2c3d 2867 593e
00000360: bc39 babb 77ad 8cbd 5da5 a3bd e71c 05bd
00000370: 4d3a 88bd d846 3e3e d8d8 6bbd d570 fc3d
00000380: 05a0 a3bd 7c22 293e 9962 8cbd de9a 543c
00000390: 3f9e bdbd 66ac 8a3e 6278 92bd 85d2 1abe
000003a0: 55ab 95bd 4d3f c23d 31ab 52bc 748f 25be
000003b0: dae6 fc3c e0e4 2a3e 7164 48bd 5f53 b1bd
000003c0: 9bea 383e 3dab 6b3e e72b 9abd 22cf 513d
000003d0: 27b2 c73d e9ba 1f3e b0a0 08be ae3f 37be
000003e0: 2f33 da3c 4f9f afbc 64dc 61ba a7ac 91bd
000003f0: 3db6 7c3e c7e2 7d3d b256 533d 30ea 7e3c

bias f4 [8]
0.019126689 -0.07946847 -0.06179388 0.1447961 0.07143513 0.084285595 -0.039973535 -0.055782482
00000000: 93af 9c3c 5dc0 a2bd 941b 7dbd 6e45 143e
00000010: 954c 923d ed9d ac3d 4abb 23bd 2c7c 64bd

weight f4 [16, 2]
0.34500635 -0.09273575 0.49561414 0.05283172 -0.4670512 0.47666088 -0.58204174 -0.5063145
-0.2991831 -0.5601655 0.039967585 -0.044319753 -0.17797905 -0.38140494 -0.6759173 -0.2752137
-0.18815291 -0.44264743 -0.5378572 -0.6645714 0.63878894 -0.19886756 0.22176272 0.37834212
-0.5062682 -0.07287973 0.25200456 -0.16831695 -0.13384861 0.22141649 -0.60603684 -0.18189621
00000000: aca4 b03e 3eec bdbd 23c1 fd3e 1366 583d
00000010: 5621 efbe e50c f43e b000 15bf d49d 01bf
00000020: 872e 99be 0267 0fbf 0db5 233d a188 35bd
00000030: 2440 36be 8247 c3be eb08 2dbf cfe8 8cbe
00000040: 28ab 40be afa2 e2be 02b1 09bf 5a21 2abf
00000050: ac87 233f f0a3 4bbe c415 633e 0fb6 c13e
00000060: cb9a 01bf f841 95bd be06 813e 475b 2cbe
00000070: 9c0f 09be 01bb 623e 3b25 1bbf 0043 3abe

bias f4 [16]
-0.4919362 0.037122115 -0.50548404 0.48723167 -0.48725784 0.5860141 0.37678164 -0.0462932
-0.16542512 0.5058493 0.5437296 0.4225547 0.2153387 -0.8581697 0.6726664 0.21035045
00000000: 10df fbbe 5c0d 183d 6767 01bf 6e76 f93e
00000010: dc79 f9be 0505 163f 86e9 c03e f09d 3dbd
00000020: 3465 29be 577f 013f dd31 0b3f 1759 d83e
00000030: c081 5c3e 02b1 5bbf dd33 2c3f 1c66 573e

weight f4 [16, 16]
0.036626533 0.10203523 -0.16357154 0.23350957 -0.23199153 -0.031670123 0.18797854 0.051992714
0.057921916 -0.018580347 0.08593696 -0.36153254 -0.0506306 0.19803046 -0.14937738 0.15324074
0.09021327 -0.11170524 -0.24392328 -0.12459314 -0.22250763 0.15683651 0.03524068 -0.088395864
0.02201289 -0.039150894 -0.21777076 -0.044261456 -0.006272793 0.07382473 0.13064349 -0.1512596
-0.10530626 -0.07557628 0.0009224713 -0.0969201 -0.13695994 -0.22060433 0.12693197 -0.16987851
0.036529392 0.09002507 -0.02786078 -0.13425118 -0.20172864 0.012612756 0.093280286 -0.14828297
-0.37323135 0.011484051 -0.059220754 -0.19628099 -0.119652 0.11142316 0.1929707 -0.19183841
0.013089329 0.13177705 0.02756557 -0.0052926056 -0.17049605 -0.27475736 -0.12612174 0.14015737
0.15405765 -0.024999756 -0.14733316 0.11130443 0.08266094 -0.12074087 -0.014674246 -0.11692238
0.016376644 0.10775277 -0.23048326 0.16325156 0.06156361 0.05420121 -0.2042832 -0.21625745
0.068882756 0.16164097 -0.26968712 -0.09007585 -0.15380764 -0.18655053 0.14337271 -0.041821897
-0.045963675 -0.22511151 -0.282112 -0.18824749 -0.10999408 0.17225568 0.16324213 0.104025096
-0.13475512 0.012917242 -0.21899869 -0.22061324 -0.004843414 0.14884111 0.22826105 0.18165964
-0.1359869 0.14944568 0.0796944 -0.17705716 0.18334246 0.060413394 0.18234433 -0.20776245
-0.118638635 -0.23767444 0.0032576323 0.15801513 -0.035884947 0.2025477 -0.23280135 -0.18577883
0.032321304 -0.068535924 -0.12085596 -0.2143206 0.0445835 0.053661168 -0.09814444 0.0068570673
-0.16939199 -0.11542565 -0.1711328 -0.11277309 0.123307616 -0.23208296 -0.16460052 0.20693627
0.20612717 0.14259684 -0.12498504 -0.23024586 0.111299336 0.2445809 -0.21476084 -0.01955685
0.04527108 0.086486116 -0.0019421701 -0.075054854 0.009879738 -0.28559905 0.14571244 -0.07519874
0.07107204 0.21099767 -0.20547257 -0.027235575 0.022099614 -0.042473592 -0.0729902 -0.08248383
0.12475388 0.17237957 -0.070753425 -0.089650095 0.015937239 -0.021408072 0.021215647 -0.16229182
-0.010528952 -0.103711665 0.14773133 -0.031422757 0.04621449 -0.16201742 0.0056247297 -0.008570552
0.028512927 0.010209709 0.13509026 0.19965196 -0.2277317 0.2647885 0.19847089 -0.12919179
-0.20568877 0.12134594 -0.006607322 -0.16559544 -0.062402397 -0.24006611 -0.03780656 0.15579236
0.052980483 -0.06867343 -0.06324631 0.15223187 0.020001471 -0.11995742 -0.10102433 0.163127
0.03621146 0.18071055 -0.1100986 -0.14191413 -0.21291444 -0.2420085 0.1277422 0.09422195
0.11684725 -0.13178295 0.022868395 -0.028098196 0.12715343 -0.197519 -0.17564261 0.05848539
-0.093548894 0.21171176 0.10034034 -0.22760269 -0.15627882 -0.16186607 -0.12683895 0.07118732
0.33288157 0.18328659 -0.040611695 -0.050662547 0.065618545 -0.15624052 -0.13121918 0.14287537
0.0650889 0.16726509 0.27140233 0.041147836 0.23945785 -0.1234012 0.097930856 -0.21404657
0.17226799 0.01919798 -0.054971058 0.089372784 -0.0056144595 -0.22486937 -0.12373653 -0.12615025
-0.055234134 0.0052407384 0.13715346 -0.36249065 0.0765422 0.2802232 -0.1785659 0.07508066
00000000: b405 163d d9f7 d03d 4c7f 27be 221d 6f3e
00000010: 308f 6dbe 88b8 01bd 727d 403e 50f6 543d
00000020: 883f 6d3d d035 98bc b8ff af3d cb1a b9be
00000030: 0862 4fbd 7fc8 4a3e 62f6 18be 24eb 1c3e
00000040: bcc1 b83d b8c5 e4bd 06c7 79be b02a ffbd
00000050: 0ad9 63be c099 203e 8858 103d e408 b5bd
00000060: 6054 b43c b05c 20bd 4cff 5ebe 804b 35bd
00000070: 008c cdbb 6c31 973d 68c7 053e cce3 1abe
00000080: cfaa d7bd bdc7 9abd 00d2 713a 0c7e c6bd
00000090: 3a3f 0cbe 1ae6 61be 74fa 013e a2f4 2dbe
000000a0: d89f 153d 105f b83d 4a3c e4bc 2479 09be
000000b0: f491 4ebe bca5 4e3c bc09 bf3d 7ed7 17be
000000c0: 2e18 bfbe 9a27 3c3c 7691 72bd e2fd 48be
000000d0: 1c0c f5bd d331 e43d 1c9a 453e 4a71 44be
000000e0: a074 563c 90f0 063e 31d1 e13c 986d adbb
000000f0: 8496 2ebe ffac 8cbe 0f26 01be 6a85 0f3e
00000100: 4ac1 1d3e 4acc ccbc 81de 16be 94f3 e33d
00000110: 244a a93d fd46 f7bd 406c 70bc 0075 efbd
00000120: 5028 863c 7cad dc3d ce03 6cbe 6b2b 273e
00000130: 202a 7c3d 1702 5e3d 9d2f 51be 9872 5dbe
00000140: 6712 8d3d 3685 253e 6e14 8abe b079 b8bd
00000150: c07f 1dbe 1a07 3fbe 4cd0 123e 704d 2bbd
00000160: 6844 3cbd a283 66be fc70 90be f3c3 40be
00000170: 9444 e1bd cb63 303e f228 273e 1c0b d53d
00000180: 3ffd 09be d7a2 533c 3141 60be 70e8 61be
00000190: 80b5 9ebb ce69 183e 44bd 693e fc04 3a3e
000001a0: 2640 0bbe 4a08 193e d136 a33d 794e 35be
000001b0: 20be 3b3e 0974 773d 79b8 3a3e aebf 54be
000001c0: d0f8 f2bd ee60 73be 007e 553b b8ce 213e
000001d0: 18fc 12bd aa68 4f3e 7a63 6ebe ce3c 3ebe
000001e0: 5863 043d 905c 8cbd 5483 f7bd dc76 5bbe
000001f0: 309d 363d d0cb 5b3d f4ff c8bd 40b1 e03b
00000200: 1875 2dbe 4864 ecbd 703d 2fbe 94f5 e6bd
00000210: b488 fc3d 28a7 6dbe 0a8d 28be 1ae7 533e
00000220: 0013 533e e804 123e 28f8 ffbd 92c5 6bbe
00000230: e8f0 e33d 6a73 7a3e 44ea 5bbe b035 a0bc
00000240: 2b6e 393d a21f b13d 6a90 feba 5cb6 99bd
00000250: a0de 213c 0a3a 92be a435 153e cc01 9abd
00000260: 388e 913d c60f 583e 6767 52be 241d dfbc
00000270: 400a b53c caf8 2dbd e37b 95bd 48ed a8bd
00000280: f67e ff3d 4584 303e 2ce7 90bd 789a b7bd
00000290: d08e 823c fb5f afbc 70cc ad3c d42f 26be
000002a0: a081 2cbc c866 d4bd e246 173e 26b5 00bd
000002b0: 684b 3d3d e5e7 25be a74f b83b 806b 0cbc
000002c0: f193 e93c a046 273c 1a55 0a3e 9071 4c3e
000002d0: 8032 69be 5c92 873e f43b 4b3e da4a 04be
000002e0: 14a0 52be 3884 f83d 3c82 d8bb da91 29be
000002f0: a899 7fbd e4d3 75be 0ddb 1abd 0888 1f3e
00000300: 1002 593d a8a4 8cbd 4887 81bd ace2 1b3e
00000310: 20da a33c 3cac f5bd d8e5 cebd c40a 273e
00000320: 7852 143d 300c 393e 607b e1bd f051 11be
00000330: 3e06 5abe 14d1 77be dace 023e 70f7 c03d
00000340: 9c4d ef3d 1cf2 06be 8056 bb3c 302e e6bc
00000350: 8234 023e 6c42 4abe a8db 33be 608e 6f3d
00000360: 9096 bfbd f8ca 583e 3c7f cd3d ae10 69be
00000370: 8e07 20be 38c0 25be 12e2 01be a8ca 913d
00000380: 746f aa3e 7baf 3b3e 7358 26bd 8883 4fbd
00000390: 0463 863d 84fd 1fbe 525e 06be ec4d 123e
000003a0: 544d 853d 8a47 2b3e 3ff5 8a3e a28a 283d
000003b0: 7034 753e c5b9 fcbd f98f c83d 062f 5bbe
000003c0: 0567 303e 1545 9d3c 5529 61bd 1409 b73d
000003d0: 80f9 b7bb 2844 66be 9469 fdbd 882d 01be
000003e0: 303d 62bd 80ba ab3b f571 0c3e 6098 b9be
000003f0: 28c2 9c3d 6a79 8f3e fbd9 36be e4c3 993d

bias f4 [16]
-0.22640626 0.029955924 0.020310186 0.0549404 -0.26471233 -0.275984 -0.25819075 -0.040798217
0.23971328 0.08344772 -0.090147674 0.19887349 0.10688692 0.04100412 -0.011256983 -0.45622295
00000000: 0bd7 67be 2066 f53c 8c61 a63c 2f09 613d
00000010: 6088 87be c64d 8dbe 9431 84be 081c 27bd
00000020: 6677 753e a3e6 aa3d 589f b8bd 7ea5 4b3e
00000030: 88e7 da3d f0f3 273d 356f 38bc 0e96 e9be

weight f4 [32, 16]
-0.2412695 -0.2341057 -0.05644495 0.18197264 0.10987153 -0.26576853 -0.024195382 -0.14163855
-0.010089338 0.122503586 -0.053100992 -0.08076371 -0.13472322 0.114118546 -0.17461415 -0.032378074
0.04157366 -0.1357322 -0.120038174 0.073367685 0.20349881 0.10798303 -0.15590525 0.06876162
-0.121246636 -0.10565587 -0.023064004 -0.09496613 0.108035654 -0.14719632 0.029240824 0.0362858
0.07408298 -0.113259435 0.11261587 -0.012068054 0.08358483 0.22804615 -0.009320789 0.20322347
-0.13320845 -0.17685252 0.13700172 0.12283235 0.12954235 0.15619281 -0.084310055 0.06438759
-0.026244791 -0.2068775 0.05245538 -0.13217834 0.17826132 0.1817264 0.09731554 0.15716085
0.21045059 0.01240935 -0.1621146 -0.02305312 -0.050218552 -0.07940167 0.008753481 0.13521181
-0.05604269 0.24173892 -0.21354267 0.13691516 0.151302 -0.02318488 0.3097897 -0.22185558
-0.14408192 -0.08336247 0.16554895 -0.03335053 -0.05647561 0.0047053695 -0.1018742 -0.08135701
-0.008940937 -0.084118605 0.18012594 -0.0986375 0.36061445 -0.09610855 -0.024121974 -0.0885326
0.116331756 0.029429153 0.20551573 0.13440618 0.14421776 0.21854514 -0.124691695 -0.072954535
-0.14004026 -0.2222732 0.2193338 -0.15183441 0.061079968 -0.2097905 0.20907643 0.1961686
-0.19399089 0.057067957 -0.05350776 0.04609244 0.1662511 -0.039931834 0.058774 0.18364576
-0.09268875 -0.035497755 -0.092950776 0.120426394 0.17504947 0.06387434 0.10970464 0.09764701
0.17824468 0.06302844 -0.04869427 0.11064185 -0.19677487 -0.15742943 -0.2524528 -0.11938657
0.09661091 -0.19785127 -0.17818882 0.043340493 -0.13862799 -0.16948622 -0.20197281 -0.16560444
0.04392615 -0.08849261 -0.11831802 -0.17145342 0.18874422 -0.22633001 0.09789456 -0.07168718
0.026419159 -0.047700375 -0.059975907 -0.20272444 0.05725976 -0.26060355 -0.12178863 -0.08712244
0.15272513 -0.05601524 -0.15263431 -0.13828546 -0.099734694 0.24069753 -0.1659243 0.058916777
-0.07130351 -0.05323276 -0.100658536 0.0716453 -0.07978214 -0.18538731 0.12506078 0.094895065
0.24217218 0.12501715 0.18190162 0.11683176 -0.21862215 0.051810473 -0.1259318 0.013407264
0.16326782 0.17170241 -0.13068743 -0.052436035 0.19203573 0.22902222 0.21195918 0.17571571
0.082662076 0.053909365 0.10479997 0.16687337 -0.21135318 -0.032711565 -0.046977006 -0.119773045
-0.14545794 0.039119422 0.051625334 0.26996517 -0.022796564 -0.15168592 0.101724945 0.07235497
-0.16446689 -0.020531232 0.15620561 -0.049604367 0.12889746 -0.21821481 0.0015574237 0.0061469013
-0.05851532 0.12415105 0.25031224 0.15414143 -0.037838414 -0.08983984 0.23006009 0.1617147
0.17464787 -0.09480518 0.06418726 -0.13280226 -0.0028412044 0.11927754 -0.2580663 -0.32962978
-0.011091537 0.1629329 0.06395312 -0.15846238 0.21123064 -0.004751605 0.13163348 0.14113376
0.0391303 0.069002576 0.0005780631 0.070865944 -0.22636431 0.05537024 -0.04735935 0.054343466
0.095697075 0.2055482 -0.02601306 -0.06577122 0.22631869 -0.12205376 0.15060498 0.24816674
0.029266834 -0.07078703 0.11965268 0.039429396 -0.11567405 -0.13681746 -0.07158089 -0.21610366
00000000: 5a0f 77be 68b9 6fbe d232 67bd 0957 3a3e
00000010: 5304 e13d d012 88be 6535 c6bc b209 11be
00000020: c04d 25bc 29e3 fa3d 6d80 59bd 7267 a5bd
00000030: e2f4 09be fcb6 e93d 0dce 32be df9e 04bd
00000040: 2449 2a3d 62fd 0abe 93d6 f5bd cc41 963d
00000050: fe61 503e 3526 dd3d a0a5 1fbe e4d2 8c3d
00000060: 2850 f8bd 1b62 d8bd b9f0 bcbc 9a7d c2bd
00000070: cc41 dd3d a2ba 16be 748a ef3c 6ba0 143d
00000080: d1b8 973d 90f4 e7bd 26a3 e63d 16b9 45bc
00000090: 862e ab3d ee84 693e 39b6 18bc d019 503e
000000a0: cc67 08be d418 35be 2e4a 0c3e 878f fb3d
000000b0: c0a6 043e 02f1 1f3e c0aa acbd a4dd 833d
000000c0: 51ff d6bc b2d7 53be 74db 563d c259 07be
000000d0: 238a 363e 7c16 3a3e 5f4d c73d c6ee 203e
000000e0: 5c80 573e 9650 4b3c 5f01 26be e6d9 bcbc
000000f0: f8b1 4dbd 589d a2bd c36a 0f3c f774 0a3e
00000100: 058d 65bd 688a 773e eeaa 5abe 7d33 0c3e
00000110: e9ee 1a3e 38ee bdbc c19c 9e3e 1c2e 63be
00000120: 368a 13be f1b9 aabd aa85 293e 919a 08bd
00000130: f852 67bd 802f 9a3b 6ca3 d0bd 819e a6bd
00000140: 027d 12bc 6046 acbd ef72 383e 7502 cabd
00000150: 75a2 b83e 8fd4 c4bd 729b c5bc 9450 b5bd
00000160: 583f ee3d 6815 f13c b772 523e c6a1 093e
00000170: d2ad 133e 4cca 5f3e 5c5e ffbd 3069 95bd
00000180: b766 0fbe 969b 63be 0a99 603e 7b7a 1bbe
00000190: fd2e 7a3d 52d3 56be 2218 563e 6ce0 483e
000001a0: 8ca5 46be 17c0 693d f42a 5bbd 6dcb 3c3d
000001b0: ba3d 2a3e 908f 23bd 01bd 703d a20d 3c3e
000001c0: 99d3 bdbd 1866 11bd fa5c bebd 1da2 f63d
000001d0: 2b40 333e 8dd0 823d d4ac e03d 28fb c73d
000001e0: c685 363e 0e15 813d a573 47bd 3298 e23d
000001f0: 5a7f 49be 2e35 21be 7e41 81be f280 f4bd
00000200: f1db c53d 8699 4abe 2177 36be cd85 313d
00000210: 7ff4 0dbe cc8d 2dbe f6d1 4ebe 3694 29be
00000220: e8eb 333d 9d3b b5bd b850 f2bd 7c91 2fbe
00000230: 2a46 413e 0ec3 67be f17c c83d bad0 92bd
00000240: fe6c d83c 7861 43bd 4ca9 75bd ff96 4fbe
00000250: 3689 6a3d d46d 85be 516c f9bd 406d b2bd
00000260: fa63 1c3e 3c70 65bd 2b4c 1cbe b49a 0dbe
00000270: b441 ccbd 6a79 763e 0fe8 29be b852 713d
00000280: 9307 92bd 980a 5abd 1026 cebd c5ba 923d
00000290: d264 a3bd 2cd6 3dbe ef0f 003e 5858 c23d
000002a0: fcfb 773e 7f04 003e 6b44 3a3e 7d45 ef3d
000002b0: 7cde 5fbe 3837 543d 44f4 00be 24aa 5b3c
000002c0: ae2f 273e c2d2 2f3e edd2 05be 2bc7 56bd
000002d0: 04a5 443e cd84 6a3e d40b 593e d2ee 333e
000002e0: bc4a a93d 11d0 5c3d 5ea1 d63d dae0 2a3e
000002f0: f86c 58be 90fc 05bd f66a 40bd 924b f5bd
00000300: edf2 14be b03b 203d 1675 533d e038 8a3e
00000310: dcbf babc 8e53 1bbe 2b55 d03d d82e 943d
00000320: 026a 28be 1d31 a8bc 5df4 1f3e f32d 4bbd
00000330: b2fd 033e b473 5fbe 7822 cc3a f26b c93b
00000340: c3ad 6fbd e842 fe3d ed28 803e 40d7 1d3e
00000350: 74fc 1abd f3fd b7bd df94 6b3e 8a98 253e
00000360: e4d6 323e 3829 c2bd 9c74 833d 51fd 07be
00000370: 8033 3abb c847 f43d 4421 84be 3cc5 a8be
00000380: 47b9 35bc e2d7 263e daf9 823d f643 22be
00000390: d84c 583e 5ab3 9bbb edca 063e 5e85 103e
000003a0: 1847 203d 3951 8d3d 2889 173a 2a22 913d
000003b0: 0ccc 67be e8cb 623d e1fb 41bd 4197 5e3d
000003c0: d4fc c33d 3a7b 523e 5719 d5bc 10b3 86bd
000003d0: 16c0 673e 52f7 f9bd 3138 1a3e 6c1f 7e3e
000003e0: 00c1 ef3c caf8 90bd 770c f53d b880 213d
000003f0: 84e6 ecbd e019 0cbe 0099 92bd 474a 5dbe

bias f4 [32]
0.15152732 0.01746457 0.13446312 0.20038371 0.101228565 0.17248571 -0.12024486 -0.0781039
-0.12006173 0.12980804 -0.029589774 0.03461864 -0.30422908 -0.035723984 0.24122393 0.14839168
-0.054649502 0.15495831 0.0051529454 0.07222855 -0.17322329 0.062097047 0.008909922 0.025191477
-0.05671664 0.03785467 -0.0073968894 0.20199922 0.13739763 -0.20908518 0.086864874 -0.26781616
00000000: fa29 1b3e dc11 8f3c b3b0 093e 6331 4d3e
00000010: ec50 cf3d 18a0 303e f042 f6bd f0f4 9fbd
00000020: ede2 f5bd 66ec 043e 4166 f2bc 46cc 0d3d
00000030: eac3 9bbe 5053 12bd 6803 773e fdf3 173e
00000040: 28d8 5fbd 64ad 1e3e 0ada a83b 90ec 933d
00000050: 7261 31be 7959 7e3d ecfa 113c 5b5e ce3c
00000060: b54f 68bd 800d 1b3d 9b61 f2bb e2d8 4e3e
00000070: f7b1 0c3e 6d1a 56be 36e6 b13d 331f 89be

weight f4 [16, 4]
0.29398623 0.27289885 0.21688358 0.13120015 0.16806743 0.31553 -0.21066426 -0.42750666
-0.47350293 -0.38873863 -0.043566763 -0.13313395 -0.32612598 -0.008881092 -0.11819214 -0.4651621
0.10023627 -0.157993 -0.1378581 -0.47755614 -0.0036484266 -0.08802945 -0.36210573 -0.42116413
-0.22646499 -0.2750867 0.21101874 0.3337462 -0.033750445 0.40097025 0.2100493 0.21646534
-0.33403128 -0.15644133 0.32707542 -0.10224384 0.13440058 -0.22189943 -0.6785754 0.2621956
0.17181443 -0.30587536 0.33588064 -0.01868186 -0.06191437 0.057852622 -0.20451608 0.33705905
-0.026102735 -0.39421153 -0.013859641 0.27272776 0.26406074 -0.18060838 0.4203952 -0.6234118
-0.0688342 -0.1628222 0.24596518 0.3095497 0.39344582 -0.42291957 0.64185095 -0.65966773
00000000: 5d85 963e 66b9 8b3e bb16 5e3e 5559 063e
00000010: de19 2c3e 268d a13e 5fb8 57be 27e2 dabe
00000020: fa6e f2be c008 c7be 1073 32bd 4454 08be
00000030: fcf9 a6be 0082 11bc b80e f2bd ba29 eebe
00000040: ac48 cd3d ebc8 21be ac2a 0dbe 3d82 f4be
00000050: 711a 6fbb c948 b4bd ec65 b9be d3a2 d7be
00000060: 70e6 67be 2ad8 8cbe 4c15 583e c8e0 aa3e
00000070: e83d 0abd f94b cd3e 2a17 573e 17a9 5d3e
00000080: 2606 abbe 2832 20be 6e76 a73e 3865 d1bd
00000090: 4ea0 093e 9b39 63be 1eb7 2dbf 803e 863e
000000a0: 1ff0 2f3e b29b 9cbe 8cf8 ab3e b30a 99bc
000000b0: ec99 7dbd dff6 6c3d aa6c 51be 0193 ac3e
000000c0: 67d5 d5bc 18d6 c9be 8c13 63bc f9a2 8b3e
000000d0: f832 873e 67f1 38be 0a3e d73e ea97 1fbf
000000e0: f2f8 8cbd ddba 26be 4cde 7b3e 4c7d 9e3e
000000f0: bb71 c93e ea88 d8be 5850 243f fcdf 28bf

bias f4 [16]
0.23724909 -0.1444417 -0.30730373 0.34839052 0.21595794 0.06922917 -0.2901082 -0.061219145
-0.20612395 -0.28327486 0.08518497 0.39382386 -0.03050253 -0.6612491 0.40915185 -0.41631398
00000000: 6df1 723e 86e8 13be ea56 9dbe 3e60 b23e
00000010: 1424 5d3e 06c8 8d3d 1089 94be edc0 7abd
00000020: 2812 53be 6709 91be 7575 ae3d 48a3 c93e
00000030: 71e0 f9bc 9f47 29bf 5a7c d13e 1b27 d5be

weight f4 [16, 16]
0.17315759 0.17462264 -0.015215278 -0.03177443 0.21535596 -0.066458225 -0.13286167 0.019575031
0.17485568 0.028025378 -0.14503197 -0.06803283 -0.03285899 0.26136348 0.005068502 0.24414633
-0.13063669 -0.14165795 0.12831816 0.20421097 0.006073147 0.03328079 -0.06336078 0.059542656
0.07647234 0.01830089 -0.18795794 -0.13610235 0.1822527 -0.005881399 0.24239492 0.11344552
-0.21292439 -0.038196445 0.044492215 -0.1849831 0.02057752 -0.13524091 0.24810919 -0.14542127
-0.18161404 0.0090354085 -0.11908713 0.039693683 -0.082966715 0.012945086 0.17935985 -0.19706747
-0.2344732 -0.14526865 0.081110775 -0.06978223 0.11698449 0.014133513 0.2006653 0.0494546
-0.014976352 -0.035630822 -0.13100791 -0.111364156 -0.14082879 -0.1334452 0.10507554 0.008976221
0.0054620635 0.17215563 0.2389377 0.2338193 -0.029596288 -0.062487565 0.092641234 -0.057013676
-0.2199204 -0.11556108 0.08466261 -0.053173553 -0.17635998 0.19139723 0.13845527 -0.2590298
0.15351231 -0.055681232 -0.15515026 0.1816555 -0.22111028 0.03903134 0.04278463 0.071926825
-0.22170651 -0.18358867 0.038475994 0.017705094 0.06531242 0.033583432 0.21148878 -0.20839961
-0.18366998 0.11677086 -0.07585797 0.15453237 0.036442786 0.13117519 -0.07803258 0.13265002
0.2035105 0.21292514 -0.16652983 -0.015683472 -0.22015524 -0.2014311 -0.11282852 -0.037486166
0.061277926 0.03871751 -0.09774545 -0.061496437 0.21489933 -0.19573402 0.1737585 -0.15380755
-0.24502367 -0.09509629 -0.01115486 -0.13513625 -0.14510912 -0.10033399 -0.05924496 -0.07738978
0.123578936 -0.17459711 -0.0015611053 -0.036709666 -0.0929082 0.1777525 0.04194039 0.23895112
0.060494363 -0.14728636 -0.008062273 -0.13062787 -0.13195023 -0.07504454 -0.04652345 -0.073919505
-0.1344681 -0.14149104 0.040350705 0.017549425 0.100582436 -0.097014904 0.20924297 0.07036141
-0.090017796 0.056954715 0.06807331 0.024041042 0.046129365 -0.19004638 -0.057124257 0.18761085
-0.11400328 0.09761689 0.23444942 -0.040043622 0.22641665 -0.05416035 0.1753614 -0.24533442
0.01252979 -0.07202298 0.22680186 0.092163496 0.08988691 -0.2393085 0.13425589 -0.09167222
-0.16348925 -0.20537171 0.14201748 -0.09924191 -0.053254217 0.049372554 0.2154133 0.025000066
-0.17753148 -0.025759965 0.055630982 -0.115508854 0.23095056 -0.0911665 -0.23457885 -0.24227351
-0.19168729 0.12930417 -0.16951624 -0.01424399 0.1154041 0.22300154 0.22646648 0.07781735
-0.23297384 0.24102268 0.008052617 -0.23700973 -0.00094631314 -0.00791657 0.17022884 -0.17745978
0.08934203 -0.27024153 -0.16473222 -0.17615426 -0.21190996 -0.02880919 0.1286315 0.08537925
0.15354207 -0.16266482 -0.074291706 0.055020005 -0.02481705 -0.2924852 -0.21679647 0.08857096
0.10218425 0.03837913 0.07264081 0.016346723 0.16608071 0.116638064 -0.15906918 -0.033163402
-0.23335817 -0.12266848 0.17204268 0.107987374 0.009708689 0.15007922 0.054230753 0.2865935
-0.037115626 0.19578749 -0.16241202 0.15606633 -0.21989009 0.03802068 0.22929204 0.017241677
-0.0025644898 0.031358775 -0.07894465 -0.13441698 0.0007544429 0.17784443 -0.18997324 -0.11370411
00000000: 3950 313e 47d0 323e 8049 79bc e825 02bd
00000010: 4686 5c3e 401b 88bd e40c 08be d15b a03c
00000020: 5e0d 333e 7a95 e53c 4383 14be cc54 8bbd
00000030: 2697 06bd 6fd1 853e ad15 a63b 7f01 7a3e
00000040: a0c5 05be c80e 11be d665 033e ae1c 513e
00000050: 4001 c73b 7051 083d 4cc3 81bd 00e3 733d
00000060: 889d 9c3d c0eb 953c 0c78 40be 6a5e 0bbe
00000070: 74a0 3a3e c0b8 c0bb 6036 783e 2056 e83d
00000080: da08 5abe e073 1cbd 783d 363d 366c 3dbe
00000090: 3092 a83c 987c 0abe 5610 7e3e 50e9 14be
000000a0: 08f9 39be 4009 143c f4e3 f3bd d895 223d
000000b0: 74ea a9bd a017 543c 1caa 373e 0ecc 49be
000000c0: be19 70be 4ec1 14be 681d a63d fce9 8ebd
000000d0: 9095 ef3d 4090 673c 347b 4d3e e890 4a3d
000000e0: 605f 75bc a0f1 11bd f026 06be e412 e4bd
000000f0: 6c35 10be dca5 08be d831 d73d 0011 133c
00000100: 1cfb b23b 9149 303e 16ac 743e 546e 6f3e
00000110: ea73 f2bc f6f2 7fbd b0ba bd3d 2c87 69bd
00000120: d032 61be 4aab ecbd 9763 ad3d 83cc 59bd
00000130: b697 34be a3fd 433e 38c7 0d3e 8e9f 84be
00000140: 5532 1d3e 0112 64bd b6df 1ebe e603 3a3e
00000150: bc6a 62be 54df 1f3d f03e 2f3d 5f4e 933d
00000160: 0807 63be abfe 3bbe 0199 1d3d 460a 913c
00000170: 85c2 853d c88e 093d 8490 583e b566 55be
00000180: fc13 3cbe 9025 ef3d 6c5b 9bbd bc3d 1e3e
00000190: 0845 153d ca52 063e 8ccf 9fbd 68d5 073e
000001a0: 0e65 503e 0c09 5a3e cc86 2abe a07a 80bc
000001b0: 6070 61be f443 4ebe a412 e7bd 188b 19bd
000001c0: 90fe 7a3d 4096 1e3d c42e c8bd b0e3 7bbd
000001d0: 920e 5c3e 806e 48be c0ed 313e ba7f 1dbe
000001e0: 7ce7 7abe d8c1 c2bd e0c2 36bc 2861 0abe
000001f0: 7c97 14be e87b cdbd d8aa 72bd 887e 9ebd
00000200: f416 fd3d 96c9 32be 009e ccba e05c 16bd
00000210: a846 bebd c004 363e b0c9 2b3d 9aaf 743e
00000220: f0c8 773d 3cd2 16be a017 04bc 50c3 05be
00000230: f61d 07be f4b0 99bd 608f 3ebd 1c63 97bd
00000240: 01b2 09be 07e3 10be c846 253d d0c3 8f3c
00000250: 2afe cd3d c0af c6bd ca43 563e a519 903d
00000260: 405b b8bd 5949 693d 056a 8b3d b8f1 c43c
00000270: 25f2 3c3d 859b 42be 20fb 69bd 0f1d 403e
00000280: 8d7a e9bd 5deb c73d 8213 703e c804 24bd
00000290: c4d9 673e 3ed7 5dbd f091 333e f238 7bbe
000002a0: c049 4d3c c980 93bd bf3e 683e 37c0 bc3d
000002b0: a116 b83d 4a0d 75be 607a 093e a5be bbbd
000002c0: ba69 27be f64c 52be 086d 113e 583f cbbd
000002d0: 1821 5abd e03a 4a3d 4e95 5c3e f0cc cc3c
000002e0: d0ca 35be 9006 d3bc 50dd 633d e88f ecbd
000002f0: 4e7e 6c3e 80b5 babd 7035 70be 8c16 78be
00000300: ac49 44be 5068 043e aa95 2dbe a05f 69bc
00000310: fc58 ec3d 845a 643e d4e6 673e b45e 9f3d
00000320: b290 6ebe a6ce 763e 20ef 033c aeb2 72be
00000330: 0012 78ba 80b4 01bc 7850 2e3e 04b8 35be
00000340: f4f8 b63d 195d 8abe 90af 28be c861 34be
00000350: edfe 58be 4001 ecbc fab7 033e 51db ae3d
00000360: 223a 1d3e 9b91 26be 4026 98bd a85c 613d
00000370: 204d cbbc 9fc0 95be e5ff 5dbe b164 b53d
00000380: fa45 d13d 6f33 1d3d b4c4 943d 90e9 853c
00000390: 1011 2a3e f0df ee3d 08e3 22be 59d6 07bd
000003a0: 72f5 6ebe 9d39 fbbd f52b 303e 7c28 dd3d
000003b0: 3111 1f3c 5eae 193e 1121 5e3d 62bc 923e
000003c0: 8e06 18bd 847c 483e 564f 26be dacf 1f3e
000003d0: de2a 61be 93bb 1b3d 88cb 6a3e 6b3e 8d3c
000003e0: 0011 28bb 0f72 003d bcad a1bd 9ba4 09be
000003f0: cec5 453a da1c 363e 5888 42be b3dd e8bd

bias f4 [16]
-0.06779459 0.07911417 0.050773203 0.017065108 -0.032870423 -0.04541938 -0.15558228 0.15421847
0.027147382 0.05928924 0.19710623 0.114298284 0.056456566 -0.07247578 -0.34215435 0.09580154
00000000: e4d7 8abd 9c06 a23d 90f7 4f3d 20cc 8b3c
00000010: 23a3 06bd ac09 3abd f650 1fbe 72eb 1d3e
00000020: 3064 de3c 46d9 723d 37d6 493e 3815 ea3d
00000030: 003f 673d 2f6e 94bd db2e afbe 9933 c43d

weight f4 [32, 16]
0.06684712 0.050469935 0.0100648105 -0.070857316 0.20073493 -0.0023165587 0.017505288 -0.015607595
-0.23810628 -0.12206132 -0.24581173 0.0708836 0.21027067 0.17640135 -0.2342471 -0.19206508
-0.055294733 -0.1418427 -0.18193647 -0.060242027 0.030496588 0.13521142 -0.199386 -0.094475
-0.006954044 -0.1893364 0.22354415 0.08283645 -0.21737838 -0.27855256 0.057208236 -0.2061962
0.13137357 0.11730513 -0.1976896 -0.20017019 -0.20542559 0.21386762 0.1277931 -0.19044816
-0.10720956 -0.08192721 0.033571385 0.102184236 0.24873185 -0.15316173 -0.1372613 -0.01521699
-0.14644091 -0.23475197 -0.117079645 0.16327983 0.20680726 0.19240569 0.14035895 0.16646585
-0.09176734 -0.14402047 -0.16184518 0.13398993 0.11930969 0.2431173 0.16959374 -0.14455287
-0.046127968 0.19376677 -0.23079601 0.046643764 -0.075607784 -0.15908322 0.20683768 -0.016402066
0.054020107 -0.100425 0.199324 -0.049713075 -0.08700472 -0.04786201 0.20648222 0.1440953
-0.18129334 0.012108356 0.17154914 0.18744889 -0.12458098 -0.06612872 -0.16875339 -0.030583799
0.14231995 0.1072718 0.22898555 -0.08559367 -0.22464481 -0.07025621 -0.048480965 0.16919822
0.17883378 0.16707242 -0.037683517 0.14212781 -0.1767707 -0.20495069 0.20675376 -0.04733053
0.093711466 0.21641503 0.07800887 0.22459796 -0.07694453 0.14540306 -0.2073544 0.21603909
0.10807117 -0.060605258 0.24352285 0.07392779 -0.16929203 0.17924291 0.066387296 0.1811603
0.1370768 -0.12582944 0.20371649 0.052711815 0.17846036 -0.096637346 0.20455196 0.1342232
0.2433683 -0.24173516 -0.18867993 -0.084780216 0.09957293 -0.039048165 0.13998869 0.098523796
0.13533822 0.1955983 0.12691991 -0.19778517 -0.09669483 0.19499676 0.2643334 -0.046216924
-0.0033578733 -0.19297177 0.13138726 -0.20146933 -0.14394481 0.06615595 -0.14609441 -0.09289673
-0.2210711 0.07836265 -0.017404137 -0.24104732 0.09175122 0.2796508 0.009143358 0.17794797
-0.041168716 0.15045586 0.02622801 0.24370638 -0.022990353 -0.0837147 -0.20010397 -0.22045371
0.19176373 0.12094221 0.17086247 0.08332899 -0.24655294 0.028926931 0.05071488 -0.012698585
0.071753815 0.16684529 -0.16862383 0.0004543066 0.08709973 -0.14593714 0.23307535 0.055315435
0.20243964 0.08967285 0.031669904 -0.0040944517 -0.20026669 0.050046306 -0.07957516 0.0038924124
-0.096770324 -0.06751394 0.03331107 -0.20542252 -0.095029496 0.049656082 -0.18564546 -0.15337017
0.02804941 -0.07238438 -0.017118359 0.15872788 0.13382345 0.038094487 0.1248559 0.21812944
-0.08624568 -0.1517565 0.10384229 -0.15211529 -0.10603698 0.18668029 0.00095939636 -0.23253015
-0.009658009 -0.19966286 -0.079363 0.21835151 0.17925254 -0.1011018 -0.1976812 -0.16944917
0.108966045 0.12709516 0.23597643 0.1752584 0.026110694 -0.20223466 -0.16574544 0.23148453
0.057454795 -0.23224372 0.067744166 0.1694802 -0.16345346 -0.06289659 -0.007711131 -0.25723997
0.059017103 0.24642578 0.07547709 0.15373868 0.0328209 0.13214242 0.12581623 0.125265
0.08386034 0.028743647 0.07093374 -0.12761319 0.08201414 -0.028369838 -0.09394443 0.19185838
00000000: 25e7 883d 90b9 4e3d e0e6 243c a41d 91bd
00000010: 758d 4d3e 68d1 17bb 4067 8f3c 00b7 7fbc
00000020: 22d2 73be 49fb f9bd 12b6 7bbe 6c2b 913d
00000030: 3251 573e 8ea2 343e 79de 6fbe b5ac 44be
00000040: bb7c 62bd 363f 11be 8e4d 3abe 58c0 76bd
00000050: fbd3 f93c dd74 0a3e d82b 4cbe 1c7c c1bd
00000060: c0de e3bb 67e1 41be c2e8 643e 28a6 a93d
00000070: 7098 5ebe 719e 8ebe 2f53 6a3d 1925 53be
00000080: cb86 063e ac3d f03d 246f 4abe 6af9 4cbe
00000090: 165b 52be 1d00 5b3e 32dc 023e d804 43be
000000a0: b090 dbbd 74c9 a7bd 2682 093d f845 d13d
000000b0: 90b3 7e3e 6ed6 1cbe 3a8e 0cbe af50 79bc
000000c0: 9bf4 15be d262 70be 74c7 efbd d432 273e
000000d0: 48c5 533e ff05 453e 42ba 0f3e 0676 2a3e
000000e0: 84f0 bbbd 1a7a 13be beba 25be a834 093e
000000f0: a458 f43d bef3 783e fba9 2d3e ab05 14be
00000100: aef0 3cbd cc6a 463e ca55 6cbe 880d 3f3d
00000110: 41d8 9abd b6e6 22be 42cd 533e a05d 86bc
00000120: 3044 5d3d 9fab cdbd 971b 4c3e f09f 4bbd
00000130: 882f b2bd f40a 44bd 1370 533e b88d 133e
00000140: f6a4 39be 2062 463c 94aa 2f3e 9af2 3f3e
00000150: 5024 ffbd 7f6e 87bd b0cd 2cbe e08a fabc
00000160: 52bc 113e 51b1 db3d 307b 6a3e bc4b afbd
00000170: 4a09 66be 7de2 8fbd fa93 46bd 4c42 2d3e
00000180: 3420 373e 0815 2b3e 085a 1abd f489 113e
00000190: 6103 35be 98de 51be 42b7 533e a8dd 41bd
000001a0: cceb bf3d e79b 5d3e 1dc3 9f3d 02fd 653e
000001b0: 1895 9dbd 8ae4 143e b654 54be 5a39 5d3e
000001c0: 6b54 dd3d 383d 78bd 0e5e 793e 7467 973d
000001d0: e45a 2dbe 748b 373e 10f6 873d 1682 393e
000001e0: dc5d 0c3e 6fd9 00be 0e9b 503e 58e8 573d
000001f0: 50be 363e cde9 c5bd 1276 513e ce71 093e
00000200: 8a35 793e 6c89 77be 5035 41be 40a1 adbd
00000210: e4ec cb3d f8f0 1fbd 3259 0f3e d8c6 c93d
00000220: 1a96 0a3e ec4a 483e 4bf7 013e 3288 4abe
00000230: f007 c6bd 3bad 473e b556 873e f54d 3dbd
00000240: c40f 5cbb 649a 45be 628a 063e fa4d 4ebe
00000250: 4566 13be c57c 873d c699 15be a440 bebd
00000260: 7660 62be 997c a03d 1f93 8ebc 1cd5 76be
00000270: 10e8 bb3d 642e 8f3e 06ce 153c fe37 363e
00000280: 87a0 28bd 1a11 1a3e 20dc d63c 2a8e 793e
00000290: 4456 bcbc 9d72 abbd 0ee8 4cbe 9ebe 61be
000002a0: b65d 443e 8db0 f73d 92f6 2e3e 64a8 aa3d
000002b0: 6078 7cbe 2cf8 ec3c 68ba 4f3d ba0d 50bc
000002c0: aaf3 923d 7ed9 2a3e baab 2cbe 0030 ee39
000002d0: 5861 b23d 8c70 15be 4eab 6e3e 7092 623d
000002e0: 564c 4f3e 66a6 b73d 4db8 013d c02a 86bb
000002f0: b612 4dbe 5bfd 4c3d 4df8 a2bd d817 7f3b
00000300: 852f c6bd c044 8abd 3071 083d 485a 52be
00000310: d39e c2bd 2d64 4b3d d819 3ebe 120d 1dbe
00000320: e0c7 e53c 433e 94bd cd3b 8cbc 9089 223e
00000330: 0409 093e f708 1c3d 73b4 ff3d 535d 5f3e
00000340: 93a1 b0bd 0e66 1bbe 44ab d43d 1cc4 1bbe
00000350: eb29 d9bd 1e29 3f3e 0080 7b3a 621c 6ebe
00000360: a03c 1ebc 6c74 4cbe 1289 a2bd 8a97 5f3e
00000370: fa8d 373e 760e cfbd f16c 4abe 1584 2dbe
00000380: 9729 df3d 3c25 023e cea3 713e f076 333e
00000390: 18e6 d53c 9a16 4fbe 2cb9 29be 480a 6d3e
000003a0: b855 6b3d 4cd1 6dbe 74bd 8a3d 388c 2d3e
000003b0: 5860 27be edcf 80bd a8ad fcbb f5b4 83be
000003c0: ebbb 713d 0a57 7c3e bc93 9a3d ac6d 1d3e
000003d0: 356f 063d 5850 073e f8d5 003e 7845 003e
000003e0: f8be ab3d cc77 eb3c b545 913d 08ad 02be
000003f0: 08f7 a73d dd67 e8bc f065 c0bd 8676 443e

bias f4 [32]
0.2917372 0.06535188 -0.115664154 -0.0022369565 -0.20556432 -0.15962532 -0.09915688 -0.31440067
-0.22705413 -0.030369109 -0.042584077 -0.043809857 -0.08835183 0.22424717 -0.2889451 0.19461961
-0.11069772 0.27629963 -0.13109298 -0.19442315 -0.103137076 -0.13945587 -0.0031521975 0.01266936
-0.06211204 -0.12836398 -0.16345184 0.030097792 0.2946342 -0.025024515 0.018740145 0.0078755645
00000000: 945e 953e 35d7 853d 54e1 ecbd e799 12bb
00000010: 747f 52be d274 23be c312 cbbd 20f9 a0be
00000020: e180 68be a3c8 f8bc a46c 2ebd f771 33bd
00000030: cef1 b4bd 0da1 653e 9df0 93be 5d4a 473e
00000040: 7cb5 e2bd 2577 8d3e 3d3d 06be dd16 47be
00000050: 8839 d3bd 85cd 0ebe 1995 4ebb 2693 4f3c
00000060: 3269 7ebd d971 03be eb5f 27be a58f f63c
00000070: 4bda 963e 3600 cdbc ef84 993c 8308 013c

weight f4 [16, 2]
0.6359567 0.65072066 -0.47148222 0.40104038 -0.5226716 0.021181881 -0.3364829 -0.40487972
0.27372408 -0.39825314 -0.27242863 -0.09454143 0.67337054 0.59175485 0.1967625 0.35134357
0.59109145 0.38416916 0.35001177 0.4053108 -0.089564085 -0.19988084 -0.5804187 0.29346627
0.6063326 0.3856519 -0.53912127 -0.08904004 -0.12551725 -0.6731461 -0.41157913 -0.19883895
00000000: 0fce 223f a195 263f 1e66 f1be 2a55 cd3e
00000010: cecd 05bf a085 ad3c 7d47 acbe 654c cfbe
00000020: 9025 8c3e d6e7 cbbe c47b 8bbe f09e c1bd
00000030: 0362 2c3f 3f7d 173f 1c7c 493e 4ee3 b33e
00000040: c551 173f d2b1 c43e be34 b33e e684 cf3e
00000050: 606d b7bd 90ad 4cbe 5296 14bf 3641 963e
00000060: 9d38 1b3f 2a74 c53e da03 0abf a05a b6bd
00000070: 9887 00be 4e53 2cbf 80ba d2be 709c 4bbe

bias f4 [16]
0.52838856 0.1796518 -0.5384295 -0.020465672 0.011146724 -0.18927002 0.012408018 -0.4903361
0.12484956 -0.4254564 -0.16902304 -0.68767625 -0.54305494 0.5436875 -0.18058896 0.3974282
00000000: 7944 073f a4f6 373e 84d6 09bf a0a7 a7bc
00000010: c0a0 363c 00d0 41be 004b 4b3c 550d fbbe
00000020: 20b1 ff3d 6cd5 d9be 6014 2dbe 8d0b 30bf
00000030: a605 0bbf 1b2f 0b3f 50ec 38be b67b cb3e
