logs/测试损失函数中mse的权重带来的影响/loss.cross_entropu_loss_with_mse.alpha=0.1/test_model_20250426_154545.pth (torch, 840675 bytes, 78 tensors)

weight_function_network.initial_cnn.0.weight f4 [8, 1, 3, 3]
-0.22556905 -0.12749177 -0.19011578 0.011362803 0.0032436452 0.19160722 -0.23329619 0.28969783
0.29735443 -0.03864202 0.1976695 -0.040843498 -0.18262893 0.07467418 -0.033571664 0.2374339
0.31463712 -0.18217273 -0.042162795 0.23024596 0.12849428 -0.15574382 0.088306725 -0.2832253
-0.32090792 -0.021097302 0.16637154 -0.10434219 -0.12396115 0.25611967 0.012663383 0.13681321
-0.09039239 0.03836008 -0.13383847 -0.32026827 0.061164558 -0.20427158 0.14250405 -0.13467918
0.02023095 0.24104193 0.0051264623 0.18310888 -0.07887712 -0.20994271 -0.1323812 0.18556295
0.14536601 0.24609947 -0.097561575 0.16246302 0.22482105 0.016682485 0.009422068 0.13919762
-0.15003218 -0.07808716 -0.31303802 -0.13154855 -0.21809137 -0.1941818 0.34128225 0.2293525
-0.15649596 0.21638653 0.12583752 0.06673983 -0.035928838 0.04158701 0.17433253 -0.1669926
00000000: 93fb 66be 348d 02be b6ad 42be 0d2b 3a3c
00000010: 5693 543b af34 443e 32e5 6ebe 4653 943e
00000020: d73e 983e 1847 1ebd e069 4a3e 834b 27bd
00000030: 1403 3bbe c7ee 983d 7182 09bd df21 733e
00000040: 1e18 a13e 7d8b 3abe e5b2 2cbd 99c5 6b3e
00000050: 0194 033e 4f7b 1fbe 28da b43d e802 91be
00000060: 0b4e a4be 40d4 acbc 4d5d 2a3e 5cb1 d5bd
00000070: 58df fdbd 1e22 833e 147a 4f3c c318 0c3e
00000080: a51f b9bd 761f 1d3d f40c 09be 34fa a3be
00000090: b087 7a3d 922c 51be 95ec 113e 57e9 09be
000000a0: 61bb a53c b2d3 763e e2fb a73b e580 3b3e
000000b0: 548a a1bd 39fb 56be f08e 07be 3704 3e3e
000000c0: d4da 143e 8001 7c3e 5dce c7bd b55c 263e
000000d0: 7d37 663e b5a9 883c 045f 1a3c d289 0e3e
000000e0: 09a2 19be 29ec 9fbd 8546 a0be aab4 06be
000000f0: 5853 5fbe 98d7 46be 8cbc ae3e 62db 6a3e
00000100: 7a40 20be 6e94 5d3e 8ddb 003e e4ae 883d
00000110: 1e2a 13bd 2457 2a3d 3a84 323e 1c00 2bbe

weight_function_network.initial_cnn.0.bias f4 [8]
0.2004354 -0.3277199 0.03455059 -0.035767276 0.22066359 -0.28463268 0.23654968 0.16686377
00000000: f03e 4d3e e7ca a7be eb84 0d3d b580 12bd
00000010: a3f5 613e 60bb 91be 143a 723e 56de 2a3e

weight_function_network.initial_cnn.1.weight f4 [8]
1.0198979 0.9997899 0.99968916 0.99982935 1.0054122 0.9860711 0.990235 0.99023074
00000000: 048c 823f 3bf2 7f3f a1eb 7f3f d1f4 7f3f
00000010: 59b1 803f 286f 7c3f 0a80 7d3f c37f 7d3f

weight_function_network.initial_cnn.1.bias f4 [8]
0.0021255289 8.252047e-05 -0.03524058 0.008290956 -0.0036186296 -0.006787393 -0.0031712444 -0.0013554638
00000000: 754c 0b3b d70e ad38 6d58 10bd cad6 073c
00000010: 8826 6dbb c768 debb a7d4 4fbb d1a9 b1ba

weight_function_network.initial_cnn.1.running_mean f4 [8]
0.20814925 -0.17412661 -0.058655735 -0.18160054 0.32509518 -0.04456544 -0.027600544 0.3863802
00000000: 1425 553e 3f4e 32be ff40 70bd 7ef5 39be
00000010: e072 a63e 408a 36bd 891a e2bc a0d3 c53e

weight_function_network.initial_cnn.1.running_var f4 [8]
0.016245015 0.022823615 0.01399061 0.01940859 0.010592329 0.051660858 0.06122012 0.04058544
00000000: 4414 853c 97f8 ba3c df38 653c c3fe 9e3c
00000010: 738b 2d3c 569a 533d f3c1 7a3d eb3c 263d

weight_function_network.initial_cnn.4.weight f4 [16, 8, 3, 3]
0.09048424 0.027654784 -0.0900682 -0.08022131 0.09403335 -0.10842525 -0.09766152 0.03203951
-0.11727274 -0.09394098 -0.08039827 0.023639834 0.10550131 -0.059415236 0.035886824 -0.07087756
0.070264444 -0.054951627 -0.080614276 0.05333723 0.112242796 0.051640335 -0.044323258 -0.04485571
-0.027454715 -0.053903144 -0.07369239 0.086512424 -0.034517568 -0.053657066 -0.1208975 -0.088829905
0.108950645 -0.06390639 0.012645568 -0.023866836 0.105471365 0.043280367 -0.10798003 -0.09069498
0.022789808 -0.035070397 -0.018399635 -0.1216205 0.090702824 -0.048048444 -0.111735456 0.004770689
-0.014320328 0.09520478 -0.06579819 -0.060817942 0.09916934 0.07220493 0.10034647 -0.094918676
0.05993676 -0.05166346 -0.05471467 0.04750842 0.044179358 0.11031561 0.08839123 0.07923655
-0.031042514 -0.10722747 -0.06607319 0.0011844627 0.083073854 -0.027697518 -0.01911192 0.09260117
-0.03149947 -0.05762267 -0.093075424 -0.085537 0.06575304 0.013437338 0.059766453 -0.08341483
-0.021511631 -0.038781714 0.05898439 -0.005990577 -0.102440886 -0.004055774 -0.06739452 0.022340517
-0.029049492 0.027768832 0.068720065 0.05627411 -0.107002355 -0.10327667 -0.077135414 0.039253965
-0.04793576 -0.028433446 -0.048217185 -0.0072738486 0.005553677 -0.07447573 0.08499103 -0.053933322
-0.015537705 -0.102202944 -0.04426795 -0.062728226 -0.017394774 -0.09021317 0.10751564 0.051059026
-0.02691056 -0.004401556 0.07814922 -0.08027772 0.114438295 -0.088595726 -0.11295603 -0.020970253
0.0884399 -0.044448365 0.11202544 -0.11086608 0.090764664 -0.031477824 -0.051746875 0.1250976
-0.032662556 -0.06594191 -0.06121095 0.037573095 -0.110793345 -0.12337526 -0.05171515 0.091251306
-0.063558 0.040118333 -0.10350446 -0.10266663 0.054807052 -0.0388345 0.10621105 0.052144654
0.07839653 -0.115098745 -0.09112942 0.11415991 0.064385585 -0.016951049 0.09772058 0.103646725
0.114157125 0.008452379 -0.010828957 0.10574461 0.030600544 0.0098613985 0.039630417 0.10768591
-0.10922713 -0.075440496 -0.008884911 -0.0073524234 -0.00964838 -0.012255341 0.050649934 0.011653002
0.021895321 -0.099767946 0.08085659 0.010905025 0.115242645 -0.029259512 -0.046205558 -0.01606685
0.1139817 0.06854522 0.009032955 0.01486606 0.06363392 0.049829014 0.08509287 -0.07766552
0.0774037 0.097825 0.03973065 -0.10145597 -0.106558956 0.05525632 0.088699356 0.059980363
0.056241553 -0.11728229 0.047643606 0.10977712 -0.097559564 0.10784736 -0.082791865 -0.060679447
-0.035398263 0.08942581 0.036069047 0.07654719 0.006245967 -0.015173796 0.014255645 -0.04248455
-0.07831028 0.00837754 -0.049039353 -0.0744173 -0.0853311 0.093267955 -0.0039559724 -0.039689537
-0.07746461 0.04402095 0.049592875 -0.11603796 -0.11312594 -0.038727004 -0.009400621 0.06745502
0.047804967 0.013083184 0.057730976 -0.09546659 0.0061811605 -0.062030077 -0.04611809 0.043307558
-0.109116435 -0.10523897 0.108490616 -0.022916565 -0.09691282 0.0766048 -0.062455077 0.1027998
-0.018593274 -0.09190162 -0.07083 0.10759403 0.052035637 0.06583145 -0.013916583 -0.101012826
-0.08378994 -0.0855475 0.07075885 0.10233047 -0.10057991 0.09729623 0.0022290132 0.05414279
00000000: cd4f b93d 498c e23c ad75 b8bd 124b a4bd
00000010: 8f94 c03d 0f0e debd c302 c8bd dc3b 033d
00000020: b12c f0bd 2164 c0bd d9a7 a4bd 53a8 c13c
00000030: 1211 d83d 645d 73bd 10fe 123d 4128 91bd
00000040: cee6 8f3d f514 61bd 1919 a5bd 2478 5a3d
00000050: 8ddf e53d d184 533d 4e8c 35bd 9fba 37bd
00000060: b6e8 e0bc 8bc9 5cbd 09ec 96bd 6d2d b13d
00000070: 4b62 0dbd 83c7 5bbd 1c99 f7bd 74ec b5bd
00000080: 8421 df3d 5ae1 82bd 5b2f 4f3c 6284 c3bc
00000090: 5f01 d83d c146 313d a224 ddbd 4abe b9bd
000000a0: b1b1 ba3c faa5 0fbd d5ba 96bc 2b14 f9bd
000000b0: 67c2 b93d 72ce 44bd 8fd5 e4bd 7153 9c3b
000000c0: cf9f 6abc b9fa c23d 34c1 86bd 3c1c 79bd
000000d0: 4c19 cb3d 2ee0 933d 7382 cd3d b964 c2bd
000000e0: 4080 753d 109d 53bd 7d1c 60bd 3098 423d
000000f0: 6af5 343d 27ed e13d 7606 b53d c646 a23d
00000100: df4c febc 139a dbbd 6151 87bd f93f 9b3a
00000110: a022 aa3d e8e5 e2bc 9a90 9cbc afa5 bd3d
00000120: 9705 01bd c005 6cbd 549e bebd 062e afbd
00000130: 88a9 863d 4828 5c3c abcd 743d 65d5 aabd
00000140: 2939 b0bc 93d9 1ebd 9e99 713d 9a4c c4bb
00000150: 87cc d1bd 4ce6 84bb 2306 8abd 7603 b73c
00000160: 33f9 edbc 767b e33c 1bbd 8c3d ae7f 663d
00000170: 0d24 dbbd b882 d3bd 2cf9 9dbd c4c8 203d
00000180: 4a58 44bd 42ed e8bc 627f 45bd 7759 eebb
00000190: 9ffb b53b bb86 98bd c70f ae3d 30e9 5cbd
000001a0: dc91 7ebc c74f d1bd 4f52 35bd a877 80bd
000001b0: 7c7f 8ebc afc1 b8bd 2931 dc3d 4523 513d
000001c0: 8973 dcbc ee3a 90bb b30c a03d a568 a4bd
000001d0: a05e ea3d ad71 b5bd 7e55 e7bd cfc9 abbc
000001e0: fa1f b53d 7d0f 36bd 986d e53d c10d e3bd
000001f0: d3e2 b93d e4ee 00bd 88f4 53bd 9619 003e
00000200: 2cc9 05bd 8d0c 87bd 55b8 7abd 3fe6 193d
00000210: 9fe7 e2bd 2bac fcbd 44d3 53bd f7e1 ba3d
00000220: b22a 82bd 1f53 243d 25fa d3bd e242 d2bd
00000230: 5c7d 603d ed10 1fbd 2e85 d93d a295 553d
00000240: 5c8e a03d e4b8 ebbd 10a2 babd accc e93d
00000250: 97dc 833d eddc 8abc ba21 c83d bc44 d43d
00000260: 36cb e93d d97b 0a3c f06b 31bc a190 d83d
00000270: fead fa3c b491 213c 8153 223d 6e8a dc3d
00000280: 79b2 dfbd 8c80 9abd 0592 11bc 99ec f0bb
00000290: 3d14 1ebc a0ca 48bc 4e76 4f3d 3cec 3e3c
000002a0: d15d b33c 2353 ccbd 2498 a53d fdaa 323c
000002b0: 5604 ec3d a5b1 efbc 0a42 3dbd a09e 83bc
000002c0: 3d6f e93d 7061 8c3d f6fe 133c c690 733c
000002d0: 8052 823d 8219 4c3d 2c45 ae3d 1a0f 9fbd
000002e0: d585 9e3d 7958 c83d 9bbc 223d 26c8 cfbd
000002f0: 953b dabd 7354 623d 02a8 b53d f8ad 753d
00000300: 8b5d 663d b231 f0bd f125 433d d4d2 e03d
00000310: 4fcd c7bd 14df dc3d c88e a9bd 038b 78bd
00000320: c5fd 10bd e124 b73d 23bd 133d c6c4 9c3d
00000330: f8aa cc3b 839b 78bc 8290 693c 4804 2ebd
00000340: 2461 a0bd f341 093c 7ddd 48bd 1968 98bd
00000350: 12c2 aebd 4503 bf3d 1aa1 81bb 7f91 22bd
00000360: c4a5 9ebd 504f 343d e621 4b3d 4fa5 edbd
00000370: 93ae e7bd 35a0 1ebd 1005 1abc dc25 8a3d
00000380: 24cf 433d da5a 563c 5177 6c3d fd83 c3bd
00000390: 558b ca3b 4013 7ebd 53e6 3cbd 4463 313d
000003a0: 7078 dfbd 8787 d7bd 5430 de3d 85bb bbbc
000003b0: 3b7a c6bd fae2 9c3d e5d0 7fbd b488 d23d
000003c0: ec50 98bc eb36 bcbd 520f 91bd 425a dc3d
000003d0: 5223 553d a4d2 863d 6102 64bc d0df cebd
000003e0: 0f9a abbd 8733 afbd 04ea 903d a392 d13d
000003f0: d7fc cdbd 3f43 c73d a314 123b d5c4 5d3d

weight_function_network.initial_cnn.4.bias f4 [16]
0.1154928 -0.0675204 -0.03626687 -0.071233444 0.06553343 -0.09555864 0.118365616 -0.05657322
-0.0544087 -0.06276042 0.08981702 0.09325615 -0.065078236 -0.01783053 0.1006721 -0.04016294
00000000: 7d87 ec3d 2348 8abd 928c 14bd d7e2 91bd
00000010: 6436 863d 40b4 c3bd ac69 f23d 52b9 67bd
00000020: a8db 5ebd 8988 80bd fcf1 b73d 15fd be3d
00000030: bd47 85bd 5511 92bc 2d2d ce3d e581 24bd

weight_function_network.initial_cnn.5.weight f4 [16]
1.0028833 0.9939957 1.007166 1.0254378 1.0051098 1.0156757 0.9912617 0.9909037
0.9941325 0.99776167 0.9913455 1.0021986 1.0132364 0.9943005 0.9875365 0.9872676
00000000: 7b5e 803f 8176 7e3f d1ea 803f 8c41 833f
00000010: 70a7 803f a901 823f 54c3 7d3f ddab 7d3f
00000020: 787f 7e3f 4f6d 7f3f d2c8 7d3f 0b48 803f
00000030: bbb1 813f 7a8a 7e3f 31cf 7c3f 92bd 7c3f

weight_function_network.initial_cnn.5.bias f4 [16]
0.0077712866 0.0051727947 -0.026652498 0.0157965 -0.0071144933 7.6772674e-05 -0.007631172 0.0002913554
0.00067999586 -0.0022429242 -0.008736632 -0.0030162893 -0.00049534574 -0.028074723 -0.015032281 -0.030313231
00000000: 47a6 fe3b 8c80 a93b 5756 dabc a967 813c
00000010: b220 e9bb 0401 a138 e90e fabb 0fc1 9839
00000020: c041 323a 06fe 12bb 1724 0fbc f0ac 45bb
00000030: 17da 01ba f6fc e5bc f549 76bc 7453 f8bc

weight_function_network.initial_cnn.5.running_mean f4 [16]
-0.18208009 -0.55843186 0.39469996 -0.11799748 0.40807268 -0.05647421 0.320931 0.10941433
-0.3190462 -0.09538669 0.22881727 0.13140588 -0.3339454 0.59736985 0.06910241 -0.015501173
00000000: 3473 3abe 64f5 0ebf 1d16 ca3e aaa8 f1bd
00000010: e7ee d03e 8051 67bd 1151 a43e 9f14 e03d
00000020: 065a a3be 195a c3bd 134f 6a3e 438f 063e
00000030: e4fa aabe 3bed 183f 9085 8d3d a2f8 7dbc

weight_function_network.initial_cnn.5.running_var f4 [16]
0.049468756 0.13710557 0.097704425 0.039410673 0.21111692 0.052944392 0.050457396 0.12222825
0.124780826 0.05695824 0.16059035 0.16765162 0.04215838 0.13911164 0.19061136 0.08190579
00000000: c09f 4a3d 6765 0c3e 4219 c83d 166d 213d
00000010: 092f 583e 38dc 583d 6aac 4e3d ce52 fa3d
00000020: 178d ff3d 0b4d 693d cc71 243e deac 2b3e
00000030: 44ae 2c3d 4873 0e3e a02f 433e 39be a73d

weight_function_network.initial_cnn.8.weight f4 [32, 16, 3, 3]
-0.03643093 -0.010514888 -0.050927155 0.031187298 0.04016454 0.011030671 -0.06429767 0.044271465
0.03939558 -0.06575531 -0.0351749 0.020396812 -0.06867262 0.048463237 -0.035874575 -0.06379856
0.048178874 0.03851125 0.043130256 -0.04825408 -0.06765524 0.068889886 -0.0025288758 0.0021272
-0.027895102 0.050621673 -0.07302835 -0.05353354 -0.056243204 -0.05482343 0.07905498 0.06305204
-0.045603205 -0.08296805 -0.056455527 -0.054153286 -0.038118016 0.038735442 -0.056817904 0.071949765
0.05218229 -0.024499744 0.0013484688 -0.006082573 -0.0487761 0.068052515 0.031219952 -0.04289673
0.0420701 0.07174329 0.043142173 0.07132275 0.021272782 -0.009576367 -0.01446199 -0.08009652
-0.007150888 0.09259189 0.039492205 -0.0428373 -0.07126261 -0.07789261 -0.059338078 0.030482035
0.044001654 -0.019844512 -0.025378266 0.069861144 0.0026861946 -0.04585327 0.03851422 -0.0020212636
0.036724016 -0.027366532 0.08771796 -0.031536125 0.04780854 0.023987893 -0.03594502 -0.059459146
0.03738508 -0.054581653 0.021099718 0.019031757 0.059295397 -0.039915815 -0.04727202 -0.06755065
-0.05669287 -0.071596816 0.020547686 0.012103501 0.057890356 -0.027118042 0.020157833 -0.062091827
-0.0017079016 0.047408354 -0.0030061975 -0.07578383 -0.057634413 0.03825046 0.04394477 -0.039675325
0.06955429 0.035125654 0.055720232 0.02903516 0.03103634 -0.01466297 -0.004249993 -0.0292037
-0.0019512936 -0.005069247 -0.025198303 -0.056691773 -0.028809872 0.04512852 -0.080142565 -0.023513678
-0.019999761 0.01465702 0.058566347 -0.046394013 -0.0138781965 -0.058966827 -0.019173251 0.046354588
-0.055037297 -0.02054295 -0.033681434 0.024744703 -0.04208738 0.019799653 -0.031884886 -0.0057547777
-0.03780777 0.06058944 0.027829416 0.074430406 -0.026190842 0.06343997 -0.0492178 -0.052940685
-0.08441903 -0.038844164 0.01684658 -0.08144095 -0.0005158693 -0.056729265 -0.064992696 -0.013188927
-0.048425965 0.07412684 0.075330175 -0.046944153 0.0338169 -0.030888934 -0.043602698 0.006477797
-0.059554834 -0.034418017 0.031535815 0.016198715 0.036516555 0.060860403 0.026040198 -0.044283226
-0.07036166 0.030072052 -0.012333138 0.066430755 -0.040114287 -0.053225834 0.07590902 -0.033492606
0.039708998 -0.005388319 0.07516254 -0.024778701 0.022452438 -0.01994772 -0.025180811 -0.052126244
0.05557986 -0.048632912 -0.013300892 -0.036803637 0.081283174 -0.0266701 -0.074616276 -0.06723098
0.07458488 0.08209846 0.054156315 -0.08634698 -0.07360097 0.05478264 0.045313418 -0.024325551
-0.052182827 -0.0091994265 -0.006349536 0.076944135 0.007185471 -0.0070947185 -0.04607992 -0.06925381
-0.05058095 -0.026915634 -0.07688082 -0.03536867 0.012964362 -0.007262757 -0.00649275 0.027521795
-0.045351766 0.0071268086 -0.042089343 0.0305798 -0.066592455 0.060846753 0.042607863 0.021681273
0.02365924 -0.06271413 0.048808835 -0.031209951 -0.04154251 -0.062694035 -0.06755604 -0.009310478
0.0002115708 0.0046071643 -0.009645355 -0.013693982 -0.017279292 -0.06045795 -0.059101403 -0.031382475
0.015751177 -0.018201195 -0.045521118 -0.07212423 -0.077002294 -0.003818154 -0.043086067 0.07176467
-0.053682584 0.028043756 0.05985291 -0.03449441 0.026898716 -0.009497087 0.024803171 -0.056340232
00000000: 9938 15bd a346 2cbc fe98 50bd 817c ff3c
00000010: 9383 243d fdb9 343c 7fae 83bd ff55 353d
00000020: 425d 213d b8aa 86bd 8e13 10bd 3717 a73c
00000030: 3ba4 8cbd 6381 463d 38f1 12bd d2a8 82bd
00000040: 3657 453d f9bd 1d3d 5aa9 303d 12a6 45bd
00000050: d58e 8abd 2416 8d3d 7fbb 25bb 7e68 0b3b
00000060: 4584 e4bc ac58 4f3d e38f 95bd fc45 5bbd
00000070: 465f 66bd 888e 60bd 94e7 a13d 6e21 813d
00000080: 6dca 3abd 27eb a9bd e93d 67bd d6cf 5dbd
00000090: a321 1cbd 0ea9 1e3d e4b9 68bd 665a 933d
000000a0: 19bd 553d b0b3 c8bc 1bbf b03a 5250 c7bb
000000b0: 73c9 47bd 1e5f 8b3d fcc0 ff3c 7bb4 2fbd
000000c0: b251 2c3d 25ee 923d d9b5 303d a911 923d
000000d0: 4244 ae3c 32e6 1cbc fcf1 6cbc a509 a4bd
000000e0: ff51 eabb d1a0 bd3d 94c2 213d 2a76 2fbd
000000f0: 22f2 91bd 2986 9fbd 7c0c 73bd 76b5 f93c
00000100: 143b 343d f590 a2bc 15e6 cfbc 5c13 8f3d
00000110: de0a 303b a3d0 3bbd 16c1 1d3d 2d77 04bb
00000120: ec6b 163d c72f e0bc 79a5 b33d 062c 01bd
00000130: e3d2 433d 4282 c43c 163b 13bd 6f8b 73bd
00000140: 1921 193d 0391 5fbd 51d9 ac3c 7de8 9b3c
00000150: bbdf 723d c47e 23bd 4ea0 41bd ff57 8abd
00000160: c836 68bd 5aa1 92bd 9f53 a83c c34d 463c
00000170: 701e 6d3d a826 debc 0a22 a53c 0054 7ebd
00000180: abdb dfba 432f 423d a003 45bb 8d34 9bbd
00000190: 1012 6cbd 84ac 1c3d 6eff 333d 9882 22bd
000001a0: 7b72 8e3d ebdf 0f3d e63a 643d 25db ed3c
000001b0: ec3f fe3c f43c 70bc 8643 8bbb 993c efbc
000001c0: 8cc2 ffba ed1b a6bb ac6c cebc a235 68bd
000001d0: ae02 ecbc afd8 383d c921 a4bd c29f c0bc
000001e0: 8ad6 a3bc ff23 703c 44e3 6f3d a607 3ebd
000001f0: 6061 63bc 3387 71bd 3911 9dbc 4fde 3d3d
00000200: ca6e 61bd b049 a8bc 8bf5 09bd 67b5 ca3c
00000210: d163 2cbd e232 a23c ba99 02bd 9392 bcbb
00000220: 52dc 1abd a22c 783d 84fa e33c f86e 983d
00000230: 2d8e d6bc d1ec 813d 9b98 49bd 55d8 58bd
00000240: e2e3 acbd 0f1b 1fbd d701 8a3c 83ca a6bd
00000250: 673b 07ba f25c 68bd e41a 85bd 5f16 58bc
00000260: 4e5a 46bd d0cf 973d b546 9a3d 8348 40bd
00000270: 9783 0a3d ca0a fdbc be98 32bd b343 d43b
00000280: c5ef 73bd e8f9 0cbd b32b 013d 2bb3 843c
00000290: 6292 153d c248 793d 4152 d53c 5462 35bd
000002a0: c619 90bd aa59 f63c ee10 4abc d90c 883d
000002b0: e14e 24bd 5503 5abd 3076 9b3d 8b2f 09bd
000002c0: e7a5 223d 7f90 b0bb d1ee 993d b4fc cabc
000002d0: 2dee b73c 6769 a3bc fd47 cebc 5482 55bd
000002e0: b5a7 633d 4e33 47bd fceb 59bc 69bf 16bd
000002f0: cb77 a63d 417b dabc 6bd0 98bd 65b0 89bd
00000300: f5bf 983d 3d23 a83d 03d3 5d3d afd6 b0bd
00000310: 1bbc 96bd c363 603d 909a 393d 6146 c7bc
00000320: a9bd 55bd 31b9 16bc c50f d0bb e394 9d3d
00000330: 1974 eb3b d07a e8bb 4cbe 3cbd f1d4 8dbd
00000340: f82d 4fbd 2d7e dcbc b173 9dbd bdde 10bd
00000350: 7a68 543c 6cfc edbb 22c1 d4bb 6375 e13c
00000360: c6c2 39bd 0188 e93b e065 2cbd 7d82 fa3c
00000370: a061 88bd 723a 793d 9585 2e3d ed9c b13c
00000380: 06d1 c13c 4470 80bd c6eb 473d 03ac ffbc
00000390: 7b28 2abd bb65 80bd d25a 8abd fa8a 18bc
000003a0: 1bd9 5d39 b2f7 963b 8d07 1ebc b95c 60bc
000003b0: 4d8d 8dbc c1a2 77bd 5014 72bd e98a 00bd
000003c0: 9d08 813c ac1a 95bc 5a74 3abd deb5 93bd
000003d0: 61b3 9dbd ff39 7abb 047b 30bd 5bf9 923d
000003e0: 45e2 5bbd 05bc e53c 5328 753d 034a 0dbd
000003f0: b25a dc3c ac99 1bbc 0530 cb3c 04c5 66bd

weight_function_network.initial_cnn.8.bias f4 [32]
0.01855879 0.06726357 0.06723993 -0.060941204 -0.019413382 -0.032331105 0.010187221 -0.036545556
-0.034478817 -0.026006859 -0.043426033 9.2040464e-05 -0.0020622883 0.02839135 -0.07157192 0.07062639
0.03207978 0.05110872 0.012092442 -0.066032946 -0.0736055 -0.061622746 -0.026586626 0.048281558
-0.054042034 -0.0008074564 0.003034621 0.0241396 0.07760162 -0.022895776 0.06908378 0.037060782
00000000: 9b08 983c 7cc1 893d 17b5 893d 7c9d 79bd
00000010: d008 9fbc 9f6d 04bd 4de8 263c cbb0 15bd
00000020: a939 0dbd 560c d5bc 7fdf 31bd d905 c138
00000030: 7527 07bb fa94 e83c 4c94 92bd 92a4 903d
00000040: 1666 033d 6157 513d 611f 463c 483c 87bd
00000050: 7bbe 96bd 2268 7cbd 32cc d9bc e2c2 453d
00000060: 2e5b 5dbd 7bab 53ba 7ee0 463b 69c0 c53c
00000070: 99ed 9e3d ec8f bbbc cc7b 8d3d 0ccd 173d

weight_function_network.initial_cnn.9.weight f4 [32]
1.0051767 1.0057851 0.9923119 1.0272816 0.984875 1.0190173 0.9956403 1.0012189
1.0078374 1.0041454 0.9882373 0.9984066 1.0050836 0.99821883 0.99928707 1.0037618
1.0112717 1.0023685 1.0095159 0.9953983 1.0028749 0.99464273 0.99635524 0.9923184
1.0013291 1.0018892 0.9970779 0.9917499 0.9864897 0.9888903 0.998007 0.9973249
00000000: a1a9 803f 91bd 803f 2708 7e3f f77d 833f
00000010: c520 7c3f 296f 823f 48e2 7e3f f127 803f
00000020: d100 813f d687 803f 1ffd 7c3f 9397 7f3f
00000030: 94a6 803f 458b 7f3f 47d1 7f3f 447b 803f
00000040: 5a71 813f 9c4d 803f d137 813f 6cd2 7e3f
00000050: 345e 803f e8a0 7e3f 2311 7f3f 9408 7e3f
00000060: 8d2b 803f e83d 803f 7f40 7f3f 52e3 7d3f
00000070: 978a 7c3f ea27 7d3f 637d 7f3f af50 7f3f

weight_function_network.initial_cnn.9.bias f4 [32]
-0.0033426469 0.00065861497 -0.018875018 0.01601514 -0.014559877 0.013879467 -0.0082790395 -0.015607629
-0.00514598 -0.022934578 -0.008801082 -0.019362416 -0.015348372 -0.005769909 -0.008272112 -0.0017752219
0.01288145 -0.014661599 0.008526843 -0.019026106 -0.0036989928 -0.009767737 -0.0030849592 -0.0079602385
0.0077956365 -0.0081705535 -0.018178152 0.004832116 -0.01791278 -0.010519718 -0.006962054 -0.0008884249
00000000: 4f10 5bbb e7a6 2c3a c89f 9abc 2f32 833c
00000010: 8d8c 6ebc b466 633c cfa4 07bc 24b7 7fbc
00000020: 9c9f a8bb 4ce1 bbbc 6a32 10bc ee9d 9ebc
00000030: bd77 7bbc 8111 bdbb c187 07bc 90ae e8ba
00000040: b80c 533c 3437 70bc 2cb4 0b3c a3dc 9bbc
00000050: cd6a 72bb dc08 20bc 072d 4abb a96b 02bc
00000060: 8a72 ff3b c9dd 05bc 59ea 94bc ba56 9e3b
00000070: d3bd 92bc e55a 2cbc f121 e4bb 30e5 68ba

weight_function_network.initial_cnn.9.running_mean f4 [32]
-0.10513447 -0.56365275 -0.49753347 0.41950297 0.53263855 -0.2592408 0.16689181 -0.22599375
0.55210346 0.64802754 0.07682134 0.20439301 -0.26697728 0.37960753 -0.18346107 0.47768074
-0.331571 -0.12483043 -0.33371988 0.1321662 -0.27617535 -0.42184186 -0.31012234 0.79160225
-0.19307673 0.00875169 0.07025149 0.38329437 0.279116 0.040029492 0.00435369 -0.3565712
00000000: be50 d7bd 8c4b 10bf b5bc febe 18c9 d63e
00000010: 005b 083f 36bb 84be b0e5 2a3e e86a 67be
00000020: a756 0d3f 22e5 253f 8254 9d3d 674c 513e
00000030: 3fb1 88be eb5b c23e 38dd 3bbe 9292 f43e
00000040: adc3 a9be 19a7 ffbd 55dd aabe 9456 073e
00000050: db66 8dbe a8fb d7be 5bc8 9ebe 72a6 4a3f
00000060: e8b5 45be 4063 0f3c 03e0 8f3d 293f c43e
00000070: 4be8 8e3e f7f5 233d 66a9 8e3b 8090 b6be

weight_function_network.initial_cnn.9.running_var f4 [32]
0.1728345 0.16067669 0.12403921 0.13123035 0.12984213 0.09156859 0.09186195 0.093331136
0.15036932 0.21508926 0.22964922 0.2023735 0.10103071 0.22261843 0.20258254 0.1813338
0.18964826 0.17981528 0.19218084 0.10332584 0.18287048 0.112815015 0.10209206 0.24599229
0.1202602 0.09198292 0.19949518 0.17670076 0.23258197 0.16511112 0.11175119 0.18530534
00000000: 87fb 303e 6e88 243e 4508 fe3d 4061 063e
00000010: 56f5 043e 5088 bb3d 1e22 bc3d 6524 bf3d
00000020: 6afa 193e 5c40 5c3e 2a29 6b3e 003b 4f3e
00000030: 30e9 ce3d 16f6 633e cc71 4f3e 91af 393e
00000040: 2733 423e 7f21 383e 0ecb 443e 7f9c d33d
00000050: 6642 3b3e 8f0b e73d a415 d13d 67e5 7b3e
00000060: fb4a f63d 8b61 bc3d 7748 4c3e 0bf1 343e
00000070: f829 6e3e e412 293e cfdd e43d afc0 3d3e

weight_function_network.initial_cnn.11.weight f4 [32, 32, 3, 3]
-0.051855538 0.002980384 0.0011546323 -0.029965617 -0.06733792 0.045711514 -0.03816168 -0.019046169
0.00028380242 -0.03921765 -0.08046752 -0.021194609 -0.056677468 0.017710155 -0.011043488 -0.0026328836
0.0013073785 -0.03091415 0.0152221965 -0.033364385 0.0037803666 0.052223116 0.022667402 0.046696905
-0.024646565 0.0541553 -0.05218708 -0.04836154 -0.043328613 0.033424925 0.024556138 -0.0023403235
0.05563657 0.057592526 0.018358981 -0.040759634 -0.0077471873 0.05186187 -0.032065015 -0.016436415
0.058043968 -0.04815845 -0.04440352 0.07118848 0.006724804 -0.05945937 -0.03469557 0.04708164
0.00018343847 -0.04686855 -0.05293979 0.042349964 -0.03540304 -0.00401075 -0.05572213 0.024276443
0.027925415 0.0064719995 -0.021681653 0.040352408 -0.030481331 -0.012119629 -0.017966703 -0.015305658
0.047639757 0.06415878 0.0066231354 0.05560396 -0.044020567 0.01769504 0.010735629 -0.014518443
0.047274396 -0.045166932 0.014982696 0.014797024 -0.0014048142 -0.019382477 -0.035713203 0.030983655
0.006453481 0.055866506 0.031686373 -0.0027175664 0.05470826 0.016564118 -0.049087744 0.056916237
-0.01723027 -0.0022199815 0.043570306 -0.0034625286 -0.0037748523 0.028905708 0.0224111 0.036525182
0.07305349 -0.041487806 -0.031608466 -0.045848593 0.03419481 0.0072388807 -0.054619398 -0.0073563503
-0.0013029908 -0.039948042 -0.019292912 -0.0077797696 0.006670267 0.025070135 0.0050322595 0.003377161
-0.013582001 -0.03913301 0.02581839 -0.04676974 0.05068754 -0.020496033 0.004134699 -0.0049264114
0.030439433 0.031337455 -0.039838117 -0.007831332 0.033397004 0.03792384 -0.0091987215 -0.037376232
-0.012940468 -0.004053688 0.04590065 0.054371674 0.047504053 -0.06075036 -0.028827982 0.0025259652
-0.046747494 0.049787145 0.02201922 0.04014878 0.012096863 -0.032055005 -0.057117466 0.04606441
-0.003962959 -0.0056767506 0.059043806 0.012002151 -0.009101961 0.030623792 -0.017932495 -0.03517807
0.031782307 0.024553562 -0.021500727 -0.02562177 0.04651964 0.009262014 0.018600715 0.049754754
-0.024254043 0.010512306 -0.008473818 0.019986121 -0.013997683 0.011281543 0.029479688 0.009214429
0.033384554 -0.0018183066 -0.026432665 -0.042782843 0.008738353 -0.046245817 0.00765103 -0.04729772
0.00047754752 -0.013280825 -0.034054134 0.020978577 0.019771097 0.056494914 -0.02673251 -0.0067936284
0.025590336 -0.06869936 -0.025172122 0.01510746 0.0025188758 0.027006214 -0.038179938 0.025404189
0.022610446 0.040616687 -0.039372656 0.032497656 -0.063592725 -0.034641173 -0.048611436 -0.003076304
-0.026382359 0.003356071 -0.017220438 0.059433013 0.04471594 -0.046434425 -0.041795958 0.057948664
-0.050964624 0.020905636 0.051890958 0.053753037 0.027861219 0.040323302 0.047108073 -0.015033159
0.037234467 0.053763427 -0.040866088 -0.05422783 -0.041195594 -0.053769432 -0.04186706 -0.021424696
0.03569672 -0.043594748 -0.032202497 0.025497673 0.055877473 -0.05512015 0.047660578 -0.025945272
-0.03139643 0.02400297 0.0099877305 -0.038869865 0.042268887 -0.042168427 0.049483806 -0.061811343
-0.016659874 -0.064621605 -0.06287777 0.056617692 -0.00015965458 0.031503193 -0.01720963 0.01597657
0.026573652 0.0633329 0.023238646 0.050510135 -0.036662295 0.029518459 0.010667188 0.03314071
00000000: 7966 54bd 8c52 433b 0857 973a 747a f5bc
00000010: 77e8 89bd ff3b 3b3d 6c4f 1cbd b606 9cbc
00000020: 51cb 9439 b0a2 20bd 28cc a4bd 51a0 adbc
00000030: a226 68bd e314 913c bfef 34bc 758c 2cbb
00000040: 585c ab3a ac3f fdbc 8566 793c 18a9 08bd
00000050: 07c0 773b e8e7 553d fdb0 b93c 4145 3f3d
00000060: 98e7 c9bc f3d1 5d3d 1fc2 55bd c016 46bd
00000070: 5879 31bd 93e8 083d f429 c93c 1d60 19bb
00000080: 2ce3 633d 24e6 6b3d 9365 963c 93f3 26bd
00000090: 1edc fdbb 1d6d 543d 9b56 03bd a9a5 86bc
000000a0: 83bf 6d3d cb41 45bd 77e0 35bd 44cb 913d
000000b0: bf5b dc3b ab8b 73bd f11c 0ebd aed8 403d
000000c0: 6459 4039 3df9 3fbd 65d7 58bd 2877 2d3d
000000d0: c702 11bd 9c6c 83bb e33c 64bd 64df c63c
000000e0: d7c3 e43c 1113 d43b b99d b1bc 9148 253d
000000f0: fcb3 f9bc 6991 46bc e82e 93bc 95c4 7abc
00000100: e821 433d ae65 833d e306 d93b fac0 633d
00000110: e94e 34bd 30f5 903c 7ee4 2f3c c3de 6dbc
00000120: cca2 413d f600 39bd fb79 753c 386f 723c
00000130: be21 b8ba 00c8 9ebc 0248 12bd 6fd1 fd3c
00000140: b977 d33b 47d4 643d 92c9 013d 3319 32bb
00000150: c515 603d 79b1 873c 3b10 49bd 0021 693d
00000160: 7f26 8dbc 1c7d 11bb c776 323d 97eb 62bb
00000170: 8363 77bb aacb ec3c 7c97 b73c 6e9b 153d
00000180: 119d 953d 1eef 29bd e177 01bd bccb 3bbd
00000190: db0f 0c3d 2234 ed3b 97b8 5fbd 8a0d f1bb
000001a0: 1ec9 aaba 8fa0 23bd 2b0c 9ebc 70ed febb
000001b0: 4192 da3b e25f cd3c a7e5 a43b 5c53 5d3b
000001c0: 0b87 5ebc ef49 20bd 1781 d33c a091 3fbd
000001d0: bd9d 4f3d 4ce7 a7bc 5e7c 873b bc6d a1bb
000001e0: 1e5c f93c b45b 003d 4b2d 23bd fd4e 00bc
000001f0: 4ccb 083d 0756 1b3d 3cb6 16bc d217 19bd
00000200: 4204 54bc cdd4 84bb 5202 3c3d d5b4 5e3d
00000210: 9c93 423d 5fd5 78bd a928 ecbc aa8a 253b
00000220: 4d7a 3fbd 9bed 4b3d a761 b43c 0c73 243d
00000230: ec31 463c 1c4c 03bd 01f4 69bd 09ae 3c3d
00000240: b6db 81bb 0904 babb ebd7 713d aca4 443c
00000250: 6420 15bc bfde fa3c 2be7 92bc e116 10bd
00000260: 2a2e 023d 8d24 c93c 4b22 b0bc bfe4 d1bc
00000270: 618b 3e3d b4bf 173c 8760 983c a4cb 4b3d
00000280: 6ab0 c6bc cf3b 2c3c c5d5 0abc efb9 a33c
00000290: 8a56 65bc 39d6 383c 637f f13c 1ef8 163c
000002a0: 3ebe 083d 3f54 eeba 5189 d8bc 103d 2fbd
000002b0: 4f2b 0f3c 416c 3dbd 7eb5 fa3b 41bb 41bd
000002c0: 585f fa39 d197 59bc 597c 0bbd 44db ab3c
000002d0: fff6 a13c 3667 673d 23fe dabc 169d debb
000002e0: d3a2 d13c 40b2 8cbd c435 cebc 4885 773c
000002f0: b913 253b 233c dd3c 9162 1cbd 721c d03c
00000300: 8b39 b93c af5d 263d 3945 21bd 431c 053d
00000310: e73c 82bd e7e3 0dbd c91c 47bd d19b 49bb
00000320: d11f d8bc 87f1 5b3b e011 8dbc 0870 733d
00000330: 1028 373d 0632 3ebd 3d32 2bbd 945b 6d3d
00000340: 48c0 50bd 4c42 ab3c 9d8b 543d 252c 5c3d
00000350: 363d e43c 0c2a 253d 65f4 403d a44d 76bc
00000360: 2b83 183d 0a37 5c3d 3363 27bd 001e 5ebd
00000370: b6bc 28bd 563d 5cbd cb7c 2bbd d882 afbc
00000380: b936 123d 6890 32bd c4e6 03bd 7fe0 d03c
00000390: c7df 643d abc5 61bd bd37 433d 2e8b d4bc
000003a0: 8b99 00bd e0a1 c43c 94a3 233c 0236 1fbd
000003b0: 2422 2d3d cdb8 2cbd 88af 4a3d e42d 7dbd
000003c0: 4a7a 88bc 5558 84bd 0fc6 80bd f4e7 673d
000003d0: f368 27b9 7e09 013d 36fb 8cbc 4ce1 823c
000003e0: fdb0 d93c aeb4 813d f95e be3c b7e3 4e3d
000003f0: 342b 16bd b2d0 f13c 6ec5 2e3c 8ebe 073d

weight_function_network.initial_cnn.11.bias f4 [32]
0.011073127 0.02139724 0.001659675 -0.020664927 0.017499695 0.02052044 0.040878385 -0.043804515
-0.037888102 -0.036201622 0.038333967 0.010675364 0.045267116 -0.015096324 0.052929256 -0.031890452
-0.047800936 0.032859284 -0.026130183 0.033024266 0.042853046 0.031103084 0.013991419 0.014767605
-0.012680944 -0.0025752021 -0.017568786 -0.039798487 0.012089998 0.05192206 0.012607638 -0.0021462818
00000000: 106c 353c 4449 af3c 7489 d93a 7e49 a9bc
00000010: 855b 8f3c 7b1a a83c 1870 273d 5d6c 33bd
00000020: 8e30 1bbd 2748 14bd 1404 1d3d b9e7 2e3c
00000030: 036a 393d 9256 77bc 59cc 583d 909f 02bd
00000040: eaca 43bd 7597 063d f70e d6bc 7444 073d
00000050: ad86 2f3d e5cb fe3c 443c 653c d3f3 713c
00000060: bcc3 4fbc b9c4 28bb 6aec 8fbc bd03 23bd
00000070: 2115 463c 3aac 543d 4490 4e3c a2a8 0cbb

weight_function_network.initial_cnn.12.weight f4 [32]
1.0054752 0.9773002 1.0095493 1.0045925 1.0128529 0.9915259 0.9930695 0.99477136
1.00189 0.98645335 0.99706674 0.99368465 0.9969091 1.0005903 1.002304 1.0001134
0.98105747 0.9921278 1.002328 1.0186075 1.0015719 1.0053692 0.99236584 1.001101
1.0049877 0.9998929 0.9956684 0.99623924 1.0241209 1.0050604 1.0014598 0.99176604
00000000: 69b3 803f 5930 7a3f e938 813f 7d96 803f
00000010: 2aa5 813f a4d4 7d3f ce39 7e3f 56a9 7e3f
00000020: ee3d 803f 3588 7c3f c43f 7f3f 1e62 7e3f
00000030: 6f35 7f3f 5813 803f 7f4b 803f b703 803f
00000040: 9526 7b3f 16fc 7d3f 494c 803f bb61 823f
00000050: 8233 803f f0af 803f b00b 7e3f 1424 803f
00000060: 70a3 803f fbf8 7f3f 20e4 7e3f 8909 7f3f
00000070: 6516 833f d2a5 803f d62f 803f 61e4 7d3f

weight_function_network.initial_cnn.12.bias f4 [32]
-0.018095424 -0.024453474 -0.015375854 -0.010262315 -0.0021525484 -0.014336596 -0.013982404 -0.009150993
-0.0110578 -0.010523134 -0.020959428 -8.582627e-05 -0.01479193 0.0048193065 0.002714726 -0.002645208
-0.009987831 -0.010559023 -0.0046070265 0.0012348808 0.003717493 0.0059470325 -0.0056324056 -0.014860832
-0.012602347 -0.0021680542 -0.0056091915 -0.0059642973 0.009369388 0.0020948017 -0.003795724 -0.007797802
00000000: db3c 94bc a752 c8bc 02eb 7bbc 4523 28bc
00000010: c511 0dbb 0be4 6abc 7416 65bc 0cee 15bc
00000020: c62b 35bc 3969 2cbc 1bb3 abbc a1fd b3b8
00000030: da59 72bc 46eb 9d3b 8be9 313b 3a5b 2dbb
00000040: 00a4 23bc c1ff 2cbc 8af6 96bb b9db a13a
00000050: 2fa1 733b 53df c23b 0b90 b8bb d97a 73bc
00000060: 137a 4ebc ea15 0ebb 4fcd b7bb 2770 c3bb
00000070: 1082 193c f148 093b aec1 78bb b484 ffbb

weight_function_network.initial_cnn.12.running_mean f4 [32]
0.004815837 0.2701951 0.23099713 -0.2101276 0.50007945 0.24302587 -0.25621653 0.09950447
-0.037920203 -0.35781416 0.16810296 -0.0491439 -0.036549285 -0.4114048 -0.06304517 0.026671428
-0.24974658 -0.073603466 -0.34068108 0.26628748 0.08578077 -0.20953754 0.25596216 0.055441
0.03834455 0.46399283 -0.009824327 0.18679316 0.34030828 -0.09248142 -0.18340185 -0.44296816
00000000: 2bce 9d3b 0357 8a3e 838a 6c3e b12b 57be
00000010: 3505 003f c6db 783e d02e 83be 00c9 cb3d
00000020: 3752 1bbd 6b33 b7be 2f23 2c3e 1d4b 49bd
00000030: b4b4 15bd a6a3 d2be d31d 81bd 0a7e da3c
00000040: 91bd 7fbe 6abd 96bd c06d aebe d556 883e
00000050: d4ad af3d 0291 56be 790d 833e 1a16 633d
00000060: 2d0f 1d3d 7890 ed3e 37f6 20bc b546 3f3e
00000070: e33c ae3e e666 bdbd b2cd 3bbe b9cc e2be

weight_function_network.initial_cnn.12.running_var f4 [32]
0.12167608 0.119054064 0.19167341 0.116008684 0.18278523 0.11677254 0.21752481 0.12696455
0.1033279 0.15784396 0.10344039 0.09974847 0.13266166 0.1615486 0.15434979 0.20549437
0.099027015 0.13768236 0.10071269 0.11300076 0.10808098 0.11852279 0.11782577 0.10702594
0.117637716 0.16792628 0.10176202 0.15629421 0.15400419 0.13145083 0.10146648 0.19069287
00000000: 4f31 f93d 9ed2 f33d 0946 443e f695 ed3d
00000010: 0d2c 3b3e 7126 ef3d d3be 5e3e ff02 023e
00000020: 949d d33d d9a1 213e 8ed8 d33d ed48 cc3d
00000030: 75d8 073e ff6c 253e df0d 1e3e 1e6d 523e
00000040: adce ca3d 9bfc 0c3e 7442 ce3d f16c e73d
00000050: 9059 dd3d 14bc f23d a34e f13d 6b30 db3d
00000060: 0bec f03d def4 2b3e 9b68 d03d 970b 203e
00000070: 46b3 1d3e 0c9b 063e a8cd cf3d fe44 433e

weight_function_network.adaptive_layer.1.weight f4 [64, 32, 3, 3]
0.00872521 -0.026848748 0.021014664 -0.0070380135 -0.04879237 -0.044608705 -0.03734688 -0.00504074
-0.026763333 -0.027264066 -0.027828356 0.03153019 -0.0063053705 0.03492538 0.037089 -0.0433389
0.018875197 0.032026954 0.03923516 -0.029445384 -0.038901154 0.024061505 0.04344947 0.0573772
0.04865033 -0.01982019 0.048358966 -0.028739458 -0.028266786 0.02075032 0.05907747 -0.012628217
0.046167374 0.027029335 -0.023759004 -0.025509415 0.002005462 -0.015080193 -0.01735065 -0.014681865
0.013865591 -0.059736647 0.022637099 0.042066276 0.02086251 -0.056171816 0.017863005 0.04876328
-0.003920782 0.0039410824 -0.061838277 0.052686945 0.036319643 0.023416247 -0.043948993 -0.022391258
0.003478138 -0.008789664 -0.005566353 -0.012952502 0.017644959 0.006496876 5.2989173e-05 -0.045850784
-0.027057229 0.028580118 -0.019160775 -0.0022951015 0.04251964 -0.021731732 -0.023460567 0.023600947
0.032424353 0.016279975 -0.04350728 -0.030887904 -0.013324121 -0.04311812 0.042912513 0.054945685
-0.03301864 -0.055285186 0.038392097 -0.064365596 -0.056442175 0.00020573201 -0.06388133 -0.036356233
-0.054205377 0.029275158 -0.0066072806 -0.0076319147 -0.023778882 0.040483423 0.01940379 0.05099662
0.025936916 -0.034042563 -0.0059676543 0.026356967 0.03446636 -0.0146985715 -0.047210097 -0.057500478
-0.027163433 -0.047546342 -0.019633835 0.00251066 -0.018819276 -0.04940126 0.055231515 0.036834016
-0.0045298133 -0.030270282 0.035211936 0.054208495 0.008900346 0.06149923 -0.04569407 -0.0044891797
-0.022921348 0.013961719 0.03200279 0.018432781 -0.031623077 0.062893786 -0.01638327 -0.014141432
0.040842198 0.0031375925 0.039669067 -0.024787102 -0.006786619 0.059716415 -0.04450954 -0.007327815
0.031416286 -0.031961065 -0.059460644 -0.0018481218 0.0020392898 -0.022161122 -0.040301982 -0.017605362
-0.027493514 -0.046832226 0.04357843 -0.02120923 -0.001660192 -0.013224428 0.033137653 -0.041537132
-0.031994462 0.047192093 0.04042516 -0.0074777827 0.011303991 -0.03091678 -0.0072954413 0.022938758
0.015310535 -0.04030607 -0.027348032 0.021608194 0.00017713297 0.018761318 0.039543975 -0.051988274
-0.02776535 0.027814804 -0.039192826 0.04506941 -0.0064319214 0.027125323 -0.0050395383 -0.027300756
0.022028862 -0.0581746 -0.03251129 0.002794514 -0.010290455 -0.03613274 -0.007893513 0.0038024492
0.061099436 -0.054660782 -0.049119305 0.05492467 -0.011199608 0.013351336 0.05057413 0.0017393135
-0.0027683452 0.00020727239 0.05042353 0.007585234 -0.029995527 0.03688809 -0.0057238205 -0.009345826
-0.05004017 0.0012101709 -0.040668238 0.016418751 -0.0527968 -0.027979631 -0.014267574 -0.068958014
-0.053154618 -0.07983559 -0.015520786 -0.045360915 0.034196287 -0.039738365 -0.011039619 0.03158535
0.053441387 -0.045924857 0.04886423 0.031080268 0.0060278093 0.03178918 -0.004597836 0.025325373
-0.014109106 0.01236152 0.009969208 0.04444756 0.04590425 0.0060807806 -0.031009322 -0.01332874
0.04955343 0.05216455 -0.034375753 0.0059363293 -0.031071318 0.020713827 0.045989968 0.050309088
-0.022072595 -0.016565626 -0.03927076 0.015841793 0.019236863 -0.041329294 -0.050245754 -0.05917876
-0.05599305 0.044451073 -0.028914224 0.021833215 -0.056440696 0.048824895 0.05287646 0.02351823
00000000: 2ff4 0e3c e8f1 dbbc f226 ac3c 239f e6bb
00000010: 82da 47bd 9eb7 36bd 0bf9 18bd cb2c a5bb
00000020: c73e dbbc e458 dfbc 4bf8 e3bc cd25 013d
00000030: 489d cebb ea0d 0f3d a3ea 173d 2184 31bd
00000040: 28a0 9a3c b22e 033d 0cb5 203d 7237 f1bc
00000050: d156 1fbd a21c c53c 12f8 313d 5b04 6b3d
00000060: 9245 473d f35d a2bc 0d14 463d 036f ebbc
00000070: bf8f e7bc 93fc a93c 38fb 713d 95e6 4ebc
00000080: 001a 3d3d a06c dd3c 3ea2 c2bc 1ff9 d0bc
00000090: 126e 033b ea12 77bc f322 8ebc 358c 70bc
000000a0: 812c 633c 6aae 74bd 7071 b93c b04d 2c3d
000000b0: dbe7 aa3c 6b14 66bd 7055 923c 01bc 473d
000000c0: e779 80bb 3224 813b 224a 7dbd 44ce 573d
000000d0: e8c3 143d 6ed3 bf3c dc03 34bd df6d b7bc
000000e0: 79f1 633b 8602 10bc f465 b6bb bb36 54bc
000000f0: 298c 903c bfe3 d43b b140 5e38 08ce 3bbd
00000100: 1fa7 ddbc da20 ea3c 0ff7 9cbc 6a69 16bb
00000110: 1329 2e3d bf06 b2bc 6030 c0bc c656 c13c
00000120: 66cf 043d 955d 853c b134 32bd a108 fdbc
00000130: 6a4d 5abc a09c 30bd 08c5 2f3d ba0e 613d
00000140: 8e3e 07bd b872 62bd 0841 1d3d 1cd2 83bd
00000150: e92f 67bd c4b9 5739 37d4 82bd 46ea 14bd
00000160: 7506 5ebd 75d2 ef3c e381 d8bb 2415 fabb
00000170: eecb c2bc f2d1 253d b2f4 9e3c d5e1 503d
00000180: a879 d43c 3770 0bbd 508c c3bb 91ea d73c
00000190: 992c 0d3d 47d2 70bc 605f 41bd 9f85 6bbd
000001a0: d985 debc f4bf 42bd 23d7 a0bc e389 243b
000001b0: e22a 9abc fa58 4abd 713a 623d 44df 163d
000001c0: d46e 94bb 62f9 f7bc 643a 103d ba09 5e3d
000001d0: c2d2 113c 9ee6 7b3d b529 3bbd f819 93bb
000001e0: 8dc5 bbbc b2bf 643c 5c15 033d 5800 973c
000001f0: 3387 01bd 75ce 803d 3536 86bc 77b1 67bc
00000200: 264a 273d 11a0 4d3b 087c 223d 520e cbbc
00000210: 4962 debb 3399 743d a34f 36bd 2b1e f0bb
00000220: 5dae 003d 9be9 02bd 018d 73bd ad3c f2ba
00000230: 9ba5 053b 3e8b b5bc b113 25bd 1f39 90bc
00000240: 143a e1bc 26d3 3fbd 4c7f 323d fbbe adbc
00000250: cd9a d9ba 45ab 58bc 59bb 073d d722 2abd
00000260: a00c 03bd 7f4c 413d da94 253d 3008 f5bb
00000270: 6034 393c 3045 fdbc 990e efbb 10ea bb3c
00000280: 0ad9 7a3c fa17 25bd fb08 e0bc ab03 b13c
00000290: c5bc 3939 56b1 993c ddf8 213d a8f1 54bd
000002a0: 2974 e3bc dfdb e33c a888 20bd b49a 383d
000002b0: dec2 d2bb ed35 de3c b622 a5bb d6a5 dfbc
000002c0: df75 b43c 7d48 6ebd 8f2a 05bd 2a24 373b
000002d0: 4c99 28bc edff 13bd cb53 01bc 8332 793b
000002e0: 6743 7a3d fce3 5fbd 5331 49bd b1f8 603d
000002f0: 907e 37bc 90bf 5a3c d226 4f3d adf9 e33a
00000300: 206d 35bb 4257 5939 e788 4e3d 8e8d f83b
00000310: 2eb9 f5bc f717 173d e38e bbbb 3c1f 19bc
00000320: ecf6 4cbd 999e 9e3a bd93 26bd 9e80 863c
00000330: 7541 58bd 8a35 e5bc 8bc2 69bc dc39 8dbd
00000340: a8b8 59bd d880 a3bd e54a 7ebc 5ecc 39bd
00000350: 6811 0c3d b2c4 22bd 85df 34bc a45f 013d
00000360: 5be5 5a3d b41b 3cbd dc25 483d 0c9c fe3c
00000370: ee84 c53b 5f35 023d 72a9 96bb 2877 cf3c
00000380: e129 67bc f987 4a3c e455 233c a50e 363d
00000390: 1806 3c3d 4941 c73b 4307 febc ca60 5abc
000003a0: 8af8 4a3d 7faa 553d 97cd 0cbd 8a85 c23b
000003b0: 4789 febc 0bb0 a93c fa5f 3c3d e710 4e3d
000003c0: 96d1 b4bc a3b4 87bc 60da 20bd a6c6 813c
000003d0: a096 9d3c e848 29bd 7ece 4dbd 6d65 72bd
000003e0: f858 65bd 5412 363d 86dd ecbc 92db b23c
000003f0: 5c2e 67bd 9dfc 473d fd94 583d 4ea9 c03c

weight_function_network.adaptive_layer.1.bias f4 [64]
0.015754314 0.03748055 0.016535593 -0.05067364 -0.026564684 -0.03620932 -0.057397082 -0.022546448
-0.026720017 0.039207336 -0.02042931 -0.0302187 0.01281735 -0.029075263 -0.012426602 0.046231873
0.033083726 -0.0018172663 0.046594884 0.048639428 0.037607417 0.04508461 0.03911738 0.032149848
0.00036594164 0.011112813 0.03374151 0.0061347308 -0.014258674 0.04770414 -0.042048395 0.028211938
-0.051713996 -0.028100252 0.0008559964 -0.05077363 0.00040575853 -0.047636706 -0.048002876 0.015727157
0.05370316 -0.009990237 -0.0033184849 -0.032324247 -0.02426619 0.020757902 -0.017040549 0.013247417
0.0061878976 -0.011642395 0.012514288 0.017091468 -0.00040584337 0.019700773 -0.01196817 -0.014589316
0.03741236 0.012568812 0.011346189 0.044044703 0.048637852 0.058433287 -0.057572503 0.020292817
00000000: 310f 813c 3585 193d a775 873c 2a8f 4fbd
00000010: 2e9e d9bc 3950 14bd 3419 6bbd 54b3 b8bc
00000020: f0e3 dabc df97 203d 5e5b a7bc 358d f7bc
00000030: ddff 513c 3f2f eebc f298 4bbc a25d 3d3d
00000040: cd82 073d 5731 eeba 47da 3e3d 233a 473d
00000050: 3c0a 1a3d a4aa 383d 8c39 203d 8faf 033d
00000060: dbdb bf39 8412 363c 8a34 0a3d da05 c93b
00000070: 379d 69bc 6b65 433d f03a 2cbd b91c e73c
00000080: 0ed2 53bd 8032 e6bc f264 603a 03f8 4fbd
00000090: fdbb d439 b51e 43bd aa9e 44bd 3dd6 803c
000000a0: d8f7 5b3d 17ae 23bc f07a 59bb 6e66 04bd
000000b0: e4c9 c6bc 7a0c aa3c 9f98 8bbc b20b 593c
000000c0: d9c3 ca3b bebf 3ebc ba08 4d3c 6803 8c3c
000000d0: 60c7 d4b9 8463 a13c 2516 44bc 0708 6fbc
000000e0: b43d 193d 6bed 4d3c 5ee5 393c 3868 343d
000000f0: 7c38 473d be57 6f3d 25d1 6bbd 1f3d a63c

weight_function_network.adaptive_layer.2.weight f4 [64]
0.99372995 0.9898265 1.0059872 0.99540675 0.9682978 0.9918844 1.0010732 0.9996949
0.9988187 0.99711597 1.0094745 0.9923137 1.0037941 0.98906267 1.0015628 1.0153611
0.9982313 1.0021657 0.99248993 1.0000246 1.0130954 1.0210924 0.9985893 1.0062852
0.98746216 1.0069554 0.9946088 0.9903022 0.9981224 1.0110036 1.0020139 0.9979048
1.0110805 0.9911433 0.98911864 0.99019307 0.99950683 0.99890405 0.9814195 1.009848
0.991232 1.0038205 1.0150276 1.0123197 0.9960928 1.0014496 1.0047175 1.0088336
1.0004153 0.9967727 1.0064378 0.9806038 0.98972094 0.98550993 1.000461 1.0079118
0.9832084 0.99709475 0.99611974 0.99116635 1.0021939 1.0004184 1.00735 1.0071088
00000000: 1665 7e3f 4565 7d3f 30c4 803f fad2 7e3f
00000010: 5de2 773f 23ec 7d3f 2b23 803f 01ec 7f3f
00000020: 95b2 7f3f fe42 7f3f 7636 813f 4508 7e3f
00000030: 537c 803f 3633 7d3f 3633 803f 5af7 813f
00000040: 168c 7f3f f746 803f d213 7e3f ce00 803f
00000050: 1cad 813f 28b3 823f 8ca3 7f3f f4cd 803f
00000060: 52ca 7c3f eae3 803f af9e 7e3f 7284 7d3f
00000070: f384 7f3f 9168 813f fe41 803f b076 7f3f
00000080: 166b 813f 91bb 7d3f e136 7d3f 4b7d 7d3f
00000090: aedf 7f3f 2db8 7f3f 4f3e 7b3f b342 813f
000000a0: 61c1 7d3f 317d 803f 6dec 813f b193 813f
000000b0: f0ff 7e3f 802f 803f 959a 803f 7621 813f
000000c0: 9c0d 803f 7f2c 7f3f f4d2 803f da08 7b3f
000000d0: 5a5e 7d3f 614a 7c3f 1b0f 803f 4103 813f
000000e0: 8cb3 7b3f 9a41 7f3f b401 7f3f 14bd 7d3f
000000f0: e447 803f b60d 803f d8f0 803f f1e8 803f

weight_function_network.adaptive_layer.2.bias f4 [64]
-0.010477816 -0.0069314777 -0.0007929657 -0.0019930373 -0.009575796 0.0026682208 0.01494334 -0.018355276
-0.012095541 -0.019332428 -0.029378202 -0.022499451 -0.010357565 -0.0150119895 0.0023063966 0.015753599
-0.008530437 -0.016386589 -0.028096145 0.0006280861 0.0057281177 0.018505685 -0.0011771012 -0.007667909
-0.012688259 0.009081359 -0.013217981 0.0030645982 -0.009644391 0.021613467 -0.026521662 -0.011463015
-0.023889266 -0.018004563 -0.017453898 -0.010246401 0.00732886 0.0022005844 -0.02242497 -0.0026407277
-0.00028004986 -0.009936885 -0.015414183 -0.020911599 -0.013715441 -0.011192735 0.00843093 0.0028961634
-0.012297779 0.010287133 0.0065458473 -0.026026107 -0.016088799 -0.014655864 -0.013253696 -0.0052623255
-0.014271905 -0.022614615 -0.015289006 -0.011631549 0.00395648 -0.0045193336 -0.01060748 -0.018715266
00000000: 25ab 2bbc 7321 e3bb 07df 4fba 9e9d 02bb
00000010: cde3 1cbc 51dd 2e3b e9d4 743c ce5d 96bc
00000020: 602c 46bc 0a5f 9ebc 8eaa f0bc c550 b8bc
00000030: c7b2 29bc d9f4 75bc ea26 173b b10d 813c
00000040: 3fc3 0bbc 2b3d 86bc e329 e6bc 25a6 243a
00000050: efb2 bb3b 3c99 973c f648 9aba 1543 fbbb
00000060: 6ae2 4fbc fbc9 143c 3b90 58bc 6dd7 483b
00000070: 8203 1ebc ba0e b13c f543 d9bc 5fcf 3bbc
00000080: 6cb3 c3bc 4e7e 93bc 7afb 8ebc 85e0 27bc
00000090: ef26 f03b ae37 103b 92b4 b7bc 0f10 2dbb
000000a0: a8d3 92b9 51ce 22bc c58b 7cbc cd4e abbc
000000b0: bbb6 60bc bc61 37bc e221 0a3c 8fcd 3d3b
000000c0: a07c 49bc 5d8b 283c 8c7e d63b b434 d5bc
000000d0: a8cc 83bc 261f 70bc 0826 59bc 966f acbb
000000e0: b5d4 69bc 4942 b9bc bd7e 7abc 4192 3ebc
000000f0: 5ca5 813b eb16 94bb ffca 2dbc c250 99bc

weight_function_network.adaptive_layer.2.running_mean f4 [64]
-0.3094826 0.44534668 0.08405256 -0.56190944 -0.03349745 0.35565668 -0.64769804 -0.16093494
-0.33104435 0.30754182 0.572709 0.04633732 0.18471712 -0.29752293 -0.4967181 -0.3600476
0.091440685 0.5743796 0.65674716 0.045362107 -0.12032673 -0.7267873 0.25727776 0.668027
-0.24989447 -0.44293624 -0.1718574 0.16629918 -0.70752287 -0.2305229 -0.0596442 -0.19890589
-0.3279024 -0.031279456 -0.09581042 -0.68921703 -0.47484002 0.050441034 0.024328813 -0.1213198
-0.729892 0.16846141 0.48463747 0.24614485 -0.15034987 0.38591173 0.34331322 0.06955261
0.014348936 -0.3699029 -0.5419308 0.027280621 -0.59562373 0.11250807 0.27414435 -0.058792662
0.5054548 -0.018527713 -0.054542724 -0.23361622 0.51556313 -0.25503224 0.27061537 0.73574317
00000000: 8174 9ebe 7b04 e43e c023 ac3d 4cd9 0fbf
00000010: 9f34 09bd a218 b63e 8acf 25bf 21cc 24be
00000020: a57e a9be 1f76 9d3e 0f9d 123f 34cc 3d3d
00000030: 7c26 3d3e ed54 98be d651 febe 2958 b8be
00000040: 4145 bb3d 8b0a 133f 9520 283f 9ecd 393d
00000050: dc6d f6bd bc0e 3abf e9b9 833e d103 2b3f
00000060: 56e4 7fbe 8ac8 e2be 63fb 2fbe 554a 2a3e
00000070: 3820 35bf 320e 6cbe 7a4d 74bd fcad 4bbe
00000080: d3e2 a7be e31e 00bd 4138 c4bd 8770 30bf
00000090: 3b1e f3be 429b 4e3d 384d c73c 8476 f8bd
000000a0: 34da 3abf 2681 2c3e 6722 f83e 650d 7c3e
000000b0: 51f5 19be 3996 c53e c0c6 af3e 9971 8e3d
000000c0: cd17 6b3c ea63 bdbe fabb 0abf 9c7b df3c
000000d0: cc7a 18bf a26a e63d a65c 8c3e 93d0 70bd
000000e0: 7c65 013f 6ec7 97bc 3168 5fbd 1739 6fbe
000000f0: f2fb 033f 9693 82be 198e 8a3e aa59 3c3f

weight_function_network.adaptive_layer.2.running_var f4 [64]
0.2020357 0.17174001 0.20671791 0.3703774 0.18058412 0.17735575 0.4639987 0.12904783
0.11161066 0.28160834 0.32595807 0.21488555 0.14740883 0.2636845 0.31015813 0.32105651
0.1447517 0.38014022 0.41737643 0.20502238 0.20706016 0.50306094 0.15565401 0.35351285
0.14701119 0.5207855 0.13022721 0.14484325 0.42242616 0.38466185 0.22121912 0.1868531
0.13023813 0.1857036 0.15428151 0.2561313 0.48742712 0.12770797 0.13125664 0.24962355
0.37144342 0.16439809 0.47270346 0.26182547 0.10226812 0.28945887 0.16359405 0.18333802
0.27037787 0.20275025 0.27562138 0.16668548 0.24904238 0.17052764 0.13431497 0.14048614
0.33516032 0.1850316 0.16614972 0.15554851 0.33552682 0.15629566 0.28502333 0.46889353
00000000: 72e2 4e3e 9ddc 2f3e dcad 533e 1ba2 bd3e
00000010: 0beb 383e bf9c 353e 3d91 ed3e 1d25 043e
00000020: 2194 e43d f82e 903e fae3 a63e f50a 5c3e
00000030: 57f2 163e a801 873e 0ccd 9e3e 8561 a43e
00000040: ca39 143e bda1 c23e 5db2 d53e 63f1 513e
00000050: 9407 543e 9ac8 003f c463 1f3e a3ff b43e
00000060: 1a8a 163e 3352 053f 485a 053e ca51 143e
00000070: 3e48 d83e 66f2 c43e 4487 623e 6b56 3f3e
00000080: 255d 053e 1629 3e3e f9fb 1d3e a423 833e
00000090: 0c90 f93e e1c5 023e 2468 063e 519d 7f3e
000000a0: d52d be3e f957 283e 3006 f23e fd0d 863e
000000b0: f371 d13d f433 943e 3385 273e f6bc 3b3e
000000c0: f86e 8a3e c39d 4f3e 3f1e 8d3e 99af 2a3e
000000d0: f704 7f3e cc9e 2e3e dd89 093e 99db 0f3e
000000e0: 229a ab3e ec78 3d3e 2723 2a3e 1c48 1f3e
000000f0: 2cca ab3e f80b 203e 94ee 913e d012 f03e
