logs/测试损失函数中mse的权重带来的影响/loss.cross_entropu_loss_with_mse.alpha=0.1/test_model_20250426_153012.pth (torch, 840675 bytes, 78 tensors)

weight_function_network.initial_cnn.0.weight f4 [8, 1, 3, 3]
00000000: 666d 323e b179 5abd 3dee 79be c2c7 73be
00000010: 63c0 89bd dc44 733d a195 04be c620 4a3e
00000020: b5a1 623e b55e 3e3e e784 f1bc ff29 3a3e
00000030: 2342 a0be 9afd 143e 130f 8c3e 8afe 483e
00000040: 30d0 b0be 0804 f73d 8d66 c9bd 428b e63d
00000050: a748 1cbd d016 043e 7ae3 9dbe d45b 55be
00000060: 4160 8a3e adb7 7ebe 03aa 313e a278 aabe
00000070: 34b5 403e 1a82 603e 8314 0abe fabd 9c3e
00000080: e52e 38bd 310a 10be 5f40 8bbe b1d8 993e
00000090: ef62 e73b d502 ac3d 1baf 923e 5b4f 2b3e
000000a0: d8ac 92be c187 c8bd 4975 253e 537b 0a3e
000000b0: fa25 87be 6355 0fbe 2869 90be d007 843d
000000c0: 7ad1 76be ee10 65bd 5082 a7bd 4261 3dbe
000000d0: 582e d13d 593f 503e dd90 873d ae57 603d
000000e0: bbab 69be dda4 8ebd 065b 9a3e f9b0 9f3e
000000f0: 02ba 8e3e 69ac a5be d113 013e 8d26 bd3d
00000100: 3f4b 7c3c be32 733e 7cee 2bbe 73dc 2f3e
00000110: e119 82bc c2cd 9b3e ef3e d8bd 0de5 283e
0.17424545 -0.05333871 -0.24407287 -0.2380667 -0.06726148 0.05939184 -0.12947704 0.19739065
0.22131999 0.18590815 -0.029482318 0.18180083 -0.31300458 0.14549866 0.2735525 0.19628349
-0.34533834 0.12061316 -0.09834013 0.1125703 -0.038155224 0.12899327 -0.30837613 -0.20835811
0.2702656 -0.24874754 0.1735001 -0.3329516 0.18819124 0.2192463 -0.13484387 0.3061369
-0.044966597 -0.14066388 -0.2719755 0.30048135 0.0070613544 0.08398978 0.2864922 0.1672949
-0.28647494 -0.09791518 0.16158022 0.13523607 -0.2639616 -0.13997416 -0.28205228 0.064468026
-0.24103346 -0.05592435 -0.08179152 -0.18494132 0.102139175 0.20336665 0.06619427 0.054771118
-0.22819416 -0.06965039 0.3014757 0.31189707 0.27876288 -0.323581 0.12605216 0.092358686
0.015398799 0.23749825 -0.16790193 0.17173938 -0.01588148 0.30430418 -0.10558879 0.16493626

weight_function_network.initial_cnn.0.bias f4 [8]
00000000: 6034 77be 0d7c 853e 75bd 603e a1fe 2cbd
00000010: d0ae 5abe debc 213e 931c 923e 2714 5abd
-0.24141073 0.26071206 0.21947272 -0.04223502 -0.21355748 0.15794703 0.28537425 -0.053241875

weight_function_network.initial_cnn.1.weight f4 [8]
00000000: 797b 7c3f 3277 7e3f c118 7e3f 997c 813f
00000010: 96ba 7f3f 9c3c 813f 0e4f 803f fbfb 803f
0.98625904 0.9940063 0.9925652 1.0116149 0.9989408 1.0096622 1.0024126 1.0076898

weight_function_network.initial_cnn.1.bias f4 [8]
00000000: a788 d6bb b744 31bc f530 b8bb d769 73bc
00000010: 2d5d 7ebc a30e 7dbb 3cc9 993c 287b ec3b
-0.006547052 -0.010819606 -0.0056210705 -0.014856777 -0.0155251445 -0.003861346 0.018772714 0.00721683

weight_function_network.initial_cnn.1.running_mean f4 [8]
00000000: 9de4 8dbe 4feb e33e 1e15 fc3d 8bed 4bbb
00000010: d8f4 02be 98f4 ebbd 90d2 033f b623 833e
-0.2771348 0.44515464 0.12308715 -0.0031116928 -0.12788713 -0.11521262 0.5149317 0.25613183

weight_function_network.initial_cnn.1.running_var f4 [8]
00000000: e656 913b 4509 ff3c fc6d 4c3c 7bea 7f3c
00000010: c952 183c 69db 8f3d e075 373d e929 993d
0.004435408 0.03113235 0.012477394 0.015619869 0.009297081 0.07024271 0.04479015 0.07478697

weight_function_network.initial_cnn.4.weight f4 [16, 8, 3, 3]
00000000: 877b 9b3d 5d90 363c 1bed 73bd f4a0 913a
00000010: 3127 e93d e52f 44bd 699b 46bc 1ab5 92bb
00000020: 3198 893d 557e 4b3d 5e86 a23d d0b8 2e3c
00000030: 0e3b da3d dee3 8c3d c49f cabd 2b82 783d
00000040: 6397 81bd f0f9 bd3d 9fde 4a3c 3182 c43d
00000050: 300e 59bd d714 c33b 4e3d ab3d 5208 bc3d
00000060: c9b4 663d 28bc de3c 838e df3b ecf9 6bbd
00000070: eee9 113d 3157 da3d 9423 973c 944d cfbc
00000080: fd26 9ebd cd78 b6bd 82fe 18bd 7bdb 56bd
00000090: 66d1 2abd 6b14 743d c177 b6bd e9e0 c93d
000000a0: 96c0 a93d 3fe8 063d a8b3 723d 91ed 543d
000000b0: f31b b43a d120 f0bd ede8 e5bd ca6f a13d
000000c0: 6472 583d 75b6 0f3c a687 25bc 4463 443d
000000d0: 00fe 9c3d 4a14 70bd 5cad 06bd 9806 563d
000000e0: d819 6f3c d19b aa3d 6195 6d3a 4426 f03d
000000f0: 602b edbd cf08 be3d 86a0 65bd aa43 21bd
00000100: 7fd0 debc b998 863d a8c2 a1bc fe4a de3c
00000110: 3aa8 b3bd 2174 99bd 4da0 c33d d663 593d
00000120: 984b c9bd 9f04 7c3d fa3e 223d d098 d93b
00000130: 3a26 d7bd a64c 9e3d fe4f ad3d 32ec 523d
00000140: 6744 933d e1d9 de3d f011 733d aa3f 5e3c
00000150: b6e8 393c 73ab 72bd 7d66 c8bd bf11 f73c
00000160: abca 83bd d2aa 793d bde9 cb3d 6ad9 e83d
00000170: f71d 523d 46f7 213d 4bd7 233b d6b6 953d
00000180: dbad e3bd 935d 733d ee83 68bd abb1 13bd
00000190: ed6e b3bd fa5b a7bd 1682 1f3b 7fbe 613d
000001a0: 82aa 5abd 054c ca3d d5c2 c2bd fc59 983d
000001b0: ccb3 9fbd 47ab 413d 54ad 41bb 4949 b73d
000001c0: 336f b83d 5036 1d3d c5dd c6bd 7bf8 e33d
000001d0: 515d e4bd 09db e03d 1171 5ebd ef1d 66bc
000001e0: 4649 fc3d f483 69bd a8e9 76bc 010d d63d
000001f0: 355b 62bc 2aa2 973d 7fa3 e9bd 77f0 77bd
00000200: ae7e aa3d 853a f3bd 67c2 a53d 65e0 a73d
00000210: 69be c53c 94e0 273c 9968 34bc ab04 273d
00000220: 5603 ab3d b159 30bd c64f e93d 2149 a7bd
00000230: 6d75 cb3d 49df ccbc 29e5 67bd 3c02 8cbd
00000240: 3c87 453b 2599 6dbc 8fed 413d 1d30 243d
00000250: a784 8c3d dd0e 313d a5b5 6b3d b8ed 733d
00000260: a2bb 153d d6fb a9bc 4441 6abd 2afd 07bd
00000270: 52a2 ed3d adec 80bc 2605 f5ba 2efa 4ebd
00000280: 3caf 883d 4a22 a73d 1eb4 58bd 22f0 d73d
00000290: 39ae 51bc dde2 e8bd 830b dd3d da2b 7f3c
000002a0: 1247 7bbd 9c0a b9bd e4ed a2bd ae8b eebc
000002b0: 218f 9dbd 5743 bebd 3103 0bbd 3e11 80bc
000002c0: b743 85bd caf6 a5bc 50fd f43d 5e21 703d
000002d0: c8ce 66bc 86fd 973c 9fe0 94bc 9b21 c13c
000002e0: fd25 b83d 45f9 afbd 9233 053d 2399 acbd
000002f0: 5a57 9ebb 6a5e 2abc 3e94 40bd 7e91 e53d
00000300: 072b 35bc 55c9 a53d 8dab 86ba d16a 04bd
00000310: 28d5 313d 899f dbbd 5698 99bc bbf6 98bd
00000320: 8b3c bcbd b280 243d 64c7 49bd af9e 063d
00000330: aa1d 853d 7678 5fbd 0e4c 80bd dd33 b53d
00000340: 1172 113d ac72 a83d ac74 87bd 8566 9c3d
00000350: 3cbe bdbd 039d 803c 98b8 e73d 0d45 eabb
00000360: 66c4 77bd eb86 72bd 480c 2d3c 8460 d23d
00000370: 8a03 073d 91cb a9bd 4d81 8d3d b14a e4bc
00000380: 81a0 8e3d 1377 d5bc 99a6 f83d 7f13 80bd
00000390: 9a6f 653d 845a 103c b722 d93d ca25 a3bd
000003a0: 3cfe 8fbd 4023 83bc e488 ddbd 3bfa 4c3d
000003b0: 911f 99bd 2bca 9abc af95 a63d ce05 b63d
000003c0: 8f10 a03c f1c3 943d 525a f9bb 8015 6cbc
000003d0: 8c97 fbbc 8fc1 54bd 6204 19bd 8f8b de3d
000003e0: d858 80bd 2d8e 803d 41b3 b43d 0bdc 0fbd
000003f0: 458e 923d b39e c1bd 6ad4 9c3d daf9 e93d
0.0759192 0.011142817 -0.059552293 0.001111059 0.11384428 -0.04789724 -0.012122014 -0.0044771554
0.06718481 0.049681026 0.07935785 0.01066418 0.10655795 0.068794 -0.09893754 0.060671013
-0.06327703 0.092761874 0.012382179 0.095951445 -0.052992046 0.005953412 0.08361302 0.091812745
0.056324754 0.02718933 0.0068224086 -0.05761139 0.035623483 0.10661162 0.018449582 -0.025305547
-0.0772228 -0.0890976 -0.037352093 -0.052455407 -0.041703604 0.059589785 -0.0890956 0.09857351
0.08288686 0.03293633 0.059253365 0.051984373 0.001374124 -0.11725009 -0.11226068 0.0788265
0.052843466 0.0087715285 -0.010103142 0.04794623 0.07665634 -0.0586131 -0.032880172 0.052252382
0.014593564 0.08330501 0.0009063092 0.117260486 -0.11580539 0.09279024 -0.05606129 -0.03937117
-0.027199028 0.06572098 -0.01974614 0.027135368 -0.08772321 -0.07492853 0.09552059 0.053073727
-0.098288715 0.061527845 0.03961084 0.006640531 -0.10505338 0.07729463 0.08462523 0.051494785
0.07190781 0.10881401 0.05934328 0.013564983 0.0113469865 -0.059245538 -0.09785173 0.03015983
-0.0643514 0.060953923 0.099566914 0.113695934 0.051298108 0.03954246 0.002500015 0.07310264
-0.11117145 0.05941541 -0.056766443 -0.03605811 -0.08761392 -0.0817184 0.0024339012 0.05511331
-0.053385265 0.09877781 -0.095098175 0.07439038 -0.077979654 0.047282483 -0.0029552775 0.08949525
0.090055846 0.038381875 -0.09710268 0.11131378 -0.11150611 0.10979278 -0.054307047 -0.014045223
0.12318663 -0.057010606 -0.015070356 0.10451699 -0.013815691 0.07403977 -0.114081375 -0.06053206
0.083249435 -0.11876396 0.0809372 0.08197097 0.024138646 0.010246415 -0.011011266 0.040775936
0.08350246 -0.043054286 0.11392169 -0.08168245 0.099345066 -0.025008814 -0.05661503 -0.06836364
0.003014042 -0.0145018445 0.047345694 0.040084947 0.06861239 0.043227065 0.057546277 0.05955288
0.036555894 -0.020749968 -0.05719115 -0.03320042 0.11603226 -0.015737856 -0.0018693551 -0.05053156
0.06674048 0.08160837 -0.052906148 0.105438486 -0.012797886 -0.11371396 0.10793211 0.01557442
-0.061347075 -0.09035227 -0.0795553 -0.029119339 -0.07693315 -0.09290188 -0.03393859 -0.015633222
-0.06507056 -0.02025928 0.11962378 0.05862557 -0.014087386 0.018553507 -0.018173514 0.023575595
0.08991621 -0.08592466 0.032519884 -0.08427646 -0.0048321905 -0.010398487 -0.047016375 0.11209391
-0.011057622 0.08095042 -0.0010274515 -0.03232843 0.043416172 -0.10723788 -0.018749397 -0.07468935
-0.09191235 0.040161796 -0.04926242 0.032866176 0.064997986 -0.05455824 -0.06264506 0.08847783
0.035509173 0.08224997 -0.0661405 0.076367415 -0.092648 0.015699869 0.11314505 -0.007149345
-0.060490035 -0.0592107 0.01056201 0.10272315 0.03296236 -0.0829078 0.06909428 -0.027867647
0.069642074 -0.026057756 0.12141151 -0.062537186 0.056014635 0.008810643 0.106023245 -0.07966192
-0.07030913 -0.01600802 -0.108171254 0.050043326 -0.07476724 -0.01889523 0.08134019 0.08887826
0.019539146 0.07263935 -0.007609644 -0.014409423 -0.030711912 -0.051942404 -0.037357695 0.108664624
-0.062669456 0.06277118 0.088232525 -0.03512196 0.07156042 -0.094540976 0.07657702 0.114246085

weight_function_network.initial_cnn.4.bias f4 [16]
00000000: c49e b8bd f0a6 e83d a0c8 7a3d eb9b 413a
00000010: 9268 d13d 6ac2 523d 62d6 e9bb 53ba 21bd
00000020: 1e39 0f3d 3af8 a0bd 9d3c 9bbd 609a 1cbd
00000030: d44c f33d 5044 d2bd d06a c4bc 0264 c33d
-0.09014657 0.11359966 0.061226487 0.00073855993 0.10225023 0.05145494 -0.007136152 -0.039484333
0.03496658 -0.078598455 -0.075799204 -0.03823316 0.11879888 -0.10266936 -0.023976713 0.09540559

weight_function_network.initial_cnn.5.weight f4 [16]
00000000: 8ed8 803f 1679 813f 314f 7f3f 2966 803f
00000010: bf6f 7e3f eb52 803f 7327 7c3f 1f23 7c3f
00000020: c558 803f b6a5 813f 5566 7e3f 2883 803f
00000030: 1402 7f3f 3c9f 803f f317 803f 136b 7d3f
1.0066087 1.0115077 0.9973021 1.0031177 0.9938926 1.0025305 0.98497695 0.9849109
1.002709 1.0128696 0.99374896 1.0040026 0.99612546 1.0048594 1.0007309 0.9899151

weight_function_network.initial_cnn.5.bias f4 [16]
00000000: d563 103c c7aa a4bc 41c1 8ebc 438d b8bb
00000010: 155e ca3a 20e8 45bb 1362 60bc a258 3abc
00000020: 6c9f 9a3a 33a0 ccbb 4d1d 34bc 47c6 d2bc
00000030: 3785 d23b 9994 7bbb 03ca 4cbc a329 d2ba
0.008812864 -0.020100964 -0.017426135 -0.005632074 0.0015439416 -0.0030198172 -0.013695258 -0.011373671
0.0011796779 -0.006244683 -0.010993314 -0.025729312 0.006424572 -0.0038388132 -0.012499335 -0.0016034137

weight_function_network.initial_cnn.5.running_mean f4 [16]
00000000: d192 da3e 3c98 e63e 9688 0b3e d2c6 8c3e
00000010: 57c5 e13e cb84 793d 2aad e9bd 69e6 b0be
00000020: 1321 903e a68c ca3d 9557 3dbf 0ddc ca3e
00000030: fe3a a13e 0395 39be 334d cf3c 193f 693e
0.42690137 0.4503802 0.13626322 0.27495438 0.4409587 0.060917657 -0.114099815 -0.3455079
0.28150234 0.09890108 -0.73961765 0.3962101 0.3149032 -0.1812325 0.025305366 0.22777976

weight_function_network.initial_cnn.5.running_var f4 [16]
00000000: 00da b83d 177b b63d 5539 f63d ce77 9c3d
00000010: 5b2d 933e 86e6 4c3e 740d e53e f352 a23e
00000020: cdcd 203e 97ee 073e e630 bf3e 7224 eb3d
00000030: 9e2c 6d3e 82bf b03d c6af 583e 5d4f 023e
0.09025955 0.08910196 0.12022654 0.076400384 0.2874554 0.20009813 0.44736826 0.3170391
0.15703507 0.13274609 0.37341994 0.11481561 0.23161551 0.08630277 0.21160802 0.12725587

weight_function_network.initial_cnn.8.weight f4 [32, 16, 3, 3]
00000000: 586d febc b71e 173c 4578 abbd 834b 5fbd
00000010: 83a2 973c 385c b2bd 7ed1 0e3d ad59 6f3d
00000020: 64c6 7c3d 52ff a63c ab97 7ebc 69d0 473d
00000030: b827 25bd ba23 82bb adad 6b3d 3c4d 81bd
00000040: 71ca 94bd f8a9 593c 7e46 8bbc e822 36bc
00000050: 5037 43bd ce68 923d 67c5 ae3c 3104 48bd
00000060: 4da7 803b daab f9bc 051a e23c 9508 ad3b
00000070: b3c9 f5bb ebe7 553d a116 36bd 3d46 753d
00000080: 1195 0abb a95e 823d 3565 55bd 6fcf 28ba
00000090: 7084 89bd 71b0 9b3d 37f1 18bd 45d2 60bd
000000a0: a672 adbd c863 51bb 33ff 86bd a255 5b3b
000000b0: 1031 8bbd aac8 923c f717 993d d0ab 84bd
000000c0: bfdb a43b 93ee 49bd a9bf 873d 79ba 2f3d
000000d0: e86c 84bd 351a 793b 88d6 f0bb 42bb 69bd
000000e0: 72da 9bbd 33ce 02bd 5616 8cbd 8420 e33b
000000f0: cd07 c43c cef6 d83c 9d93 4f3b d222 43bc
00000100: 23ee 653d 6a07 893d 5a81 61bd 0ccb 683c
00000110: 47d2 703c ac35 49bd af57 8c3d a34c 8dbd
00000120: b127 6fbd 7fa8 3f3c a645 b63c e6b5 9fbd
00000130: 5a90 92bd 7094 883d f07a 61bd d071 3e3d
00000140: b75d d43c cb9c bcbc 5494 1ebd 2554 13bd
00000150: e08d 703d 05e1 0abd 5cc0 1c3d 34a4 983d
00000160: b122 87bd cf59 4abd 0c66 323d 8319 743d
00000170: 7a54 403d d25f 10bd 7575 adbd fb52 c0bd
00000180: bcd3 4abd d8a6 06bd 2fc6 83bd acc1 cfbc
00000190: 0074 6cbc e6bd cebc 86e2 37bd 35ef 91bc
000001a0: 3e53 8e3d 2543 f0bc e721 64bd 504e 32bd
000001b0: ab48 8abc ff3e 973d f6fe 06bd 73ac cd3c
000001c0: 9f41 e8bc b1ce 753d 96cb cfbc abad 263d
000001d0: 68db 9bbd 1980 a53c f4fc 973c aaab 89bd
000001e0: af49 27bc 0fcc ae3d 7c45 163d 3af4 f63b
000001f0: b877 1e3c e91e 983d 4135 c4bc 7d93 7cbd
00000200: 4991 4d3d 6c37 c1bd b7e4 723d 2710 1a3d
00000210: c83e e2bb 4de9 993d 5303 2fbd 69c7 003c
00000220: 6d97 933d cc43 c5bc 422e 343d 92a7 72bd
00000230: 8c98 9cbd 12ed fa3c 2774 793c fb98 803d
00000240: affa f33c 5874 ddbc 29b1 47bd 199e 053d
00000250: d3ec 7dbd 7f3c be3c 7871 54bd 9ac1 04bd
00000260: c14b bbbc c24c 293c 52a9 a03b 1e18 603c
00000270: 137e 27bd 2bf8 8e3c 1dd8 393d 870b 5f3d
00000280: 8c21 9f3d 45a4 653d 1bd2 e0bc 7406 803d
00000290: 2031 8c3d adde d3bc 116c ee3b 0801 833d
000002a0: 38b7 31bd ab4c f23b 562a 633d dbbc 9a3c
000002b0: fa95 9d3c 7d25 b6bc e7b5 adbc 6ce8 433a
000002c0: 54e2 8fbd 25c6 903d 87fd 46bd 66d1 073d
000002d0: 3ce9 a0bd 9956 9a3c 815b 8f3d 9e08 163d
000002e0: ad0f b7bd 60cf 95bd 26fc 49bd 1f64 6dbd
000002f0: 0e3d 0d3d e6e4 cfbc 4c27 683c 9671 123c
00000300: c8dd 6f3c c433 acbb 205c 693d 106b 5cbc
00000310: b513 1c3d 72f9 67bc d74f 89bb abc2 4f3d
00000320: 095a 94bd 717e 2c3c bbc6 4b3d ce60 39bd
00000330: 3a92 debc 5703 37bc 4368 4a3d 8815 38bd
00000340: 6a52 c83c c829 0abb b04f 353c 7478 a63d
00000350: 2151 5abd 63b4 bb3d 0543 19bd 8f17 80bd
00000360: e1a1 933d 02d3 163c 1db2 863d 96a5 aebc
00000370: 0224 013d 9546 b0bd 859d 7d3d 3063 0d3d
00000380: c5cc 6dbd 36c9 993d ecb2 a13b 2bd1 b53d
00000390: 2e1c 8dbd 95ae 4ebd 7740 d63c 8054 fd3c
000003a0: 91c1 6e3d 9740 9c3d b3f0 1cbb c864 883d
000003b0: 63b6 83bd e516 ad3d 0937 91bd d836 4c3d
000003c0: d11a 55bd e9b4 6ebd 2a14 3c3d 7a42 1b3d
000003d0: f4b6 4b3d 7c1e 69bb 5fcf cc3c c138 8cbd
000003e0: 10d8 be3d 9e27 6ebd 03b6 05bc 677d 9d3d
000003f0: 07c1 a73d 8622 25bd b891 6abd 7402 5cbc
-0.031057999 0.009223632 -0.08372549 -0.054515373 0.018510109 -0.087089956 0.034867756 0.05843513
0.061712638 0.020385418 -0.01553909 0.04878274 -0.040321082 -0.003971544 0.057538677 -0.063135594
-0.07265175 0.013285153 -0.017001387 -0.011116721 -0.047660172 0.07148896 0.021334363 -0.048832122
0.003926194 -0.030477453 0.027600298 0.005280564 -0.007500851 0.052223127 -0.044455174 0.059881438
-0.002114598 0.06365711 -0.05209847 -0.00064396014 -0.067147136 0.07602013 -0.037339415 -0.05488803
-0.08469133 -0.0031950343 -0.06591644 0.003346779 -0.06796467 0.01791795 0.07475274 -0.06478083
0.0050310786 -0.049299788 0.06628353 0.042902444 -0.06466085 0.0038010005 -0.007349793 -0.05706335
-0.076100245 -0.03193493 -0.06840198 0.0069313664 0.023929501 0.026484873 0.0031673678 -0.011910157
0.056135308 0.06690867 -0.055055 0.014208566 0.0146985715 -0.04912345 0.06852662 -0.06899383
-0.058387462 0.011697887 0.022250008 -0.07798366 -0.07156439 0.06668937 -0.055048883 0.04649526
0.025923593 -0.023023983 -0.038715675 -0.03596892 0.058729053 -0.033906 0.038269386 0.07453194
-0.06598414 -0.049402054 0.04355435 0.059594642 0.046955563 -0.03524763 -0.08469669 -0.09390827
-0.049518332 -0.03287396 -0.06434285 -0.025360905 -0.014431953 -0.025237035 -0.044893764 -0.017814258
0.06949471 -0.029328892 -0.055696394 -0.043531716 -0.016880354 0.073850624 -0.032957993 0.025106644
-0.028351603 0.06001157 -0.025365632 0.040692966 -0.07610208 0.020202683 0.018553235 -0.067221954
-0.010210439 0.08535015 0.03668736 0.0075364383 0.009672098 0.07427771 -0.023951175 -0.061664093
0.050187383 -0.09434399 0.05930015 0.03761306 -0.0069044568 0.07515202 -0.04272778 0.007860043
0.072066166 -0.02408018 0.043989427 -0.05924184 -0.076462835 0.030630622 0.015225447 0.06279179
0.029782621 -0.027033016 -0.048752937 0.032621477 -0.06199343 0.023222206 -0.051866025 -0.032411195
-0.02286327 0.010333242 0.004902997 0.013677625 -0.040891718 0.01745232 0.045372117 0.054454353
0.077700704 0.056064863 -0.027443936 0.06251231 0.06845307 -0.025863016 0.007276066 0.06396681
-0.04338762 0.0073943934 0.055460297 0.018888881 0.019236553 -0.022234673 -0.021204902 0.0007473293
-0.070255905 0.07069043 -0.048581626 0.033158682 -0.07856986 0.018840121 0.06999875 0.03662931
-0.08938537 -0.07314944 -0.049312733 -0.05795681 0.034482054 -0.025377702 0.014169525 0.008938214
0.014640279 -0.0052551944 0.056972623 -0.01345326 0.03810473 -0.0141585935 -0.004190426 0.05072276
-0.07243735 0.010528193 0.04975007 -0.045258336 -0.027169336 -0.01117023 0.049415838 -0.04494241
0.02445336 -0.0021082032 0.011066362 0.08128443 -0.053300027 0.091652654 -0.03741743 -0.062544934
0.0720861 0.009205582 0.06576941 -0.021319192 0.03152848 -0.086072125 0.0619178 0.03451842
-0.05805661 0.07509081 0.004934659 0.08877786 -0.068901405 -0.050459463 0.026153786 0.030924082
0.058290068 0.07629507 -0.002394718 0.066598475 -0.06431272 0.084516324 -0.07090575 0.04985699
-0.052027527 -0.058277998 0.045917667 0.037905194 0.049735025 -0.0035571149 0.025001226 -0.068467624
0.093185544 -0.05814325 -0.008161071 0.07689934 0.08191114 -0.040316127 -0.057267874 -0.013428319

weight_function_network.initial_cnn.8.bias f4 [32]
00000000: d4d0 cf3c 905e 843d 402d 543d 5154 45bd
00000010: b6d6 b03c 153f 64bc e580 55bd aef7 8dbd
00000020: f9b4 a83c e234 acbd 9a79 a33d 6fab 243d
00000030: e0f6 87bd f84d 0c3d fd15 813d 3903 993c
00000040: efcf 53bd 41be 9139 f0a6 84bd dad1 17bd
00000050: a464 043d 2b5f 71bd 678e 97bd 4450 073c
00000060: 7e3a 0fbc 9a34 573c 8746 ac3d 36d7 993d
00000070: 5999 12bc 74cf a8bd d11f 31bd 101d ba3b
0.025368132 0.06463349 0.051800966 -0.048176114 0.021586757 -0.013931056 -0.052124877 -0.06932007
0.020594107 -0.08408524 0.07982178 0.040202554 -0.066388845 0.034254044 0.06303022 0.018678294
-0.051711973 0.00027798305 -0.06477153 -0.037065364 0.03232254 -0.05892865 -0.07400208 0.008258883
-0.008741973 0.0131351 0.084118895 0.07511751 -0.008947694 -0.082426935 -0.043243233 0.005679734

weight_function_network.initial_cnn.9.weight f4 [32]
00000000: 7916 803f 2b68 813f d9ba 813f 540a 803f
00000010: 9f11 823f 6d74 7c3f 7ce6 7f3f 098e 803f
00000020: eebb 7e3f f624 803f 8711 7e3f 872c 803f
00000030: f6a5 7f3f eeff 7c3f cebb 7e3f e22b 7e3f
00000040: 0e22 7f3f eaa5 803f f6fe 803f 72e2 7f3f
00000050: e8eb 7e3f 9cf3 813f bc2b 7f3f 1749 803f
00000060: 791f 7f3f 8554 7f3f 0687 7d3f 7e26 7f3f
00000070: 35ab 803f 588c 803f ebfc 7e3f 914f 803f
1.0006858 1.0109915 1.0135146 1.0003152 1.0161628 0.9861515 0.99961066 1.0043346
0.9950551 1.001128 0.99245495 1.0013589 0.9986261 0.9882802 0.9950532 0.9928571
0.9966134 1.0050633 1.0077808 0.99954903 0.99578714 1.0152469 0.9967611 1.0022305
0.996574 0.9973834 0.99034154 0.9966811 1.0052248 1.004283 0.9960467 1.0024282

weight_function_network.initial_cnn.9.bias f4 [32]
00000000: 1c91 133c ff77 b2bb 6a8a 1f3b b674 38bc
00000010: 3f5f f93b 6a3b 9ebc c349 493a f953 5fbc
00000020: 7109 6bbc 1af6 88bb 17fd 67bb c382 9c3b
00000030: f519 98bb b6c0 973a 6f4a 52bb 2f15 2cbc
00000040: b296 3e3b 89ca a5bc 32fb 843a b81a e73a
00000050: bbfa b2bc ebe7 75bc 16df 32bc 8b6c aabc
00000060: 9f19 12bc 7fd0 5bbc 4484 15bc 429b 2ebc
00000070: 55e0 413c 45d8 f0bb a14c c6bb 0a66 60bb
0.009006765 -0.0054464336 0.0024343976 -0.011258295 0.007610231 -0.01931544 0.0007678533 -0.0136308605
-0.014345513 -0.004179728 -0.0035398656 0.00477633 -0.004641766 0.0011577818 -0.0032087823 -0.010503097
0.002908152 -0.020238178 0.0010145663 0.0017631864 -0.021848073 -0.015008907 -0.010917446 -0.02080371
-0.008917241 -0.013416409 -0.009125773 -0.010657134 0.01183327 -0.00735 -0.0060516153 -0.0034240508

weight_function_network.initial_cnn.9.running_mean f4 [32]
00000000: a1e0 abbe f2c2 223f 1853 f83e 2cfb d23e
00000010: 5e16 eabe 60c2 bfbe 0b86 c4bd 9513 403f
00000020: db16 81bd 9d44 a43e 93c2 cebd 3a72 68be
00000030: 2540 07bf 0d5b e73c 3bc1 a43e 5dc3 37bc
00000040: 097d 953e 3b10 2a3e a59b a53e 2583 06bf
00000050: 1923 a8be cc8c 893e 1ede 27bd e6c9 f23e
00000060: fed2 df3e c65f ca3e ba6d e03e e50d 73bd
00000070: 2d64 2f3d 40c3 1dbe f824 bd3d 460a 1e3d
-0.33569816 0.6357871 0.48500896 0.41207254 -0.4572019 -0.37452984 -0.09595879 0.7502988
-0.063031875 0.32083598 -0.10095706 -0.22699824 -0.5283225 0.028241659 0.32178673 -0.011216012
0.29196957 0.16607754 0.3234531 -0.5254386 -0.32839277 0.26865232 -0.04098331 0.4741966
0.43715662 0.39526194 0.43833715 -0.059339423 0.042820144 -0.15406513 0.09235567 0.038584016

weight_function_network.initial_cnn.9.running_var f4 [32]
00000000: ed14 713e b768 453e 531d f13d b48d 793e
00000010: 0dde cc3d 9700 9d3e 9950 b83d 3fc2 173f
00000020: 88d6 6a3e 4535 dc3d 4295 d53d d2d1 013e
00000030: 4f4a 833e cc77 bd3d a9ae 4a3e 9c3a 5d3e
00000040: 95fe 2b3e 2a18 e73d 0bad fd3d 1509 923e
00000050: 5fdb 343e 4845 343e f8a2 373e 997a 953e
00000060: abd5 323e 7610 583e 10d1 233e 49c7 fb3d
00000070: bf07 533e cd07 fc3d cc41 fa3d 8244 103e
0.23543139 0.19278227 0.11773171 0.24370462 0.1000329 0.30664513 0.08999748 0.5928077
0.229334 0.10752348 0.10428859 0.12677696 0.2564263 0.09251365 0.1979319 0.21604389
0.16796334 0.11283906 0.12386521 0.28522554 0.17661808 0.17604554 0.17933261 0.29195097
0.1746432 0.2110003 0.1599772 0.1229387 0.20608424 0.123061754 0.12219581 0.14088634

weight_function_network.initial_cnn.11.weight f4 [32, 32, 3, 3]
00000000: 8680 503d 357c e13c 746c 8fbc 2f2e ec3c
00000010: 71b4 1c3d a2f1 d0bc 0c5e 58bd b15f ee3c
00000020: e808 773d dc74 1d3d 103f f33c cda6 883d
00000030: 3ab0 36bc 08da 473d 2af8 863b 9095 503d
00000040: a263 073d 08fc 9e3b baf0 a53c 7247 8a3d
00000050: 3dd1 4dbd 12bc 69bc eb26 0b3c c64b 0abc
00000060: 4d30 a33d a376 8f3d 5606 473d 4257 92bd
00000070: f62a 66bd f25a 9a3a 2cd2 d3bc d3e1 8e3d
00000080: 0a76 463d 825e a5bc 46ab 2c3d a748 203b
00000090: 723c f3bc 5044 bfbc 8d14 4b3c 97e3 413d
000000a0: ca60 643d 0f0c 13bc 105c ecbb 1077 88bb
000000b0: fd88 65bd a4f0 263d 8385 81bc 2db8 50bd
000000c0: 3b1c 693d 315b 1abd 6fa9 4cbd b84d 39bc
000000d0: 8542 a1bc 3643 10bd 5c85 1f3d 4688 d13b
000000e0: 1e76 29bd e5f3 bbbc 14a9 b53c 4f10 a9bd
000000f0: b2d4 d33c 9223 b5bb c687 613c f9c0 07bd
00000100: 57a3 1d3d 9989 3c3d 2543 d03c 1906 7d3d
00000110: 9069 f13c 2995 893b cbcc 6c3d 9062 adbc
00000120: 2cf9 e43a b81e dc3c 7776 a53c d035 24bd
00000130: 3d92 1e3d fe85 1abd c798 f5bc c9a3 37bd
00000140: b3be fe3b 52f3 c33b ed58 18bd 325c 9d3b
00000150: 4f02 e9bc 9d2b 1ebd 1673 dabc 24bf 6abd
00000160: 2ddc 203a 5e97 50bc 6c18 2dbd 8801 973c
00000170: 86fa 90bc 5b7a 8dbc d842 203d 7c0e 213d
00000180: 0140 ac3a 2577 e13b 4029 543d 4ab7 2bbd
00000190: 7538 dfbc bfee 8b3d 9fd8 79bb 0ca0 5f3b
000001a0: 8794 55bd a95c 30bc 132d 23bd 392d 413d
000001b0: 6257 3e3a 51b2 86ba 2fea 9cbc de96 4c3c
000001c0: 4e63 4abc 5aac e23b d845 163c 27b6 4f3d
000001d0: a769 b2bc a492 08bd 29ac a5bc 02f8 f5bb
000001e0: c009 d83c 1fe2 52bd 27cc 5dbd c3e7 453c
000001f0: 9d59 a53c 5a40 f03c ff2a 20bd 177c 573c
00000200: 7e4d 773c 5207 60bc e1f4 bd36 0097 8abc
00000210: 5caf 603d b116 12bc 7ee8 07bd 6075 f4bc
00000220: c5b8 51bd 2844 173c 73c1 07bd 162a 153d
00000230: 8587 143b f13e afbb 3cff ebbb 9ea5 a1bc
00000240: 220c 03bd e88f d9bb 6829 95bc 2e56 e1bc
00000250: ccab f63c a014 023d 0883 6f3b ce42 723d
00000260: 89d2 0a3d b501 0d3d e782 25bb a6f5 59bd
00000270: 15bb 05bc 9fd7 16bd 89fb b8ba 0415 91bc
00000280: eb74 383c 06a8 f0bc 3ade a4bc 956d bd3c
00000290: 7228 18bd 9a39 01bd 9bdc 533d afb0 2dbd
000002a0: 0e7f 193d 553c 3f3d 007d 5bbc 8dbb 093d
000002b0: c6ee 08bd 5953 83bc 1ef2 61bd f8b6 893c
000002c0: 163b 293b 6e15 84bd df7e 103c 6e7b 17bd
000002d0: ee00 0a3d 7e27 fcbc d785 4bbd ee64 f8bc
000002e0: 14bd c73c 77e4 c4bc bc71 dabc 6927 4b3d
000002f0: 0a27 50bd 7611 00bd 6bda bbbc 51e2 693d
00000300: 5515 163d e6d2 263d c4b9 8bbc 3ff5 1bbd
00000310: 863f 7c3b 1acf 183c 4554 34bd 6d72 7abc
00000320: a76b 65bc a0c9 c9bc 9dcc 4f3d 4c85 33bd
00000330: dfbd 833d acab c1bc 05d3 ecbc ff1e 3f3d
00000340: 55ae 813c 27bb 373c 8570 843b 08a9 dc3b
00000350: 454c cbbc 6ff6 673d a5a7 1fbc 6297 56bd
00000360: c711 5abd 037b 3d3c 8e20 b73c e457 c23c
00000370: a2f7 df3c 8f45 5dbc 9c24 e03c 9ad7 a93a
00000380: dc95 e43c 17ef 16bd 240d ed3c b3e9 163d
00000390: 4baf 27bd f81e 6ebc f75c 77bd 561a a63b
000003a0: 4c44 453d d593 d8bc d174 223d 3a1e 303c
000003b0: 8fbf 603d e6d9 903c d781 d0bc f7a6 213c
000003c0: b327 323d 275e 633d 3dea e73b c986 78bd
000003d0: 8769 29bd de9a 573c a87a 623c 283d 5a3d
000003e0: 3b4c d73c c9b0 76bd 116a e13a a4c5 35bc
000003f0: 34fd 723b 8e9d a33c 0f59 b03c bc3e 74bd
0.05090382 0.027525047 -0.01750777 0.028830616 0.03825802 -0.025505845 -0.052824065 0.029098364
0.060311228 0.038441524 0.029693156 0.0667244 -0.011150414 0.048791915 0.004118939 0.050923884
0.033054 0.004851822 0.020256389 0.06751908 -0.050248373 -0.014266031 0.0084931655 -0.008440917
0.07968197 0.0700505 0.048590027 -0.07145549 -0.056193314 0.0011776371 -0.025857054 0.06976666
0.048452415 -0.020186666 0.042155527 0.0024457367 -0.029691909 -0.023348004 0.012395036 0.047336187
0.055756368 -0.008975043 -0.007213123 -0.004164584 -0.056038845 0.040756837 -0.015810734 -0.050956894
0.05691169 -0.037684623 -0.049966272 -0.0113100335 -0.01968504 -0.035220347 0.03894554 0.006394419
-0.04137241 -0.022943446 0.02217535 -0.08255064 0.025858257 -0.005527922 0.013765281 -0.033143017
0.03848585 0.04602966 0.025422642 0.061773393 0.029469281 0.0041986895 0.057812493 -0.021165162
0.0017469279 0.026870117 0.02019809 -0.040090382 0.038713682 -0.03772544 -0.029980076 -0.044833932
0.007774198 0.005979934 -0.03719418 0.0048022503 -0.028443484 -0.03861581 -0.026666205 -0.057311192
0.00061363244 -0.012731401 -0.04225962 0.018433347 -0.017697584 -0.017270258 0.039126247 0.039320454
0.0013141633 0.006880658 0.05179715 -0.041922845 -0.0272486 0.068326466 -0.00381235 0.0034122495
-0.0521436 -0.010764279 -0.039837908 0.04716227 0.0007260946 -0.0010276531 -0.019154636 0.012487141
-0.012352778 0.0069175186 0.0091719255 0.050710823 -0.021778895 -0.033342972 -0.020223694 -0.0075063715
0.026371837 -0.051485177 -0.054149773 0.012079182 0.020184333 0.02932756 -0.039103504 0.013152144
0.015094159 -0.01367362 5.6611466e-06 -0.016917706 0.054854736 -0.008916543 -0.033180706 -0.029841125
-0.0512016 0.009232558 -0.033143472 0.03641709 0.0022663784 -0.0053480794 -0.007202057 -0.019732293
-0.031993993 -0.0066394694 -0.01820822 -0.027506914 0.030111216 0.03175795 0.0036546607 0.05914574
0.03389219 0.034425456 -0.0025255026 -0.053212784 -0.00816228 -0.036826726 -0.0014113049 -0.017710216
0.011258344 -0.029376995 -0.020125497 0.023123542 -0.037147947 -0.031549074 0.051724058 -0.042404827
0.037474684 0.046688396 -0.013396502 0.033626128 -0.033430837 -0.016030954 -0.05516254 0.01681088
0.0025822571 -0.064494 0.008819311 -0.036982946 0.033692293 -0.03078055 -0.049688186 -0.030321565
0.024382152 -0.024034722 -0.02666556 0.04959813 -0.05081848 -0.031266652 -0.022931298 0.057100598
0.036641438 0.040728472 -0.017056353 -0.03807568 0.0038490011 0.009326721 -0.04402568 -0.01528607
-0.014002717 -0.024632275 0.050732244 -0.043828294 0.064326994 -0.02364143 -0.028909216 0.04666042
0.015830198 0.011214054 0.0040417337 0.0067340173 -0.024816642 0.0566315 -0.009744559 -0.052390464
-0.05323961 0.011564973 0.02235439 0.02372355 0.02733976 -0.013505354 0.027361207 0.0012957931
0.02790349 -0.036849108 0.02893693 0.036843967 -0.040938657 -0.014533751 -0.060391393 0.0050690575
0.048160836 -0.02643768 0.039662186 0.010749394 0.054870185 0.017682027 -0.025452537 0.009866468
0.04349489 0.055509713 0.007077484 -0.060675416 -0.041360404 0.013159482 0.013823189 0.05328098
0.026281467 -0.06022719 0.0017197748 -0.0110944845 0.003707719 0.019972589 0.021526841 -0.05963014

weight_function_network.initial_cnn.11.bias f4 [32]
00000000: 77cb 473b 0ef4 6b3d 2628 3bbd 8186 063d
00000010: a264 883a 6b96 27bd 7222 54bd 3776 47bd
00000020: 18e0 c53c 8693 343d 997a 103d e5b4 ccbc
00000030: 1bb8 513d f18b 48bd ef0e 80bc 7180 09bd
00000040: cd23 88bb de45 88bc 81ea 863c 1a79 1bbd
00000050: 17ae 5f3d e2fa 6dbc 9ea1 94bc 40a8 31bd
00000060: 6df5 0cbd 01f4 c5ba f23c 10bc eef3 98bc
00000070: 7cb6 49bd 0c9a 13ba 9c63 b6bc bf6b e73b
0.0030486265 0.057605796 -0.045692585 0.032843117 0.0010405967 -0.040914934 -0.051790662 -0.048696723
0.024154708 0.044086 0.03527317 -0.024988601 0.051200967 -0.048961584 -0.01563212 -0.033569757
-0.0041546584 -0.016634878 0.016469242 -0.03795729 0.054609384 -0.014525147 -0.018143471 -0.043373346
-0.034413744 -0.0015102626 -0.008803593 -0.018671002 -0.049246296 -0.000563056 -0.022264294 0.007062405

weight_function_network.initial_cnn.12.weight f4 [32]
00000000: 069c 7f3f 2b2a 803f 7402 803f 0354 803f
00000010: 51c3 813f c785 7e3f 0eaa 7f3f 5109 803f
00000020: 5b8a 7f3f 7090 7d3f 3053 7e3f 9000 7e3f
00000030: c13d 803f 9ddb 7f3f b766 7f3f dd79 803f
00000040: 9913 813f b126 803f 8bed 803f a391 813f
00000050: 2928 7f3f fa14 803f 31aa 803f 02bc 803f
00000060: 7444 7f3f 68fa 7d3f 6d1d 793f 54e3 7f3f
00000070: 4797 7e3f 9dbb 803f db56 803f a51a 803f
0.9984745 1.0012869 1.0000749 1.0025638 1.0137731 0.9942288 0.9986886 1.0002843
0.9982049 0.9904852 0.99345684 0.9921961 1.0018846 0.9994448 0.99766105 1.003719
1.0084106 1.0011808 1.0072492 1.012257 0.99670655 1.0006402 1.0051938 1.0057375
0.99713826 0.99210215 0.97310525 0.9995625 0.9944958 1.0057255 1.0026506 1.0008131

weight_function_network.initial_cnn.12.bias f4 [32]
00000000: 3357 b8bc 15f9 c6bb d386 cebb 146c fdbb
00000010: 84af 983b 6059 6fbb 2881 54bc 252d 3ebc
00000020: 0315 94bc eeda 9ebb eb0e c9bb eb3a 10bc
00000030: fe0d 0bbc 68c7 76ba c330 f5bb 027b a33a
00000040: c331 93bb 3f60 f23b c643 843b 4290 13bb
00000050: c3fd cdbc f438 32bc 02bd bbb9 947c 41bc
00000060: 476e 6dbc 6570 adbb 3c3a fdbc c4c2 893b
00000070: 578d 26bc 80a0 9dbc 03e1 78ba 63ad a7bb
-0.022502517 -0.0060721734 -0.0063026934 -0.007733831 0.004659595 -0.0036521778 -0.012970246 -0.011607443
-0.018076425 -0.004847876 -0.0061358116 -0.00880311 -0.008487223 -0.0009413869 -0.0074826195 0.0012472572
-0.004492016 0.0073967273 0.0040363995 -0.0022516404 -0.025145417 -0.0108778365 -0.0003580824 -0.011809487
-0.014491624 -0.0052929395 -0.030911557 0.004204126 -0.010165534 -0.019241571 -0.00094939786 -0.005117105

weight_function_network.initial_cnn.12.running_mean f4 [32]
00000000: 097b 4e3d fcb6 af3c 0664 fb3c 3288 263d
00000010: 9c17 1fbe a8ef 143e e19e c4bd 3ce3 e5be
00000020: 4b31 81be 61e6 febe f2e7 d73e 54ad d3be
00000030: 56af 43be d6e1 9cbd 1db5 4cbe cfee fe3c
00000040: 643a d23e 7d81 a8bd 4653 3e3f 69f8 efbd
00000050: 062a 38bd c2a8 9c3e 3e27 363e ca0a 9e3d
00000060: cf53 68be fe87 6b3a 3ec3 893c b353 4f3e
00000070: f688 9d3d 3304 423e 9d00 29be 78de 9bbe
0.050410304 0.021449558 0.030687343 0.04065723 -0.1553635 0.14544547 -0.09600616 -0.4489993
-0.2523292 -0.4978514 0.42169148 -0.41343176 -0.19109854 -0.07660262 -0.19990964 0.031119732
0.41060174 -0.08227823 0.74345815 -0.11717302 -0.04496195 0.30597502 0.17788407 0.077169016
-0.2268822 0.0008984803 0.016816732 0.20246772 0.07692139 0.18946914 -0.1650414 -0.30443168

weight_function_network.initial_cnn.12.running_var f4 [32]
00000000: 433b 0b3e b289 8e3d cd6b e63d 2d6b e73d
00000010: f2e6 c63d 17e1 2a3e 6318 a43d eeb4 4a3e
00000020: 1e99 013e a2c9 483e e3e9 983e 9907 d23d
00000030: e34f 033e 51c4 a33d 0284 e23d 12dc dc3d
00000040: 37d3 4e3e f48e 133e 581d 9b3e b247 0f3e
00000050: 2c61 ca3d 18e1 6d3e 4bc6 9c3d 1ad9 dc3d
00000060: 69fd 413e ce77 b33d 5b08 103e 0d50 243e
00000070: 139a fc3d ff46 9e3d d277 b73d c155 053e
0.13596825 0.06959857 0.1125103 0.11299739 0.09712018 0.16687427 0.08012464 0.19795582
0.12656066 0.19608167 0.2986594 0.102553554 0.12823443 0.07996429 0.11060335 0.107841626
0.2019776 0.14410001 0.30295825 0.13992193 0.09881815 0.23230398 0.07655009 0.10783596
0.18944325 0.08763085 0.14065687 0.16046162 0.12334075 0.07728385 0.08958401 0.13020994

weight_function_network.adaptive_layer.1.weight f4 [64, 32, 3, 3]
00000000: eb60 5f3d 17ff 9f3c 46cb 1abd 1455 5dbd
00000010: f85d 1abd a07b 39bd d403 c73c 224f 623d
00000020: da7c 64bd 10cd a5bc 849f 48bd 1d5f 9c3c
00000030: c906 193d c9dd 2dbd 3a83 f53c 6c0c 4abd
00000040: a5be 66bc 173b ca3c 3c51 013c 0c0d e7bb
00000050: 88ce 3fbc 331f 933c 6678 1cbd d286 8fbc
00000060: 38c4 5cbd c8d1 83bd 1a3f 1b3c 3add 21bd
00000070: 07de a2bc 0a67 8cbc 848e da3c adb0 0cbd
00000080: d134 66bc 0470 1fbb 0d11 303d 5131 323c
00000090: e58b b3bc d754 2ebd 8f9f e03c f2fc 3c3d
000000a0: 2319 983c faba 33bc 3171 02bd 8b7d debb
000000b0: 92c5 d6bc 9ba7 1cbd bb06 8e3c 3b05 cdbc
000000c0: 837f b6bc 9814 0f3d 450f f6bc 14c2 bf38
000000d0: 2283 17bc c9ef 183d b845 6cbd 01c1 12bc
000000e0: 47c3 c23c 5552 87bd 6e9f 02bc 2eca 80bd
000000f0: ec41 8fbd fa1b d6bc 12d5 0f3d f092 d73c
00000100: cd44 cd3c 6d35 6e3c 0738 63bd 9e5d 863b
00000110: 798e 473d 8c41 b5bc 30e7 16bd 50a2 b5bb
00000120: 9efb e03c c711 b8ba eb70 553d 98e0 963b
00000130: 46c0 283d 90f0 05bd 7ccb 63bc 36d5 f83c
00000140: 3599 c2bc cc82 813d 4344 0a3d 52d8 51bd
00000150: 0668 f4bc 8ea1 82bc 39a3 2a3d 9fa2 00bd
00000160: 2f80 2f3b 08d9 673d 46c3 d13c 3bad 923c
00000170: 9568 cc3c 8cca 213d 145f 4c3c 6e7a 6d3c
00000180: 3b97 21bd 1715 203d c285 7b3d eb14 39bc
00000190: f2d0 3fbd ed19 2fbc 3b5b b23c 72b5 03bd
000001a0: 7816 fc3c 8d49 72bd f52a 07bd 5a31 bcbc
000001b0: 9d5c b5bb 4fe3 28bd 8acf 5b3d 7855 773d
000001c0: a7c0 7ebc 731b dfbc 963d 06bd c516 9fbc
000001d0: 3907 32bd 1c57 19bd c53d a5bc e3f6 353d
000001e0: 6609 1f3d a975 a43c 15c1 673c 91db b738
000001f0: 52dd 01bc 8196 833d 63c0 2e3c be0f 193d
00000200: dbbb c23b 875d 033d 5b52 0abc 8f41 343d
00000210: 4879 d2bc 9447 e23b c2de 9dbb 9708 73bd
00000220: 7de5 c0bc 079a 053d 5956 20bb 071c ccbc
00000230: c2e8 b0bb 522c bf3c ed63 963c 1f35 1abd
00000240: 5a2b 7ebd 2745 1dbb 08b7 09bd 5f6b 14bd
00000250: 9b80 633c 4a74 3fbd 10ad 243c 2bbf 02bd
00000260: 7f75 7ebd f8c3 a8bc 18ce 3cbc 028f 66ba
00000270: 4db4 ab3c 6f17 31bd 9367 4e3a 1c30 7c3d
00000280: b1be 393c af6f 433d 2757 653d 928e 123d
00000290: 9678 06bd b065 193c ad0d 963d 6bb0 0fbd
000002a0: 35ba 72bc 777f 743d 6934 233d ebdb 25bd
000002b0: cc28 e93b 854c 3f3c 50e4 83bd 4ac6 09bd
000002c0: a9b4 a33c b290 f0bc 90c7 ed3b 3827 11bd
000002d0: b584 013d 697c 143a 4b3b c33c 87c6 79bc
000002e0: eca7 b5bc 32f1 11bc 4b02 583c 4992 2cbc
000002f0: 7cbd 06bd f869 493d d377 d1bb 76d9 093d
00000300: fd53 45bd d0fa 13bd f9ad 253b 4910 10bc
00000310: 4873 493d 2d8a f2bb a1ae d53b 6a4a 14bd
00000320: 6353 2a3d ede8 8abd 6961 08bd 38d6 483d
00000330: f41b 67bc 5c28 7bbd 78e4 0c3d 37f3 ee3c
00000340: 52f9 45bc 7d8b 603d b24c 0d3d eb9e 073d
00000350: bcb7 83bc 52e0 523b ec02 95bb 2d35 32bd
00000360: 8a39 7d3c 433b 803b 5a7c 1ebd 3008 68bb
00000370: f3a6 653d 9075 38bd ae88 163d 9f58 0bbd
00000380: adb3 1e3d 4f99 4b3b aad8 593d 0490 1bbd
00000390: 55f3 02bd 6449 0a3a a650 7f3d 70e6 86bb
000003a0: 6a8b b23c b57b dfbc 74c2 c53c 0d24 2abd
000003b0: b803 473c b481 3c3d 39b3 7139 2f7a d0bc
000003c0: 7c12 86bb 29f8 c8bc cfe9 12bc 0e9b c83c
000003d0: 7dad 4a3c 1206 803c 27d1 8e3c deba 633d
000003e0: ffee 37bd 7d45 3cbd 99d8 2fbd 3548 443d
000003f0: 6915 50bd 226a 643d f397 39bd 784f e5bb
0.054535788 0.019530816 -0.037791513 -0.054036215 -0.03768727 -0.045283914 0.024293818 0.05525125
-0.05578313 -0.020239383 -0.04898025 0.019088322 0.037359986 -0.04244784 0.0299698 -0.049328253
-0.014083539 0.02468638 0.007892903 -0.007051116 -0.011706956 0.017959213 -0.03820076 -0.017520342
-0.053898066 -0.06436497 0.009475494 -0.03951762 -0.019881262 -0.017138977 0.026679285 -0.03434818
-0.014050678 -0.002432824 0.04298501 0.010876016 -0.021917293 -0.04256138 0.027419833 0.046139665
0.018566674 -0.010969872 -0.03184623 -0.006789868 -0.026217256 -0.03824578 0.017337194 -0.025026908
-0.0222776 0.03493175 -0.030036578 9.1437396e-05 -0.009247573 0.037338052 -0.057683676 -0.0089571485
0.023774756 -0.066075005 -0.007972581 -0.06288563 -0.069949955 -0.026136387 0.03511531 0.026315182
0.02505722 0.014539105 -0.055473354 0.0041005155 0.048719857 -0.022125982 -0.03684157 -0.005543031
0.02746373 -0.0014043384 0.05210964 0.0046044104 0.04119899 -0.03270012 -0.013903495 0.030375104
-0.023754695 0.06323776 0.033756506 -0.05123169 -0.029834758 -0.015946176 0.041659568 -0.031405088
0.0026779284 0.05660346 0.025605809 0.017904868 0.024952212 0.039499804 0.01247384 0.014494522
-0.039450865 0.039082613 0.06140686 -0.011296491 -0.046830125 -0.0106873335 0.021772018 -0.03215546
0.030772433 -0.059152175 -0.03299995 -0.022972751 -0.005534722 -0.041232403 0.05366472 0.060384244
-0.015548862 -0.027234768 -0.032773577 -0.019420037 -0.04346392 -0.03743659 -0.020171056 0.044424903
0.038827322 0.020075636 0.014145155 8.7670174e-05 -0.007926302 0.06425191 0.010665986 0.03736853
0.0059428043 0.032071617 -0.008442487 0.044007834 -0.025692597 0.0069055054 -0.0048178146 -0.059334364
-0.023546929 0.032617595 -0.002446553 -0.024915708 -0.0053988406 0.023336563 0.018358195 -0.037648316
-0.062053062 -0.0023997517 -0.033621818 -0.03623521 0.013885642 -0.04674176 0.010051027 -0.031920593
-0.06212377 -0.020601258 -0.011523746 -0.00087951135 0.020959998 -0.04323524 0.000787371 0.06156932
0.011336968 0.04771393 0.055991318 0.035780497 -0.032829843 0.009362623 0.07326827 -0.035080355
-0.014814903 0.059691872 0.039844904 -0.040492933 0.007115459 0.0116759585 -0.064400315 -0.03363637
0.019983606 -0.029365871 0.0072564557 -0.035437793 0.0316207 0.00056642905 0.023831984 -0.0152450865
-0.022174798 -0.008907603 0.01318414 -0.010532924 -0.03289555 0.049173325 -0.006392458 0.033654653
-0.0481758 -0.036127865 0.0025280698 -0.008792945 0.049182206 -0.0074017257 0.0065210615 -0.03620378
0.04158343 -0.06782708 -0.033296023 0.04903242 -0.014105786 -0.061317787 0.034397572 0.029168708
-0.012083368 0.054820526 0.03449697 0.03311054 -0.016078822 0.0032177162 -0.0045474675 -0.043507744
0.015455613 0.0039133145 -0.03869281 -0.003540527 0.05606742 -0.04503399 0.03675144 -0.034020063
0.03874557 0.003106672 0.053185143 -0.03797914 -0.03197034 0.0005275218 0.06233277 -0.0041168258
0.021794993 -0.027280668 0.024140574 -0.041538287 0.012146883 0.046022132 0.00023050317 -0.025448887
-0.004091559 -0.024532394 -0.008966877 0.024487998 0.012370464 0.015627895 0.017433716 0.055598132
-0.04490566 -0.045964707 -0.042931173 0.047920424 -0.05080167 0.05576528 -0.045310926 -0.006997999

weight_function_network.adaptive_layer.1.bias f4 [64]
00000000: 9145 f9bc 5204 5cbd dcfc e5bc 0ac7 1f3d
00000010: f657 83bc 7640 c0bc e650 9b3c cc3f 11bd
00000020: b577 21bc 68c5 8ebc 5f96 533d 2bc4 6e3d
00000030: c80c 62bd 772a 10bd 7206 023d 0c75 4f3d
00000040: 15b6 2b3d 9acf 51bd 25e5 13bd 9f63 333c
00000050: 6be9 6b3d d959 d23c fe8a 63bb 5fff a6bc
00000060: 409f 6a3d 4988 10bd fd4d dabb 0a86 493d
00000070: 4a30 8fbc de13 2f3d ba9c ebbc 95b9 4a3d
00000080: 6965 2c3d ea74 4abd 0117 8dbc 02f5 7fbc
00000090: 87bb c53c b14a 533d 17c2 0bbc 7b6d 233d
000000a0: 4468 653d 40bf 3d3c 5187 22bd 22b8 04bd
000000b0: db85 25bc be91 453d 711a 533d 5750 a5bb
000000c0: 2340 f43a 62fe 8a3c 5310 083d 7d66 fdbb
000000d0: 50ad f5bc f03d 17bd 755c 1e3a d402 3c3d
000000e0: 81f5 303c 557d 03bd bc54 2e3b 52e1 46bd
000000f0: c5e7 38bd 9dc5 6cbb 3bb6 123d 9f1b 5d3d
-0.03042868 -0.053715058 -0.028074674 0.039008178 -0.016033154 -0.023468237 0.018959474 -0.035461232
-0.009855201 -0.017428115 0.051657077 0.05829255 -0.05518797 -0.035196748 0.031744428 0.050648734
0.041921694 -0.051223375 -0.0361072 0.0109490445 0.05759565 0.025677608 -0.0034720297 -0.020385442
0.05728078 -0.03528622 -0.006662129 0.049200095 -0.01747908 0.042743556 -0.028761256 0.04949339
0.0420889 -0.049427904 -0.017222883 -0.015622379 0.024137272 0.051584903 -0.008530161 0.03989933
0.05600764 0.011581242 -0.03967983 -0.032402165 -0.010102714 0.048234694 0.05153889 -0.0050449776
0.0018634837 0.016967002 0.033218693 -0.007733165 -0.029989868 -0.036924303 0.0006040999 0.045901135
0.01080072 -0.032101948 0.0026600799 -0.048554726 -0.045142908 -0.003612853 0.03581832 0.05398142

weight_function_network.adaptive_layer.2.weight f4 [64]
00000000: 1660 803f 3516 813f c55b 7e3f 0181 803f
00000010: 0889 803f bc6b 7d3f 4898 813f ad51 7f3f
00000020: 0c26 803f dfe1 813f 2bfb 803f b6da 813f
00000030: 2767 7d3f 7613 7f3f 081f 7e3f a0f3 7e3f
00000040: b063 7d3f 24b6 803f 8e34 7e3f d0f6 7c3f
00000050: 278c 7e3f cbf3 7e3f cc4c 803f a0e1 803f
00000060: 1b73 7d3f 5b8d 7f3f b44a 823f 906b 803f
00000070: 7da3 7d3f c6a1 803f e17e 7e3f 098c 7f3f
00000080: 8793 803f 6a37 813f 213e 823f 1573 7d3f
00000090: ecaa 803f 8d4c 7b3f fc16 7f3f f1fa 803f
000000a0: c4db 7f3f d07a 7f3f c3d3 7d3f bdc8 813f
000000b0: ba2d 813f a913 7e3f 764d 803f 0379 803f
000000c0: a9ed 7d3f 265f 7f3f d9ee 803f 58be 7c3f
000000d0: b915 7f3f 5050 7f3f 3fb9 7e3f 7486 7c3f
000000e0: c4e0 7c3f d161 803f 68bc 803f 18e8 7f3f
000000f0: 0950 7d3f d174 803f cd62 7e3f aca9 7e3f
1.0029323 1.0084902 0.9935878 1.0039369 1.0041819 0.98992515 1.0124598 0.99734
1.0011611 1.0147055 1.007665 1.014487 0.98985523 0.9963907 0.992661 0.9959049
0.98980236 1.0055585 0.9929894 0.98814106 0.99432606 0.9959075 1.0023437 1.0068855
0.9900376 0.99825066 1.0179048 1.0032825 0.9907759 1.0049369 0.9941235 0.9982305
1.0045022 1.0095036 1.017521 0.99003726 1.0052161 0.9816368 0.99644446 1.0076581
0.9994471 0.9979677 0.9915125 1.0139385 1.009208 0.9924875 1.0023639 1.003693
0.99190766 0.9975456 1.007289 0.9872794 0.9964252 0.9973192 0.99501413 0.9864266
0.98780465 1.0029851 1.0057497 0.9996352 0.9895025 1.003565 0.9936951 0.9947765

weight_function_network.adaptive_layer.2.bias f4 [64]
00000000: 69a6 9e3b a619 81bc 922a 1bbc e480 fabb
00000010: c61e f0bb 2851 91bc d7dc 92bb 4b0a 25bc
00000020: b6d6 9bbb 2676 a6b8 f357 b33a 4fd1 8bbc
00000030: 72d7 96bc afa2 a8bc 17df 62bc 6417 33bc
00000040: d7b4 3cbc 2b87 fcbb cf3f f1bb 5509 80bc
00000050: 826f 80bc e2de edb8 1a93 59bc 5ec6 f5bc
00000060: 3e94 aebc b2e5 01bc 85e6 d53b 6472 5d3a
00000070: b675 c1bc 2dec 05bc d672 a1bc f843 cfbb
00000080: 55b4 7dbc 814b 153c 9fe0 b9bb 900d 60bc
00000090: 21a2 abbc 355e 9fbc d418 afbc 1c0f b2bb
000000a0: 1cd2 4dbc edc7 95bc d013 bbbc 7ba0 fabb
000000b0: 9947 2d3b bc78 13bc 8b24 b4bb 4884 0a3c
000000c0: f45e c7bc 5599 c1bb fbde e6bb 9e6a 95bc
000000d0: 9e8a 50bb d41c 00bb 176a c8bc c3b5 6fbc
000000e0: 4f40 37bc 0dc6 c83b b81a 6cbc edee 9abc
000000f0: d7d7 84bc e783 3bbc ea0b efbb b1bf 50bc
0.004841615 -0.0157593 -0.009470599 -0.0076447595 -0.007327887 -0.017738894 -0.0044818926 -0.010073255
-0.00475582 -7.937504e-05 0.0013682827 -0.01706758 -0.01841328 -0.020585386 -0.013847134 -0.01093087
-0.011517725 -0.007706543 -0.007362343 -0.01562945 -0.015678171 -0.00011342556 -0.013279701 -0.030001815
-0.021310922 -0.007928299 0.006527724 0.00084475265 -0.0236157 -0.0081739845 -0.019708078 -0.006325241
-0.015484889 0.00911224 -0.005672529 -0.013675109 -0.020951333 -0.019454101 -0.021374144 -0.00543393
-0.012562301 -0.018283809 -0.022836596 -0.0076485253 0.002644038 -0.009000953 -0.0054975203 0.00845439
-0.02433727 -0.005908171 -0.0070456243 -0.018239316 -0.0031820904 -0.0019548433 -0.02446465 -0.014630738
-0.011184766 0.006127125 -0.014410667 -0.018912757 -0.016216202 -0.011445022 -0.0072951214 -0.012741015

weight_function_network.adaptive_layer.2.running_mean f4 [64]
00000000: 3d6e a7be 8899 db3d de6b 81be b908 283f
00000010: 2469 8c3e 1b66 f6be 3d69 3abf a2c8 fdbc
00000020: 313a d0be eb41 453e 8798 e338 bbf1 b13d
00000030: 2bc7 37be 7e4f 123e 4e5c c43e 34c5 443e
00000040: 3df0 173d 77fd d73e bf75 67be 17e3 fcbd
00000050: 9649 90be ff86 e03e a46e dc3d 35de 0cbf
00000060: 92e1 88bd 33ce 023e eb58 943e e3e4 73be
00000070: 51dc a8be 6776 cd3e 4c00 9f3e 7584 10be
00000080: 2479 64be 04bb 24bf fae5 52be a887 903e
00000090: d371 493e 1c53 c93e f42b 96be ef29 09be
000000a0: 5830 ee3d 3334 9ebb 3721 383e bd7a 14bd
000000b0: fe9c b43d db2c a73d 7108 1f3e e9e5 82be
000000c0: 3d15 80be c069 9f3e de7d 27be ec0f 6bbe
000000d0: c873 0abf 2cea e0be 68ec 83be 8e4f 99be
000000e0: 0a2c 89be 2d42 d43e 97f6 51be 71a9 10bf
000000f0: b8fb 30be fe21 09bf 2688 5a3e 4ac9 1e3f
-0.32701293 0.10722643 -0.2527761 0.6563831 0.27423966 -0.48124775 -0.7281683 -0.030979458
-0.40669397 0.19263427 0.00010852614 0.086886846 -0.1794707 0.14288136 0.38351673 0.19215852
0.037094343 0.42185566 -0.2260351 -0.123480015 -0.28181142 0.43852994 0.107632905 -0.5502656
-0.06683649 0.12773971 0.2897409 -0.23817782 -0.32980588 0.40129396 0.31054914 -0.14113028
-0.22311836 -0.64347863 -0.20595542 0.28228498 0.19672327 0.3932122 -0.2933041 -0.13394903
0.116303146 -0.004828 0.1798142 -0.036249865 0.088190064 0.081628524 0.15530564 -0.25566033
-0.25016204 0.31135368 -0.16356608 -0.22955292 -0.5408292 -0.4392866 -0.257663 -0.29943508
-0.26791412 0.41456738 -0.20504223 -0.5650855 -0.17283523 -0.5356749 0.21340999 0.6202589

weight_function_network.adaptive_layer.2.running_var f4 [64]
00000000: cd0d 623e de06 3b3e 796d 6e3e 9e85 ec3e
00000010: 9e9d 293e 2781 233e 9f0d 6d3e d76e ee3d
00000020: edd1 fb3d b52a bb3e 5d11 663e b937 163e
00000030: 2a95 043e cc0f 183e 513c 3d3e b9de b23d
00000040: 8481 523e d27e af3e dc2c 0b3e 89f1 243e
00000050: 8f77 3f3e 88ab 1a3e 4f7e f53d b334 1e3e
00000060: 425d 5a3e b0c6 3b3e 16a9 253e f5dc 133e
00000070: a317 4b3e fb4e 8a3e 4eb8 ed3d 4c95 303e
00000080: 4c8b 363e 0724 913e c32c 203e 80fd 303e
00000090: 68b7 423e 08db 1a3e 39cf 5a3e 0915 143e
000000a0: 16ae 7e3e e110 113e d369 853e e2c7 353e
000000b0: 8bf6 6b3e f88b 133e 38fe 073e 94b9 173e
000000c0: 157e 1e3e d5d6 283e a27e 013e 850a 5f3e
000000d0: 8c5e 9a3e 2c39 303e 06c5 f13d ff55 a53e
000000e0: 1eb9 393e 14b9 2c3f d20f 053e 2436 8e3e
000000f0: 71b9 313e 8d4c 933e 3ff6 283e d25e 8c3e
0.22075577 0.18264338 0.23283948 0.46195692 0.16564032 0.15967236 0.23149727 0.11642235
0.122958995 0.3655602 0.22467561 0.14669694 0.12947527 0.14849776 0.1848004 0.08733887
0.20557219 0.34276444 0.13591331 0.16107763 0.18697952 0.15104496 0.11986982 0.1544979
0.21324638 0.18337512 0.16177782 0.14439757 0.19833235 0.27013382 0.11607419 0.17244452
0.17826575 0.283478 0.15642075 0.17284203 0.19015276 0.15122616 0.21368112 0.1446115
0.24871096 0.14166595 0.260573 0.1775203 0.23043267 0.14408863 0.1328057 0.14816886
0.15477784 0.16488202 0.12645963 0.21781357 0.3015026 0.1720931 0.11805157 0.32292172
0.18137023 0.67469907 0.12994316 0.2777568 0.17355897 0.2876934 0.16500185 0.27416092
