logs/通过减少类别测试数据分布是否是有效的/model.output_dim=5/test_model_20250420_172259.pth (torch, 315845 bytes, 32 tensors)

weight f4 [128, 1]
000000 78 da 8f 3e c0 48 a6 3d bd af 4f bf 60 2a 4e bd
       0.28096366 0.08119345 -0.8112753 -0.05033338
000010 96 77 6d be f4 a0 ef be a9 04 64 bf 66 b0 32 be
       -0.2319015 -0.46802485 -0.8906961 -0.17450103
000020 d0 42 0c bf 32 aa 47 bf 91 07 78 3f 35 2e 50 bf
       -0.5478945 -0.7799407 0.96886545 -0.81320506
000030 d6 a0 0e bf 38 c2 1f 3f 2c 58 33 3e ad ed ba 3e
       -0.55714166 0.6240573 0.17514104 0.36509457
000040 fc 83 d3 3e 20 6e 7b 3f 60 59 2b be b2 df d2 3d
       0.41311634 0.9821491 -0.16733313 0.10296573
000050 8c e8 78 3f 95 4c a7 bd 9a 5d 1d bf 74 5f 4a 3f
       0.9722984 -0.08168904 -0.6147095 0.790519
000060 40 e9 77 bd b6 db 77 3f 99 5c 5a 3f 9d 33 72 3f
       -0.06052518 0.9681963 0.8529754 0.94610006
000070 00 9b e4 3d 9c 72 d8 3e 00 3d 92 3c 28 fa 62 bf
       0.111623764 0.4227494 0.017851353 -0.8866296
000080 b8 a1 0f 3f c3 40 30 3f 5b 38 9d be 66 1b 07 3f
       0.5610614 0.6884882 -0.30707058 0.5277618
000090 e0 22 5b bd 7d 3a fd be 2a 6c 1c 3f 2c 82 46 bf
       -0.053500056 -0.49458686 0.61102545 -0.77542377
0000a0 ed ec 9b be db bd 6e 3f fc f5 02 bf 0b a2 2c 3f
       -0.30454198 0.93258446 -0.5115659 0.6743476
0000b0 4f 2a 4c be ad 7c c5 be 27 0b 7e 3f b8 87 b5 3e
       -0.19938014 -0.38571683 0.9923577 0.35455108
0000c0 48 6b ea be e2 6f 10 bf 34 d5 b0 3e 0c a4 dd 3e
       -0.45784974 -0.5642072 0.3453766 0.4328922
0000d0 9c dd 82 3f 08 ba bc 3e f6 1d f0 bd 37 a7 72 bf
       1.022388 0.3686068 -0.117244646 -0.947864
0000e0 94 74 fc 3e c8 e2 12 3f ea 66 0e bf bd 18 85 be
       0.49307692 0.5737729 -0.55625784 -0.25995436
0000f0 f1 b8 d3 3e f3 ba 0b bf 50 53 94 bd 63 bc d3 be
       0.41352037 -0.54582137 -0.07242453 -0.41354665
000100 53 61 67 bf ee 57 2b 3f 64 ad f3 bd 3c 88 d8 be
       -0.9038288 0.66931045 -0.11898306 -0.4229144
000110 f4 3f 75 3f d8 22 ac be a0 f3 82 bd 53 37 09 be
       0.9580071 -0.33620334 -0.06394124 -0.13400011
000120 a0 a7 fc bd 48 f7 b8 be 1d e4 3e bf 4a 99 cd 3e
       -0.123366594 -0.3612616 -0.74566823 0.40156013
000130 a4 46 1b 3f 47 66 88 3e 24 25 e5 3e 31 31 f7 be
       0.60654664 0.2664053 0.447549 -0.48279718
000140 4a 35 1e bf ab 7e 5c 3f cc da ca 3e 33 48 84 bf
       -0.6180006 0.8613078 0.39620054 -1.0334533
000150 6a af b5 3e cd 16 ed bd 40 45 08 bf a6 83 56 3f
       0.35485393 -0.115766145 -0.5323067 0.8379463
000160 8c fb 63 bf ca 54 27 3f 2c 04 91 3e f5 26 82 bf
       -0.89055705 0.6536375 0.28323495 -1.0168139
000170 c1 3d 5f 3f 83 ed 7f 3d 5b 31 29 bf f7 9d 41 3f
       0.87203604 0.06248237 -0.66090935 0.7563166
000180 5a 73 5a bf 9d 5f af be 1f 27 19 be 3f ae e3 be
       -0.8533226 -0.34252635 -0.1495633 -0.44468877
000190 c4 6d 9b be e8 e1 71 bf f0 40 57 3e 96 79 7f bf
       -0.30357182 -0.9448533 0.21020865 -0.997949
0001a0 02 9d 28 bf 0a 34 b8 bd 55 9c 5d 3e 65 2e 1c 3f
       -0.65864575 -0.08994301 0.21641667 0.6100829
0001b0 28 16 0f bf d4 b9 32 3f 1d e9 0c 3f 56 a3 ad 3d
       -0.5589318 0.698148 0.550432 0.084784195
0001c0 c0 20 8f 3d d6 82 e4 be 45 8b 74 3f 02 ff 51 bf
       0.069886684 -0.4463107 0.9552501 -0.82029736
0001d0 ee d8 6f 3f 0d 7f 4e bf 23 05 d5 3e 80 9d 4d 3d
       0.93690383 -0.80662614 0.41605482 0.05019903
0001e0 27 b0 58 be 67 36 a9 be ad ff cd be c3 5f 99 be
       -0.21160947 -0.33049318 -0.40234128 -0.29955873
0001f0 98 97 4d 3f 7a d9 2a bf 9a c8 4b 3e c8 f8 78 bf
       0.8030944 -0.6673809 0.19900742 -0.9725461

bias f4 [128]
000000 30 f5 4f bf 5c 1a a5 be cb 0d 45 bc 86 39 4c bf
       -0.812335 -0.32246673 -0.012027214 -0.79775274
000010 ed 44 ac 3e f2 6f 81 3f 92 2e 2a 3f 91 13 2d 3f
       0.33646336 1.0112288 0.6647731 0.6760798
000020 40 a3 a7 3e 9c e8 3a be da 03 66 3f ab c8 4c 3f
       0.32741737 -0.18252796 0.89849627 0.79993695
000030 bf 2e 9f be 06 ff 65 bf 1c 35 22 3f 40 e9 eb 3e
       -0.31090352 -0.8984226 0.6336229 0.46076393
000040 d6 f7 2e bf 57 14 a5 3e 38 e1 66 bf 8e 6c b9 3e
       -0.6834692 0.3224208 -0.90187407 0.36215633
000050 af 67 9e be e8 60 b6 3e 8c 4e b2 be 86 6b 60 bf
       -0.3093848 0.3562081 -0.34825552 -0.8766407
000060 48 ca 7b bf 4e 14 4c 3f 13 e2 01 bf 3d 2f 49 3f
       -0.9835553 0.7971848 -0.50735587 0.78587705
000070 84 6a 7c bf fa 61 11 bf d0 2e ee be 87 0f b3 be
       -0.9860003 -0.56790125 -0.4652009 -0.34972784
000080 88 32 31 3e e2 11 d9 3e 02 33 01 be be 50 3a be
       0.17304432 0.42396456 -0.12617114 -0.18194863
000090 88 e0 34 bf 06 fb 17 be c3 b9 18 3e da ed 55 be
       -0.7065511 -0.14841852 0.14914612 -0.20891514
0000a0 0d 99 32 3e 84 4e 3a 3f b2 ad 43 bf db 7b 39 3f
       0.17441197 0.72776055 -0.76436913 0.72454613
0000b0 aa 17 3a 3f 8a 34 1c 3e 2e 98 11 bf dc 65 d2 be
       0.7269236 0.15254417 -0.5687283 -0.41093338
0000c0 9a 7f 58 3f 42 8a 45 bf 12 b7 38 bf e4 03 15 bf
       0.84569705 -0.7716409 -0.72154343 -0.5820906
0000d0 ad bb 6a 3f d2 13 74 bf 3a 59 17 3f 44 4d 37 bf
       0.9169262 -0.95342743 0.59120524 -0.71602273
0000e0 88 19 72 bf 18 08 23 bf 9e bb 5b bf cd fd 3b 3f
       -0.9457021 -0.63684225 -0.85833156 0.73434144
0000f0 81 e0 7c 3e f7 85 45 bc 64 89 5b bf ad ff 0c 3f
       0.24695016 -0.0120558655 -0.85756516 0.5507763
000100 0b bd 18 bf 51 89 4a 3f 96 0f 3b 3f 52 a2 48 bf
       -0.59663457 0.7911578 0.7307066 -0.7837268
000110 e0 9d 77 bf d7 ff 13 3e 90 3c 34 be ac 77 c3 3e
       -0.96725273 0.14453064 -0.17601228 0.3817724
000120 fe de 6d bf 68 39 40 bf 94 7d 38 3f c4 24 84 3e
       -0.92918384 -0.75087595 0.72066617 0.258093
000130 59 d8 2e 3f 54 36 7d 3f e8 60 79 bf 19 16 e0 3d
       0.6829887 0.98911023 -0.9741349 0.10941715
000140 67 05 2f 3f 33 17 e2 be 05 9e 1f 3f f2 49 6f 3f
       0.6836762 -0.44158325 0.62350494 0.93472207
000150 3a 80 51 3f 63 ad 2b 3e fd d1 f6 bd 8b c2 49 3f
       0.81836283 0.1676536 -0.12051771 0.78812474
000160 a1 c6 8c be ed b1 55 3f 62 d8 01 bf cd c7 15 3f
       -0.27495292 0.8347462 -0.507208 0.58507997
000170 18 4a 1e bf ff 6d 29 3f 3c bc fd 3e 1c 35 85 3e
       -0.6183181 0.66183466 0.49557674 0.26017082
000180 12 f2 1a 3c 95 69 0f 3f 15 d5 b1 3d 7f e4 0f be
       0.009457128 0.5602048 0.0868322 -0.14052008
000190 0e a3 7e bf 88 40 15 3f 78 aa cc be e6 ce ea be
       -0.9946755 0.5830159 -0.39973807 -0.45860976
0001a0 16 e4 5b bf 6f 6a 9a 3e d3 5b 80 3f 5f ad aa 3e
       -0.85894907 0.30159327 1.0028023 0.33335397
0001b0 b2 f2 75 bf fc b6 49 bf ac 6d 9d 3e 16 85 8d 3e
       -0.9607345 -0.78794837 0.30747736 0.276406
0001c0 5e 7f 52 bf 59 eb 93 be e2 bd 2d 3e b0 25 f1 be
       -0.82225597 -0.28890494 0.16966966 -0.47099066
0001d0 29 a6 92 3d 7d 9a 14 3f 28 3f a3 3e d2 05 0b bf
       0.07160599 0.5804823 0.31884122 -0.54305756
0001e0 ef 9f 46 3e ad 94 6a 3f 8a bc 51 b9 20 8b 18 3f
       0.19396947 0.9163311 -0.0002000203 0.5958729
0001f0 a5 b2 b2 3e 14 5a 4e bf 2d 7e 4f 3f 6e ac 36 3e
       0.3490192 -0.806062 0.81051904 0.17839214

weight f4 [16, 128]
000000 60 97 27 bb 80 67 cb 3c 6c 09 af bd 7c 56 68 bd
       -0.0025572404 0.024829626 -0.08546719 -0.056723103
000010 5d 62 2b b9 2b 4e 86 3c 53 8b 3a bc 86 bc c0 3c
       -0.00016344474 0.016394695 -0.011385757 0.023527395
000020 ce 42 05 be d4 d3 b6 3c 4e 34 e0 3c 4b 04 05 be
       -0.13013765 0.022317804 0.02736869 -0.12989919
000030 bb c8 c9 bd aa 66 3f 3d ed b9 8c bd d5 39 f7 bd
       -0.098527394 0.046728767 -0.068714 -0.120715775
000040 80 6b 8d bd 25 cf fd bd 99 fa 85 3d 74 a7 e8 3c
       -0.069052696 -0.12393025 0.06541938 0.02840016
000050 f4 42 a0 3d 87 24 5b bd da 3f e0 3c 77 2f 9c 3d
       0.0782527 -0.053501632 0.027374197 0.07626241
000060 d3 07 ae bd 54 10 f9 bd ef b8 85 bd e1 e0 d2 bc
       -0.08497586 -0.121613175 -0.06529414 -0.025741996
000070 78 b0 a0 3c 24 42 60 bd b2 87 98 bd 74 24 d6 bd
       0.019615397 -0.054750577 -0.07447757 -0.10456172
000080 87 cc fa bd 98 ff c1 37 99 5a 1b 3d 8c a1 36 bd
       -0.12246042 2.3126413e-05 0.037928198 -0.044587657
000090 00 bb 6e bb 33 d8 de bd d4 76 d8 bd 41 01 39 3d
       -0.0036427379 -0.108810805 -0.1056954 0.04516721
0000a0 18 4f b2 bd f9 2e bf bd 4c df ac bc 2b 30 07 be
       -0.08706492 -0.09335131 -0.02110257 -0.13201968
0000b0 bd 46 fd bd c6 e8 d5 3c 54 af 9d 3c aa 5d 0e bd
       -0.12367008 0.026111972 0.019248642 -0.034757294
0000c0 a0 3c 1c bd 2c cf 81 bc 00 4f 8d ba dd fa 91 3d
       -0.038143754 -0.015845858 -0.001078099 0.071279265
0000d0 65 fc 79 bd 9d bc ad 3d 20 be f8 bd 8a 49 4e 3d
       -0.061031718 0.08483241 -0.121456385 0.0503631
0000e0 d0 7e db 3c b8 29 fd 3c 3c af 1f bd bf 2d 93 bd
       0.026793867 0.030903682 -0.038985476 -0.0718646
0000f0 12 79 70 bd 09 52 5e bd b8 96 fa 3c 35 18 10 3c
       -0.05870921 -0.054277454 0.030589446 0.008794834
000100 25 94 41 bd 13 dc 08 be 2e 80 95 bd ea 1a 87 bd
       -0.047260422 -0.13365202 -0.07299839 -0.0659693
000110 80 33 84 bd ba 82 eb 3c c4 17 88 bc 32 96 d3 bd
       -0.06455135 0.028748859 -0.016612895 -0.10331382
000120 dc 08 c3 3c 00 e1 01 bd 3c a8 74 bd ad a4 bd bd
       0.023807935 -0.031708717 -0.059730753 -0.09259925
000130 11 3f 63 bd 7d f4 0b bd 1c ee 15 bd b0 d4 5c bd
       -0.055480067 -0.03416871 -0.036604032 -0.053913772
000140 f5 d2 d0 bd 93 a5 aa 3d 60 94 bc bc 6c 65 0e be
       -0.10196487 0.08332362 -0.02301997 -0.13905877
000150 30 18 ae bc 2e 4a 7f bd 34 f8 0e bb d5 d4 ed 3c
       -0.021251768 -0.062326603 -0.002181542 0.02903215
000160 14 ed f6 3c 18 0d 98 bd c8 de 61 3c b3 78 82 bd
       0.030142345 -0.074243724 0.013786025 -0.06370678
000170 df 3d 8c bd 00 f9 93 3b 98 de c9 bd 9a 4e 64 bc
       -0.068477385 0.004515767 -0.098569095 -0.013934756
000180 99 8c 65 3d 4c 36 e2 3c 35 6d bf bd c7 4b 65 3d
       0.056042287 0.027613781 -0.093470015 0.05598047
000190 fa 35 44 3d 80 79 b1 3c b3 1b 5b bd 26 77 2e bd
       0.04790304 0.021664381 -0.053493213 -0.042594098
0001a0 62 0e ec bc 09 8e 92 bd b8 95 a3 bd 1d 1d d2 bd
       -0.028815452 -0.07155997 -0.07987541 -0.10259459
0001b0 4b 2e 72 bd 60 02 0b bd ad ce ac ba 44 5e d3 3c
       -0.05912618 -0.03393781 -0.0013184153 0.025801785
0001c0 d4 49 78 bd f7 0f 2c 3d 9d bf 81 bd dc 83 90 bb
       -0.060617283 0.042007413 -0.063353755 -0.00441025
0001d0 ab eb 9c bd 2e 33 bd 3c 12 4c c8 bd 55 0b 40 bd
       -0.076621376 0.023095693 -0.09780134 -0.046885807
0001e0 d1 01 e4 bd e4 52 db bd 9f 67 bc bd b9 ab 88 bc
       -0.11133159 -0.107091695 -0.09199452 -0.016683446
0001f0 99 e1 c3 bc 5b f2 94 3d 40 ea 5b 3c e3 d2 3f bd
       -0.023911284 0.07272788 0.013422549 -0.046831977
000200 5c 7a de 3c e0 16 71 3b 0a 72 b7 bc d0 9e 3b bc
       0.027157955 0.0036787316 -0.022393245 -0.011451438
000210 7c 13 1a bc c6 9e 6b bd 5c 63 dc bd cc bd 46 bd
       -0.0094040595 -0.057524465 -0.10761139 -0.04852085
000220 5b 13 91 bd ea 28 db bd c3 c8 ae bd a0 e6 38 bd
       -0.0708377 -0.10701163 -0.08534386 -0.045141816
000230 2f 7b 34 bd 5e 32 42 bd a8 44 80 bd d1 f4 55 bd
       -0.04406279 -0.047411315 -0.06263095 -0.05223543
000240 a1 23 b0 3d 5f f0 73 bb 20 7b 37 3b 67 19 c5 bd
       0.08600546 -0.003722213 0.0027996972 -0.09623986
000250 9c c2 98 bc 95 c5 92 3b 93 c2 a9 bd 68 07 5e bc
       -0.018647484 0.00447912 -0.08289065 -0.0135515705
000260 a4 c7 91 3c 97 f4 de bd b4 16 3e bd 94 4f 67 bd
       0.017795391 -0.108864956 -0.04640837 -0.056472376
000270 26 9b 1c 3d 40 64 ce 3c ff f2 8d bd 25 e5 fe ba
       0.0382339 0.025194287 -0.069311135 -0.0019446953
000280 19 43 f1 bd 07 34 94 bd 13 c5 6d bd 65 0e 00 3d
       -0.11780376 -0.07236486 -0.058049273 0.031263728
000290 1d 75 b3 3d 6a 2d ab 3c 21 4e 90 3c f5 e5 a0 bd
       0.08762572 0.020895679 0.01761538 -0.07856361
0002a0 7a 42 b0 3c ef c0 22 bd d4 1f 80 bc 66 38 84 bd
       0.021516073 -0.039734777 -0.015640177 -0.0645607
0002b0 f8 27 cb bd ea 12 cc bd e3 f1 15 3d 12 f6 28 3d
       -0.09919733 -0.09964545 0.036607634 0.041250296
0002c0 dd e5 0f be 28 a8 a4 bc 2f c9 78 bd 26 35 73 3d
       -0.1405253 -0.020099714 -0.06073874 0.05937686
0002d0 ee fc da bc b2 2e a1 bd f8 9a 17 bd fc 41 58 3d
       -0.026731934 -0.078702345 -0.037013024 0.052797303
0002e0 98 f0 2e 3c ab 5a ab bd cc 86 a7 bc 66 c1 0f 3c
       0.010677479 -0.08366903 -0.020450018 0.008774137
0002f0 fc d7 b6 bd d2 bd e5 bd f0 13 5a bc b8 c4 c2 3c
       -0.089279145 -0.11217846 -0.0133104175 0.023775443
000300 ed 85 2c bc f3 05 ba bd 76 d9 24 bc 1e 7b 32 bd
       -0.010529977 -0.09083166 -0.010061612 -0.043574445
000310 5d 95 ac bd 72 5f d6 bd b4 59 fa 3c 96 4c 0b be
       -0.08426926 -0.104674235 0.030560352 -0.13603434
000320 ae 75 36 3d f1 4c 24 bd 18 ef a3 bd b3 d1 8f bd
       0.04454582 -0.04011244 -0.08004588 -0.07022419
000330 75 9f e3 bd 20 54 2a bd 03 d1 94 bd b2 fc 8d bd
       -0.111143984 -0.041584134 -0.07266428 -0.069329634
000340 71 99 ff bb 93 69 13 3d c7 6b 7a bc a3 90 d8 3c
       -0.007800274 0.035989355 -0.015284485 0.026436156
000350 12 13 09 be 34 34 bb bd 39 52 be 3c 8f be 81 bd
       -0.13386181 -0.09140816 0.023232566 -0.06335174
000360 da 95 4a 3d a8 32 ea bd 32 39 af bd 46 0f 91 bc
       0.049459316 -0.11435443 -0.08555831 -0.017707478
000370 90 3b 00 3c 98 48 d5 3c db 9f 03 be a7 d0 35 3c
       0.007826701 0.026035592 -0.12853949 0.01109711
000380 6f 54 91 bc 28 2b 24 bd 78 11 ea ba f2 9b 89 bd
       -0.017740456 -0.04008022 -0.0017857989 -0.06719197
000390 22 10 e3 bc 81 7f f4 bd 64 30 8e 3c 7c 45 9c bd
       -0.027717654 -0.11938382 0.017357059 -0.076304406
0003a0 c4 b3 d2 3c 2f fd 13 be c0 bf 07 be 5b 7f a7 bd
       0.025720485 -0.1445205 -0.1325674 -0.08178588
0003b0 a2 09 53 bd 10 31 c4 bb 81 74 85 3c f2 b1 c3 bc
       -0.05152286 -0.005987294 0.016290905 -0.023888562
0003c0 66 d6 4f 3d 60 ba 56 3d ee ca f1 bd 1d 05 9a bd
       0.050741576 0.052423835 -0.11806284 -0.075205065
0003d0 cb 53 8f bc e7 63 0a be f1 00 c4 bd e3 24 93 bd
       -0.01749601 -0.13514672 -0.09570492 -0.0718477
0003e0 9b a2 50 3b fb ed f1 bd ed 76 cf ba 91 ab ff bd
       0.0031835202 -0.11812969 -0.0015828289 -0.124838956
0003f0 7e b1 22 bd a6 cf 44 3d ab d4 06 bb 66 18 ea bd
       -0.03972005 0.04804959 -0.0020573537 -0.11430435

bias f4 [16]
000000 e0 1b 99 bd 91 ff ad 3c 00 72 c3 3d 7d 6e 17 3d
       -0.0747602 0.021240028 0.09543228 0.036970604
000010 4d 92 d8 bc 69 46 9e 3d cd 54 05 be 80 2d 27 bc
       -0.02643695 0.077282734 -0.1302063 -0.010203719
000020 1a 50 9f bd 58 b5 0b 3d 5f 22 ce 3d 18 83 6c 3d
       -0.0777895 0.03410849 0.100651495 0.05774221
000030 60 18 b4 bd 3a 27 47 3d 03 45 01 3e 23 4e 95 3d
       -0.08793712 0.048621394 0.12623982 0.07290294

weight f4 [16, 2]
000000 2e f4 0a bf d5 0a b5 3e 36 9d df be c0 cb 22 bf
       -0.5427884 0.35359827 -0.4367463 -0.6359215
000010 c3 89 2c bf d2 3b 8c be 42 e7 2f 3f 72 cd 96 be
       -0.6739771 -0.2738939 0.68712246 -0.29453617
000020 61 3e e1 3e 5e 96 ca be 92 1a 32 be 38 56 09 3f
       0.43992904 -0.39567846 -0.17392948 0.53647184
000030 0c 3f 4c be dd 2c cf be 43 15 7e be dc 14 0b 3f
       -0.19945925 -0.40463915 -0.24812798 0.54328704
000040 19 47 03 3f 54 2a 88 be c3 84 b4 3e eb 4c 98 be
       0.5128036 -0.26594794 0.3525754 -0.29746184
000050 50 ea 01 bf fa d6 1b bf fa 42 22 3f e1 34 0e bf
       -0.5074816 -0.60874903 0.6338345 -0.55549437
000060 a2 87 9a 3e ec 03 89 bc 4a e5 ea 3e fe c2 be 3e
       0.30181605 -0.016725503 0.4587806 0.37258142
000070 d8 28 06 be 0e 5e 8d be bc 94 c4 be 9e 52 2e bf
       -0.13101518 -0.2761082 -0.38394725 -0.68094814

bias f4 [16]
000000 56 b8 c7 3e ca 63 99 3e 19 92 27 3f 6e de 32 bf
       0.39007825 0.29958946 0.654573 -0.6987065
000010 48 1f cc be d0 a5 c2 3e 9a 4b c6 3e 22 83 5b be
       -0.39867616 0.3801713 0.38729554 -0.21436742
000020 c4 ce 8e be 01 f8 b3 be 30 8f 01 3d 47 8f 1a bd
       -0.27892125 -0.3515015 0.031630695 -0.037734296
000030 cd 7b 38 3f bc 34 8b be 91 b9 25 bf 5b 06 c3 be
       0.72063905 -0.2718867 -0.64736277 -0.38090786

weight f4 [16, 16]
000000 8c 25 49 3e de 2b 6c 3e f0 ec 82 3d f6 fd 62 be
       0.19643229 0.23063609 0.063928485 -0.22167191
000010 a3 3c 8e bd 84 fc 50 3e d2 cd 34 3e c2 ac 2e be
       -0.06945159 0.20408827 0.17656639 -0.1705809
000020 fb ef 87 3e 95 ac 82 3e ec 8b a6 3d 2b a0 fe bd
       0.26550278 0.25522295 0.08132157 -0.12432893
000030 08 51 27 be fb 22 19 3e 50 ea 5b 3e 20 c8 41 3e
       -0.16339505 0.1495475 0.21476102 0.18923998
000040 f1 0f e5 3b e8 ba 28 3e f8 28 72 3d df 37 b2 bd
       0.0069904258 0.16477549 0.059121102 -0.08702063
000050 d4 78 3a 3e c8 49 c8 bd 60 51 02 3d 1b c1 5e 3e
       0.18210155 -0.09779698 0.031815886 0.21753351
000060 d2 e0 1f 3e ec 4d c1 3d c6 ae 34 3e 2f e6 e5 3d
       0.15613106 0.094386905 0.17644796 0.11225545
000070 19 34 c1 3d 59 4c 46 be f4 8e 81 3d 30 39 ae 3d
       0.09433765 -0.19365062 0.06326094 0.085070014
000080 62 5e 20 be 88 88 d9 3d 8a 2f 3f 3e 3d 45 3b 3d
       -0.15661004 0.106217444 0.18670478 0.045720328
000090 96 2c 48 be 5e ff 1a be 1e a2 56 3e c6 e5 42 3e
       -0.19548258 -0.15136477 0.2096028 0.19032964
0000a0 13 dc 4f 3e d6 29 9d 3d 18 43 49 bd 8b 1b 14 3e
       0.20298795 0.07673995 -0.04913625 0.14463632
0000b0 1b 98 e3 bd 5d 3b 11 be 60 0a 66 bc c4 db fb 3d
       -0.11112996 -0.14182802 -0.0140405595 0.12297776
0000c0 74 a1 3e be 58 4a 92 3d 66 d7 2d be cf 50 2e 3d
       -0.18616277 0.07143086 -0.16976699 0.042557534
0000d0 35 ca de 3c 4d 05 38 be 64 36 97 3d 52 cc 40 3e
       0.02719603 -0.17970772 0.07383421 0.18827942
0000e0 4d b5 90 3d c9 93 3a 3e 36 bd 77 be 04 3f 25 3e
       0.070658304 0.18220438 -0.24193272 0.1613732
0000f0 4e 1d 45 3e 17 20 7b be d4 0f af 3d 36 a1 74 be
       0.1924946 -0.2452396 0.08547941 -0.23889622
000100 ab a5 87 bd e4 b4 53 3e f6 04 33 3e a9 0b 57 be
       -0.066233955 0.20674473 0.17482361 -0.21000542
000110 e1 f9 bd bd a5 82 d5 bd e6 98 64 3e e5 82 0c 3d
       -0.09276176 -0.10425309 0.22323951 0.03430452
000120 26 d0 3f 3e 4c 53 5e be a6 9f 04 be 9b b9 4e bd
       0.18731746 -0.21711463 -0.12951526 -0.050469976
000130 32 44 a3 3e 41 ee 6d 3e b8 ec fa bd 44 12 17 be
       0.31887966 0.23235418 -0.12252182 -0.14753062
000140 7f 83 41 3e 02 7f 0c be 1a 69 11 3e 34 08 3c be
       0.18897818 -0.13720325 0.1420025 -0.18362504
000150 e3 ff 6a be 03 7f d6 3d fa 66 77 be 0b 13 0d bc
       -0.22949176 0.10473444 -0.24160376 -0.008610497
000160 00 f5 b0 bd ba 3b da 3d 2c 9b 1f be 5b 5d 16 be
       -0.0864048 0.10655923 -0.15586537 -0.1468405
000170 af fd 1e 3e b2 42 6a 3e e6 d0 24 be c0 b4 0a bc
       0.1552646 0.22877005 -0.16095313 -0.008465946
000180 15 59 c5 bd 2c b3 cd bd 80 6b 61 bb c8 67 39 be
       -0.09636132 -0.1004394 -0.003439635 -0.18105996
000190 4b 31 4d bd 50 f3 17 3d d8 90 0d 3d 72 4a 02 be
       -0.050095838 0.037097275 0.034561962 -0.12723711
0001a0 02 d2 96 bc 97 d8 13 3e 5e 1e 32 3e 4f 0a 66 3e
       -0.018410686 0.14438091 0.17394397 0.2246487
0001b0 ce af e0 3d ff 45 44 3e d6 40 52 be 90 bc 4c 3e
       0.10971032 0.19167326 -0.20532545 0.19993806
0001c0 eb 02 f6 3c 4c 10 33 be 28 19 5c 3d ab f6 37 3e
       0.030030688 -0.17486686 0.05373493 0.1796519
0001d0 82 34 97 bc 2e 6f 53 3e a8 a6 c6 bd 08 51 54 3c
       -0.018457655 0.2064788 -0.09699756 0.0129587725
0001e0 e9 7e cf bd 7f f3 0f 3d c0 ff f0 3c a0 5b 2b 3e
       -0.10131628 0.035144325 0.029418826 0.16734171
0001f0 7f 4f bb 3d 6b f2 63 3d 00 c0 60 39 96 67 14 be
       0.09146022 0.05565111 0.0002143383 -0.1449264
000200 ba f4 f8 bb 00 d8 17 39 d2 c0 7d be 5c 4b fa 3c
       -0.007597533 0.00014480948 -0.24780586 0.030553512
000210 ad 73 12 3d ec a7 07 3e ee 0b 1c be 15 35 17 be
       0.03575485 0.13247651 -0.15238926 -0.14766343
000220 61 39 0a 3e 93 4e b2 3b 9c 09 8b bd dd 2c 54 be
       0.13498451 0.0054414957 -0.06788942 -0.20720239
000230 51 f9 82 bb 7e 3f 4e 3e 90 47 52 bd 76 60 42 be
       -0.003997006 0.20141408 -0.05133778 -0.1898211
000240 f2 6c 20 be 70 81 67 3e 80 70 c3 3c 2a a3 18 be
       -0.1566656 0.2260797 0.023857355 -0.14905992
000250 3c 32 6f 3e 7c 6c 50 be d6 0f 59 3e 76 0d 0a 3e
       0.23359007 -0.20353884 0.21197447 0.13481697
000260 60 6f e6 3c 8c 93 5b be c0 4c 0c 3e 10 bb 21 be
       0.02812928 -0.21443003 0.13701153 -0.15794015
000270 04 78 c0 bd 00 77 a1 bd 7e 8d 63 3e 70 9b e6 bd
       -0.09397891 -0.078840256 0.22221944 -0.11260116
000280 a2 6f a6 3c ec 65 04 be 50 11 82 3d 9b 43 7a 3e
       0.020316903 -0.12929505 0.06350958 0.24439852
000290 e9 d2 c5 3a 03 33 19 3c 66 ff 13 be 43 c4 3e bd
       0.0015092763 0.009350541 -0.14452896 -0.04657389
0002a0 14 8c 0d be 60 46 05 be c4 cd 5b 3e 29 1d f5 bd
       -0.13822967 -0.13015127 0.21465212 -0.119684525
0002b0 8d 5d 07 3e f5 20 b3 3d a0 19 cf bd f6 bf 1b be
       0.1321928 0.087465204 -0.101123095 -0.15209946
0002c0 24 93 71 be 1e ac 7b 3e 40 8d 8f 3d 5b a2 a7 3c
       -0.23591286 0.24577376 0.07009363 0.02046316
0002d0 b6 00 5d 3e 93 55 71 be 40 16 df bc 78 ba 12 3e
       0.21582302 -0.235678 -0.02723229 0.14328945
0002e0 f9 ce 52 3e b1 d8 21 be 80 66 38 bb 3d b3 57 3e
       0.20586766 -0.15805317 -0.0028137267 0.21064468
0002f0 6f f3 06 bc cc 8f 9b 3b ce ad 7c be 44 17 b6 3d
       -0.00823675 0.0047473665 -0.24675676 0.08891156
000300 ba 09 ef bd 12 6d 17 be 4a 04 32 be be 65 aa bd
       -0.11671777 -0.14787701 -0.17384449 -0.08320187
000310 88 6b 3b 3d dd 77 e5 3d b0 34 80 bd 8b 55 ab 3d
       0.045756847 0.11204503 -0.06260049 0.083659254
000320 be d7 7e 3e c0 1b 4b bc ec 43 fc 3d 56 5a 39 be
       0.24886987 -0.012396753 0.123176426 -0.18100867
000330 2a 4c c9 3c 63 08 d3 bd 16 2d 6a 3e 92 44 5d be
       0.02457245 -0.10304334 0.22868761 -0.21608189
000340 b8 dd 0a bd 92 a6 72 be 20 80 62 bc 8a df 19 be
       -0.033902854 -0.23696354 -0.013824493 -0.1502668
000350 58 f5 c1 bd 5c e8 57 be 68 f1 36 3e 86 9b 02 be
       -0.09470624 -0.21084732 0.17865527 -0.1275464
000360 40 1e 92 bc 5e 8a 61 be 14 84 71 be c0 34 58 3e
       -0.01783669 -0.22025439 -0.2358554 0.21113873
000370 2c 71 ef bd e0 fb 6a be 50 44 93 3d 54 13 69 3e
       -0.11691508 -0.22947645 0.07190764 0.2276128
000380 49 eb bc bd 3e 97 15 3e 96 52 47 be c3 4b d4 3d
       -0.092245646 0.14608476 -0.19465098 0.10366013
000390 3e 85 76 be c0 f1 15 3d 70 d0 0b 3e e3 f8 a3 bd
       -0.24074265 0.036607504 0.13653731 -0.08006456
0003a0 7a e3 0c be 26 eb 0c be 30 9a ee 3c e7 3d 8b bd
       -0.1375865 -0.13761577 0.029126257 -0.06798916
0003b0 4a fc 46 bd d9 b1 63 3e 5c b7 48 3e 1c 9a f1 bd
       -0.048580445 0.22235812 0.19601196 -0.11796972
0003c0 e2 29 7c 3e 38 28 b7 3d 74 e3 f6 bd 2c 4b b4 bd
       0.24625352 0.08943218 -0.12055102 -0.088034004
0003d0 c8 71 0d 3e 0e 78 49 be a4 07 1f be 60 8b 62 bd
       0.13812935 -0.19674703 -0.15530258 -0.0553087
0003e0 54 4c af bd f8 18 1a 3d 78 88 1d 3e 30 dc c9 3c
       -0.0855948 0.03762147 0.1538409 0.024641126
0003f0 88 b3 5b bd c2 5b 01 be c4 89 76 3e 94 bc 3b 3e
       -0.05363801 -0.12632659 0.24075991 0.18333656

bias f4 [16]
000000 32 c5 8c bd b8 16 6d 3e 53 a1 66 3b b2 07 23 3e
       -0.068735495 0.23153198 0.0035191372 0.15920904
000010 83 71 6b 3d 25 17 4d be 53 65 a2 3d 52 b6 38 be
       0.0574813 -0.2002836 0.07929482 -0.180383
000020 11 d7 d5 3c c0 ee 9d bb 93 99 12 3e 84 1f 23 bd
       0.026103528 -0.004819721 0.14316396 -0.039824978
000030 d7 2f 09 be 76 a8 49 3e f2 33 d1 3d 00 56 1a 3d
       -0.13397156 0.19693169 0.10214986 0.037679672

weight f4 [32, 16]
000000 2b 6d 4c 3e 9e 4b 5c be 51 ac c5 bd 0c bb 47 be
       0.1996352 -0.2151322 -0.09652007 -0.19504946
000010 b3 e8 84 bc 49 f3 30 3e e7 b3 d1 bd a7 a4 33 3e
       -0.01622424 0.17280306 -0.10239392 0.17543279
000020 c3 67 6f be 78 ba ef 3d c0 ce 6d be 09 2d 63 3d
       -0.23379426 0.11705488 -0.232234 0.05546287
000030 9c 84 cc bc 20 a8 68 3d 8b 31 6a bd 36 7e 0e 3e
       -0.024965577 0.05680096 -0.057176154 0.13915333
000040 44 32 91 bd 89 96 c2 3c c2 0e 72 be dc ac b8 bd
       -0.070896655 0.023753421 -0.23638442 -0.09017345
000050 fd 84 98 be 38 81 bb bd 1d 17 84 bd 9a 83 cc 3b
       -0.29788962 -0.09155506 -0.06449721 0.006241274
000060 78 3c 94 bd a8 44 f9 bd 98 31 33 be 3d d4 6b be
       -0.07238096 -0.12171298 -0.17499387 -0.23030181
000070 63 ba 78 3e 46 2e 54 3e df c4 ec 3c 6a 8f 12 be
       0.24289851 0.20720777 0.02890247 -0.1431252
000080 00 6d 03 3d e9 3e ab 3d f1 a5 39 39 18 f2 45 be
       0.032086372 0.083616085 0.00017704793 -0.19330633
000090 0c c5 28 3e 6e db 06 3e 2a c9 c2 3d 16 3b 66 3d
       0.16481417 0.13169643 0.09511025 0.056208692
0000a0 0d ec 21 3e 00 d9 95 bd ca 86 a7 bd d4 75 3b be
       0.15812702 -0.0731678 -0.08180006 -0.18306667
0000b0 de 9d 51 be 7a d7 0c 3e 82 84 5f 3d 42 0e 54 be
       -0.20470378 0.13754073 0.05456973 -0.20708564
0000c0 0c e9 c2 bd 11 ad aa bd 95 11 0d be fe 0f 16 3e
       -0.095171064 -0.08333791 -0.13776238 0.14654538
0000d0 2f 52 18 3e db 7c 11 bd 6b 65 1d be f9 cc 50 3e
       0.148751 -0.035519462 -0.15370719 0.20390691
0000e0 ea e5 45 be 64 dc bb bd be f8 c2 bd 51 bd 7d 3e
       -0.19325987 -0.091728956 -0.095201 0.2477925
0000f0 81 ac 01 3e 20 14 85 3d f0 25 25 3e ac bd 7b be
       0.12663461 0.06497979 0.16127753 -0.24584073
000100 09 03 ed bc 0f 5c 99 bc 2a 3a 14 3e 3d 14 2c be
       -0.028932111 -0.018720655 0.14475313 -0.16804595
000110 12 dc 46 bd 42 7b d6 3d e7 7e 35 3e 06 8a c5 3c
       -0.04854972 0.10472728 0.1772419 0.024113666
000120 ad c4 83 bd dc ff 6b 3e 53 93 dd 3d de 1a f3 bd
       -0.06433997 0.23046821 0.108191155 -0.11870359
000130 7b 50 2a 3e 8a ff 2b 3e 92 14 2f be 60 be 3b 3d
       0.16632263 0.16796699 -0.1709769 0.045835853
000140 a5 27 73 3d 17 86 52 be 00 8a 3a 3e 64 c3 51 3e
       0.05936398 -0.20558964 0.18216705 0.20484692
000150 42 36 ff bc cd 89 b8 bd ed 0e 4d bd 4d 8c 1c be
       -0.031153802 -0.090106584 -0.050063062 -0.15287896
000160 bc c7 73 be 10 e5 06 bd 91 c4 24 be c1 4e 38 be
       -0.23806661 -0.032933295 -0.16090609 -0.17998792
000170 4d 3e 9e 3d 5a 8e 59 3e 55 d6 23 be 50 10 0b 3d
       0.07726727 0.21245709 -0.1599973 0.033951104
000180 f2 b4 83 3d cc c9 18 be 06 67 7c 3d 76 73 e1 3d
       0.06430997 -0.1492073 0.06162169 0.110083506
000190 1c 8c 04 3e 5a 9f f6 bc 39 75 41 be b0 d8 57 3e
       0.12944072 -0.030105282 -0.18892373 0.21078753
0001a0 a7 44 99 3d ba 15 02 be f3 07 31 be 90 76 69 be
       0.074837975 -0.127036 -0.17288189 -0.22799134
0001b0 8b 9c 72 3e 86 d2 7b be d8 bd 86 3e dc 4e f4 bd
       0.23692529 -0.24592027 0.26316714 -0.11929104
0001c0 91 f9 69 be 26 b1 a4 3c 08 ce 56 3e bc 96 6c 3e
       -0.22849108 0.020104002 0.20977032 0.23104376
0001d0 d2 3d 91 3d a4 e5 bd 3d 55 7f 58 be 15 8e 5b bd
       0.070918694 0.09272316 -0.21142323 -0.053602297
0001e0 b8 3b 36 be b0 01 93 3d c0 8d 4f be af 61 3a 3e
       -0.17796218 0.07178056 -0.20268917 0.18201326
0001f0 41 49 5d 3e be 23 6b 3e 2d 89 6a be f6 27 10 3e
       0.21609975 0.22962853 -0.22903891 0.14077744
000200 e8 2c e7 3d 43 b2 48 be e9 70 5b be 34 79 18 be
       0.11287862 -0.19599251 -0.2142979 -0.14889985
000210 5d ea 1a be 60 34 f0 3d 4b fd 5d 3e 7b cd 4a be
       -0.15128465 0.1172874 0.21678655 -0.19804947
000220 ec 65 3f be a2 f5 01 be b0 a4 0d 3e d3 ff e2 bd
       -0.18691224 -0.12691358 0.13832355 -0.11083951
000230 41 08 e6 bd 80 71 34 3e ef 8b 75 be ce 6d 17 be
       -0.11232043 0.17621422 -0.23979162 -0.14787981
000240 09 1f 6d be 7c 4b 28 3d f5 8d 13 3e 03 42 29 3e
       -0.2315637 0.041087613 0.14409621 0.16529088
000250 15 f3 a1 be 15 3c c1 3d 89 31 6d be 79 b3 5d bc
       -0.3163077 0.09435288 -0.23163427 -0.013531559
000260 ef 7d d4 bc 04 9b 3d be 5b 07 07 be f3 d7 fa bd
       -0.025938956 -0.18516165 -0.131864 -0.1224822
000270 2c 21 27 3e f0 aa 2e 3d be ca 48 3d 3c d4 44 be
       0.16321248 0.042643487 0.049021475 -0.19221586
000280 6f f6 7a bd 38 42 d6 bc 1e 8e 33 3e a4 28 5d be
       -0.061270174 -0.026154622 0.17534682 -0.21597534
000290 2a 5e 43 be d4 26 81 3d 7d cf 9f bc 9e b5 81 be
       -0.1907889 0.06306234 -0.019508118 -0.25333875
0002a0 4f e0 46 3e 72 2c 48 be ea 38 4c 3e d4 34 db bd
       0.19421504 -0.19548205 0.19943586 -0.107034355
0002b0 03 e9 a0 3d aa c6 5d be 3b 31 01 3e a4 09 63 3e
       0.078569435 -0.21657816 0.12616436 0.22171646
0002c0 76 97 ce bd 3d 68 27 3e 56 9b 44 3e 1a b9 24 be
       -0.10087483 0.16348357 0.19199881 -0.16086236
0002d0 b2 9a 81 be 9f 94 77 be 36 8c ca bd d4 80 54 bd
       -0.25313336 -0.24177788 -0.09890024 -0.051880673
0002e0 92 f5 5a be c0 9e af bb 51 3d 98 3c 53 24 fa bc
       -0.2138274 -0.0053595006 0.018583925 -0.030534899
0002f0 ce 76 68 bd b4 ee 05 3e 68 d8 de 3c bc cd 61 3e
       -0.056753926 0.1307934 0.0272028 0.22051138
000300 36 c1 6d be 21 52 c3 bc be cf 78 3d 31 3f 38 be
       -0.23218235 -0.023842873 0.060744993 -0.17992856
000310 7d 1f 7e 3e 54 8e a1 3d 86 ae 82 3e 86 5e 2d 3e
       0.248167 0.07888475 0.25523776 0.16930589
000320 13 fa 03 3e 54 50 04 be 1c aa b3 bd fe 79 52 be
       0.12888364 -0.12921268 -0.0877268 -0.20554349
000330 cf 8d c0 bd c8 54 61 3d 11 cb 80 3d 22 21 58 be
       -0.09402048 0.055012494 0.06288732 -0.21106389
000340 b0 31 26 be cb 3c b9 3d 44 72 ca 3d 3a 76 f0 bb
       -0.16229892 0.090447985 0.09885076 -0.0073383125
000350 1b 2c 89 bc 18 f8 f4 3b 62 98 8d 3d 06 37 43 3e
       -0.016744664 0.007475864 0.0691383 0.19063959
000360 d0 32 7a 3e c0 ee bd 3d a8 79 54 be 35 6d 94 bd
       0.24433446 0.092740536 -0.20749533 -0.07247392
000370 82 fa 16 3e 90 8f 9f 3c a4 47 5e 3e ea da 4e be
       0.14743999 0.019477636 0.21707016 -0.20200697
000380 3f b5 c3 bd 8b 25 c1 3d 8c 61 68 3e 9d 93 61 3e
       -0.09556054 0.09430989 0.22693461 0.22028966
000390 45 ae df 3c f9 15 22 3e b3 11 7f ba 18 4e 05 be
       0.027304778 0.15828694 -0.00097301154 -0.13018072
0003a0 39 0a 7a be 80 66 ed 3c 1a 73 ef bd 81 7d 48 3e
       -0.24417962 0.02897954 -0.11691876 0.19579126
0003b0 23 74 37 3e 22 ca 63 3e 89 be 41 be 00 c3 ae 3b
       0.17915396 0.22245076 -0.1892034 0.0053333044
0003c0 12 e1 75 3e f6 15 a9 3b 12 cc 5d bd 0c b1 1e 3e
       0.24011639 0.0051600887 -0.054149695 0.15497226
0003d0 f2 d1 53 bd 5a 5c 95 bd 2d c0 89 3d f5 f6 82 bd
       -0.05171389 -0.07293005 0.06726108 -0.063947596
0003e0 fe 96 45 be cc 5c 14 be 78 34 b9 bc 6b e3 ea bc
       -0.1929588 -0.14488524 -0.022608027 -0.028672894
0003f0 63 e0 08 3e c0 41 bc 3d c1 90 87 3c 60 60 70 bc
       0.13366847 0.09192228 0.016548516 -0.014671415

bias f4 [32]
000000 4d 15 83 bd a7 24 37 3e cb 8e 28 bd 95 69 5a bd
       -0.06400547 0.17885076 -0.041151803 -0.053323347
000010 08 9e 6d 3e 20 b9 f3 3c 55 71 5e 3e cd c6 9c 3c
       0.23204815 0.02975136 0.2172292 0.019137764
000020 32 31 ac bd 5a 5f f5 3d 0c ed 74 be f2 f8 52 be
       -0.08407821 0.119810775 -0.23918551 -0.20602778
000030 fb 38 11 3e e7 db 27 3e 42 59 8f 3e 5c 44 76 be
       0.14181893 0.1639248 0.27997786 -0.24049515
000040 c2 ee a4 bc 8c 74 0c be cd 98 4f be 75 23 db bd
       -0.02013338 -0.13716334 -0.20273133 -0.10700122
000050 aa 52 83 bd aa 25 41 3c 66 a6 32 be 8c d9 52 bd
       -0.06412251 0.011788765 -0.17446288 -0.051477
000060 c4 7a 43 3e b6 0d 8b 3e ba 51 b9 bd 93 c4 4b 3e
       0.190898 0.27158898 -0.09048791 0.19899206
000070 61 75 3d 3e ed d5 47 3e ae 4b 62 be 52 37 81 be
       0.18501808 0.195152 -0.22099182 -0.2523752

weight f4 [16, 4]
000000 ec cb 24 be a0 d1 a9 3c 6e 9a f3 3e a8 d0 be 3e
       -0.16093415 0.02072984 0.47578758 0.37268567
000010 71 76 f5 3e 73 e2 78 3e fe 64 23 be 03 a0 86 bc
       0.47941926 0.24305134 -0.15956494 -0.016433721
000020 00 1d 7b bc dc 75 2c be c8 27 8d be 00 b4 a4 ba
       -0.015326738 -0.16841835 -0.27569413 -0.0012565851
000030 db ae b2 3e 8d 7e 23 3e 4f c1 03 be 11 64 87 be
       0.3489903 0.15966244 -0.1286671 -0.26443532
000040 82 3b b5 be c8 17 8d 3d 00 c3 7d bb e0 c6 e8 be
       -0.35396963 0.068893015 -0.0038720965 -0.4546423
000050 73 37 ec 3e 2a 09 d8 3e bf b7 b2 3d f5 f4 d7 be
       0.46136054 0.42194492 0.08726453 -0.42179075
000060 3c 36 83 be 50 15 a2 3e 84 75 3d 3e 68 b7 ff bd
       -0.25627315 0.31656885 0.1850186 -0.12486154
000070 5e fd c7 be 00 7a 43 3d 80 80 fc bc 02 75 b8 be
       -0.3906049 0.04772377 -0.030822992 -0.3602677
000080 9c 48 a4 3b 3a 4d 4a be bb df 8e be bf 58 c4 3e
       0.0050135385 -0.19756022 -0.27905068 0.38348958
000090 df d2 da 3e 90 37 94 be e2 c3 d6 3e a5 a3 9c bd
       0.42739007 -0.2894864 0.41946322 -0.076484
0000a0 8a 58 f5 be 20 53 a4 bc b8 3a 24 be b8 f1 f5 be
       -0.47919112 -0.020059168 -0.16038024 -0.4803598
0000b0 9e 72 c1 be 8e dc 84 3e e8 4d e7 be f4 01 d5 be
       -0.37782758 0.2594952 -0.45176625 -0.41603053
0000c0 13 24 90 3e 08 6a 41 be d5 3e a8 be e6 82 d9 3e
       0.28152522 -0.18888104 -0.32860437 0.4248268
0000d0 02 2c 86 be 80 c3 ef 3e fe 44 9b be 26 b5 9a be
       -0.2620545 0.46828842 -0.30326074 -0.3021633
0000e0 88 d7 99 be 4c fb 45 be 60 25 8f 3d ea 1e f4 be
       -0.3004725 -0.19334143 0.069895506 -0.47679836
0000f0 a0 4b d3 be d0 1c 29 bd 3c ba d3 3e 9a 04 da 3e
       -0.41268635 -0.041287243 0.41353023 0.42581636

bias f4 [16]
000000 d0 78 76 bd 64 c9 cb be 90 c4 ec be 2f 30 00 3f
       -0.06017381 -0.39802086 -0.46243715 0.5007352
000010 7a 41 a6 3e 27 c1 7f be 62 fb d5 3e f8 58 de bd
       0.3247183 -0.24976026 0.41793352 -0.10856813
000020 0a 39 79 3e 18 5e 8a 3e d0 f3 6d 3e 78 9e 0a be
       0.24338165 0.27024913 0.23237538 -0.13537014
000030 e0 e3 99 3d 78 7b e5 be 36 e5 c8 be 20 64 c4 3e
       0.07514167 -0.44820762 -0.39237374 0.3835764

weight f4 [16, 16]
000000 60 32 34 bc f2 ca 64 3e 62 16 48 3e 13 06 0e 3e
       -0.010998338 0.22343042 0.19539788 0.13869505
000010 0e 7b 65 3e f9 da 86 3e 16 6b 17 3e 18 4f 28 3d
       0.22410223 0.26338938 0.14786944 0.041091055
000020 a5 a7 1b 3e 8c bf 48 be f4 3c d8 3d 70 31 4c 3e
       0.1520067 -0.1960432 0.10558501 0.19940734
000030 03 5e 64 3e ca f7 0e 3e 90 19 55 be 7c 77 fd 3d
       0.22301488 0.13961712 -0.20810533 0.123763055
000040 c0 77 f6 3b 38 a2 ac bd 48 ac 44 3d 48 19 21 bd
       0.0075215995 -0.08429378 0.048015863 -0.03933075
000050 98 67 ab 3d d4 d6 05 be fc a6 33 3e 80 8d ca 3c
       0.08369368 -0.13070232 0.17544168 0.024725676
000060 a0 50 1c bd b0 62 e6 3c d8 1c 29 3e a0 4a fb 3d
       -0.038162827 0.02812323 0.1651491 0.12270093
000070 a2 a2 54 3e 00 04 bd 3c c0 c0 ce 3b 40 24 03 3d
       0.20765164 0.023073196 0.0063095987 0.032016993
000080 a0 c3 e9 3d 44 39 9a bd b8 61 3f bd d8 4e 0b bd
       0.11414266 -0.07530454 -0.04672405 -0.034010738
000090 70 a7 00 3d 48 2a 4b bd 16 ca 17 3e b8 67 d4 3d
       0.03140968 -0.04960087 0.14823183 0.10371345
0000a0 8c 6d 30 3e a8 42 5a bd b0 81 6f 3e a0 aa d2 3d
       0.17229289 -0.053286225 0.23389316 0.102864504
0000b0 d8 32 0b bd d8 b7 ad bd d2 2b 7c 3e 2a 58 15 be
       -0.033984035 -0.08482331 0.24626091 -0.14584413
0000c0 60 45 ec bd 2c b4 3b 3e 02 5a 54 be 0a 91 51 be
       -0.1153667 0.18330449 -0.2073746 -0.20465484
0000d0 d0 0f b7 3c 02 83 14 be ec 20 ac 3d 40 95 e1 bc
       0.022346407 -0.145031 0.08404717 -0.027536988
0000e0 e0 16 de bc 0e 95 07 be c2 81 71 3e 40 51 47 3e
       -0.027110517 -0.13240454 0.23584655 0.19464588
0000f0 9c c9 62 be a4 bc 39 3e c0 57 f3 3b 7a 36 6a 3e
       -0.2214722 0.18138367 0.007426232 0.22872344
000100 d0 5b fd 3c 32 87 39 be 6c 55 90 3d 68 11 ad 3d
       0.030927569 -0.18117979 0.07047543 0.084505856
000110 a8 47 63 be a4 44 6e be 74 5c 52 be be a5 3c 3e
       -0.22195303 -0.23268372 -0.2054308 0.184226
000120 96 22 27 be d0 7e b9 3d 3a 9a 2e 3e 3a ae 28 be
       -0.16321787 0.09057391 0.1705102 -0.16472712
000130 a0 ca 9c bd da 84 3d 3e 14 b0 84 3d 78 05 0e bd
       -0.07655835 0.1850771 0.06478897 -0.034673184
000140 a0 cf 67 3e 23 48 e7 3d 88 81 47 be d3 74 c5 bd
       0.22637796 0.11293056 -0.19483006 -0.09641423
000150 16 26 71 be c7 0f ac bd 1c 56 f1 bd 4e 51 0f be
       -0.23549685 -0.08401447 -0.11784002 -0.13995859
000160 48 ea 17 be c4 1e 89 3e 60 d7 fe 3c 90 48 ca bc
       -0.14835465 0.26781285 0.031108558 -0.024692804
000170 f0 40 10 be 6c bf 34 3e b8 e3 f8 3d e4 38 0d 3e
       -0.14087272 0.17651147 0.12152809 0.13791233
000180 9a 5a 0f be d0 f2 11 3e f4 f8 75 3e eb 6c 0c 3d
       -0.13999406 0.14252782 0.2402075 0.03428356
000190 c0 fd f3 3c 14 64 42 3e 80 cf 6d be e0 94 1e 3d
       0.029784083 0.1898349 -0.23223686 0.038716197
0001a0 6d 4e 92 3e 63 83 27 be f0 d3 b2 bc 40 e3 d7 bd
       0.2857546 -0.16358714 -0.021829575 -0.105413914
0001b0 da b0 81 3e f0 7b 20 3d 00 48 fd 3d 18 8e 6d be
       0.2533024 0.039180696 0.123672485 -0.23198736
0001c0 18 8e bf 3d b2 42 45 3e 90 09 08 3d 80 ba e9 bc
       0.09353274 0.19263723 0.033212245 -0.028531313
0001d0 f6 8f 2f be 94 34 64 be 18 f2 7d be 84 f9 97 3d
       -0.1714476 -0.22285682 -0.24799383 0.07420638
0001e0 a0 c6 74 bc 6e 66 69 be 08 e7 60 bd 20 3d 7f bc
       -0.014939934 -0.2279298 -0.05490783 -0.015578538
0001f0 3a 8b 07 3e 52 1d 17 3e ac da 9d bd ec ec da bd
       0.13236704 0.14757279 -0.07707724 -0.106897205
000200 aa d8 2e be b5 1d 83 3e 68 a0 77 be f5 dc 3f 3d
       -0.17074838 0.25608602 -0.24182284 0.04684158
000210 9a 6b 39 be 40 31 c7 3d 5c a9 a2 bd d6 50 28 be
       -0.18107453 0.097261906 -0.07942459 -0.16437086
000220 b9 c9 b2 bc d3 4a 06 be c0 b0 4f 3e 78 ed a9 bd
       -0.021824704 -0.1311448 0.20282269 -0.08297247
000230 94 f7 49 3e 64 5a 53 be 68 d5 a2 3d 20 0b 7d be
       0.1972335 -0.2063995 0.0795086 -0.24711275
000240 e0 0d 63 3d 00 73 ce 3a 04 f6 9b bd 2c a0 01 be
       0.055433154 0.0015750825 -0.07615283 -0.12658757
000250 b6 5e 7c 3e 30 e7 ea bc 78 54 d6 3d 24 84 46 3e
       0.24645504 -0.028674692 0.1046533 0.19386345
000260 be db 50 be f0 a9 84 3c a0 ac ab 3d e0 25 d8 3d
       -0.20396325 0.016194314 0.08382535 0.10554099
000270 44 63 e0 3d f4 2a 03 be 80 77 f9 bb 3e 5b 3e be
       0.109564334 -0.12809354 -0.0076131225 -0.18589494
000280 a0 12 37 be 81 ca 6e be be 9e 24 3e c4 67 79 3e
       -0.17878199 -0.23319437 0.1607618 0.2435599
000290 48 36 04 3d cc f8 19 3d 20 88 58 3c 28 d7 c1 3d
       0.03227833 0.037590787 0.0132160485 0.09464866
0002a0 b4 8d 4b be 5e 75 fc bd d0 e4 48 3d 00 de 62 3c
       -0.19878274 -0.123270735 0.049046338 0.013846874
0002b0 4f ef 64 3e a8 9e 1c be 14 e5 6d be d4 c3 70 be
       0.22356914 -0.15294898 -0.23231918 -0.23512203
0002c0 c0 b5 57 3d 5f 82 82 3e 20 35 ab 3c 2c bb 2b bd
       0.052663565 0.2549009 0.020899355 -0.041926548
0002d0 78 16 5c be 08 3c 43 be 00 45 55 3c c8 04 c2 3d
       -0.21492946 -0.19065869 0.013016939 0.09473568
0002e0 04 93 a0 bd c3 9b 47 3e 92 e6 46 3e ca 6f 65 be
       -0.07840541 0.19493012 0.19423893 -0.22405925
0002f0 00 4a 28 3e e2 9c 61 be b0 87 37 3d b0 05 04 3d
       0.16434479 -0.22032502 0.044807136 0.032231987
000300 d8 8c 1b be 58 f3 3c 3e 00 81 ca 3b 94 07 5e 3e
       -0.15190446 0.18452203 0.006179929 0.21682578
000310 a2 c3 56 3e 30 34 d7 3d 88 52 5a 3d 5c 70 d2 3d
       0.20973065 0.10508001 0.053301364 0.10275337
000320 66 3b 63 3e 1f 34 0d be 4c 88 6a be 4e a6 05 3e
       0.22190627 -0.13789414 -0.22903556 0.13051721
000330 04 51 24 bd a0 a6 d7 3d 8e 47 7b 3e dc 08 11 be
       -0.040116325 0.10529828 0.24539015 -0.14163536
000340 44 25 a8 3d 5f 71 f8 3b 8e df 18 3e d9 36 7c 3e
       0.08210233 0.0075818743 0.1492903 0.24630298
000350 0c dd ad bd 75 e9 02 be 88 39 b7 bd 40 1e 96 3c
       -0.08489427 -0.1278437 -0.0894652 0.018324971
000360 63 9d 16 3e d6 97 07 3e 0e e6 64 3e 80 e7 ee bb
       0.14708476 0.13241515 0.22353384 -0.0072907805
000370 4f ad c4 3d 90 3f 38 be 48 2d 1e be 16 29 2e be
       0.096033685 -0.17992997 -0.15446961 -0.1700786
000380 58 12 21 3d 24 ec 58 be 84 7e 84 bd 18 21 69 be
       0.039324135 -0.2118383 -0.064694434 -0.2276653
000390 a4 0d 41 3e e0 6a f7 bd 4a b1 33 be dc d0 28 3e
       0.1885286 -0.12080932 -0.17548099 0.16485924
0003a0 64 6d aa bd 9c e5 13 be 48 2e b4 bd e8 1f 57 bd
       -0.08321646 -0.14443058 -0.0879789 -0.052520663
0003b0 64 6c d9 3d d2 80 74 3e 76 8c 1f 3e a0 38 b3 3d
       0.10616377 0.23877266 0.15580925 0.08751035
0003c0 96 1a 0a 3e 92 3c fd 3d cc 87 ab 3d 24 0f 42 3e
       0.13486704 0.123650685 0.083755106 0.18951088
0003d0 64 94 89 bd 9a 9f 59 bc b8 01 b4 3d 8c e6 0d be
       -0.067177564 -0.013282681 0.0878939 -0.13857478
0003e0 81 f8 88 3e b9 8b 17 3d f8 c9 5e 3e 70 83 02 be
       0.26752093 0.036998484 0.21756732 -0.12745452
0003f0 d9 09 97 bd 58 24 65 be a0 5c 71 be 9c c7 41 be
       -0.07374925 -0.22377145 -0.2357049 -0.18923801

bias f4 [16]
000000 4c 8a b3 bd 58 99 7a 3e 36 a0 00 be 88 d7 ac bd
       -0.087666124 0.24472558 -0.12561116 -0.08439547
000010 8c ec a8 3d 25 35 0a 3e 63 26 1e bd b0 4b 16 bd
       0.08248243 0.13496836 -0.038610827 -0.036693275
000020 42 d5 f1 bd 70 2e a4 3d 15 e8 2d 3e 48 96 cf bd
       -0.11808254 0.0801667 0.16983064 -0.10136086
000030 53 77 61 3e ba 70 3f 3e e8 b0 49 be 24 2f 7e 3e
       0.22018175 0.18695346 -0.1969639 0.2482267

weight f4 [32, 16]
000000 c7 8d 6a 3e 00 94 3d be 84 6e 12 3e 00 8c 90 bb
       0.22905646 -0.18513489 0.14299971 -0.0044112206
000010 00 dd 9e 3d 82 f3 00 3e fa 9b 8b bd b6 27 35 be
       0.07756996 0.12592891 -0.068168595 -0.1769093
000020 85 32 50 3e d8 25 17 3e 25 33 06 be 35 89 dc 3d
       0.20331772 0.1476053 -0.13105448 0.10768358
000030 17 d2 08 3e 7f c6 7a bd 32 30 62 be a6 38 9a bd
       0.13361393 -0.061224457 -0.22088698 -0.07530336
000040 85 70 4e 3b 08 2b ab 3d 72 3d 3b 3e 10 32 24 bd
       0.0031500172 0.08357817 0.18285158 -0.040086806
000050 f6 1a 57 3e 84 45 95 3d e0 58 39 be 00 00 25 3b
       0.21006379 0.0728865 -0.1810031 0.0025177002
000060 1b 87 e8 bd d4 9f cc 3d ae da db bd 02 7c 4d 3e
       -0.11353894 0.09991422 -0.10735069 0.20066836
000070 cf 1b 3c be 3d 86 07 be 54 c0 19 be ac 03 83 bc
       -0.18369983 -0.13234802 -0.15014774 -0.015992962
000080 56 70 af 3c 74 f9 08 3e ca e4 48 be 80 0d 4e bd
       0.02141587 0.13376409 -0.19618526 -0.050305843
000090 a0 22 8e 3d 7a 24 cf 3d 01 f9 e9 3d b8 9b fa 3d
       0.06940198 0.10114379 0.11424447 0.12236732
0000a0 c7 6f 05 3e 00 9d 9d 3b 84 1c 0e be 7c c7 1e 3d
       0.13030921 0.0048099756 -0.13878065 0.038764462
0000b0 b5 16 1a bd a5 80 11 3e d4 b3 83 3d 3e b0 aa 3d
       -0.03761931 0.1420923 0.06430784 0.08334397
0000c0 45 6e 0e be 40 2d 6a 3d d8 6b 45 be 70 1d 47 3d
       -0.13909252 0.05717206 -0.1927942 0.04861206
0000d0 f2 a7 59 3e 98 3f 52 3e cd e8 a3 3d 24 eb 22 3e
       0.21255472 0.20532072 0.080033876 0.15910012
0000e0 cd fe 34 3e 72 f3 7b 3e 1c 3a 7f 3e fa 6f a0 3d
       0.17675324 0.24604586 0.2492451 0.07833858
0000f0 3c 51 75 3d 4f 93 67 3e d8 c2 bc 3d 78 30 11 3e
       0.059891924 0.22614788 0.09216851 0.14178646
000100 e2 0d ec 3c 10 34 26 bd 28 5c fe 3d aa c2 09 be
       0.028815214 -0.040576994 0.12419921 -0.13453165
000110 9c b1 79 be 53 99 8a 3d ff 31 6d 3e 6c 57 5a be
       -0.24384159 0.067675255 0.23163603 -0.21322411
000120 58 fd 7b bd 70 77 97 bd f9 e1 69 be 62 80 6f be
       -0.061520904 -0.07395828 -0.22840108 -0.23388818
000130 da b7 30 3e 92 07 75 3e c8 e4 0f 3e 45 3f fa 3d
       0.17257634 0.23928669 0.14052117 0.12219099
000140 c5 90 5d 3e c4 7c 13 3e 40 d4 0a 3d fa 36 0e 3e
       0.21637256 0.14403063 0.033893824 0.1388816
000150 c8 2a 43 3d 7e 29 00 be 59 9d 38 3e 62 22 2d 3e
       0.04764822 -0.12515828 0.18028773 0.16907647
000160 ab f3 42 3d 28 f0 3f be 7f 0c dc bc e7 ff 1b be
       0.04759566 -0.18743956 -0.026861427 -0.15234338
000170 c2 82 91 bc 24 b6 df bd 6c 55 49 be 32 4f 28 3e
       -0.017762545 -0.109234124 -0.19661492 0.1643646
000180 08 50 02 be 20 ad 8c 3d 94 ce f1 3d fc 12 da 3d
       -0.12725842 0.068689585 0.1180698 0.10648152
000190 78 0e 2f bd d5 ed ac bc b5 71 4f bd c0 80 ed 3d
       -0.042738408 -0.0211095 -0.05064555 0.11596823
0001a0 f8 dc 4e be 68 8b 4a 3d 40 fe f8 bd 4a a7 66 be
       -0.2020148 0.049449354 -0.12157869 -0.22524753
0001b0 40 1a 5b be 2c 51 21 3e c0 e5 b9 3d 96 7d 40 be
       -0.21396732 0.15753621 0.090770245 -0.18797907
0001c0 d6 9f 64 be 62 88 19 be 74 de 05 be 6a 25 27 3e
       -0.22326598 -0.14993432 -0.1307314 0.16322866
0001d0 0c d6 e5 3d 09 0d 52 bd c5 2b 58 3e 7a 3c 77 3e
       0.11222467 -0.051281963 0.21110447 0.24144164
0001e0 8d a7 5d be e4 f2 04 3e bc b5 fb bd 79 44 e7 bd
       -0.21645947 0.1298328 -0.122905225 -0.11292357
0001f0 75 b9 cb bd 87 c6 db 3d 3c fb e9 bd 90 3c 38 3d
       -0.099474825 0.107312255 -0.11424872 0.044979632
000200 62 e8 3e bd 00 cb 66 3e dc f5 7b 3e 00 54 d5 bd
       -0.046608336 0.22538376 0.24605507 -0.10416412
000210 70 bf a7 bd 48 b8 84 be d4 f6 87 3d 40 e6 33 bc
       -0.08190811 -0.25921845 0.066388756 -0.010980189
000220 98 6d f9 3d fa 36 56 3e fb 3d 68 3e 3b 7f 8f bd
       0.121791065 0.2091941 0.22679894 -0.07006689
000230 a5 c9 f7 bc fd 03 6c bc 10 2d f5 bc 00 84 84 be
       -0.030247519 -0.014405248 -0.029928714 -0.25881958
000240 70 63 d1 3d ac 7f 3d 3e 10 b8 0b 3d da d0 5f 3e
       0.10224044 0.18505734 0.034111083 0.21857014
000250 f0 65 76 be 69 d8 46 bd 4e a7 5c be b8 dd e6 bd
       -0.24062324 -0.04854623 -0.21548197 -0.11272758
000260 2f a5 7c 3e 00 b1 46 bd 6d 1f e3 3d 56 e4 86 3e
       0.24672388 -0.048508644 0.11089978 0.26346081
000270 20 bf 6e 3e e8 4e a9 3d 50 d5 22 3e 53 a9 3d 3e
       0.23315096 0.08267003 0.15901685 0.18521623
000280 70 94 da 3d 2c cc ce bd 84 20 9d 3d 9c c3 5e 3e
       0.106728435 -0.100975364 0.076722175 0.21754307
000290 6a 13 1c 3e 07 3f 51 3d 56 77 cf bd 70 97 34 be
       0.15241781 0.0510855 -0.101301834 -0.17635894
0002a0 9d 56 b5 bb 82 b9 7d be 32 26 4d 3c 09 17 26 be
       -0.0055340067 -0.24777797 0.0125213135 -0.16219725
0002b0 c1 8d 40 be 82 17 59 be 80 86 c0 3c d6 de 97 3d
       -0.18804075 -0.21200374 0.023501635 0.074155495
0002c0 84 4d 90 3e ec 4f ee bd 26 eb 5b be 60 28 0b bd
       0.2818414 -0.11636338 -0.21476421 -0.03397405
0002d0 50 ac d2 bd b4 26 83 3e 94 7d 53 be 1c 60 cc bd
       -0.10286772 0.25615466 -0.20653373 -0.09979269
0002e0 53 2b 56 3c 56 fe 41 be 2e c8 19 3e 2e 83 28 3e
       0.013071853 -0.18944678 0.15017769 0.16456291
0002f0 76 5e c5 3d 75 37 be bd 1c 7d a3 bd 55 33 92 3d
       0.096371576 -0.09287921 -0.07982847 0.07138697
000300 09 cf 1e 3d 00 5d 74 3e 44 4d c6 3d 7c 3d 4f be
       0.038771663 0.23863602 0.09682706 -0.20238298
000310 1a 92 3d be 0f 14 e1 3d 35 e7 05 3e a6 71 59 3e
       -0.18512765 0.10990154 0.1307648 0.2123476
000320 f7 2c 08 3d 48 0e 0e 3e 03 a6 c4 bd 98 ec 06 3e
       0.033246007 0.13872635 -0.09601977 0.13176191
000330 33 21 56 3d f5 df 7c 3d 90 02 01 be 18 d5 a3 3c
       0.052277755 0.06173702 -0.12598634 0.019999072
000340 89 1f f4 3d 9c 72 04 3e 48 cc 36 3d 00 2b 36 3e
       0.11920077 0.12934345 0.04462841 0.1778984
000350 c8 8e 60 3e 28 75 62 3d 22 a4 06 3d 88 13 65 3e
       0.21929467 0.05528751 0.032871373 0.22370732
000360 34 ab 18 3e de ad 4a 3e b0 41 ef 3d 9d 9b c6 bd
       0.14909059 0.19792888 0.11682451 -0.0969765
000370 05 c3 06 3e d2 83 83 bd 44 2d 5b 3e 18 ed 21 be
       0.13160332 -0.06421627 0.21403986 -0.158131
000380 90 00 5b be c2 f9 35 be c0 bd 19 3d f8 c2 6d 3e
       -0.21386933 -0.17771056 0.037534475 0.23218906
000390 5a 24 79 be fb 19 68 be 7e 4c 8e bc d0 05 f4 bd
       -0.24330273 -0.22666161 -0.017370459 -0.11915171
0003a0 de 8d a7 3c 70 a0 c4 3d 0d 19 49 bd 43 92 74 3e
       0.02045339 0.096009135 -0.049096156 0.2388392
0003b0 18 54 cc 3d 9e 29 5b be e6 b7 73 be 28 1e 56 3d
       0.09976977 -0.21402594 -0.2380062 0.052274853
0003c0 35 7e 64 be ec 0d 71 be f0 e1 de 3d 66 aa 06 be
       -0.22313769 -0.23540467 0.10882938 -0.1315094
0003d0 aa 4b 14 3e 14 3a 02 3e 6f 35 31 bd 00 47 42 be
       0.14481989 0.12717468 -0.04326385 -0.18972397
0003e0 e6 6f 5a bc c8 b2 61 3d fe 6f 71 3c 12 cb 44 be
       -0.013332343 0.05510214 0.014736174 -0.1921809
0003f0 aa 0a 1d be b9 52 24 be 50 22 51 be 11 00 52 be
       -0.153361 -0.16047181 -0.20423245 -0.20507838

bias f4 [32]
000000 52 0e 67 3e 35 4d 1b 3e 69 f4 bb 3c 49 5c 96 3e
       0.22564057 0.15166171 0.022943692 0.29367283
000010 56 1c 71 3c ae 9b 43 be 7e 09 e1 bc f5 2c 91 be
       0.0147162285 -0.19102356 -0.027470347 -0.28354612
000020 e1 33 19 be 79 1f f4 bd 3c 60 4c 3e 1d e7 e4 bd
       -0.14961196 -0.119200654 0.19958586 -0.11176894
000030 f1 9d 5a 3d 47 b6 88 bd a8 fd df bd 98 15 dc 3d
       0.05337328 -0.06675392 -0.10937053 0.10746306
000040 4e 96 25 3e ff 8d 02 3e 12 26 ed bd dd d6 93 be
       0.16170618 0.1274948 -0.11579527 -0.28874865
000050 ce 84 38 be d4 92 de bd e8 a5 0c 3e 27 b7 f2 3d
       -0.18019411 -0.10867849 0.13735163 0.1185134
000060 57 e8 d0 3d 5e bb ea 3c 4d 90 e8 bc 56 b0 31 3d
       0.10200565 0.028653797 -0.02838912 0.043381058
000070 8d c3 3c be dd a8 ea 3d 7c 96 66 bd fe e3 ba bd
       -0.18433972 0.11457989 -0.056295857 -0.09125517

weight f4 [16, 2]
000000 e8 12 b8 3d e0 fb 71 3e c0 fd f2 3c a6 c4 7f be
       0.08987981 0.23631239 0.029662013 -0.24977359
000010 36 47 76 be 25 e7 09 3f 32 ca d8 3e c2 11 d8 be
       -0.24050602 0.53868324 0.42341763 -0.42201048
000020 73 f4 89 be b8 cf 84 3e 8b 4a a0 be b8 28 0b 3e
       -0.26944312 0.25939727 -0.31306872 0.13589752
000030 f5 16 1d bf c8 07 17 3e 9d 15 27 3f 9f 9d 11 3f
       -0.61363155 0.14749062 0.65267354 0.56881136
000040 50 22 50 3e c0 b7 23 bd 91 b8 08 3f 5c 53 d7 be
       0.20325589 -0.03997016 0.53406626 -0.42055786
000050 10 62 8d 3d 23 57 1a 3f f8 4b 87 3e 73 90 19 3f
       0.069034696 0.6028921 0.26425147 0.59986037
000060 8f be c5 be b0 25 8a 3e f2 88 1a bf 72 79 11 bf
       -0.38621947 0.26981878 -0.6036521 -0.56825936
000070 50 1c 9d bd 67 57 16 bf d8 ec 99 bd 15 c0 05 3f
       -0.07671416 -0.58727115 -0.075158775 0.5224622

bias f4 [16]
000000 74 41 21 3e 60 39 c2 3d e5 88 bd be 4c a1 0c be
       0.15747625 0.094836 -0.37018505 -0.13733405
000010 3f be 16 3f a1 a8 1d 3f be 57 0e bf 40 e3 0f 3c
       0.5888404 0.6158543 -0.55602634 0.008782208
000020 81 27 0f bf c7 5b c6 be 90 b4 0d be e6 91 d6 3e
       -0.55919653 -0.38741896 -0.1383841 0.41908187
000030 aa 8e 84 3e fe e2 ba 3e f0 d1 1d bd 98 ef bb 3d
       0.25890094 0.36501306 -0.03853029 0.09176558
