logs/通过减少类别测试数据分布是否是有效的/model.output_dim=5/test_model_20250420_180657.pth (torch, 315845 bytes, 32 tensors)

weight f4 [128, 1]
0	0xbee2c0f7	-0.44287845
1	0xbf3efcba	-0.7460438
2	0x3f1bbbcf	0.6083345
3	0x3eea3eda	0.45751077
4	0xbef75443	-0.48306474
5	0xbead15b4	-0.3380562
6	0xbf7c7e96	-0.98630655
7	0xbf66d155	-0.90163165
8	0x3f6517a7	0.89489216
9	0x3e49cafe	0.19706342
10	0x3f1557b8	0.58336973
11	0x3e100266	0.14063415
12	0xbed7a9c0	-0.42121696
13	0xbc99c7c0	-0.018772006
14	0x3e8e9fec	0.27856386
15	0xbd706125	-0.058686394
16	0x3e6649c5	0.22489078
17	0x3e791ea8	0.243281
18	0x3ebe9480	0.37222672
19	0x3ef975e8	0.48722768
20	0xbf23edd0	-0.6403475
21	0xbee8a8b6	-0.45441216
22	0xbeae0281	-0.33986285
23	0x3f437692	0.763528
24	0xbf5536e0	-0.8328686
25	0xbebe3876	-0.3715245
26	0xbe954ff5	-0.29162565
27	0xbe2df11a	-0.16986504
28	0x3f6a8d9c	0.9162233
29	0x3f66b4dc	0.9011972
30	0xbe5bb26f	-0.21454786
31	0x3d3822a0	0.044954896
32	0xbe8f90aa	-0.28040057
33	0xbf43903f	-0.7639198
34	0xbf4c2656	-0.79745996
35	0x3f2c0542	0.6719552
36	0x3ec5bd08	0.38620782
37	0x3f29fb29	0.66398865
38	0x3eca914d	0.3956398
39	0xbea43008	-0.32067895
40	0x3ecdc499	0.40189055
41	0x3f24ee44	0.64426064
42	0x3f8527ce	1.0402772
43	0x3db3f349	0.08786637
44	0x3ec67cd3	0.38767108
45	0xbf5c96dc	-0.86167693
46	0x3f199284	0.5998919
47	0xbb02f24d	-0.0019980848
48	0xbf13ab3d	-0.57683164
49	0xbeeb9aca	-0.46016532
50	0xbdcfc5e0	-0.101451635
51	0x3de3375f	0.110945456
52	0xbe98b9fe	-0.298294
53	0x3f45956f	0.7718114
54	0xbe997506	-0.29972094
55	0xbf32c78e	-0.69835746
56	0x3edd4434	0.43216097
57	0xbf22824f	-0.63480085
58	0x3e3966c0	0.18105602
59	0xbecc9be0	-0.39962673
60	0x3f156ce4	0.5836928
61	0x3ed7b500	0.4213028
62	0xbf62dfbd	-0.8862265
63	0x3f2e4d8b	0.6808707
64	0x3f17a58e	0.5923699
65	0x3e613b98	0.2199539
66	0x3c720280	0.014771104
67	0xbea0a952	-0.3137918
68	0xbf36c39f	-0.71392244
69	0x3de17b77	0.11009877
70	0xbe876d8d	-0.26450768
71	0x3ebc1af1	0.36739305
72	0xbf503e1c	-0.8134477
73	0xbf5dbddc	-0.8661783
74	0x3f701fc2	0.9379846
75	0xbf6eceb2	-0.9328414
76	0xbd759239	-0.059953902
77	0x3f0ac892	0.54212296
78	0xbe080b78	-0.13285625
79	0x3ef56b8c	0.47933614
80	0x3f65ae0b	0.89718693
81	0x3f222e10	0.63351536
82	0x3f765758	0.96227026
83	0xbf2e063e	-0.67978275
84	0x3e7bed90	0.24602342
85	0x3f71c7fa	0.94445765
86	0xbf459b78	-0.7719035
87	0x3d9c0ae0	0.07619262
88	0xbf130a6e	-0.5743779
89	0xbe0cec81	-0.13762094
90	0xbe213010	-0.1574099
91	0x3eee5630	0.4655013
92	0x3f49912b	0.78737134
93	0x3e9caf78	0.30602622
94	0xbecba2fe	-0.3977279
95	0xbf4472d8	-0.7673774
96	0xbf0decdd	-0.5543955
97	0xbef6372b	-0.48088965
98	0xbf3e394e	-0.7430619
99	0xbf5a57a8	-0.8529
100	0xbf7bd246	-0.98367727
101	0xbcf7d340	-0.030252099
102	0xbd366aa4	-0.044535294
103	0x3f7fe1e5	0.9995406
104	0x3cb55ec5	0.022139916
105	0xbf27f23e	-0.6560401
106	0xbee5458f	-0.44779631
107	0xbef5a058	-0.47973895
108	0x3e85678b	0.2605556
109	0x3f627c2f	0.8847074
110	0xbf582670	-0.8443365
111	0x3ee29cda	0.44260293
112	0x3f7863b4	0.97027135
113	0x3eacc356	0.3374278
114	0xbf740573	-0.95320815
115	0xbec2e58c	-0.38065755
116	0xbe751fc3	-0.23937897
117	0xbf75a721	-0.95958143
118	0x3d08dce0	0.033413768
119	0xbefeff10	-0.49803972
120	0xbe8c8f67	-0.27453157
121	0x3f083a21	0.532137
122	0xbf1d0317	-0.6133284
123	0xbeacc135	-0.33741155
124	0xbf2c9194	-0.67409635
125	0x3ec36834	0.38165438
126	0xbf1fa7b6	-0.6236528
127	0x3f3c078b	0.7344901

bias f4 [128]
0	0x3f2f223e	0.68411624
1	0xbd4b5524	-0.049641743
2	0xbeedbeea	-0.46434718
3	0xbe38d1f8	-0.18048847
4	0xbe9d607b	-0.3073767
5	0x3edf8be9	0.4366143
6	0x3f29b8d5	0.66297656
7	0xbe96c9f3	-0.2945095
8	0xbf36e3f5	-0.71441585
9	0xbcd603f9	-0.026124941
10	0xbcf745c3	-0.030184632
11	0x3f3a552c	0.7278621
12	0xbf14eb34	-0.5817139
13	0xbf3ba222	-0.7329427
14	0xbf6d940e	-0.9280404
15	0x3f6095b7	0.87728447
16	0x3e3931fa	0.18085471
17	0xbee8b934	-0.454538
18	0xbebf1bb8	-0.37325835
19	0x3ed86c72	0.42270237
20	0x3f738139	0.95119053
21	0x3f3351f3	0.7004692
22	0xbd38d94e	-0.045129113
23	0xbf6bcf0a	-0.9211279
24	0x3f41b0b6	0.75660264
25	0x3ee91095	0.45520464
26	0x3eb55e84	0.35423672
27	0x3f3e8638	0.7442355
28	0x3f84feef	1.03903
29	0x3d840a39	0.06447262
30	0x3e83ddfc	0.25755298
31	0xbe5830c8	-0.21112359
32	0xbda7b98b	-0.081896864
33	0xbcfb8fda	-0.030708242
34	0xbf6d871e	-0.927843
35	0xbf681062	-0.9065
36	0x3dba3150	0.09091437
37	0xbf0db74d	-0.5535782
38	0x3d94b196	0.07260434
39	0xbf63ddb0	-0.89010143
40	0x3dcbcfa2	0.09951712
41	0x3e3c79eb	0.18405883
42	0x3f70a99c	0.94008803
43	0x3e011598	0.12605894
44	0x3d410e3d	0.04713272
45	0xbeb23f2b	-0.34813818
46	0xbecc7775	-0.39934888
47	0x3e967791	0.29388097
48	0x3eba3eb0	0.36375952
49	0xbef12206	-0.4709627
50	0xbf72cbb2	-0.94842064
51	0x3f63e5e4	0.8902266
52	0x3d3f3386	0.046679996
53	0x3f38ad86	0.72139776
54	0x3f232285	0.6372455
55	0xbeeea9bb	-0.4661387
56	0xbf04882a	-0.5177027
57	0x3f7aee86	0.9802021
58	0xbf6cc228	-0.9248376
59	0xbf6354fc	-0.8880155
60	0x3d0cbbf1	0.034358922
61	0xbf29cc06	-0.6632694
62	0x3f1924bb	0.5982167
63	0xbf1044e3	-0.5635511
64	0xbe92e4ca	-0.28690177
65	0xbf31e1c6	-0.6948513
66	0xbf11cfee	-0.569579
67	0x3e8291af	0.25501773
68	0xbe96490d	-0.29352608
69	0x3f2d7a2b	0.6776454
70	0x3ddca9cf	0.10774576
71	0xbd4cc267	-0.049990084
72	0xbdf6b601	-0.12046433
73	0xbf2fddb8	-0.6869769
74	0x3f309a00	0.68984985
75	0x3f50b81d	0.81530935
76	0x3f613a82	0.879799
77	0xbf66027e	-0.8984755
78	0xbee893c0	-0.45425224
79	0xbf0c0d8a	-0.5470816
80	0xbeae2269	-0.34010628
81	0xbf2721be	-0.6528586
82	0x3f767d09	0.9628454
83	0xbe1f6aa0	-0.15568018
84	0xbf2f267a	-0.68418086
85	0x3f353482	0.70783246
86	0x3f56b23c	0.83865714
87	0xbef62008	-0.48071313
88	0x3ebe350b	0.37149844
89	0x3d986875	0.074417986
90	0xbf522372	-0.82085335
91	0xbf7b229a	-0.9809967
92	0x3d449823	0.04799665
93	0xbf228af8	-0.634933
94	0x3f70dbe8	0.9408555
95	0xbf04fdb8	-0.51949644
96	0x3f629e5a	0.88522875
97	0x3f84c626	1.037297
98	0xbf6c6302	-0.92338574
99	0x3ed53f68	0.41649938
100	0xbf00fe5e	-0.50388134
101	0xbe8168c4	-0.25275242
102	0x3ebe1693	0.37126598
103	0xbf048207	-0.51760906
104	0x3e1b0662	0.15139154
105	0xbf7d6cfa	-0.9899441
106	0x3f3cdcd7	0.73774475
107	0xbf5ed096	-0.87037027
108	0x3f67a53a	0.9048649
109	0xbead1358	-0.3380382
110	0x3f68984a	0.90857375
111	0x3eaa2433	0.33230743
112	0x3e9f1f3d	0.3107852
113	0xbe671a99	-0.2256874
114	0x3f6f97c3	0.93590945
115	0x3f2a87fa	0.66613734
116	0x3f333b8e	0.7001275
117	0xbef2517d	-0.47327796
118	0xbf2e3ce2	-0.6806165
119	0x3c9329ce	0.01796427
120	0x3f2a29ea	0.66470206
121	0xbd999f19	-0.075010486
122	0x3eb7387c	0.35785282
123	0x3ef727b1	0.4827247
124	0x3e822259	0.2541683
125	0xbedfd030	-0.43713522
126	0x3f038a31	0.5138274
127	0x3f48d261	0.7844601

weight f4 [16, 128]
0	0xbdeec686	-0.11658959
1	0xbd6e4eb0	-0.05818051
2	0xbaf55e71	-0.0018720162
3	0xbdc417e1	-0.09574867
4	0xbde76e54	-0.1130034
5	0xbdc84bfa	-0.097801164
6	0x3c939d42	0.018019322
7	0xbc0b1bf0	-0.008490548
8	0x3d3dda16	0.04635056
9	0x3d0ff721	0.03514779
10	0xbcaad93e	-0.020855542
11	0xbdf0a5fe	-0.117504105
12	0xbd18aa8b	-0.037272017
13	0x3bae4da0	0.005319312
14	0xbd65c4ff	-0.056096073
15	0x3c882574	0.016619422
16	0xbdb92acc	-0.09041366
17	0xbd3a33e7	-0.045459654
18	0xbd808c87	-0.062768035
19	0x3cad2f02	0.02114058
20	0xbdb977cd	-0.09056053
21	0xbdbab301	-0.091161735
22	0x3d6b7dd2	0.05749304
23	0x3d7bac3e	0.06144356
24	0xbdf4c23e	-0.11951111
25	0x3d121d80	0.035672665
26	0xbddb352c	-0.10703501
27	0x3ad3db45	0.001616337
28	0xbdca8d27	-0.09890204
29	0x3d2368f3	0.03989501
30	0xbc80406b	-0.015655717
31	0xbd14177c	-0.03615521
32	0xbcef0d06	-0.029181015
33	0xbdbda3b8	-0.092597425
34	0x3ca52f20	0.020164073
35	0x3c2b7e98	0.010467194
36	0xbd0a865b	-0.033819538
37	0x3d025134	0.031815723
38	0xbd625d84	-0.055264965
39	0x3db368f1	0.0876025
40	0xbc47bf88	-0.012191661
41	0xbdae2d02	-0.08504678
42	0xbda19786	-0.07890229
43	0x3ce5c015	0.028045693
44	0xbc9d4fab	-0.019203028
45	0xbdca6be0	-0.09883857
46	0xbd227247	-0.039659765
47	0xbd904de7	-0.07046109
48	0xbb986ea5	-0.0046518617
49	0xbb095a52	-0.0020958376
50	0x3d15f6de	0.036612384
51	0x3c609b95	0.013708969
52	0x3cbdd6c1	0.023173692
53	0xbc9fd0c2	-0.019508723
54	0xbe02b5aa	-0.12764612
55	0xbc0acffc	-0.008472439
56	0x3c3bdd78	0.0114663765
57	0xbd527b99	-0.051387403
58	0x3d879653	0.06620469
59	0x3d2d3fbe	0.042297117
60	0xbcb9f4a9	-0.02269967
61	0xbda6141f	-0.081093065
62	0xbbf7a9d7	-0.0075580883
63	0xbd9bffb1	-0.07617129
64	0x3b5faa43	0.0034128584
65	0x3d5aa31a	0.053378202
66	0xbd965af4	-0.07341567
67	0x3b4d4162	0.0031319489
68	0xbd81f610	-0.06345761
69	0xbdb82bb9	-0.089927144
70	0xbd5edbaa	-0.054408707
71	0x3d1de7a3	0.038550984
72	0xbd5fc98b	-0.054635566
73	0xbdd17081	-0.102265365
74	0xbc87e1dc	-0.01658719
75	0xbd7618cd	-0.060082246
76	0xbdde1741	-0.10844279
77	0x3d651a62	0.055933364
78	0x3d512a5a	0.05106578
79	0x3da3fbf7	0.08007043
80	0x3d388241	0.045046095
81	0xbd8bd8b3	-0.068284415
82	0xbdb3fe36	-0.08788721
83	0xbd15b554	-0.03654988
84	0xbdaca0e0	-0.08429122
85	0xbd7504d1	-0.059819046
86	0xbd6b75b9	-0.057485316
87	0xbcae4550	-0.021273285
88	0xbdcfbcb4	-0.10143414
89	0xbd37170d	-0.044699717
90	0xbd85542a	-0.06510194
91	0xbd2df56b	-0.042470377
92	0xbdeafac0	-0.11473608
93	0x3cf66084	0.03007532
94	0xbd4034ae	-0.04692524
95	0xbd8ce66f	-0.06879889
96	0xbce7f77d	-0.028316254
97	0xbde725f6	-0.11286537
98	0xbd75fec0	-0.0600574
99	0xbdc8e537	-0.09809344
100	0xbdb04348	-0.08606583
101	0x3d50692a	0.050881542
102	0x3cf8df78	0.030379996
103	0x3ba7eb8b	0.0051245145
104	0xbdb1c16c	-0.086794704
105	0xbcaa148c	-0.02076175
106	0x3c0ffcfe	0.008788345
107	0xbd2a4afa	-0.04157541
108	0x3d098f52	0.033583947
109	0xbdcaeb29	-0.099081345
110	0xbcefcf78	-0.029273733
111	0x3cb45864	0.022014804
112	0xbc4e2d50	-0.0125840455
113	0xbdbb98d7	-0.09160011
114	0xbdf1549c	-0.11783716
115	0x3d15f635	0.036611754
116	0xbde11f69	-0.10992319
117	0x3cbf346b	0.023340425
118	0x3c7f7e60	0.015594095
119	0x3d1430ff	0.03617954
120	0xbd81f77d	-0.06346033
121	0xbdd1bc51	-0.10240997
122	0x3b949cc4	0.0045352895
123	0xbda404b5	-0.0800871
124	0x3a1e6a77	0.0006043086
125	0x3aec44c0	0.001802586
126	0x3c37bea8	0.01121489
127	0xbd1fa696	-0.038977228
128	0x3ca66d00	0.020315647
129	0xbcda4491	-0.026644023
130	0xbb63d8f4	-0.0034766765
131	0x3d2b7d95	0.04186781
132	0xbcd0ee81	-0.025504353
133	0x3d254681	0.04035044
134	0xbd635229	-0.055498276
135	0x3da2621e	0.079288706
136	0x3c8bc5f7	0.01706217
137	0x3db36f51	0.08761466
138	0x3d81a6e3	0.06330659
139	0x3dc27970	0.094958186
140	0x3d54a992	0.051919527
141	0xbb832160	-0.0040017813
142	0x3c82091c	0.015873484
143	0x3d7f6e9d	0.06236135
144	0x3dddfcd6	0.1083924
145	0xbdaf8cbf	-0.08571767
146	0x3c3a6948	0.01137764
147	0x3db8e15e	0.090273604
148	0xbcab4e78	-0.02091144
149	0x3d3c4e13	0.045972895
150	0xbc8656ab	-0.016398748
151	0xbc9d8aac	-0.019231163
152	0x3dd54d69	0.104151554
153	0x3dfb6b91	0.12276376
154	0x3cd56e64	0.026053615
155	0xbca611af	-0.020272104
156	0x3deb837d	0.11499689
157	0x3dc7f188	0.09762865
158	0xba9143ef	-0.0011082868
159	0x3cb07884	0.021541841
160	0xbd302b8c	-0.04301028
161	0x3d45b873	0.048271608
162	0x3d011906	0.031518005
163	0x3d1c2bae	0.038127594
164	0x3d38e775	0.04514261
165	0x3dd17b9a	0.10228653
166	0x3de2ad20	0.11068177
167	0xbd6b1e52	-0.057401963
168	0x3e034b87	0.1282178
169	0x3d0fe017	0.035125818
170	0x3dd28866	0.10279922
171	0xbd0381ae	-0.032106094
172	0x3d939fe6	0.072082326
173	0x3c671f9c	0.014106657
174	0x3ca7076e	0.020389285
175	0xbcfa1b8e	-0.030530717
176	0xbc13e55e	-0.009026853
177	0xbccb50c4	-0.024818785
178	0x3d321e76	0.04348608
179	0x3da72945	0.081621684
180	0xbcafff3b	-0.021484008
181	0x3d11d955	0.035607655
182	0x3d9f75e0	0.07786155
183	0x3d840a91	0.06447328
184	0xbdad7e84	-0.084713966
185	0x3da8a3f7	0.08234399
186	0xbbeaf9f0	-0.007170908
187	0xbd882697	-0.066479854
188	0xbca5ed8b	-0.02025487
189	0x3d04bfb0	0.03240937
190	0xbd118568	-0.035527617
191	0x3bf24313	0.00739325
192	0x3de71069	0.11282427
193	0xbc63d960	-0.013906807
194	0x3d8084e1	0.06275345
195	0xbcadb33c	-0.02120363
196	0xbcedcde6	-0.029028844
197	0x3dc1b2b2	0.094579116
198	0xbd6628f4	-0.0561914
199	0x3d475281	0.048662666
200	0xbafc13d0	-0.0019231979
201	0x3cc407ea	0.023929555
202	0xbd0d574f	-0.034507092
203	0x3d1cc557	0.038274135
204	0x3d9fc124	0.078005105
205	0x3d311906	0.043236755
206	0xbd237cc7	-0.03991392
207	0x3ca7fc6c	0.020506106
208	0x3cb054aa	0.021524746
209	0x3ba35790	0.0049848035
210	0x3d16d4c1	0.03682399
211	0x3c5b0b3e	0.01336938
212	0xbd771374	-0.060321286
213	0x3e06dcae	0.1317012
214	0x3d0ac327	0.033877518
215	0x3dabcbef	0.083885066
216	0x3d48555c	0.04890953
217	0xbd85961b	-0.06522771
218	0x3d59362a	0.05303017
219	0x3d1f9c9a	0.038967706
220	0xbce39dba	-0.02778517
221	0x3cc9a370	0.024614066
222	0x3dffb36d	0.124853946
223	0x3d7bfdc5	0.06152131
224	0x3db09377	0.08621877
225	0x3c80fdd9	0.015746044
226	0x3d8b315f	0.06796526
227	0x3c13ca31	0.009020374
228	0xbd525be7	-0.051357176
229	0x3d9173c1	0.071021564
230	0xbb1af1cf	-0.0023642664
231	0x3d03bd3f	0.0321629
232	0x3cab71dc	0.020928316
233	0x3d836d93	0.06417384
234	0xbc89de1c	-0.016829543
235	0x3b2c09a0	0.0026250854
236	0xbca381b3	-0.019959306
237	0xbc659c26	-0.0140142795
238	0x3d5c0ffe	0.05372619
239	0x3d37d015	0.044876177
240	0x3ca61d3d	0.020277614
241	0x3cf997d8	0.030467913
242	0x3daa0071	0.083008654
243	0x3df0a727	0.11750632
244	0x3c2b33a4	0.010449324
245	0x3d9c9356	0.076452896
246	0x3da88747	0.08228927
247	0xbc698207	-0.014252192
248	0x3e0ae5d9	0.13564242
249	0x3d4c7880	0.049919605
250	0xbcb8d9a1	-0.022564711
251	0x3d72c7f6	0.05927273
252	0x3d81b2a6	0.063329026
253	0x3ce5fe9c	0.028075509
254	0x3c618ba1	0.0137662
255	0x3d7fb9aa	0.062432922

bias f4 [16]
0	0x3cbd4db0	0.023108333
1	0x3db2864d	0.08717022
2	0x3d033f90	0.03204304
3	0xbde98773	-0.11402788
4	0xbcaa0b40	-0.020757318
5	0x3d8c0780	0.06837368
6	0x3c15e3d6	0.009148559
7	0xbde7ea1d	-0.113239504
8	0xbcd7d0bd	-0.026344651
9	0xbdc115a3	-0.09427955
10	0x3d9265ed	0.07148347
11	0x3c8dbd06	0.017302047
12	0xbdfd6faa	-0.12374814
13	0x3d036acc	0.03208427
14	0xbc8c293b	-0.017109504
15	0x3dee7855	0.11644045

weight f4 [16, 2]
0	0x3ed485ed	0.41508427
1	0xbf05b39a	-0.52227175
2	0x3e292b42	0.16520408
3	0x3eaff169	0.3436387
4	0x3e241d42	0.16026786
5	0xbf250108	-0.644547
6	0x3ec56416	0.38552922
7	0xbec0e71e	-0.37676328
8	0x3e52ee60	0.20598745
9	0x3f343dd5	0.7040685
10	0xbf2a1648	-0.6644025
11	0x3f370048	0.71484804
12	0x3e62400c	0.22094744
13	0xbf07e29e	-0.53080165
14	0x3f35b092	0.7097255
15	0x3ef17200	0.47157288
16	0xbf34ddfe	-0.70651233
17	0xbf13bdce	-0.57711494
18	0xbddd356d	-0.10801206
19	0x3e4d87a1	0.2007127
20	0x3eee610b	0.46558413
21	0xbf075065	-0.5285705
22	0x3ea404cf	0.3203492
23	0xbeb21204	-0.3477937
24	0xbe724769	-0.23660053
25	0x3efdfe5c	0.49608123
26	0xbf10b9fc	-0.5653379
27	0x3ecd372f	0.40081164
28	0x3e1719e5	0.14755972
29	0xbf15ff0a	-0.58592284
30	0x3de197ba	0.11015268
31	0x3f02a66a	0.5103518

bias f4 [16]
0	0xbf0a2da9	-0.5397592
1	0x3f394a86	0.7237934
2	0xbe8aba50	-0.2709527
3	0xbe1a2122	-0.15051702
4	0xbee09e4f	-0.4387078
5	0x3e85e22a	0.26149112
6	0xbec17b3c	-0.37789333
7	0x3ee994bd	0.4562129
8	0x3e5f8768	0.21828997
9	0xbf19421e	-0.5986651
10	0xbf239cc3	-0.63911074
11	0x3f2d6dc6	0.67745626
12	0x3e0bf117	0.13666187
13	0x3ec6916d	0.38782826
14	0xbf08e344	-0.5347178
15	0x3c0935c5	0.008374636

weight f4 [16, 16]
0	0x3e60c45a	0.21949902
1	0x3e3de674	0.18544942
2	0xbb09b040	-0.0021009594
3	0xbdcb41c6	-0.09924655
4	0xbe1fda8b	-0.15610711
5	0x3e522bf5	0.20524581
6	0x3d6704b0	0.056400955
7	0x3e68e084	0.22741896
8	0xbda60310	-0.08106053
9	0x3e821296	0.25404805
10	0xbdb44a3c	-0.088032216
11	0xbe4b63fa	-0.19862357
12	0x3cab653e	0.0209223
13	0xbd8aa579	-0.06769843
14	0xbd115dae	-0.03548973
15	0x3e3e7a30	0.18601298
16	0x3d4fd848	0.05074337
17	0xbcee02f4	-0.029054143
18	0x3db3e7bc	0.08784434
19	0x3ded18e0	0.1157701
20	0x3d407e53	0.046995472
21	0x3da7fbf4	0.08202353
22	0xbc2fd2c0	-0.010731399
23	0xbe6a5fb1	-0.22888066
24	0x3bc19640	0.005907804
25	0x3dc3c73f	0.095594876
26	0x3e307b5c	0.17234558
27	0xbe15fb0a	-0.14646545
28	0x3d33c9b4	0.04389353
29	0xbdeb90b6	-0.11502211
30	0xbe154b36	-0.14579472
31	0x3e20adde	0.15691325
32	0xbda81560	-0.08207202
33	0x3d150a08	0.03638652
34	0xbd7486ad	-0.05969875
35	0x3d46e1c3	0.048555147
36	0xbe810a4f	-0.25203177
37	0x3e6327f2	0.22183207
38	0xbe7bed41	-0.24602224
39	0x3e1cc424	0.15309197
40	0x3d6d8e70	0.057997167
41	0x3e20e7d1	0.15713431
42	0xbcf82c80	-0.030294657
43	0x3e118ae3	0.14213137
44	0xbde7d6e8	-0.11320287
45	0x3df17255	0.11789385
46	0xbe369e8b	-0.17833917
47	0x3d698b8f	0.05701786
48	0xbc28c13d	-0.010299978
49	0x3e180188	0.14844334
50	0xbe7f9c1e	-0.24961898
51	0xbe043454	-0.12910587
52	0x3e71ae38	0.23601615
53	0x3e3ce62f	0.18447183
54	0xbe009e9a	-0.12560502
55	0x3a98cff4	0.0011658655
56	0x3e43e808	0.19131482
57	0xbe3e0b72	-0.18559054
58	0x3d3a8476	0.04553648
59	0x3e118064	0.14209133
60	0x3c5e623b	0.013573225
61	0xbbdf47ed	-0.006813994
62	0xbb3bf56e	-0.0028680223
63	0x3e6f00f3	0.23340206
64	0x3e60f343	0.21967797
65	0xbe382e96	-0.17986521
66	0xbe1904c3	-0.14943223
67	0xbd7eaf99	-0.06217918
68	0x3dfca5d6	0.12336318
69	0x3e5607f1	0.20901467
70	0x3e6644bd	0.22487159
71	0x3e49abf9	0.19694509
72	0x3e31b25e	0.17353198
73	0x3e57703c	0.21038908
74	0x3d86ea42	0.0658765
75	0x3dd0e914	0.10200706
76	0xbdba379e	-0.090926394
77	0x3d2e8166	0.042603873
78	0xbe2cc5ad	-0.16872282
79	0x3e01a719	0.12661399
80	0xbe5139a6	-0.20432147
81	0x3dee7108	0.11642653
82	0xbda6f142	-0.08151485
83	0x3ce7f6cb	0.028315922
84	0xbd93d4cf	-0.072183244
85	0x3e56cabc	0.20975775
86	0xbd5f6371	-0.054538194
87	0x3e180bc0	0.14848232
88	0xbe2d0990	-0.16898179
89	0x3d454972	0.048165746
90	0xbdfc8c56	-0.123314545
91	0x3d6300b8	0.055420607
92	0xbe419171	-0.18903138
93	0x3c3af759	0.011411511
94	0x3e0f41be	0.13989922
95	0x3da8ba27	0.08238631
96	0xbd3ee3c3	-0.04660393
97	0x3e36b4e2	0.17842439
98	0xbdf1e9f8	-0.11812204
99	0xbe3f1a3b	-0.1866235
100	0x3e6b0d1b	0.22954218
101	0x3e322ce7	0.17399941
102	0x3e438a10	0.19095635
103	0xbd3575b6	-0.04430171
104	0xbd89aff4	-0.067230135
105	0x3e29d629	0.16585602
106	0xbe00c743	-0.12576012
107	0xbe6dd2ec	-0.23224992
108	0x3de8fdd4	0.11376539
109	0xbd7f688e	-0.06235557
110	0x3e79e57e	0.2440395
111	0xbe1497e3	-0.14511065
112	0x3e1d7804	0.15377814
113	0x3d8a4fb7	0.06753486
114	0xbdbadc15	-0.091240086
115	0xbe523722	-0.20528844
116	0xbe028ae1	-0.1274829
117	0xbe322976	-0.17398629
118	0xbb95c326	-0.0045703826
119	0x3dcf0e49	0.101101466
120	0x3d7d88c0	0.061897993
121	0x3c8f0d46	0.017462384
122	0xbd90505a	-0.07046576
123	0x3e290d85	0.16509064
124	0x3e722ae6	0.23649177
125	0x3e0e2929	0.13882889
126	0xbe31e8c2	-0.17373946
127	0x3e7c0600	0.24611664
128	0x3e674658	0.22585428
129	0xbd84d6d0	-0.06486285
130	0x3da450d1	0.08023227
131	0xbe5516d9	-0.20809497
132	0x3d8a42fb	0.06751057
133	0xbdbe4c55	-0.09291903
134	0xbe000f87	-0.12505923
135	0x3e6ba519	0.23012199
136	0x3e30eb86	0.17277345
137	0x3d9f9ad3	0.07793202
138	0x3dd7bbf1	0.10533894
139	0xbe6fe3fe	-0.23426816
140	0x3da02daf	0.078212135
141	0x3ce8120f	0.028328924
142	0xbda268d7	-0.07930153
143	0xbe448991	-0.19193102
144	0x3d9c8858	0.07643193
145	0x3d980eac	0.074246734
146	0xbe6b617c	-0.22986406
147	0xbe67ea08	-0.2264787
148	0xbe486550	-0.19569898
149	0xbe17c84c	-0.14822501
150	0x3ccb0650	0.024783283
151	0xbd3d7108	-0.046250373
152	0x3da746d0	0.08167803
153	0xbdb95238	-0.09048885
154	0xbbb1dac0	-0.0054276884
155	0x3e1f7b66	0.15574417
156	0xbe7bfcaa	-0.24608102
157	0x3e041ad0	0.12900853
158	0xbe3a2db2	-0.18181494
159	0x3e5eab5c	0.21745056
160	0xbe064d40	-0.13115406
161	0xbad0db11	-0.0015934428
162	0x3d450bc9	0.048106942
163	0x3dfe9c7a	0.12432189
164	0x3e1b1996	0.15146479
165	0x3e4034b2	0.18770102
166	0xbd6e21b1	-0.0581376
167	0x3df1355d	0.11777756
168	0x3d28f220	0.041246533
169	0x3e731c2f	0.2374122
170	0x3dcde642	0.10053684
171	0x3de6528c	0.11246213
172	0xbe5a5746	-0.21322355
173	0xbdec7ecb	-0.11547621
174	0x3d976432	0.073921576
175	0x3e0ee229	0.13953461
176	0x3e2876f8	0.16451633
177	0x3e7c8ef7	0.24663912
178	0x3cca9911	0.02473119
179	0xbd6fd384	-0.058551326
180	0x3e657ec3	0.22411637
181	0x3dcc7546	0.09983306
182	0x3e6200ff	0.22070692
183	0xbce9bd11	-0.028532537
184	0x3c42ce40	0.011889994
185	0x3cc0c0fe	0.023529526
186	0x3d70740f	0.058704432
187	0x3e5c2a62	0.21500543
188	0x3e60a38b	0.21937387
189	0xbd043396	-0.03227576
190	0x3d7293b1	0.05922288
191	0x3e2f281a	0.17105141
192	0xbdda6787	-0.106642775
193	0x3e195d9c	0.14977115
194	0xbe1244b1	-0.14284016
195	0xbcff3670	-0.031153888
196	0xbe320f1b	-0.17388575
197	0x3e3a95a6	0.18221149
198	0x3e45a36c	0.19300622
199	0x3e181bae	0.14854309
200	0xbe2ead98	-0.17058408
201	0xbe07c4a2	-0.13258603
202	0xbd243afa	-0.040095307
203	0xba6674f8	-0.00087912334
204	0xbca1a63f	-0.019732593
205	0x3e0559cb	0.13022535
206	0xbd7cd92b	-0.061730545
207	0x3e86bb54	0.26314795
208	0xbe5427fa	-0.20718375
209	0xbd3a6678	-0.045507878
210	0xbdf8687c	-0.12129304
211	0xbe6bd09e	-0.230288
212	0xbe6477ea	-0.22311369
213	0x3e16a672	0.14711931
214	0x3e6f80da	0.23388997
215	0xbe38a00a	-0.180298
216	0x3d418460	0.047245383
217	0x3e2e7816	0.17037997
218	0xbe228964	-0.15872723
219	0x3e35ebac	0.17765683
220	0xbe4a64fc	-0.19765085
221	0x3c8c7a60	0.017148197
222	0x3c7ff320	0.01562193
223	0xbe6ec352	-0.23316696
224	0x3e775fd2	0.24157646
225	0x3d2a2070	0.04153484
226	0xbc4ae61d	-0.012383965
227	0x3d9e39bc	0.07725856
228	0x3e3ac733	0.18240051
229	0x3e2057f9	0.15658559
230	0x3e702e88	0.2345525
231	0x3ca5a975	0.020222405
232	0x3db2a9a0	0.0872376
233	0xbdd9c544	-0.106333286
234	0x3e179af8	0.1480521
235	0x3e376a2c	0.17911595
236	0xbe74739e	-0.2387223
237	0x3d7e4c01	0.0620842
238	0xbe808f42	-0.25109297
239	0x3e5804c3	0.21095566
240	0xbe1a30b0	-0.15057635
241	0xbe18b534	-0.14912874
242	0xbe7da690	-0.2477057
243	0xbe543f10	-0.20727181
244	0xbd6ead40	-0.058270693
245	0x3e11d446	0.14241132
246	0xbd883360	-0.06650424
247	0xbdb9dab0	-0.090749145
248	0xbdd71a2c	-0.10503039
249	0x3de5f22c	0.11227831
250	0xbe7e3b3c	-0.24827284
251	0xbd5ce2a0	-0.053927064
252	0x3e2e9f36	0.17052922
253	0xbdbf5f08	-0.09344298
254	0xbdc52a98	-0.09627265
255	0xbda450e4	-0.08023241

bias f4 [16]
0	0xbde5dc4f	-0.11223661
1	0xbb3d27af	-0.0028862765
2	0xbe3c8406	-0.18409738
3	0xbe5a22cb	-0.21302335
4	0xbe34416d	-0.17603083
5	0xbd699763	-0.05702914
6	0xbe05521a	-0.130196
7	0xbc742176	-0.014900556
8	0xbe2f1f61	-0.17101814
9	0xbd2bd078	-0.04194686
10	0x3e4b9c53	0.19883852
11	0x3dad6741	0.0846696
12	0x3dec733a	0.11545415
13	0xbe5ec52e	-0.21754906
14	0x3e86d72b	0.26336035
15	0x3e049ea8	0.12951148

weight f4 [32, 16]
0	0xbd055730	-0.03255385
1	0x3e2cf962	0.16892007
2	0x3e5bf280	0.21479225
3	0x3c111ec8	0.0088574365
4	0x3d0c698d	0.03428035
5	0x3e500a01	0.20316316
6	0x3e3a5b76	0.18198952
7	0x3e3ccecc	0.18438262
8	0x3e0e3965	0.13889082
9	0xbd3bae80	-0.045820713
10	0x3e1d1b78	0.1534251
11	0x3e60b3e5	0.21943624
12	0xbe223454	-0.15840274
13	0xbc2f1540	-0.010686219
14	0x3e1c56d7	0.15267502
15	0xbd1ec1a0	-0.038758874
16	0xbd3f65b3	-0.046727847
17	0xbe2b0ee5	-0.167049
18	0xbe24c9da	-0.16092625
19	0xbdbee3f0	-0.093208194
20	0x3dc16ecd	0.09444962
21	0x3e66e900	0.2254982
22	0xbe5540f8	-0.20825565
23	0x3e6c84c2	0.23097518
24	0x3ddaf893	0.10691943
25	0xbb16ca80	-0.0023008883
26	0x3dbbcf07	0.09170347
27	0xbc803c74	-0.015653826
28	0xbd01ac38	-0.03165838
29	0x3e5c5c98	0.21519697
30	0x3dc52d1f	0.09627747
31	0xbdbc4ef0	-0.09194744
32	0xbe47dff4	-0.19519025
33	0x3c9147ba	0.017734397
34	0x3d6e3932	0.058160014
35	0x3dbc122f	0.09183156
36	0x3db49af0	0.088186145
37	0x3e042194	0.12903434
38	0xbe090970	-0.13382506
39	0xbe10726c	-0.14106148
40	0x3d841ce5	0.06450824
41	0x3e29855c	0.16554779
42	0xbad67b66	-0.001636368
43	0x3e33187a	0.17489806
44	0x3e08f1a1	0.13373424
45	0x3e4e6394	0.20155174
46	0xbe56ee1a	-0.20989266
47	0xbe27e07e	-0.1639423
48	0x3e1a242f	0.15052865
49	0xbe4001d2	-0.18750694
50	0xbd555edd	-0.05209242
51	0xbc9d49db	-0.019200256
52	0x3e501bf5	0.20323165
53	0x3e7e2079	0.24817075
54	0xbdabf62e	-0.083965644
55	0x3e2af131	0.1669357
56	0x3e741478	0.23835933
57	0xbce3c920	-0.027805865
58	0xbda03e62	-0.078243986
59	0x3e476c59	0.19474925
60	0x3e26b6ea	0.16280714
61	0xbcad4e00	-0.021155357
62	0x3d400ba6	0.04688611
63	0xbe4e4190	-0.20142198
64	0x3e59a2fe	0.21253583
65	0xbdbfb3a1	-0.09360433
66	0x3e5aacfa	0.21355048
67	0xbcee7264	-0.02910728
68	0x3e1734c5	0.14766224
69	0xbd9c362c	-0.0762752
70	0xbe30c0da	-0.17261067
71	0x3da24e4a	0.07925089
72	0xbe330b63	-0.17484812
73	0xbe71e95c	-0.23624176
74	0xbd0845e9	-0.033269797
75	0xbd85cd44	-0.06533292
76	0x3e04718d	0.12933941
77	0x3e22f8a2	0.15915158
78	0xbe699a09	-0.22812666
79	0xbd120818	-0.03565225
80	0xbd2b1f97	-0.041778173
81	0xbddafbdf	-0.10692572
82	0x3da92146	0.082582995
83	0x3e4dfb78	0.20115459
84	0x3c7dfec1	0.015502633
85	0x3c6ad219	0.014332318
86	0xbe8057fc	-0.25067127
87	0x3e5c9871	0.21542527
88	0xbd094ea4	-0.033522263
89	0x3e09fd74	0.13475591
90	0xbde111fe	-0.1098976
91	0xbd51592e	-0.05111044
92	0xbe24d14b	-0.16095464
93	0xbdeb6d94	-0.1149551
94	0x3c9cff3a	0.01916467
95	0x3dd98164	0.106203824
96	0xbd8f2f86	-0.06991486
97	0x3e35a9fc	0.17740625
98	0x3d617b47	0.055049207
99	0x3d315d6b	0.04330198
100	0x3e411408	0.18855298
101	0xbe5e2717	-0.21694599
102	0x3cfdaa69	0.030965047
103	0x3e166b26	0.14689311
104	0xbe7082b2	-0.23487356
105	0x3dca4230	0.098759055
106	0x3e2d3e6a	0.1691834
107	0x3e4759a8	0.19467795
108	0xbe6dfafd	-0.23240276
109	0xbc8da4d0	-0.017290503
110	0xbe0a6562	-0.13515237
111	0xbe026d5c	-0.1273703
112	0x3da29839	0.079391904
113	0xbe321ded	-0.17394228
114	0x3d0b0702	0.03394223
115	0x3e6a4da8	0.22881186
116	0xbe66ccb1	-0.22539021
117	0x3e291b25	0.16514261
118	0xbd921647	-0.07133155
119	0x3d085abe	0.033289663
120	0x3e333e25	0.17504175
121	0xbe79ecbc	-0.24406713
122	0xbe3dee33	-0.18547897
123	0x3d845a8b	0.06462582
124	0x3e4cbacb	0.19993131
125	0x3d591270	0.0529961
126	0xbe040dba	-0.12895861
127	0x3c4f2620	0.012643367
128	0xbe383059	-0.17987193
129	0xbc5f3240	-0.01362282
130	0xbe275ed1	-0.16344763
131	0xbdb80071	-0.08984459
132	0x3daa6430	0.083198905
133	0xbe023bdd	-0.12718149
134	0x3dc01d8f	0.09380638
135	0x3df5ca80	0.120015144
136	0x3db7b1fb	0.08969494
137	0xbe5521a6	-0.20813617
138	0xbe0c23bd	-0.13685508
139	0x3dd1d1f0	0.102451205
140	0xbd95f35a	-0.07321806
141	0x3d8d80dc	0.069093436
142	0x3d601898	0.054710954
143	0x3e5e8652	0.21730927
144	0x3e440b50	0.1914494
145	0xbe372e39	-0.17888726
146	0xbe3ef5eb	-0.18648498
147	0xbc4ced37	-0.012507728
148	0xbe6f1a56	-0.2334989
149	0xbd3b5fbe	-0.045745604
150	0x3d955e4f	0.072933786
151	0x3e38707d	0.18011661
152	0x3e231b92	0.15928486
153	0xbd70b8f0	-0.05877012
154	0x3cd9ac95	0.026571551
155	0xbe2daaf6	-0.16959748
156	0xbdfd922e	-0.12381397
157	0x3e18033e	0.14844987
158	0xbe160613	-0.14650755
159	0xbc20dee0	-0.009818763
160	0xbd9af3df	-0.07566046
161	0x3d40cc9d	0.047070134
162	0xbda477c2	-0.080306545
163	0xbe3e358b	-0.18575113
164	0xbe70f69f	-0.23531578
165	0xbd2280a1	-0.03967345
166	0x3e0bb61c	0.13643688
167	0x3e3484a3	0.17628722
168	0x3dedf75e	0.11619447
169	0xbe575656	-0.21029028
170	0x3e28e18b	0.16492288
171	0x3e716c7f	0.23576544
172	0xbc9b9391	-0.018991264
173	0xbc7f5da0	-0.015586287
174	0xbe645013	-0.22296171
175	0xbe17978c	-0.14803904
176	0xbcdc9af7	-0.026929362
177	0xbdf0ebae	-0.11763702
178	0x3cab15af	0.020884363
179	0x3e08c711	0.13357188
180	0x3e091687	0.133875
181	0x3bbb94c8	0.005724523
182	0x3e18919d	0.14899297
183	0xbdcda1f3	-0.10040655
184	0xbe0e6bf9	-0.13908376
185	0x3d0c0690	0.034185946
186	0x3dff82a3	0.12476089
187	0xbe11d6ea	-0.1424214
188	0xbdf70a1c	-0.12062475
189	0xbcd99000	-0.026557922
190	0xbdc7303c	-0.09725997
191	0xbe74820a	-0.23877731
192	0xbb124281	-0.0022317471
193	0xbdbe336a	-0.0928715
194	0xbe247e10	-0.16063714
195	0x3e03d157	0.12872826
196	0x3e4cf02b	0.20013492
197	0xbccff27d	-0.025384182
198	0x3e171565	0.14754255
199	0xbe6af840	-0.22946262
200	0x3bc6134a	0.00604478
201	0x3dfde8d0	0.12397921
202	0x3e7a3e42	0.24437812
203	0x3deaacc6	0.11458735
204	0x3e6a317f	0.22870444
205	0x3e416866	0.18887481
206	0x3d0bb985	0.034112472
207	0x3e2b60b4	0.16736108
208	0x3e6b75c7	0.22994147
209	0xbe4db93c	-0.20090193
210	0xbc34f3d8	-0.011044465
211	0xbe423128	-0.18964064
212	0xbe0ffe5e	-0.14061877
213	0x3e3a06dc	0.18166679
214	0xbd35a4ef	-0.044346746
215	0x3cd39feb	0.02583309
216	0xbcafb491	-0.021448405
217	0x3e388356	0.1801885
218	0xbc996605	-0.018725405
219	0xbe202666	-0.15639648
220	0xbe64ba0d	-0.22336598
221	0xbdca5464	-0.098793775
222	0xbe130185	-0.14356048
223	0xbe0813ba	-0.13288775
224	0x3e31756c	0.17329949
225	0x3d5fd46e	0.054645948
226	0x3d152187	0.036408927
227	0x3e3934b3	0.1808651
228	0xbe5b97a4	-0.21444565
229	0xbdc09d73	-0.09405031
230	0xbe124b73	-0.14286594
231	0xbc28d114	-0.010303754
232	0x3d9fa020	0.07794213
233	0x3e09ca6c	0.13456124
234	0xbe2442e8	-0.16041148
235	0x3e38603e	0.18005463
236	0xbdb11713	-0.08646979
237	0xbe10cc64	-0.14140469
238	0xbd8aba96	-0.0677387
239	0x3e59a238	0.21253288
240	0x3e18e478	0.14930904
241	0xbb8294d1	-0.0039850255
242	0xbce35610	-0.027750999
243	0x3e3dc08b	0.1853048
244	0xbe1f4e90	-0.15557313
245	0x3e3189b4	0.17337686
246	0x3da7efcc	0.082000345
247	0xbd0a6156	-0.033784233
248	0xbe69dfac	-0.2283923
249	0x3dc02324	0.093817025
250	0xbc1076e9	-0.008817413
251	0x3e56af9b	0.20965426
252	0x3e812d4b	0.25229868
253	0xbe0554da	-0.1302065
254	0xbcd08791	-0.025455268
255	0x3e5c3200	0.21503448

bias f4 [32]
0	0xbe190c29	-0.14946045
1	0xbdbcf10d	-0.09225664
2	0xbe797c80	-0.24363899
3	0xbe25376d	-0.16134425
4	0xbe6d1511	-0.23152567
5	0x3e67aeaa	0.22625223
6	0xbd64fa55	-0.055902798
7	0x3de3cac6	0.1112266
8	0x3e3d790c	0.18503207
9	0x3e3e0ea2	0.1856027
10	0xbe62e728	-0.22158492
11	0x3d2b83b0	0.041873634
12	0xbe4dcb93	-0.20097189
13	0xbcd41fd3	-0.025894081
14	0x3e4767a3	0.19473128
15	0xbdc1fb29	-0.09471733
16	0xbe58ce3b	-0.2117242
17	0x3e25aefe	0.16180035
18	0x3deccea1	0.11562849
19	0xbe88cae5	-0.26717296
20	0xbd867252	-0.065647736
21	0xbdadadea	-0.08480437
22	0xbd52b255	-0.051439602
23	0x3c05ab5b	0.00815853
24	0x3a7bca2f	0.0009605018
25	0xbd1b8cb4	-0.03797598
26	0xbdf8d443	-0.12149861
27	0x3da73c6d	0.08165822
28	0x3d46a560	0.048497558
29	0xbd412708	-0.047156364
30	0xbe4d3a13	-0.20041685
31	0x3e2b5554	0.16731769

weight f4 [16, 4]
0	0x3ed73643	0.42033586
1	0xba4130fd	-0.00073696655
2	0xbed0f315	-0.40810457
3	0xbebb512d	-0.3658537
4	0xbe7c78fc	-0.24655527
5	0x3ce77a20	0.028256476
6	0xbe957ed4	-0.29198325
7	0x3ea2dcb0	0.31808996
8	0x3de44fd2	0.11148037
9	0x3d65b58f	0.05608135
10	0x3ec34eba	0.38146
11	0x3d46cdf0	0.04853624
12	0x3d185759	0.037192676
13	0x3ee141fd	0.43995658
14	0xbe40eef9	-0.18841161
15	0xbeb46e0d	-0.35240212
16	0xbeff189e	-0.4982347
17	0xbe813bc0	-0.25240898
18	0xbdc67e40	-0.09692049
19	0xbe8c3ef2	-0.27391773
20	0xbebdca8e	-0.370686
21	0xbcb3c420	-0.021944106
22	0xbeec069a	-0.46098787
23	0x3e391b10	0.1807673
24	0xbe8223c6	-0.25417918
25	0x3eec7ca0	0.4618883
26	0xbe247b14	-0.16062576
27	0x3e055210	0.13019586
28	0xbc425d0a	-0.011863003
29	0xbefbaa4c	-0.49153364
30	0x3ea613d8	0.32437015
31	0x3eead0b4	0.45862353
32	0x3e5a1411	0.21296717
33	0xbf03b25b	-0.51444024
34	0x3ea8f926	0.33002585
35	0x3ea7fff0	0.32812452
36	0xbe966936	-0.29377145
37	0xbea782ba	-0.32716924
38	0xbed2f5e8	-0.41203237
39	0x3d3932c0	0.045214415
40	0x3ee47b10	0.4462514
41	0x3eca4bb7	0.3951089
42	0x3c8551b2	0.016274307
43	0x3ecc7d07	0.39939138
44	0xbdb7b880	-0.089707375
45	0xbdcd6550	-0.100290895
46	0x3da66510	0.08124745
47	0xbeef1854	-0.46698248
48	0xbe728024	-0.23681694
49	0xbec0e786	-0.37676638
50	0x3ef5560c	0.4791721
51	0x3effdafe	0.49971765
52	0x3d97de6e	0.07415472
53	0x3f05155f	0.51985735
54	0x3eb17235	0.34657446
55	0xbe389c7c	-0.18028444
56	0xbecfbe84	-0.4057504
57	0x3eab86be	0.33501238
58	0x3ccd92c0	0.02509439
59	0xbea3cc46	-0.31991786
60	0x3ed4bbdb	0.41549572
61	0xbe986e8a	-0.29771835
62	0x3eb4674c	0.3523506
63	0xbd938a51	-0.07204116

bias f4 [16]
0	0x3e623c98	0.22093427
1	0xbde26d20	-0.1105597
2	0xbe1ead60	-0.15495825
3	0x3f0b863f	0.5450172
4	0x3d96b9a8	0.0735963
5	0x3d5bbec0	0.05364871
6	0xbe751878	-0.23935115
7	0xbdca9ad7	-0.098928146
8	0xbe048fa4	-0.1294542
9	0xbe53cd68	-0.20683825
10	0x3eada63a	0.33915883
11	0xbe18a334	-0.14906007
12	0xbdaca278	-0.08429426
13	0x3c040466	0.008057689
14	0xbee667c4	-0.45001042
15	0x3e8fa1ef	0.28053233

weight f4 [16, 16]
0	0xbc9976a7	-0.018733336
1	0xbd4c2880	-0.04984331
2	0x3e3d58c9	0.184909
3	0x3e2d7b88	0.16941655
4	0x3e46e6d2	0.19423988
5	0x3e460b56	0.19340262
6	0x3e7fd2d2	0.24982765
7	0xbd801327	-0.06253653
8	0x3e878b91	0.26473668
9	0x3d26a7c8	0.040687352
10	0x3e073578	0.1320399
11	0x3de65ef4	0.112485796
12	0xbe075d62	-0.13219216
13	0x3d5498a2	0.051903374
14	0xbe3becf4	-0.18352109
15	0xbde2ba3e	-0.11070679
16	0x3e7b4cd1	0.24541022
17	0xbe5679a4	-0.2094484
18	0x3e3f5f86	0.18688783
19	0x3e5412d3	0.20710306
20	0x3c1b7760	0.00948891
21	0x3e30cc2a	0.17265382
22	0x3e25f4aa	0.16206613
23	0xbdc1fb0d	-0.09471712
24	0xbe53301c	-0.20623821
25	0xbdd2ed68	-0.10299188
26	0x3de9502f	0.11392247
27	0x3e5a8076	0.21338066
28	0x3e158c84	0.14604384
29	0xbe3d9c23	-0.18516593
30	0x3e160780	0.14651299
31	0x3e68e226	0.22742519
32	0xbe6d9e00	-0.23204803
33	0x3d367518	0.044545263
34	0x3da0e680	0.078564644
35	0x3dcb5bb0	0.099295974
36	0x3e5574de	0.20845363
37	0xbd294d80	-0.041333675
38	0xbc0581a0	-0.008148581
39	0x3e16045c	0.146501
40	0xbe6fa138	-0.23401344
41	0xbe208ce0	-0.1567874
42	0xbd8fa628	-0.07014114
43	0x3e7c3b8a	0.24632087
44	0x3e205b9e	0.15659949
45	0x3d5df9c0	0.05419326
46	0xbdf33b10	-0.118765
47	0xbdf56ddc	-0.11983845
48	0x3d2da100	0.04238987
49	0xbe446fc4	-0.1918326
50	0x3e75f666	0.24019775
51	0xbe47ca8a	-0.19510856
52	0xbe230122	-0.15918401
53	0x3e50723a	0.20356074
54	0xbcb30f60	-0.021857917
55	0xbe6903c0	-0.22755337
56	0xbe1904fe	-0.1494331
57	0x3c29e220	0.010368854
58	0xbd342080	-0.043976307
59	0x3ddd1ce0	0.10796523
60	0x3e51dd3a	0.20494547
61	0x3cf4ea60	0.029896915
62	0xbd9bf150	-0.07614386
63	0xbe26e40e	-0.16297933
64	0xbd43e410	-0.04782492
65	0x3e5a687c	0.2132892
66	0x3bc24140	0.0059281886
67	0xbbf16bc0	-0.007367581
68	0xbe5a04a0	-0.21290827
69	0xbe2bd1c2	-0.16779235
70	0x3d14c7c0	0.03632331
71	0xbe154394	-0.1457656
72	0xbe2434f8	-0.16035831
73	0x3df607a8	0.12013179
74	0xbd313860	-0.043266654
75	0xbe1f684c	-0.1556713
76	0xbe01c5ca	-0.12673107
77	0x3c242b00	0.010020018
78	0xbd7910b8	-0.06080696
79	0xbda658ac	-0.081223816
80	0xbd9e3ce0	-0.07726455
81	0x3d19c3a0	0.03754008
82	0xbdbca6d0	-0.092115045
83	0xbdbc1a28	-0.091846764
84	0xbc0b7bc0	-0.008513391
85	0xbd3b1248	-0.04567173
86	0xbdc34c10	-0.09535992
87	0x3e57f0ba	0.21087924
88	0xbde7d690	-0.113202214
89	0x3e47e26c	0.19519967
90	0xbe0194f2	-0.12654474
91	0x3d435f30	0.0476982
92	0x3e3c78dc	0.18405479
93	0x3de3cdc8	0.11123234
94	0xbdee2238	-0.116276205
95	0x3e1a122c	0.15045995
96	0xbe0cf7cd	-0.13766403
97	0xbe14b3e0	-0.14521742
98	0x3d86bac2	0.0657859
99	0x3e5f1e39	0.21788873
100	0xbe5f6c5a	-0.21818677
101	0x3c90c020	0.017669737
102	0x3e2341b0	0.15943027
103	0xbcf29eb2	-0.029616687
104	0x3d74c8d6	0.059761845
105	0xbe1baf1a	-0.15203515
106	0x3e12ad47	0.14323913
107	0xbe051bac	-0.12998837
108	0xbdfd70f0	-0.12375057
109	0xbd028f18	-0.031874746
110	0x3e236f8a	0.15960518
111	0x3e1c4f96	0.15264735
112	0xbe2da8fe	-0.16958997
113	0xbd0a4be0	-0.033763766
114	0x3e1c03b7	0.15235792
115	0xbdb62f49	-0.08895738
116	0xbe28957a	-0.16463271
117	0x3d955a14	0.07292572
118	0x3e3540d8	0.17700517
119	0x3d17ebe5	0.0370902
120	0xbe10dcfd	-0.141468
121	0x3e520b9a	0.20512238
122	0x3de942f0	0.113897204
123	0x3d4d9958	0.050195068
124	0xbd8d43f8	-0.0689773
125	0x3e100325	0.140637
126	0xbd5cb858	-0.05388674
127	0x3e75ce32	0.24004439
128	0x3e3562f6	0.17713532
129	0xbd2388e8	-0.039925486
130	0xbe57dab3	-0.21079521
131	0x3e2f3173	0.17108707
132	0xbd8fee00	-0.07027817
133	0xbe540a94	-0.2070716
134	0xbd2f05c8	-0.042730123
135	0x3adc367e	0.0016800908
136	0xbd366ed2	-0.04453928
137	0x3e684860	0.22683859
138	0x3e777aba	0.2416791
139	0xba395c00	-0.0007070899
140	0x3ddc9be0	0.10771918
141	0xbdb04ae8	-0.08608037
142	0xbc6c9e80	-0.014442086
143	0xbe1e5303	-0.15461354
144	0xbdbbb048	-0.09164482
145	0xbe4177ec	-0.18893403
146	0xbd4e6670	-0.05039066
147	0xbc90b590	-0.0176647
148	0x3e5c83ca	0.21534649
149	0x3d09f420	0.03368008
150	0x3c1ffca0	0.00976482
151	0xbc897370	-0.016778678
152	0x3dc6e130	0.0971092
153	0xbd816980	-0.06318951
154	0x3ccb74d0	0.024835974
155	0x3e1a5d8e	0.15074751
156	0x3d1c2cc8	0.038128644
157	0x3e20b744	0.1569491
158	0x3b765a80	0.0037590563
159	0xbddeb7d8	-0.10874909
160	0x3e816351	0.25271085
161	0xbe0aa9e0	-0.13541365
162	0x3dbb59ee	0.09148012
163	0x3dadd55e	0.08487962
164	0xbdc72d44	-0.097254306
165	0xbe5a175c	-0.21297973
166	0x3e02ff30	0.12792659
167	0x3db881b6	0.090091154
168	0xbdfbed58	-0.12301129
169	0x3c29f440	0.010373175
170	0x3e8d5546	0.2760412
171	0xbd0ed118	-0.034867376
172	0x3d145ac8	0.03621939
173	0x3e7c936c	0.24665612
174	0xbdf80040	-0.12109423
175	0x3e389cd9	0.18028583
176	0x3d87cf0d	0.06631289
177	0xbd102720	-0.035193563
178	0x3e7dc3e6	0.2478176
179	0x3e13952e	0.14412376
180	0x3dd91c94	0.10601154
181	0x3e54f822	0.2079778
182	0xbdb39394	-0.08768383
183	0xbdfb3f3f	-0.122679226
184	0xbe399d53	-0.1812642
185	0xbda2e330	-0.07953489
186	0xbc3d89f1	-0.011568532
187	0xbe13376e	-0.14376613
188	0x3d6fec28	0.058574826
189	0x3e2b17be	0.16708276
190	0xbe0ff16a	-0.14056936
191	0x3daf7cc4	0.08568719
192	0x3dcac30a	0.09900482
193	0x3e417c46	0.18895063
194	0x3d5b8724	0.053595677
195	0x3d88f4af	0.06687295
196	0x3e5430fe	0.20721814
197	0xbe499f42	-0.19689658
198	0x3d0d9680	0.034567356
199	0xbe67f5a8	-0.22652304
200	0x3e7b0fcd	0.24517746
201	0xbe08b2a4	-0.13349396
202	0x3e549056	0.20758185
203	0xbe064a9e	-0.13114402
204	0x3d1949d0	0.03742391
205	0xbd5289a8	-0.05140081
206	0x3e4a3eb4	0.19750482
207	0x3d15f71e	0.036612622
208	0xbe48d2f5	-0.19611724
209	0xbd05e658	-0.032690376
210	0xbd264fad	-0.04060333
211	0xbd71712a	-0.058945812
212	0xbc1df280	-0.009640336
213	0x3d127670	0.035757482
214	0xbe105cfa	-0.14097968
215	0xbe828e85	-0.2549936
216	0x3d98aa25	0.074543275
217	0xbd448448	-0.047977716
218	0x3e37a383	0.17933469
219	0x3e1bd89e	0.15219352
220	0x3d474e40	0.04865861
221	0x3e4f8b11	0.20267893
222	0x3e446636	0.19179615
223	0xbdafcc1d	-0.085838534
224	0xbcffade0	-0.03121084
225	0x3d30cf90	0.043166697
226	0x3d95c904	0.07313731
227	0xbdf3ac70	-0.11898124
228	0x3c834cb0	0.016027778
229	0xbe77ce66	-0.24199829
230	0xbd3c4fc0	-0.045974493
231	0x3cb39a30	0.021924108
232	0xbe658a8e	-0.22416136
233	0x3e26ce3c	0.1628961
234	0xbdfea95c	-0.124346465
235	0xbc18b700	-0.009320974
236	0xbe585eae	-0.21129867
237	0xbc406fc0	-0.011745393
238	0xbdbea3a0	-0.09308553
239	0xbe4df780	-0.20113945
240	0xbb987ece	-0.004653788
241	0x3e623608	0.22090924
242	0x3e092fdf	0.13397168
243	0xbe4403ca	-0.1914207
244	0xbc9e04c0	-0.019289374
245	0x3e21ff64	0.1582008
246	0x3e1a31f0	0.15058112
247	0xbe54a4e0	-0.2076602
248	0x3d8a72e2	0.067601934
249	0xbda1cbfc	-0.07900235
250	0xbd716f4b	-0.058944028
251	0x3e7b37ba	0.24532977
252	0xbe0a736a	-0.1352059
253	0x3e597290	0.21235108
254	0x3a84ef00	0.0010142028
255	0x3dfc900d	0.12332163

bias f4 [16]
0	0x3db00ce6	0.0859621
1	0xbd480dc8	-0.048841268
2	0x3dfc5d68	0.12322503
3	0x3e393248	0.18085587
4	0xbe568968	-0.20950854
5	0xbdedaec4	-0.116055995
6	0x3dfaa34a	0.12238176
7	0x3e2d4486	0.16920671
8	0x3d2e3106	0.04252722
9	0xbd5660c0	-0.05233836
10	0xbd2aed50	-0.041730225
11	0x3e823a77	0.2543523
12	0xbccb5146	-0.024819028
13	0xbe7c4fa5	-0.24639757
14	0xbe51aaec	-0.20475358
15	0x3e6575de	0.22408244

weight f4 [32, 16]
0	0xbd00fe61	-0.031492595
1	0x3cfc7b5e	0.030820545
2	0x3e747c94	0.23875648
3	0xbcf2a5a0	-0.029619992
4	0x3e4c2620	0.19936419
5	0xbc6dd620	-0.014516383
6	0x3e83ed18	0.25766826
7	0x3d5390ae	0.05165165
8	0xbe1e0851	-0.1543286
9	0x3cd96120	0.02653557
10	0x3e30bca9	0.17259468
11	0x3dd86fd3	0.10568204
12	0xbe31d3de	-0.17365977
13	0xbd40437d	-0.04693936
14	0xbe4cc76c	-0.19997948
15	0x3d59e62a	0.053198017
16	0x3e1924e4	0.14955479
17	0xbe640556	-0.2226766
18	0x3d893304	0.066991836
19	0xbdd377ec	-0.10325608
20	0xbc1dd3c0	-0.009633005
21	0xbda8d830	-0.082443595
22	0x3d3465a3	0.04404224
23	0x3e513b23	0.20432715
24	0x3de67e5e	0.112545714
25	0x3e4971ba	0.1967229
26	0x3dbe4db6	0.09292166
27	0x3e0de352	0.13856247
28	0xbe0b2df6	-0.13591751
29	0xbd6e671c	-0.0582038
30	0xbc022540	-0.007943451
31	0x3e7821ab	0.24231593
32	0x3e3624f7	0.17787538
33	0xbe80094e	-0.250071
34	0x3e1507d4	0.14553767
35	0xbe60cfd4	-0.2195428
36	0x3d3a2e50	0.045454323
37	0xbe3e278c	-0.18569773
38	0x3d69bee0	0.0570668
39	0xbe45da5c	-0.19321579
40	0x3b6e6a67	0.0036379339
41	0xbe271f90	-0.16320634
42	0xbde6756b	-0.112528645
43	0x3cadee96	0.02123193
44	0x3d9136d2	0.07090534
45	0xbe119e0d	-0.14220448
46	0x3e50f64c	0.20406455
47	0x3d804b7f	0.062644
48	0x3bf47339	0.0074600247
49	0x3e23fe5a	0.16014996
50	0xbe7d289a	-0.2472252
51	0xbe241942	-0.1602526
52	0xbe6baf44	-0.23016077
53	0xbcd8f6e0	-0.026484907
54	0x3df328fb	0.11873051
55	0x3b3bc25c	0.0028649783
56	0x3e4b3446	0.1984416
57	0x3e15db1a	0.14634362
58	0xbe2c3c8e	-0.16819975
59	0x3e67309d	0.22577138
60	0xbd308c73	-0.043102693
61	0xbda002ff	-0.078130715
62	0x3e6a2f90	0.22869706
63	0x3d91c9d7	0.07118576
64	0xbe4222a1	-0.18958522
65	0xbe621496	-0.22078165
66	0x3e7736cc	0.24141997
67	0xbca7b140	-0.020470262
68	0x3e1dba2c	0.1540305
69	0x3e28a3c4	0.16468722
70	0xbdf0817b	-0.117434464
71	0x3e08bb20	0.13352633
72	0x3cf08e4e	0.029364731
73	0xbe045282	-0.12922099
74	0xbe1e2622	-0.15444234
75	0xbe0f343d	-0.13984771
76	0x3d443442	0.0479014
77	0x3e06e8d7	0.13174759
78	0xbc94a2d0	-0.018144041
79	0x3d3df1bf	0.046373125
80	0x3e24474c	0.16042823
81	0x3dc591e1	0.09646965
82	0x3e106e96	0.14104685
83	0x3e75a7c4	0.23989779
84	0x3d2d9fb0	0.042388618
85	0x3e02fbb8	0.12791336
86	0x3c348f66	0.011020517
87	0x3dc5aaca	0.09651716
88	0x3d7c3049	0.061569486
89	0x3e426d28	0.18986952
90	0xbd63e742	-0.055640467
91	0xbdfb02de	-0.12256406
92	0x3e4b3f05	0.19848259
93	0xbe1f94d5	-0.15584119
94	0x3e6578d2	0.2240937
95	0xbe55230c	-0.2081415
96	0xbdb4c261	-0.08826137
97	0x3e5ed151	0.21759535
98	0x3e3935f8	0.18086994
99	0x3e2f5df4	0.17125684
100	0xbd917440	-0.07102251
101	0x3e0a8e4c	0.13530844
102	0x3ded4694	0.11585727
103	0x3e3c286d	0.18374796
104	0x3e1b1a4a	0.15146747
105	0xbe252198	-0.16126096
106	0x3e53193e	0.20615098
107	0x3d537595	0.051625807
108	0x3e6c54af	0.23079179
109	0xbd10f711	-0.03539187
110	0xbe5ade1a	-0.21373788
111	0x3d86c461	0.06580425
112	0x3e80e52a	0.25174838
113	0x3e8030aa	0.25037128
114	0x3e615c9e	0.22007987
115	0x3d4d8508	0.050175697
116	0x3e33aff4	0.1754759
117	0xbc7981c0	-0.015228689
118	0xbdb9a4f7	-0.09064668
119	0x3deb4dfd	0.114894845
120	0x3dc1a657	0.09455555
121	0x3e6e7b98	0.23289335
122	0x3dbfd673	0.09367075
123	0xbe2867b9	-0.16445817
124	0x3e41673d	0.18887039
125	0x3d8e588b	0.06950482
126	0xbe1af8a0	-0.15133905
127	0x3e169cac	0.14708203
128	0x3d83f08a	0.064423636
129	0xbe025bea	-0.12730375
130	0xbe32b08c	-0.1745016
131	0xbd3a37b0	-0.045463264
132	0xbde93ce0	-0.11388564
133	0x3ce0edb0	0.027457088
134	0xbd4e7708	-0.050406486
135	0x3e89d4cf	0.26920173
136	0x3cd096c7	0.025462521
137	0x3de1ed18	0.1103155
138	0x3e58acf2	0.21159723
139	0xbdd06b22	-0.10176684
140	0x3e35fea8	0.17772925
141	0x3cdd6bcb	0.027028939
142	0xbc379fe0	-0.011207551
143	0xbcddb04e	-0.027061608
144	0x3d2e0150	0.04248172
145	0x3e59897d	0.21243854
146	0xbe07d996	-0.13266596
147	0xbd9ccb98	-0.0765602
148	0xbe55dd46	-0.2088519
149	0xbe159742	-0.14608482
150	0x3e81d24a	0.2535575
151	0xbdd130e7	-0.102144055
152	0x3e366761	0.17812873
153	0x3e25955c	0.16170257
154	0x3df60658	0.12012929
155	0xbe1fc74d	-0.15603371
156	0x3e88b7d1	0.2670274
157	0xbe1bc911	-0.1521342
158	0xbc8d4da0	-0.017248929
159	0x3e56741c	0.2094273
160	0xbdd69165	-0.104769506
161	0xbe45969b	-0.19295733
162	0xbe0d760e	-0.13814566
163	0xbd9a6f9c	-0.07540819
164	0x3e2b3942	0.16721061
165	0x3d9b9278	0.07596296
166	0x3d9ba15e	0.07599138
167	0xbe22ad13	-0.15886335
168	0xbdf634b6	-0.120217726
169	0xbdc57458	-0.096413314
170	0xbe4dacf6	-0.2008551
171	0xbdf188f3	-0.11793699
172	0x3dced144	0.10098508
173	0xbded93a9	-0.116004296
174	0xbd0ffa10	-0.035150588
175	0x3d95c5db	0.073131286
176	0xbe1a3008	-0.15057385
177	0xbdfa5555	-0.12223307
178	0xbe44dc18	-0.19224584
179	0xbe5513ae	-0.20808288
180	0x3c972100	0.018448353
181	0x3e401dca	0.18761364
182	0x3d42f4a7	0.0475966
183	0xbca84600	-0.020541191
184	0xba48b34a	-0.00076561107
185	0x3d3f3f90	0.046691477
186	0xbccc5530	-0.024942964
187	0xbdcdfe18	-0.1005823
188	0x3b9237a7	0.0044622007
189	0xbde568ec	-0.11201653
190	0x3dd760ec	0.10516533
191	0x3bea6350	0.0071529523
192	0x3d9f5b34	0.077810675
193	0xbd0c9fda	-0.034332134
194	0xbdacc22c	-0.08435473
195	0xbdc77894	-0.09739795
196	0xbca8aa50	-0.020589024
197	0xbdd6e858	-0.10493535
198	0xbe41460b	-0.18874376
199	0xbe6c45e2	-0.23073533
200	0x3d5fa89f	0.05460417
201	0x3caebe70	0.021331042
202	0xbe2bd188	-0.16779149
203	0xbe18e494	-0.14930946
204	0x3e2ce85e	0.16885516
205	0x3db35b28	0.08757621
206	0x3e56eb94	0.20988303
207	0x3d19769c	0.03746663
208	0x3e4037b7	0.18771254
209	0xbdb1966d	-0.086712696
210	0xbd986de0	-0.07442832
211	0x3d1f0980	0.03882742
212	0x3d696880	0.056984425
213	0xbde7887c	-0.11305329
214	0x3d08f4ef	0.033436712
215	0xbe52596d	-0.20541926
216	0xbb050c9a	-0.00203017
217	0x3cefa7f0	0.029254884
218	0xbe2af342	-0.16694358
219	0x3d8134e8	0.06308919
220	0xbc5eb102	-0.013592007
221	0x3db13566	0.08652763
222	0xbdb6ba40	-0.08922243
223	0xbe0a1f82	-0.13488582
224	0x3e59cf36	0.21270451
225	0xbe39669e	-0.18105552
226	0x3e0a0186	0.13477144
227	0xbda51924	-0.08061436
228	0x3df83b98	0.121207416
229	0xbd287a68	-0.04113236
230	0xbdef6cce	-0.11690675
231	0xbe4eb672	-0.20186785
232	0x3e575413	0.21028166
233	0xbe45cea8	-0.19317114
234	0xbd573ac6	-0.052546285
235	0xbd1dd231	-0.038530532
236	0xbe0daa73	-0.13834552
237	0x3e01bb08	0.12669003
238	0xbd8ca390	-0.068671346
239	0x3e20bd96	0.15697321
240	0xbe81989d	-0.25311747
241	0xbe2633f6	-0.16230759
242	0x3e432b60	0.19059515
243	0x3e51784c	0.20456046
244	0xbe63d158	-0.22247827
245	0xbe3d9492	-0.18513706
246	0xbd837ca0	-0.06420255
247	0x3e36fac6	0.178691
248	0x3e379288	0.17926991
249	0x3dc4bcc8	0.0960632
250	0xbe0b63c6	-0.1361228
251	0xbdb4101c	-0.08792135
252	0xbe1371fa	-0.14398947
253	0x3da1c640	0.07899141
254	0xbe7e8d74	-0.24858648
255	0x3c82d51f	0.015970765

bias f4 [32]
0	0x3e91947d	0.284336
1	0x3d8b4b22	0.0680144
2	0xbddd8890	-0.10817063
3	0x3d97062c	0.07374224
4	0xbc6d3ee4	-0.014480326
5	0x3e47b4bd	0.1950254
6	0xbd7fff82	-0.06249953
7	0x3ddf8c72	0.1091546
8	0x3e393af3	0.18088894
9	0xbc922cb4	-0.017843582
10	0x3e4364e1	0.19081451
11	0x3e58dfd2	0.2117913
12	0x3e0c3fb1	0.13696171
13	0xbe6b20f6	-0.22961792
14	0x3d45c9c0	0.048288107
15	0x3c6261db	0.013817276
16	0xbe18938e	-0.14900038
17	0xbdbec982	-0.09315778
18	0x3c8835e4	0.01662726
19	0xbdeed8a0	-0.11662412
20	0xbe34ab61	-0.17643501
21	0xbdbe5e64	-0.09295347
22	0xbdadff90	-0.0849601
23	0x3b0f4152	0.0021859002
24	0xbd4ee268	-0.050508887
25	0x3d7e6281	0.06210566
26	0x3d79a512	0.06094844
27	0xbd190a90	-0.03736359
28	0x3d33cc65	0.043896098
29	0x3e2c0aa1	0.1680093
30	0xbe84b77b	-0.25921234
31	0xbe4cad77	-0.19988047

weight f4 [16, 2]
0	0xbf0de605	-0.55429107
1	0xbed04dfb	-0.40684494
2	0x3c8be060	0.017074764
3	0x3e950efc	0.29112995
4	0x3c8d8e00	0.017279625
5	0x3e9332ac	0.28749597
6	0xbee1602e	-0.44018692
7	0x3eaca896	0.3372237
8	0xbed4250f	-0.41434523
9	0x3e5b9474	0.21443349
10	0xbe1d34b0	-0.1535213
11	0xbea0c4c3	-0.31400117
12	0xbdabd4e8	-0.08390218
13	0xbf0f63d6	-0.5601171
14	0xbf07d0af	-0.530528
15	0x3f017445	0.5056804
16	0x3e43a4f8	0.191059
17	0x3e9332a0	0.2874956
18	0xbea6a26d	-0.32545796
19	0x3ef931ba	0.4867075
20	0xbebf8d6a	-0.37412578
21	0x3e6df2a4	0.23237091
22	0x3e67ba7c	0.22629732
23	0xbf17f02e	-0.5935086
24	0xbeef8d18	-0.46787333
25	0xbe210d5c	-0.15727752
26	0x3eb91e42	0.36155897
27	0x3c607c00	0.013701439
28	0xbe75aac2	-0.2399092
29	0x3eeb0126	0.45899314
30	0xbedb5f9d	-0.42846385
31	0x3ebffba6	0.3749668

bias f4 [16]
0	0x3e5d28c0	0.21597576
1	0xbe2b5100	-0.16730118
2	0x3ea8366e	0.32854027
3	0xbe2b4088	-0.16723835
4	0xbf13df41	-0.57762533
5	0x3e916a60	0.2840147
6	0xbec5fca7	-0.3866932
7	0xbf14d4e4	-0.58137345
8	0x3cefec20	0.029287398
9	0xbf1e04bc	-0.61725974
10	0x3e234478	0.15944088
11	0x3e6e4dfc	0.23271936
12	0x3ebf0dee	0.37315315
13	0xbef7ea23	-0.4842082
14	0xbc94cfe0	-0.018165529
15	0xbe1b9450	-0.15193295
