logs/通过减少类别测试数据分布是否是有效的/model.output_dim=5/test_model_20250420_175600.pth (torch, 315845 bytes, 32 tensors)

weight f4 [128, 1]
0.52524596 0.16096653 0.01841557 0.25342405 -0.6938554 0.77694213 0.5074929 0.34228697
0.32611224 0.1579454 -0.26907155 0.078393966 -0.9766391 0.14707896 -0.33014783 -0.038441055
0.1799046 0.3100741 -0.5731762 -0.7298261 0.62600964 0.9938874 -0.96139944 0.8992106
0.33795795 0.2779906 -0.1477363 0.674006 -0.7138639 0.38125968 -0.8793865 0.13712096
-0.42614675 -0.36228395 0.5892689 0.062217474 0.029332554 -0.8048171 -0.2788322 0.8349604
0.5522623 0.94354826 -0.29743412 0.492657 0.168998 1.0504978 0.11141673 -0.19293766
-0.24135402 -1.0056667 -0.98612994 0.17809558 0.09057355 0.6560167 0.88275087 0.81913716
0.64716715 -0.8942147 -0.12686872 -0.7733477 -0.15260589 -0.97315073 0.27470016 -0.047801018
-0.9535952 -0.39860943 -0.35557666 0.3432076 -0.27879906 0.8999336 0.3268335 0.109554105
0.1371125 0.8757223 -0.88906693 -0.39674652 0.8805993 -0.7860807 -0.3834008 -0.94608444
0.6361747 0.94959104 -0.5666617 0.33841094 0.7205428 -0.22579837 -0.039747987 -0.25805992
0.5448321 -0.98160124 0.30019128 0.07536781 0.21680005 -0.5948835 0.23265192 0.35272512
-0.44091663 0.77944696 0.17035417 -0.5601643 0.93584114 -0.6631964 -0.49288824 0.33777633
-0.08305525 -0.07977176 -0.066423595 0.41121387 0.48413607 0.4650499 -0.52757555 -0.096065
0.32838386 0.52440184 0.8292957 -0.3025632 0.05626242 -0.9414555 -0.4341935 -0.6346741
0.123742774 0.9970438 0.8895567 0.11555492 -0.35933375 0.8513337 -0.23839043 -0.79244024
00000000: 8576 063f 69d4 243e 40dc 963c ccc0 813e
00000010: 82a0 31bf aee5 463f 0eeb 013f 3d40 af3e
00000020: 2ff8 a63e 70bc 213e bfc3 89be 048d a03d
00000030: 0505 7abf de9b 163e 2309 a9be 5e74 1dbd
00000040: e938 383e 08c2 9e3e adbb 12bf e2d5 3abf
00000050: 2b42 203f 686f 7e3f 461e 76bf aa32 663f
00000060: d308 ad3e c954 8e3e 2f48 17be a88b 2c3f
00000070: c9bf 36bf 7834 c33e 791f 61bf 7069 0c3e
00000080: e82f dabe 487d b9be 54da 163f c0d7 7e3d
00000090: d34a f03c 7e08 4ebf 18c3 8ebe f7bf 553f
000000a0: 1061 0d3f 618c 713f 4949 98be 8a3d fc3e
000000b0: d00d 2d3e b676 863f 742e e43d 7391 45be
000000c0: 8225 77be b0b9 80bf 0373 7cbf b05e 363e
000000d0: a07e b93d b6f0 273f f6fb 613f f9b2 513f
000000e0: bfac 253f 41eb 64bf e0e9 01be 1dfa 45bf
000000f0: b844 1cbe 6820 79bf 80a5 8c3e 00cb 43bd
00000100: d11e 74bf 8916 ccbe 250e b6be e8b8 af3e
00000110: c0be 8ebe 0c62 663f b856 a73e e75d e03d
00000120: 3867 0c3e 562f 603f e499 63bf 5c22 cbbe
00000130: f56e 613f 963c 49bf 1c4d c4be 9732 72bf
00000140: 58dc 223f 6618 733f be10 11bf 3344 ad3e
00000150: 7e75 383f b037 67be c9ce 22bd 6e20 84be
00000160: 1e7a 0b3f 384a 7bbf acb2 993e 705a 9a3d
00000170: d500 5e3e 494a 18bf 4e3c 6e3e 6398 b43e
00000180: d3bf e1be d689 473f 5371 2e3e ed66 0fbf
00000190: 4993 6f3f 3dc7 29bf d95b fcbe 05f1 ac3e
000001a0: df18 aabd 605f a3bd 1809 88bd a08a d23e
000001b0: afe0 f73e 051b ee3e 310f 07bf babd c4bd
000001c0: ee21 a83e 333f 063f b94c 543f 90e9 9abe
000001d0: 6c73 663d 3a03 71bf 9c4e debe 007a 22bf
000001e0: da6c fd3d 433e 7f3f fdb9 633f 0fa8 ec3d
000001f0: 98fa b7be 01f1 593f 9f1c 74be 5ddd 4abf

bias f4 [128]
0.8059777 0.33183914 -0.021245837 -0.27440572 -0.7385633 0.06395131 -0.9435444 0.73862004
0.22265048 0.77073723 0.44674155 0.98258173 -0.21641326 0.40840298 -0.16651665 0.57675487
-0.05144339 -0.9288744 0.8773887 -0.4168727 0.46199235 0.52482367 -0.30784595 -0.3999002
0.10412612 -0.07363781 0.59042686 -0.05239768 -0.23060308 -0.77306247 0.51733685 -0.8953103
-0.6442282 -0.7265737 -0.9067315 -0.15776706 0.2830097 -0.1053976 -0.57383513 -0.38117403
0.21964294 0.59089965 -0.030284302 0.04747097 -0.960135 0.113757566 0.5048826 0.9417796
0.8355289 -0.20699698 0.19792733 -0.25189638 -0.5466957 -0.8089464 -0.97162557 0.5039173
0.029898997 0.6028653 -0.723127 0.6032104 0.9529152 0.8196091 -0.9962958 -0.7676704
0.4578706 0.5777364 0.9730617 -0.722844 -0.63044107 0.30919394 -0.5257665 0.29325634
0.11143761 0.54410076 -0.52185285 -0.4608252 -0.78358823 -0.9101052 -0.81557775 -0.32756633
0.06117103 0.846911 -0.7898165 0.7951248 -0.54459417 -0.65424466 0.62061495 0.72334087
0.13702305 0.84475166 0.84734267 -0.23513687 0.20696221 0.4964156 0.40721583 0.45912763
-0.15846151 0.9727721 0.16791278 -0.11159624 -0.34255606 -0.101257704 0.9994289 0.7680951
0.91717654 -0.59521794 0.4372645 0.3375769 -0.08524149 -0.18574141 0.637554 0.8591723
-0.099739015 0.61857516 0.60243595 -0.48658895 -0.056322496 0.79170525 -0.89878404 -0.7062099
0.6640578 0.39164492 -0.10819836 0.11882164 -0.82422304 0.58001596 0.30775678 -0.48563722
00000000: 8e54 4e3f d2e6 a93e c00b aebc e87e 8cbe
00000010: 7c12 3dbf e8f8 823d 208c 71bf 3416 3d3f
00000020: 7dfe 633e 094f 453f 4fbb e43e 7a8a 7b3f
00000030: 709b 5dbe 321a d13e 5783 2abe 35a6 133f
00000040: 4eb6 52bd b6ca 6dbf 8c9c 603f 5770 d5be
00000050: 438a ec3e d85a 063f fc9d 9dbe b8bf ccbe
00000060: 1340 d53d 6ccf 96bd 3726 173f f39e 56bd
00000070: 3723 6cbe 6ce7 45bf 3070 043f 0e33 65bf
00000080: 24ec 24bf bc00 3abf 8e1f 68bf b08d 21be
00000090: a6e6 903e b2da d7bd dce6 12bf 3e29 c3be
000000a0: 14ea 603e 3345 173f c916 f8bc eb70 423d
000000b0: 68cb 75bf baf9 e83d fc3f 013f 7818 713f
000000c0: 39e5 553f 04f7 53be 76ad 4a3e 90f8 80be
000000d0: 40f4 0bbf 1c17 4fbf 74bc 78bf b900 013f
000000e0: beee f43c 6155 1a3f da1e 39bf ff6b 1a3f
000000f0: 40f2 733f e7d1 513f 3e0d 7fbf 0c86 44bf
00000100: 046e ea3e 88e6 133f 921a 793f 4e0c 39bf
00000110: 9664 21bf ab4e 9e3e a298 06bf b225 963e
00000120: 6739 e43d 304a 0b3f 2698 05bf 48f1 ebbe
00000130: 3d99 48bf a8fc 68bf b4c9 50bf c6b6 a7be
00000140: 798e 7a3d 29cf 583f 6a31 4abf 4d8d 4b3f
00000150: 866a 0bbf 947c 27bf 9fe0 1e3f de2c 393f
00000160: c54f 0c3e a541 583f 73eb 583f b8c7 70be
00000170: e7ed 533e 2f2a fe3e 987e d03e c712 eb3e
00000180: bc43 22be 9807 793f 54f1 2b3e 928c e4bd
00000190: 8263 afbe 3360 cfbd 93da 7f3f e1a1 443f
000001a0: 15cc 6a3f 3460 18bf 22e1 df3e e1d6 ac3e
000001b0: 1793 aebd ff32 3ebe bd36 233f b7f2 5b3f
000001c0: f843 ccbd f15a 1e3f 3e39 1a3f 3022 f9be
000001d0: 6bb2 66bd 32ad 4a3f b616 66bf 2cca 34bf
000001e0: b1ff 293f af85 c83e 1a97 ddbd c358 f33d
000001f0: 4800 53bf ed7b 143f 4c92 9d3e 71a5 f8be

weight f4 [16, 128]
-0.097180516 -0.081488036 0.010540232 0.0581687 0.08388049 -0.08185872 -0.039810035 -0.08953714
-0.069779165 -0.054570165 -0.112425484 -0.0030470933 -0.07457054 0.03016014 0.019702082 0.012851576
-0.006449594 -0.03563497 0.003026158 -0.11978964 0.018847274 -0.11365934 -0.011710172 -0.06576578
0.023999428 0.0616553 0.015384882 0.06252219 0.0034843879 0.019312061 -0.0690061 0.0072064176
-0.0028835312 -0.047232423 -0.042367864 0.017797358 0.011608193 -0.121272475 -0.023480028 -0.026091702
-0.027258586 0.030662535 -0.09545671 0.018041227 -0.08076573 -0.06279567 -0.08938954 -0.07983589
-0.004208475 -0.115978055 -0.07662832 0.031098492 0.029649168 0.07438367 -0.046145014 -0.06676107
-0.12749971 -0.016070802 0.07463565 0.0027519113 -0.033020113 -0.07933154 0.034288228 -0.071495876
-0.12980565 -0.015886834 -0.06367818 0.011459969 -0.07096228 -0.036220968 -0.008298978 -0.076864906
-0.051590007 -0.06794837 -0.012734268 0.020696409 0.07302854 0.06118629 0.06649383 -0.057490773
-0.12162292 -0.056038573 0.025022276 -0.041265357 -0.0554487 -0.07756788 0.016251983 -0.06165292
-0.08887391 -0.024524705 -0.09474156 0.058881782 0.0027521944 -0.080748245 -0.014388379 -0.0033408403
0.02920118 -0.00077822816 0.018905194 -0.06659882 0.002183251 -0.042630825 -0.044079863 -0.047643553
-0.07909251 -0.016659155 0.010490856 0.009970558 -0.07174246 -0.0094302595 -0.020140914 -0.110163994
0.077517234 -0.09407239 -0.12260409 -0.0075840503 0.008523986 -0.011593364 -0.05362551 -0.078747585
-0.09886331 -0.08826305 -0.10067532 -0.036775924 -0.0037987456 -0.036956508 0.023126371 -0.09717982
0.073470235 0.068190865 -0.08477397 -0.06230621 0.02849815 0.11977713 -0.025409363 0.02347949
0.066421285 0.024521664 0.07701405 0.017726794 0.07735044 0.048890777 0.09994676 0.01079383
0.10017624 0.05946835 0.111014605 0.039842006 0.042728752 -0.02086676 0.031644803 0.03622107
-0.041207585 0.00017964799 0.028113624 0.080658965 0.0011976876 -0.034172505 0.03506239 -0.04167806
0.0039509684 -0.015181504 -0.029556468 -0.07264179 0.054567575 0.0043289484 -0.04286698 0.13628072
0.039602734 -0.03499436 0.102902934 0.12419212 0.032105327 0.06662579 0.020929882 0.05838131
0.025089849 0.048417628 0.07546284 0.035095923 -0.07649263 -0.061763413 -0.05570491 0.058522817
-0.045703575 0.011829812 -0.0821017 0.05613269 0.013326181 0.04860561 0.086957805 0.04233358
0.017663984 0.10637819 -0.045186676 -0.04009982 -0.003478229 0.0033524844 -0.04292942 0.11505426
0.06515761 0.085139096 -0.039164733 0.019364737 0.0994931 -0.07709436 0.049739175 0.031100387
0.11721976 0.04261871 -0.08792112 -0.03093326 -0.012119352 0.011076532 -0.01561021 -0.010526391
-0.020304443 -0.0028981136 0.11600466 -0.02010642 0.09101858 0.060312178 0.016141688 0.1069434
-0.003210842 0.02345973 0.044529643 0.07425219 -0.015713861 -0.025927225 0.07134118 0.073593706
0.044018283 0.026407115 -0.019809462 -0.039720643 0.02241667 0.032420482 0.08844769 0.101235285
0.0012004453 -0.034058057 0.06529772 0.040938713 -0.09489396 0.07119539 0.0659957 -0.046998624
-0.015023802 0.11987436 0.07220173 -0.009482944 -0.0612602 0.086644195 0.0026127829 0.083703555
00000000: 9406 c7bd 33e3 a6bd f0b0 2c3c 4e42 6e3d
00000010: 89c9 ab3d 8ba5 a7bd d90f 23bd 405f b7bd
00000020: 61e8 8ebd f784 5fbd 553f e6bd beb1 47bb
00000030: 70b8 98bd 6612 f73c 4366 a13c 6b8f 523c
00000040: 1e57 d3bb f9f5 11bd 8252 463b 4554 f5bd
00000050: 9965 9a3c 3ac6 e8bd 05dc 3fbc 36b0 86bd
00000060: 739a c43c 458a 7c3d df10 7c3c a20b 803d
00000070: 545a 643b 5434 9e3c 1253 8dbd d023 ec3b
00000080: a0f9 3cbb c976 41bd ed89 2dbd c4cb 913c
00000090: 4a30 3e3c b45d f8bd 3059 c0bc 44be d5bc
000000a0: 664d dfbc ff2f fb3c cf7e c3bd 32cb 933c
000000b0: 8168 a5bd 049b 80bd dd11 b7bd 0081 a3bd
000000c0: 3fe7 89bb e785 edbd 4fef 9cbd 44c2 fe3c
000000d0: d0e2 f23c 7756 983d 8e02 3dbd 07ba 88bd
000000e0: 498f 02be eaa6 83bc 93da 983d 6959 343b
000000f0: 1940 07bd 9378 a2bd d071 0c3d 6e6c 92bd
00000100: c6eb 04be 1b25 82bc b569 82bd 98c2 3b3c
00000110: ac54 91bd 705c 14bd 70f8 07bc 596b 9dbd
00000120: 0b50 53bd 8428 8bbd 64a3 50bc 848b a93c
00000130: fd8f 953d 7a9e 7a3d eb2d 883d 727b 6bbd
00000140: 7015 f9bd b488 65bd 84fb cc3c dd05 29bd
00000150: 2d1e 63bd e9db 9ebd e122 853c c687 7cbd
00000160: 8603 b6bd 09e8 c8bc dd07 c2bd 062e 713d
00000170: 295e 343b 565f a5bd 3cbd 6bbc 00f2 5abb
00000180: 5037 ef3c 0202 4cba 11df 9a3c f664 88bd
00000190: e014 0f3b a99d 2ebd 168d 34bd e325 43bd
000001a0: 41fb a1bd c878 88bc d7e1 2b3c 8d5b 233c
000001b0: b6ed 92bd 6081 1abc 8ffe a4bc a99d e1bd
000001c0: 5bc1 9e3d 06a9 c0bd da17 fbbd a083 f8bb
000001d0: 30a8 0b3c 18f2 3dbc 6ca6 5bbd 6a46 a1bd
000001e0: d978 cabd 42c3 b4bd dd2e cebd 5aa2 16bd
000001f0: 60f4 78bb b55f 17bd 8473 bd3c 3706 c7bd
00000200: 9077 963d a7a7 8b3d fa9d adbd cc34 7fbd
00000210: f474 e93c b64d f53d 4c27 d0bc 0f58 c03c
00000220: e207 883d a8e1 c83c 8bb9 9d3d c837 913c
00000230: e869 9e3d b241 483d e3b0 cc3d 9bd8 303c
00000240: 3329 cd3d 1695 733d a05b e33d 5f31 233d
00000250: 5804 2f3d c4f0 aabc fb9d 013d 8b5c 143d
00000260: 49c9 28bd e45f 3c39 8b4e e63c 8730 a53d
00000270: bafb 9c3a 78f8 0bbd 959d 0f3d 9db6 2abd
00000280: 2077 813b d8bb 78bc 6820 f2bc 38c5 94bd
00000290: 4082 5f3d dad9 8d3b 4995 2fbd 2c8d 0b3e
000002a0: 7a36 223d 3f56 0fbd c6be d23d 7058 fe3d
000002b0: e080 033d 1a73 883d 2575 ab3c 3e21 6f3d
000002c0: 3a89 cd3c 9051 463d 438c 9a3d bec0 0f3d
000002d0: 2ba8 9cbd a2fb 7cbd d52a 64bd 9fb5 6f3d
000002e0: ac33 3bbd d4d1 413c f024 a8bd 64eb 653d
000002f0: 0e56 5a3c ad16 473d ef16 b23d fa65 2d3d
00000300: 0fb4 903c cfdc d93d aa15 39bd b53f 24bd
00000310: 00f3 63bb 5bb5 5b3b c2d6 2fbd 91a1 eb3d
00000320: 5a71 853d 685d ae3d 336b 20bd cca2 9e3c
00000330: 0ac3 cb3d a6e3 9dbd 4ebb 4b3d 3dc6 fe3c
00000340: ea10 f03d f590 2e3d fd0f b4bd c067 fdbc
00000350: 3f90 46bc 587a 353c f7c1 7fbc e276 2cbc
00000360: 8155 a6bc 47ee 3dbb da93 ed3d 38b6 a4bc
00000370: f367 ba3d e709 773d 933b 843c 2405 db3d
00000380: fd6c 52bb 9f2e c03c b764 363d 8811 983d
00000390: 5bba 80bc 5565 d4bc 531b 923d 4cb8 963d
000003a0: 844c 343d bc53 d83c 7447 a2bc 1db2 22bd
000003b0: 2aa3 b73c 57cb 043d 1024 b53d 7254 cf3d
000003c0: 4358 9d3a 7680 0bbd d0ba 853d 5aaf 273d
000003d0: c457 c2bd e3ce 913d c128 873d a181 40bd
000003e0: 6526 76bc b080 f53d 80de 933d 5a5e 1bbc
000003f0: faeb 7abd 8372 b13d 393b 2b3b c56c ab3d

bias f4 [16]
-0.091645926 0.097034976 0.007042646 0.07597684 0.04724431 -0.02017584 -0.03676703 0.031687576
-0.11327575 0.021920804 -0.0044099465 -0.09090262 0.0063692266 -0.054866336 0.10183997 0.07931925
00000000: dcb0 bbbd 46ba c63d ffc5 e63b bf99 9b3d
00000010: 4083 413d ce47 a5bc 0699 16bd d5ca 013d
00000020: 1efd e7bd 4293 b33c 5081 90bb 272b babd
00000030: f2b4 d03b 86bb 60bd 7991 d03d 2272 a23d

weight f4 [16, 2]
-0.6150084 0.6431611 -0.63052493 0.34465045 -0.20621568 -0.322404 -0.19536477 -0.47424746
0.31819382 0.28503066 -0.49973306 0.5485134 -0.32761273 0.13894324 0.45657757 0.37365344
-0.14563881 0.64233816 0.53483045 -0.59497166 -0.60629183 0.35020903 -0.5999603 -0.5575679
-0.41516533 -0.45019138 -0.52602935 -0.0430277 -0.4360551 -0.31140527 0.51575917 -0.24411266
00000000: 3171 1dbf 35a6 243f 156a 21bf 0676 b03e
00000010: 342a 53be 2312 a5be b40d 48be 90d0 f2be
00000020: 4dea a23e 8aef 913e 03dd ffbe 606b 0c3f
00000030: dbbc a7be 2347 0e3e 89c4 e93e 814f bf3e
00000040: 5722 15be 4670 243f a6ea 083f 1050 18bf
00000050: f135 1bbf 994e b33e 0097 19bf c5bc 0ebf
00000060: 8d90 d4be 7c7f e6be dca9 06bf d03d 30bd
00000070: 9d42 dfbe 8370 9fbe cb08 043f abf8 79be

bias f4 [16]
-0.31978813 0.4968379 -0.21202496 0.21097255 0.71922576 -0.043852832 -0.29194134 0.63434
0.47147056 0.6849026 -0.19015196 0.14303088 0.35998875 -0.10465318 -0.6737017 -0.6410269
00000000: 45bb a3be 8a61 fe3e 121d 59be 3009 583e
00000010: 2e1f 383f 079f 33bd 5679 95be 1b64 223f
00000020: 9764 f13e c755 2f3f 32b7 42be b076 123e
00000030: 7250 b83e 6854 d6bd b777 2cbf 571a 24bf

weight f4 [16, 16]
-0.011435092 -0.12328164 0.07752967 0.044868857 0.25863382 -0.2242322 0.12270419 -0.14096512
0.25409332 0.11381783 0.23471603 0.24375242 0.22280756 0.013087839 0.02061817 0.23468034
0.087379456 0.24599427 0.09375891 -0.060592443 0.021209704 0.18814695 -0.19125554 0.021087153
0.0049095564 0.21456021 -0.06626757 0.11516392 -0.2019153 -0.23419228 -0.15168178 -0.22436364
-0.13326648 -0.031413704 0.114280134 0.098080665 -0.21748593 0.22039059 0.1483118 0.003202384
0.033929493 0.22290012 -0.04499656 -0.19464308 -0.08709541 0.18811044 0.06526092 0.047485355
-0.051031232 -0.045078367 0.09542915 0.22552547 -0.22143194 -0.025358051 -0.24716598 -0.1972304
0.13328409 0.14685947 0.012344778 -0.03073883 -0.12373477 -0.029525757 0.044032067 0.15230075
0.1271137 -0.21417582 0.10279542 0.24254376 -0.14244929 -0.10707757 0.17995852 -0.24966586
0.060227096 0.16310865 0.007966042 -0.13129467 -0.04421094 0.23951456 -0.13583502 0.15884253
-0.072204836 0.005913998 0.027626693 0.07461059 0.04033921 0.16945873 0.1433741 0.20861258
-0.21192402 0.13519941 0.16914919 0.1301812 -0.08877596 -0.16999653 -0.03812784 0.21873638
-0.23092532 0.19914246 -0.02810964 -0.049841046 -0.16932757 0.23358971 0.06789482 -0.05421404
-0.24295618 0.2094008 0.24354333 0.11403173 0.005401194 0.2455306 -0.103452325 -0.03686165
-0.040174007 -0.09406468 0.19006705 0.18000638 -0.0026521364 0.15808627 0.04359886 -0.15865584
-0.07259288 0.11443919 0.18911481 0.1972737 0.05048281 -0.01318723 -0.030274004 0.21782202
0.17205812 0.058391795 -0.10510111 -0.14832562 0.2090038 0.10479683 0.07889093 0.13368596
0.3232536 0.29920536 -0.001552101 -0.1838521 -0.2162027 0.14768416 0.22092989 -0.12136364
-0.02977987 -0.11360468 -0.18499553 0.15843478 0.26636204 0.010559501 -0.21068107 0.14962123
0.1314738 0.23222682 0.023489324 -0.052259743 0.13960135 -0.19013041 0.07455006 0.22338296
0.19765249 -0.0531563 -0.14445865 0.06049621 -0.008933647 0.11192591 0.24066195 -0.019884938
0.17484455 -0.11161991 -0.098680414 0.0069509745 0.023815006 0.0772953 -0.028246999 0.008665326
0.22446689 -0.07377213 0.229247 -0.19323298 0.1642503 0.024464332 -0.022484792 0.20686807
0.08205321 0.03811978 0.028068824 0.15666386 -0.1774165 0.099607795 0.03304389 0.1252803
-0.21108437 -0.14329319 -0.1853844 0.118567556 -0.110077284 0.0934832 0.08602008 0.21550895
0.04100793 0.13913818 -0.02451462 -0.055633664 -0.24022609 -0.05386275 0.071030796 -0.00611835
0.246475 0.1852063 -0.15320504 -0.101894855 0.052500185 0.13314988 0.15031335 0.23168278
0.09007589 -0.04415944 -0.20843095 0.050051153 0.0835605 -0.14327782 -0.03268224 -0.040437866
0.15178704 -0.0656015 0.18171018 -0.056106836 0.065301254 -0.122069284 -0.1684624 0.13001576
-0.027495885 0.0394088 -0.109093316 0.115853995 0.0063032806 0.08945 -0.055636883 -0.22796935
-0.13786624 -0.20884432 0.15195575 -0.2382263 0.18870865 0.1686613 -0.19024397 -0.111073025
0.16245236 -0.0534036 0.00952411 0.03850183 0.19514385 0.081867605 0.14778748 0.005700024
00000000: 415a 3bbc 167b fcbd e0c7 9e3d 68c8 373d
00000010: a76b 843e 209d 65be 564c fb3d 2959 10be
00000020: 8518 823e 5319 e93d 6659 703e 3c9a 793e
00000030: aa27 643e 606e 563c 70e7 a83c 0b50 703e
00000040: 00f4 b23d ece5 7b3e ac04 c03d c82f 78bd
00000050: f9bf ad3c 98a9 403e 7ed8 43be f7be ac3c
00000060: 58e0 a03b acb5 5b3e 4bb7 87bd 10db eb3d
00000070: e2c2 4ebe 1ad0 6fbe 7852 1bbe 95bf 65be
00000080: 0277 08be a8ab 00bd b40b ea3d 84de c83d
00000090: a2b4 5ebe 12ae 613e 0cdf 173e 17df 513b
000000a0: a7f9 0a3d ee3f 643e 504e 38bd 8450 47be
000000b0: 145f b2bd 06a0 403e 84a7 853d 0180 423d
000000c0: 2006 51bd 18a4 38bd 5c70 c33d 26f0 663e
000000d0: 0ebf 62be b0bb cfbc 1419 7dbe c4f6 49be
000000e0: a07b 083e 5462 163e c041 4a3c 00d0 fbbc
000000f0: a868 fdbd 00e0 f1bc f85a 343d baf4 1b3e
00000100: 182a 023e e850 5bbe 6886 d23d 645d 783e
00000110: 3ade 11be 7c4b dbbd 0c47 383e 68a8 7fbe
00000120: b0b0 763d f405 273e 0084 023c 1c72 06be
00000130: 8816 35bd 4e43 753e 5618 0bbe 9ea7 223e
00000140: 21e0 93bd 36ca c13b 6051 e23c 70cd 983d
00000150: ba3a 253d 9786 2d3e a9d0 123e 899e 553e
00000160: 9c02 59be b771 0a3e 7235 2d3e 384e 053e
00000170: 2cd0 b5bd 9213 2ebe f02b 1cbd 6efc 5f3e
00000180: b077 6cbe 00ec 4b3e 3046 e6bc 2026 4cbd
00000190: 3564 2dbe 2432 6f3e 700c 8b3d 8b0f 5ebd
000001a0: 81c9 78be 2a6d 563e 6c63 793e 7889 e93d
000001b0: 80fc b03b 606c 7b3e d0de d3bd 3efc 16bd
000001c0: 808d 24bd fca4 c0bd f0a0 423e 9853 383e
000001d0: 77cf 2dbb 5ee1 213e b894 323d ad76 22be
000001e0: 93ab 94bd 185f ea3d 50a7 413e 1e02 4a3e
000001f0: 10c7 4e3d 400f 58bc 3001 f8bc bc0c 5f3e
00000200: 0130 303e 3c2c 6f3d 403f d7bd ace2 17be
00000210: 1805 563e b89f d63d 9191 a13d f9e4 083e
00000220: 7f81 a53e 7231 993e de6f cbba ba43 3cbe
00000230: 3e64 5dbe 843a 173e 723b 623e 808d f8bd
00000240: eaf4 f3bc 92a9 e8bd 786f 3dbe ba3c 223e
00000250: 9b60 883e c201 2d3c c7bc 57be 4f36 193e
00000260: 11a1 063e decc 6d3e af6c c03c 500e 56bd
00000270: a8f3 0e3e 8cb1 42be b4ad 983d 81be 643e
00000280: 6a65 4a3e 6cba 59bd f8ec 13be e0ca 773d
00000290: 6e5e 12bc 6939 e53d 1670 763e bde5 a2bc
000002a0: 730a 333e fb98 e4bd f518 cabd 00c5 e33b
000002b0: b017 c33c 004d 9e3d 4066 e7bc 03f9 0d3c
000002c0: a6da 653e d815 97bd babf 6a3e dede 45be
000002d0: 3b31 283e 6c69 c83c 0732 b8bc 39d5 533e
000002e0: 830b a83d 7d23 1c3d 97f0 e53c 7e6c 203e
000002f0: acac 35be 2cff cb3d 0859 073d 7b49 003e
00000300: 8026 58be 73bb 12be 68d5 3dbe 8cd3 f23d
00000310: 3370 e1bd 1f74 bf3d 4c2b b03d 61ae 5c3e
00000320: eef7 273d 3d7a 0e3e e2d2 c8bc 20e0 63bd
00000330: d4fd 75be 309f 5cbd 9878 913d 717c c8bb
00000340: f163 7c3e b8a6 3d3e c8e1 1cbe 40ae d0bd
00000350: 6f0a 573d 7158 083e beeb 193e 403e 6d3e
00000360: b579 b83d 87e0 34bd ec6e 55be 7002 4d3d
00000370: c421 ab3d 6cb7 12be d0dd 05bd 2da2 25bd
00000380: 106e 1b3e 145a 86bd 3c12 3a3e 48d0 65bd
00000390: aabc 853d 76ff f9bd 6881 2cbe da22 053e
000003a0: 0d3f e1bc 1f6b 213d 516c dfbd dc44 ed3d
000003b0: c08b ce3b 9031 b73d 80e3 63bd cc70 69be
000003c0: cf2c 0dbe 49db 55be 4a9a 1b3e 98f1 73be
000003d0: d73c 413e 8cb5 2c3e 51cf 42be 417a e3bd
000003e0: e959 263e bcbd 5abd 030b 1c3c 18b4 1d3d
000003f0: cad3 473e 34aa a73d 9a55 173e 44c7 ba3b

bias f4 [16]
-0.13754557 -0.22621614 0.1393423 0.10880974 -0.110723495 0.1579113 0.24319202 0.058343098
0.45626712 0.21903306 -0.12991974 0.26136893 0.07824833 0.051881835 0.19571425 0.17565581
00000000: bfd8 0cbe 34a5 67be bfaf 0e3e a4d7 de3d
00000010: 00c3 e2bd 80b3 213e 5407 793e 2cf9 6e3d
00000020: d89b e93e 344a 603e ae09 05be 26d2 853e
00000030: a940 a03d 0c82 543d 5169 483e 1edf 333e

weight f4 [32, 16]
-0.04246709 0.050490722 0.00664629 0.15297449 0.0425497 0.16361347 -0.17610146 -0.23411073
-0.42986667 0.06928211 -0.19928633 0.0016248687 -0.109737866 -0.10310046 0.15509163 -0.08316988
-0.06489249 0.24610157 -0.11322575 -0.044781476 0.10541275 0.12678073 0.11756963 0.010047642
-0.2545829 -0.0839013 -0.059940558 -0.22437547 0.062882945 0.01516508 -0.022225598 -0.12942827
0.17943443 0.053630047 0.16108657 0.050875455 -0.06505254 0.18608622 -0.17674246 -0.08795225
-0.56195974 -0.11190141 0.025164727 -0.11988741 -0.27105707 -0.022221291 0.030257097 0.10431987
-0.05753258 -0.051338397 0.001255437 -0.048256963 -0.038630992 0.21486758 0.011463267 0.24644329
0.35478583 -0.1478701 0.17840976 0.0008434571 0.1098964 0.17576976 -0.15852663 -0.007319108
-0.21550617 0.17788644 0.17060333 -0.10116866 0.24592632 0.02664424 -0.21740448 0.20427322
0.1768836 -0.043892328 0.177268 0.21666689 0.17526636 -0.06585185 -0.004985352 0.013489388
-0.030977655 -0.20579374 -0.17269644 -0.12501341 -0.07420689 0.1532645 0.15386002 0.14988239
0.26995662 0.24744304 0.23291339 -0.21996453 0.25006637 0.26464894 0.020732608 0.22397329
0.033375584 0.11802439 0.18076989 -0.08150083 -0.15105242 -0.045242563 -0.03770831 0.1805148
0.115493394 0.119166344 0.20504159 -0.037343275 -0.21735837 0.10680254 0.17785795 -0.21568827
0.081255846 0.06755459 -0.083095774 0.12796932 0.20951596 -0.21865079 0.22887689 0.17377377
-0.18182002 -0.26068786 0.042117912 -0.1749544 -0.04608833 -0.075555295 -0.19463213 0.1968843
0.010696589 -0.076562375 -0.05565507 0.21115616 -0.13994154 0.15408589 0.12643069 -0.13955118
0.2483172 0.22078 -0.12798077 0.21384451 0.11812279 -0.006426803 -0.17251033 -0.11999369
0.17793038 0.1655154 0.2313577 0.17569396 -0.22257876 0.09178125 -0.040129498 0.0860971
0.4781909 -0.032359265 0.05634601 0.10333018 0.20588028 -0.18074594 -0.047723547 -0.12812185
-0.056685764 -0.06613328 -0.091704436 0.13350737 -0.08472139 -0.1440411 -0.11478488 -0.19841334
-0.39824304 0.038540076 0.028371347 -0.08052101 -0.026933359 -0.17168081 0.029839022 -0.07711102
-0.12374434 0.2164629 -0.23394848 0.18967354 -0.0072362423 -0.20673834 0.15576752 -0.061745968
-0.32426536 -0.06479458 -0.11486836 -0.1788345 -0.12464231 -0.09648425 0.14460663 0.0013454623
0.14799172 -0.18294995 0.10812337 -0.21207479 -0.024579912 0.20005216 0.1372476 -0.15185978
0.28709394 0.047309674 -0.15011956 0.06324629 0.2699443 0.094344676 -0.07821535 0.14033866
-0.17441015 -0.21365099 0.09267581 0.24489713 0.20495269 0.09655496 0.10158658 0.18358263
0.33391255 0.08636942 0.1370473 -0.10839822 0.076274924 0.22620085 -0.050349608 0.06871513
0.052991234 -0.2083407 0.1282777 -0.03533718 0.13930961 0.22468297 0.019158758 -0.104445316
0.24507725 0.046414234 0.21202607 -0.10673825 0.21887104 0.071238466 -0.17963122 -0.02682995
0.05157427 0.11142501 0.08344344 0.2192057 -0.14957485 0.23474428 -0.13311818 -0.051049404
0.17856322 0.044429366 -0.010926799 0.07464675 -0.21483384 -0.06037776 -0.2224638 0.16792119
00000000: f9f1 2dbd 5ccf 4e3d 1fc9 d93b 58a5 1c3e
00000010: 9848 2e3d 4a8a 273e f153 34be b9ba 6fbe
00000020: 7c17 dcbe c7e3 8d3d b711 4cbe 8cf9 d43a
00000030: 3fbe e0bd 5526 d3bd 57d0 1e3e f854 aabd
00000040: 5be6 84bd 0d02 7c3e e7e2 e7bd c86c 37bd
00000050: a4e2 d73d cfd2 013e 59c8 f03d dd9e 243c
00000060: b158 82be 72d4 abbd 3b84 75bd afc2 65be
00000070: c6c8 803d f576 783c 7512 b6bc d888 04be
00000080: a9bd 373e 2eab 5b3d e1f3 243e c862 503d
00000090: 443a 85bd 638d 3e3e fafb 34be 4f20 b4bd
000000a0: 98dc 0fbf 912c e5bd 4226 ce3c 8887 f5bd
000000b0: fec7 8abe 6d09 b6bc bbdd f73c a8a5 d53d
000000c0: 48a7 6bbd 3648 52bd 7a8d a43a 18a9 45bd
000000d0: 883b 1ebd 3f06 5c3e 6dd0 3b3c a15b 7c3e
000000e0: 7da6 b53e 426b 17be 0cb1 363e 731b 5d3a
000000f0: 5d11 e13d fdfc 333e ce54 22be 21d5 efbb
00000100: a6ad 5cbe dd27 363e a4b2 2e3e 8431 cfbd
00000110: 1cd4 7b3e 0545 da3c 489f 5ebe 002d 513e
00000120: f920 353e 71c8 33bd be85 353e eddd 5d3e
00000130: 0679 333e 56dd 86bd 2a5c a3bb 9802 5d3c
00000140: dac4 fdbc 98bb 52be 56d7 30be 8403 00be
00000150: c8f9 97bd 5ef1 1c3e 7b8d 1d3e c57a 193e
00000160: c137 8a3e b561 7d3e d980 6e3e 623e 61be
00000170: b308 803e 1180 873e 6ed7 a93c 4159 653e
00000180: d6b4 083d c5b6 f13d be1b 393e e8e9 a6bd
00000190: 7cad 1abe 4450 39bd 0774 1abd dfd8 383e
000001a0: cd87 ec3d 7c0d f43d 6cf6 513e 43f5 18bd
000001b0: 3193 5ebe 4abb da3d 6520 363e 63dd 5cbe
000001c0: 7769 a63d 105a 8a3d 1e2e aabd 640a 033e
000001d0: 5a8b 563e fee5 5fbe b45e 6a3e c0f1 313e
000001e0: 072f 3abe e178 85be d583 2c3d 3f27 33be
000001f0: 1ec7 3cbd bcbc 9abd a54d 47be 0a9c 493e
00000200: bf40 2f3c bccc 9cbd 92f6 63bd 5239 583e
00000210: d64c 0fbe b1c8 1d3e 0c77 013e 81e6 0ebe
00000220: dd46 7e3e 2714 623e 640d 03be 0efa 5a3e
00000230: 5cea f13d ee97 d2bb 8ca6 30be 40bf f5bd
00000240: 6233 363e de7c 293e 08e9 6c3e 1ee9 333e
00000250: b0eb 63be cff7 bb3d d45e 24bd ad53 b03d
00000260: 70d5 f43e 268b 04bd 13cb 663d c69e d33d
00000270: 48d2 523e 7715 39be c479 43bd 6032 03be
00000280: 552f 68bd e370 87bd 89cf bbbd 28b6 083e
00000290: 6882 adbd 837f 13be 5614 ebbd de2c 4bbe
000002a0: 83e6 cbbe 33dc 1d3d 076b e83c 33e8 a4bd
000002b0: 59a3 dcbc 18cd 2fbe f770 f43c 62ec 9dbd
000002c0: ac6d fdbd 73a8 5d3e 3190 6fbe c839 423e
000002d0: 001e edbb 37b3 53be 8581 1f3e 57e9 7cbd
000002e0: 1c06 a6be 05b3 84bd 1a40 ebbd 6420 37be
000002f0: 7844 ffbd 8999 c5bd c313 143e 395a b03a
00000300: 248b 173e 3b57 3bbe c96f dd3d 222a 59be
00000310: d05b c9bc 79da 4c3e a38a 0c3e 2181 1bbe
00000320: fafd 923e cac7 413d f1b8 19be 4587 813d
00000330: 2436 8a3e c837 c13d 5f2f a0bd f0b4 0f3e
00000340: 9398 32be 53c7 5abe d1cc bd3d 50c6 7a3e
00000350: 1edf 513e 9bbe c53d a00c d03d 16fd 3b3e
00000360: 96f6 aa3e 73e2 b03d 2156 0c3e e3ff ddbd
00000370: 0736 9c3d 32a1 673e 643b 4ebd 85ba 8c3d
00000380: 560d 593d 4457 55be 3b5b 033e b8bd 10bd
00000390: 2ea7 0e3e 4b13 663e d4f2 9c3c 6de7 d5bd
000003a0: 88f5 7a3e da1c 3e3d 5d1d 593e 9599 dabd
000003b0: bb1f 603e 79e5 913d 3ff1 37be 7cca dbbc
000003c0: 8b3f 533d cc32 e43d 65e4 aa3d 7677 603e
000003d0: 262a 19be ce60 703e 2250 08be 2e19 51bd
000003e0: 47d9 363e 91fb 353d 5106 33bc 65e0 983d
000003f0: 67fd 5bbe ac4e 77bd 8dcd 63be 88f3 2b3e

bias f4 [32]
-0.028659303 0.05130591 -0.2513304 -0.03128046 0.18496376 -0.20286195 0.14790787 0.19559756
0.1551425 0.24030603 0.012537929 -0.17603077 0.0341683 0.07973774 0.056536432 0.09593302
0.26972893 -0.17481206 0.23464254 -0.04028668 -0.17420945 -0.046189163 0.2687446 -0.0068340925
0.19346413 -0.045961417 0.18578924 0.118695624 -0.06815543 -0.06388328 -0.06648891 0.11799725
00000000: eac6 eabc 2526 523d 61ae 80be f11f 00bd
00000010: 2467 3d3e 0bbb 4fbe 2975 173e ba4a 483e
00000020: addd 1e3e c912 763e e36b 4d3c 6941 34be
00000030: 0ff4 0b3d 8a4d a33d bf92 673d 8878 c43d
00000040: e919 8a3e ef01 33be 2246 703e a503 25bd
00000050: f663 32be d930 3dbd e498 893e 86f0 dfbb
00000060: 761b 463e 0a42 3cbd 893f 3e3e b116 f33d
00000070: 1395 8bbd 3dd5 82bd 562b 88bd 8ba8 f13d

weight f4 [16, 4]
0.23883933 -0.22052287 0.2574817 0.111005746 0.44897926 0.49551365 -0.4173978 0.50520813
0.46034503 -0.008236507 0.10127557 -0.07079102 -0.21626276 -0.16898584 0.41025323 0.26656634
-0.095056236 0.16981709 -0.29143298 0.49402875 -0.38513762 -0.23428452 0.2116456 -0.11747444
-0.43340123 -0.107560575 -0.43266964 0.3043818 -0.46449202 -0.4374749 0.17547321 -0.31798482
0.17075494 0.07993374 0.16480899 -0.14786965 -0.36760014 -0.0063802004 0.07287437 0.16265446
0.21276583 -0.297204 -0.19864039 0.2774197 -0.07545787 0.2392084 0.19369733 0.0148284435
-0.40755188 -0.2212413 -0.37431604 0.24101102 -0.3552705 0.025542557 0.4657668 0.093601584
0.2156246 -0.14930406 0.49485558 -0.21211006 -0.1205349 0.4897883 0.35436207 -0.18778318
00000000: 4c92 743e bfd0 61be a4d4 833e fb56 e33d
00000010: 9ce0 e53e f7b3 fd3e 2ab5 d5be 5255 013f
00000020: 58b2 eb3e 6af2 06bc 9169 cf3d e2fa 90bd
00000030: fc73 5dbe a00a 2dbe b60c d23e 627b 883e
00000040: d8ac c2bd 88e4 2d3e b436 95be 56f1 fc3e
00000050: c230 c5be 48e8 6fbe a0b9 583e 7096 f0bd
00000060: c4e6 ddbe b848 dcbd e086 ddbe eed7 9b3e
00000070: e6d1 edbe b6fc dfbe 40af 333e e8ce a2be
00000080: 62da 2e3e 4db4 a33d b0c3 283e 246b 17be
00000090: 1636 bcbe 0011 d1bb 283f 953d e48e 263e
000000a0: 49df 593e 1f2b 98be 6368 4bbe f409 8e3e
000000b0: a889 9abd 0cf3 743e 9858 463e 00f3 723c
000000c0: a4aa d0be 148d 62be 5aa6 bfbe 98cb 763e
000000d0: 04e6 b5be a03e d13c fc78 ee3e 30b2 bf3d
000000e0: b2cc 5c3e 2ae3 18be b65d fd3e 6133 59be
000000f0: 00db f6bd 88c5 fa3e f26e b53e 3c4a 40be

bias f4 [16]
0.2022174 -0.43640202 0.51055753 -0.10569584 0.3248666 0.38931143 0.42256176 -0.2800876
0.24428463 -0.21985841 -0.26169157 -0.41097796 0.033042252 -0.16908741 -0.42258832 0.083679676
00000000: 1412 4f3e 1670 dfbe e6b3 023f 1077 d8bd
00000010: ea54 a63e d453 c73e 045a d83e a467 8fbe
00000020: c025 7a3e 9022 61be 70fc 85be b46b d2be
00000030: 5057 073d 4025 2dbe 7f5d d8be 4060 ab3d

weight f4 [16, 16]
-0.08930966 -0.022478998 -0.100111485 0.14024165 -0.21921921 -0.10846338 0.21647912 0.18674776
-0.10297465 -0.20369697 -0.22722307 -0.008374512 0.06455198 -0.0701319 0.048149496 0.22146776
-0.24186692 -0.15164301 0.076711684 0.18372038 0.13859633 -0.05184549 -0.031752676 -0.03493035
0.030492574 0.042485654 -0.1801658 -0.12161794 -0.036714375 -0.17708191 0.12550709 0.115842074
0.1691704 0.14854957 0.15901591 -0.086459786 0.06235251 0.18252695 0.18256488 -0.030849218
0.24971162 0.057588547 -0.07109972 -0.19284725 0.067763835 0.24555647 -0.10914251 0.20290548
-0.10767403 -0.106226265 0.024496257 -0.23779184 0.22119442 0.019996464 0.01122877 -0.08487579
0.13275307 0.031420797 -0.12931743 -0.1745896 -0.040097117 0.19083092 0.11205727 -0.17649755
0.16730267 0.0150719285 -0.12519315 -0.08507547 0.06453088 -0.16447026 0.07218781 -0.010516077
-0.11057356 0.018161744 -0.02744186 -0.19640452 -0.12837896 -0.24936247 -0.012530297 0.24726975
0.12803909 0.0046467907 0.028302245 0.08199373 0.16301963 0.13606709 0.089104205 -0.15357155
0.11241527 0.043088526 -0.22993216 -0.012382537 -0.11610201 -0.21858582 0.22297084 -0.073381335
0.033192724 0.055761248 -0.16820249 -0.03720036 0.15242898 0.12124637 0.01702264 0.017944485
0.2086856 -0.041606963 -0.18179175 -0.10123721 -0.089674085 0.14402798 0.0077381134 0.17735198
-0.12660602 0.17703778 -0.113500476 0.17592666 0.096788436 -0.013030082 -0.09786531 0.2117342
0.1337837 -0.1969324 0.062408682 -0.16369057 0.1794143 0.0806371 0.22254726 -0.05062771
-0.24053887 0.024712563 -0.17233631 -0.18010965 0.15805864 -0.077020854 -0.10090071 0.17089468
0.22089079 0.17499506 0.1219503 -0.0863702 0.11220634 -0.23724893 0.13269132 -0.14539129
-0.12846923 0.1152128 0.111417614 -0.10094309 0.18989182 0.10567579 -0.015596211 -0.016581923
0.06383752 -0.07490173 -0.1342259 0.00091454387 -0.06282824 -0.011348188 0.15641212 0.19965792
-0.2162176 -0.1783225 -0.04766345 -0.09666008 0.041831642 -0.15911973 0.20561668 -0.18488723
-0.11865163 -0.04479012 0.11442131 0.012371123 0.10646883 -0.03996724 -0.14413318 -0.03929326
-0.048513412 0.16184765 -0.036691576 0.076839864 -0.03406465 -0.17486101 0.068042606 0.18775946
-0.05080065 0.096043736 -0.20455185 0.10438511 0.21693951 0.18683973 -0.21325576 -0.1602984
-0.1178796 -0.07620603 0.22750016 0.18336332 -0.06074822 -0.08229822 0.033903748 0.005877465
0.1987934 -0.017175108 -0.13629378 0.10495639 0.153986 -0.021041512 0.13725357 0.03451726
0.09196243 -0.18089807 0.019254416 0.19699985 -0.12900847 -0.092291236 -0.17698479 0.09702191
-0.13983372 -0.032437503 0.13775945 0.09442839 0.13837162 -0.16683665 -0.06377497 0.14357847
0.0034835385 0.023007045 0.19380921 0.22721452 -0.14507174 -0.119665414 -0.05832848 -0.18743351
0.03315915 0.06051755 -0.061202686 -0.057806134 -0.24107295 0.17558753 -0.0790074 0.0030626953
-0.20142335 0.0693447 -0.17526335 0.095813185 -0.124822676 0.2141068 -0.21436515 0.1581949
0.014919281 0.12019044 0.051757216 0.07210365 0.21869436 0.023335993 -0.052196324 0.13678437
00000000: fce7 b6bd e025 b8bc 4007 cdbd 829b 0f3e
00000010: 007b 60be 0c22 debd b4ac 5d3e ce3a 3f3e
00000020: 60e4 d2bd f095 50be 2aad 68be 4035 09bc
00000030: d433 843d 50a1 8fbd 6838 453d 72c8 623e
00000040: f6ab 77be 4e48 1bbe 041b 9d3d 3221 3c3e
00000050: 32ec 0d3e f05b 54bd 180f 02bd 2013 0fbd
00000060: 90cb f93c 7005 2e3d 627d 38be d412 f9bd
00000070: d061 16bd f654 35be ee84 003e 9c3e ed3d
00000080: 013b 2d3e 611d 183e 11d5 223e d411 b1bd
00000090: 5865 7f3d 58e8 3a3e 4af2 3a3e 80b7 fcbc
000000a0: 67b4 7f3e f8e1 6b3d bb9c 91bd c079 45be
000000b0: c4c7 8a3d 2873 7b3e 1c86 dfbd 74c6 4f3e
000000c0: 3484 dcbd 288d d9bd 60ac c83c b47f 73be
000000d0: ca80 623e a0cf a33c e0f8 373c 5cd3 adbd
000000e0: 6cf0 073e 18b3 003d ca6b 04be 9ec7 32be
000000f0: e03c 24bd 2e69 433e 487e e53d c6bb 34be
00000100: 6451 2b3e 40f0 763c a232 00be 0c3c aebd
00000110: c428 843d e46a 28be 34d7 933d a04b 2cbc
00000120: 6474 e2bd f0c7 943c c0cd e0bc 441e 49be
00000130: c675 03be e058 7fbe e04b 4dbc 4834 7d3e
00000140: ae1c 033e 1b44 983b 1cda e73c 54ec a73d
00000150: 9eee 263e 2c55 0b3e 447c b63d dc41 1dbe
00000160: fa39 e63d 987d 303d 5673 6bbe 20e0 4abc
00000170: e4c6 edbd f6d4 5fbe 7852 643e f448 96bd
00000180: 18f5 073d e865 643d 463d 2cbe 685f 18bd
00000190: 5816 1c3e 0450 f83d 1073 8b3c 5000 933c
000001a0: aeb1 553e 106c 2abd 9e27 3abe 7455 cfbd
000001b0: 0ca7 b7bd 127c 133e 0090 fd3b c29b 353e
000001c0: 02a5 01be 6449 353e f072 e8bd 1e26 343e
000001d0: 0439 c63d 207c 55bc 9c6d c8bd dad0 583e
000001e0: 98fe 083e a6a8 49be 3fa0 7f3d 809e 27be
000001f0: 62b8 373e 1025 a53d 6ee3 633e 005f 4fbd
00000200: d24f 76be 0072 ca3c ee78 30be aa6e 38be
00000210: 20da 213e 1cbd 9dbd 08a5 cebd 04ff 2e3e
00000220: 3231 623e e831 333e 14c1 f93d dce2 b0bd
00000230: 70cc e53d 62f1 72be 3ce0 073e 74e1 14be
00000240: 708d 03be b0f4 eb3d eb2e e43d 40bb cebd
00000250: 0073 423e 8c6c d83d 4087 7fbc d0d6 87bc
00000260: 3fbd 823d 1466 99bd 8472 09be 00be 6f3a
00000270: 18ac 80bd c0ed 39bc 802a 203e 2073 4c3e
00000280: 2668 5dbe 2c9a 36be c03a 43bd b8f5 c5bd
00000290: a857 2b3d 48f0 22be 2e8d 523e 1453 3dbe
000002a0: a0ff f2bd d875 37bd b855 ea3d 40b0 4a3c
000002b0: 540c da3d b0b4 23bd a697 13be f8f1 20bd
000002c0: 00b6 46bd 64bb 253e e849 16bd 385e 9d3d
000002d0: 6087 0bbd c40e 33be ec59 8b3d 0444 403e
000002e0: 5814 50bd 94b2 c43d 0a76 51be dcc7 d53d
000002f0: 6425 5e3e ea52 3f3e b85f 5abe 4425 24be
00000300: dc6a f1bd e811 9cbd cdf5 683e 98c3 3b3e
00000310: 20d3 78bd f88b a8bd a8de 0a3d c097 c03b
00000320: 7f90 4b3e d0b2 8cbc 9990 0bbe 60f3 d63d
00000330: 82ae 1d3e 405f acbc 338c 0c3e f861 0d3d
00000340: cc56 bc3d 583d 39be 70bb 9d3c 54ba 493e
00000350: cc1a 04be 3003 bdbd 803b 35be 6cb3 c63d
00000360: 9230 0fbe 30dd 04bd d010 0d3e ac63 c13d
00000370: 4ab1 0d3e 3ad7 2abe 749c 82bd 3c06 133e
00000380: 144c 643b 4579 bc3c ec75 463e ecaa 683e
00000390: b08d 14be 2413 f5bd d8e9 6ebd 92ee 3fbe
000003a0: e4d1 073d 40e1 773d abaf 7abd 20c6 6cbd
000003b0: d4db 76be 38cd 333e a2ce a1bd 80b7 483b
000003c0: ec41 4ebe 9804 8e3d 3c78 33be b439 c43d
000003d0: 08a3 ffbd d03e 5b3e 8a82 5bbe d8fd 213e
000003e0: 0070 743c 6826 f63d 60ff 533d 14ab 933d
000003f0: 6af1 5f3e 202b bf3c d0cb 55bd 3411 0c3e

bias f4 [16]
-0.029099166 0.23851967 0.0027486633 -0.07940397 -0.018844008 -0.18377446 -0.05090645 0.076394685
-0.20872378 0.0038475776 0.20571256 -0.21237901 0.24621642 -0.09245163 -0.09231078 -0.15273395
00000000: 6061 eebc 803e 743e eb22 343b 8c9e a2bd
00000010: c05e 9abc 5f2f 3cbe 4883 50bd d174 9c3d
00000020: b0bb 55be a427 7c3b 50a6 523e e279 59be
00000030: 2820 7c3e 4857 bdbd 6f0d bdbd 4a66 1cbe

weight f4 [32, 16]
0.08802956 0.07798439 -0.03969944 -0.13754705 0.002458036 -0.26470172 0.13660356 0.1399644
-0.17160374 -0.0116558885 -0.096797794 -0.049533278 -0.17575096 -0.24117726 0.07354104 0.18705365
0.06822702 -0.24661815 0.15159439 0.13976166 0.050846756 0.09997854 0.015982658 0.16240716
-0.095290184 0.05604216 0.18994048 -0.02881071 -0.09199568 0.24629185 0.25805357 0.113093436
-0.017610192 -0.19099924 -0.11803531 -0.005873978 0.12019968 0.10728234 0.12294933 -0.17524023
0.0029566586 0.006100413 0.09070605 0.08529332 0.01651263 -0.061935186 -0.037119087 0.031753242
0.17145208 -0.0024358928 -0.04088628 -0.16659129 -0.15818828 0.105704576 0.20555288 -0.08558558
-0.15256846 0.00083032565 -0.22447142 -0.16785347 -0.111513756 -0.20771581 -0.15958203 0.24312174
-0.121515125 -0.13921317 -0.16058572 -0.062916756 -0.09173319 0.19692332 -0.24074614 0.13539699
0.08627778 -0.2792688 0.16098496 -0.082371 -0.22746745 0.06563532 -0.109584205 -0.18364382
-0.024818987 0.13397375 -0.19737773 0.11207828 -0.15834361 -0.12160111 -0.085989654 -0.09903339
0.0006927252 0.0029682957 -0.09388891 -0.1412265 0.1958733 0.19407344 -0.13011722 -0.026933491
-0.23451668 -0.22450733 0.10622671 -0.16173321 -0.05539304 0.14790279 -0.15540445 -0.18783951
0.15450087 0.0032114608 -0.078335345 -0.095579416 -0.25452498 -0.07195556 -0.001686224 0.0077780783
0.23250315 0.021766603 -0.104384035 0.16030592 0.18720087 -0.15657228 -0.060600758 -0.23940012
0.07789177 -0.12287758 -0.03238964 -0.13801992 0.14225556 0.23599961 -0.043225344 -0.18920878
0.13469043 0.078709304 -0.22867069 -0.18443522 0.0147818625 -0.08308625 -0.046228826 0.2026208
0.18336248 0.1480019 -0.11881739 -0.24246988 0.19537294 0.19497529 0.011292869 -0.11943111
-0.23063305 -0.24168679 0.20805478 -0.11741555 -0.1997278 0.15830794 0.19681984 0.016341848
0.050902605 0.047860753 0.09988582 0.00023013353 -0.04099862 0.0007597804 -0.049918685 -0.06022209
0.07310784 -0.2255967 -0.07075914 0.2332356 -0.22991431 0.02027597 -0.20234966 -0.20592116
-0.12600681 -0.09512651 0.014513731 0.14055145 -0.20241037 -0.22663823 -0.17635669 0.07243359
-0.001750499 -0.17272556 0.022738649 0.025298446 0.107290685 -0.06720183 -0.208336 -0.17468187
0.058679253 -0.21546629 -0.23922276 -0.09201315 -0.28093717 -0.24249059 -0.100808196 0.12611166
0.19898733 0.19465405 -0.106866196 -0.23354527 0.17801523 0.02276298 -0.14981979 -0.186273
-0.16094998 -0.14119337 -0.029860973 0.19041741 0.021123724 0.10773772 -0.16096118 -0.21487606
0.016666621 0.22827336 -0.15268151 0.21397701 -0.18012306 -0.068304226 -0.03695914 -0.03842367
-0.002344638 -0.18028387 -0.10722542 -0.22841257 0.1981642 -0.12504545 -0.15033442 -0.14384535
-0.05388692 -0.05484292 -0.238701 0.19284281 0.21178484 -0.08545354 0.11519322 -0.05005448
-0.09088814 -0.12627545 0.043672502 -0.15483966 -0.056958612 -0.09024364 -0.12799719 0.03126645
-0.04953766 -0.22468108 0.15831053 0.21165279 0.1450926 -0.16491991 0.0943315 0.23493844
-0.05570337 0.0017665926 0.08124128 -0.002217114 0.22832364 -0.016296387 0.2623149 -0.094023526
00000000: d848 b43d 48b6 9f3d e19b 22bd 22d9 0cbe
00000010: 0017 213b fc86 87be cee1 0b3e d452 0f3e
00000020: e4b8 2fbe 57f8 3ebc ec3d c6bd 68e3 4abd
00000030: 0ff8 33be 2cf7 76be af9c 963d fe8a 3f3e
00000040: 9cba 8b3d 7889 7cbe 8f3b 1b3e ae1d 0f3e
00000050: b044 503d 8cc1 cc3d 10ee 823c 104e 263e
00000060: 8027 c3bd 778c 653d c27f 423e 7004 ecbc
00000070: 3b68 bcbd ee33 7c3e 991f 843e 889d e73d
00000080: 4043 90bc 4e95 43be 7fbc f1bd 807a c0bb
00000090: 402b f63d d8b6 db3d dccc fb3d 2d72 33be
000000a0: 80c4 413b f9e5 c73b 18c4 b93d 44ae ae3d
000000b0: 7f45 873c c0af 7dbd 2f0a 18bd b00f 023d
000000c0: 2291 2f3e 80a3 1fbb 5f78 27bd e896 2abe
000000d0: 1cfc 21be a47b d83d 747c 523e 7e47 afbd
000000e0: e83a 1cbe 36aa 593a d6db 65be c8e1 2bbe
000000f0: 5361 e4bd 74b3 54be 7969 23be e8f4 783e
00000100: ecdc f8bd e68d 0ebe 9570 24be 80da 80bd
00000110: 9cde bbbd 44a6 493e 2886 76be 82a5 0a3e
00000120: 68b2 b03d 52fc 8ebe 3ed9 243e 20b2 a8bd
00000130: 3aed 68be d06b 863d af6d e0bd 200d 3cbe
00000140: 3051 cbbc 6a30 093e 631d 4abe 4c89 e53d
00000150: d424 22be 010a f9bd 581b b0bd 05d2 cabd
00000160: 0098 353a bd87 423b d448 c0bd ae9d 10be
00000170: 0393 483e 30bb 463e 733d 05be a0a3 dcbc
00000180: 2425 70be 40e5 65be 648d d93d 649d 25be
00000190: d0e3 62bd d473 173e 5822 1fbe 0059 40be
000001a0: 7a35 1e3e 5f77 523b 486e a0bd 24bf c3bd
000001b0: 1951 82be 705d 93bd 4a04 ddba 40df fe3b
000001c0: 4e15 6e3e e04f b23c 4cc7 d5bd 3c27 243e
000001d0: 96b1 3f3e 7c54 20be 8038 78bd 4e25 75be
000001e0: b885 9f3d 3ea7 fbbd 00ab 04bd 1855 0dbe
000001f0: 71ab 113e e2a9 713e 0f0d 31bd f2bf 41be
00000200: 4aec 093e 5832 a13d a628 6abe 96dc 3cbe
00000210: a02f 723c 2029 aabd 705a 3dbd d47b 4f3e
00000220: 60c3 3b3e cf8d 173e 8856 f3bd 064a 78be
00000230: d80f 483e 9aa7 473e ba05 393c 4c98 f4bd
00000240: 122b 6cbe be7c 77be 500c 553e 9077 f0bd
00000250: 7285 4cbe 7a1b 223e 248b 493e 57df 853c
00000260: 407f 503d a309 443d f090 cc3d 0050 7139
00000270: 2bee 27bd 002c 473a 8977 4cbd 70ab 76bd
00000280: 90b9 953d d202 67be 2bea 90bd 50d5 6e3e
00000290: a86e 6bbe cb19 a63c c034 4fbe ffdc 52be
000002a0: ee07 01be b0d1 c2bd 00cb 6d3c b8ec 0f3e
000002b0: aa44 4fbe da13 68be d996 34be 1058 943d
000002c0: 0071 e5ba f8de 30be 6746 ba3c b03e cf3c
000002d0: 38bb db3d 1da1 89bd 0856 55be cedf 32be
000002e0: a859 703d 32a3 5cbe d0f6 74be 6471 bcbd
000002f0: ffd6 8fbe 744f 78be 8774 cebd 6a23 013e
00000300: 56c3 4b3e 6453 473e aadc dabd 7e26 6fbe
00000310: a049 363e 6e79 ba3c 5c6a 19be 59be 3ebe
00000320: 12d0 24be ff94 10be 009f f4bc c8fc 423e
00000330: a90b ad3c 98a5 dc3d 02d3 24be 7808 5cbe
00000340: 7088 883c 7ec0 693e 8b58 1cbe ca1c 5b3e
00000350: 2e72 38be 16e3 8bbd 7862 17bd 2362 1dbd
00000360: 80a8 19bb 569c 38be 0099 dbbd fce4 69be
00000370: 8eeb 4a3e ea0b 00be 44f1 19be 324c 13be
00000380: 88b8 5cbd f8a2 60bd 096e 74be 9678 453e
00000390: 20de 583e 4402 afbd 6cea eb3d ed05 4dbd
000003a0: 9023 babd 5a4e 01be f0e1 323d 4a8e 1ebe
000003b0: 6f4d 69bd a8d1 b8bd b211 03be 4011 003d
000003c0: 00e8 4abd cc12 66be 281c 223e 82bb 583e
000003d0: 2893 143e c4e0 28be e030 c13d b493 703e
000003e0: 3829 64bd 038d e73a d461 a63d 004d 11bb
000003f0: accd 693e 0080 85bc 234e 863e 688f c0bd

bias f4 [32]
-0.29483327 -0.017534228 0.14915147 -0.21988311 -0.18378465 0.18186408 -0.23140377 0.13749006
0.03409418 0.21226981 0.016056584 -0.16797213 0.014106044 -0.2267368 -0.017917294 -0.083471365
-0.043294527 -0.11640295 -0.16149421 -0.19287977 0.14020555 0.15034482 -0.07414412 0.17881642
-0.12227068 -0.094134994 -0.22987965 -0.084559895 0.20087609 0.007111918 -0.19078735 0.23920383
00000000: 63f4 96be f1a3 8fbc 2abb 183e 0a29 61be
00000010: 0b32 3cbe 943a 3a3e 1cf5 6cbe 32ca 0c3e
00000020: 57a6 0b3d 425d 593e 1989 833c e300 2cbe
00000030: 091d 673c b12d 68be 4ac7 92bc 09f3 aabd
00000040: 9a55 31bd ab64 eebd bd5e 25be 4682 45be
00000050: 0b92 0f3e fef3 193e dfd8 97bd a71b 373e
00000060: 0d69 fabd d9c9 c0bd 9265 6bbe bd2d adbd
00000070: 76b2 4d3e 180b e93b c25d 43be d9f1 743e

weight f4 [16, 2]
-0.62111133 -0.109870315 -0.106105864 -0.66255933 0.55065507 0.17361027 0.2892319 0.20007616
-0.64448714 0.57093436 0.4716614 -0.465589 -0.47376186 0.31084687 -0.5214431 -0.70035744
-0.64831173 0.083575845 0.5582662 0.6667575 0.56901425 -0.10581684 0.0671466 0.42225868
0.37479764 0.17153132 -0.6390472 0.033932447 -0.27737185 -0.37690932 0.42513698 -0.34560195
00000000: 2701 1fbf b003 e1bd 084e d9bd 7d9d 29bf
00000010: bbf7 0c3f e4c6 313e 3416 943e c4e0 4c3e
00000020: 1cfd 24bf c128 123f 9a7d f13e ae61 eebe
00000030: ea90 f2be 5227 9f3e 4c7d 05bf a04a 33bf
00000040: c2f7 25bf d029 ab3d 89ea 0e3f 9fb0 2a3f
00000050: ebaa 113f 80b6 d8bd 2884 893d 4a32 d83e
00000060: 7ae5 bf3e e8a5 2f3e 9998 23bf c0fc 0a3d
00000070: af03 8ebe 42fa c0be 8eab d93e bdf2 b0be

bias f4 [16]
-0.24998239 -0.42395717 0.5519939 0.36703712 -0.18272805 0.0009756088 -0.5677154 0.25796646
-0.6027917 0.3284678 0.56341606 0.48783797 -0.59466326 0.10555881 0.36288363 -0.35994512
00000000: 62fb 7fbe ea10 d9be 794f 0d3f 4aec bb3e
00000010: 101d 3bbe 00c0 7f3a cc55 11bf 2e14 843e
00000020: 8f50 1abf ee2c a83e 093c 103f e6c5 f93e
00000030: da3b 18bf 382f d83d e2cb b93e ba4a b8be
