logs/测试initial_cnn_arg结构pooling结构带来的影响/weight_network.AdaptiveCNN.initial_cnn_arg.pooling_model=avg/test_model_20250425_155132.pth (torch, 840675 bytes, 78 tensors)

weight_function_network.initial_cnn.0.weight f4 [8, 1, 3, 3]
000000 a8 cf da 3d 6f 94 14 3e bd 7c 6e be c0 7b d0 bd
       0.106841385 0.14509748 -0.23289771 -0.101798534
000010 5d 31 d6 3e cb ee 62 3e 3c fc 10 be 87 89 81 3e
       0.41834536 0.22161405 -0.1415872 0.25300238
000020 f8 b2 38 3e e2 14 8f 3e 77 87 6d 3e ab 82 a2 be
       0.18037021 0.2794562 0.23196207 -0.31740317
000030 3d db a7 3e 7c e2 8d 3e d8 59 57 3e 6a 84 9c 3e
       0.32784453 0.27711856 0.21030366 0.30569774
000040 4e 90 73 be 2e 35 d5 3c 1e 86 6b be 6b 05 a8 3e
       -0.23785517 0.026026335 -0.2300038 0.32816634
000050 dd c9 de bd 8c c4 e2 bd cd 97 e9 3d 87 b1 2e b9
       -0.10878346 -0.110726446 0.11405907 -0.00016660067
000060 80 09 09 bd 85 d1 2d 3e 65 b5 98 3e c3 e8 4d 3e
       -0.033456326 0.16974457 0.29825893 0.20108323
000070 bc 7e 5b 3e 5e c7 8e be 3e 6a aa be 28 3e f2 bc
       0.21435064 -0.2788648 -0.3328418 -0.029570654
000080 a9 85 55 3e 50 6a 9c 3e c7 0c 9c be e5 83 bf be
       0.20851769 0.3054986 -0.30478498 -0.37405315
000090 e1 ad 08 3e 5e f9 da bc df af de 3d d2 6c 84 be
       0.1334758 -0.026730236 0.108733885 -0.25864273
0000a0 3c 2a 38 3e 07 f0 01 3d 64 00 95 be f9 8b c3 be
       0.17984861 0.03172305 -0.2910186 -0.38192728
0000b0 27 4a a7 be 53 98 95 be c6 ae c1 3d 79 47 c2 bd
       -0.3267376 -0.29217777 0.094571635 -0.094862886
0000c0 ef b4 8a 3e d5 bd 9b 3e df 5d 48 bd 66 9f 92 be
       0.27091166 0.30418268 -0.048917647 -0.28637236
0000d0 39 dd 06 3e 48 88 13 be d6 ae 17 be 1b 74 74 be
       0.13170327 -0.14407456 -0.14812788 -0.23872416
0000e0 70 cf ba bc f9 17 a4 be 34 85 46 be c8 35 30 3e
       -0.022803992 -0.3204954 -0.1938675 0.17208016
0000f0 8c cb 16 bd 79 ea d8 bc b3 58 9b be c7 46 81 3e
       -0.03681521 -0.026478993 -0.3034111 0.2524931
000100 45 2e 95 3d e5 f3 11 be 5a 50 0e 3e c6 fa df be
       0.07284216 -0.14253195 0.13897839 -0.43746012
000110 d0 35 1f be e8 6e 1c bd 71 cf 99 3e f1 60 18 3e
       -0.15547872 -0.038191706 0.30041078 0.1488073

weight_function_network.initial_cnn.0.bias f4 [8]
000000 75 59 62 3e ac a0 95 bd cd ee 81 3d d5 b7 c1 bb
       0.22104438 -0.07306036 0.06344376 -0.005911807
000010 ea c3 ad 3e 91 a3 05 be c5 8f 07 be 63 f4 8f 3e
       0.33938533 -0.13050677 -0.13238437 0.2811614

weight_function_network.initial_cnn.1.weight f4 [8]
000000 fd 06 68 3f 47 45 60 3f 9a 19 78 3f 40 54 78 3f
       0.90635663 0.8760571 0.96914065 0.97003555
000010 07 26 80 3f 74 f8 94 3f 26 35 81 3f c5 82 69 3f
       1.0011605 1.1638322 1.0094345 0.91215163

weight_function_network.initial_cnn.1.bias f4 [8]
000000 8b 40 87 bd 59 49 a1 bd 52 c3 76 bd 40 0f 52 bd
       -0.066041075 -0.07875318 -0.060244866 -0.051284075
000010 94 c4 2a bd 82 a4 39 bd b9 5c 12 bd 98 76 94 bd
       -0.041691378 -0.045322903 -0.03573296 -0.072491825

weight_function_network.initial_cnn.1.running_mean f4 [8]
000000 50 48 19 3f 41 86 d5 3e c8 0b 82 3e 70 18 39 be
       0.59875965 0.4170399 0.25399613 -0.18075728
000010 9d f1 fc bc b7 66 23 be 98 f1 20 bf e7 25 af 3e
       -0.030876929 -0.15957151 -0.6286864 0.34208605

weight_function_network.initial_cnn.1.running_var f4 [8]
000000 ae fa ff 3d 35 88 55 3e 4b 1e 1a 3d 88 c8 02 3d
       0.12498985 0.2085274 0.037626546 0.031929523
000010 f8 28 00 3e c8 23 5f 3b cc 75 4c 3e 87 4d f3 3b
       0.12515628 0.0034048427 0.19966811 0.0074250135

weight_function_network.initial_cnn.4.weight f4 [16, 8, 3, 3]
000000 9f 2b 80 3d c0 e4 9c bc 45 d4 7f bc 41 4d d3 bd
       0.0625832 -0.019152045 -0.015614574 -0.103174694
000010 93 b7 a8 bd c5 87 e1 bc 47 8c fa bd bf 52 2e 3c
       -0.08238139 -0.02753056 -0.12233787 0.010639845
000020 5c 03 cd 3d c0 94 00 3e 56 ad 17 bd cc 4c a4 bb
       0.100104064 0.12556744 -0.03703054 -0.0050140377
000030 47 c7 6f 3c 65 10 08 3d 77 ab f5 bb 3d 78 99 bd
       0.014634914 0.03321876 -0.007497247 -0.07493637
000040 4f 28 9d 3d 77 4c f4 bc b1 75 f7 bd 4e ab a1 bd
       0.07673704 -0.029821618 -0.12082995 -0.07894002
000050 78 4a 32 bd ec e1 9b 3d 9f 3e 02 3e 9b 86 09 3c
       -0.04352805 0.076114506 0.127192 0.008393909
000060 78 ce 88 bd d5 3d b6 3d 13 be af 3c 4e 65 c7 3c
       -0.06680006 0.08898512 0.02145294 0.024340298
000070 a7 f9 05 be b7 28 bf 3c 8c 5e a3 3c 48 22 14 be
       -0.13083516 0.023334844 0.019942544 -0.14466202
000080 95 80 e1 3d 76 d9 2d 3e da 60 83 bd 27 5f 3b 3e
       0.11010853 0.16977486 -0.06414957 0.18298016
000090 34 e9 93 3d 1d 14 aa bd ff e2 c8 3c 66 aa a2 bd
       0.07222214 -0.083046176 0.024522303 -0.07942657
0000a0 da b7 73 bd 23 54 86 ba 5d 86 91 3a 23 78 f0 3d
       -0.059501506 -0.0010248463 0.0011102665 0.11741664
0000b0 25 77 1c bd 9e cd 2f be 8e 74 29 be 90 74 16 3e
       -0.038199563 -0.1716828 -0.16548368 0.14692903
0000c0 8b 91 12 3b 42 fa fc 3d f9 5f 75 3e d1 c6 19 3e
       0.0022364582 0.123524204 0.23962392 0.15017249
0000d0 f6 f9 a3 bd fa a5 41 3e 95 c9 c5 3d d7 3c 49 3d
       -0.08006661 0.18910971 0.09657589 0.049130287
0000e0 97 f3 d5 3c 30 d0 0f 3d ca c8 fa bd a3 ea d8 bd
       0.02611713 0.035110652 -0.12245329 -0.105916284
0000f0 37 5a 3c bd b6 d5 a8 3d 91 e6 ca bd b4 8e 0c 3d
       -0.045984473 0.08243887 -0.09907258 0.03431578
000100 02 61 b4 bd 9b db bd bd 95 47 92 bd 9e 2c 51 bd
       -0.08807565 -0.09270402 -0.071425594 -0.05106794
000110 91 b7 e0 3d bb 80 90 bd ad 90 96 bd 11 8b 81 bc
       0.109725125 -0.070558034 -0.073518135 -0.015813382
000120 a3 15 12 bd 3f 92 14 be a9 87 99 bc d2 a8 01 3c
       -0.035665166 -0.14508913 -0.018741446 0.007913785
000130 18 9a d2 3c e4 ff ee bc 0a d3 72 bd f5 35 c1 bd
       0.025708243 -0.029174753 -0.059283294 -0.094341196
000140 20 1d 1e 3e b8 d8 4a 3d 8d ec 0a bd 65 0d 86 3c
       0.15440798 0.049523085 -0.033917 0.016363809
000150 47 fe b1 bd b7 b7 fe 3c 6e 69 3c 3d 0f 53 78 3c
       -0.08691078 0.031093461 0.045998983 0.015156521
000160 67 60 0c 3d 29 bf da bc 2c ac 83 bd 78 52 0e 3d
       0.034271624 -0.02670248 -0.064293236 0.034746617
000170 c5 3c f0 3c 67 6d 99 3d a1 ec cb 3c 79 c7 79 3d
       0.029325852 0.0749157 0.024893107 0.060981248
000180 a3 c7 05 be e0 75 5d bd 8d 7b 54 3d 30 1b bd 3d
       -0.13064437 -0.054067492 0.05187564 0.09233701
000190 e3 8d 12 bd b3 14 24 3e 26 60 a7 bb 44 68 fc bd
       -0.035779845 0.16023521 -0.0051078973 -0.123245746
0001a0 92 b5 92 bc 6f 32 5c bd 42 b0 19 bc b8 d4 15 3e
       -0.017908845 -0.053759035 -0.009380402 0.14631927
0001b0 85 0a 99 3d 32 29 80 3d dd 4b 3d bb 25 20 60 3d
       0.074727096 0.062578574 -0.002888433 0.054718155
0001c0 f0 ce 00 bc 2a 8f ba bd c7 2d a6 bd 03 f8 74 3d
       -0.007861838 -0.09109338 -0.081142 0.059806835
0001d0 b4 60 b2 3b d7 bd 68 3d 57 2e 29 be 9b d6 28 3e
       0.005443657 0.05682167 -0.16521583 0.16488115
0001e0 f5 0c 2a 3e 11 e1 82 3d f8 63 83 3e a1 ea eb 3c
       0.16606505 0.06390584 0.25662208 0.028798403
0001f0 9e 0b 97 bd 5d b6 42 3d 48 27 d3 3d d7 be c4 bd
       -0.07375263 0.047537196 0.10310227 -0.09606712
000200 ef 00 cf 3d 80 34 07 3e 26 34 97 bd a6 49 5a bd
       0.101076 0.13203621 -0.073829934 -0.053292893
000210 0d a7 c7 bc 50 5d db bd 8e a6 1f 3d ca 8c 3e bd
       -0.024371648 -0.10711157 0.0389772 -0.046520986
000220 21 9a 4e 3d cc f9 ee bd 5f 85 f4 bc 6d c2 3e 3c
       0.050439958 -0.11668739 -0.029848753 0.011643034
000230 73 d5 9d bd e1 65 65 3d 1c 80 c9 bd 44 ec cf 3d
       -0.07706728 0.056005362 -0.09838888 0.10152486
000240 c9 86 0b bd 33 ee ec bd 4a 7d 6f bd 54 80 50 3d
       -0.034064088 -0.115688704 -0.058469094 0.050903633
000250 99 93 60 bd 72 a0 a1 bd 19 a0 96 bd 2e 5b d2 bc
       -0.05482826 -0.07891931 -0.07354755 -0.025678243
000260 22 68 d4 bb 2a 19 d7 3d c6 ad 29 be e5 09 9d bd
       -0.00648214 0.105028465 -0.16570196 -0.07667903
000270 f9 33 3f bd a5 49 fd bd 63 16 c7 bc 09 46 d6 bd
       -0.046680424 -0.12367562 -0.024302667 -0.10462577
000280 8a 66 f8 bd e2 e5 13 3d a9 2c 67 3d ee ea 08 be
       -0.12128933 0.036107905 0.056439076 -0.13370869
000290 e2 ed 85 3c 35 99 5c 3a 93 79 49 3d bf 96 43 3d
       0.016348783 0.00084151636 0.049188208 0.047751185
0002a0 09 d3 ac 3c 14 9a 87 bd 3a d8 f3 bd fc 6d 98 3d
       0.021096723 -0.06621185 -0.11906476 0.07442853
0002b0 aa 7e 17 3c a9 5d b0 3c d5 5c 30 3d 23 2d d3 3c
       0.009246508 0.021529036 0.04305728 0.025778359
0002c0 5f 7c 48 bd f8 d8 d2 bc 9b 25 1d 3e a1 94 86 3d
       -0.048946735 -0.025738224 0.15346377 0.065713175
0002d0 22 7f 4f 3d 76 02 16 3e 06 f6 22 be 0e f1 91 3b
       0.050658353 0.14649376 -0.15914163 0.004453785
0002e0 4f 42 f3 bb 1d 29 84 3d f0 b2 37 bd 25 c8 1f 3e
       -0.007423676 0.06453154 -0.044848382 0.15603693
0002f0 67 72 36 3d 1e 5c 29 3d c6 2e 38 be a0 2e eb bd
       0.044542696 0.041347615 -0.17986593 -0.114835024
000300 77 aa 65 be c6 8d 89 be 28 9f e9 bd 89 23 5f bd
       -0.22428308 -0.26865977 -0.1140731 -0.05447725
000310 94 1b 38 be e8 ad fa bd 75 21 32 3e 0e 5d 09 3e
       -0.1797927 -0.12240201 0.17395575 0.13414404
000320 69 96 c7 bd 85 e1 12 3e fc 15 08 3e 20 f1 6a 3d
       -0.09745485 0.14343841 0.13289636 0.05735886
000330 86 a0 44 3d 51 3a 8d 3d 2a 4b 7b bd 07 68 cf ba
       0.04800465 0.068958886 -0.06135098 -0.0015823849
000340 c8 5d d5 3d c0 79 ae 3b 5a ac 6f bd 2e 48 f4 3a
       0.10418278 0.0053245723 -0.058513977 0.0018637234
000350 6b 9f ab bd fd aa ed bc ca b9 00 3d 31 a5 f4 bd
       -0.08380016 -0.029012198 0.031427182 -0.1194557
000360 6f 66 27 bd 4e 74 f0 3d 69 d8 5a 3d b0 20 75 bd
       -0.040869173 0.11740933 0.05342904 -0.059845626
000370 b3 9c 76 bc cd 3d 0b bc 2e 3c 87 3c 55 05 6f bd
       -0.015052008 -0.008498621 0.016508188 -0.058354694
000380 cc ce 17 3d 11 e4 96 3d bd 1f 1d 3e 98 cb 46 3e
       0.03706245 0.07367719 0.15344138 0.19413602
000390 9c 2f 49 3c aa 7f c3 bd 08 6c fb 3c e4 ec 3e 3e
       0.012279417 -0.09545834 0.030691162 0.18645054
0003a0 0f ec 92 bd f9 a5 d0 3d 3f a7 6e 3d 64 61 bc 3d
       -0.07173931 0.10187907 0.058264967 0.09198263
0003b0 d5 0a c9 3d ba b5 ca bd 28 59 9d 3d 4f 58 85 bd
       0.09816519 -0.09897943 0.07683021 -0.06510984
0003c0 2a e5 f8 3d e1 49 b3 bd f3 89 0a bd 96 bb 6e bd
       0.121530846 -0.08754326 -0.033822965 -0.058284365
0003d0 8b cc a8 3d 41 36 d0 3d 21 31 55 be b0 3b df 3d
       0.082421385 0.10166598 -0.20819522 0.10900056
0003e0 09 f7 e7 3d 92 c8 1f be a3 a5 23 be eb 4d ef 3c
       0.11326415 -0.15603855 -0.15981154 0.029211959
0003f0 1a 57 1c bd 0b cf aa 3d 2e fc ab bd 25 23 5a bd
       -0.038169004 0.083402716 -0.08397709 -0.053256173

weight_function_network.initial_cnn.4.bias f4 [16]
000000 75 b1 ef 3d cc 78 99 3c 42 1f 7c 3d 31 7f ef bd
       0.11703769 0.018734358 0.061553247 -0.11694182
000010 5c 99 9c 3d cc 52 7a 3b 14 a7 9a 3c 51 1a ce 3d
       0.076464385 0.0038196323 0.018878497 0.10063613
000020 be e2 2c bd 8b 46 e1 3d 6d 81 0a bd 99 37 9e bc
       -0.042208426 0.10999783 -0.033814836 -0.01931362
000030 10 d1 cd bd d7 bb d5 bd 82 10 87 3d a4 51 94 bd
       -0.10049641 -0.10436218 0.065949455 -0.07242134

weight_function_network.initial_cnn.5.weight f4 [16]
000000 92 e2 80 3f 2a fc 87 3f c7 7c 77 3f 0d de 5e 3f
       1.0069144 1.0623829 0.9667477 0.8705757
000010 ba de 90 3f df 82 7a 3f e9 1b 5b 3f ee 16 8b 3f
       1.1317971 0.97855943 0.8558946 1.0866373
000020 77 16 71 3f c4 ae 84 3f 9e 50 86 3f 9c 21 72 3f
       0.94174904 1.0365834 1.0493352 0.94582534
000030 6b 7c 7d 3f 57 34 64 3f ba ca 79 3f 55 62 7c 3f
       0.9901797 0.89142364 0.9757496 0.9858754

weight_function_network.initial_cnn.5.bias f4 [16]
000000 63 95 88 bd 0f e5 78 bd 92 71 b3 bd f1 a4 17 be
       -0.06669118 -0.060765322 -0.08761896 -0.14809014
000010 0a 3b 38 3d 58 a3 96 bd a8 20 a0 bd e2 79 9b bd
       0.04497818 -0.07355374 -0.07818729 -0.07591607
000020 7a 0c 9b bd 9a 07 3d bd 90 5d 0f be c4 46 eb bd
       -0.07570739 -0.046149828 -0.14000535 -0.11488107
000030 fd c3 03 bd 2c 00 cf bd 8d b5 e1 bc 21 f1 13 bc
       -0.03216933 -0.10107455 -0.02755239 -0.009029658

weight_function_network.initial_cnn.5.running_mean f4 [16]
000000 25 09 95 3d 53 a4 f9 3d 71 e9 bc be 8c 27 80 be
       0.07277135 0.121895455 -0.36896852 -0.25030172
000010 12 57 7c 3f 3f e3 5d 3f 4f 85 81 be 46 9e 38 3f
       0.9857036 0.86674875 -0.2529702 0.72116506
000020 ad a0 77 bf ac 64 92 3f 97 03 7c 3f 6f 1f 7b be
       -0.96729547 1.1436973 0.9844298 -0.2452371
000030 64 e1 30 bc e3 8f 2e 3f c5 c2 00 be 38 a6 a0 3e
       -0.010795925 0.68188304 -0.12574299 0.31376815

weight_function_network.initial_cnn.5.running_var f4 [16]
000000 e8 2a 15 3e 07 e1 0e 3e 6a 04 13 3f 45 51 03 3f
       0.14567149 0.13953029 0.5742861 0.5129588
000010 6c cc 3b 3f 07 ad 33 3f 1d 82 49 3f 99 cc bd 3e
       0.733588 0.70185894 0.7871416 0.37070158
000020 25 eb 72 3e ea 9f 2e 3f 3a de 3b 3f 1d b0 1d 3f
       0.23722513 0.6821276 0.73385966 0.6159685
000030 42 9c 52 3f f1 5b 4e 3f ec d8 83 3f e9 61 27 3f
       0.8226968 0.8060904 1.0300574 0.65383774

weight_function_network.initial_cnn.8.weight f4 [32, 16, 3, 3]
000000 cb 76 80 bd 02 a8 0e 3e 18 11 9d bd ed 31 54 bd
       -0.06272658 0.13931277 -0.07669276 -0.051805425
000010 5a 6e 85 bd 8f 4c eb 3c 92 70 22 3d c8 d3 03 3c
       -0.065151885 0.02872303 0.039658137 0.008046098
000020 25 32 d9 bd cf 9b 36 bc f0 72 63 3d fa 33 60 bc
       -0.106052674 -0.011145546 0.055529535 -0.013684267
000030 61 8a c4 3d c8 2c ac bd 90 a2 a8 bd 34 f1 24 bd
       0.09596706 -0.08406979 -0.08234131 -0.04026909
000040 68 6d 78 be a5 bd 75 be 28 6e 70 3b 39 fb e5 bd
       -0.24260485 -0.23998125 0.0036686752 -0.112295575
000050 da c3 0e 3c e2 ff 0e 3e 2c 05 18 3d 08 0d 08 bc
       0.008713687 0.13964799 0.037114307 -0.008303888
000060 54 b8 82 3d 6e 52 95 bd 1e 61 0b 3d 95 2c 09 bd
       0.06382814 -0.07291113 0.034028165 -0.033489782
000070 f5 d5 c6 bc 24 d0 86 bd 51 22 89 bd 2c 7a 0e 3c
       -0.024271945 -0.065826684 -0.066959985 0.00869612
000080 23 e7 85 bc 0e 5e cd 3c 54 fc d1 3d f9 a9 21 3d
       -0.016345566 0.025069263 0.10253206 0.03946874
000090 7b d9 25 bd b0 e7 9d 3d b4 ea ff bc af ac cc 3d
       -0.04049061 0.077102065 -0.031239845 0.09993874
0000a0 a1 ff 5d 3d 6e 3b 55 3d f9 cd c0 3d 02 34 e5 3c
       0.054198865 0.05205863 0.09414286 0.0279789
0000b0 28 9a 59 bd a7 b8 e4 bc f9 8c 82 bd fa 94 a9 bd
       -0.05312553 -0.02792008 -0.06374545 -0.08280368
0000c0 76 d4 97 3d 62 f6 f8 3d bc 0d cc bd 25 89 bd 3d
       0.074135706 0.12156369 -0.09963557 0.09254674
0000d0 cc 0f 0b 3b a3 48 dc bd 04 61 08 3c bf e3 a6 3c
       0.0021219132 -0.10756042 0.008323912 0.02037227
0000e0 94 a4 4a bd bf b4 9e bb 90 43 57 bd 07 8d a6 3d
       -0.04947336 -0.004843324 -0.052554667 0.081323676
0000f0 f9 8e 30 bd 5c f4 16 be 49 54 1c bd bf 42 b5 3d
       -0.0431051 -0.14741653 -0.038166318 0.088506214
000100 fa 54 11 3e 5b b4 c2 bd bb 0a 4f bd 6f 39 7f 3d
       0.14192572 -0.09507056 -0.050547343 0.062310632
000110 ea 3f 74 3d f7 ea 4a 3e d6 76 9c 3d 39 51 d6 3d
       0.059631266 0.19816194 0.07639854 0.10464711
000120 1e 3b 08 bd d8 4b 88 b8 9d 54 83 bd f6 39 8c bd
       -0.033259504 -6.499112e-05 -0.06412623 -0.06846993
000130 38 1e f0 bd 98 2f e6 bd c5 58 e3 bc bb 1e b8 bc
       -0.11724514 -0.112395465 -0.02775229 -0.02247559
000140 b3 f3 d6 3d 15 d4 95 bd 1a 70 c4 3d 32 dd d5 bd
       0.10495701 -0.07315842 0.09591694 -0.1044258
000150 f4 b2 e3 3d 80 cc 4a 3d 25 64 4e bd d5 20 b3 3d
       0.11118117 0.049511433 -0.050388474 0.087464966
000160 5a 7e b7 3d 7c cb af 3c f7 06 5e 3d 24 41 e4 3d
       0.089596465 0.021459334 0.05420586 0.11145237
000170 82 5f a5 bd 52 f1 8a bd 36 b2 95 3d ca 8b 9b bd
       -0.08074857 -0.067843094 0.07309382 -0.07595022
000180 b3 0b a6 3c 8b 52 0a 3d 9e 98 96 bd e7 e8 16 bd
       0.02026925 0.033770125 -0.07353328 -0.036843207
000190 ba a7 6f bd 75 00 db bc 3f 51 9c 3d c3 af c0 bd
       -0.058509566 -0.026733616 0.07632684 -0.09408524
0001a0 d6 15 f9 bc f9 5c a2 3b b2 1d 42 be 39 d0 f0 bd
       -0.03040592 0.004954931 -0.1895664 -0.11758465
0001b0 c3 50 93 3d 1e aa b9 bd eb 11 f4 bc 37 95 06 bd
       0.071931385 -0.090656504 -0.0297937 -0.032857146
0001c0 e4 db 33 be a4 ae 54 bd 15 20 b6 bd 5d 9f 4a be
       -0.1756435 -0.051924363 -0.08892838 -0.19787355
0001d0 eb f2 5c bd a5 14 a6 bc 11 22 92 3c 98 6d 18 3d
       -0.053942602 -0.020273516 0.01783851 0.03721389
0001e0 77 76 25 3d 61 bb 13 3d 92 4d 8c 3d df 19 55 3e
       0.04039618 0.03606737 0.06850733 0.2081065
0001f0 d3 2e 32 3d a9 8b 1d bd 5d 6a 9c 3d 5d db fa bd
       0.043501686 -0.03846327 0.07637475 -0.122488715
000200 72 4b c4 bd 52 5d c8 3d 44 65 3e bc 5e 56 15 be
       -0.095847026 0.097834244 -0.011620823 -0.14583728
000210 93 73 cd 3d 91 cd 47 bd b7 38 11 3d 0f 67 9a bd
       0.1003181 -0.048780028 0.035454478 -0.07539188
000220 b2 32 fc 3d 38 55 04 bd f4 c2 ae 3d dd 4d 38 3e
       0.12314357 -0.032307833 0.08533278 0.17998452
000230 41 36 65 3d f7 6a 16 3d 44 77 47 3d 16 6f 32 bc
       0.055959944 0.036723103 0.048697725 -0.010890743
000240 3d 65 44 3d ff d3 68 3b ed 79 3b 3c d7 a1 d8 3d
       0.04794811 0.003552675 0.011442644 0.105777435
000250 c0 3c e1 3d 76 bc 50 bd 0f 6d 91 3d 16 9b d0 3c
       0.10997915 -0.05096098 0.071008794 0.025464576
000260 f9 d8 c3 3d b7 60 6a 3d ed e4 2c 3c 6a f4 e5 3d
       0.095628686 0.05722114 0.010552627 0.11228259
000270 2c 34 06 bc aa 26 56 3d 87 3c 9b 3d cd 75 a2 3d
       -0.00819115 0.052282967 0.07579904 0.07932625
000280 db a1 b0 bd 3f 23 20 3e 18 6c 0e 3a e2 26 48 3d
       -0.086246215 0.15638445 0.00054329773 0.048865207
000290 ce b9 b7 bc ed 9b 27 3e 4f 2c f3 bd 38 f6 80 3b
       -0.022427466 0.16368075 -0.118736856 0.0039356016
0002a0 15 77 a6 3b fa b7 b5 3c 4c aa 5e bb 28 b0 f6 bd
       0.0050801137 0.022182453 -0.0033976017 -0.12045318
0002b0 82 77 8b 3c 1a 14 18 3c 56 d4 04 be 30 01 25 3b
       0.01702476 0.009282136 -0.12971625 0.002517771
0002c0 6a ec e9 bb b7 65 46 bd 9a 64 63 3d 2a 9a aa bd
       -0.0071387785 -0.048436847 0.055515863 -0.08330186
0002d0 01 72 d3 3b 60 54 cb 3d 7b f6 a9 bd ba c3 9a 3d
       0.0064527993 0.09928203 -0.082989655 0.07556863
0002e0 e9 04 22 3d 33 f9 01 be 20 10 1f 3e 3e 27 42 3e
       0.039555464 -0.12692718 0.15533495 0.18960282
0002f0 cc 23 62 bc 89 f5 03 bd dc 01 17 3d 6d d1 5b bd
       -0.01380248 -0.032216582 0.036867008 -0.05366652
000300 42 6e f1 3d 27 90 35 bd 80 e1 fd 3c 62 e4 61 3d
       0.11788608 -0.044326928 0.030991316 0.055149443
000310 a2 10 4c 3d e3 ae 15 3d 59 83 54 3d aa 42 3b 3d
       0.04982055 0.036543738 0.051883075 0.045717873
000320 71 30 04 3d d9 3c 50 bd fe 87 21 bc d3 20 6e bd
       0.03227276 -0.05083928 -0.009859083 -0.058136772
000330 79 cb f1 3c 73 28 90 bd dc 31 ca 3c 67 db 84 3d
       0.029515969 -0.07038965 0.024681978 0.0648716
000340 81 50 38 3e 9c e7 13 3c 95 fc 31 bd 06 a0 26 3e
       0.1799946 0.009027388 -0.04345377 0.16271982
000350 2e 53 64 bd 3a 22 64 bd de d1 dd 3d 91 8c 32 3d
       -0.05574339 -0.055696703 0.108310446 0.043591086
000360 67 24 8b 3d dc db 07 be c8 3c 6f bc ef 14 73 3d
       0.067940526 -0.13267463 -0.014601894 0.059346136
000370 12 f2 45 bc 83 31 4c 3d 5c 41 eb 3c 6d fe 7b bd
       -0.01208164 0.049851906 0.02871769 -0.061521936
000380 19 f5 94 bd 55 d3 eb bd 4b 2d 47 3d 36 fc 07 be
       -0.07273311 -0.11514918 0.04862718 -0.13279805
000390 6b e7 40 bd 4e 9d eb 3d b8 dd 1f be 2c 5c b5 3d
       -0.047095697 0.11504613 -0.15611923 0.08855471
0003a0 85 1a b1 3d 4d 32 d6 3d 1f df 9d 3d f0 87 e8 3d
       0.08647636 0.10458813 0.077085726 0.11354053
0003b0 e8 64 1f bd 5c e1 25 bd 43 2a 19 3e af 22 4c bd
       -0.03891459 -0.040498123 0.14957528 -0.049837764
0003c0 03 63 25 3d 8d 81 23 3c 35 c4 e6 3d 44 2e e3 3c
       0.040377628 0.009979618 0.11267892 0.027732022
0003d0 72 57 99 bd cc 9b 71 3d aa 7b 05 3e 5e 19 d3 bd
       -0.07487382 0.05898647 0.13035455 -0.10307573
0003e0 b5 f2 be 3d 00 2d 9b bc 7b 47 05 be ab 08 10 3d
       0.093236364 -0.018942356 -0.13015549 0.035164516
0003f0 f3 a6 f4 3c 67 96 a1 bd d3 f7 20 bd 87 7e 99 3d
       0.029864764 -0.07890015 -0.039298844 0.07494836

weight_function_network.initial_cnn.8.bias f4 [32]
000000 35 11 06 3b 1a 28 a3 bd db e5 87 bd 35 ad 5a 3d
       0.0020457034 -0.07966633 -0.06635638 0.05338784
000010 9e af 8a 3d 39 79 3f bd 53 2f 08 3d 59 f7 19 3d
       0.067717776 -0.046746466 0.033248257 0.037589405
000020 96 48 a0 bd fc 5b 40 bd e4 d5 ee 3b 25 43 bd 3c
       -0.07826345 -0.046962723 0.0072886813 0.023103306
000030 56 c6 dd 3c 8e f4 c4 bc 12 56 b9 bd 6c bd 86 3d
       0.027072113 -0.024042394 -0.0904962 0.06579098
000040 35 ac a7 3b 14 fc 88 3d d7 e2 8d bd fa c4 17 bd
       0.005116964 0.06688705 -0.06928032 -0.037053086
000050 55 f0 b8 bc ab b0 f6 bc f8 37 93 3d 2b a9 21 3d
       -0.022575537 -0.030113539 0.071884096 0.03946797
000060 c6 f6 e5 3b 30 fa 86 bd 6a 7c 8d 3c 55 97 79 bd
       0.007017943 -0.06590688 0.01727124 -0.060935337
000070 1d ca 06 3d f5 93 a5 bd 77 eb fa bc ae 3b 28 3d
       0.032907594 -0.08084861 -0.030629857 0.04107254

weight_function_network.initial_cnn.9.weight f4 [32]
000000 24 04 7e 3f cf af 83 3f 74 ac 78 3f 50 3f 72 3f
       0.9922507 1.0288028 0.9713814 0.9462786
000010 a0 fd 73 3f c5 54 7d 3f 65 53 89 3f 2f 35 64 3f
       0.95308876 0.98957473 1.0728575 0.8914365
000020 0c e9 77 3f c8 3c 75 3f ae c9 5d 3f 94 18 84 3f
       0.96839976 0.9579587 0.86635864 1.0320001
000030 67 15 75 3f a6 a0 6d 3f c5 b6 8c 3f 72 30 8f 3f
       0.9573578 0.92823255 1.0993277 1.1186659
000040 3d 40 8b 3f ce f3 80 3f d5 6f 81 3f 51 cc 79 3f
       1.0878979 1.0074403 1.0112253 0.9757739
000050 43 0e 7d 3f 42 20 6c 3f 83 f8 67 3f e7 5a 64 3f
       0.98849887 0.9223672 0.90613574 0.89201206
000060 7e 31 79 3f e1 05 85 3f 49 8b 8a 3f 87 c1 7b 3f
       0.97341144 1.0392419 1.0823756 0.98342174
000070 2c 87 80 3f c3 cd 85 3f 90 11 80 3f 07 36 69 3f
       1.0041251 1.0453418 1.000536 0.91098064

weight_function_network.initial_cnn.9.bias f4 [32]
000000 cc ef 26 3b 3d 7e 03 bd 08 5f b2 bd 78 21 92 bd
       0.002547252 -0.032102812 -0.08709532 -0.0713529
000010 e0 ae 17 be b8 d6 1e be a3 6b 36 bd b0 41 05 be
       -0.14812803 -0.15511596 -0.044536244 -0.13013339
000020 9e 6d 64 bd 65 b1 0b be f2 bb 2d be 91 dc 9a bc
       -0.0557686 -0.1364189 -0.16966227 -0.018904002
000030 fb bd 54 bd 55 a6 c0 bd 4e 2b 2d bd 64 0b 22 bc
       -0.051938992 -0.09406725 -0.042277627 -0.009890411
000040 51 8c ac bd 6c e8 8e bd 6c b6 6c bd 2d 8f 1f be
       -0.08425201 -0.06977925 -0.05779116 -0.15581961
000050 a2 c6 12 bd 4d 50 ba bd 34 39 bb bd 7a 87 0f be
       -0.035833962 -0.090973474 -0.0914177 -0.14016524
000060 33 46 27 be 3e 88 a6 bc 5e 29 7d bd 8a b7 b1 3c
       -0.16335373 -0.020328637 -0.06180703 0.021693964
000070 2e dc b4 3c 69 77 60 bd d8 3d b0 bc 5f b7 0e be
       0.022077646 -0.05480138 -0.021513864 -0.13937138

weight_function_network.initial_cnn.9.running_mean f4 [32]
000000 dc d4 11 3d 8c ec ff 3e f8 28 01 3f b1 06 3b 3f
       0.03560339 0.49985158 0.5045314 0.73057085
000010 9c 0f 08 3f 3c 25 75 bd c6 21 34 3f 8a 55 9f bf
       0.5314882 -0.059849963 0.70364034 -1.244798
000020 65 ff a8 3f 83 14 19 bc 57 07 7f bf 52 a9 bf bd
       1.320294 -0.009343269 -0.99620575 -0.09358467
000030 7f 67 a1 bf ae 23 67 3f ca a5 65 3e d8 9e 96 3f
       -1.260971 0.9028882 0.22426525 1.1767225
000040 72 87 81 3f a0 d5 8c 3f 8d 08 15 3f 9e c3 85 3e
       1.011946 1.1002693 0.5821617 0.26125807
000050 f0 43 92 bf 31 cf 5e bf 98 05 61 bf 99 eb f0 be
       -1.1426983 -0.870349 -0.8789916 -0.47054747
000060 e9 28 9c 3f 52 47 6c 3f e6 78 c2 3f 30 b5 81 bf
       1.2199985 0.92296326 1.5193145 -1.0133419
000070 01 87 83 bf 44 2f 91 be 2b 8c 2a bf 7e ac 7f bf
       -1.0275575 -0.28356373 -0.6662013 -0.9987258

weight_function_network.initial_cnn.9.running_var f4 [32]
000000 09 92 8f 3f 69 1e 60 3f 18 26 48 3f 28 bd 84 3f
       1.1216441 0.875464 0.78183126 1.0370226
000010 ff f7 25 3f ab ba d0 3e 81 78 1c 3f fc c8 6c 3f
       0.64831537 0.40767416 0.61121374 0.9249418
000020 46 16 5e 3f 8d 6d b6 3e 15 4c 5b 3f 28 2d 19 3f
       0.86752737 0.35630456 0.85662967 0.5983453
000030 e5 96 53 3f a0 58 1e 3f f1 68 30 3f 13 58 9c 3f
       0.8265212 0.6185398 0.6891013 1.2214378
000040 5a d2 8b 3f 62 6e 7c 3f 26 96 0a 3f a4 4e 71 3f
       1.0923569 0.9860593 0.5413536 0.9426062
000050 1d 0e d6 3f 23 d3 c7 3f 46 12 8f 3f e3 59 23 3f
       1.6723057 1.5611309 1.1177452 0.6380903
000060 e9 95 9a 3f e2 b7 46 3f f9 1a a2 3f 57 ac 01 3f
       1.2076999 0.7762433 1.2664481 0.50653595
000070 5a 30 2d 3f 13 cf 03 3f c2 4f 3d 3f 79 14 84 3f
       0.67651904 0.51487845 0.73949826 1.0318748

weight_function_network.initial_cnn.11.weight f4 [32, 32, 3, 3]
000000 a1 f3 90 bc eb cb 7f 3d 8d e2 08 3c 08 c5 0f bd
       -0.017694296 0.06245033 0.008354795 -0.035100013
000010 63 f9 ad 3d 61 59 b8 3d 84 f2 97 3d f1 f0 a8 3c
       0.08494832 0.09001423 0.07419303 0.020622702
000020 33 6c 08 3d d5 ca 97 3d ea 2c cd 3d 43 86 89 3c
       0.03330631 0.07411734 0.10018332 0.016787654
000030 98 08 6b 3c 13 7b 96 3d 35 77 6c 3d 2a 75 10 3d
       0.014345311 0.07347693 0.057730872 0.035267986
000040 97 db de 3b f8 88 2e 3d 4d b8 96 bd cc 22 91 3d
       0.0068010795 0.042611092 -0.07359371 0.07086715
000050 62 b9 f6 bc 34 b9 a1 3c 6c 6b da 3d e2 a9 48 3d
       -0.030117694 0.019741632 0.1066502 0.048990138
000060 07 58 33 bc a0 50 1e bc 9c 57 9c 3c 8d 74 2c bc
       -0.01094628 -0.009662777 0.019084744 -0.010525835
000070 9d af 5a bc 21 b8 50 bd c2 67 37 3d e8 ee a5 3d
       -0.0133475335 -0.05095685 0.044776686 0.081022084
000080 22 94 79 bc 87 91 49 3d 47 b3 14 3d 68 49 fd bc
       -0.0152330715 0.04921105 0.036303785 -0.030918792
000090 c5 7e 87 3d 52 d5 b1 3d 73 43 70 3d 94 9a 04 3e
       0.06615976 0.08683266 0.058658075 0.12949592
0000a0 b7 6a b3 bb 2f ea 3a 3c f4 11 05 3e b4 f7 c2 3d
       -0.005475368 0.011408373 0.1299513 0.09519902
0000b0 95 96 9b 3c 03 f4 de 3c 9e 1a 41 3c d7 58 8b bd
       0.018992702 0.027215963 0.011786131 -0.06804054
0000c0 e8 3d ab bc b0 ce 85 bd 8d 07 57 3d af 33 bb 3d
       -0.020903543 -0.06533563 0.052497435 0.09140717
0000d0 5a e5 30 bc 98 36 f6 3c 0f f3 4d ba 95 79 ce 38
       -0.010796869 0.03005533 -0.0007856348 9.845492e-05
0000e0 dc d7 9d 3d 5e 91 a3 3c 81 c3 8e bc 66 f5 cf 3d
       0.077071875 0.019966777 -0.017427208 0.10154228
0000f0 e7 a1 8d bc f6 78 92 3d 8b 5e 5e 3d 0e 74 8b 3b
       -0.017289115 0.07151978 0.054289382 0.004255778
000100 c9 d3 9b 3d e4 a7 ae bc 5e a4 1b 3d c8 bf 5c bd
       0.07608754 -0.02132029 0.03799855 -0.053893834
000110 75 23 b1 bc af 9b f0 3b 78 69 5a bd 4a 51 36 3d
       -0.021623353 0.0073427777 -0.05332324 0.044511117
000120 0d 54 12 3d e2 d7 28 3c 0c 2f 79 bd 3e 9f df bb
       0.03572469 0.010305377 -0.060835883 -0.006824403
000130 b8 ec 5b 3d 12 a9 00 3d ca 8b af 3d 95 40 c7 3c
       0.05369255 0.031411238 0.085715845 0.024322787
000140 43 94 83 3d 3d 17 e5 3d 0f e8 0c 3d 14 ce 8a 3d
       0.06424763 0.11186073 0.034400996 0.067775875
000150 c2 24 c9 bc f7 23 1e 3d 2b 37 78 3d 84 4b 6d 3c
       -0.02455366 0.038608517 0.060599487 0.014483336
000160 8b 54 81 3c a4 20 e7 bb b3 8b fc bc e6 56 1d 3d
       0.015787384 -0.0070534516 -0.030828333 0.03841295
000170 38 70 8a 3c 91 23 d1 bc 30 18 8b bb 00 d5 d3 3d
       0.016899213 -0.025529655 -0.0042448267 0.10343361
000180 03 15 9a 3d 1d 72 8c bd bc 8e 55 3d 80 e2 be 3d
       0.07523539 -0.06857703 0.052138075 0.09320545
000190 69 80 9d 3d b6 69 80 3c bc 34 6b 3d c6 a8 07 bd
       0.07690508 0.015675407 0.05742334 -0.03311994
0001a0 0b 01 91 bd 03 d7 c7 bc cb 68 15 be c2 2f eb bd
       -0.07080277 -0.024394518 -0.14590757 -0.114837185
0001b0 aa 17 71 3d 3a c3 1b bd a0 f6 9b 3d dc 23 f6 bd
       0.05886046 -0.03802798 0.07615399 -0.120185584
0001c0 21 03 4a bd 04 0c e6 3c eb 8c e6 bd fa b0 03 be
       -0.04931939 0.028081901 -0.11257347 -0.1286048
0001d0 15 80 23 bb 7b 56 9a 3d 3b 1f 0e 3d 3e 79 cc b8
       -0.002494817 0.07536026 0.034697752 -9.750061e-05
0001e0 7b 32 c4 3c e8 07 a2 3d d3 a8 9e 3c de 3e b6 bc
       0.023949852 0.07911664 0.019367611 -0.022246774
0001f0 bc f3 c6 3d 82 6a 1c 3d 49 86 95 3d 72 9b 97 bd
       0.097144574 0.03818751 0.073010035 -0.07402696
000200 89 f6 c9 3c e8 0c 25 3d eb 83 96 3d 58 2c 05 3e
       0.02465369 0.04029551 0.0734938 0.13005197
000210 14 e7 6e 3a c1 0d ee 3d ac 93 41 3d f9 b2 a5 3d
       0.0009113413 0.11623717 0.04725997 0.08090777
000220 85 57 0d 3e f7 f7 92 3d 54 74 59 3e 12 0d ea 3d
       0.13802917 0.07176202 0.21235782 0.11428274
000230 d5 be ed bc 48 63 6b 3d 92 ec 4b 3d 11 1d ab 3d
       -0.02902166 0.05746773 0.049786158 0.08355153
000240 ac d9 4d 3d 6c d0 6b 3d 5b 0c 55 bc 3d 9e a3 3d
       0.050256416 0.057571813 -0.013003434 0.07989166
000250 e0 6c bd 3d c5 b1 0d 3d 58 2e f6 3d d4 5d af 3d
       0.09249282 0.034593362 0.12020558 0.08562818
000260 55 5d 07 3e 21 b7 29 bd 8d e3 e3 3d b3 9f 78 3d
       0.13219197 -0.04143441 0.11127386 0.060699176
000270 93 bf 78 3d 73 19 6f 3d c0 1d 3a bd d1 40 1a 3d
       0.060729574 0.05837388 -0.045438528 0.03765947
000280 4f 35 ec 3c 2f 2e 4e bb 3d e5 72 3d 4a 21 f5 3c
       0.028834013 -0.0031460633 0.05930065 0.0299231
000290 12 ca 0d 3d 2d 99 e8 bb 75 8e 0d 3e 54 e6 fe 3d
       0.034616537 -0.007098338 0.13823874 0.12446275
0002a0 88 1b d7 3c 99 af 22 3d 2c 65 b4 3d 16 57 c3 3d
       0.026258245 0.039718244 0.088083595 0.09538095
0002b0 ed a9 b3 3d 02 f1 66 bb a4 32 8b 3d 7d da dc 3a
       0.08772645 -0.0035238867 0.06796768 0.0016849783
0002c0 20 92 70 3c de 9a 9c 3d e2 b2 42 3d 79 2e 43 3d
       0.014683276 0.07646726 0.047533877 0.04765174
0002d0 c6 88 03 3e 86 7b 67 bd da 20 69 3d 8c 26 32 3a
       0.12845144 -0.056514286 0.056916095 0.0006795905
0002e0 8b e5 ee bc 39 4e f8 3c 53 df 31 bb ec ba 4e bc
       -0.029162189 0.030310737 -0.0027141168 -0.012617808
0002f0 cd 91 71 3c fc 9b 6f 3d fa 0c 53 3d 05 0e db 3c
       0.014744234 0.058498368 0.051526047 0.026740083
000300 59 12 ec bb 7d a0 8d bd 1f 96 b3 3d 3e aa 23 bd
       -0.0072043356 -0.06915376 0.08768868 -0.039957277
000310 91 bd dd 3c 8c 1e 4d 3d 46 94 43 3d 92 6d a9 3d
       0.027067931 0.05007796 0.047748826 0.08272852
000320 64 b2 9e 3c 84 d1 62 3d 75 7f 80 bc b0 13 d6 3c
       0.019372173 0.05537559 -0.015685776 0.026132435
000330 0d d5 eb 3d 77 f0 43 3c eb 89 8f 3d 96 bb 0e 3d
       0.115152456 0.011959187 0.07008728 0.034846865
000340 ba 52 7a bd fa d0 b8 bb 6f eb 39 bb 43 82 8b bd
       -0.06111405 -0.0056401463 -0.002836909 -0.06811955
000350 5d 70 fc 3c d8 4a 34 bd 9f a3 ec 3b 88 ab e9 3d
       0.030815298 -0.04401669 0.0072216536 0.1140967
000360 2b 78 6b 3d 74 f6 f6 3d 55 14 1d 3c 86 89 3a 3d
       0.057487648 0.12058726 0.009587367 0.04554131
000370 a1 b3 09 3e ce f2 e9 bb a6 1b cc 3d 56 ce f3 3b
       0.13447429 -0.0071395403 0.09966211 0.0074403686
000380 68 ba 3c 3c e7 d8 1c 3c 5f 34 9d bc fc 15 a8 bc
       0.011519052 0.009573198 -0.019190012 -0.020518295
000390 7e e8 51 3d 62 34 f1 3d ab d2 b0 3b 7c 44 98 3d
       0.051247112 0.11777569 0.0053962073 0.07434937
0003a0 01 bc 98 3d 42 e7 13 3e 00 8c 0c 3d 60 75 4a 3d
       0.07457734 0.14443687 0.034313202 0.049428344
0003b0 e1 1d 8c 3c 02 31 0a 3e fa 3b 79 3d 50 99 06 3d
       0.017104091 0.13495257 0.060848214 0.032861054
0003c0 9c dd 4c 3d 8f 48 78 3d 1f 7a 8a 3d 43 fd 4d bc
       0.05001603 0.060616072 0.06761574 -0.012572589
0003d0 64 df a3 3d 83 a6 0c 3e 88 ed 14 bc 1b 51 44 bd
       0.08001593 0.13735394 -0.009089835 -0.04792891
0003e0 85 75 56 3d 38 19 ea bd 1e 9b a7 ba 13 24 de 3d
       0.05235817 -0.11430591 -0.0012787317 0.10846724
0003f0 6d e8 29 bc 73 2b 27 3d 60 04 0f 3d d0 3e bc bb
       -0.010370356 0.04081292 0.03491628 -0.0057447925

weight_function_network.initial_cnn.11.bias f4 [32]
000000 b5 d1 09 3c 4b 65 14 bd ab e8 70 bd ff 11 59 bd
       0.008411814 -0.036229413 -0.05881564 -0.052995678
000010 d3 eb 5e bc cc 27 85 3c 7a 20 58 3b f5 2a 00 3d
       -0.01360603 0.016254328 0.0032978342 0.031290967
000020 25 7b 11 bc 35 92 3f bd 0d 66 15 bd e8 a1 4d 3d
       -0.008879458 -0.046770293 -0.036474276 0.050203234
000030 f8 d8 15 bd 20 af 48 3d e9 49 ae bc ec 40 32 bd
       -0.03658387 0.048995137 -0.021275477 -0.043518946
000040 14 66 5e 3d 79 f7 98 3c 15 42 62 3d ef bc 2a bd
       0.054296568 0.018672692 0.055238802 -0.041684087
000050 40 72 a0 bc 71 2f c4 bc 72 12 2f 3d d7 55 2b bd
       -0.019585729 -0.023948403 0.0427422 -0.04182991
000060 09 97 b6 bc ae 5f 5a 3d 17 2c 9c bc 0f 3c 03 bd
       -0.022288816 0.053313904 -0.019063992 -0.0320397
000070 81 da d1 3c 3d b1 de bb fa f3 b6 3c a9 db cb bc
       0.025616886 -0.006796031 0.022333134 -0.024885016

weight_function_network.initial_cnn.12.weight f4 [32]
000000 58 66 7b 3f 17 ab 7a 3f 67 44 8f 3f a6 40 6d 3f
       0.9820304 0.9791731 1.119275 0.9267677
000010 59 f7 75 3f 34 07 71 3f 50 05 74 3f 54 31 73 3f
       0.9608055 0.94151616 0.95320606 0.94997144
000020 b0 7c 78 3f d1 ed 86 3f 5e 63 7e 3f d0 41 6e 3f
       0.9706526 1.0541326 0.9937037 0.9306917
000030 68 2b 8d 3f ae 96 7d 3f 07 79 7c 3f 68 81 82 3f
       1.1028872 0.99058044 0.98622173 1.0195742
000040 92 ac 85 3f c3 cf 5d 3f e6 86 8b 3f ac 3e 82 3f
       1.0443289 0.86645144 1.0900543 1.0175376
000050 ff 11 72 3f 10 a0 68 3f 88 f3 81 3f 61 82 74 3f
       0.9455871 0.90869236 1.0152445 0.9551144
000060 c0 22 66 3f 86 8f 6d 3f b3 4c 70 3f 8e 6f 90 3f
       0.89896774 0.92797124 0.93867034 1.1284044
000070 68 ba 8c 3f aa 79 5e 3f 81 d8 70 3f bc 83 86 3f
       1.0994387 0.86904395 0.9408036 1.0508952

weight_function_network.initial_cnn.12.bias f4 [32]
000000 f2 ac 39 bc ca b1 5f 3c 3f 61 dc bb f6 48 ba bd
       -0.011332737 0.013653228 -0.00672546 -0.090959474
000010 4a fc 2a bd da e1 c3 bd d0 bc 4f bd f1 bc ce bd
       -0.041744508 -0.09564562 -0.050717175 -0.100946315
000020 08 2f bd 3c 8b 76 89 3d 6a aa b0 bd 32 43 ca bb
       0.023093715 0.067120634 -0.08626254 -0.006172561
000030 62 25 c8 3d 09 15 0c bd df 56 87 bc 02 53 0e 3d
       0.09772755 -0.03419975 -0.016520916 0.03474713
000040 4a 69 8d ba 9d 49 ac bd 09 de 71 3c 29 ff ad 3c
       -0.0010788825 -0.08412478 0.01476241 0.021239834
000050 b6 b0 c7 bd 25 89 06 be f6 cf 3e bc d7 80 ab bc
       -0.09750502 -0.13138254 -0.011646261 -0.020935459
000060 30 34 08 be a5 64 0f be ae e0 b6 bd b2 99 17 3d
       -0.13301158 -0.14003237 -0.08929573 0.03701181
000070 80 17 29 bc d9 88 43 bd ff 58 13 be 9b 1e 36 bd
       -0.010320544 -0.04773793 -0.14389418 -0.04446278

weight_function_network.initial_cnn.12.running_mean f4 [32]
000000 8d f0 1f 40 df 8f a7 bf 6e 3f 10 40 51 27 28 3f
       2.499057 -1.3090781 2.2538714 0.6568499
000010 38 2a ca bf 3d 24 85 3e 06 ce 12 c0 cb 1d c4 be
       -1.5794134 0.2600421 -2.2938247 -0.3830398
000020 d1 8d a1 3f e9 f3 c9 bf 40 a3 29 3f 20 f0 43 bf
       1.2621404 -1.577756 0.66264725 -0.76538277
000030 cc 59 fd bf 26 de 0b 40 85 89 9c bf 46 70 96 bf
       -1.9793029 2.1854339 -1.2229468 -1.1753013
000040 70 cb 1d 40 30 78 c5 be ae a6 2b 40 c2 31 22 40
       2.4655418 -0.38568258 2.6820483 2.534287
000050 3d da 0f bd 26 0b 9c bf ef 5f 20 40 ff fe 13 40
       -0.035120238 -1.2190902 2.5058553 2.3124387
000060 e4 23 07 bf 6b 28 ec 3f 7e 2c be bf 8e 3e 26 40
       -0.5278914 1.8449835 -1.4857328 2.597568
000070 5a 42 2b 40 d3 d0 8a bf f7 eb 0f bf fc 1e da 3f
       2.6759248 -1.0844978 -0.5621943 1.7040706

weight_function_network.initial_cnn.12.running_var f4 [32]
000000 c7 f8 d8 40 ee bc 8d 40 2f 70 dd 40 a1 f5 14 40
       6.7803683 4.4293127 6.9199443 2.327492
000010 96 22 0d 40 56 d2 59 40 6e 64 95 40 4a 89 fc 3f
       2.205236 3.403463 4.6685095 1.9729397
000020 3b 94 c4 40 8e ed 06 40 7a 54 93 40 c4 f7 66 40
       6.1430945 2.1082492 4.604062 3.6088724
000030 72 df ab 40 08 47 e6 40 56 f0 77 40 cd e0 59 40
       5.371026 7.196171 3.874044 3.4043458
000040 e5 78 0b 41 c7 d4 f4 3f a1 bc ee 40 b5 23 01 41
       8.717015 1.9127434 7.460526 8.071218
000050 02 47 98 40 9e 18 3c 40 52 01 e6 40 8b ab 02 41
       4.758668 2.9390025 7.187661 8.166881
000060 a0 39 3e 40 3d 55 83 40 b4 19 7a 40 f1 d6 ed 40
       2.9722672 4.104155 3.9078188 7.432488
000070 3e 04 e7 40 09 0e 7b 40 ce 88 73 40 9b cc 9b 40
       7.219268 3.9227316 3.805225 4.8687263

weight_function_network.adaptive_layer.1.weight f4 [64, 32, 3, 3]
000000 0f 79 0a 3d c2 ca 04 bd 3b c8 2e bc 89 a0 8e bb
       0.033806857 -0.032419927 -0.010667856 -0.0043526334
000010 52 ab 0c 3c 70 82 23 bd 24 e9 32 bd 4b 66 e7 3c
       0.008585768 -0.039919317 -0.04367937 0.02824702
000020 87 2a 69 bd a3 be 02 be 7e 56 ae bc 1a c2 c2 bd
       -0.056925323 -0.12768035 -0.021281477 -0.09509678
000030 21 9c f6 bd d5 2f 21 bd 1e 2c 87 bd eb 41 2d bd
       -0.12041498 -0.039352257 -0.066002116 -0.042299192
000040 1c 04 88 bd dd 79 14 bd cb 73 ec bc e7 7c 4f 3b
       -0.06641409 -0.03624903 -0.028863808 0.003166014
000050 75 e8 66 bd b4 e2 cb bd 9b 69 8e bd 78 10 00 bd
       -0.056374032 -0.099553496 -0.069537364 -0.031265706
000060 ee 52 45 bd 34 18 f8 bc fc cb ba bc 04 41 c8 3c
       -0.04817479 -0.030284978 -0.022802345 0.024445064
000070 44 c7 96 3b 1a 8f 46 3d fa 63 59 3c ac 70 a1 3d
       0.004601391 0.048476316 0.013268465 0.078828186
000080 63 36 ee 3a ed 4e 4b bc 47 3a 59 3d 4c 44 8e 3c
       0.0018174167 -0.012408954 0.053034093 0.01736655
000090 b5 5c c9 bd 10 ec 17 be c7 1c fd bd f2 9d 61 bd
       -0.098321356 -0.14836144 -0.123590045 -0.05508227
0000a0 96 17 0a be 82 55 c9 bd 58 60 b9 bd 19 8c d7 bd
       -0.1348556 -0.098307624 -0.09051579 -0.105247684
0000b0 fb 68 6c bd 4b 27 22 bd 32 76 cd bc 8f 6b a7 bd
       -0.057717305 -0.039588254 -0.025080774 -0.08174812
0000c0 6b 1e 12 bd 28 16 d1 bd f0 12 00 bd 38 e4 d5 bd
       -0.03567354 -0.10209304 -0.03126806 -0.1044392
0000d0 71 3b f8 bd e8 7a f7 bd 23 8f a6 bd 5e 18 53 bd
       -0.121207125 -0.120839894 -0.0813277 -0.05153691
0000e0 0a e1 d0 bd e1 e9 9b bc aa 34 99 bd 15 d4 2a bd
       -0.10199173 -0.01903242 -0.07480748 -0.041706163
0000f0 68 b0 18 bd 2e 46 c6 bd 77 8e f2 bb ac e5 e7 3c
       -0.03727761 -0.096813545 -0.007402237 0.028307758
000100 a3 1d 9b 3c e4 cf 7a bd 04 96 97 bd 27 c7 be bc
       0.01893503 -0.061233416 -0.0740166 -0.023288323
000110 59 2d 10 bc eb b2 bd 3b 1d a6 03 3c 84 c9 a4 3a
       -0.008799874 0.005789151 0.00803521 0.0012572263
000120 f8 72 0b bd fd 1f a2 3c 8a f6 e2 3c e1 a3 27 bc
       -0.03404519 0.019790644 0.02770545 -0.010231943
000130 c0 2f 31 3c 76 84 24 3d 65 5b 3d 3d 6a 91 b6 bc
       0.010814607 0.040165387 0.04622974 -0.022286136
000140 cb ba c3 3c 12 00 5c bd 0c b8 69 bc 2d 7f 80 bc
       0.02389278 -0.053711005 -0.014265072 -0.015685642
000150 f6 81 38 bd 6b 28 8e bc 98 5d 89 bd 8e 5f 0c 3c
       -0.045045815 -0.017353257 -0.06707305 0.008567704
000160 6f dd 62 bd f3 08 d1 bd ca cb 3c 3d c5 f9 d0 3d
       -0.055386957 -0.10206785 0.046092786 0.1020389
000170 65 1d 57 3d fa 94 40 3d a1 32 4e 3d 53 ea 94 3d
       0.052518267 0.047017075 0.050341252 0.07271256
000180 9b 31 5c 3d 3a 16 9c 3d e1 10 49 3d ce 46 48 bd
       0.053758245 0.07621427 0.049088363 -0.04889565
000190 de 73 3d bd 9b 54 dc bc 87 91 3c 3d 61 8a 8f 3c
       -0.046253078 -0.026895812 0.046037223 0.017522039
0001a0 6c 8d 35 3d 3a e2 0d 3c f9 94 26 bd 5c 34 98 3c
       0.044324324 0.008659894 -0.040669415 0.018579654
0001b0 18 c1 f4 bd 30 89 4b bd 8b c5 e0 bd 19 00 6d bd
       -0.11950892 -0.04969138 -0.10975178 -0.05786142
0001c0 60 86 51 bc e1 29 91 bd c9 42 18 bd 9b 0f 10 bd
       -0.012788385 -0.07088066 -0.037173066 -0.035171133
0001d0 29 58 c4 bd 16 19 27 bd 36 33 98 bc 47 5d 02 39
       -0.09587128 -0.04079541 -0.018579107 0.00012432515
0001e0 78 41 de bd 44 88 96 bd bf 9e 2b bc 54 cd af bc
       -0.10852331 -0.07350209 -0.01047486 -0.021460213
0001f0 c7 37 63 bd a7 dd c4 bd 63 6a 81 3c 58 76 bd ba
       -0.055473115 -0.09612589 0.0157978 -0.0014454825
000200 13 1e 2c bd 7c 3b 7e bd e7 16 c1 3c 03 e1 66 bd
       -0.04202087 -0.062068447 0.023570491 -0.05636693
000210 cd 3c 29 3d ad 96 5a 3d 13 4e ae bc b9 46 2e 3d
       0.04131775 0.053366352 -0.021277463 0.042547915
000220 a7 cf bc 3c e2 a8 a0 3c f0 38 26 bd fa 20 7e 3d
       0.023048235 0.01961178 -0.040581644 0.062043168
000230 e7 61 29 3b 76 7d 20 3d f5 5b 80 3c 2b 1c d7 3c
       0.0025845708 0.03918215 0.015668849 0.026258549
000240 2c 35 83 3d 00 68 57 3d 65 fc 4b 3d 56 67 a7 bc
       0.06406626 0.052589417 0.04980125 -0.020435017
000250 69 22 49 3c 61 a5 7e bc 83 e2 42 bd ff ba aa bc
       0.01227627 -0.015542359 -0.0475793 -0.02084112
000260 79 28 68 3c e5 64 ca bc e4 0f fc 3c e4 69 d8 3c
       0.014169806 -0.024706313 0.030769296 0.02641768
000270 28 83 a3 bc a9 3e 54 bd fb 1e 1a bc 7c db 70 bc
       -0.019960001 -0.05181757 -0.0094068 -0.014700767
000280 05 17 36 bd 35 be 62 bb 62 0d 00 3d 64 d2 94 3c
       -0.044455547 -0.0034598236 0.031262763 0.018166728
000290 14 9c 18 bd f7 73 c1 bc 8d 44 80 bd 15 92 ff 3c
       -0.037258223 -0.023614867 -0.06263075 0.031197587
0002a0 fc 98 d6 3a 41 15 54 3c 34 fe d8 3c 8c f5 ad 3b
       0.0016372497 0.01294452 0.026488401 0.0053088125
0002b0 5a 61 90 bc a9 30 ff 3b e6 e2 13 bd f5 bb 00 3c
       -0.017624546 0.007787783 -0.03610506 0.007857312
0002c0 89 3d 26 bc bd 8a 3b bd 12 be 4c 3c 98 54 96 bc
       -0.010146507 -0.045786608 0.012496488 -0.018350884
0002d0 46 f9 5f 3c 5e 39 85 bc fa cf c0 bd d4 2c 5a bc
       0.013670271 -0.016262706 -0.094146684 -0.013316352
0002e0 f1 e8 ee bc 18 cb 96 bd d3 fc 10 3d 33 5c 4e ba
       -0.02916381 -0.07362956 0.035397362 -0.0007872015
0002f0 8a 56 82 bd 51 0b 4c bd 47 45 0a bd a9 35 18 bd
       -0.06364162 -0.04981548 -0.033757474 -0.03716055
000300 d5 b2 ae bc ce 3b 5f bd f2 83 23 bd 1a 06 80 bd
       -0.021325508 -0.054500394 -0.039920755 -0.06251164
000310 5c b4 a2 bc af ac 52 bd 82 51 e4 bc 0f c6 58 3d
       -0.019861393 -0.051434215 -0.027870897 0.05292326
000320 4a 31 b3 3c db 8f 1d bd 14 43 a1 bc 90 4d 19 bd
       0.021874089 -0.03846727 -0.019685306 -0.037427485
000330 31 bb 62 3c aa 7b fe 3b fe 88 6d bd 21 33 d4 3c
       0.013838575 0.0077662067 -0.057991974 0.025903286
000340 59 96 31 3d 75 8b fb 3c e6 95 5a 3d 59 3f 51 bc
       0.043356273 0.030706147 0.05336561 -0.012771451
000350 b8 93 72 bc ba 16 f9 3c ce 34 3a 3c f2 a6 2e 3d
       -0.014805727 0.030406345 0.011365129 0.04263968
000360 fe cd 6b bd 87 73 6f bc 05 66 85 3c 7f 97 de bb
       -0.057569496 -0.014614946 0.016283998 -0.006792962
000370 26 96 29 bd 7f 81 1f bd c8 d2 e2 3c aa 1c 52 3c
       -0.04140296 -0.038941856 0.027688399 0.012824217
000380 9d d4 7c bd a5 16 9d 3b 35 39 a1 bd af 16 65 bd
       -0.0617262 0.004793959 -0.078722395 -0.055929836
000390 21 9e 5b bd a1 49 13 bd a5 ad 13 bd 71 8e 2f bd
       -0.0536176 -0.03595889 -0.036054272 -0.042860452
0003a0 a9 44 84 bb 1c 70 57 3c 56 65 52 bd 1d da 4f bc
       -0.0040365052 0.013149288 -0.051366173 -0.01268628
0003b0 ac 59 01 bd c4 57 85 bd a0 40 c4 bd 60 6f b9 bd
       -0.03157966 -0.065108806 -0.09582639 -0.09054446
0003c0 e0 4f 9f bc e3 f1 29 bd c2 14 4a 3b ba f0 ba bd
       -0.019447267 -0.041490447 0.0030835127 -0.09127946
0003d0 0e 30 f9 bd cc b6 b3 bc 07 37 04 be d3 70 d4 bd
       -0.12167369 -0.02193775 -0.12911616 -0.10373082
0003e0 84 b2 ce bd 1d 11 f9 bd dd 16 08 be f4 f1 46 bd
       -0.10092643 -0.12161467 -0.13289972 -0.04857059
0003f0 9e 99 93 bd f6 e3 02 be 24 28 f2 bc 35 4e 80 bd
       -0.072070345 -0.12782273 -0.029560156 -0.06264917

weight_function_network.adaptive_layer.1.bias f4 [64]
000000 a2 c0 43 3d 80 fa 8c 3c d5 fa 27 bc 25 d0 de bc
       0.04779113 0.017209291 -0.010252674 -0.02719886
000010 5e ad cf bc 77 7c 36 3d 23 d2 2a 3d 51 d4 13 3d
       -0.025351223 0.044552293 0.04170431 0.036091153
000020 a9 b1 4f bd 24 13 bc 3c 79 b3 51 bd e1 59 96 bc
       -0.05070654 0.022958346 -0.05119655 -0.018353404
000030 b7 f8 12 bd f5 5c 0b bd 03 72 f4 ba 52 a5 11 bd
       -0.035881724 -0.034024198 -0.0018649701 -0.035558052
000040 13 3f 39 3b da ee e4 3c d6 fc dd 3c 23 ac 5f bd
       0.0028266355 0.027945925 0.0270981 -0.05460752
000050 90 64 d6 bc 24 24 17 bd ac c0 bc bc 59 41 54 3c
       -0.026170999 -0.0368997 -0.023041092 0.012955033
000060 2b d3 0e bd 3f 5d 31 bd de 27 04 3d 71 b8 29 3d
       -0.034869354 -0.043301817 0.032264583 0.041435663
000070 86 92 75 3b 46 f5 e6 3c f7 89 7d 3c 47 f6 20 3d
       0.0037471368 0.028193127 0.015474788 0.03929737
000080 4f 24 ce 3b 45 bc 5c 3d 18 70 69 3d a8 07 61 bc
       0.0062909494 0.053890485 0.056991667 -0.013734736
000090 3d fc 58 3d 3b 06 3a 3d 15 dd 11 3d ac 88 10 bd
       0.05297493 0.045416098 0.03561123 -0.03528659
0000a0 99 ec 23 3d d6 8f 6f 3d a9 89 a9 3c 57 41 20 3c
       0.04002056 0.058486782 0.020695524 0.009781203
0000b0 3c 7d 44 bd e0 64 4a bd fa 19 33 3d b9 e6 0d 3d
       -0.047970995 -0.04941261 0.043725945 0.034643862
0000c0 51 09 52 bd 0d ad 47 3d 23 e3 e4 bc 2e cb 2a bd
       -0.051278416 0.04874902 -0.027940338 -0.041697673
0000d0 25 25 b1 bb 40 41 46 3d bf 84 8f 3c 84 21 1f bd
       -0.0054060393 0.04840207 0.017519353 -0.038850322
0000e0 c2 91 63 bc f6 27 5d bd 0f 50 d8 bc 3b 29 5c 3d
       -0.013889732 -0.053993188 -0.026405362 0.053750258
0000f0 fe 76 cd bb 47 ae 56 3d 2b 75 bb 3a 1e ff 2b bd
       -0.0062702885 0.052412298 0.0014301887 -0.041991346

weight_function_network.adaptive_layer.2.weight f4 [64]
000000 f1 23 79 3f 0a 2b 84 3f 94 7c 65 3f b5 5b 80 3f
       0.9732047 1.0325634 0.89643216 1.0027987
000010 38 90 88 3f f5 f7 82 3f f4 32 87 3f c9 a8 86 3f
       1.0669012 1.023192 1.0562425 1.0520259
000020 e6 24 76 3f 82 b9 81 3f c0 ec 7b 3f 9b 26 87 3f
       0.9615005 1.0134737 0.98408127 1.0558656
000030 d1 28 83 3f b2 5a 4b 3f 6a bb 81 3f 66 b1 66 3f
       1.0246831 0.79435265 1.0135319 0.9011444
000040 69 28 7e 3f 69 49 60 3f e3 ed 68 3f 83 e8 6f 3f
       0.9928041 0.87612015 0.90987986 0.9371416
000050 a8 9b 58 3f 1a 37 83 3f 33 a7 5d 3f 5e 08 7a 3f
       0.8461251 1.0251191 0.8658325 0.9766902
000060 32 1a 89 3f 09 ca 7e 3f a4 63 80 3f e6 e4 75 3f
       1.0711119 0.9952703 1.0030408 0.96052396
000070 95 73 82 3f fd 47 80 3f d8 be 65 3f 41 88 4c 3f
       1.0191523 1.0021969 0.8974433 0.79895407
000080 1f 4b 74 3f 07 f7 82 3f 03 66 6a 3f b2 1a 81 3f
       0.95427126 1.0231637 0.9156191 1.0086272
000090 ed d7 7a 3f 5e f0 75 3f 41 70 87 3f 2b cb 82 3f
       0.97985727 0.96069896 1.0581132 1.0218252
0000a0 95 c3 80 3f e1 31 6d 3f f5 27 85 3f 51 8b 5d 3f
       1.0059687 0.92654234 1.0402819 0.86540705
0000b0 94 2f 6f 3f 61 47 7d 3f f2 a5 64 3f da a6 84 3f
       0.93431973 0.9893704 0.8931571 1.0363419
0000c0 3e b1 86 3f 87 a2 6f 3f ce 93 7f 3f 74 2e 7e 3f
       1.052284 0.9360737 0.9983491 0.9928963
0000d0 ba 11 7a 3f 7e 04 67 3f 1f f0 8a 3f c2 55 52 3f
       0.976833 0.9024123 1.0854529 0.82162106
0000e0 44 1b 58 3f 4c 04 7a 3f 8f 54 80 3f dd 5b 68 3f
       0.84416604 0.97662807 1.0025805 0.9076517
0000f0 9f 0e 71 3f cc cd 83 3f 76 94 66 3f 2f ec 75 3f
       0.94162935 1.0297179 0.90070283 0.9606351

weight_function_network.adaptive_layer.2.bias f4 [64]
000000 dd e2 00 bd 40 eb 87 bc 20 6e dc bd b2 46 01 bd
       -0.031466354 -0.016591668 -0.10763192 -0.03156156
000010 97 23 54 3d db 5e 06 3d cd c4 c4 3c 0e 03 2f 3d
       0.051791754 0.032805305 0.024019623 0.042727523
000020 41 fa 69 bd 4d bc 2b bc 4f 85 85 bc 34 ea 73 3d
       -0.057123426 -0.010481906 -0.016298918 0.059549525
000030 f5 d9 47 bc b4 15 51 be cb 56 3e 3c 59 02 b1 bd
       -0.012197961 -0.20418435 0.011617373 -0.08643026
000040 b3 7b 5a bd f0 32 13 be 4b fa 66 bd c8 aa 48 bd
       -0.053340625 -0.143749 -0.05639104 -0.048990995
000050 e6 da af bd a9 d7 40 3d 79 80 dc bd cd e0 a4 bc
       -0.085866734 0.04708067 -0.10766692 -0.020126725
000060 cc 51 83 bc 67 61 04 3c 4b 56 20 bd 63 94 e0 3c
       -0.016030215 0.008079863 -0.039144795 0.027414506
000070 e1 f2 8a 3b 60 6a 68 bd 99 8a d4 3c 70 c3 07 bd
       0.004240379 -0.056742072 0.025944995 -0.033145368
000080 e0 6b 95 bd ad d4 5f bc 27 e3 88 bd e0 2f d0 3c
       -0.07295966 -0.013661546 -0.06683951 0.025413454
000090 0a 50 02 bd 08 f1 80 3d b3 de 0c 3d 9b 86 11 bc
       -0.031814612 0.06295973 0.03439207 -0.00888219
0000a0 f2 b3 3c 3d e9 90 83 bd 72 81 ae ba 44 c6 fa bd
       0.046070047 -0.06424124 -0.0013313724 -0.122448474
0000b0 3b b0 63 bd b7 71 95 bc b3 60 c5 bd ef a9 3d 3c
       -0.05558799 -0.0182427 -0.096375845 0.01157616
0000c0 13 86 77 3c e1 97 83 bd 27 c0 8a 3d c3 99 de bc
       0.015107649 -0.06425453 0.067749314 -0.027172929
0000d0 08 3f 53 bd 29 a3 80 bd d7 89 55 3d b8 83 2a be
       -0.051573783 -0.0628112 0.052133407 -0.16651809
0000e0 3c 85 03 be 35 4e a2 bc 0e 88 8c 3d 38 6c db bd
       -0.12843794 -0.019812683 0.06861888 -0.107140005
0000f0 bc 09 c3 bc 25 e1 49 3d dd c6 7d bd 7b 55 02 bd
       -0.023808353 0.04928698 -0.06195723 -0.0318198

weight_function_network.adaptive_layer.2.running_mean f4 [64]
000000 f0 59 37 c0 86 6d 47 c0 45 2a 2e c0 6c 89 a3 bf
       -2.8648643 -3.1160598 -2.72133 -1.2776313
000010 f8 55 f7 3f 8a 0e 3a c0 ed 6e 51 c0 f9 31 11 40
       1.932311 -2.9071374 -3.2723954 2.268675
000020 d6 5e 6b c0 92 49 82 bf e5 5c 5c c0 67 30 00 40
       -3.6776633 -1.0178702 -3.4431698 2.0029542
000030 66 e1 3c c0 7f 04 ae bf 89 5c 4e c0 b2 da 75 bf
       -2.9512572 -1.3595122 -3.224398 -0.9603683
000040 2e 5a 9c bf 2c e6 45 c0 8a 72 66 bf 09 1b 80 c0
       -1.2215021 -3.0921736 -0.9001852 -4.0033
000050 e8 76 7d bf a6 48 c8 3f 43 ab 7f c0 ed 09 5f c0
       -0.9900956 1.564717 -3.994828 -3.4849808
000060 c7 b4 2f c0 99 8f d2 bf ef ab b3 bf f6 b5 f8 3f
       -2.7454088 -1.6450073 -1.4036845 1.943053
000070 92 d7 7f bf ab a4 a8 bf 3b a8 ba 3d 13 47 b6 bf
       -0.9993831 -1.3175253 0.09114119 -1.424044
000080 08 0e d4 bf bc eb 6a c0 15 31 af bf b3 d8 c5 3f
       -1.6566782 -3.670638 -1.3686854 1.5456756
000090 31 56 af bf 7e 5a 09 40 18 90 00 40 50 bd 94 bf
       -1.3698179 2.1461482 2.0087948 -1.1620274
0000a0 ef 9a e6 3f f9 77 34 c0 65 a7 31 c0 97 02 21 c0
       1.8016032 -2.8198225 -2.775842 -2.515783
0000b0 c8 3d 12 bf 93 30 60 bf fa 9a 2a c0 51 68 9d bf
       -0.5712552 -0.8757412 -2.665709 -1.229746
0000c0 13 1c 7d bf f6 05 53 bf b3 2d a2 3f 5f 2d c6 bf
       -0.9887096 -0.8243097 1.2670196 -1.5482596
0000d0 05 80 0d c0 0f 3d d3 bf 6a 3c f4 3f 00 3a 32 c0
       -2.2109387 -1.6503009 1.9080937 -2.78479
0000e0 13 1f f6 bf 6b c4 ce bf 06 ae 11 c0 34 bc e6 bf
       -1.9228233 -1.6153692 -2.2762465 -1.8026185
0000f0 fb 35 89 bf ca f5 0b 40 e5 b2 92 bf d0 79 58 c0
       -1.0719599 2.1868768 -1.1460844 -3.3824348
