logs/测试preditor网络架构的影响/preditor_network.MLP.layer_number=2preditor_network.MLP.layer_size=[32, 64]/test_model_20250426_195708.pth (torch, 873827 bytes, 78 tensors)

weight_function_network.initial_cnn.0.weight f4 [8, 1, 3, 3]
-0.23584996 0.041481446 0.06721255 0.03751288 0.22843292 0.1196969 0.001730952 -0.022681119
-0.17055357 0.05274604 0.23056412 -0.08428106 -0.2574294 0.1067005 -0.033796556 -0.11897556
0.16260502 0.22597878 0.108969375 -0.08775109 -0.14849734 0.2657234 0.0042860224 -0.24803743
0.13362066 0.26166683 0.123340465 0.15403084 -0.13566776 -0.32702866 0.26719528 -0.0739846
0.16287296 0.26349387 -0.06690837 -0.135881 0.13809209 0.14276981 -0.09645713 -0.2921816
-0.31805167 0.13298225 -0.007263215 -0.32245666 -0.052868553 0.26951197 0.106561646 0.025222603
0.12475019 0.03350599 0.18426791 0.28800184 -0.17177758 -0.0645397 -0.022916088 -0.2281233
-0.30764166 0.26723054 -0.15139462 0.13588665 0.24259129 -0.17320825 -0.2588499 -0.028034817
-0.23655696 0.1165528 -0.2984258 -0.32116944 0.031691402 0.08448566 0.312662 -0.3209201
00000000: a782 71be 73e8 293d bca6 893d 1ba7 193d
00000010: 52ea 693e a623 f53d 1ce1 e23a c1cd b9bc
00000020: 98a5 2ebe 3b0c 583d 0019 6c3e 8c9b acbd
00000030: c9cd 83be cb85 da3d 426e 0abd 75a9 f3bd
00000040: ee81 263e fb66 673e 562b df3d d8b6 b3bd
00000050: b00f 18be e60c 883e c371 8c3b 86fd 7dbe
00000060: dbd3 083e 32f9 853e ed99 fc3d 43ba 1d3e
00000070: 7dec 0abe 4d70 a7be d2cd 883e 3d85 97bd
00000080: 2bc8 263e abe8 863e 4107 89bd 6424 0bbe
00000090: 0368 0d3e 4032 123e 518b c5bd d498 95be
000000a0: abd7 a2be 802c 083e 4300 eebb 0a19 a5be
000000b0: b28c 58bd 79fd 893e fe3c da3d a29f ce3c
000000c0: 077d ff3d 943d 093d bab0 3c3e fa74 933e
000000d0: 76e6 2fbe 642d 84bd 85ba bbbc 2899 69be
000000e0: 3583 9dbe 71d2 883e 3107 1bbe df25 0b3e
000000f0: da69 783e 815d 31be f987 84be 46a9 e5bc
00000100: fd3b 72be 3cb3 ee3d 44cb 98be 5270 a4be
00000110: d8ce 013d d106 ad3d 3c15 a03e a44f a4be

weight_function_network.initial_cnn.0.bias f4 [8]
-0.24664289 -0.15442663 -0.1727933 -0.22146034 0.282178 -0.3143568 0.30829608 0.31728986
00000000: f48f 7cbe 0422 1ebe baf0 30be 80c6 62be
00000010: a379 903e 60f3 a0be fcd8 9d3e d173 a23e

weight_function_network.initial_cnn.1.weight f4 [8]
1.0133177 0.9877624 1.0019984 1.0001963 0.9885529 1.0043964 0.99613696 0.99826545
00000000: 65b4 813f ffdd 7c3f 7c41 803f 6f06 803f
00000010: ce11 7d3f 1090 803f d502 7f3f 538e 7f3f

weight_function_network.initial_cnn.1.bias f4 [8]
0.0018764683 -0.021428123 -0.011833488 0.019042872 -0.009798593 0.0050306423 -0.007200437 0.0026137775
00000000: d4f3 f53a 088a afbc 3fe1 41bc ccff 9b3c
00000010: 478a 20bc 16d8 a43b a5f1 ebbb e94b 2b3b

weight_function_network.initial_cnn.1.running_mean f4 [8]
-0.21694036 -0.028345708 0.010738003 -0.17357714 -0.017521758 0.03869513 0.088044666 0.024520071
00000000: 9d25 5ebe 4235 e8bc 73ee 2f3c 35be 31be
00000010: ca89 8fbc c97e 1e3d c350 b43d 51de c83c

weight_function_network.initial_cnn.1.running_var f4 [8]
0.002829927 0.016753739 0.038797054 0.015537795 0.080244556 0.103298895 0.051649585 0.072925515
00000000: 4c76 393b 233f 893c a9e9 1e3d 3c92 7e3c
00000010: 4257 a43d 5f8e d33d 848e 533d f959 953d

weight_function_network.initial_cnn.4.weight f4 [16, 8, 3, 3]
0.04261866 0.029904185 -0.08308111 -0.021713046 0.0101318285 0.07911348 0.102083206 0.08286751
-0.0442429 -0.019021368 0.0078100436 -0.11285673 0.053723805 0.037483312 -0.09354407 0.055212483
-0.092493415 -0.05707786 0.087200314 -0.11757302 -0.03534068 0.08643954 -0.11630378 0.08621084
0.0035294173 0.025667753 0.018884644 0.053380713 0.10341951 -0.070724376 0.11341456 -0.03867176
0.07487514 -0.034224853 -0.03873788 0.016902266 -0.11766029 0.07270414 0.09128989 -0.05478338
-0.019128399 0.073532484 -0.058755882 -0.08165645 0.09925667 -0.05884142 0.029322574 0.04998082
0.02005547 0.0060626194 0.04936657 -0.08414139 -0.08561373 0.009016628 0.056723505 0.078197084
0.06235863 -0.0963908 -0.053794324 -0.08028872 0.09775688 -0.117134005 0.098119855 -0.054332543
0.087336764 -0.09736288 -0.0022739037 0.010014451 -0.018530274 0.06018999 0.067162775 -0.11570684
0.08755235 0.12875433 0.008640118 -0.075489126 0.08981662 0.015472428 0.017890712 0.020397972
-0.020384781 0.08392731 -0.029571123 -0.08825665 -0.045390453 -0.026847502 0.07473438 0.058256757
-0.029295769 0.053589944 -0.03222347 0.06275671 0.004353967 0.11537386 0.059635196 0.032793485
-0.07325837 -0.08576364 -0.01645504 -0.011836347 -0.0019338322 0.07360837 0.029455086 0.107328326
-0.05572363 -0.009573847 -0.06436848 0.10825557 -0.06717928 0.10255687 -0.013306828 0.041500833
0.122097574 0.0040822234 0.04342378 -0.018351685 -0.069416344 -0.035549354 -0.019354468 -0.07989516
-0.0893561 0.10767947 0.049419608 -0.095802315 -0.092799716 0.031516302 0.05307902 -0.09060583
0.09589787 0.07166755 0.035281826 0.052732848 -0.044581592 -0.041780356 -0.056129783 0.08528697
-0.066117086 -0.10045243 0.09596784 0.07306622 -0.0159887 -0.018586274 -0.104285024 0.02732353
-0.08559579 0.02781123 -0.0070371316 0.09675114 -0.0051011657 -0.08351336 -0.050531056 0.08709645
0.12902053 -0.012519531 -0.076049045 -0.054328896 -0.08195609 -0.072210655 0.02167649 0.11757307
0.070174105 -0.017470201 0.045455895 0.08475458 0.09287584 -0.03755564 0.009984987 -0.091260396
-0.07199582 -0.029751666 0.013374242 -0.007763062 0.028749995 0.034073494 0.11027802 0.07705285
-0.08055101 0.09450167 -0.01719897 -0.102717035 -0.010736248 -0.0288237 -0.02225621 -0.046076078
0.07867577 -0.041606642 -0.05510201 -0.062365085 0.09405445 0.08097892 0.0765414 -0.10475577
-0.060629 -0.027765682 -0.0274288 -0.021926954 -0.04033469 0.11728444 0.10965325 -0.04565452
0.087964766 0.024679232 -0.009580895 0.004677668 -0.026731422 -0.052711517 0.02897952 0.01748389
0.017923914 0.095130414 -0.10712175 -0.10184233 -0.024048934 0.09245788 0.034818742 0.05768007
0.1211193 -0.09866109 -0.012466965 0.03131074 0.00219425 -0.01858908 -0.047222473 -0.055854343
-0.11855135 -0.035527103 -0.004930046 0.06594984 0.020873388 -0.10610822 0.040540006 0.06756832
-0.051582552 0.09613726 -0.068438694 0.018089522 0.039593484 0.08173441 -0.085023314 -0.0019104476
0.06280008 -0.087957405 -0.035019483 0.06270509 0.08490022 -0.08672167 -0.08196699 0.11368475
0.081185974 0.10868773 0.12946467 -0.06410035 0.017901644 0.09802862 -0.053812794 0.1032984
00000000: e790 2e3d 9ff9 f43c 6e26 aabd 8fdf b1bc
00000010: f8ff 253c 4006 a23d 0011 d13d 71b6 a93d
00000020: 0b38 35bd b3d2 9bbc 65eb ff3b 6e21 e7bd
00000030: 7e0d 5c3d 1a88 193d 0994 bfbd 7c26 623d
00000040: 306d bdbd 79ca 69bd 1496 b23d 20ca f0bd
00000050: 64c1 10bd 3707 b13d ad30 eebd 4f8f b03d
00000060: cc4d 673b 2e45 d23c f8b3 9a3c bca5 5a3d
00000070: 9ccd d33d f1d7 90bd e545 e83d 4866 1ebd
00000080: 2358 993d 5c2f 0cbd 9cab 1ebd 9f76 8a3c
00000090: e1f7 f0bd e8e5 943d 32f6 ba3d 8a64 60bd
000000a0: 29b3 9cbc 3398 963d 02aa 70bd 7f3b a7bd
000000b0: 1547 cb3d b303 71bd e535 f03c b0b8 4c3d
000000c0: 5e4b a43c f0a8 c63b 9a34 4a3d 5252 acbd
000000d0: 4056 afbd 7bba 133c e856 683d cb25 a03d
000000e0: c36b 7f3d 8a68 c5bd 7057 5cbd 6a6e a4bd
000000f0: c234 c83d f4e3 efbd 10f3 c83d cd8b 5ebd
00000100: 9edd b23d 3166 c7bd c605 15bb a713 243c
00000110: cdcc 97bc c789 763d a38c 893d b5f7 ecbd
00000120: a54e b33d 2dd8 033e 488f 0d3c 0b9a 9abd
00000130: c7f1 b73d 1180 7d3c 8b8f 923c a619 a73c
00000140: fcfd a6bc 15e2 ab3d 243f f2bc e7bf b4bd
00000150: 57eb 39bd 4bef dbbc 570e 993d a39e 6e3d
00000160: aefd efbc 2181 5b3d c2fc 03bd 9786 803d
00000170: b9ab 8e3b 2149 ec3d 0944 743d 7652 063d
00000180: 7c08 96bd d9a4 afbd b8cc 86bc 3ded 41bc
00000190: a478 fdba fcbf 963d cb4b f13c f4ce db3d
000001a0: 763e 64bd a0db 1cbc 9fd3 83bd 19b5 dd3d
000001b0: 4a95 89bd 5609 d23d e204 5abc c7fc 293d
000001c0: 4b0e fa3d 2cc4 853b 22dd 313d 4656 96bc
000001d0: 282a 8ebd 339c 11bd 438d 9ebc 13a0 a3bd
000001e0: 5500 b7bd 0e87 dc3d 376c 4a3d 0134 c4bd
000001f0: c70d bebd 3d17 013d 6369 593d 8d8f b9bd
00000200: 1a66 c43d 70c6 923d ad83 103d 66fe 573d
00000210: 309b 36bd e121 2bbd 58e8 65bd efaa ae3d
00000220: 6568 87bd 01ba cdbd c98a c43d bea3 953d
00000230: bcfa 82bc 3e42 98bc 6393 d5bd 98d5 df3c
00000240: d84c afbd 60d4 e33c bd97 e6bb 7625 c63d
00000250: ae27 a7bb 0d09 abbd a7f9 4ebd a05f b23d
00000260: f51d 043e b81e 4dbc 9abf 9bbd fa87 5ebd
00000270: 98d8 a7bd 2ee3 93bd e592 b13c 26ca f03d
00000280: 71b7 8f3d ab1d 8fbc f62f 3a3d cf93 ad3d
00000290: b035 be3d f1d3 19bd 1298 233c bbe6 babd
000002a0: 8b72 93bd c4b9 f3bc a31f 5b3c 4961 febb
000002b0: 1c85 eb3c a690 0b3d 71d9 e13d e2cd 9d3d
000002c0: eef7 a4bd 178a c13d dbe4 8cbc 4f5d d2bd
000002d0: 17e7 2fbc ae1f ecbc a852 b6bc 45ba 3cbd
000002e0: c320 a13d ba6b 2abd a5b2 61bd 8872 7fbd
000002f0: 9f9f c03d 47d8 a53d bdc1 9c3d 318a d6bd
00000300: 1d56 78bd db74 e3bc 5db2 e0bc 28a0 b3bc
00000310: fd35 25bd d332 f03d e291 e03d 3c00 3bbd
00000320: df26 b43d 1a2c ca3c 30f9 1cbc 2047 993b
00000330: dbfb dabc 08e8 57bd 7566 ed3c 603a 8f3c
00000340: 2cd5 923c bcd3 c23d a662 dbbd b692 d0bd
00000350: 4502 c5bc 8f5a bd3d 199e 0e3d f041 6c3d
00000360: 650d f83d d30e cabd 3e42 4cbc b13f 003d
00000370: 68cd 0f3b 2048 98bc 5a6c 41bd 86c7 64bd
00000380: 0dcb f2bd de84 11bd 398c a1bb b610 873d
00000390: abfe aa3c 444f d9bd 470d 263d 4261 8a3d
000003a0: 3a48 53bd 9de3 c43d 9629 8cbd 7a30 943c
000003b0: c72c 223d 5f64 a73d b420 aebd fc67 faba
000003c0: 549d 803d 0323 b4bd 9770 0fbd 876b 803d
000003d0: 2be0 ad3d 229b b1bd 4fde a7bd 8dd3 e83d
000003e0: d544 a63d ac97 de3d 6392 043e 0b47 83bd
000003f0: 78a6 923c 3bc3 c83d ce6a 5cbd 1d8e d33d

weight_function_network.initial_cnn.4.bias f4 [16]
0.038837105 0.061932772 -0.08205991 0.034517575 0.116101116 -0.006470416 -0.05611006 0.0016614075
-0.029486613 -0.07396634 0.060300745 0.03350898 -0.037644394 0.024706015 0.05134636 0.057102602
00000000: a813 1f3d 38ad 7d3d 070f a8bd 4d62 0d3d
00000010: 6cc6 ed3d c905 d4bb aad3 65bd 96c3 d93a
00000020: e98d f1bc aa7b 97bd eafd 763d b640 093d
00000030: 0231 1abd 4564 ca3c 9050 523d 6be4 693d

weight_function_network.initial_cnn.5.weight f4 [16]
0.9993936 1.0122194 0.99791706 0.99084747 0.99348414 1.0073076 0.9835863 1.0034399
1.0006841 1.0158345 0.99902236 0.9977795 1.0017874 0.9901589 1.0053908 0.9959406
00000000: 42d8 7f3f 6890 813f 7e77 7f3f 2ea8 7d3f
00000010: fa54 7e3f 75ef 803f 50cc 7b3f b870 803f
00000020: 6b16 803f dd06 823f eebf 7f3f 7a6e 7f3f
00000030: 923a 803f 0e7b 7d3f a5b0 803f f7f5 7e3f

weight_function_network.initial_cnn.5.bias f4 [16]
0.001903124 -0.009864693 -0.026247218 -0.024581248 -0.005019886 -0.004719461 -0.0149295 -0.01980221
0.0062259035 0.008307625 0.008137526 -0.009140659 -0.0007973573 -0.012399845 -0.0074760406 -0.0035147094
00000000: 3f72 f93a 859f 21bc 6804 d7bc 9d5e c9bc
00000010: db7d a4bb b5a5 9abb dd9a 74bc 3f38 a2bc
00000020: aa02 cc3b b41c 083c 4253 053c b4c2 15bc
00000030: be05 51ba b828 4bbc 93f9 f4bb 0a57 66bb

weight_function_network.initial_cnn.5.running_mean f4 [16]
0.08539199 0.34477994 0.0047160853 0.3180935 0.10680332 0.19077097 0.3669382 -0.0844278
-0.2258301 -0.2571552 -0.28948912 0.1692934 -0.06729787 0.042839408 -0.040057205 -0.042643458
00000000: ffe1 ae3d ff86 b03e 6489 9a3b 27dd a23e
00000010: b3bb da3d 7759 433e 53df bb3e 7be8 acbd
00000020: 0140 67be d9a9 83be eb37 94be 405b 2d3e
00000030: 77d3 89bd 6078 2f3d 0613 24bd e8aa 2ebd

weight_function_network.initial_cnn.5.running_var f4 [16]
0.076324426 0.08133303 0.06255862 0.10751625 0.14070536 0.1300577 0.17108075 0.061487045
0.095549956 0.106980786 0.26677713 0.06319251 0.23138355 0.05810698 0.060371432 0.07460962
00000000: fb4f 9c3d ee91 a63d bc1e 803d 7b31 dc3d
00000010: 1115 103e d92d 053e cb2f 2f3e d7d9 7b3d
00000020: b2af c33d be18 db3d 0397 883e 136b 813d
00000030: cfef 6c3e 9601 6e3d 0948 773d eecc 983d

weight_function_network.initial_cnn.8.weight f4 [32, 16, 3, 3]
-0.046090774 -0.008891779 -0.04139206 -0.052526854 0.037256293 -0.012176961 -0.067295104 -0.027905764
0.063989624 0.013461562 0.007851893 -0.060572956 -0.01706757 0.006557613 -0.011388629 0.019014925
0.06496809 0.001346163 0.002567914 0.07602772 0.030701473 -0.033646267 0.0131378 -0.032294743
-0.015322944 -0.081995435 -0.061363086 0.051675502 -0.058312044 -0.035743523 0.030281147 0.017994665
-0.07877478 -0.043331664 0.030460093 0.042299516 0.020490816 0.017648755 0.005300879 0.07957747
-0.06452348 0.024471095 0.084262006 0.044266887 -0.079900734 -0.07693814 0.046512038 -0.051700927
0.022507997 0.0067699444 0.02753979 -0.04482891 0.053748272 -0.01984195 -0.0043154457 0.015000078
-0.045692127 0.014346892 -0.06514496 -0.06755565 -0.026980244 -0.018149603 0.07593123 0.064548574
0.07886575 0.048426062 -0.06050568 -0.019058222 0.042730033 -0.0087616425 0.017983926 -0.051576465
0.038237803 0.03189803 0.062275212 -0.021751815 0.005148524 -0.0042068986 0.07110778 0.034783456
0.045357607 0.04409737 0.042207994 0.039023113 0.052780543 -0.03152025 -0.065391794 -0.08086039
0.07218947 0.08704624 -0.040680457 -0.06985537 -0.017793437 0.050790332 -0.00041902027 0.08368224
-0.06252901 0.024426082 -0.068773344 -0.038196325 -0.05638741 -0.035397068 -0.06127273 -0.07367396
-0.0031550806 -0.044911083 0.0026889434 -0.07316736 -0.05235986 0.0019864172 0.052269723 -0.03018527
-0.07778327 -0.057928402 0.065348536 -0.06713237 0.07344805 -0.07350968 0.07532644 -0.06540681
-0.026383465 -0.032332655 0.032396276 -0.01496954 -0.043506254 -0.018141074 0.03813703 0.026058972
-0.064546235 -0.00093817536 -0.03332584 -0.00013142967 -0.027961662 0.023807345 0.045690108 0.07288281
-0.010263449 -0.08233786 0.07977717 -0.0267633 0.05980542 0.028699005 -0.07426434 -0.091545895
0.07097698 -0.00012730093 -0.06758324 0.02402393 0.035558306 0.04706235 -0.03152606 -0.052505475
0.009956227 0.051464003 -0.029054854 0.0011777764 -0.051456727 0.059710182 -0.057542045 0.036931664
0.0433071 0.072149865 0.046452727 -0.032835905 0.027781416 0.051881082 0.016012138 5.8303634e-05
-0.047557946 0.056003377 -0.031099249 -0.017881418 -0.023885828 0.043990973 -0.024650658 -0.072489224
0.035974786 -0.06968427 -0.084656835 -0.08925648 0.0057740053 0.03454994 0.06494326 0.026253758
0.078142814 -0.07743982 0.00835153 0.0031202815 -0.06610786 0.048261836 -0.03829465 -0.0163032
0.04764596 -0.013483584 -0.05423987 0.044983927 0.04705608 -0.064001024 0.0048201894 0.012864358
-0.047182534 -0.056508806 -0.03424736 -0.025481941 -0.07000078 -0.07961621 0.039139695 0.0567684
-0.01995963 0.019673862 -0.030686304 0.020702228 0.04071823 0.06653901 0.076804675 -0.02669358
0.059211135 0.04075946 0.05332941 0.014595823 -0.05314109 0.020730004 -0.05117269 -0.061290856
0.01938475 0.0755225 -0.028068852 0.08392859 -0.05739772 0.050845087 -0.089117005 -0.014531803
0.07451167 -0.054706685 -0.07175414 0.051341366 0.051933724 0.043707304 0.013041965 -0.022330336
-0.043519642 -0.052120164 -0.029482175 -0.086755 -0.023806032 -0.08316979 -0.01182114 -0.0055679264
-0.052960947 -0.004831029 -0.08336721 -0.01871004 0.033119146 0.043118794 0.04998534 0.08534231
00000000: aec9 3cbd d3ae 11bc b98a 29bd 6626 57bd
00000010: 0e9a 183d e081 47bc 04d2 89bd a19a e4bc
00000020: fe0c 833d e28d 5c3c 3aa5 003c 591b 78bd
00000030: 4ad1 8bbc 3fe1 d63b 5f97 3abc 30c5 9b3c
00000040: fd0d 853d bc71 b03a 734a 283b 6cb4 9b3d
00000050: a881 fb3c abd0 09bd ed3f 573c 7e47 04bd
00000060: 160d 7bbc 39ed a7bd dc57 7bbd b1a9 533d
00000070: 9cd8 6ebd cd67 12bd 2b10 f83c 8c69 933c
00000080: ac54 a1bd 8b7c 31bd 7287 f93c 4242 2d3d
00000090: 5bdc a73c 1f94 903c ffb2 ad3b 83f9 a23d
000000a0: e324 84bd 9b77 c83c 8f91 ac3d 3251 353d
000000b0: ffa2 a3bd be91 9dbd 6883 3e3d 5ac4 53bd
000000c0: b162 b83c 69d6 dd3b 209b e13c 859e 37bd
000000d0: 2627 5c3d 968b a2bc 9568 8dbb e3c2 753c
000000e0: ab27 3bbd 3a0f 6b3c b96a 85bd 9e5a 8abd
000000f0: ac05 ddbc 7aae 94bc d581 9b3d 0b32 843d
00000100: 5e84 a13d 685a 463d ced4 77bd fd1f 9cbc
00000110: b005 2f3d fe8c 0fbc 0753 933c d841 53bd
00000120: 3e9f 1c3d 82a7 023d 4b14 7f3d dd30 b2bc
00000130: f3b4 a83b 06da 89bb f5a0 913d 1979 0e3d
00000140: e6c8 393d 729f 343d 4ae2 2c3d b3d6 1f3d
00000150: 6930 583d 611b 01bd 22ec 85bd 229a a5bd
00000160: 13d8 933d 4d45 b23d 8da0 26bd 5510 8fbd
00000170: 8bc3 91bc 8609 503d f3af dbb9 9861 ab3d
00000180: 360f 80bd 3519 c83c 0ad9 8cbd c073 1cbd
00000190: 7cf6 66bd 84fc 10bd 1df9 7abd 60e2 96bd
000001a0: 78c5 4ebb aff4 37bd fc38 303b c5d8 95bd
000001b0: 4b77 56bd 8d2e 023b c718 563d 1947 f7bc
000001c0: d64c 9fbd 5546 6dbd 74d5 853d b27c 89bd
000001d0: ee6b 963d 3e8c 96bd c044 9a3d 01f4 85bd
000001e0: 2322 d8bc 3f6f 04bd f5b1 043d cd42 75bc
000001f0: 9d33 32bd 979c 94bc 9335 1c3d a079 d53c
00000200: d130 84bd e2ef 75ba ad80 08bd 62d0 09b9
00000210: db0f e5bc 9f07 c33c 8d25 3b3d 9543 953d
00000220: 0628 28bc c0a0 a8bd 3762 a33d b53e dbbc
00000230: 87f6 743d 2d1a eb3c e717 98bd 6a7c bbbd
00000240: 615c 913d 157c 05b9 1569 8abd d5cd c43c
00000250: 96a5 113d 73c4 403d 7821 01bd fb0f 57bd
00000260: 711f 233c ebcb 523d 7204 eebc 9e5f 9a3a
00000270: 4ac4 52bd aa92 743d 35b1 6bbd a845 173d
00000280: c962 313d 4fc3 933d 3745 3e3d f17e 06bd
00000290: da95 e33c 4281 543d e32b 833c 0d8b 7438
000002a0: 1fcc 42bd cc63 653d dac3 febc 0d7c 92bc
000002b0: 36ac c3bc e12f 343d 2df0 c9bc 3b75 94bd
000002c0: 4c5a 133d a0b6 8ebd 9060 adbd 1acc b6bd
000002d0: de33 bd3b 3d84 0d3d f900 853d 1f12 d73c
000002e0: 5709 a03d c598 9ebd dbd4 083c a37d 4c3b
000002f0: 8f63 87bd 34ae 453d dada 1cbd 4a8e 85bc
00000300: 6928 433d 40ea 5cbc a02a 5ebd 1141 383d
00000310: e0bd 403d f812 83bd aef2 9d3b 07c5 523c
00000320: 7942 41bd c775 67bd f646 0cbd 81bf d0bc
00000330: 925c 8fbd d30d a3bd f250 203d fb85 683d
00000340: 6182 a3bc 142b a13c d861 fbbc b897 a93c
00000350: 29c8 263d 9b45 883d c54b 9d3d 7fac dabc
00000360: 6087 723d 64f3 263d f06f 5a3d 5223 6f3c
00000370: 79aa 59bd f8d1 a93c 749a 51bd 1f0c 7bbd
00000380: c4cc 9e3c 8aab 9a3d a6f0 e5bc c1e2 ab3d
00000390: df19 6bbd f042 503d fa82 b6bd cd16 6ebc
000003a0: 9399 983d 1e14 60bd d6f3 92bd 534b 523d
000003b0: 75b8 543d 6e06 333d f7ad 553c 1cee b6bc
000003c0: a741 32bd f47b 55bd 9a84 f1bc 9bac b1bd
000003d0: de04 c3bc ec54 aabd 74ad 41bc 2773 b6bb
000003e0: 94ed 58bd 9c4d 9ebb 6ebc aabd cc45 99bc
000003f0: f1a7 073d 559d 303d 6ebd 4c3d f3c7 ae3d

weight_function_network.initial_cnn.8.bias f4 [32]
-0.010119036 -0.023960464 -0.07198974 0.0048931893 0.061185945 -0.050833214 0.06072095 0.045899276
-0.067601584 0.0685014 0.064067215 0.04987793 -0.04177591 0.006819737 0.08302871 -0.051762644
-0.053684123 0.025304142 0.012257264 -0.07353326 -0.0056464714 -0.03946802 -0.05422707 -0.06004122
0.007997154 0.029080646 0.0003077447 -0.043851193 0.020938057 0.057003077 0.066411205 -0.019596247
00000000: 50ca 25bc bc48 c4bc 5b6f 93bd 0c57 a03b
00000010: 1d9e 7a3d 7d36 50bd 88b6 783d e100 3c3d
00000020: b372 8abd 764a 8c3d ac35 833d cd4c 4c3d
00000030: 371d 2bbd 1a78 df3b f50a aa3d 1105 54bd
00000040: e2e3 5bbd a24a cf3c b1d2 483c 9b98 96bd
00000050: 0906 b9bb 38a9 21bd 341d 5ebd c8ed 75bd
00000060: 7f06 033c 893a ee3c cb58 a139 4f9d 33bd
00000070: 4a86 ab3c 0f7c 693d 9902 883d 4f88 a0bc

weight_function_network.initial_cnn.9.weight f4 [32]
1.0094566 0.99598163 1.0009992 1.0109127 1.0129148 1.000494 1.0060065 0.9911928
0.990129 1.0017593 0.99237335 0.99427706 0.9969999 0.983529 1.0110488 1.0050535
1.0150476 0.99581486 1.0117179 0.9890343 0.9816992 0.99911153 1.0152559 0.999523
1.0052428 0.9905474 0.9874834 0.9985839 1.0073547 1.0060242 0.99711 1.0001479
00000000: e035 813f a7f8 7e3f be20 803f 9665 813f
00000010: 31a7 813f 3010 803f d2c4 803f d0be 7d3f
00000020: 1879 7d3f a639 803f 2e0c 7e3f f188 7e3f
00000030: 633b 7f3f 8ec8 7b3f 0c6a 813f 98a5 803f
00000040: 14ed 813f b9ed 7e3f f97f 813f 5a31 7d3f
00000050: a450 7b3f c6c5 7f3f e8f3 813f bde0 7f3f
00000060: ccab 803f 8494 7d3f b6cb 7c3f 32a3 7f3f
00000070: 00f1 803f 67c5 803f 9a42 7f3f d904 803f

weight_function_network.initial_cnn.9.bias f4 [32]
-0.004377433 -0.018015342 0.00350476 -0.004338793 0.0017836596 0.00074495864 0.008584373 -0.02426387
-0.0025129935 0.002610121 0.006454817 0.013755489 -0.008284177 -0.014516981 -0.013134584 0.006846079
0.012257823 -0.0054364665 0.00784066 -0.0146303065 -0.010806916 0.0029948177 0.0038461995 -0.011660699
-0.002033924 -0.012515365 -0.00498551 -0.0025840541 -0.011045899 -0.0049869 -0.015798157 0.0014621796
00000000: 9270 8fbb e994 93bc 1eb0 653b 6f2c 8ebb
00000010: afc9 e93a 5449 433a 78a5 0c3c 06c5 c6bc
00000020: 09b1 24bb 900e 2b3b ee82 d33b b45e 613c
00000030: 5bba 07bc a2d8 6dbc 7032 57bc 1355 e03b
00000040: 09d5 483c 6324 b2bb 1d76 003c f4b3 6fbc
00000050: 7e0f 31bc b444 443b 8510 7c3b 840c 3fbc
00000060: 954b 05bb 3f0d 4dbc 7d5d a3bb 3c59 29bb
00000070: dcf9 34bc 2669 a3bb 236b 81bc 9ba6 bf3a

weight_function_network.initial_cnn.9.running_mean f4 [32]
-0.30477598 -0.24494499 -0.47369513 1.0273627 -0.28093606 -0.14167087 -0.025644697 0.5193871
0.031947736 -0.48843977 -0.059515953 0.14757313 0.11389846 -0.47394833 0.24699654 -0.25956857
0.044339567 0.13778907 0.35809982 -0.12849845 -0.31373525 -0.5239065 -0.30989087 -0.3273435
-0.48458326 -0.009529605 -0.49186578 0.23372607 0.23146066 0.97546834 0.6844906 0.43963102
00000000: 990b 9cbe dcd2 7abe 2b88 f2be 9f80 833f
00000010: dad6 8fbe 2b12 11be d414 d2bc 8ef6 043f
00000020: a1db 023d c714 fabe 00c7 73bd 691d 173e
00000030: 9943 e93d 5ba9 f2be a9ec 7c3e 2ce6 84be
00000040: 689d 353d 9418 0d3e dc58 b73e 1995 03be
00000050: e8a1 a0be bd1e 06bf 04aa 9ebe 9199 a7be
00000060: 4c1b f8be 0f22 1cbc d5d5 fbbe e355 6f3e
00000070: 0604 6d3e 4bb8 793f c73a 2f3f 5117 e13e

weight_function_network.initial_cnn.9.running_var f4 [32]
0.15116473 0.15676452 0.20459451 0.3187199 0.15601131 0.32043207 0.22420016 0.13829233
0.12116266 0.17211272 0.13693939 0.1256856 0.13183728 0.28488562 0.18470103 0.17642112
0.12727134 0.17029592 0.14882994 0.19816604 0.2827298 0.41320983 0.20796816 0.10844726
0.2786233 0.093151666 0.15371287 0.19832943 0.13425525 0.32929435 0.4211223 0.14921328
00000000: edca 1a3e e186 203e 3981 513e 412f a33e
00000010: 6ec1 1f3e ac0f a43e ba94 653e 819c 0d3e
00000020: 2124 f83d 513e 303e d739 0c3e bab3 003e
00000030: 5a00 073e 87dc 913e 4422 3d3e bda7 343e
00000040: 6b53 023e 0e62 2e3e e066 183e 0aec 4a3e
00000050: f6c1 903e 3d90 d33e 9bf5 543e 9919 de3d
00000060: b7a7 8e3e 4dc6 be3d e866 1d3e df16 4b3e
00000070: 357a 093e 4599 a83e 589d d73e 5ecb 183e

weight_function_network.initial_cnn.11.weight f4 [32, 32, 3, 3]
0.044960424 0.00737702 -0.057991214 0.027182246 -0.027151974 -0.040127233 -0.030131541 -0.027444877
0.029145332 0.06769084 0.04928474 0.02225093 0.011060736 -0.04111721 0.058099642 -0.0033742727
-0.034122806 0.024634786 -0.024233634 0.0005843711 0.037440546 0.013239477 -0.048304886 0.025083054
-0.032888006 -0.043926325 0.014645742 -0.0031324606 -0.04858518 -0.06501938 0.013756568 -0.026111748
0.012060783 -0.061698955 0.003525904 0.03909521 0.04070711 0.032427162 -0.06404549 0.0038404742
0.05531597 -0.0010751418 0.0032871205 -0.0060769087 0.06322702 -0.054840226 0.027821751 0.022407828
0.0026394592 0.0449343 0.050771534 0.025438774 0.004484211 -0.046844292 0.019417524 0.000776538
-0.049276907 -0.051453285 -0.028845722 0.020291006 0.032790743 0.018746143 0.05505667 -0.03957228
0.061074257 0.039366182 -0.013174937 -0.0109080095 0.051451884 -0.005039279 -0.04426187 0.06265414
-0.026678564 -0.027475646 -0.06183158 -0.0419788 -0.0029612018 -0.025520992 0.037267104 0.009014231
0.026059115 -0.05086249 -0.014000735 0.046907417 -0.019907854 -0.047686666 -0.055507705 -0.058522306
-0.03886228 -0.022048252 0.026204929 0.036863584 0.065220684 -0.05154483 -0.004193587 0.03712422
-0.025468053 0.027529424 0.047714468 0.0065108393 0.043333977 0.053631764 -0.03609817 0.011799573
-0.05052732 0.04292252 0.04861457 -0.050201245 0.04990345 -0.013847105 0.05405573 -0.04148795
0.03828684 -0.030923745 -0.053388543 -0.015671281 0.055856425 0.04116954 0.015834484 -0.0012062895
-0.051039156 -0.041369807 0.05303107 -0.046540737 0.035829812 -0.02403549 0.04208513 0.039940163
-0.03408175 -0.045446943 0.04414623 0.07523833 0.030578282 0.05781566 -0.024076257 -0.03108549
-0.02458773 -0.030551117 -0.030621123 -0.04706061 -0.023073353 0.014838778 0.00383859 0.03376826
-0.0573935 -0.04014256 -0.0733682 0.059801668 0.023143413 0.036019683 -0.009267059 -0.03908768
0.0068843723 0.043133102 0.0113641 -0.05069279 -0.04675395 0.019085445 0.013104132 0.0215838
-0.015286406 0.047864992 -0.031325825 -0.009360099 0.02097318 -0.005678235 0.0063902624 -0.04166339
-0.017097607 -0.06411179 0.015815612 -0.018589845 -0.052487414 0.04863625 0.03582293 -0.03638742
0.036606804 -0.008919367 -0.008439481 -0.01904715 0.028492289 0.013480536 -0.03976203 -0.03655175
-0.0389973 -0.022765324 -0.056152947 0.03287343 -0.016766999 -0.022419585 0.019196523 -0.048361372
-0.0001840126 0.020998256 0.0025700696 -0.023936842 0.050452758 -0.00077168725 -0.026700377 -0.00815972
0.03206182 -0.06600343 0.033521853 0.0060633346 -0.047450785 -0.06463424 -0.070136815 -0.0078123626
-0.003558817 -0.018111678 -0.046704352 -0.023509957 0.04065375 -0.016397186 -0.008220218 0.051734477
-0.048618324 0.0291394 0.016313227 0.038505647 -0.05812789 -0.021058874 -0.0019167404 -0.034309864
-0.05543896 -0.0013837434 0.05257417 0.024521422 -0.038367514 0.020516686 -0.009148641 0.045988705
0.029605424 -0.02182242 0.061937597 0.009973686 -0.04335732 0.02986772 0.055884495 -0.046214003
-0.015560912 0.035102215 -0.025678642 -0.03780884 -0.039065704 0.01669225 0.0011156718 0.0061357687
0.04484056 0.00878607 0.02762412 0.0031786633 -0.009383258 -0.0017534519 0.0049285097 0.00214471
00000000: 6c28 383d eeba f13b 3288 6dbd 4dad de3c
00000010: d16d debc 745c 24bd 6cd6 f6bc 14d4 e0bc
00000020: 31c2 ee3c 7fa1 8a3d ccde 493d 9547 b63c
00000030: 1738 353c 856a 28bd e4f9 6d3d e722 5dbb
00000040: 5bc4 0bbd e4ce c93c 9d85 c6bc 7b30 193a
00000050: 425b 193d 64ea 583c 58db 45bd fa7a cd3c
00000060: 93b5 06bd 17ec 33bd b2f4 6f3c f849 4dbb
00000070: 4101 47bd e128 85bd 3a63 613c 4ee8 d5bc
00000080: 979a 453c 0bb8 7cbd da12 673b 4d22 203d
00000090: 80bc 263d 58d2 043d 482a 83bd 77b0 7b3b
000000a0: 0093 623d c6eb 8cba bb6c 573b ce20 c7bb
000000b0: 2b7d 813d 25a0 60bd 71ea e33c 9f90 b73c
000000c0: c7fa 2c3b 070d 383d d0f5 4f3d fa64 d03c
000000d0: 4af0 923b cddf 3fbd 8011 9f3c 9590 4b3a
000000e0: 95d6 49bd aec0 52bd dd4d ecbc 5339 a63c
000000f0: 964f 063d 8391 993c 1a83 613d 8b16 22bd
00000100: 0029 7a3d 6f3e 213d b1db 57bc 82b7 32bc
00000110: 36bf 523d 8920 a5bb ef4b 35bd d050 803d
00000120: 018d dabc 9b14 e1bc 1c43 7dbd f6f1 2bbd
00000130: b910 42bb 6611 d1bc 64a5 183d 6db0 133c
00000140: ed79 d53c 3055 50bd 5763 65bc fe21 403d
00000150: cc15 a3bc 1853 43bd 0c5c 63bd 16b5 6fbd
00000160: 0e2e 1fbd 899e b4bc b8ab d63c 45fe 163d
00000170: 6c92 853d ac20 53bd 5c6a 89bb 910f 183d
00000180: 61a2 d0bc 6385 e13c 3f70 433d e158 d53b
00000190: f87e 313d fbac 5b3d addb 13bd ff52 413c
000001a0: bcf5 4ebd 86cf 2f3d 1220 473d d29f 4dbd
000001b0: 8f67 4c3d f8de 62bc 8b69 5d3d 45ef 29bd
000001c0: a9d2 1c3d cb53 fdbc f2ad 5abd 0f61 80bc
000001d0: b5c9 643d 64a1 283d 52b7 813c 5c1c 9eba
000001e0: 6f0e 51bd 6373 29bd 1b37 593d 80a1 3ebd
000001f0: 48c2 123d 13e6 c4bc 7561 2c3d 4c98 233d
00000200: 4e99 0bbd 9326 3abd add2 343d 8e16 9a3d
00000210: 4e7f fa3c 1dd0 6c3d 923b c5bc ffa6 febc
00000220: 356c c9bc 5646 fabc 26d9 fabc a0c2 40bd
00000230: 5404 bdbc 591e 733c db90 7b3b 9650 0a3d
00000240: 7215 6bbd 866c 24bd 1142 96bd 98f2 743d
00000250: 4197 bd3c 6089 133d ddd4 17bc 671a 20bd
00000260: 4d96 e13b 56ac 303d 7d30 3a3c 3ea3 4fbd
00000270: 1281 3fbd 1459 9c3c b7b2 563c 82d0 b03c
00000280: d573 7abc 150e 443d 824f 00bd 1a5b 19bc
00000290: f2cf ab3c 7d10 babb 6865 d13b 3ba7 2abd
000002a0: 4810 8cbc 0b4d 83bd be8f 813c bb49 98bc
000002b0: 0bfd 56bd ce36 473d 11bb 123d fa0a 15bd
000002c0: 04f1 153d 8922 12bc c045 0abc c508 9cbc
000002d0: a968 e93c 77dd 5c3c 83dd 22bd 4ab7 15bd
000002e0: a2bb 1fbd 587e babc a200 66bd 4aa6 063d
000002f0: f25a 89bc 47a9 b7bc 0742 9d3c 9316 46bd
00000300: 82f3 40b9 8904 ac3c 9d6e 283b 3217 c4bc
00000310: 8da7 4e3d 0e4b 4aba c0ba dabc 59b0 05bc
00000320: 4153 033d ce2c 87bd 364e 093d f0ae c63b
00000330: c15b 42bd f55e 84bd e4a3 8fbd d9fe ffbb
00000340: 0b3b 69bb f15e 94bc 104d 3fbd f497 c0bc
00000350: 8c84 263d 6453 86bc 18ae 06bc 88e7 533d
00000360: 0224 47bd c0b5 ee3c 51a3 853c 19b8 1d3d
00000370: 8317 6ebd a983 acbc 233b fbba 8088 0cbd
00000380: f713 63bd b95e b5ba 0358 573d 26e1 c83c
00000390: 4127 1dbd 9c12 a83c 2ee4 15bc a75e 3c3d
000003a0: 1387 f23c efc4 b2bc 47b2 7d3d ac68 233c
000003b0: 7297 31bd 26ad f43c 24e7 643d e54a 3dbd
000003c0: 32f3 7ebc 57c7 0f3d 045c d2bc 71dd 1abd
000003d0: 5c03 20bd 2fbe 883c bc3b 923a 8f0e c93b
000003e0: bcaa 373d 73f3 0f3c fa4b e23c 1f51 503b
000003f0: 3dbc 19bc 15d4 e5ba 567f a13b 438e 0c3b

weight_function_network.initial_cnn.11.bias f4 [32]
-0.026128192 -0.013548606 -0.022379525 0.015100745 0.025284568 0.056748245 -0.0176762 0.032879207
0.054872204 -0.038082797 -0.0075452323 0.029600803 -0.05236139 0.03618785 0.058117732 -0.053600423
-0.03681735 -0.034387264 -0.002827443 0.0056793015 -0.043914847 0.020699695 0.008665871 -0.014675318
0.028791914 -0.02596239 0.009100328 0.029895453 -0.04213164 -0.029515076 -0.005187364 0.004634884
00000000: ca0a d6bc f9fa 5dbc 4455 b7bc 1d69 773c
00000010: 9521 cf3c d970 683d aecd 90bc 59ac 063d
00000020: adc1 603d b5fc 1bbd ff3d f7bb 627d f23c
00000030: e678 56bd b639 143d dc0c 6e3d 1e8c 5bbd
00000040: cacd 16bd a9d9 0cbd 9f4c 39bb 6f19 ba3b
00000050: 0ee0 33bd 6892 a93c 4cfb 0d3c bf70 70bc
00000060: 05dd eb3c 14af d4bc 8b19 153c 4fe7 f43c
00000070: 3a92 2cbd 9ac9 f1bc c3fa a9bb 3ae0 973b

weight_function_network.initial_cnn.12.weight f4 [32]
0.99972224 1.0037607 0.98623997 0.99496496 1.0013568 0.9976116 0.99782836 0.9889594
1.0122734 1.00824 1.0013721 1.0013238 0.99993604 1.0078381 0.99176735 1.0225703
0.99205667 0.9943299 0.9940933 1.0026721 1.0054204 0.997211 1.0003686 0.98796594
0.98837155 0.99997175 0.993342 1.0165046 1.0138243 1.0106437 0.99490863 1.0035621
00000000: cced 7f3f 3b7b 803f 397a 7c3f 06b6 7e3f
00000010: 762c 803f 7963 7f3f ae71 7f3f 712c 7d3f
00000020: 2d92 813f 020e 813f f62c 803f 612b 803f
00000030: cffb 7f3f d700 813f 77e4 7d3f 95e3 823f
00000040: 6df7 7d3f 688c 7e3f e67c 7e3f 8f57 803f
00000050: 9eb1 803f 3849 7f3f 140c 803f 56eb 7c3f
00000060: eb05 7d3f 26fe 7f3f a94b 7e3f d31c 823f
00000070: ffc4 813f c65c 813f 55b2 7e3f b974 803f

weight_function_network.initial_cnn.12.bias f4 [32]
-0.016718455 -0.024680987 -0.031995784 -0.022349082 -0.011765572 -0.024577485 -0.00056228647 -0.023090037
-0.0024317512 0.0046673077 0.0064820014 -0.00790764 -0.007751013 -0.0057408656 -0.0052715163 0.018987967
-0.0051653124 -0.008135385 -0.014144732 -0.0057092872 -0.008495125 -0.009368136 -0.016704753 -0.007451235
-0.0011247554 -0.009090655 -0.017556883 -0.005257773 0.0017387826 0.004878214 -0.024080034 -0.009097301
00000000: 24f5 88bc c82f cabc 030e 03bd 6c15 b7bc
00000010: 63c4 40bc b956 c9bc 6866 13ba 5127 bdbc
00000020: 045e 1fbb 37f0 983b f866 d43b 0c8f 01bc
00000030: 36fc fdbb df1d bcbb afbc acbb a78c 9b3c
00000040: c841 a9bb 474a 05bc 4ebf 67bc f914 bbbb
00000050: 232f 0bbc cf7c 19bc 68d8 88bc 7d29 f4bb
00000060: 876c 93ba f8f0 14bc 74d3 8fbc 6649 acbb
00000070: dde7 e33a 6dd9 9f3b 7e43 c5bc d90c 15bc

weight_function_network.initial_cnn.12.running_mean f4 [32]
-0.11558788 0.42407256 -0.15094179 -0.42632216 0.20620184 0.33884436 -0.0684056 -0.2763182
0.10086855 -0.27168593 0.06560663 -0.36965886 -0.069563776 0.05330203 0.20660664 -0.60855585
-0.35716668 0.0031171753 -0.03840192 0.052478276 0.2578778 0.30046412 -0.14729272 -0.030284472
-0.108608484 -0.017023873 -0.09371292 0.119275145 -0.39067894 -0.32999626 0.05015834 0.0873776
00000000: 57b9 ecbd 0a20 d93e 7c90 1abe e646 dabe
00000010: 9326 533e 027d ad3e 3c18 8cbd 9479 8dbe
00000020: 2c94 ce3d 6b1a 8bbe c55c 863d ed43 bdbe
00000030: 7477 8ebd 3b53 5a3d b190 533e 51ca 1bbf
00000040: 8dde b6be 8649 4c3b 554b 1dbd 76f3 563d
00000050: 8f08 843e 6fd6 993e e7d3 16be 2417 f8bc
00000060: 206e debd a675 8bbc 8fec bfbd 8746 f43d
00000070: 1207 c8be 45f5 a8be d572 4d3d 07f3 b23d

weight_function_network.initial_cnn.12.running_var f4 [32]
0.118652575 0.1820533 0.16344433 0.16062494 0.10123551 0.12778626 0.090506814 0.11170395
0.09960276 0.11770261 0.09708472 0.11860059 0.17496082 0.10471942 0.17017344 0.1833349
0.1085033 0.12350124 0.13190892 0.11769563 0.10473596 0.20677494 0.11116571 0.087061666
0.113041036 0.17184506 0.14501862 0.09576794 0.08074745 0.16907668 0.114612654 0.090623
00000000: 1f00 f33d 2e6c 3a3e f35d 273e dd7a 243e
00000010: 9054 cf3d 67da 023e a35b b93d 0ac5 e43d
00000020: 88fc cb3d 110e f13d 5bd4 c63d dee4 f23d
00000030: ee28 333e 2377 d63d f241 2e3e 25bc 3b3e
00000040: fa36 de3d 38ee fc3d 2213 073e 680a f13d
00000050: cf7f d63d cfbc 533e d9aa e33d 634d b23d
00000060: 0f82 e73d 27f8 2f3e c37f 143e fb21 c43d
00000070: eb5e a53d 7022 2d3e 0aba ea3d 8d98 b93d

weight_function_network.adaptive_layer.1.weight f4 [64, 32, 3, 3]
-0.013552349 -0.04940564 -0.043026492 -0.023145517 -0.028917447 0.04150614 0.022866879 0.012258683
0.007487419 -0.022086084 -0.045621935 0.027695177 -0.04197685 0.026526188 0.015275367 0.039266217
-0.0019264866 -0.02214026 0.007668911 -0.05458549 0.052343644 0.0037387998 0.032118607 -0.022501811
0.049121592 -0.0337243 0.0280765 0.055185415 0.011650304 -0.0127576655 -0.012556807 -0.02701696
0.0042318953 0.013873356 -0.02723591 -0.043806728 0.011041273 0.024903923 0.029807327 0.04985702
0.009902033 0.028276622 0.031453054 0.028911667 -0.019784858 0.022526534 0.047239155 0.00015006325
0.021141209 -0.03350412 0.014927146 -0.056649677 -0.05882137 0.04183492 0.051406085 -0.031220617
0.023605045 0.047840666 -0.049880624 0.036782667 -0.015962416 0.032363635 -0.052645735 -0.021945003
-0.019017417 0.01290546 0.022915667 -0.008487374 -0.016211817 -0.03766731 -0.022952713 -0.053008452
-0.021556787 0.025464837 0.03359707 -0.014420241 -0.039401315 0.005678568 0.04856603 0.042731743
-0.016334245 -0.043395277 -0.0372395 0.029076315 -0.032587197 0.0036724776 -0.049515184 0.02689807
0.015609121 -0.02631797 -0.058171112 -0.013549091 0.0032330053 -0.02161194 -0.063900955 0.018547166
-0.031575058 0.010381413 0.005910091 -0.031126643 -0.06170166 0.047299188 0.025431111 -0.0018619762
0.024257889 -0.042250823 0.052959763 0.020571 0.040077936 -0.036940113 -0.027248014 0.057139996
0.0053593763 0.048381113 0.02660513 0.043936156 0.001592815 0.051940773 -0.043931507 -0.004753549
0.01780097 0.04494278 -0.0218355 0.05133255 -0.039529335 0.035410326 -0.024613153 -0.012074877
0.002181136 -0.030133875 -0.01238806 -0.046209224 -0.043623045 -0.056406554 -0.025401201 0.009248987
-0.023022592 -0.048764937 -0.021557735 0.054361265 -0.0014431293 0.05465467 0.050052032 -0.050201256
0.04459009 0.020839691 -0.049803663 0.015660185 -0.011598354 -0.038408913 -0.013356609 -0.043136913
-0.0134574715 0.038616788 0.016671948 0.04640331 -0.0019643933 -0.036627583 0.006991375 -0.061178662
-0.0066999556 -0.011892355 0.028533896 -0.060521066 0.030929409 -0.031718515 -0.061534535 0.020474581
-0.008313317 0.016449787 0.03273264 -0.055684198 -0.035765145 0.043300867 0.029089583 -0.06204756
-0.062201332 -0.05644352 -0.0038260673 -0.048669945 -0.025862612 -0.03718649 0.006151586 0.025819829
-0.0077250144 0.026831293 -0.019853333 0.04306887 -0.047075234 -0.028467346 0.012923844 0.05541112
0.013018266 0.0556474 -0.017355574 -0.02025546 -0.022185152 0.025651088 0.004203797 0.042579368
0.043581042 0.043352723 0.058356635 0.0015201386 -0.031048106 -0.006384585 -0.016003057 0.03325034
0.030130798 0.00024384189 0.037297163 0.0035695317 -0.031868413 0.049306307 -0.05220334 -0.021139065
-0.017390164 0.031921655 0.03627997 0.054717604 0.052869022 -0.04230491 0.003708125 0.050350197
0.041828766 0.057601564 -0.04932605 -0.045917716 0.040582936 -0.0007429585 0.004872502 -0.054358974
0.025930889 -0.0055531496 -0.05563353 0.029090516 -0.029291416 0.0040646694 -0.035083693 -0.01663851
-0.0066627064 0.009768626 -0.051628653 0.034108136 -0.029032892 -0.04611087 -0.0549654 0.049573656
0.03559194 -0.029996293 -0.0042217392 -0.04115791 -0.05076083 -0.009355958 0.0137315355 -0.004531633
00000000: ac0a 5ebc 925d 4abd 8c3c 30bd ab9b bdbc
00000010: 48e4 ecbc 5802 2a3d 5253 bb3c a5d8 483c
00000020: 0659 f53b e0ed b4bc 11de 3abd ffe0 e23c
00000030: ebef 2bbd 734d d93c 8845 7a3c 9dd5 203d
00000040: 2a82 fcba 7e5f b5bc 7d4b fb3b 0995 5fbd
00000050: 4a66 563d a706 753b cd8e 033d b855 b8bc
00000060: b933 493d 7e22 0abd b000 e63c 1a0a 623d
00000070: ebe0 3e3c 8705 51bc 11bb 4dbc ac52 ddbc
00000080: b6ab 8a3b 134d 633c d81d dfbc af6e 33bd
00000090: 75e6 343c 5003 cc3c 7f2e f43c e036 4c3d
000000a0: 233c 223c 60a4 e73c ebd4 003d 29d8 ec3c
000000b0: db13 a2bc 9189 b83c d87d 413d 4c5a 1d39
000000c0: 5430 ad3c 9e3b 09bd fd90 743c 7e09 68bd
000000d0: adee 70bd 185b 2b3d 308f 523d 61c2 ffbc
000000e0: 5e5f c13c 93f4 433d a04f 4cbd 6ca9 163d
000000f0: 9dc3 82bc bb8f 043d 0ea3 57bd 02c6 b3bc
00000100: 6aca 9bbc 6c71 533c a3b9 bb3c a00e 0bbc
00000110: a5ce 84bc 0a49 1abd 5407 bcbc 641f 59bd
00000120: dc97 b0bc a29b d03c 159d 093d e042 6cbc
00000130: 4663 21bd 4813 ba3b 2ced 463d 7b07 2f3d
00000140: 65cf 85bc 3fbf 31bd 7288 18bd 7431 ee3c
00000150: 277a 05bd f3ad 703b 6fd0 4abd 5759 dc3c
00000160: 66bd 7f3c c998 d7bc d544 6ebd 02fd 5dbc
00000170: d4e0 533b 860b b1bc 81de 82bd 3af0 973c
00000180: d954 01bd cd16 2a3c 70a9 c13b 4dfd febc
00000190: e1ba 7cbd cbbc 413d e854 d03c 8e0d f4ba
000001a0: 7bb8 c63c 330f 2dbd 56ec 583d 8484 a83c
000001b0: c328 243d 844e 17bd 3a37 dfbc a10b 6a3d
000001c0: b59d af3b 462b 463d 00f3 d93c 66f6 333d
000001d0: 01c6 d03a d9bf 543d 86f1 33bd a9c3 9bbb
000001e0: 57d3 913c ec15 383d 5de0 b2bc 1442 523d
000001f0: 83e9 21bd 6b0a 113d 86a1 c9bc b4d5 45bc
00000200: 64f1 0e3b 51db f6bc 4af7 4abc e245 3dbd
00000210: 14ae 32bd 8f0a 67bd 2e16 d0bc 1089 173c
00000220: e099 bcbc bebd 47bd d999 b0bc eba9 5e3d
00000230: 6227 bdba 93dd 5f3d 5c03 4d3d d59f 4dbd
00000240: 19a4 363d 00b8 aa3c edfe 4bbd ca49 803c
00000250: 0607 3ebc aa52 1dbd aed5 5abc 55b0 30bd
00000260: ba7c 5cbc a32c 1e3d 9c93 883c 6611 3e3d
00000270: 0dbd 00bb ce06 16bd e717 e53b 7a96 7abd
00000280: 4d8b dbbb 27d8 42bc ebbf e93c f0e4 77bd
00000290: ac5f fd3c 46eb 01bd a30b 7cbd 4fba a73c
000002a0: 9434 08bc b4c1 863c a912 063d 1d15 64bd
000002b0: 797e 12bd 405c 313d 474d ee3c 9525 7ebd
000002c0: d3c6 7ebd 5231 67bd c2be 7abb 235a 47bd
000002d0: d4dd d3bc dc50 18bd 3e93 c93b 1b84 d33c
000002e0: 1e22 fdbb 4dcd db3c 75a3 a2bc fc68 303d
000002f0: f6d1 40bd 5a34 e9bc 88be 533c c5f6 623d
00000300: 914a 553c 87ee 633d 472d 8ebc c7ee a5bc
00000310: a3bd b5bc 3b22 d23c 01c0 893b b467 2e3d
00000320: 0982 323d a092 313d 5e07 6f3d 633f c73a
00000330: 9958 febc c835 d1bb d818 83bc 8231 083d
00000340: ddd4 f63c cfaf 7f39 e9c4 183d ceee 693b
00000350: 7488 02bd 69f5 493d 2bd3 55bd d52b adbc
00000360: d175 8ebc 48c0 023d 4e9a 143d 911f 603d
00000370: 308d 583d ea47 2dbd 0404 733b 023c 4e3d
00000380: a454 2b3d 9eef 6b3d 1d0a 4abd 3714 3cbd
00000390: 4b3a 263d 1ac3 42ba 82a9 9f3b 84a7 5ebd
000003a0: 046d d43c 32f7 b5bb fcdf 63bd 3c4f ee3c
000003b0: 8df4 efbc eb30 853b ebb3 0fbd 7c4d 88bc
000003c0: d552 dabb 960c 203c 9178 53bd f9b4 0b3d
000003d0: 63d6 edbc c0de 3cbd 6623 61bd bf0d 4b3d
000003e0: dbc8 113d c9ba f5bc 8456 8abb 3295 28bd
000003f0: 97ea 4fbd bb49 19bc 3cfa 603c 187e 94bb

weight_function_network.adaptive_layer.1.bias f4 [64]
-0.03065943 -0.01769375 -0.00712791 0.03827765 0.014672536 -0.012000467 -0.018014008 -0.038827647
-0.036867287 -0.033661187 -0.05741237 0.02046418 0.027328953 0.0140920775 -0.04215306 0.0020196438
-0.0032226415 -0.005169102 -0.02617415 0.043525282 0.025068665 0.042785674 0.0043387525 0.0349824
0.040175654 -0.025380226 0.02065612 -0.01222637 0.007882179 -0.019282656 -0.047544405 0.04025207
-0.02883903 0.00012951093 0.018069074 0.030826865 -0.01759344 0.044376783 0.04074048 0.020103522
0.0023260154 -0.051626667 0.031487744 -0.015318212 0.022840716 0.014003185 0.00063504145 0.043452583
-0.05432709 0.026286568 0.050671242 -0.027865034 0.038129438 -0.038909223 0.05450001 -0.0007506866
-0.0570573 0.04519718 -0.027401598 -0.051523943 0.01524029 0.0500833 0.02306595 -0.0109501975
00000000: 7c29 fbbc 7cf2 90bc 3e91 e9bb 06c9 1c3d
00000010: 1465 703c 9b9d 44bc 1d92 93bc bd09 1fbd
00000020: 2702 17bd 50e0 09bd 3c29 6bbd 7fa4 a73c
00000030: f8e0 df3c 75e2 663c b0a8 2cbd 005c 043b
00000040: f432 53bb 9261 a9bb 2c6b d6bc 9147 323d
00000050: cd5c cd3c 0840 2f3d 182c 8e3b b449 0f3d
00000060: 3a8f 243d 31ea cfbc 0637 a93c 1d51 48bc
00000070: 4124 013c a9f6 9dbc ecbd 42bd 5bdf 243d
00000080: d43f ecbc 53cd 0739 9805 943c 9f88 fc3c
00000090: 1e20 90bc 6ec4 353d 7ddf 263d 24b0 a43c
000000a0: 1070 183b 7c76 53bd 4bf9 003d 3df9 7abc
000000b0: 741c bb3c 9d6d 653c e978 263a 56fb 313d
000000c0: 1586 5ebd ee56 d73c a68c 4f3d 3645 e4bc
000000d0: 9d2d 1c3d 475f 1fbd 673b 5f3d bac9 44ba
000000e0: eab4 69bd ae20 393d 5179 e0bc c50a 53bd
000000f0: 69b2 793c 2524 4d3d cef4 bc3c 7568 33bc

weight_function_network.adaptive_layer.2.weight f4 [64]
1.0034027 0.9971843 1.0062853 1.0076358 0.9942281 1.0076783 0.9952288 1.0031267
0.99848557 1.0010955 1.0070708 0.99785286 0.9952849 1.0062258 0.9927473 1.016226
1.0026362 0.9977367 0.9989842 0.98626584 1.0000048 1.0085624 1.0048412 1.0002173
0.99484473 1.0062062 1.0045632 1.0056119 1.0117257 0.99765104 0.9973448 0.99732125
0.9995999 1.0061098 0.9998152 1.0052179 0.9863431 0.99408996 1.0036732 1.0044534
0.9986227 0.9929236 0.9923739 1.0047476 1.0009135 0.9899135 0.9981069 1.0092657
1.0010307 1.001492 1.0095627 0.99317825 1.0010053 0.9979722 0.9947991 0.9805403
0.99345565 1.0056773 1.0101931 0.99672574 0.98894715 0.9945072 0.96948546 1.0021626
00000000: 806f 803f 7847 7f3f f5cd 803f 36fa 803f
00000010: bc85 7e3f 9afb 803f 51c7 7e3f 7566 803f
00000020: c09c 7f3f e623 803f b2e7 803f 4973 7f3f
00000030: feca 7e3f 02cc 803f b024 7e3f b213 823f
00000040: 6256 803f ac6b 7f3f 6ebd 7f3f eb7b 7c3f
00000050: 2800 803f 9318 813f a39e 803f 1f07 803f
00000060: 25ae 7e3f 5dcb 803f 8795 803f e4b7 803f
00000070: 3a80 813f 0f66 7f3f fd51 7f3f 7250 7f3f
00000080: c7e5 7f3f 35c8 803f e4f3 7f3f fbaa 803f
00000090: fb80 7c3f ae7c 7e3f 5d78 803f ee91 803f
000000a0: bda5 7f3f 3e30 7e3f 370c 7e3f 929b 803f
000000b0: ef1d 803f f96a 7d3f ef83 7f3f 9e2f 813f
000000c0: c621 803f e430 803f 5a39 813f ee40 7e3f
000000d0: f120 803f 1b7b 7f3f 27ab 7e3f b004 7b3f
000000e0: 1c53 7e3f 09ba 803f 024e 813f 6b29 7f3f
000000f0: a42b 7d3f 0698 7e3f 3330 783f dd46 803f

weight_function_network.adaptive_layer.2.bias f4 [64]
-0.015282953 -0.01066655 0.003596561 -0.0022916074 -0.013097116 -0.025582286 -0.012014282 -0.023229964
-0.00370863 -0.00081035466 -0.018073373 -0.018954217 0.0006147837 -0.026043676 -0.013589377 0.017671049
0.005488069 -0.010034219 -0.008049583 -0.0027388968 -0.014961424 0.007857062 -0.019796124 -0.028583417
-0.010079974 -0.012142639 -0.0018317786 -0.0076126596 0.0058965734 -0.011229517 -0.011102003 -0.020093929
-0.01684741 -0.0033071938 -0.0058927913 -0.017517881 -0.026803095 -0.010679505 1.7455344e-05 -0.026684009
-0.015879823 -0.005268755 -0.0142007135 -0.014687203 -0.009966081 -0.0062935357 -0.018231995 -0.00061691087
-0.014213374 -0.024154421 -0.008475253 -0.012652149 0.0013035523 0.0051827105 -0.005817021 -0.024389997
-0.014680844 0.0026676152 0.008303252 -0.015952189 0.0015628294 -0.016262615 -0.023411924 -0.010734534
00000000: 5a65 7abc c1c2 2ebc 48b4 6b3b cb2e 16bb
00000010: 4995 56bc f191 d1bc 8dd7 44bc c44c bebc
00000020: 7d0c 73bb fb6d 54ba 9c0e 94bc e045 9bbc
00000030: 7029 213a 8c59 d5bc faa5 5ebc e0c2 903c
00000040: 42d5 b33b 9166 24bc 66e2 03bc 107f 33bb
00000050: c320 75bc e8ba 003c 7b2b a2bc c527 eabc
00000060: 7a26 25bc ebf1 46bc 4a18 f0ba 9e73 f9bb
00000070: 0b38 c13b 02fc 37bc 2de5 35bc 069c a4bc
00000080: 9403 8abc 81bd 58bb 5118 c1bb a981 8fbc
00000090: 2a92 dbbc 17f9 2ebc 116d 9237 6c98 dabc
000000a0: 6716 82bc 85a5 acbb 1caa 68bc 98a2 70bc
000000b0: c648 23bc 013a cebb 445b 95bc 30b8 21ba
000000c0: 36df 68bc 7edf c5bc cadb 0abc f64a 4fbc
000000d0: f5db aa3a bad3 a93b b59c bebb 88cd c7bc
000000e0: ec87 70bc 28d3 2e3b 5d0a 083c 2aae 82bc
000000f0: dad7 cc3a 2d39 85bc 5dca bfbc e6df 2fbc

weight_function_network.adaptive_layer.2.running_mean f4 [64]
-0.07908425 -0.03330762 -0.26937333 0.15374035 -0.7363115 -0.13393614 -0.04449051 0.13325696
-0.14462748 0.05978707 0.09398694 -0.40999225 -0.058800295 0.008669462 -0.3251388 -0.21418989
0.11682129 -0.84008205 0.3468298 -0.2981228 0.040669415 -0.06053021 0.049495555 -0.07244966
0.3661248 0.24619094 -0.20123592 0.31739148 0.094775945 0.12427826 -0.36552423 0.35685933
-0.45081162 0.13381319 0.43560922 -0.112782665 0.091745906 0.24945384 -0.43028894 0.29114544
0.275244 0.4403411 -0.53263646 -0.15802583 -0.08665361 -0.3617936 0.18704145 -0.3799722
0.7313637 0.4546164 -0.20878999 0.18065627 0.2243308 -0.4419763 -0.22718939 -0.04354992
-0.3333792 -0.019396232 -0.35101348 0.015609542 0.1857756 0.23614162 -0.24025337 0.25430968
00000000: ecf6 a1bd 926d 08bd 4deb 89be 1c6e 1d3e
00000010: e97e 3cbf 8e26 09be ae3b 36bd 8374 083e
00000020: 3a19 14be 49e3 743d 3a7c c03d 81ea d1be
00000030: 94d8 70bd 5c0a 0e3c 9878 a6be 9854 5bbe
00000040: 0040 ef3d 9e0f 57bf ad93 b13e 8da3 98be
00000050: f994 263d 87ee 77bd dabb 4a3d 7d60 94bd
00000060: b674 bb3e 7a19 7c3e ca10 4ebe 2381 a23e
00000070: e419 c23d 9a85 fe3d fe25 bbbe 44b6 b63e
00000080: c8d0 e6be 5306 093e 2c08 df3e 99fa e6bd
00000090: 47e5 bb3d d470 7f3e d54e dcbe 0411 953e
000000a0: c8ec 8c3e 6374 e13e dd5a 08bf 86d1 21be
000000b0: 7377 b1bd 033d b9be cb87 3f3e b78b c2be
000000c0: a73a 3b3f 7bc3 e83e 0bcd 55be f5fd 383e
000000d0: f9b6 653e b84a e2be 56a4 68be 6761 32bd
000000e0: aeb0 aabe d9e4 9ebc 0ab8 b3be 2abf 7f3c
000000f0: f53b 3e3e 1ccf 713e fb04 76be e134 823e

weight_function_network.adaptive_layer.2.running_var f4 [64]
0.14933254 0.109909095 0.19602782 0.22414933 0.20008974 0.11605612 0.16891944 0.19130835
0.2298391 0.14141198 0.11250278 0.14958288 0.19764473 0.21915205 0.16020478 0.3942926
0.13785721 0.20885047 0.16802289 0.14675982 0.12905633 0.13971706 0.16920781 0.13852113
0.15896925 0.26272672 0.16078399 0.16894723 0.2664271 0.13690852 0.22482 0.12939921
0.15590443 0.13237406 0.15750413 0.15608989 0.1206901 0.14534481 0.17674103 0.16310786
0.19222862 0.22690973 0.20136282 0.14765927 0.19723925 0.2062269 0.18512647 0.13638775
0.13084348 0.15640357 0.141885 0.16582488 0.205189 0.1708403 0.25509477 0.10374028
0.13806845 0.18642542 0.34325263 0.12795797 0.18762864 0.123848364 0.20004678 0.14151663
00000000: a1ea 183e 0518 e13d 84bb 483e 6787 653e
00000010: 53e4 4c3e d5ae ed3d 38f9 2c3e 56e6 433e
00000020: f15a 6b3e 4dce 103e dc67 e63d 412c 193e
00000030: 6163 4a3e 6569 603e b90c 243e b8e0 c93e
00000040: 712a 0d3e e6dc 553e 310e 2c3e 3548 163e
00000050: 5827 043e fd11 0f3e d044 2d3e 7cd8 0d3e
00000060: d6c8 223e 1e84 863e 8fa4 243e 8100 2d3e
00000070: 2269 883e bf31 0c3e 3737 663e 3a81 043e
00000080: 69a5 1f3e 118d 073e c348 213e 07d6 1f3e
00000090: 5f2c f73d 45d5 143e 9afb 343e bf05 273e
000000a0: 94d7 443e 065b 683e 0e32 4e3e fe33 173e
000000b0: 16f9 493e 252d 533e cb91 3d3e 3ba9 0b3e
000000c0: d5fb 053e 4228 203e 4d4a 113e ffcd 293e
000000d0: 111d 523e c2f0 2e3e c89b 823e c975 d43d
000000e0: d161 0d3e 4ee6 3e3e cfbe af3e 6a07 033e
000000f0: b921 403e 36a4 fd3d 10d9 4c3e bce9 103e
