logs/测试preditor网络架构的影响/preditor_network.MLP.layer_number=2preditor_network.MLP.layer_size=[32, 64]/test_model_20250426_191404.pth (torch, 873827 bytes, 78 tensors)

weight_function_network.initial_cnn.0.weight f4 [8, 1, 3, 3]
000000 3d 2e a4 be c6 62 39 3e ff 1f 9c 3e ca f5 66 3d
       -0.32066527 0.18104085 0.3049316 0.056386746
000010 8c db 23 be e2 da 95 be a3 88 c7 bb 34 82 56 3e
       -0.16001719 -0.29268557 -0.0060892864 0.20948106
000020 7b 57 9b 3e 2a c1 21 be 48 c8 03 3e eb 12 9e be
       0.3034018 -0.15796342 0.1286937 -0.30873808
000030 1e 5e 16 be 26 ee 9f 3e 95 85 7b be cd f1 5e be
       -0.1468434 0.3123638 -0.24562676 -0.21771927
000040 df 92 f6 bd db b7 19 3e 65 de 95 be 06 f8 25 be
       -0.12039732 0.15011542 -0.29271236 -0.16207895
000050 63 02 89 be cd 1e 9c 3d 1b 07 8f 3e cd 63 75 3e
       -0.26759633 0.07623062 0.2793511 0.23963852
000060 fc 01 84 be 26 37 48 3e cd e5 28 be 51 1f 99 be
       -0.25782764 0.19552287 -0.16493912 -0.29906705
000070 06 27 85 be 9c 86 9f 3e 21 3d 7c be da df 9f 3e
       -0.26006335 0.31157386 -0.24632694 0.31225473
000080 6a 26 68 be 9f 6b 94 3e 41 3b 5f be 6a 45 8e 3e
       -0.22670904 0.28988358 -0.21799947 0.27787334
000090 5f a4 93 3e a3 3d 93 3c 08 5b 12 bd f3 d7 a8 3e
       0.28836343 0.017973727 -0.035731345 0.32977256
0000a0 b5 9c 9e 3e 63 0d 6d 3d 77 6d a2 be 6e 35 85 be
       0.30978933 0.057874095 -0.3172414 -0.26017326
0000b0 f9 a5 80 be 91 1a 17 3e 98 f3 35 bd 44 40 63 3e
       -0.25126627 0.14756228 -0.044421762 0.22192484
0000c0 1d a3 8d bd 7f 72 0e 3e 2a fb f8 3d 92 60 c3 bd
       -0.06915877 0.13910864 0.12157281 -0.09539904
0000d0 7f 52 d2 3d 2f df 6c be cc bd a0 be 9a 10 8a 3d
       0.10269641 -0.23132013 -0.31394804 0.06741448
0000e0 20 c5 a7 be 84 a3 65 3e 39 67 60 3d c0 ea 47 be
       -0.32767582 0.22425658 0.05478594 -0.19523144
0000f0 68 68 f4 3c 80 49 a6 3e a8 54 9f 3e 01 3e 9f 3d
       0.029834941 0.3247795 0.31119275 0.07775498
000100 1d 57 09 3e 0f 25 50 be 18 d9 af bd 8c fc a2 3e
       0.13412137 -0.20326637 -0.08586329 0.31833303
000110 a8 ec 6a be 96 7e 98 3e ef 29 e6 3d cf f6 5c 3e
       -0.2294184 0.29784077 0.11238467 0.21578525

weight_function_network.initial_cnn.0.bias f4 [8]
000000 69 3d a5 3e 93 63 80 3d d6 83 b5 bd 0c 55 48 be
       0.32273415 0.06268992 -0.08863036 -0.19563693
000010 8d 02 da bd ec bf 04 3e 67 dc 85 3e 5d ac 97 3e
       -0.10645018 0.12963837 0.26144716 0.2962369

weight_function_network.initial_cnn.1.weight f4 [8]
000000 91 aa 7e 3f 01 78 7e 3f e0 5f 80 3f 68 a2 82 3f
       0.99479014 0.9940186 1.0029259 1.0205812
000010 c5 24 80 3f 25 b8 7d 3f 0e 37 80 3f 0b ea 7d 3f
       1.0011221 0.9910911 1.0016801 0.99185246

weight_function_network.initial_cnn.1.bias f4 [8]
000000 3a f3 c5 bc 48 11 3f bc c2 d7 7a bc 35 9d 5d bc
       -0.024163831 -0.011661835 -0.01531023 -0.013526251
000010 b3 02 35 bc f4 96 3c b8 4b 16 9f bb 4e 38 49 3b
       -0.011048007 -4.496328e-05 -0.0048549525 0.0030703726

weight_function_network.initial_cnn.1.running_mean f4 [8]
000000 8e e8 e3 3e 3c 2a 53 be 95 d9 7b be 92 7c 62 be
       0.44513363 -0.2062158 -0.2459472 -0.22117832
000010 e1 ef 36 bd 0e e6 84 3e c4 af ad 3e 12 47 14 3f
       -0.04466236 0.25956768 0.3392316 0.57920945

weight_function_network.initial_cnn.1.running_var f4 [8]
000000 45 41 91 3c ae 99 66 3d 46 3c c1 3c 3f 56 1c 3c
       0.017731318 0.056298904 0.02358831 0.009542047
000010 00 20 c0 3c f5 d9 91 3c 43 6b c7 3c e6 f0 95 3d
       0.023452759 0.017804125 0.024343139 0.07321338

weight_function_network.initial_cnn.4.weight f4 [16, 8, 3, 3]
000000 2c cb 80 bb 10 44 c9 bd 51 b2 5f 3b 57 3e 82 3d
       -0.00393047 -0.09827435 0.0034133384 0.06359547
000010 aa 20 de 3d b4 b5 a6 bd ff 04 e8 bd 5c cc 9d bc
       0.10846074 -0.08140126 -0.11329078 -0.019262485
000020 f2 88 23 3d d6 b7 50 bd b5 f6 9d 3d c5 ab 9d 3c
       0.039925523 -0.05095657 0.07713071 0.019246945
000030 7d 1f 4c 3d 6b 67 8f 3c 17 ec 31 3d 37 8a 0b bd
       0.049834717 0.017505368 0.043438043 -0.03406736
000040 da 19 5b bd b6 26 f9 3d a2 7c a3 bc 10 0f ac 3d
       -0.05349145 0.12165587 -0.01995689 0.084013104
000050 df 2c 33 bd 50 a0 8b bd 54 d0 96 3d 13 1c ba 3d
       -0.043743964 -0.068176866 0.07363954 0.09087386
000060 88 e0 02 3d 87 44 34 3d a1 0d 40 bd bc 9b 99 bd
       0.03195241 0.044010665 -0.046887998 -0.07500407
000070 27 a9 df bd ec 0a da bd 4a f6 96 bc a7 c2 40 3d
       -0.10920935 -0.106466144 -0.018427987 0.047060635
000080 22 ac f2 39 ca 7b 9c bd c6 15 dc 3d d6 d3 73 3c
       0.00046286086 -0.076407984 0.107463405 0.014882049
000090 61 cb d5 3d dd ec a9 bd 5a c1 ae bd 5b 95 cd 3d
       0.10439182 -0.08297131 -0.08532973 0.10038253
0000a0 8d b3 d2 bd 91 c7 d4 bd 37 d4 b4 bd ca 32 e8 bd
       -0.10288153 -0.10389627 -0.08829539 -0.11337812
0000b0 b2 4b b0 bd 92 2c cf bd a4 43 a4 3d b6 3f 41 bd
       -0.08608188 -0.10115923 0.08020714 -0.0471799
0000c0 78 f4 f5 3c cf d5 21 bd ed da 58 3d f3 65 be bc
       0.030023798 -0.039510544 0.05294316 -0.023241973
0000d0 00 be 51 3d 3c 44 99 3d e7 a8 d5 bd 19 95 96 bd
       0.05120659 0.07483718 -0.10432606 -0.07352657
0000e0 9b dd ba bc 4a 8d 63 bd 8b e9 a0 3a d4 19 98 3b
       -0.022810748 -0.055554666 0.0012276632 0.004641751
0000f0 dc 7a 1b 3c 0d 18 65 3d 35 e9 80 3d 65 cd e0 bd
       0.009489741 0.05593114 0.06294481 -0.10976676
000100 ea 4d c2 3d 89 c1 9f bd 37 57 e7 bc 91 3d 9a bb
       0.09487517 -0.07800586 -0.02823983 -0.0047070463
000110 20 4a f6 3c 83 0d 79 bd ab d9 c6 3d ca 1d 00 be
       0.030064642 -0.0608039 0.097094856 -0.12511364
000120 f6 4f 38 3d d7 57 60 bd 18 67 17 bd d8 34 50 3c
       0.04499813 -0.05477127 -0.036963552 0.012707911
000130 e3 8c e9 3d 11 44 8e bd ab 51 f9 3d bc ef e1 bd
       0.11403825 -0.069465764 0.1217378 -0.11032054
000140 00 c1 97 3d b1 4f 4b 3d 3c 31 c4 bc 89 10 51 3c
       0.07409859 0.049636547 -0.023949258 0.01276029
000150 ef 94 e5 3d 45 a0 25 bd 26 8d 71 3d a5 da 84 3d
       0.112100475 -0.040436048 0.0589725 0.06487016
000160 f0 d1 94 bd ba 90 ff 3a c6 62 eb bc aa 53 c5 bd
       -0.07266605 0.0019498088 -0.028733622 -0.09635098
000170 0f 25 b0 3d 24 93 79 3d aa 4e 9d 3d 40 91 bc bc
       0.08600818 0.06093134 0.076810196 -0.02301848
000180 c3 f2 be 3c 29 44 eb bd 4f ae c1 3d f5 40 67 3d
       0.023309117 -0.1148761 0.09457075 0.056458432
000190 5b c9 d7 bd 73 e3 a5 3d 9f ab 5f bd b2 74 a2 3d
       -0.105364524 0.08100023 -0.05460703 0.07932414
0001a0 4a dc 6b bd bd c0 0e 3d a0 f3 81 bc bf ae a3 bd
       -0.05758313 0.03485178 -0.01586324 -0.079923145
0001b0 4d 56 a4 bd 11 a7 9d bd d3 97 82 3c 5c 2e da 3d
       -0.08024273 -0.07697881 0.015941536 0.106533736
0001c0 81 40 ce 3d ff 7f 3e 3d 7a 6d 9d bd 85 06 41 3d
       0.10070897 0.046508785 -0.076868966 0.047125358
0001d0 ff 1b d5 bd 67 88 52 3d 30 d9 d7 3d a2 3f 38 3d
       -0.104057305 0.051399615 0.10539472 0.04498256
0001e0 a0 ec 95 3d e2 f2 35 3c e3 91 8b bd e2 b6 43 bd
       0.07320523 0.011105271 -0.06814935 -0.047781833
0001f0 53 6e 67 3c df bf ea 3d 95 81 e1 bd e3 88 ba 3d
       0.014125424 0.11462378 -0.11011044 0.0910814
000200 dc 00 f2 3b 7b bb bc bd e8 e8 e7 3d 7f a0 03 3d
       0.0073853564 -0.092154466 0.1132372 0.032135483
000210 c5 f0 a9 3c e1 85 07 bd fc a7 f3 bd 5e d6 8f bc
       0.02074469 -0.03308666 -0.11897275 -0.017558273
000220 71 d3 bd 3d 32 6e ba 3d 5c c3 d3 bd 76 f2 b4 bd
       0.09268845 0.09103049 -0.10339996 -0.08835308
000230 f6 92 60 bd d4 56 c6 bd 29 3f 8c bb 2b ea 6c 3d
       -0.054827653 -0.0968453 -0.00427999 0.057840507
000240 be f6 d7 bd 1f 4d 06 bd 5e c6 e8 bd 22 13 a0 37
       -0.10545109 -0.032788392 -0.113659605 1.9082396e-05
000250 05 37 5c bd c0 76 c3 bd ee 2d a7 3d 15 85 5c bd
       -0.05376341 -0.09544134 0.08163057 -0.053837854
000260 77 1d 30 3d d1 a2 13 bd 64 ce b2 3d 98 0c 76 bd
       0.04299685 -0.036043946 0.08730772 -0.060070604
000270 4a 46 26 3c b5 c2 29 bd 67 5e e4 3d 7d 05 81 bd
       0.010148594 -0.041445453 0.11150818 -0.06299875
000280 e4 47 6e bd 77 fe c9 bc 1b 50 bd 3c 43 f2 5a 3d
       -0.05817403 -0.024657471 0.023109486 0.053453695
000290 14 61 ec bd 11 15 1a bc 2d aa 42 3d 6d e1 b4 bd
       -0.11541954 -0.009404437 0.047525574 -0.08832059
0002a0 c8 cb 8b 3d 42 07 a3 3c 3d f8 ce bd de 76 02 3d
       0.068259776 0.019900922 -0.101059414 0.03185164
0002b0 ff 35 f3 bc d8 de a5 bd 71 d3 54 3b c4 a0 26 3d
       -0.029688833 -0.08099145 0.0032474662 0.04068066
0002c0 df d3 e9 3d 17 9a ee 3c ba 6e af bd ff 6b bd bd
       0.11417364 0.02912621 -0.08566041 -0.09249114
0002d0 ab 05 28 3d 08 78 ca 3d bc 5f 95 3c 90 fa a2 3d
       0.04102103 0.098861754 0.018234126 0.07957947
0002e0 e9 b9 b4 bc b4 97 f8 bc 50 4e 1c 3d cf 0e 82 bd
       -0.022061305 -0.030345775 0.038160622 -0.06350481
0002f0 64 37 a5 bd 76 33 a4 bd 8b 50 b9 3d 31 a7 28 3d
       -0.080672055 -0.08017628 0.090485655 0.04117507
000300 ae ac e7 3c 83 d2 30 bd bb 2b ae 3d 1d 7d 42 bd
       0.028280582 -0.04316951 0.08504435 -0.0474826
000310 5b 20 ac 3d 66 b6 c8 3d 35 95 b8 3d 5c 59 aa 3d
       0.08404609 0.09800415 0.09012834 0.08317825
000320 36 12 e3 bd c0 5e 12 bd f6 0f c6 3d 88 0b d2 3d
       -0.11087458 -0.035734892 0.09671013 0.10256106
000330 7c f1 06 3e fb 51 e0 3d 16 36 80 3d cb bf 01 3d
       0.13178056 0.109531365 0.06260316 0.03167705
000340 71 69 e7 bd 9c c0 01 3d 1f bd a8 3d ba 12 73 bd
       -0.11299408 0.031677827 0.08239197 -0.05934403
000350 84 9a 04 bb 61 f1 33 3d 78 6e f0 3d fe e3 79 3d
       -0.00202337 0.04393137 0.1173982 0.061008446
000360 92 3b 21 bd 23 1a c3 3d e5 06 85 3d c2 79 98 bd
       -0.03936345 0.095264696 0.06495456 -0.074450985
000370 0f ac b2 bc 91 60 c9 bc 7b c1 1f bd 0e 85 dd bc
       -0.02181056 -0.02458218 -0.039002877 -0.027040984
000380 19 71 a6 3c d6 2f ca bb a4 f3 ea 3d e6 af d7 bd
       0.020317601 -0.0061702533 0.11472252 -0.10531597
000390 cc 98 0c bd cb 50 28 bd a7 af 38 3d a8 aa 3e bd
       -0.034325406 -0.041092675 0.04508939 -0.04654947
0003a0 fb 86 e7 bd 77 e8 7d 3d 70 f2 b0 3d 51 41 f0 3b
       -0.11305042 0.061989274 0.08639991 0.007332005
0003b0 71 36 90 bd f4 3b 19 3d ec 77 64 3d f7 75 85 3d
       -0.07041634 0.03741069 0.05577843 0.06516641
0003c0 b6 7d 8f 3c 17 9c 13 3d f9 7f 2d bd 65 4a ea 3b
       0.017515998 0.03603753 -0.042358372 0.007149982
0003d0 cc 50 60 bc 87 96 84 bd d9 18 51 bc 8d c9 b8 bc
       -0.0136911385 -0.06474023 -0.012762272 -0.022557044
0003e0 c8 60 bb 3d a6 b3 a7 bd 17 ba 8f bd 98 f2 f1 3d
       0.09149319 -0.08188562 -0.07017916 0.11813849
0003f0 44 08 1f 3d ff 13 0f 3c 25 97 17 3d ac 42 79 bd
       0.038826242 0.008732795 0.037009377 -0.0608546

weight_function_network.initial_cnn.4.bias f4 [16]
000000 35 46 ae bb 2a 65 a3 bd 8c 00 bc 3d 1a a6 b4 bd
       -0.005318428 -0.0797828 0.09179792 -0.08820744
000010 f3 a6 99 bd 70 2b a5 3c f1 f9 e0 3d ad de c4 bd
       -0.07502546 0.020162314 0.109851725 -0.096127845
000020 c4 11 b3 bd 71 0f 11 3c bf cf 57 bd 6d 0f 99 3c
       -0.08743623 0.008853779 -0.052688356 0.018684113
000030 30 b8 9f bd c2 85 12 bc 38 dd e2 3d f1 1c eb bd
       -0.07798803 -0.008943023 0.110773504 -0.114801295

weight_function_network.initial_cnn.5.weight f4 [16]
000000 e9 f1 80 3f 46 37 7c 3f 84 30 7e 3f b8 93 7f 3f
       1.0073825 0.9852184 0.9929278 0.99834776
000010 77 9f 80 3f 94 ef 7f 3f 47 ef 80 3f 1d 06 81 3f
       1.0048665 0.9997494 1.0073022 1.0079991
000020 21 29 7f 3f 0e 11 80 3f af c6 7e 3f 71 26 7c 3f
       0.9967213 1.0005205 0.9952192 0.98496157
000030 42 6c 81 3f 99 e1 7c 3f 75 48 81 3f 8c 22 81 3f
       1.0111163 0.98781735 1.0100237 1.0088668

weight_function_network.initial_cnn.5.bias f4 [16]
000000 71 99 c0 3b 5e b2 3e bc b2 80 6f bc 5d 18 5a bb
       0.0058776666 -0.011639206 -0.014618086 -0.0033278682
000010 03 1f ed 3b b2 da 45 3b 3f e0 72 bb 38 ea 13 bc
       0.007236363 0.0030190167 -0.003705993 -0.00902801
000020 ee 51 42 bb 11 71 30 bc 8b 31 d9 ba 05 97 d9 bc
       -0.0029650885 -0.010769145 -0.0016570551 -0.02656127
000030 de b8 33 bb c1 0f a3 bb 4c 32 31 3a d9 f6 aa bc
       -0.0027423422 -0.0049762432 0.0006759509 -0.02086966

weight_function_network.initial_cnn.5.running_mean f4 [16]
000000 c2 06 ad be dc 71 91 3d 4d 2b bd 3e 04 03 d9 3d
       -0.33794218 0.07101795 0.36947098 0.10596278
000010 f6 a2 47 3e be b9 ff be 8c 24 28 3f 90 e2 47 3e
       0.19495758 -0.49946398 0.65680766 0.1952002
000020 23 0b f2 bd b8 82 71 be b2 2f 44 bd 02 4a f5 3e
       -0.118185304 -0.23585021 -0.04789705 0.47908026
000030 fb f3 e3 3d f7 1a 41 3e 87 00 b8 3e 9a e8 7b be
       0.1113052 0.18857943 0.35937902 -0.24600449

weight_function_network.initial_cnn.5.running_var f4 [16]
000000 b5 3a b9 3e 7a 39 06 3e 7c 6f 59 3e a4 50 95 3d
       0.36177602 0.13107863 0.21233934 0.072907716
000010 16 43 0e 3e 15 8b c3 3d 27 1b 2c 3e a6 80 01 3e
       0.13892779 0.09548012 0.16807233 0.12646732
000020 6e 10 3e 3d c1 6a 01 3e bc ec 7c 3e 50 e7 40 3e
       0.046402387 0.1263838 0.24699682 0.18838239
000030 3c 8a 2b 3e 2f 9b 7e 3e 3a 95 a9 3d f7 09 70 3d
       0.16751951 0.24863885 0.08280416 0.058603253

weight_function_network.initial_cnn.8.weight f4 [32, 16, 3, 3]
000000 57 66 5a bd ff 8c 6e bd ed 2c 05 bd 50 ea 00 3d
       -0.053320255 -0.058239933 -0.032513548 0.031473458
000010 ca f4 73 ba b0 a6 5c 3d d3 4c 98 3c e2 32 90 bd
       -0.0009306191 0.053869903 0.01859132 -0.07040955
000020 f3 38 56 bd 2c 8e ad bc 9b c8 28 bd 93 2e a6 bd
       -0.052300405 -0.021185957 -0.041206937 -0.08114352
000030 0a 07 7b bc da 5e 6e bc 12 65 96 bd 3d a4 92 3d
       -0.015321502 -0.014548982 -0.073434964 0.07160232
000040 d5 b9 be bc e4 dd 74 bd e9 01 86 3d 4b ef 81 bd
       -0.023281971 -0.059781924 0.06543333 -0.0634447
000050 f0 e7 dd 3c 60 0c 23 bd 11 e6 47 bd 1b 8e 8e 3d
       0.027088135 -0.039806724 -0.048803393 0.06960698
000060 4b 92 c0 3b 8b e8 29 3d 39 da cf 3c dd 9a 75 3a
       0.0058768145 0.041481536 0.025372611 0.0009369085
000070 66 81 95 bd ab cb ff bc fc bf 04 bd eb ee 26 bd
       -0.073000714 -0.031225046 -0.032409653 -0.040755194
000080 a2 15 b8 3c 15 81 4c 3d fa 44 9a 3d bb e5 8d 3d
       0.022471253 0.04992779 0.075326875 0.06928583
000090 6b 9f 62 3d 07 3c 8f bd 2e 1a 88 bc 48 f2 74 bb
       0.055327814 -0.06993871 -0.016614046 -0.0037375856
0000a0 cc ca ea bc 0e 93 9f 3b 15 37 44 3d bd ed de 3c
       -0.028661154 0.004869825 0.047904093 0.027212972
0000b0 2e 4d e3 bc 32 2a 8c bd 9a 89 fc bb 61 07 69 bd
       -0.027746763 -0.068439856 -0.007706833 -0.056891803
0000c0 e1 7a 00 bd 37 4a 94 bd ae ba d9 bb c2 66 0d 3d
       -0.031367186 -0.07240718 -0.0066445684 0.034521826
0000d0 1f a6 92 bd 33 61 19 bd c0 91 0e bd 94 a6 94 3c
       -0.07160591 -0.037446212 -0.034806967 0.018145837
0000e0 40 5e 28 bd e8 eb 5a 3d e0 0c ca bc e1 b9 7b bc
       -0.04110551 0.053447634 -0.024664342 -0.015364141
0000f0 e3 79 1c bd 43 aa 3f bd 7f 75 a4 3d 93 3a 5d bd
       -0.038202178 -0.046793234 0.08030223 -0.05401094
000100 08 82 81 bd 0e 04 ae bd e6 df 81 bd 2e 8b 4a bd
       -0.063236296 -0.08496867 -0.06341533 -0.04944914
000110 c0 c1 4e bd b8 1e 00 3d 43 fe 07 3d ab de 0e 3d
       -0.050477743 0.031279296 0.033201467 0.03488032
000120 3a dc 05 3d 5f 89 cd bb eb f3 7c 3c b7 89 95 3c
       0.032680728 -0.0062724794 0.015439014 0.018254144
000130 3f 76 61 3d d5 5e 27 bb 50 fd 0d 3d d8 55 96 3d
       0.05504441 -0.0025538702 0.034665406 0.07340592
000140 fb 67 ac 3d e3 b7 36 bd d9 ae 13 3d ba 5c 19 bd
       0.0841827 -0.04460896 0.03605542 -0.037441947
000150 3c 93 45 3d d8 f9 aa 3d 0f 9a 83 bb eb aa 3f bd
       0.048236117 0.08348435 -0.004016168 -0.04679386
000160 34 74 51 3d e5 f0 84 bc 34 a3 be 3c 73 ba a6 3c
       0.05113621 -0.016228149 0.02327118 0.020352578
000170 ef e4 91 3b e6 73 1d bd 1a f2 7f 3d 33 d9 09 bd
       0.00445234 -0.038440607 0.062486745 -0.033654403
000180 de 86 f1 bc 8b c7 c1 38 0c 7f 97 bd 22 db 05 bd
       -0.029483255 9.240125e-05 -0.07397279 -0.032679684
000190 8f 9b 8e bc 34 a1 68 3d 37 a1 60 3d a1 ec ed 3b
       -0.01740816 0.05679436 0.054841246 0.0072608744
0001a0 85 bf 17 3d 39 f1 97 bc 7e a6 ad 3c c3 a1 2c bd
       0.03704788 -0.018547641 0.021197554 -0.042146455
0001b0 7e 44 93 3d a0 03 2a bd 2e e7 4f bc 21 ef 52 bd
       0.07190798 -0.041507363 -0.012689395 -0.051497582
0001c0 e6 ff 58 bc 95 be 37 3d 13 45 73 3b 33 95 2d bc
       -0.013244605 0.044859488 0.003712003 -0.010594654
0001d0 0f 13 e8 3c f5 a7 a4 3d 9c c2 9e 3a 4e 0e 59 bd
       0.0283294 0.08039848 0.0012112441 -0.052992158
0001e0 1f 27 99 bc 02 7b a7 3c e0 e8 79 bd fb 81 90 3d
       -0.018695412 0.020444397 -0.061013103 0.07056042
0001f0 c8 95 0a bd bf ee a7 3b 7d eb 75 bd 83 53 2f 3d
       -0.03383425 0.0051248963 -0.060039032 0.042804252
000200 9b 4c 0b 3d 8e b3 60 bd 06 92 a4 3d ce 1a 92 bd
       0.034008604 -0.054858737 0.08035664 -0.07134019
000210 3f 3f f6 bc c5 a0 97 bd a5 d5 79 bd 9e 47 8b bc
       -0.030059455 -0.07403711 -0.060994763 -0.017001923
000220 8a b5 87 bb 7e 42 8e bd 78 fd a3 3d 4d 72 40 3d
       -0.004141514 -0.06946276 0.0800733 0.046984006
000230 04 9f 6c bd c5 e8 74 bc 17 80 7b bd 11 60 92 3d
       -0.057768837 -0.014948075 -0.061401453 0.071472295
000240 12 ed a5 bd 60 00 28 bc 4d 11 39 bb 9b 00 9d bd
       -0.08101858 -0.010253996 -0.0028239072 -0.07666131
000250 26 63 7d bd 08 5f 04 3d a7 a3 f6 bc 2a 09 b4 3c
       -0.061862133 0.03231719 -0.030107332 0.021977026
000260 b2 ad d5 39 11 4c 24 bd b6 01 08 3c a3 7c 96 bd
       0.0004075594 -0.040111605 0.008301189 -0.07347991
000270 ef dc 2a 3d a0 11 0b 3d 37 61 d8 bc 04 8e 75 3d
       0.041714605 0.033952355 -0.026413543 0.05994989
000280 45 91 9b 3d b4 7e ff bc ea b0 63 3c 8e 49 42 bd
       0.07596067 -0.031188346 0.01389716 -0.04743343
000290 e7 3e af bc fa fb 8f bb 7e 13 53 bd 88 5d 52 bc
       -0.021392299 -0.0043940516 -0.05153226 -0.012839682
0002a0 23 33 61 bd 88 8c db bb 7f 8d 65 bd ac 7e a2 bd
       -0.05498041 -0.0067001022 -0.056043144 -0.07934317
0002b0 d6 50 00 bd a7 e9 5d 3c f7 07 9e 3d 4a bd a2 3d
       -0.03132709 0.013544477 0.07716363 0.0794626
0002c0 92 d7 bc 3b 22 13 bc 3b dc 60 18 3d 02 c7 7b 3d
       0.0057630027 0.0057395855 0.037201747 0.061469086
0002d0 07 0e 21 bd c1 af 7a 3d f2 8f 0b bc 40 cb 21 bd
       -0.03932002 0.06120277 -0.008518206 -0.039500475
0002e0 3f ef 6c bd f5 e5 b7 3b 7c 39 56 3d 68 53 6f bd
       -0.05784535 0.00561213 0.052300915 -0.05842915
0002f0 ea d1 bf 3c db 7f ab 3c 49 78 05 bd fa 54 35 3d
       0.023415525 0.02093499 -0.032585416 0.044270493
000300 c9 34 19 3d 63 13 75 bd 20 a7 09 bd 89 fb e5 bb
       0.037403855 -0.05983294 -0.03360665 -0.0070185107
000310 ce 21 2c bd 67 e0 85 bd c7 47 0c bd 4b 31 84 bd
       -0.042024426 -0.06536942 -0.03424814 -0.064547144
000320 05 e1 9c bd 14 82 eb bc 2e b8 76 bc b8 02 2a bc
       -0.076601066 -0.02874855 -0.01505856 -0.010376625
000330 65 9b c9 3c 49 ef be bb a9 ce 6f bd 85 77 7f 3d
       0.02461023 -0.005826865 -0.058546696 0.062369842
000340 e4 6b 3d bd f9 ca 76 3d c5 64 7c bc bb fd 3a bd
       -0.04624547 0.060252164 -0.015404885 -0.045652132
000350 eb 04 55 3c 7a 40 4c bd 62 69 4b bd 40 1b 9a 3d
       0.013001661 -0.049866177 -0.049661048 0.07524729
000360 01 57 09 bc f4 af 2d 3d 40 f0 8f bd 60 d6 3e 3d
       -0.00838256 0.04240413 -0.07028246 0.046591163
000370 6a b8 6c 3c 83 f4 79 bd 93 ba bc 3c 13 50 68 3d
       0.014448265 -0.0610242 0.023038184 0.05671699
000380 09 8c 74 bd bf 65 ff 3b 43 d5 86 bd eb 97 0e ba
       -0.05970386 0.0077941115 -0.06583645 -0.00054395077
000390 e5 f8 f4 3c 61 f8 a2 3d 9b 6f 78 3d e2 ef cb bc
       0.029903838 0.07957531 0.06065331 -0.024894658
0003a0 98 43 8c 3d 03 4e 15 bd d4 3a 9c bd ce 3d ba bc
       0.0684883 -0.03645135 -0.07628408 -0.022734549
0003b0 83 ac 80 bd d5 55 22 3d c7 a2 c6 3c 13 c2 00 3d
       -0.06282904 0.039632637 0.02424754 0.031435084
0003c0 0a 26 8f bd d8 82 3e 3c 87 4f 94 3c 06 83 14 bd
       -0.06989677 0.011627875 0.018104328 -0.036257766
0003d0 31 eb 5f bc 19 b7 50 3d 9b 53 2f bc c0 e2 8d bd
       -0.013666914 0.050955866 -0.010701085 -0.06928015
0003e0 b6 dd 1c bb db a6 6d 3d ef c9 16 bd cc 12 46 3c
       -0.002393586 0.058020454 -0.036813673 0.012089442
0003f0 ad 48 1c 3d 9e d2 2e bd e2 5b 6a bb 0c 8f 94 bd
       0.038155247 -0.04268133 -0.0035760333 -0.072538465

weight_function_network.initial_cnn.8.bias f4 [32]
000000 cf 48 67 bd cd 9d 01 ba ce f5 25 3d c6 5c 99 3d
       -0.05646592 -0.00049444736 0.04051762 0.07488398
000010 4c 04 88 3d ed 30 72 bd 51 bd 0d 3d 03 15 e6 bc
       0.066414446 -0.05912869 0.034604374 -0.028086191
000020 f7 18 29 bd 6a 3b 4b 3c a1 e8 83 bd 75 51 4f 3d
       -0.041283574 0.012404302 -0.06440855 0.050614793
000030 61 1e 39 3d 53 40 8f bd c3 8f dd 3b 1f 88 07 bd
       0.045194987 -0.06994691 0.0067615225 -0.0330888
000040 fb 38 0e 3d 96 4b 5f 3c f0 6f 47 bc 4a 07 25 3d
       0.03472231 0.013628861 -0.012172684 0.040290155
000050 1f f5 2a bd e3 94 62 3d 7f 4b 8d bd f6 b2 50 3d
       -0.041737672 0.05531777 -0.06899165 0.05095192
000060 06 1b 97 bd c5 33 94 bd 9b 02 2f bd 9b fe 21 3d
       -0.07378201 -0.07236437 -0.042727094 0.03954945
000070 61 fe 99 bd 8e 76 b3 bc ba cd 8d bd e0 2e 73 bc
       -0.07519222 -0.021907117 -0.06924005 -0.014842719

weight_function_network.initial_cnn.9.weight f4 [32]
000000 10 56 7f 3f a1 bf 7f 3f 94 4d 80 3f 7b 76 7f 3f
       0.99740696 0.9990178 1.0023675 0.9979016
000010 32 02 80 3f 65 5e 7e 3f cd 38 7d 3f 1e 49 81 3f
       1.000067 0.99362785 0.98914796 1.0100439
000020 e1 90 7f 3f 83 a0 81 3f be 06 80 3f d4 c6 7c 3f
       0.9983044 1.0127109 1.0002058 0.9874089
000030 79 5c 7c 3f 6a b8 7e 3f 41 28 81 3f 7d 5c 7a 3f
       0.985786 0.99500144 1.009041 0.97797376
000040 da 82 81 3f 8a 84 7c 3f b9 e2 80 3f f5 90 80 3f
       1.0118058 0.9863974 1.006919 1.0044237
000050 2d 0d 83 3f f7 b4 7f 3f 30 b7 80 3f 11 89 80 3f
       1.0238396 0.99885505 1.0055904 1.0041829
000060 74 7d 80 3f f7 d7 81 3f 55 01 7d 3f 61 f8 7a 3f
       1.0038285 1.0144032 0.9883016 0.98035246
000070 4b 01 7f 3f 06 36 81 3f ea a5 7e 3f 2c 70 80 3f
       0.9961135 1.0094612 0.99471915 1.0034232

weight_function_network.initial_cnn.9.bias f4 [32]
000000 fd aa 5f bb fe 5a 0d bc a4 f6 94 3b dc e1 22 bc
       -0.0034129017 -0.008627651 0.0045460034 -0.009941544
000010 e7 ba 87 ba c6 53 eb bb b6 38 37 bc 6e 0a 8f bc
       -0.0010355384 -0.0071816174 -0.011182955 -0.017461028
000020 d6 35 90 bc e4 70 c8 3b ea 5c 1e bc cc c0 80 bc
       -0.017603796 0.0061169732 -0.009665707 -0.015716933
000030 a6 3e 30 bc 18 5b 8b bb 16 96 5f 3a b2 d1 67 bc
       -0.010757124 -0.0042528026 0.00085291394 -0.014149116
000040 ee 0c 42 3b 3c 6a 27 bc 12 4d c3 b9 7c 13 ba bb
       0.0029609757 -0.010218199 -0.0003725072 -0.0056785922
000050 4e 68 29 3c f0 80 dd bb 4a 31 8d bc 9c 3e 1a 3b
       0.01033981 -0.0067597553 -0.017235417 0.0023535853
000060 13 b2 80 bc 25 e0 59 3b 54 29 2d bc ea 7e 8e bc
       -0.015709912 0.0033245173 -0.010568935 -0.017394502
000070 38 9f 87 ba e9 68 39 bc c5 47 aa bb 84 2b ab bb
       -0.0010347134 -0.011316516 -0.005196544 -0.0052236933

weight_function_network.initial_cnn.9.running_mean f4 [32]
000000 dc 4d d5 be de e5 69 be 54 31 f2 be b6 38 0e 3f
       -0.41660964 -0.22841594 -0.4730326 0.55555284
000010 1a 2c d5 be 71 2e 9c 3d 6f 75 64 3f b6 21 e3 3e
       -0.4163521 0.076260455 0.8924169 0.44361657
000020 06 15 88 3e 5f 13 a5 be c3 45 91 be 0c 5e 44 3e
       0.2657854 -0.3224134 -0.28373536 0.19176501
000030 e0 43 46 3d ad 15 fb be b5 df d5 be b2 5c 81 3c
       0.048404574 -0.49039975 -0.41772237 0.01579127
000040 b0 73 90 3e 6d 25 42 3e 85 92 be 3e 44 6d 90 3e
       0.28213263 0.1895959 0.3722116 0.28208363
000050 ad 9b 02 be de 52 a3 3d b5 7a 9c 3d 7e e4 5a 3f
       -0.12754698 0.0797479 0.07640592 0.855049
000060 5c 38 3b 3f ca 78 7f 3d f4 69 0d bf 69 4a c0 be
       0.7313287 0.062371053 -0.55239797 -0.3755677
000070 d8 c2 3c be 44 d8 45 bd 03 4a f0 3d e9 d1 f1 be
       -0.18433702 -0.04830195 0.117328666 -0.4723046

weight_function_network.initial_cnn.9.running_var f4 [32]
000000 11 d6 92 3e 8e 24 12 3e e4 f1 57 3e 68 39 19 3e
       0.28678945 0.14271757 0.21088368 0.14963305
000010 38 d5 81 3e c8 31 a1 3e bd 74 dc 3e a8 54 49 3e
       0.25357985 0.31483293 0.43057814 0.196612
000020 16 4c 51 3e 52 57 19 3e 7b 08 81 3e f3 e3 37 3e
       0.2043918 0.14974716 0.25201783 0.1795805
000030 be 5d 81 3e 5b e4 39 3e db 4b 39 3e 18 6d e1 3d
       0.25266832 0.18153517 0.18095343 0.11007136
000040 80 28 0a 3e 55 fe 04 3e f6 2c a4 3e 54 30 05 3e
       0.13492012 0.12987645 0.32065552 0.13006717
000050 33 c5 48 3e f9 b8 25 3e fe 61 ed 3d d1 ce 62 3e
       0.19606476 0.16183843 0.11590956 0.22149207
000060 9b ab 85 3e ec 07 1c 3e 1b d1 90 3e b2 98 8d 3e
       0.26107487 0.15237397 0.28284535 0.2765556
000070 63 78 24 3e f3 ac b4 3d b6 94 98 3d 4e e2 15 3e
       0.16061549 0.0882205 0.07450239 0.1463711

weight_function_network.initial_cnn.11.weight f4 [32, 32, 3, 3]
000000 28 49 58 bd b4 61 81 3c 61 1d 75 3d 27 49 b4 3c
       -0.052804142 0.015793659 0.05984247 0.022007538
000010 81 3d 2f 3d b8 63 5f bd 29 91 cf 3c 51 ea 7a 3a
       0.042783264 -0.05453846 0.025337772 0.0009571659
000020 fd 45 38 bd 9d 04 73 bd ba 28 82 bc 7a c8 ec 3c
       -0.04498862 -0.05933057 -0.01588856 0.028904188
000030 c2 b6 c3 3c 73 ee 6f bd 2d 9d 81 bd d6 58 3d bb
       0.023890857 -0.058577012 -0.06328807 -0.0028892062
000040 2d 51 b0 ba 41 55 bf bc 9c a7 05 3c 39 e6 83 bd
       -0.0013451927 -0.023356082 0.008157637 -0.06440396
000050 d2 8e 2c bd bd 9e 24 bd 3d 5a 6a bd 51 47 26 3d
       -0.04212839 -0.040190447 -0.057214964 0.040595356
000060 d6 73 e7 3c 9e b7 29 bd b1 16 d9 3c cc 6f 34 3c
       0.028253477 -0.041434877 0.026500078 0.011012983
000070 7d 36 02 3c cc 5b 38 3c 78 75 40 bd df 9e 11 3c
       0.007947561 0.011252355 -0.046987027 0.0088879755
000080 8b 51 0d 3d a0 10 d4 3c f5 fc 08 bd 8d c3 f8 3c
       0.034501594 0.025886834 -0.033444364 0.030366683
000090 79 a1 64 bd 35 08 c0 bc 64 a2 5c 3d 0c 6f ef 3c
       -0.055818055 -0.023441413 0.053865805 0.029227756
0000a0 45 4e b7 3c db 68 12 3d 40 60 86 bb 83 5e 16 3c
       0.022376189 0.03574453 -0.0041008294 0.009177807
0000b0 04 1e 2b 3d 7c 9f 84 3c 9e 6d 50 3b 54 c3 24 3d
       0.041776672 0.01618933 0.0031803618 0.040225342
0000c0 8f d5 6f 3c 86 1e 37 bc 4a f8 57 3d c1 27 ff bb
       0.014638319 -0.011176711 0.05272702 -0.0077867215
0000d0 63 3f 4f 3b 82 ce 1c bd e4 62 4e bd 52 56 f2 3c
       0.0031623475 -0.03828288 -0.05038728 0.029582176
0000e0 4e 2f b0 3c fa 97 2b bd 01 de ee 3c 26 62 2c 3d
       0.021506932 -0.041892983 0.029158594 0.04208579
0000f0 26 0c 87 bd 91 8f 42 3c 94 ba a4 bc 2a 38 89 3c
       -0.06594114 0.011875049 -0.020108499 0.016750414
000100 f4 a6 9e bc 52 84 b0 3b 96 cd 80 bd 4b b9 01 3d
       -0.019366719 0.0053868676 -0.062892124 0.03167085
000110 bb 3f 92 bc 14 91 76 bc f4 56 90 bc ed 10 7c 3c
       -0.017852655 -0.015049238 -0.017619587 0.015384895
000120 9f 75 a1 ba 9c 19 b7 3c 8f 7e d2 bc e6 74 7c 3d
       -0.0012318379 0.022351079 -0.025695113 0.06163492
000130 f3 1d bd bc a9 66 4e 3d af 7d 33 3c 98 eb 8e bc
       -0.02308557 0.050390873 0.010955258 -0.017446324
000140 93 11 b6 3c 80 01 06 3d 07 09 3c bd 7c f6 aa 3b
       0.022225177 0.032716274 -0.045907047 0.0052173715
000150 63 72 5b 3c 31 12 ab 3c f3 b3 41 bd 96 96 2b bd
       0.013393971 0.020882698 -0.047290754 -0.041891657
000160 d1 4d 18 3c 82 c1 a5 3a a4 a2 ae bc 46 37 31 bd
       0.009295897 0.0012646171 -0.021317787 -0.043265603
000170 f5 c8 25 3d 0f 57 51 3d 2c 2d 4f bd 7a 0e a8 bd
       0.04047485 0.051108416 -0.05058019 -0.08205886
000180 50 fa 43 bc 23 9c 9f bc 36 26 b6 bc b8 67 1d 3d
       -0.011961535 -0.019483631 -0.022235017 0.038428992
000190 d1 b1 6e bc e0 d0 09 3d af 55 68 bd 73 ff 1b bd
       -0.014568762 0.033646464 -0.05672234 -0.038085412
0001a0 82 47 cf 3b 43 00 0d bd 1c 95 74 bc b9 87 62 bd
       0.006325663 -0.034424078 -0.014928129 -0.055305216
0001b0 7b c5 6f bd 45 1a dc 3c ae 70 85 3d 8a 84 4b 3c
       -0.05853794 0.026867995 0.065156326 0.0124217365
0001c0 6f f9 d5 3c 1d 42 58 3d 4b ee 1a 3c 2b 68 66 bc
       0.026119916 0.052797426 0.0094562275 -0.0140629215
0001d0 68 a0 35 bd e9 f5 03 bd 79 87 a5 3c b2 5e ba bb
       -0.04434243 -0.03221694 0.0202062 -0.005687558
0001e0 97 55 90 bc de 3b 22 3d f0 79 08 3d 63 13 23 bd
       -0.017618937 0.039607875 0.033319414 -0.03981341
0001f0 8d 7b fa 3c 20 11 18 bb 9b 40 da 3a 53 d4 28 bd
       0.030576492 -0.0023203567 0.0016651334 -0.041218113
000200 44 b7 30 bd 27 dc 15 bd 5e 8e 27 3d 60 86 23 3d
       -0.043143526 -0.036586907 0.040907256 0.03992307
000210 a9 af 2a 3d 8e 11 0c bd 77 b9 8d bd c5 a1 05 bc
       0.04167143 -0.03419643 -0.0692014 -0.008156245
000220 f6 f7 2a bd eb 2e 09 3d 68 e7 48 bd e2 a1 df bc
       -0.04174038 0.03349201 -0.04904881 -0.027298871
000230 1f ee 3d 3d 05 66 df bc 90 d1 00 bd 5e 88 b6 bc
       0.046369668 -0.027270326 -0.031449854 -0.022281822
000240 98 79 43 bd 94 48 ac bc ff 30 52 3d 27 cc 32 3d
       -0.047723383 -0.021030702 0.051316258 0.043651726
000250 12 1d 1f bd 5d 6f d2 bb 17 87 96 3c 55 e5 1e bd
       -0.038846083 -0.006421967 0.018374963 -0.038792927
000260 5e 3f e0 bc dd 9a 9a 3b 13 40 6d bd 5c 9a 9e 3c
       -0.027373966 0.004718168 -0.057922434 0.019360714
000270 2c e5 38 bc af 70 49 3d 12 1d 11 3d 98 d4 f7 3c
       -0.011285108 0.04917973 0.035428114 0.03025274
000280 49 dd 3c bd f4 8e 46 3d 84 2d 40 bc b0 79 0e bc
       -0.04610947 0.048476174 -0.011729602 -0.008696005
000290 42 77 64 bc 0d 54 0e bd 89 bf 2c bd c3 c1 2b bd
       -0.013944449 -0.034748126 -0.04217485 -0.041932832
0002a0 7f 9f af 3c 77 d7 72 3d 8e d7 09 bd b8 c7 b2 3c
       0.021438358 0.059287515 -0.033652835 0.021823749
0002b0 99 db 32 3d 1b 6c 0f bd bc e5 e7 3c 13 f9 91 3c
       0.043666456 -0.035015207 0.028307788 0.017818963
0002c0 92 df b0 bc 26 2e 8e bb b6 a6 dc bc c8 89 e9 3b
       -0.021590982 -0.0043389974 -0.026934963 0.0071270205
0002d0 e2 f2 7e bc 12 ed 17 3d fa cf 26 3d e1 36 a4 3c
       -0.015560837 0.037091322 0.040725686 0.0200457
0002e0 7b 4a d8 3c 3c c4 6e 3d 5f a3 3e 3b 6b e2 0c bd
       0.026402703 0.058292612 0.0029089076 -0.034395617
0002f0 fe d5 4a 3d 9d ea 70 3d d6 0b 78 bd 57 35 23 bd
       0.049520485 0.058817495 -0.060558163 -0.03984579
000300 33 21 44 bd f2 ef 35 3d bb 4d 5c 3c cf 5b 15 3d
       -0.047883224 0.044418283 0.013446267 0.03646451
000310 8d 05 53 bd c8 ca d9 3c e3 96 4a bd df 39 54 bd
       -0.051518966 0.026585951 -0.049460303 -0.051813003
000320 6d 2d 7b bd 0e 13 45 bc a1 01 b7 3b e2 cf fe 3c
       -0.06132262 -0.012028469 0.005584911 0.031104986
000330 05 62 13 bd d3 d9 bb 3c 54 f0 06 3d e8 a2 01 bd
       -0.03598215 0.022931015 0.03294404 -0.0316495
000340 7c e8 ec 3c 7c 0d 7b bd 1f 77 77 3b d0 da df bc
       0.028919451 -0.061292157 0.003776021 -0.027326018
000350 14 74 59 bd df 95 98 3c c1 68 e8 bb 7e 39 c9 3c
       -0.053089216 0.018626152 -0.0070925658 0.024563547
000360 8b 4a 03 bc 16 e8 3e bc bd 3c 2a bc 44 15 3a 3b
       -0.008013378 -0.011652013 -0.010390458 0.0028394023
000370 6f 9d 52 bd 17 2b 53 bc f5 fc da bc 92 ef df bc
       -0.05141967 -0.012888691 -0.026731947 -0.027335916
000380 6c 01 43 bd bb 77 e2 3c 38 ed eb bb 0d de 06 3c
       -0.047608778 0.027644983 -0.0071999095 0.008231652
000390 e3 40 1a bd 41 6a 6c bd eb d2 2f bd 1e 39 e6 bc
       -0.037659537 -0.05771852 -0.042925756 -0.028103407
0003a0 d7 98 fa bc a5 7b 33 bd e4 8b 0c 3d 89 fc 96 3c
       -0.030590458 -0.04381909 0.034313098 0.018430965
0003b0 7d b8 53 3d 65 c1 eb bc 4e e9 6e 3b df 8b e3 bb
       0.051689614 -0.028778741 0.0036454978 -0.006944164
0003c0 c5 6a 7b bc 65 f3 50 3d 6c 2f 24 3b 51 96 eb bc
       -0.01534528 0.05101337 0.002505268 -0.0287582
0003d0 79 f8 d0 3c 87 be b9 bc ef d3 0c bd 18 45 0d 3d
       0.025509106 -0.022673858 -0.034381803 0.03448972
0003e0 1d 6b ee 3c 80 40 41 3d 27 c5 5a 3d 53 9f d2 3b
       0.02910381 0.047180653 0.053410675 0.0064276843
0003f0 95 e7 2b 3d 8e 95 54 3d 49 81 41 3d 04 4f 3c bd
       0.0419689 0.05190044 0.047242437 -0.045973793

weight_function_network.initial_cnn.11.bias f4 [32]
000000 6b a8 dd bc 41 59 9c 3c 42 d4 56 bd 4c c7 19 3d
       -0.027057847 0.019085528 -0.05244852 0.03754358
000010 2c b4 c0 bb dc 44 cc bc 7f 76 d5 3c 09 38 97 3a
       -0.005880853 -0.024935178 0.02605748 0.0011537086
000020 2b d3 54 3d cc 31 11 3d 6a 43 6c bd d6 6e de bc
       0.051959198 0.03544788 -0.05768148 -0.02715246
000030 56 93 1f 3d 23 19 15 bd 6d 10 4a 3d f7 96 45 bd
       0.03895887 -0.036400925 0.04933207 -0.048239674
000040 15 2d 4c bd b9 10 4e bd 3f da 68 bd 2e 04 18 bd
       -0.04984768 -0.050308917 -0.05684876 -0.03711336
000050 ee bb 0b bd 5e 39 8a bc 01 e3 2d 3d d2 98 e1 3c
       -0.03411477 -0.016873058 0.042452816 0.02753869
000060 0e 8c 67 bd fa 51 5c 3c 75 00 99 bb c4 7e ec bc
       -0.05653005 0.013447279 -0.004669244 -0.02886904
000070 60 49 e1 bc 2b 77 10 3b 42 94 4b bc 3b e6 b7 3c
       -0.027500808 0.0022043686 -0.012425484 0.02244865

weight_function_network.initial_cnn.12.weight f4 [32]
000000 64 f6 7f 3f 7c 9d 7e 3f 18 5a 81 3f a8 14 7f 3f
       0.9998534 0.9945905 1.010562 0.99640894
000010 30 60 80 3f e3 64 80 3f 9f 55 80 3f f3 98 80 3f
       1.0029354 1.0030788 1.002613 1.0046676
000020 83 44 80 3f 3e 4b 80 3f d1 4c 7e 3f c2 db 80 3f
       1.0020908 1.0022962 0.9933596 1.0067065
000030 73 ab 7e 3f 26 cf 7f 3f a7 cb 7e 3f c3 26 7f 3f
       0.9948036 0.9992546 0.995295 0.9966852
000040 2c 42 82 3f 93 8b 7e 3f eb a3 80 3f a3 e8 80 3f
       1.0176444 0.99431723 1.0050024 1.0070995
000050 15 14 7f 3f 3b 8f 7f 3f fe f2 7e 3f 97 bb 7d 3f
       0.9964002 0.9982793 0.99589527 0.99114364
000060 eb 82 7e 3f bf 22 80 3f 59 71 7f 3f 0f 06 81 3f
       0.99418515 1.0010604 0.9978233 1.0079974
000070 97 42 80 3f b0 f1 7f 3f b8 67 7f 3f c6 8d 7f 3f
       1.0020322 0.9997816 0.9976764 0.99825704

weight_function_network.initial_cnn.12.bias f4 [32]
000000 d7 91 ee 3b af aa 94 bc c5 9a 8d 3b 93 ea bc bb
       0.007280569 -0.018147795 0.0043214285 -0.005765268
000010 7b b7 8c bb 7e 7e 00 bc e9 71 53 bc 1a c9 31 bc
       -0.0042943335 -0.007842658 -0.012905576 -0.010851169
000020 e4 13 1f bb ca 0b 1d bc 4b 50 94 bc 7e c1 43 bc
       -0.002427333 -0.00958533 -0.018104693 -0.011947988
000030 d7 00 24 bc 9e 67 e7 bc ba 18 49 bc 41 be 91 bb
       -0.010009966 -0.02824765 -0.012273962 -0.004447729
000040 02 3d 28 bc f8 98 32 bc 1e 65 df bb a7 6e df bb
       -0.010268452 -0.010900728 -0.006817474 -0.0068186107
000050 4d 64 71 bc a8 17 e5 bb 03 8e b4 bb 44 1b 96 bc
       -0.014733386 -0.0069913454 -0.005510093 -0.018323548
000060 4d 6e d4 bb 63 18 c0 bc 2b d6 2b 3b 1e 2e 2e bb
       -0.0064828754 -0.023449128 0.0026220183 -0.002657778
000070 a4 36 48 bb 96 74 d7 bb 92 b0 8c bc 5f 1b 25 bc
       -0.0030550146 -0.0065751774 -0.017174039 -0.010077327

weight_function_network.initial_cnn.12.running_mean f4 [32]
000000 ba 80 8a be c9 c5 ce 3d c9 75 ae bc a2 3b c9 bd
       -0.27051336 0.10096318 -0.021296399 -0.09825827
000010 05 ff cc 3e ac 47 86 be 6c 58 f0 3e cf 15 50 3e
       0.40038314 -0.26226556 0.4694246 0.2032082
000020 9f c7 43 3d b9 ac 9c 3e c4 55 08 3e ce 2f 5e 3e
       0.047797795 0.30600527 0.13313967 0.21697924
000030 2b 74 d3 be b5 b9 26 3e ff 46 60 3e 2d cf 5a be
       -0.41299567 0.16281779 0.21902083 -0.21368094
000040 6e 19 71 3e 44 70 2f bf 7b 69 86 3e 22 34 a8 be
       0.23544857 -0.6853068 0.2625235 -0.32852274
000050 0d 0d 60 3b b3 41 7d bd e8 d7 f1 3d 75 86 38 be
       0.0034187466 -0.061830234 0.11808759 -0.18020041
000060 b3 97 5b 3d de 11 97 3e a8 36 75 be 36 db 47 3e
       0.05361147 0.2950582 -0.23946631 0.19517216
000070 18 0c 1a 3f 00 fa 09 3f 5b d3 8a be f3 fe f6 bc
       0.60174704 0.53897095 -0.27114376 -0.030150866

weight_function_network.initial_cnn.12.running_var f4 [32]
000000 fc 5d 0e 3e 2b 1d e2 3d 72 ee e9 3d b1 77 02 3e
       0.1390304 0.110407196 0.11422433 0.12740971
000010 7a 5e e5 3d 73 b2 af 3d 1a 9b 06 3e 9c d7 df 3d
       0.111996606 0.08578958 0.13145104 0.10929796
000020 e8 06 e7 3d 66 6d 02 3e 3b 11 d4 3d 2d 96 bd 3d
       0.11280614 0.12737045 0.10354849 0.092571594
000030 c9 d5 46 3e 22 0a f5 3d 44 bd a1 3d 10 27 02 3e
       0.1941749 0.11964823 0.07897428 0.12710214
000040 aa f8 bb 3d 08 d4 02 3e d4 42 0c 3e c4 1d b0 3d
       0.09178288 0.12776196 0.13697368 0.08599427
000050 f9 3c 18 3e 0f 0d 02 3e 14 11 92 3d 49 38 e6 3d
       0.14867009 0.12700294 0.07132164 0.11241204
000060 d6 97 04 3e 4c a2 15 3e 3d cb 58 3e 55 59 f5 3d
       0.12948546 0.14612693 0.21171279 0.11979929
000070 bf b9 70 3e d4 81 0c 3e 8f f5 f7 3d 1c e5 f8 3d
       0.23508357 0.137214 0.121073835 0.12153074

weight_function_network.adaptive_layer.1.weight f4 [64, 32, 3, 3]
000000 5d 49 3e bc 83 ec 4a 3c 79 ee da bc 7c c1 6c bc
       -0.011614171 0.01238549 -0.02672504 -0.014450427
000010 8c ff 84 3d d1 11 d3 ba 8d 81 ba bc 68 2c 68 3d
       0.06494054 -0.0016103332 -0.022766853 0.056682974
000020 c2 99 07 3c a5 ca 2e bd c7 1e 16 bd 93 bb 42 bd
       0.008276405 -0.042673726 -0.036650445 -0.047542166
000030 5c bf 80 bc ba a7 a4 bc 3b c9 54 3d 92 fe 31 3d
       -0.015716247 -0.02009951 0.05194972 0.043455668
000040 2b b4 0c bc f3 b4 19 bc 4a e6 ed bc eb d2 4e bd
       -0.008587877 -0.009381521 -0.029040474 -0.050494116
000050 47 f9 13 3d cc 14 2e 3c 18 5d 8d bc 69 b5 55 3d
       0.0361264 0.010625076 -0.017256305 0.05217496
000060 fe 35 32 3d a8 ce 74 3d d1 8b a8 3c 35 77 2e 3d
       0.043508522 0.059767395 0.020574482 0.042594153
000070 4b c6 4e bd ee 67 f1 3c 79 91 3a bb 20 fe 01 bc
       -0.050482076 0.029468503 -0.0028468056 -0.007934123
000080 06 7b d3 bb ca 5a 45 3d 3b b5 4e 3c 32 ae e5 bc
       -0.0064538745 0.048182286 0.012616451 -0.028037164
000090 db 0f 0f 3d dc 86 e5 bc 51 a6 1a 3d b0 bc 85 3c
       0.03492723 -0.028018408 0.037756268 0.016325325
0000a0 5f 8f 2a 3d 1e 3f 29 3d ea 56 15 bd 96 e1 85 3d
       0.041640636 0.04131996 -0.03645984 0.06537168
0000b0 3c 46 89 3d 3d 15 98 bc 40 4b 9d bc 4d 8b 91 3d
       0.06702849 -0.018564815 -0.019200921 0.07106648
0000c0 02 04 0e 3d ff 5b e9 b9 87 5d 2c bd 57 e1 a4 bc
       0.03467179 -0.00044509766 -0.042081382 -0.020126982
0000d0 6c 64 e3 bb a4 50 12 bd 3c b3 31 3d 72 70 eb bc
       -0.0069394615 -0.035721436 0.04338382 -0.028740142
0000e0 ff 0d 30 3d 48 d7 9c bc c9 7e 65 3d 83 97 c5 bc
       0.042982098 -0.019145623 0.056029115 -0.024120098
0000f0 6b 9a 58 bd 67 e5 0f 3d 65 49 ed bb d5 53 f9 bc
       -0.05288164 0.035130884 -0.0072414153 -0.030435482
000100 ad b8 0f 3d 72 06 d8 bc 26 73 5b bd 0f 17 22 bb
       0.03508823 -0.02637026 -0.05357661 -0.0024732982
000110 f2 c2 e5 bc 5e 80 75 bd 9f b5 83 3c f2 27 f3 bc
       -0.028047059 -0.059936874 0.016077815 -0.029682133
000120 98 de 53 bd 50 46 a3 3c 53 6d 15 3d a3 70 cb bc
       -0.051725954 0.019930989 0.036481213 -0.024833983
000130 39 60 10 bd 07 88 93 3c bc 17 e7 3b 47 16 a5 3c
       -0.035248015 0.018009199 0.00705239 0.020152224
000140 85 fe 67 3d 1f 65 4f 3d 46 dc 6e 3d 08 4d 85 3c
       0.056639213 0.050633546 0.058315538 0.016272083
000150 ea 85 34 bd b3 70 57 3d 6c db 53 bc f7 dc d3 ba
       -0.044073023 0.052597713 -0.012930732 -0.0016163875
000160 a6 36 93 bc 15 6b 04 bd a3 37 a1 3c 01 71 8e 3c
       -0.017970394 -0.032328684 0.01967985 0.017387869
000170 76 39 3f 3d 40 e9 2e bd ce 7e 1e 3d a8 46 23 bd
       0.04668566 -0.042702913 0.03869515 -0.039862305
000180 a8 e9 14 bd ea d5 1d bd 81 b1 0a 3d a8 e4 be bc
       -0.036355644 -0.038534082 0.033860687 -0.023302391
000190 24 b5 0a 3d 1b 00 64 bd 4a f4 13 3d fb 0a 5e bd
       0.033864155 -0.055664163 0.036121644 -0.05420969
0001a0 a6 37 18 bd de af 1d bd 23 59 92 3c a2 b4 3a bd
       -0.037162445 -0.0384978 0.01786477 -0.04558242
0001b0 a7 b8 9a 3c cb a0 33 3d 03 ec a6 3c 4a 82 77 3d
       0.018886877 0.043854516 0.020376211 0.060426988
0001c0 87 13 3f 3d 0e 74 7a bb 1e e8 eb 3c e0 4b 15 bd
       0.046649482 -0.0038216147 0.028797206 -0.036449313
0001d0 4f b3 c2 3c 44 1b c5 bc c5 3d 96 3c b4 44 70 3d
       0.023767142 -0.024060853 0.01834 0.05865927
0001e0 39 5c 41 bc 84 eb cb bc cb 27 cb bc 6b 46 a1 3b
       -0.011801773 -0.024892576 -0.024799248 0.0049217246
0001f0 de 3c 3c bd 5b d3 76 3d 95 52 1c 3c 2a ae 21 3c
       -0.045956485 0.060260158 0.009541173 0.009868184
000200 0a 9e d3 bc 68 08 fd 3c 3f 9b bd 3c 1c 87 13 bd
       -0.025832195 0.030887797 0.023145316 -0.036017522
000210 df be 25 bd fc 70 80 3d a3 69 86 3d 9c d7 1f bc
       -0.040465232 0.0627155 0.06563117 -0.009755995
000220 a9 1c 65 bd 6a 93 e4 bc 5e 74 c2 bc 92 43 3c bb
       -0.055935536 -0.027902324 -0.023737129 -0.0028726798
000230 f7 ef d4 3b 96 f8 54 3d 59 6b b2 bc 09 9f 36 3d
       0.0064983326 0.051994883 -0.021779703 0.04458526
000240 95 e0 fc bb c4 e6 17 bd b6 25 93 bc 96 dc 43 3d
       -0.007717202 -0.03708531 -0.017962318 0.04781779
000250 f4 d7 3f bd 76 94 1c 3d 2d 4b 3a bd 96 7d 50 bd
       -0.04683681 0.03822752 -0.04548185 -0.050901018
000260 2f 03 a6 bc c9 4e 58 bd 9e 7d 23 3d 32 96 78 3d
       -0.02026519 -0.05280951 0.03991472 0.060690112
000270 17 f5 0c bd 61 34 05 bd 53 fc 90 3c cc 6b 65 3d
       -0.034413423 -0.032520656 0.017698443 0.056011006
000280 bc 01 21 3d 3c dc 5c 3c d8 5d 7a 3d 9e ba 5a 3d
       0.039308295 0.013480242 0.061124653 0.05340063
000290 68 78 62 3d 01 05 87 bc 1c 85 92 bb 06 20 0a bd
       0.05529061 -0.016481878 -0.0044714343 -0.033721946
0002a0 86 34 bb 3b 75 76 2f 3d ea 93 d6 3c b3 38 44 bd
       0.0057130484 0.04283758 0.026193578 -0.047905635
0002b0 34 6e 25 bd 6c 97 8e bb 9a 86 13 3d 04 24 15 bd
       -0.0403883 -0.004351547 0.036017038 -0.0364113
0002c0 67 11 5f 3d 1a 4d 75 3d e7 d4 3a 3c 6f 72 14 bd
       0.054459956 0.059887983 0.011403299 -0.036241945
0002d0 ed 12 53 3d 34 4d 8d 3c 63 cd 98 bc d6 7f de bc
       0.05153172 0.017248727 -0.018652624 -0.027160566
0002e0 fa 8e ce bc 4e df 57 3d 4e 0d 6f 3c 14 25 06 bd
       -0.02521466 0.052703194 0.014590574 -0.032750204
0002f0 15 fa 54 3d 9a cd 2f bd a3 07 e7 bc 55 18 c2 bc
       0.05199631 -0.042920686 -0.028201884 -0.023693243
000300 d2 75 e5 3b 91 cb fb 3a ef 7c 01 3d 54 90 72 bc
       0.0070025707 0.0019210448 0.031613287 -0.014804918
000310 5a 78 82 bd 96 c5 29 bd 83 d6 1e 3d 17 b5 0e bd
       -0.063706115 -0.0414482 0.038778793 -0.03484067
000320 d9 ba 55 3d 23 a2 6a 3d 4c a2 ce bc 89 71 0c bd
       0.052180145 0.057283532 -0.025223874 -0.034287963
000330 41 f6 d0 bc ec 88 aa bc 49 50 22 3c 25 88 a9 bb
       -0.025508048 -0.020817243 0.009906837 -0.0051737004
000340 2d 77 2d 3d a3 06 33 3b 2a 19 e0 bc b9 d4 1d 3d
       0.042349983 0.0027317188 -0.02735575 0.038532946
000350 42 f7 54 bd dd 25 03 bb 49 96 f3 3b cf 97 45 bd
       -0.051993616 -0.0020011582 0.007433687 -0.04824048
000360 95 cb 7a bc e7 bd 05 3d 83 58 e9 bc b5 d9 6a bd
       -0.015307327 0.032651808 -0.028484588 -0.057336528
000370 a1 93 3b 3d 37 f6 49 bd 55 18 96 bc a9 f3 01 3c
       0.045795087 -0.049307074 -0.01832215 0.007931628
000380 ca 27 28 3c a0 5a 58 3d 67 96 41 bc ca 67 3c 3c
       0.010263393 0.0528208 -0.011815644 0.011499355
000390 67 b1 1a bd f9 84 16 3d 29 e4 27 3d 15 58 20 3d
       -0.03776684 0.036747906 0.040989075 0.0391465
0003a0 cd 1f 63 bd 22 f1 7a 3d 50 e8 f2 3c 49 2d 65 3d
       -0.05545025 0.06126512 0.02965179 0.05595139
0003b0 8b df d8 3c 34 4f d3 3c cc 37 6a 3d e1 6a de 3c
       0.026473781 0.025794603 0.05718212 0.027150573
0003c0 a2 03 0d bd 60 dc ed bc f1 91 76 3d 0f 79 ed ba
       -0.034427293 -0.029035747 0.060197774 -0.0018117743
0003d0 bd 55 c0 3a 8c 84 4d bc 26 24 e9 bb 63 2e 52 3d
       0.001467399 -0.012543809 -0.007114905 0.05131377
0003e0 5a 55 2e 3c bb 9f 76 3d e6 ff 09 3d 12 a9 3f bd
       0.010640467 0.060210925 0.03369131 -0.046792097
0003f0 a5 7e 66 bc c6 dc 50 3d 5d 2d 55 bd 9e 73 14 3d
       -0.01406828 0.050991796 -0.052045215 0.036243074

weight_function_network.adaptive_layer.1.bias f4 [64]
000000 47 7a 01 bd 62 f7 1c bd 2e 27 d9 bc 5a 67 10 bc
       -0.031610753 -0.03832186 -0.02650794 -0.008813703
000010 1f 8c 8c 3c 4d af 53 3d 90 ee 80 3c 33 10 48 3d
       0.017156659 0.05168085 0.015738755 0.048843574
000020 3d bb 51 3d f1 f4 32 3d 4f 50 87 bc 0d 7c 0a 3d
       0.051203955 0.043690626 -0.016517786 0.03380971
000030 65 8a 86 3c 8b c9 3a 3d 50 f1 2c 3d a8 a8 8e 3c
       0.016423414 0.045602363 0.04222232 0.017414406
000040 ad ff 57 3d da d7 8f 3c 1f 8a a3 bc ae 47 41 3d
       0.052734066 0.01755898 -0.019963322 0.0471875
000050 79 62 63 bc dd 53 76 bc 35 d5 5f bc f4 96 29 bd
       -0.013878458 -0.015034643 -0.013661672 -0.041403726
000060 f9 3b 72 b9 85 26 ab ba 83 08 ad bb 7d 30 07 ba
       -0.0002310126 -0.0013057744 -0.0052805557 -0.00051570666
000070 e5 3b 56 3d e9 a8 4a 3c d3 08 6b bb d0 a9 14 3d
       0.052303214 0.012369373 -0.0035863414 0.03629476
000080 ec 69 cf 3c 39 cf 4d 3d 24 ba 63 3d c5 42 73 3c
       0.025319062 0.05024645 0.05559744 0.014847462
000090 bc a4 2e bd 0f 85 49 3c 2f 29 2f bd ad 65 37 b9
       -0.04263757 0.01229979 -0.042763885 -0.00017490117
0000a0 57 16 86 3c ae 0c 2d bd 7c 8a ea bc e0 86 32 bd
       0.016368074 -0.04224842 -0.028630488 -0.043585658
0000b0 97 1c af bc 59 f4 37 bd fe 0b 4c 3d 4d 11 b0 bb
       -0.021375937 -0.044910762 0.049816124 -0.005373156
0000c0 a3 50 06 bc 4f 74 95 3a dd 75 58 bd 7f d2 17 bd
       -0.008197936 0.001140246 -0.05284678 -0.03706598
0000d0 4c ec 58 bd 11 18 44 3c 2f 32 c9 3b 1b 04 65 bd
       -0.052959725 0.0119686285 0.0061400156 -0.05591212
0000e0 3b 35 1e bd ed f1 1d 3d 50 14 fe 3c 2d 1b c3 bc
       -0.038624983 0.038560797 0.031015545 -0.02381667
0000f0 d6 2b 6e 3d fb 19 7d 3c d3 a3 16 bd 4f b9 c4 bc
       0.058147274 0.015448089 -0.03677733 -0.024014143

weight_function_network.adaptive_layer.2.weight f4 [64]
000000 29 56 80 3f 17 3e 80 3f ea d0 7d 3f e4 b8 7b 3f
       1.0026294 1.0018948 0.991469 0.98328996
000010 4c c5 79 3f 07 d3 80 3f d8 ac 83 3f 8c 6e 81 3f
       0.97566676 1.00644 1.0287123 1.0111861
000020 c2 de 7f 3f d7 df 80 3f f9 4d 80 3f c7 05 7f 3f
       0.99949276 1.006831 1.0023795 0.9961819
000030 a0 39 7f 3f cf 27 7f 3f 5e 07 7d 3f ea 1a 7f 3f
       0.99697304 0.9967012 0.98839366 0.9965044
000040 32 06 81 3f f9 89 7f 3f 74 f7 7d 3f f6 9a 80 3f
       1.0080016 0.99819905 0.9920571 1.004729
000050 f2 d1 7f 3f f7 df 7e 3f 3b eb 7e 3f 3c 86 7f 3f
       0.99929726 0.99560493 0.99577683 0.998142
000060 cc 72 7f 3f 3b 05 80 3f 24 45 7f 3f 2a 6b 80 3f
       0.9978454 1.0001596 0.99714875 1.0032704
000070 90 2a 81 3f f1 24 80 3f af 89 80 3f c3 49 81 3f
       1.0091114 1.0011274 1.0042018 1.0100635
000080 1d ae 7d 3f 9a 37 81 3f 09 47 7c 3f d9 3c 7f 3f
       0.990938 1.0095093 0.9854589 0.9970222
000090 dd 01 80 3f 93 bf 81 3f 15 a1 80 3f 75 36 80 3f
       1.0000569 1.0136589 1.0049158 1.0016619
0000a0 f6 e6 7b 3f c6 54 7d 3f 5c c8 7f 3f a0 7d 81 3f
       0.98399293 0.9895748 0.999151 1.0116463
0000b0 ab a8 80 3f 8d 87 7e 3f 31 d2 7b 3f 10 8e 7f 3f
       1.0051473 0.99425584 0.983676 0.99826145
0000c0 8d 07 7f 3f 25 2d 7d 3f 32 3f 81 3f f0 6e 7f 3f
       0.99620897 0.9889701 1.0097411 0.9977865
0000d0 3d a4 80 3f ef 03 83 3f a4 d3 7e 3f 0b 08 7f 3f
       1.0050122 1.0235575 0.9954169 0.9962165
0000e0 46 b6 7e 3f 84 68 80 3f f5 17 7f 3f 98 d0 7e 3f
       0.9949688 1.0031896 0.9964593 0.9953704
0000f0 3f 03 7f 3f 8e 55 81 3f 10 56 7d 3f d9 a3 80 3f
       0.9961433 1.0104234 0.98959446 1.0050002

weight_function_network.adaptive_layer.2.bias f4 [64]
000000 55 67 ca bc 30 63 07 bc 1b 80 59 bc 48 88 f4 bb
       -0.024707476 -0.008263394 -0.013275172 -0.007462535
000010 2b f5 13 bd 63 fe 5e bc c3 ee 0b 3d 10 3c 6a 3b
       -0.036122482 -0.013610455 0.034163248 0.0035741366
000020 e2 53 10 3c 7a 37 cc bb 8b 3c 30 bc e4 cc dd bc
       0.008809062 -0.0062321993 -0.010756622 -0.027075239
000030 cf c0 2a 3b 78 44 63 bc 5c a2 86 bc 3f 3b 9d bc
       0.0026054864 -0.013871305 -0.01643484 -0.01919329
000040 2a 7a 7f bc 89 72 83 bc 5d 34 0d bb 9e 21 af bc
       -0.015593091 -0.016045826 -0.0021546104 -0.021378335
000050 ad 4c 92 bb 9e 76 22 bc 92 41 89 bc 2f 71 31 bc
       -0.004464707 -0.009915976 -0.0167549 -0.010830208
000060 e3 42 4e bc a1 e1 2f bc 9a 9c 38 bc 0e 50 3d bc
       -0.012589189 -0.0107349465 -0.0112678055 -0.011554731
000070 ae d1 9f ba 8c 2b 71 bc 13 a0 ec bc 1c 47 85 bc
       -0.0012193227 -0.014719855 -0.028884923 -0.01626926
000080 0e fb bc bc 14 88 32 3c ac 94 77 bc 07 ec a1 bc
       -0.023068931 0.010896701 -0.01511113 -0.019765867
000090 82 e7 30 bb 08 66 bd 39 e1 84 d0 bc 9a 27 b0 bc
       -0.0026993458 0.00036124908 -0.025453987 -0.021503258
0000a0 5d b0 a5 bc 79 83 98 bc dc 2c d4 bb 19 0f 8a 3c
       -0.020225698 -0.018617379 -0.006475074 0.016852902
0000b0 25 31 f6 bb 28 17 bf bb 8c 94 59 bc 3e 53 26 bb
       -0.0075131827 -0.005831618 -0.013280045 -0.0025379206
0000c0 67 89 44 bc b1 f8 5a bb a5 4e 9d bc b6 08 47 bc
       -0.01199565 -0.0033412392 -0.01920254 -0.012148073
0000d0 90 33 98 bb b6 45 8e 3c a6 03 91 bb ee 21 4f bc
       -0.0046448186 0.017367225 -0.0044254838 -0.012642367
0000e0 97 32 8f bc c9 c9 a6 bb 13 76 95 bc 79 8f aa bc
       -0.017480178 -0.0050899726 -0.018244779 -0.020820366
0000f0 0c ed c7 bc 91 fd b5 bb 14 87 87 bc ab 78 80 3c
       -0.024405025 -0.005553909 -0.016543902 0.015682539

weight_function_network.adaptive_layer.2.running_mean f4 [64]
000000 49 1e cc 3e 55 90 d3 bc 05 b1 0f 3f fc 7f 49 be
       0.39866856 -0.025825659 0.56129485 -0.19677728
000010 0e 39 aa be 14 4f 1b 3e 02 2a 02 bf a1 d7 75 bd
       -0.33246654 0.15166885 -0.5084535 -0.060020093
000020 38 c6 cc bd 54 51 42 3e 5c 57 88 3e df 80 d4 3e
       -0.09998745 0.18976337 0.2662915 0.4150457
000030 88 6b 04 be a2 0e 96 3e a5 80 a2 bd f2 ae 07 3f
       -0.12931645 0.2930804 -0.07934693 0.5300132
000040 26 36 63 bd 96 4a db bd 2d e7 12 bf 22 ad 96 3e
       -0.05547156 -0.107075855 -0.57383996 0.29428965
000050 c3 07 db ba b5 30 6f bb 33 3b 16 be b7 d3 9d 3e
       -0.0016710687 -0.0036497538 -0.1467102 0.30825588
000060 17 ac 45 3e 4c 69 bc 3e cc 11 bb be ab 4f 56 3e
       0.19303928 0.36799085 -0.36537015 0.20928828
000070 dd bf f8 be 60 c4 c3 be c6 be 89 3f f1 fe 29 3e
       -0.4858388 -0.3823576 1.0761344 0.16601159
000080 d5 5f b9 3e b0 62 02 bf 63 70 78 3e f2 5d 1e 3f
       0.36205927 -0.50931835 0.24261622 0.618621
000090 a2 66 ab 3d f6 34 4a 3c e0 38 1d 3f 97 45 c5 3e
       0.08369185 0.012341728 0.6141491 0.38529655
0000a0 97 78 04 be 25 9f 67 be ea 81 94 3d 7f b1 32 bf
       -0.12936626 -0.22619303 0.07251342 -0.6980209
0000b0 5a 00 0f be b6 5a b5 be 55 7a 84 bd 40 bd b3 3e
       -0.13964978 -0.3542077 -0.064686455 0.35105324
0000c0 ab 22 90 3e 14 c5 01 be 30 f0 2f 3f 42 11 00 bf
       0.2815145 -0.12672836 0.6872587 -0.50026333
0000d0 ca 4f 6a bc ce 61 22 bf 0e bf eb be 7d 98 62 3e
       -0.01430125 -0.6343049 -0.460442 0.22128482
0000e0 77 6b 29 bf 4a bc 25 3f cc 94 ec 3e 90 cc ad 3e
       -0.66179603 0.6474043 0.46207273 0.3394513
0000f0 85 f3 f2 3e a1 c9 a9 3e 18 5f 9f bd 83 13 1c bf
       0.47451416 0.33161643 -0.077818096 -0.6096727
