logs/测试损失函数中mse的权重带来的影响/loss.cross_entropu_loss_with_mse.alpha=1.0/test_model_20250426_163356.pth (torch, 840675 bytes, 78 tensors)

weight_function_network.initial_cnn.0.weight f4 [8, 1, 3, 3]
00000000: dd0d 64be 15b0 8abd d6c9 b63d b6fe 363e
00000010: 3794 08be 61d1 8ebe f81a 113d 1140 12bd
00000020: 985e 833e b36f 8dbd 6ad8 5fbe 8d3e 9ebe
00000030: abbc 323e 036c a83e 3be7 eebd c171 6dbe
00000040: 7818 8d3e 3ccb ab3d 4ca7 5fbc 4f37 9d3e
00000050: 54bf 15bd 1cfc df3c 8d11 96be 6b70 533d
00000060: 7c7b 26bd eb55 2a3d d4c3 273c 7a76 743e
00000070: aefc a6bd 9435 4b3d 252f ecbd 6d30 96be
00000080: 760f 483c 7c06 29be 0399 4d3e 8f01 66be
00000090: 222f 53bd 6662 173d ce8a 12be fc40 ce3b
000000a0: 9b5e d73d bb9c 0bbe d551 7dbe 9f37 2e3e
000000b0: 011f c63d 235b 82be 36ba bb3d 3107 853d
000000c0: 87fe 77be 14e2 a7bd deb2 8eba 6d0d ca3d
000000d0: 9d4c fa3c 2cad 0e3e cfbd 16be fe8c 7ebe
000000e0: cfdb 02be 2e7c 9cbe 2b58 c93d ea72 773d
000000f0: 0bd8 97bd a7c9 9f3e e492 423e 1f24 923d
00000100: 9948 963e 822b 82be 1417 fb3d 35cc 82be
00000110: 97a1 a73d 13d0 a63d 9b43 35be c9cc 873e
-0.22270913 -0.06771866 0.08925216 0.17870602 -0.1333779 -0.27894118 0.03542611 -0.03570563
0.25658107 -0.069060706 -0.21859899 -0.30907097 0.17454784 0.32894906 -0.116651975 -0.23187925
0.2755773 0.08388373 -0.0136507265 0.3070626 -0.036559418 0.027341895 -0.29310265 0.051620882
-0.040645108 0.041585844 0.01023956 0.2387332 -0.081536636 0.049611643 -0.115324296 -0.2933382
0.012210717 -0.1650638 0.200779 -0.22461532 -0.05155862 0.036959074 -0.14310762 0.006294368
0.105160914 -0.13634007 -0.24738248 0.17013405 0.09673882 -0.25460157 0.09166376 0.06495512
-0.24218188 -0.08197418 -0.0010887047 0.09865842 0.03055411 0.13933247 -0.14720844 -0.24858472
-0.12779163 -0.30563492 0.0983127 0.060412325 -0.07414254 0.31208536 0.19001347 0.07135796
0.29352263 -0.2542382 0.12260261 -0.25546423 0.08185118 0.08145156 -0.1770157 0.26523426

weight_function_network.initial_cnn.0.bias f4 [8]
00000000: 3cf1 793e d75a a83d 5812 9b3d 6c75 8a3e
00000010: 78a8 693e babc 85be 14f5 8ebe f804 573c
0.2440843 0.08220451 0.07571858 0.2704271 0.22818172 -0.2612055 -0.27921355 0.013123743

weight_function_network.initial_cnn.1.weight f4 [8]
00000000: 7b2d 7f3f ca8d 813f 3f39 803f cf37 7e3f
00000010: 1a48 813f 49f0 7e3f a3e8 7e3f cf20 7d3f
0.9967877 1.0121396 1.001747 0.9930391 1.0100129 0.99585396 0.99573725 0.98878187

weight_function_network.initial_cnn.1.bias f4 [8]
00000000: 68a0 1f3a c750 783b f8ae 84bb 20c9 32bc
00000010: 6c54 07b8 87b3 c93a f26a ebbb 8a12 a3bb
0.0006089271 0.0037889944 -0.004049178 -0.01091221 -3.2265132e-05 0.0015388586 -0.0071843797 -0.0049765753

weight_function_network.initial_cnn.1.running_mean f4 [8]
00000000: fb85 293e 2ae7 393d b1e8 cb3d 3702 d03d
00000010: 5c20 203e f9d7 a8be bf13 c6be 47fc ea3d
0.16555016 0.04538647 0.09956492 0.101566724 0.15637344 -0.32977274 -0.3868694 0.11473899

weight_function_network.initial_cnn.1.running_var f4 [8]
00000000: 14b9 093c cd82 183c 26fa bd3a 2e41 d83c
00000010: 448e 9f3b 7c01 273c cfda c93c a214 0c3c
0.0084059425 0.009308529 0.0014494106 0.026398268 0.0048692543 0.010193225 0.024640469 0.008549841

weight_function_network.initial_cnn.4.weight f4 [16, 8, 3, 3]
00000000: c771 143d 675e c0bb b84a b4bc 958e 08bb
00000010: cd42 1c3d 2aef 00bd 6b32 193d a116 e2bd
00000020: 3161 973c a0fe 0e3c b838 8f3d 1809 79bd
00000030: 0e18 353d 3d9d 21bd b352 953c 1f99 82bc
00000040: 7811 7e3d cd4c acbd 24e6 3f3d 0756 62bc
00000050: 275a bb3d 9316 1b3d 74c0 15bd 0fab c0bd
00000060: 2292 5e3d 83bb d23c a973 f43d c193 e3bd
00000070: b259 9abd 4261 acbd a6d4 973c 02db 83bd
00000080: 7e1c 413d 328c f83c edbc 7abc 37ef e2bd
00000090: 41ab dd3c f393 d6bc d145 bf3d 3a95 48bd
000000a0: f6a4 dabb 1ef2 7cbd 7174 f3bc 4fde 8ebd
000000b0: 8890 9cbd 7d25 bf3d 2571 1c3d 910f e63d
000000c0: 9637 9abd b891 dabd 74ca 9dbd b794 803c
000000d0: 77e2 623d abbd b43c 114e cf3c 3b31 55bc
000000e0: e509 2a3d dd90 2cbd 39c3 803b 1cd4 e33d
000000f0: d04e e23d d27d 49bd f6b4 ba3d 516e a93c
00000100: acd6 d83d 7a38 553d dca1 8a3d 9ee1 7a3d
00000110: ae97 8d3d 9715 84bd 1b3c e13d ddf6 9fbb
00000120: 4fed c7bd e132 a0bc 2cff d1bc 7d8e 903d
00000130: 904a 95bd 35c6 da3d 79df 523d b1eb 5d3d
00000140: e148 d1bc 0aa5 dcbd b79f e4bc 3bbb d1bd
00000150: 4512 493d 29d1 8dbd 37a9 e0bd 014c b13d
00000160: 7b01 28bd c10a eabc 6cba 933c 69fa 9a3b
00000170: c60e 3e3d 6328 bc3d 3079 ae3d bf95 bdbd
00000180: c1ce da3b 8ff3 653d c7f5 eabd caf2 cb3d
00000190: 70ef e43d 6855 a83d 8f06 913d 696b 6fbc
000001a0: b7c9 7b3d 94c6 90bc 3837 a7bb 8c48 a53d
000001b0: a88b b9bd 6203 2c3d 85c3 d13d b556 be3d
000001c0: 8440 fab9 b985 df3d 27ed 0a3c 0f37 e9bd
000001d0: 0cbe 90bd 34fc a13c a0f4 c83d acd5 8bbd
000001e0: ff5b 99bd b938 073b 5c36 46bd 5d09 b73d
000001f0: 4235 d83d 4be9 8c3d d65a a4bd 1661 0abd
00000200: cb62 c53c a0b7 f0bd e144 923d d437 e2bd
00000210: 1e09 e1bd 18f4 c53d 8426 f53d ebb7 973c
00000220: 3380 04bd 3ac8 d23d 2bac 183d e396 aebd
00000230: 7b7c b23d 6536 c33c f586 ba3d 6ac6 bcbd
00000240: d826 ebbd 1313 f03d ef53 3f3d bb67 5abd
00000250: 01a2 903d 1d73 fbbc f769 113d 034d c03d
00000260: b5a5 cbbd 80db 84bc 038b 413c 691c f73d
00000270: 57a7 a7bd 002f a5bd 90ea 91bd 8ae8 9d3d
00000280: e26b 75bd 6bec 133d 57bd d13d 15f4 553d
00000290: eaa9 b33d 26de 2ebb abcc 24bd 5548 58bd
000002a0: cbd9 593d 7cb2 91bd 2f0a 73bd 814e 6f3d
000002b0: 8475 7dbb 1ee8 973c f793 2d3d 1573 42bd
000002c0: a98c 4cbb 0f1b 783b 4ec0 6dbc 60ce 0abd
000002d0: 9832 9c3d c63c c63b 19ea 023d 80d7 c33d
000002e0: d0e2 2f3d ef87 a2bd 1889 abbd 5b7f 52bc
000002f0: b593 303d b77d c23c 1418 873c e53e ee3d
00000300: 035e 513d 7a95 d13d 3e69 c1bd 752f 1cbd
00000310: 4b95 db3d 938a 823d 2ee7 efbd a85f b43d
00000320: 871e 1abd 3eca 983d b009 823d 2748 07bd
00000330: 102a 0bbd ccf3 373d d555 e93c ad39 9ebc
00000340: f18e cfbc b356 d8bd 6635 b2bc ef4b 553d
00000350: ad59 2f3d 1724 ee3c a79e 79bd 31a7 083d
00000360: e11e 17bd 72dd 3b3d 3dfe 1e3d ff81 833d
00000370: 85b1 9cbd 2740 ae3d 72a4 b73d 1815 f63b
00000380: f792 84bd 25ff e33b 652c a33d 1d0b 903d
00000390: 64fa 28bd dd22 de3d 8d5c 84bd 4fd3 643d
000003a0: 5ead 553d e7fe ccbd 00b5 553d c6b3 85bd
000003b0: 66c0 ec39 2eaf fcbb c7c1 eebd 1d0c 463c
000003c0: 9c26 c13d 328a 88bd 1a35 a23d e567 d0bc
000003d0: 5820 063d db1d a73d 8d63 2fbc 9f6c b0bd
000003e0: b2ba a33c bc37 223d d905 2dbd efba 353d
000003f0: a51d 2a3d c2cd 97bd dd52 c6bd 4707 85bd
0.03624132 -0.0058706286 -0.022008285 -0.0020836939 0.038149644 -0.031478085 0.037401598 -0.11039472
0.018478962 0.0087276995 0.0699324 -0.060799688 0.044212393 -0.039456595 0.01822791 -0.015942154
0.06202838 -0.08413086 0.04685034 -0.013814456 0.091480546 0.037863325 -0.03656049 -0.09407627
0.05433858 0.025724178 0.11936123 -0.11112166 -0.07536639 -0.08416988 0.018534016 -0.06438257
0.047146313 0.030340288 -0.0153038325 -0.11080783 0.0270592 -0.026193595 0.09339488 -0.04897044
-0.006672497 -0.06175434 -0.02971861 -0.06975996 -0.07644755 0.09333322 0.03819384 0.11233438
-0.075301334 -0.10672325 -0.077046305 0.015695913 0.055391755 0.022063097 0.02530578 -0.013012226
0.041513342 -0.04213034 0.0039295224 0.11124441 0.110501885 -0.049192257 0.09116547 0.020682486
0.105878204 0.052055813 0.067691535 0.06125032 0.06913696 -0.064494304 0.10997792 -0.0048817233
-0.0976206 -0.019555511 -0.02563437 0.070584275 -0.07289612 0.10682336 0.05148265 0.05417985
-0.025547447 -0.10773666 -0.02790819 -0.102407895 0.04908969 -0.0692466 -0.10969775 0.08657075
-0.041017037 -0.028569581 0.018033229 0.0047295582 0.046400808 0.09187391 0.085192084 -0.092570774
0.006677479 0.05614048 -0.114726596 0.09958418 0.111784816 0.08219415 0.07081329 -0.014613011
0.061471667 -0.017672814 -0.005103018 0.08070478 -0.090598404 0.041995414 0.102423705 0.09293882
-0.00047731784 0.109141774 0.008479393 -0.11387455 -0.070674986 0.01977358 0.098122835 -0.06827864
-0.0748825 0.0020633175 -0.048391685 0.08937333 0.10557033 0.068804346 -0.08025138 -0.033783995
0.02409496 -0.11753774 0.07142044 -0.110458046 -0.10988067 0.09665698 0.11970237 0.018520316
-0.032348823 0.102920964 0.037273567 -0.08524873 0.08715149 0.023829648 0.09107772 -0.09217532
-0.11482018 0.11722388 0.046710905 -0.05332158 0.0706215 -0.030694539 0.035501447 0.09389689
-0.099437155 -0.016217947 0.011812928 0.12065966 -0.081862144 -0.08065605 -0.07124817 0.07710369
-0.05991734 0.036114138 0.10241192 0.052234728 0.08772643 -0.0026682704 -0.04023425 -0.052803356
0.05318622 -0.07114121 -0.059335884 0.058424477 -0.003867478 0.0185433 0.04237744 -0.047473032
-0.003121177 0.0037857925 -0.014511181 -0.03388822 0.076268375 0.006049725 0.031961534 0.09562588
0.042940915 -0.079360835 -0.08375758 -0.012847747 0.043109614 0.023741586 0.016490974 0.1163309
0.051115047 0.102335885 -0.094439015 -0.038131196 0.10721835 0.06374087 -0.11714016 0.088073075
-0.03762677 0.0746045 0.06349504 -0.033027794 -0.03397566 0.044910237 0.02848331 -0.019314611
-0.025336714 -0.105634116 -0.021753978 0.05207437 0.04281013 0.029069943 -0.06094232 0.03336257
-0.036894683 0.045865484 0.03881668 0.06421279 -0.07651047 0.0850833 0.08966912 0.007509839
-0.06473344 0.006957906 0.07967452 0.0703337 -0.041254416 0.108464934 -0.06462965 0.055865582
0.05216729 -0.10009556 0.05217457 -0.0652843 0.00045156776 -0.0077113127 -0.11658054 0.012087849
0.09431192 -0.06666984 0.079202846 -0.025440166 0.03274569 0.08159991 -0.010704887 -0.08614468
0.019986484 0.039603934 -0.042241905 0.044367727 0.041532177 -0.07412292 -0.09683774 -0.06495529

weight_function_network.initial_cnn.4.bias f4 [16]
00000000: dcaf d1bd c003 ee3c f451 d33d e952 cabd
00000010: ac1e aabd 0d13 bf3d 1c04 7ebd d205 0a3d
00000020: 0481 433c 2bc7 5bbd 4132 993d 0173 fc3c
00000030: a1de 053b f6a6 bdbd dbbc de3b ace1 8cbd
-0.10238621 0.029054523 0.10318366 -0.09879095 -0.083066314 0.093298055 -0.062015638 0.033696957
0.011932615 -0.05365674 0.07480288 0.030816557 0.0020426887 -0.09260361 0.0067974157 -0.06878981

weight_function_network.initial_cnn.5.weight f4 [16]
00000000: 4b36 7f3f dc1d 7d3f d5f7 7f3f 4d40 803f
00000010: 36b6 7f3f bead 803f 9208 803f 2c1b 803f
00000020: 3aa4 813f 8de5 7e3f 9e64 803f 8748 803f
00000030: 90b0 803f 3263 7e3f 9153 7e3f 2466 7f3f
0.9969222 0.98873687 0.99987537 1.0019623 0.99887407 1.0053022 1.0002615 1.0008292
1.0128243 0.99569017 1.0030706 1.0022134 1.0053883 0.9937011 0.9934626 0.9976523

weight_function_network.initial_cnn.5.bias f4 [16]
00000000: 5bad 16bc 516f babb b756 d7bb d378 03bc
00000010: fae5 e838 d479 a63b 8af6 f3bb 19e7 a03b
00000020: 2ea2 e3bb ed09 b8bb 0740 45bc 210e 56ba
00000030: 335e 0e39 8c88 04b7 109b 52bb 945c 47b9
-0.009196605 -0.0056895395 -0.0065716165 -0.008024412 0.000111054585 0.005080441 -0.007445161 0.0049103615
-0.0069468236 -0.0056164176 -0.012039191 -0.00081655575 0.00013577267 -7.899605e-06 -0.0032135881 -0.00019012607

weight_function_network.initial_cnn.5.running_mean f4 [16]
00000000: b95b 083e 8353 893e 347c b23e a0f9 253f
00000010: 766e ba3e f5b3 a0bd c6be 3ebc 5e05 ac3d
00000020: 87bd 23be 3819 23bf ef28 07bf 947b 073f
00000030: d56d a23e e737 ebbe 7432 8e3d 7a4b d0be
0.1331624 0.26821527 0.34860384 0.6483402 0.364124 -0.07846824 -0.011642164 0.08399461
-0.15990268 -0.63710356 -0.52796835 0.5292294 0.3172442 -0.45941088 0.06943217 -0.40682584

weight_function_network.initial_cnn.5.running_var f4 [16]
00000000: 70f8 6d3e eae8 543e 8aee 1a3e bd0e 7a3e
00000010: d355 513e ab8f a63d 848e fa3d 9ed7 313e
00000020: fea4 4b3d 43a5 673e c584 603e bfb8 453e
00000030: c0bd 7a3d d583 393e 5b69 2a3e b947 a43d
0.23239303 0.20791975 0.15130058 0.24419685 0.20442896 0.08132871 0.12234214 0.17367408
0.049717896 0.22621636 0.21925648 0.19308756 0.061216116 0.18116696 0.16641752 0.080214925

weight_function_network.initial_cnn.8.weight f4 [32, 16, 3, 3]
00000000: 8582 f5bc c7f6 773d 0b63 11bd 42e8 803d
00000010: c04e a03d 46c4 093b a05e 2b3c ad53 56bd
00000020: 6730 85bd 4feb d63c a337 923d 0173 c9bc
00000030: c1fc 8d3d c004 82bc 538a 643d b44a aebc
00000040: d3ef c43b 10c8 78bd 25bf 91bd 334a 8fbd
00000050: df13 bbbb 7631 34bd 1af1 89bd 652c 793d
00000060: 538a d33c 256c b1bc 61e4 493c 1d8b 4d3d
00000070: 962b d0ba f3f9 243d 1606 543d ca31 a63c
00000080: 7ff7 913d 687a a6bc dc17 083d 9afb 15bd
00000090: 4d20 803d 1c1c 72bd d6d6 45ba 666e 713c
000000a0: a589 f93c 867d 6f3d cf88 ad3d a422 12bc
000000b0: ad8a 76bd 8683 00bd 8ee1 1ebd 818e c5bc
000000c0: 1c04 a0bd 6ca5 3e3d 2ea7 07bd 0527 e1bc
000000d0: dba9 a63d e4c3 ddbc b356 393d 4687 3cbc
000000e0: 76de 3abd 1a1c 0dbd 208c b13d e5df 953d
000000f0: 7d88 84bd 186f 62bd 22aa 33bc 46fc 88bd
00000100: 2001 553c f92e 113b 59b3 75bd 6d11 943d
00000110: 2e33 6bbd a884 2b3d b3b5 443d e76c 99bd
00000120: 596d 383d 3480 da3c a0f8 8738 43ff 5a3c
00000130: 27ae b03d 8dfd e33c 0246 9a3d dfae 023d
00000140: 96df 423d aeb4 423d 6869 1f3d 6670 c0ba
00000150: 3e86 a23d 3ec2 e33c 4732 943c af1f 99bd
00000160: 1c05 8bbc 31f4 cdbc bec4 2e3d 6328 9a3d
00000170: 0c9d 143d 100a b5bc 4b04 c63b d65d f2bc
00000180: 8d51 8abc 1377 32bd 1a83 743d 55ca 793d
00000190: 2e97 9e3b 286b ae3a 54cb 1e3b ae35 8cbd
000001a0: c02f 2d3c 6d91 b4bc 3bd6 36bd 0d87 57bd
000001b0: 97de b03d b858 eebc d0da a23d b845 5abd
000001c0: 7f57 a6bd 1738 d9bc 7ac7 6e3d ff25 80bd
000001d0: 17f5 0ebd 25f1 83bd e9a1 20bd a3e9 5ebd
000001e0: 6e98 27bd 6027 253d bb60 a93d 7da0 59bd
000001f0: 0ebf 84bd 99da 30bd fa7f 253d 2a99 493c
00000200: ccad b6bc eaa4 553c 6cab 293d 405c 23bd
00000210: 4d1b de3c 5d38 92bb 302c f13b 16fb dd3c
00000220: 20b3 3d3d 5da1 96bd d551 d93c 2a41 a83c
00000230: 3ebe 483d 85c1 c5bc 67c1 01bc 7887 893c
00000240: 2d99 45bb b216 7cbd 6cb8 573d 1208 2c3d
00000250: 8546 adbd bfd6 8bbc eec3 353c eeb0 7abd
00000260: 7945 9dbb 9163 52bd 04fa a8bc 40e0 c63b
00000270: 8693 ca3c a711 52bd 9ca1 45bd 6bc1 7f3b
00000280: bf7d cebb 6f93 2f3d 729c 13bd 439e 4dbd
00000290: 6689 c43c 2af2 4ebd 553d 373c 6ee7 8f3d
000002a0: 9c71 1abd c415 0fbd be25 a9bb 335c 1c3c
000002b0: 1135 e43c 51c4 b13d ff1d 52bd 0a11 393c
000002c0: ca93 21bc 795b a83d ab62 70bd a83b 8bbd
000002d0: e2ac 87bd deda 8abd 405c a2bc 6013 9dbd
000002e0: 3640 1dbd 374b 4f3d 737e 463d 1808 883d
000002f0: c666 14bd f844 4ebd 4a9f a73d ec05 a9bd
00000300: 3270 9ebd e9d8 13bd 729b 41bc 5bc5 89bd
00000310: 3250 523d dc36 6e3d 9682 6dbd 0ea9 d93b
00000320: 1cb1 8d3d 8b50 dbbc abee 573d 4d85 17bd
00000330: a703 93bd f5e8 883d 61ba 80bd 0470 84bd
00000340: 94bb c3bc eb46 8ebd 9ce1 003b 8b00 483d
00000350: 1813 91bd c788 2dbc e475 0cbd be18 88bd
00000360: faaa dfbb a4c4 9abc 0846 9dbd 0c78 273d
00000370: fe80 113c 836c 173d f4a8 d93c 0e48 a0bd
00000380: 310b 973d 05f7 4fbd 037a 35bd 5588 06bd
00000390: 3af6 2e3d 46c3 5ebc a577 79bd 64c9 603d
000003a0: 6c7f ea3c c869 da3c 4eff 373d 1852 87bd
000003b0: 9f23 bcbc e6b8 00bc 144c 173d 3778 d3b8
000003c0: 7506 4ebc e32c 8c3d 2d71 8fbd 152a 8a3d
000003d0: d78d 763d e823 a33d 4b74 443c ba4f 87bd
000003e0: 7a62 c03a 96c2 503d 8f0d 5e3d 263a 18bd
000003f0: 76c6 f53c e10b 0a3d 301f 5c3d 0ce6 3ebd
-0.029969463 0.06053808 -0.035494845 0.062943 0.0782752 0.002102153 0.010459572 -0.052325893
-0.06503373 0.02623525 0.07139518 -0.024590971 0.069329746 -0.015871406 0.05579598 -0.021275856
0.0060100346 -0.06073767 -0.07116536 -0.06996574 -0.005709156 -0.043992482 -0.067354396 0.060833354
0.025822794 -0.021658013 0.012322516 0.050181497 -0.001588213 0.040277433 0.051763617 0.020287413
0.07127284 -0.02032204 0.03322588 -0.0366169 0.06256161 -0.05910884 -0.00075469667 0.014735794
0.030461142 0.058469318 0.0847336 -0.008919392 -0.060190845 -0.03137543 -0.038789324 -0.024115803
-0.07813284 0.046544477 -0.03311842 -0.027484426 0.08137866 -0.027070947 0.0452487 -0.011506861
-0.04562231 -0.034450628 0.08669305 0.07318095 -0.064713456 -0.05528173 -0.010965856 -0.06688742
0.0130007565 0.0022153242 -0.059985492 0.07229886 -0.057421856 0.041874558 0.048024844 -0.074914746
0.045026157 0.02667246 6.483612e-05 0.013366523 0.08626967 0.027830863 0.07532884 0.03190505
0.04757651 0.04753559 0.038918883 -0.0014681935 0.07935761 0.027802583 0.01809038 -0.07476746
-0.01697021 -0.025140854 0.042668097 0.075272344 0.036282584 -0.022099525 0.006042992 -0.02958576
-0.01688459 -0.04357059 0.05969534 0.060983974 0.0048397994 0.0013307082 0.002423008 -0.06846176
0.0105704665 -0.022042 -0.0446379 -0.05261903 0.08636206 -0.029095039 0.079518914 -0.053289145
-0.08122157 -0.026516004 0.058295704 -0.06257247 -0.034901705 -0.06442479 -0.03921691 -0.054422032
-0.040916853 0.040320754 0.08270403 -0.05313157 -0.06481753 -0.04317722 0.04040525 0.012304584
-0.02229967 0.013039807 0.041423246 -0.0398829 0.027112627 -0.0044622854 0.007360004 0.027097266
0.046313405 -0.07354996 0.026528278 0.020538885 0.049009554 -0.024140129 -0.007919646 0.01678823
-0.0030151114 -0.06154508 0.052666113 0.041999884 -0.08460716 -0.017070172 0.011094077 -0.06120389
-0.0047995416 -0.051364485 -0.02062703 0.006069213 0.024728548 -0.051286366 -0.048249826 0.0039025198
-0.006301611 0.042865213 -0.03603787 -0.05019976 0.023991298 -0.050523914 0.011184056 0.070265636
-0.037706003 -0.034932867 -0.00516197 0.009543466 0.027857335 0.086800225 -0.051298138 0.011295566
-0.009861896 0.08220572 -0.058687847 -0.06798488 -0.06624772 -0.06780027 -0.019819379 -0.07669711
-0.038391314 0.05060884 0.048460435 0.06642169 -0.036230825 -0.050358742 0.08184679 -0.08253083
-0.07736243 -0.036095534 -0.011816846 -0.06727096 0.05134601 0.058157787 -0.057985865 0.0066424673
0.069185466 -0.026771804 0.052717846 -0.03699236 -0.07178431 0.06685058 -0.06285549 -0.06466678
-0.023893155 -0.0694712 0.0019665724 0.048828643 -0.0708372 -0.010591692 -0.034292117 -0.06645344
-0.006825802 -0.018892594 -0.07679373 0.04088597 0.008880852 0.03696872 0.026569821 -0.07826243
0.073751815 -0.050772686 -0.044305813 -0.03284486 0.04271529 -0.0135963615 -0.060905118 0.05487956
0.028625213 0.026661769 0.044921212 -0.06607455 -0.022966204 -0.007856583 0.036937788 -0.00010083656
-0.012574782 0.06844499 -0.070040084 0.06746308 0.060193863 0.07965833 0.011990617 -0.066070035
0.0014677786 0.05096682 0.05421215 -0.03716483 0.03000186 0.033702735 0.05374068 -0.04660611

weight_function_network.initial_cnn.8.bias f4 [32]
00000000: 83aa 0c3d 0e34 4b3c 679e 02bd a3a2 803d
00000010: e433 79bc 7436 4fbd 0311 f83c f7be 82bd
00000020: 94dd 3f3d 5974 ebbc 8aa4 83bd fc23 1e3d
00000030: 62dd 143d 1afb 6e3d 5579 3c3d 1a41 813b
00000040: b899 aabb 2d09 93bd 62d0 18bd 962f b1bc
00000050: 831d 12bd 6294 71bc 59b1 963d 6fe2 1dbd
00000060: 2c03 0e3d f48e d1bc cd47 8dbd 1d3d 62bd
00000070: 90cc 78bc e4c1 e73c 6785 51bb a762 52bd
0.0343423 0.0124025475 -0.031889345 0.062810205 -0.015210126 -0.05058904 0.03028155 -0.0638408
0.046842173 -0.028742002 -0.06427868 0.038608536 0.03634394 0.058344938 0.04601415 0.0039445283
-0.005206313 -0.071794845 -0.037308104 -0.021629136 -0.035672676 -0.01474485 0.07358045 -0.038546022
0.034670994 -0.02558086 -0.068984605 -0.055234063 -0.01518549 0.028290696 -0.0031970383 -0.051363613

weight_function_network.initial_cnn.9.weight f4 [32]
00000000: 816a 803f 7611 803f 3973 7e3f 6ad5 7f3f
00000010: 24a8 7f3f 4e96 7f3f 68a0 7f3f d929 7f3f
00000020: 04e2 7f3f bfa0 7f3f 5b0a 7f3f b2ee 803f
00000030: 5cee 7d3f a412 803f 24ac 7f3f 7e7a 7e3f
00000040: 71b8 803f 438e 803f 372f 803f 2bdb 7f3f
00000050: 00b2 7f3f fc73 7d3f aebc 7e3f f64a 803f
00000060: c8cb 803f 81a8 803f 07c4 803f d7e9 7e3f
00000070: 4439 7e3f 8777 803f 07f0 7f3f c15f 813f
1.0032502 1.0005329 0.99394566 0.9993502 0.9986594 0.9983872 0.99854136 0.9967323
0.9995425 0.99854654 0.99625176 1.0072844 0.9919183 1.0005689 0.9987204 0.9940566
1.0056287 1.0043415 1.0014409 0.999438 0.9988098 0.99005103 0.9950665 1.0022876
1.0062189 1.0051423 1.0059823 0.9957556 0.9930613 1.0036477 0.9997563 1.0107347

weight_function_network.initial_cnn.9.bias f4 [32]
00000000: 1bee b9bb f03c b3bb 1461 99bb 8275 10bc
00000010: d842 853a c544 703a 175c 86ba 2e4f 2bba
00000020: 2696 2cbb 123a 4338 0346 c4ba 2453 e939
00000030: c96d 5cbc cfa9 15b9 2378 593a 5315 a6bb
00000040: 80ac 643b e88d 9cbb 7299 05bc 8cee 0bba
00000050: 71bb d2bb d890 d7bb 9b74 e8b9 f3ef 49bb
00000060: 26a8 953b 1bb0 4a3b a49c 1e3b 72bf c3bb
00000070: 8e04 16bc e467 903a 254a beba f44a 8d3b
-0.0056741363 -0.005469911 -0.004680762 -0.008817079 0.0010167016 0.0009165521 -0.0010250834 -0.0006534931
-0.0026334613 4.6545705e-05 -0.0014974478 0.00044503168 -0.013453909 -0.00014273006 0.0008295795 -0.00506846
0.0034892857 -0.0047776587 -0.00815426 -0.00053379755 -0.006431036 -0.006578546 -0.00044337366 -0.0030813187
0.004567164 0.003092772 0.0024202252 -0.00597375 -0.009156359 0.001101729 -0.0014517946 0.0043119136

weight_function_network.initial_cnn.9.running_mean f4 [32]
00000000: bd2b 7d3e 7a81 46be 2683 59bd e242 88bd
00000010: e9ba 4abf 4b0e 983e 6a06 183f 92a9 5b3e
00000020: d80a 763f 13a1 03be bfee 6ebe 7d2d e83c
00000030: 654d 033d 7f24 2d3e a4b6 023f 56df 4fbc
00000040: 49ed b4be 07f3 f13d caf0 b0bd df5a 4fbe
00000050: d3a3 ca3e 23da 49be ac65 09bf d90c 8c3e
00000060: e6a8 c63d a1d6 3f3e b473 bbbd b2af d73d
00000070: c5a0 8abd f279 ffbd 4ee7 9cbe 549b fc3d
0.24723716 -0.19385329 -0.05310359 -0.06653382 -0.7919145 0.29698405 0.5938479 0.21451405
0.96110296 -0.12854414 -0.23333262 0.028342003 0.03205623 0.16908453 0.5105994 -0.012687525
-0.35337284 0.11813932 -0.08639677 -0.20249508 0.39578113 -0.19712119 -0.53670764 0.27353552
0.097001836 0.18734218 -0.09152928 0.10531558 -0.067689456 -0.12474431 -0.3064522 0.12334314

weight_function_network.initial_cnn.9.running_var f4 [32]
00000000: 248e 4b3e 2a8c 433e 6b4d 963e 5541 f63d
00000010: 6db8 ad3e aaab 183e 1186 843e 8928 3e3e
00000020: f22d bf3e 1aec 1f3e ab2e 403e 4821 303e
00000030: 163c ec3d d69f cc3d 769d 8b3e f25a b63d
00000040: 01d5 7c3e 7a63 213e edca 243e 5c29 1d3e
00000050: 1724 253e 8278 143e 6509 403e ab72 003e
00000060: 208f dc3d a1ac a53d 78d9 c93d c0ec 453e
00000070: 1780 143e b447 ad3d 8366 b23e 54d5 ac3d
0.19878441 0.19096437 0.2935594 0.1202418 0.33929768 0.14909235 0.25883535 0.1857015
0.3733974 0.1561741 0.18767802 0.17200196 0.11534898 0.09991424 0.2726857 0.08904065
0.2469063 0.15760604 0.16093035 0.15347809 0.16127048 0.14499095 0.18753584 0.12543742
0.107694864 0.08089567 0.09855932 0.19328594 0.14501987 0.08460942 0.34843835 0.084391266

weight_function_network.initial_cnn.11.weight f4 [32, 32, 3, 3]
00000000: cbd5 c23c c65f 41bd e37d 34bd 5db5 e63c
00000010: 489f f6bc 9724 08bd e050 a03c fc48 14bc
00000020: 6b97 003d 78d2 35bd 6c41 9c3c 4be1 80bc
00000030: 3147 31bd dc24 78bd 9f4e 22bd 3fde f23c
00000040: dcf2 04bd d000 b63c e4f3 bb3b 3288 2a3d
00000050: 636c a03c 2aa9 7c3c fca2 a23c 5eec 2e3c
00000060: a1fe 6f3d 8ec4 163d 161f 06bd 7512 50bd
00000070: 90b0 383d e065 033b 93a0 29bd 7dc1 f1bc
00000080: 1de5 62bd ef29 563d c390 06bc 9e7b 56bd
00000090: 5dfe 393c 548b 53bc 66ba 103d 601b 2c3d
000000a0: 68dc ab3c 00db 54bc 6262 143d a0b5 063d
000000b0: acb3 173c 6bd9 883b fc10 193d 8816 90ba
000000c0: 2802 3dbd 87aa ca3c bb92 3abd 86e1 b83c
000000d0: 18cd e43c 3608 dcbc dc98 2a3b b024 c0bc
000000e0: 73ca 8f3b b96b 58bd 0f55 04bd c92f 04bd
000000f0: 5080 a73c dd2a bd3c 0d31 003d f9f9 5f3d
00000100: 83be c1ba fd90 d43c a528 4f3d 5a18 a93b
00000110: 7556 b0bc b517 8e3c 27e5 1dbd ec0b c93c
00000120: 0b18 d3bc dcb8 8a3c 473d d13c f881 383d
00000130: 15ee 4d3c 452a 1dbc 9fae 823c 703b 9e3c
00000140: e167 d03a acd1 453d 9051 d3bc 2e11 0ebc
00000150: 4cfc 1e3d ece7 183b 9fe1 163d 9d33 09bc
00000160: d685 70bd d86c 4fbd 4668 35bb 5265 78bb
00000170: 00a9 d9bb cfe5 fabc dbb8 ef3c 0835 d3bb
00000180: cb02 67bd 11dd b639 b12e 3a3d 918d 8abb
00000190: bb24 8bbc 43fb dbbc 4997 adbb fddf 4cbd
000001a0: 1c61 d23c 9f79 783d c878 293d 744e 3cbb
000001b0: 7bc6 38bc db65 0dbd 0d81 583d 8937 6c3d
000001c0: 796e 52bd 37ae dfbb f1e9 a9bb a976 ef3c
000001d0: 3392 ef3c 791d 203d aec8 c6bc fc07 b43b
000001e0: 2379 e7bc 56c9 f63c 524a 9cbc c1e9 1d3d
000001f0: 7237 2abd 9dbb 5dbd a11b 943b ab6a 30bd
00000200: 883f debc 1566 4fba a021 0c3d 511b 31bc
00000210: a91d 1fbd 05b4 dfbc ea92 343c 032d 55bd
00000220: 10e2 343c 72e6 b3bc c21b 03bd ed4e a7bc
00000230: 4291 223d 819d ba3c 845f 003d e310 a7bc
00000240: ec98 66bd cf12 15bc 0747 543d 48a4 1b3d
00000250: 9d03 29ba 1916 3b3d 9d38 9c3b e099 8bbc
00000260: a711 14bd b277 29bd 02c6 0a3c 9d22 49bd
00000270: a500 12bd 5cf5 eabc eefd 8d3a dfed d73c
00000280: 8883 e1bc e744 d43c 4afa a93c 3d65 583c
00000290: bb19 5bbc 9d19 523d 9f0f 0abd 8b4f 483d
000002a0: 60c7 183d 524f b9ba bca5 593d d1a1 28bd
000002b0: 5f91 bd3c 6763 3cbd 7674 77bd 8912 48bc
000002c0: 2adb a0bb c056 0dbc 99de d93c 0eff ecbb
000002d0: f711 ef3c 27e4 873a cfea 29bd 2978 183d
000002e0: 3713 12bd e064 53bc 5c4d de3c b104 ff3c
000002f0: d52a 613d e301 1f3d 68bf 0f3d d76a bbbc
00000300: a43d 143d 4838 dbbc d354 b7bc 0361 6b3d
00000310: 2f76 243d eda6 723d 444e 543d 87ea e03b
00000320: b177 e43c a23b 743d 0b28 2ebd 9aab 223d
00000330: ab01 dfba f147 de3c b946 e1bc 848e 3d3c
00000340: 6be4 df3c d0b3 9b3c c2f2 89bb d608 d5bc
00000350: 22cf 633d 75f5 103c 65fe 50bd 87cb 56bd
00000360: 09f2 77bd 60fd 353d 9e08 9c3c ef45 ae3c
00000370: 2447 c7bb 929f 8abc 9fa4 ad3c a9a6 ec3c
00000380: 2a81 233d 52ee 72bd 397a b83c 4c21 093d
00000390: 6386 4ebc b70d aebc 799d 38bc 2dee dcbc
000003a0: 19f9 09bd c2cf 853c c3bd 57bd e378 4dbc
000003b0: 8424 343d 2e6f 9f3c 244a 803d 3af2 d03b
000003c0: a4e7 433d 2d77 2ebc 75c1 e53c 11d1 9d3c
000003d0: aaea b2bc f030 3e3b 6a82 953c f661 51bd
000003e0: 8182 e5bc cf13 a03c b259 d8bc 164f fa3c
000003f0: f566 5d3d 2588 c63b bbe9 d4bc fbc9 2bbd
0.023783585 -0.047210477 -0.044065367 0.028162653 -0.030105248 -0.03323802 0.019569814 -0.009050604
0.031394403 -0.04439017 0.019074164 -0.015732428 -0.043280784 -0.060582027 -0.03962576 0.02964699
-0.03245817 0.022217184 0.005735861 0.041633792 0.019582933 0.015421191 0.019853108 0.0106764715
0.058592442 0.036808543 -0.03274449 -0.050798852 0.045090258 0.0020049736 -0.0414129 -0.029511208
-0.05539428 0.052286085 -0.008213225 -0.052363984 0.011352149 -0.012911636 0.035334013 0.042018294
0.020979121 -0.012991667 0.036226638 0.032888055 0.009259146 0.004176309 0.037369713 -0.0010993043
-0.046144634 0.024739517 -0.04555009 0.022568475 0.027929828 -0.026859384 0.0026031053 -0.023454994
0.0043881475 -0.052837107 -0.03230768 -0.032272134 0.020446926 0.023091728 0.03129678 0.054681752
-0.0014781508 0.025948042 0.05057587 0.0051603736 -0.0215256 0.017345289 -0.038548615 0.024541818
-0.0257683 0.016933851 0.025541915 0.045045823 0.01256897 -0.009592597 0.015952406 0.019315451
0.0015900099 0.04829566 -0.025795728 -0.008671088 0.038814828 0.0023331596 0.036836263 -0.008374122
-0.058721386 -0.05064091 -0.002768056 -0.0037902188 -0.006642461 -0.03062716 0.02926295 -0.006445531
-0.056399148 0.00034878452 0.045454685 -0.004228302 -0.016985288 -0.02685321 -0.0052975756 -0.0500183
0.025681071 0.060662862 0.04137495 -0.0028733285 -0.01127779 -0.034520965 0.052857447 0.05767015
-0.051374886 -0.006826188 -0.0051853587 0.029231386 0.029244518 0.039090607 -0.024265613 0.005494116
-0.028256005 0.030125301 -0.019078407 0.038553003 -0.041556783 -0.054134 0.004519895 -0.043070477
-0.027129903 -0.0007911635 0.034211755 -0.010809735 -0.038846646 -0.02730752 0.011021355 -0.05204488
0.011040226 -0.02196047 -0.032008894 -0.020423377 0.03968931 0.022780182 0.03134109 -0.020393794
-0.05629818 -0.009098723 0.05182555 0.037998468 -0.0006447377 0.04567537 0.004767491 -0.017041147
-0.036149647 -0.041373916 0.00847006 -0.049105275 -0.035645146 -0.02868145 0.0010833123 0.026358543
-0.02752854 0.025911761 0.02074923 0.013207731 -0.013372834 0.051293958 -0.033706304 0.048903983
0.037299514 -0.0014138019 0.053136572 -0.041169945 0.023140607 -0.045993235 -0.0604138 -0.01221145
-0.004908939 -0.00862664 0.0265954 -0.0072325533 0.029183371 0.0010367677 -0.041483697 0.03722397
-0.035662856 -0.012902468 0.027136497 0.031130167 0.05497249 0.03882016 0.03509465 -0.022878094
0.036191598 -0.026760235 -0.022379315 0.057465564 0.04015177 0.059241224 0.051832452 0.0068638953
0.027889105 0.059627183 -0.042518657 0.039714433 -0.0017014047 0.027133914 -0.027499544 0.011569623
0.027330598 0.01900664 -0.004209847 -0.02600519 0.05561746 0.008847584 -0.05102386 -0.052440193
-0.060533557 0.04443109 0.019047078 0.021273581 -0.0060814787 -0.016921792 0.021196662 0.028888064
0.039918102 -0.05930931 0.022519218 0.03347902 -0.0126052825 -0.021246774 -0.011268013 -0.02696904
-0.033684824 0.016334418 -0.052671205 -0.012541029 0.043980137 0.019462194 0.06264141 0.006376532
0.04782833 -0.010648531 0.028046349 0.01926473 -0.021840412 0.0029020868 0.018250663 -0.051118813
-0.02801633 0.019540695 -0.026409958 0.03055529 0.054053266 0.00605871 -0.025990358 -0.04194067

weight_function_network.initial_cnn.11.bias f4 [32]
00000000: 2583 593c 2044 f3bc 1efd 7d3c 0edb 583d
00000010: 7a7e 2abc a759 02bd a9b3 8d3b d54b 93ba
00000020: 2bfd b3bb bac7 63bc eab7 99bb 1df0 0dbc
00000030: 71ec b43c baed 25bd ed5a 983c 5be1 46bd
00000040: b0ce 7dbc cad7 303d 2ed1 483d 5bad 5dbd
00000050: 2c80 ae3b f667 f93c fa02 49bc f758 b0bb
00000060: 2530 1abd 0554 143d 2b6a 59bb d81c 5ebc
00000070: a7db d73c c199 683d 98f1 22bc 3c7a 21bb
0.013275896 -0.02969557 0.015502242 0.05294328 -0.010406131 -0.03182378 0.0043243957 -0.001123781
-0.0054928265 -0.013902599 -0.0046911137 -0.0086632045 0.0220854 -0.040509917 0.018598044 -0.04855476
-0.015491173 0.043174542 0.049027614 -0.054120403 0.005325338 0.03044508 -0.012268776 -0.005381699
-0.03764357 0.03621294 -0.0033174853 -0.013556682 0.026349856 0.056787256 -0.009945296 -0.0024639508

weight_function_network.initial_cnn.12.weight f4 [32]
00000000: 2aea 7f3f cedd 7e3f cdc1 7f3f 28e8 7f3f
00000010: 6cdd 7f3f 5cb8 7e3f 2623 7f3f e2a6 7f3f
00000020: 1907 803f 917a 7f3f 746f 803f eb12 803f
00000030: de60 803f 1c95 7e3f c9be 803f cb52 7e3f
00000040: 620e 813f 4e62 803f 3e1d 803f 7b87 803f
00000050: ce01 7e3f 02c1 7f3f ff25 803f af63 803f
00000060: 1d68 7e3f 4fd8 803f b41b 7f3f d321 803f
00000070: 2e49 803f 8c27 7f3f bb38 7f3f dfa7 803f
0.9996668 0.995572 0.9990509 0.9996362 0.9994724 0.9950006 0.9966301 0.9986402
1.0002166 0.99796396 1.0034013 1.0005773 1.0029562 0.9944627 1.0058223 0.9934508
1.0082514 1.003 1.0008924 1.0041345 0.99221504 0.9990388 1.0011595 1.0030421
0.99377614 1.0066012 0.99651647 1.0010322 1.0022333 0.9966972 0.9969594 1.005123

weight_function_network.initial_cnn.12.bias f4 [32]
00000000: fc1d fcb9 47c7 e6b9 a126 8dbb 8ff4 b4ba
00000010: 7466 15bb c961 e7bb 1bd2 883a 3a0a cc39
00000020: 4d89 68bb babb 58bb d977 593a 55a0 af39
00000030: 2605 bf3b 6f5c 313a a440 033c ae2f 9abb
00000040: b426 e73a 1da7 3d3b 988a df39 f666 2bbb
00000050: 3a0e dfbb 6de0 063b ca73 e7ba 8498 0dba
00000060: de68 b5ba 7bc3 81ba eef1 bd3a 22c1 323b
00000070: 4323 69b9 a49e 0abc e217 00bb ac95 e4ba
-0.00048087526 -0.00044017492 -0.0043075834 -0.0013805794 -0.0022796663 -0.0070612174 0.0010438593 0.00038917531
-0.0035482228 -0.0033070878 0.0008295752 0.00033498058 0.005829471 0.0006765788 0.008011017 -0.004705391
0.0017635436 0.0028938719 0.00042637135 -0.0026153899 -0.006807116 0.0020580546 -0.0017658409 -0.000540145
-0.0013840457 -0.0009900177 0.0014491656 0.002727576 -0.00022233748 -0.008460674 -0.0019545485 -0.0017439625

weight_function_network.initial_cnn.12.running_mean f4 [32]
00000000: c17f 763d 3606 3f3e 2db3 983e 3a11 853e
00000010: 89f1 093d 244f 80be 14ed 4e3e 5f46 29be
00000020: ef74 c7be 1055 9a3e b14e 46be 97ce 463e
00000030: 17f1 7e3e 7d01 95be cf73 3e3e 4f80 dc3d
00000040: 04cd 173e 2158 bf3e 2acd 7a3d df52 43be
00000050: 4fed 2ebe 4c15 553e 0613 7abe 2738 003e
00000060: 7450 b6bd 068c e13c ea19 90bc 4e08 b2bd
00000070: 618a 85be 8fef dd3d 76e9 e3bd b4bb 91bd
0.06018043 0.18654713 0.298242 0.25989705 0.03367761 -0.2506038 0.20207626 -0.1653075
-0.389564 0.30143023 -0.19365956 0.19414745 0.24896656 -0.29102698 0.18598865 0.107666604
0.14824301 0.37371925 0.061230816 -0.19074582 -0.17082714 0.20808905 -0.2442132 0.1252142
-0.08902064 0.027532589 -0.017590482 -0.0869299 -0.26082137 0.10836708 -0.111285135 -0.0711588

weight_function_network.initial_cnn.12.running_var f4 [32]
00000000: a3d9 083e 1006 323e 901a 143e ce21 db3d
00000010: 3b36 f23d 7eeb b53d 0c49 793d d851 da3d
00000020: accd 053e 79ba e53d fe20 783d 2c06 0f3e
00000030: f9a2 093e 150e 9e3d c930 e43d 0c99 fa3d
00000040: c90d d53d dbcb 023e 7822 9d3d a98e 953d
00000050: e12b c03d 002c f83d 2bcc da3d dbb2 bf3d
00000060: 76e3 ca3d b258 9b3d 20c8 a83d bcef cf3d
00000070: b207 933d 18bb 133e ce7c b43d a5ff 163e
0.13364272 0.17385125 0.14463258 0.10699807 0.1182675 0.08882807 0.06086068 0.10660142
0.13066739 0.112172075 0.06057834 0.13967198 0.13441075 0.0771753 0.111421175 0.122362226
0.1040302 0.12773077 0.0767259 0.07302601 0.09383369 0.12117767 0.10683473 0.09360286
0.09906666 0.07585277 0.08241296 0.101531476 0.07179202 0.1442684 0.08812867 0.14745958

weight_function_network.adaptive_layer.1.weight f4 [64, 32, 3, 3]
00000000: ebf1 24bd 5a3e 36bd 3d98 213d 5846 c3bc
00000010: 744c 443d eb9d 2a3d 2b87 df3c c78c 41bd
00000020: b7e6 403d 31b3 05bd 2f4b bebc 64f9 fa3a
00000030: 8cf1 b23c 837a 3fbd ed17 28bc c023 fa3c
00000040: d1f6 05bb 00ea 433d 92f3 1b3d 14a2 45bc
00000050: 9efe 5dbb fb75 043c 64a1 67bd 3007 2b3c
00000060: d258 933c f0f7 5bbd 4b73 8fbc 0bea 3a3d
00000070: fc34 db3c 62b6 87bc 2122 74bc f972 723d
00000080: e798 25bc 2289 713d 3b2e 5e3d 0bce 413c
00000090: 9f8c 03bd e636 b8bc bff1 ec3c 1764 253b
000000a0: 39fc 2dbd a656 933c 5737 203d 8b55 9bbb
000000b0: cb28 e23b 1a0a 293d 2876 033d f672 193c
000000c0: 49b3 32bd c554 b73a ed4c e7bb 746d 1f3d
000000d0: 5a95 5e3c 2d47 4dbc adc5 2f3d b255 49bc
000000e0: 19bd 483d 9de5 74bb ff15 a93c 0bb5 0bbc
000000f0: 42f3 063d d58b 4cbc d70a 183d 374f 063d
00000100: cecd 113d ade3 6abc 0f5c 613d ca10 1e3d
00000110: b308 8cbc 93d1 9f3b 8b01 473b 285b f23c
00000120: ccc5 513d fd47 d7bc adfd adbc e4ce 483c
00000130: 20bc 933b 81b4 483c ac75 23bd f252 bfbb
00000140: cdd6 af3b f900 023d 1f49 3f3d e101 2d3d
00000150: 9459 853c b6a4 e53c 06ec 763c 9028 3f3d
00000160: a9d0 ea3c 2af7 1f3d 8b2c cfbb f997 c23c
00000170: 55f4 8a3b fb32 da3c 8856 92bc 2820 38bc
00000180: 415d 66bd 324e 42bd c6e2 be3c b9e3 40bd
00000190: a66c 66bc 2f9c 6b3d 39bd 383d 290b f3bc
000001a0: d9d6 d63c e11e 033d d0eb 9dbc a984 1639
000001b0: b419 15bd e71f 733d d5d4 26bd 35d4 603c
000001c0: ccee 223d e825 493c 3d5e 583d e066 71bd
000001d0: 3240 e7bc 3e4c bfbc 4139 363d fff1 403d
000001e0: df20 363c 7687 28bd 80fd 74bd 9269 2a3d
000001f0: f6b6 2bbd 1a78 35bd 1f33 0abd 618d edbb
00000200: 4650 653d 6794 623c 8fd1 23bd c101 16bd
00000210: 886b 9cbc 5976 6b3d a835 58bd 25d9 12bc
00000220: 0152 043d b3c8 2b3c 89c1 13bd f4ad 1f3a
00000230: 6735 713d dbf0 e1bc fe28 ce3c 47bd dbbc
00000240: f2cb 433d 468b 77bc 8a18 41bc a33b 6a3d
00000250: 91f5 873b b3e7 e03c 3a7c 103d bf15 033d
00000260: 4654 303d f804 40bd 708d e73b 4844 6a3c
00000270: 3142 aa39 428c 763c 7e8c 273c 61c5 073d
00000280: e7b5 ec3c 19ba b63c b9f8 603c 1e4c 593d
00000290: 090c 413a ef7a 11bc 8136 ecbb b917 2a3c
000002a0: 722f ebbc 1fa2 3b3d d5f6 3fbd 3225 1fbb
000002b0: 0b43 6f3c c8f1 16bd 5631 0d3d 313e dcba
000002c0: 28ac 2abd 9d83 44bd 8ae8 2cbd dae8 983b
000002d0: f18c 51bd 15c3 213d c3f7 c03c 654e d53c
000002e0: b4b8 e93c 40c7 373c ef98 5ebd 66d2 78bd
000002f0: 4a0e 33bc 43c4 8cbc 42a4 34bb 0ea8 35bd
00000300: d56d 05bd 4970 293d 4a99 efbc ac6e e53c
00000310: 011d 743d 1e29 603d de21 193d f152 0bbd
00000320: 2e2e de3c 166d aabc 8b40 e8bb c050 14bd
00000330: c7b7 4c3d 4c52 f63c cc88 363d 1740 483d
00000340: 4d95 96bc adfa 533d 6eef 5abd b204 9e3c
00000350: 2297 35bb 7c21 193c 1358 493d 7d0e 33ba
00000360: 7255 1cbd 1551 e7bb d88f 4f3d 5948 953c
00000370: 62c7 b6bb a85b d7bc c089 58bc 6085 3f3d
00000380: 4fe5 6d3d 21ab 413d 9c09 f83c 2516 b53b
00000390: 9283 44bd fc50 173d 7602 d53c b8bd aa3c
000003a0: b769 33bd 5cda 70bd 5544 24bd 98c0 c33c
000003b0: 0fd8 9c3c 6613 d23c 6d4f 833c 42b4 86bc
000003c0: 3774 3e3d 2d0f 503d 3ef7 003d 817b 6b3d
000003d0: e762 173c c576 503d 07b6 03bd f32a 38bc
000003e0: cc18 5ebc 33f0 253c dd64 06bd e844 5d3d
000003f0: ddd2 88bc fcd0 4fbd 1309 573d 1c4b 033d
-0.040269773 -0.044493057 0.039451826 -0.023837253 0.047924474 0.04165451 0.027286133 -0.047253396
0.047095027 -0.032641593 -0.02322921 0.001914781 0.021843694 -0.046747696 -0.010259611 0.030534625
-0.0020441303 0.04783058 0.038074084 -0.012062568 -0.0033873687 0.008084769 -0.0565504 0.010438725
0.017986689 -0.05370325 -0.01751103 0.045633357 0.026758663 -0.01656646 -0.014900715 0.059191678
-0.010107256 0.05896867 0.054243308 0.01182891 -0.03211653 -0.022487115 0.028923867 0.002523666
-0.042476866 0.017985653 0.039115276 -0.004740422 0.0069018356 0.0412694 0.032095104 0.009365788
-0.04362801 0.0013987055 -0.007058731 0.038922742 0.013585413 -0.012529177 0.042913128 -0.012288498
0.049008463 -0.0037368305 0.020640371 -0.008527051 0.032946832 -0.01248451 0.037119713 0.03279039
0.03559666 -0.014336509 0.055019435 0.03859023 -0.017093992 0.004877278 0.003036591 0.029584482
0.051214024 -0.026279444 -0.021239126 0.012256358 0.00450851 0.012250067 -0.039907143 -0.0058387453
0.0053661824 0.03173921 0.046700593 0.04223812 0.016278066 0.028032642 0.015070921 0.046669543
0.02866395 0.039054073 -0.0063224486 0.023754107 0.0042405524 0.026635638 -0.017863527 -0.011238135
-0.056241278 -0.047437854 0.023301493 -0.047092173 -0.01406399 0.057521995 0.04510233 -0.029668408
0.026225494 0.03201187 -0.019277483 0.00014354535 -0.036401466 0.059356596 -0.040730316 0.013722469
0.039778516 0.012277104 0.052824248 -0.058936 -0.028228853 -0.023351785 0.044488195 0.047105785
0.0111162355 -0.04114481 -0.05981207 0.041604586 -0.041922532 -0.04430399 -0.03374016 -0.0072495197
0.055984758 0.013829327 -0.039994773 -0.036622766 -0.019094244 0.057485912 -0.052785546 -0.008962904
0.032304768 0.010484862 -0.03607324 0.00060912897 0.05888882 -0.02758067 0.025166031 -0.026823653
0.04780192 -0.015108889 -0.011785636 0.05718578 0.004149147 0.027454233 0.03527472 0.03200316
0.04304912 -0.04687974 0.007066421 0.014298506 0.00032474243 0.0150480885 0.010226367 0.03314722
0.028895332 0.022305535 0.013731175 0.053051107 0.0007364159 -0.008879407 -0.007208646 0.0103816325
-0.028709147 0.045808908 -0.046866257 -0.0024283645 0.014603387 -0.036851674 0.03447088 -0.0016803202
-0.041668087 -0.04797708 -0.042213954 0.00466643 -0.051159803 0.039492685 0.023555642 0.026038358
0.028530456 0.0112169385 -0.054345068 -0.060747527 -0.0109287 -0.017183429 -0.0027563726 -0.044349723
-0.032575447 0.04136685 -0.029247899 0.028006874 0.059597973 0.054726712 0.037385814 -0.034014646
0.02712163 -0.02080397 -0.0070877722 -0.03620982 0.04997995 0.03006854 0.044564053 0.048889246
-0.018381739 0.051752735 -0.053450994 0.019289348 -0.002770849 0.009346362 0.04915626 -0.0006830467
-0.038167424 -0.0070592263 0.05067429 0.018222975 -0.0055779675 -0.026288822 -0.013216436 0.046758056
0.058080014 0.047282342 0.03027802 0.0055263215 -0.047977038 0.036942467 0.02600215 0.020842418
-0.04380199 -0.058801994 -0.04010423 0.023895547 0.019145994 0.025644016 0.016029084 -0.016443375
0.04649755 0.050795723 0.03148579 0.05749083 0.009239889 0.050894517 -0.032156017 -0.011240709
-0.013555717 0.010128069 -0.032811034 0.054020792 -0.01670211 -0.050736412 0.05249889 0.03205405

weight_function_network.adaptive_layer.1.bias f4 [64]
00000000: 4876 62bd 74f9 32bd 290f 3d3c a3b3 5dbd
00000010: 7028 bf3b cc50 28bc 8fd3 59bc 61be 323d
00000020: 1e40 8d3c 9c19 3f3d 8994 d2bc 52df 61bc
00000030: 0c1a 443d be19 5cbd 780f 423d 6dad 4ebd
00000040: 8827 103d 6890 58bd 3ff0 383d 479a 05bd
00000050: 5418 45bd e945 653d c71e 3e3b 3873 573d
00000060: 85d9 413d d9f7 c23c 5be7 2d3b d712 513d
00000070: 72f6 db3c e340 86bc 0b9b 003d 71be 50bc
00000080: d945 8f3c e147 b23c efaa 883b e4bb 02bd
00000090: 079a f23c 0c79 e03c 3050 643d b4b4 66bd
000000a0: 0ae3 3ebd d28f 51bd 179f e93c 6149 313c
000000b0: ec31 f2bc 0622 37bd 9eb2 3fbd 0749 ecbc
000000c0: 5acd 57bc f802 d3b9 bf2c 55bd b512 b03c
000000d0: 66b6 83bc 4f3c 443d 5752 48bd cf94 06bd
000000e0: 7b20 213d a31a 1b3c c02f 183d 4164 383d
000000f0: 7c3a 453d 328b a0bc e2d2 27bd 7d12 fd3b
-0.055288583 -0.04369493 0.011539259 -0.054126393 0.005833678 -0.01027317 -0.013295068 0.04363859
0.017242488 0.046655282 -0.025705593 -0.013786154 0.047876403 -0.053735487 0.047378033 -0.05045836
0.03519395 -0.05287209 0.04515099 -0.032617833 -0.048118904 0.055974875 0.0029010044 0.052600116
0.047326583 0.023799824 0.0026535604 0.051043358 0.026850913 -0.016388362 0.03139786 -0.012740717
0.01748936 0.02176279 0.0041707675 -0.031917468 0.029614462 0.02740147 0.055740535 -0.056324676
-0.04660324 -0.05116255 0.028518243 0.010820718 -0.02956482 -0.04471018 -0.046801202 -0.028843416
-0.013171518 -0.00040247268 -0.052044626 0.021493295 -0.016078185 0.047909077 -0.04890665 -0.03285676
0.039337616 0.0094668 0.037154913 0.045017485 0.04815148 -0.019597623 -0.040972598 0.0077231512

weight_function_network.adaptive_layer.2.weight f4 [64]
00000000: da5d 803f ef19 7e3f e832 803f b616 803f
00000010: 0bef 7f3f 6215 803f 441f 7f3f 4772 7f3f
00000020: 3c73 7f3f 3fa1 7e3f 4429 7f3f 7cb1 7f3f
00000030: ed62 7f3f 3dea 7f3f eac5 7f3f 570a 7f3f
00000040: 48a3 803f eba4 7f3f e1df 7f3f 15dc 7e3f
00000050: 623b 803f 0cd2 803f a32b 803f e2b6 803f
00000060: ca2b 803f e226 803f a717 803f ec51 803f
00000070: c723 803f 6432 803f 7240 803f 6204 813f
00000080: 694f 7f3f 7cbf 7e3f 2a14 803f f630 803f
00000090: 8f2b 7f3f 2df8 7e3f 6d51 803f a5f0 7f3f
000000a0: 1806 7f3f 231f 7f3f 5ed0 803f b301 7f3f
000000b0: 1e56 7e3f 973f 803f c3f3 7f3f 7b1f 803f
000000c0: 6710 803f 31d1 7f3f aa30 7f3f 6a39 803f
000000d0: 8b8d 7f3f 04f1 7e3f 3476 803f 93a4 803f
000000e0: 6919 803f fc0d 803f 38b4 7e3f 8c97 7e3f
000000f0: 81b0 7e3f fcec 7e3f 5995 803f 379a 7f3f
1.0028641 0.9925832 1.0015535 1.0006931 0.99974126 1.0006526 0.9965708 0.9978375
0.9978521 0.9946479 0.9967234 0.99880195 0.99760324 0.99966794 0.9991137 0.9962515
1.004983 0.9986102 0.9995099 0.9955457 1.0018122 1.0064101 1.0013317 1.0055811
1.0013363 1.0011866 1.0007218 1.0025 1.0010918 1.0015378 1.0019667 1.0079463
0.99730545 0.9951093 1.0006154 1.0014942 0.9967584 0.99597436 1.0024849 0.9997657
0.99618673 0.99656886 1.0063589 0.9961197 0.99350154 1.0019406 0.99981326 1.0009607
1.0005006 0.99928576 0.9968363 1.0017521 0.9982535 0.9958651 1.0036073 1.0050224
1.0007755 1.0004268 0.9949374 0.9944999 0.99488074 0.9958036 1.0045577 0.9984469

weight_function_network.adaptive_layer.2.bias f4 [64]
00000000: a320 de39 7f42 49ba 3204 12bb 305c 8d3b
00000010: e190 e8bb d1dd f9ba 250e 21bb dbf9 2cbb
00000020: bb68 22ba 5968 26bb 33c5 dcbb 14a1 efba
00000030: 410b 8e3b cd0d 773b f44b e5ba 6b9f 703b
00000040: 87ae d83b ce65 8bba adee e5ba 5fab 6738
00000050: 9777 e33b 89f4 47ba 2a18 6dbb 2c8a 003c
00000060: d3a4 493b b654 f0ba 7829 a3ba afa5 3fba
00000070: 55f8 853a 8482 b1ba 08f8 2dbb 7496 213c
00000080: c357 a6b9 05a7 d5bb 73f0 c939 ed38 8d3b
00000090: 573d 81ba 5501 b9b9 434a 2a3b 66b3 283b
000000a0: 05e8 33ba 0ed2 d5bb e6bd 283b 5d24 fcbb
000000b0: 93c3 88bb efcd cc3a 52aa 16bb ccc9 a2ba
000000c0: 59d4 533a e3b7 1aba 7761 5ebb 4a3e 4a3b
000000d0: db69 1fbc 4b5d 193a a1a4 79ba 418d 953b
000000e0: f3b6 c238 9e43 03bb 6ae1 e2bb 9a5f 74ba
000000f0: a68c dcb9 4329 46bb dd95 9f3a ad14 3c3b
0.00042367456 -0.000767745 -0.0022280333 0.004313968 -0.007097349 -0.0019063299 -0.0024575081 -0.0026394043
-0.00061954156 -0.0025391786 -0.006737375 -0.0018282258 0.0043348377 0.0037697435 -0.0017493949 0.0036716114
0.006612602 -0.0010635199 -0.0017542444 5.5234294e-05 0.0069417465 -0.0007627686 -0.0036177733 0.007845443
0.003076841 -0.0018335793 -0.0012448272 -0.00073107606 0.0010221103 -0.0013542925 -0.0026545543 0.009862531
-0.00031727375 -0.0065201544 0.00038516856 0.0043097646 -0.00098602 -0.00035286942 0.0025984205 0.0025741695
-0.0006862882 -0.0065252846 0.0025747954 -0.0076947645 -0.004173705 0.0015625338 -0.0022989702 -0.0012419759
0.00080806535 -0.0005902035 -0.0033932605 0.003085988 -0.009729828 0.00058503886 -0.0009523128 0.004563958
9.284718e-05 -0.0020029317 -0.006923844 -0.0009322107 -0.0004206646 -0.0030236996 0.00121754 0.0028698847

weight_function_network.adaptive_layer.2.running_mean f4 [64]
00000000: 390a 003f e809 a3bb 372a d23e eacb af3e
00000010: 91ad acbe 4f67 b03d 1eeb 91be f3e1 82bc
00000020: 7877 36bd daff 09bc eb12 7e3c 3247 863e
00000030: 6fec 873e 2848 493e 6327 9dbe 4bb8 633e
00000040: e633 e93e fc16 79bd 4556 76bc 1b5c 16be
00000050: ed02 9d3e aaed cfbe 0718 5ebe 9ebc 1c3f
00000060: 5394 bcbe 0794 833d d446 2e3e f51f 11be
00000070: 621b 5fbd 9802 2bbe 9625 023e bbbb fa3d
00000080: 7227 343e 4f51 b83d ccbc 10be e75b 003e
00000090: 43ee e7bd 3b01 f5be a5db 1ebe 79bf 42be
000000a0: 3b94 dcbd 6302 91be 6464 ebbd b265 cebe
000000b0: c0ac 12be 2fd7 0a3e c2d4 c13e 3010 5d3e
000000c0: 6022 5ebe 627a 5fbe 3562 c43d 690b 843d
000000d0: d90b b83e fde4 053d 6e5b 8dbd 5395 393e
000000e0: f1cb a7bd 8d2c 233e 4710 1ebd d9a3 d23d
000000f0: ddd2 38bf aa95 d3be 7f20 0abe 2103 a93d
0.500156 -0.004975546 0.41047832 0.34335262 -0.3372617 0.086134546 -0.28499693 -0.015976882
-0.044547528 -0.008422816 0.01550744 0.26226193 0.26547572 0.19656432 -0.30694112 0.22238271
0.45547408 -0.060812935 -0.015035217 -0.14683573 0.30666295 -0.4061101 -0.21688853 0.61225307
-0.36831912 0.06424718 0.17019206 -0.14172347 -0.054469474 -0.16700208 0.1270965 0.12242838
0.17593172 0.089998834 -0.1413452 0.12535058 -0.11324742 -0.478525 -0.15513475 -0.19018354
-0.1077046 -0.28322133 -0.11493757 -0.40311962 -0.14323711 0.13558649 0.37857634 0.21588206
-0.216928 -0.21824029 0.09589044 0.06447489 0.3594654 0.032689083 -0.069022045 0.18123369
-0.081931956 0.15934964 -0.038589742 0.10285158 -0.7219675 -0.41325122 -0.13488959 0.0825255

weight_function_network.adaptive_layer.2.running_var f4 [64]
00000000: 5001 733e 2698 ec3d 2470 473e 15bc 353e
00000010: 9f10 093e d3f6 313e 14f3 d23d 4274 df3d
00000020: c265 fe3d 4144 cb3d c431 d53d 278f 283e
00000030: d8af ca3d 97f7 d33d 9b5d b23d 06fd 3f3e
00000040: de7c 833e 85ca 6a3d 5097 033e 535d 0e3e
00000050: d346 273e ebd2 da3d 3577 a93d fce7 193e
00000060: fb3e 163e 0bd2 653d 5394 ca3d 3e62 f13d
00000070: a9fe a63d 381e f03d 038f c63d a917 e33d
00000080: f2c7 e13d c3f9 bf3d 809d 233e 4b04 da3d
00000090: 8717 b43d 013b 363e 378a e83d 4eeb db3d
000000a0: 1c69 0a3e 14ec cd3d fcd8 883d 597d e13d
000000b0: f30c 153e ace8 1c3e 24aa 533e 1132 193e
000000c0: 286e b93d 3567 153e 9174 0c3e 9699 e83d
000000d0: c754 5e3e 4f3d c83d e4a9 873d e795 b93d
000000e0: c4e4 9d3d b318 c73d 9359 e43d 0b82 d53d
000000f0: b256 aa3e fbf0 143e aef2 093e 7bf7 d73d
0.2373097 0.115524575 0.19476372 0.17747529 0.13385247 0.17379312 0.1030027 0.10910846
0.124217525 0.09925128 0.10409883 0.16460858 0.09896821 0.103499584 0.0870926 0.18748865
0.25681204 0.057322044 0.1285069 0.13902788 0.16335611 0.10684761 0.0827469 0.15029901
0.14672463 0.056108516 0.09891572 0.11786316 0.08154041 0.11724514 0.09695246 0.11088497
0.11024465 0.0937381 0.1597805 0.1064535 0.0879355 0.17795946 0.113544874 0.1073824
0.13516659 0.10054794 0.066820115 0.11010236 0.14555721 0.15323132 0.20670372 0.14960505
0.09054214 0.14590152 0.13716342 0.11357419 0.21712027 0.09777319 0.06624201 0.09061795
0.07709649 0.09721508 0.111498974 0.10425194 0.33269268 0.14545052 0.13471481 0.1054525
