logs/测试initial_cnn_arg结构pooling结构带来的影响/weight_network.AdaptiveCNN.initial_cnn_arg.pooling_model=avgmodel.lr=0.0001/test_model_20250425_172159.pth (torch, 840675 bytes, 78 tensors)

weight_function_network.initial_cnn.0.weight f4 [8, 1, 3, 3]
000000 90 a1 52 3e d8 c9 af bd f7 bd f5 bd 04 50 c7 bd
       0.20569444 -0.085834205 -0.119991235 -0.09732059
000010 e2 a0 50 be 72 16 e3 3d 44 ab 8f bd 1a 9a a8 3c
       -0.20373872 0.110882655 -0.07015088 0.020581294
000020 4a c9 79 be 37 1c 84 bd 59 7d ab bd 35 22 11 be
       -0.24393192 -0.06450694 -0.083735175 -0.14173205
000030 e0 f3 95 be 2b 43 8a 3e 0a c2 65 be 7a dd 84 3e
       -0.29287624 0.2700437 -0.22437301 0.25950223
000040 48 78 4a bd 93 8f 1c be 69 99 56 3e e6 2f 33 3e
       -0.049431115 -0.15289144 0.20956959 0.1749874
000050 43 43 73 be 52 81 0d 3e cf a4 53 be 98 dc 1b 3e
       -0.23756127 0.13818863 -0.20668338 0.15220869
000060 ed c4 f8 bd 35 4f 47 be a9 7a 87 be f3 b2 6c bd
       -0.121469356 -0.19463809 -0.2646077 -0.057787847
000070 67 28 a3 bd b3 75 b6 bd 57 a6 09 3d 5b 4a 67 be
       -0.079666905 -0.08909168 0.0336059 -0.22586958
000080 1b 61 9d 3e f0 8a ab 3d c0 7c 3b 3e 7e 58 f4 3d
       0.30738148 0.083761096 0.18309307 0.11930941
000090 20 8e 44 be 78 51 93 be f8 e6 58 be 36 af f3 3d
       -0.19194841 -0.28773093 -0.21181858 0.11898653
0000a0 56 6c 90 3e e7 03 99 bd 93 8a 98 be dd 22 65 be
       0.28207654 -0.074714474 -0.29793224 -0.2237658
0000b0 35 5d 45 be 12 e9 74 be cb 8a 40 be 0f 23 9f be
       -0.19273837 -0.23917034 -0.18802945 -0.31081435
0000c0 fe ac a3 3d e0 d4 81 be 65 6f a6 3e cc e9 3d be
       0.0799198 -0.25357723 0.32506862 -0.18546218
0000d0 88 9a 57 3e 21 bd 88 bc 6d 5a 86 be 64 fc 40 3e
       0.21055043 -0.016691746 -0.26240864 0.1884628
0000e0 8f d5 a0 3e 0d e1 3f 3c bc be 95 3e 04 8e 5a 3e
       0.31412932 0.011711371 0.2924708 0.21343237
0000f0 e2 bf c4 3d 54 57 75 be 56 0e 80 3e e4 66 f9 bd
       0.09606911 -0.23959094 0.25010937 -0.12177828
000100 78 46 22 3e 08 0e 16 be cc 71 c3 3c 55 90 97 be
       0.15847194 -0.1465379 0.023857974 -0.29602304
000110 e4 ff 92 3d b1 4b 0a 3e 31 2b 61 3e cb d3 77 be
       0.071777135 0.13505436 0.21989132 -0.24201886

weight_function_network.initial_cnn.0.bias f4 [8]
000000 3b d3 85 be 09 90 26 3e 19 73 23 bd cc 01 39 be
       -0.2613772 0.16265883 -0.039904688 -0.18067092
000010 c6 32 2f 3e fd af 14 bd 8a 2f 44 3e 1e 86 6b 3e
       0.17109212 -0.036300648 0.1915876 0.2300038

weight_function_network.initial_cnn.1.weight f4 [8]
000000 27 7f 80 3f 74 26 7f 3f d0 16 80 3f 3b c6 80 3f
       1.0038804 0.9966805 1.0006962 1.0060495
000010 23 4c 7d 3f 51 70 80 3f 33 a6 80 3f 79 04 7f 3f
       0.989443 1.0034276 1.005072 0.996162

weight_function_network.initial_cnn.1.bias f4 [8]
000000 98 4f dc bb a9 ed a8 bb cb 87 b3 bb c4 88 22 bc
       -0.0067233555 -0.0051552844 -0.0054788343 -0.009920303
000010 6a 3c a3 bc c8 b5 57 3c 73 0f b2 bb 1d 9a 53 39
       -0.019926269 0.013165899 -0.0054339706 0.0002017994

weight_function_network.initial_cnn.1.running_mean f4 [8]
000000 44 d6 f3 be c5 98 4d bd b5 19 48 be 9d 66 70 bd
       -0.4762441 -0.05019452 -0.19541056 -0.05869161
000010 18 9c 9d be 7a f8 95 be de 39 13 3f 1e 22 12 3e
       -0.30783153 -0.29291135 0.57510173 0.14270827

weight_function_network.initial_cnn.1.running_var f4 [8]
000000 d8 42 22 3d 06 e7 20 3d ab d2 ef 3c 6d 7a 8a 3c
       0.03961453 0.03928282 0.029275259 0.01690408
000010 8f 40 36 3e 80 e5 73 3d f6 f6 04 3e 6b b0 09 3c
       0.17798065 0.05954504 0.12984833 0.008403878

weight_function_network.initial_cnn.4.weight f4 [16, 8, 3, 3]
000000 26 30 da bd dd 3f 5d bc 9b 41 81 bc 6d 8d f1 3d
       -0.10653715 -0.013503996 -0.015778353 0.11794553
000010 15 41 d9 3c ff 18 72 bd c3 c5 23 3d 29 4d bd 3d
       0.026520291 -0.05910587 0.039983522 0.09243233
000020 eb 0a 9e bc 76 00 53 bc 61 e8 37 3d ed 08 3d 3d
       -0.019292315 -0.012878528 0.04489935 0.04615109
000030 42 2b 06 bd da 9a b2 3d 1f d7 d1 bd 87 8a b7 bd
       -0.032756098 0.08720942 -0.10246109 -0.08961969
000040 79 a2 80 3d a7 8b 4e 3d 81 cd aa bd 2a 8e 84 bc
       0.06280989 0.05042615 -0.08339978 -0.01618107
000050 fa 7f fd bd 21 e9 c1 3d 6a 15 aa bd 9a af d0 bd
       -0.12377925 0.09468294 -0.08304866 -0.10189743
000060 07 01 82 b9 42 a5 21 3d 74 19 87 bd b2 a7 b4 bd
       -0.00024796298 0.039464243 -0.06596652 -0.08821048
000070 2a 2b 8d 3c 27 f6 3e bc 89 16 a7 bd 50 08 ed 3a
       0.017232496 -0.011655367 -0.08158595 0.0018084142
000080 63 08 9b bd df 26 a1 bd 60 71 19 bd 72 93 1d bd
       -0.07569959 -0.07868742 -0.03746164 -0.038470693
000090 03 36 d0 bd 21 b4 e0 3d 49 26 c0 3c ff 87 da 3c
       -0.10166552 0.10971857 0.023455756 0.026676176
0000a0 f8 e2 58 bd 74 f2 46 bd 68 2e ed 3d af ee f0 3d
       -0.05295083 -0.048571065 0.11581117 0.11764275
0000b0 6c 4d 09 bb 79 78 bb 3d 34 69 e9 3d 38 c1 ae bc
       -0.0020950688 0.09153838 0.11397019 -0.021332368
0000c0 79 34 2a bc 20 76 f9 bc e8 97 84 bd 91 49 ab bd
       -0.010388487 -0.030451834 -0.06474286 -0.08363641
0000d0 6b c4 01 bc 8c 60 92 bd e6 da 72 bd 29 db 0a bd
       -0.007920365 -0.07147321 -0.05929079 -0.033900414
0000e0 50 91 25 3d d1 3a 7c 3d c8 1e cc 3d ec 90 88 3d
       0.040421784 0.06157953 0.099668086 0.06668267
0000f0 48 f3 d5 bd 14 21 f9 bc 65 38 d6 bd 23 c1 dd bc
       -0.10446793 -0.03041128 -0.10459975 -0.027069634
000100 9c d6 52 bc 15 fc 13 bd 66 c4 8b bc d2 a6 9b bd
       -0.01286855 -0.036129076 -0.017061424 -0.07600178
000110 4c f4 ce 3d 51 0e d7 bd e8 27 db bd 65 81 ec 3c
       0.1010519 -0.105007775 -0.10700971 0.028870294
000120 ca c1 88 3c d5 32 cf 3d e4 54 86 bd e6 8f 82 bd
       0.016693968 0.10117117 -0.0655916 -0.06375103
000130 d2 3a f9 3a 50 eb 16 bd 0d 00 71 bd d8 55 8d 3d
       0.0019014722 -0.036845505 -0.05883794 0.06901139
000140 51 cb d1 bc 23 30 0f bd b4 83 ae bd 4a b2 d5 bc
       -0.025609644 -0.034958016 -0.08521214 -0.026085991
000150 7f 8d 75 bc 1d 17 70 bd cc d6 4c bc 30 ea 90 bd
       -0.014987349 -0.058615793 -0.012502383 -0.07075918
000160 30 6f 43 3d 29 5f 77 bd 4a 0d b8 bc 0a 1f c0 bd
       0.04771346 -0.060393486 -0.022467274 -0.0938092
000170 b8 f1 e8 3c bb 79 93 bd 47 04 1f 3d df 3c bd bd
       0.028435573 -0.072009526 0.03882244 -0.09240126
000180 2d 23 5c 3d ee f6 b9 bd c0 40 94 3d 17 bd cd 3d
       0.053744484 -0.09080301 0.072389126 0.10045832
000190 3e 49 6c bd 78 61 cf bc df 6b a3 bd 55 41 aa bd
       -0.057687037 -0.025315031 -0.07979559 -0.08313242
0001a0 c8 35 02 bd ff e7 a0 bd cf aa d6 3c b1 7b 7e bc
       -0.03178957 -0.0785675 0.026204495 -0.01553242
0001b0 6e 49 a9 bd 9e e8 89 bd 4f 92 f9 bc b1 b3 d8 bc
       -0.08265959 -0.06733821 -0.030465273 -0.026452871
0001c0 f6 52 09 bb e2 82 a7 3c 6c cc d1 3d 8d 21 b8 bd
       -0.002095399 0.020448152 0.102440685 -0.08990774
0001d0 6b 1b c3 3d 54 c9 e0 3c b1 d3 b4 3d 2d 83 e4 bd
       0.09526714 0.02743975 0.088294394 -0.11157832
0001e0 cd f9 43 3c 4f 01 ea bd 98 28 a6 bd 82 4f fd 3b
       0.011961413 -0.11426031 -0.081132114 0.0077304253
0001f0 8a ee ba bd 91 f0 42 3d e4 b1 24 bd 76 76 24 3d
       -0.09127529 0.047592703 -0.040208712 0.040152036
000200 80 6a 82 bc 7f db 45 3c 65 a9 20 3c 3d 39 44 3d
       -0.015919924 0.012076258 0.009806012 0.04790615
000210 e0 27 dd 3d 61 5f 43 bd 28 08 b5 3d 24 6c 8e 3c
       0.10798621 -0.047698382 0.08839446 0.01738555
000220 96 a5 a8 bd d0 f3 bd 3d d7 65 af bd 24 74 53 bd
       -0.08234708 0.09275019 -0.08564346 -0.051624432
000230 c5 28 3a bd 22 73 d8 bc 27 38 d8 3d ef 2a 4a 3c
       -0.045449037 -0.026422087 0.10557585 0.012339338
000240 75 d5 eb bd 59 d4 c3 3d ba 0d e2 3d 85 7f ca bc
       -0.11515323 0.095619865 0.110377744 -0.02471901
000250 44 19 ab bd ec b5 9d 3c 9b 58 59 3d 18 9c 55 bd
       -0.083544284 0.019251786 0.053063016 -0.052150816
000260 3d e1 0c 3d 90 91 ac bc 6c a4 d3 bd a4 b0 9a 3d
       0.03439449 -0.021065503 -0.10334095 0.07553223
000270 95 d9 50 bd cc 85 c2 3d e6 cf d6 3d cc 4e de bd
       -0.050988752 0.09498176 0.10488872 -0.10854873
000280 bd 2d ca 3d 4b 2f e8 bd 3e 8e ea 3b 6f 6c 2c 3d
       0.09872005 -0.113371454 0.00715807 0.042095598
000290 85 53 cb bd a5 30 3f 3b d9 7a df bd 1f eb 6b 3c
       -0.099280395 0.0029173282 -0.10912103 0.014399319
0002a0 3a 13 27 bd b6 04 d0 bc 2f 0c a7 bc bc e8 03 3c
       -0.04078982 -0.025392871 -0.020391552 0.008051094
0002b0 42 be b7 3d 62 f7 f2 3d 7f 7a a9 bb d6 22 7e 3d
       0.08971836 0.11863591 -0.0051720734 0.06204494
0002c0 fb 07 de 3d bd db 90 3d 41 3e c4 bd 90 14 c3 3d
       0.10841366 0.07073162 -0.095821865 0.09525406
0002d0 6c 9d 7e bd 14 44 b2 bc 0c 56 b2 3d 52 e9 1a bd
       -0.062161848 -0.021760978 0.087078184 -0.037820168
0002e0 8b ca bb bd dc c4 d1 3d 4a 57 18 3d 09 08 26 3b
       -0.091694914 0.10242626 0.03719262 0.002533438
0002f0 be 66 d3 3d ef 8a 89 bd 29 30 a7 bd c1 fe dc 3c
       0.10322331 -0.067159526 -0.08163483 0.026976945
000300 71 76 b0 3d e3 87 4e 3c ae 22 ba bd 12 b5 b2 3d
       0.08616341 0.01260564 -0.09088646 0.08725943
000310 7f 94 fe bd b5 e8 56 3d 21 46 ee bc 62 db 81 3c
       -0.12430667 0.05246802 -0.029086174 0.01585168
000320 06 37 b5 3d 41 37 2a 3d 2f 86 cd bd b7 3e 93 3d
       0.088483855 0.0415566 -0.10035359 0.07189696
000330 40 80 74 3d d5 62 b2 3d f5 30 9b bc 6a ba e6 bc
       0.05969262 0.08710257 -0.018944243 -0.028165061
000340 6d 7d 37 3c bb 7a c5 bd e8 80 db bc 20 21 4a bd
       0.011199337 -0.096425496 -0.026794866 -0.049347997
000350 76 bf 4e bd 38 4a f5 bd e5 f9 ac 3d 49 4b 67 3d
       -0.05047556 -0.11977047 0.08446101 0.056468282
000360 47 e8 07 3d 2f 89 a6 3d 4b 30 a4 3d 99 dd 4a bd
       0.0331805 0.081316344 0.08017024 -0.04952774
000370 1d de e7 bc 22 45 9a bc ef 5a a7 3d 54 56 ac bd
       -0.028304154 -0.018831793 0.08171641 -0.08414903
000380 71 74 8c bd db 10 9d bd d8 5d 6a 3d f7 c1 82 3d
       -0.06858147 -0.076692306 0.057218403 0.06384652
000390 04 67 d5 bc b5 cc d3 3d cb b1 7b bc 70 8a 41 3d
       -0.026050098 0.10341779 -0.015362213 0.047251165
0003a0 78 52 a6 bd a6 30 c9 bd 67 8e bc bd 24 56 87 3d
       -0.081211984 -0.09823732 -0.092068486 0.06608227
0003b0 8c 7c 9b 3d 9d b0 8d 3d 95 86 6d bd ac 47 8b 3c
       0.07592115 0.06918452 -0.057989676 0.01700195
0003c0 73 a4 16 3c 11 8e a1 bd 67 8d 98 bd 94 d2 ad 3c
       0.009194481 -0.07888425 -0.07448845 0.021218576
0003d0 24 9b 8c 3d a0 42 1a 3c f8 39 df 3d 31 04 ea bd
       0.06865528 0.009415299 0.108997285 -0.11426581
0003e0 5f ef 77 bd a4 8c af 3d fa 8d c3 bd 52 31 dd bd
       -0.060531016 0.08571747 -0.09548564 -0.10800423
0003f0 cd 92 20 3c aa 5b ba 3d fb 6e 8c 3d 2e 0f c2 bd
       0.009800625 0.09099515 0.06857105 -0.094755515

weight_function_network.initial_cnn.4.bias f4 [16]
000000 6f 36 b5 bd 8b 02 fe 3b a0 0a d6 3d 44 88 ef 3d
       -0.08848273 0.007751768 0.10451245 0.116959125
000010 4d 88 30 3d e3 bf 36 3d a0 ab 78 bd d7 60 8b 3c
       0.043098737 0.04461659 -0.06071055 0.01701395
000020 28 27 de bc 0a e9 33 3d dc 08 4d bc ec 4a ce bd
       -0.02711828 0.043923415 -0.012514319 -0.10072884
000030 38 b8 01 bd 83 a4 99 3d 9b c3 9e 3d ea bb 00 3d
       -0.031669825 0.07502081 0.077521525 0.03142921

weight_function_network.initial_cnn.5.weight f4 [16]
000000 80 a4 80 3f 0b fb 7d 3f 61 c8 7d 3f ad cb 7d 3f
       1.0050201 0.99211186 0.9913388 0.9913891
000010 00 34 7c 3f c5 a4 80 3f 5f 2a 80 3f f2 ee 7d 3f
       0.98516846 1.0050284 1.0012931 0.99192727
000020 01 8f 80 3f 1e 5c 81 3f c9 24 7e 3f b1 b9 80 3f
       1.0043641 1.0106237 0.9927488 1.0056669
000030 c7 65 81 3f 2b 06 82 3f 65 48 7e 3f df 29 80 3f
       1.0109185 1.0158132 0.99329215 1.0012778

weight_function_network.initial_cnn.5.bias f4 [16]
000000 92 fb 0f 3c 5d 5d 3a bc 1d dd fe bb 40 1d fb bb
       0.008788006 -0.011374799 -0.0077778236 -0.007663399
000010 1d 63 84 bc ec 06 de bb db d6 b0 bb db b5 84 bc
       -0.016160542 -0.0067757275 -0.0053967065 -0.016199997
000020 14 63 ec bb d7 eb 95 bb 21 e8 b1 bb 88 93 55 3a
       -0.0072139595 -0.0045752334 -0.0054292833 0.0008147289
000030 ec 29 8d b8 f1 e0 09 bc 68 7f d1 b8 1a c8 30 bc
       -6.7312125e-05 -0.008415447 -9.989628e-05 -0.010789895

weight_function_network.initial_cnn.5.running_mean f4 [16]
000000 7e e3 d4 be 5c 5c b1 be e2 ed 80 3e 48 e0 23 3e
       -0.41579813 -0.34640777 0.2518149 0.16003525
000010 de 52 27 3d 65 3d ca 3d f1 56 9c be 0c b2 c6 3d
       0.040850513 0.09874991 -0.3053508 0.097019285
000020 1b 85 4f 3e 8f 8f 13 3e 37 9d 46 bd 0d c1 b2 3d
       0.2026562 0.14410232 -0.048489776 0.08728228
000030 d0 06 65 3e 40 a8 37 3e b0 a2 0a 3f 51 64 1d 3e
       0.2236588 0.17935276 0.5415449 0.15370299

weight_function_network.initial_cnn.5.running_var f4 [16]
000000 21 dd 9c 3d bd 8c 03 3e 23 5c 4a 3e d0 6e 98 3d
       0.076593645 0.12846656 0.1976171 0.07443011
000010 8f e8 23 3e 83 12 26 3d 53 ac 0f 3d 61 d7 a1 3d
       0.16006683 0.040544998 0.03507645 0.079024084
000020 f5 bb c3 3c e0 97 36 3d 92 79 a5 3d 28 be 45 3d
       0.023893336 0.044578433 0.08079828 0.04827705
000030 ca 52 d2 3c ef 56 a4 3c 19 65 c0 3d 1b d2 21 3d
       0.025674243 0.020060984 0.09394283 0.039507013

weight_function_network.initial_cnn.8.weight f4 [32, 16, 3, 3]
000000 bb f1 95 3d da 69 79 39 3a e8 0c 3d 7e 07 03 3d
       0.07321497 0.00023785923 0.034401156 0.031989567
000010 93 4a 0d bd 2f ab 8b 3d dc b4 9b 3d 3f 32 1f 3d
       -0.034494948 0.0681976 0.076028556 0.038866278
000020 45 10 a6 bd 97 6e a1 bd 71 3b 54 3d ed b0 72 bc
       -0.08108572 -0.078824215 0.0518145 -0.01481269
000030 e4 bd 93 bd 1b 90 fa 3c 2d ca 80 bd 7a b8 2d 3d
       -0.07213953 0.030586293 -0.06288562 0.04241226
000040 52 48 b2 3d a7 46 9a bd 9c b2 9b 3d 9b 1f 58 bd
       0.087052 -0.07533007 0.076024264 -0.052764516
000050 88 36 1d bc 15 c4 13 bc 22 9f a4 3d fa 35 a8 3d
       -0.009595521 -0.009018918 0.08038165 0.0821342
000060 bb f3 08 3d 62 44 92 bc 02 66 b0 bd 0e b8 97 3c
       0.033435564 -0.017854873 -0.086132064 0.018520381
000070 7b 55 86 bd 85 67 33 bc ed 7e 47 bd 3b d3 93 3c
       -0.06559273 -0.010949974 -0.04870503 0.018045058
000080 f5 ff 1a 3c b2 ac e4 bc da 59 83 3d fd fa 84 3d
       0.009460439 -0.027914379 0.06413622 0.06493185
000090 d6 99 00 3d af a4 51 bd fe ed 90 3d 34 d2 19 3d
       0.03139671 -0.051182445 0.070766434 0.03755398
0000a0 18 8d 8e bd c9 65 b3 3c eb 93 58 bd fd e7 23 bd
       -0.06960505 0.02189912 -0.05287544 -0.040016163
0000b0 a7 f4 35 3d 49 99 07 3d 35 6c 9f bd 9b 6a 5f 3c
       0.04442277 0.03310517 -0.07784311 0.013636257
0000c0 f8 55 f1 3c 6b cf 76 bd 3b 9d a6 3c c8 50 17 3d
       0.029459938 -0.060256403 0.020338645 0.036942273
0000d0 cd fa 85 bd 10 af 9b bc 46 6a 76 bd 83 05 84 3d
       -0.06541977 -0.019004375 -0.060159944 0.06446364
0000e0 93 e7 41 bd 80 6f 45 3d 77 fa f5 bc 6b 69 8c 3d
       -0.047339987 0.048202038 -0.030026658 0.068560444
0000f0 86 d9 4b bd 11 0d 5d 3c a0 23 04 3d 86 77 9d bd
       -0.049767993 0.013491885 0.032260537 -0.07688813
000100 93 55 a6 bb d5 ac 0b bc e8 bf bb bc 9f c7 84 bc
       -0.005076119 -0.008525093 -0.022918656 -0.016208468
000110 55 a8 a0 bc ce 8d f3 bc 86 cd ab 3d 92 e9 64 bd
       -0.019611517 -0.029730704 0.0838881 -0.055886813
000120 ee 3d b7 bd d8 32 bf 3c e8 c7 ae bd 9d 42 33 bd
       -0.08947359 0.023339674 -0.08534223 -0.0437647
000130 1d af 8b 3d 65 75 2c bc be 8a 8b bd 5c 60 86 3c
       0.068205096 -0.010526036 -0.06813572 0.01640337
000140 dd 61 08 3d 13 42 f5 3c 55 5a 6f 3d d6 3e ac bd
       0.033296455 0.029938733 0.058435757 -0.084104225
000150 83 88 5d bd 5a 4c 89 bd 49 db 81 3d 13 bc fc bc
       -0.054085266 -0.06704016 0.063406534 -0.0308514
000160 43 4c 41 bd 90 ab 55 3d 25 67 89 3d 5c e3 f1 3b
       -0.04719187 0.052165568 0.067091264 0.0073818397
000170 84 2d 28 3d e9 d0 f5 ba f2 6f c2 3c 15 6d 89 3d
       0.041059032 -0.0018754277 0.02373502 0.06710259
000180 9e 80 1f 3d f2 ae 90 bd c4 98 9d 3d 0d 24 78 bd
       0.03894102 -0.07064618 0.07695153 -0.060581256
000190 1b ae 10 3c 49 c4 3c bd a2 43 8d 3c 89 e1 65 bd
       0.0088305725 -0.04608563 0.017244164 -0.05612329
0001a0 5a a3 2f bd b8 e6 cb bc 27 64 67 3d 8c 25 23 3b
       -0.042880394 -0.024890289 0.056491997 0.0024894206
0001b0 e3 64 0b 3d 9a 1d b2 bd 65 a4 67 3c 02 da 37 bd
       0.03403176 -0.08697052 0.014138316 -0.044885643
0001c0 74 18 80 bd f0 27 ed bc d0 74 84 bd 5d 9f 6d bc
       -0.06254664 -0.028949708 -0.06467593 -0.014503327
0001d0 9e b4 c9 ba cc fc e7 3c 2f 3e 86 bd 42 32 37 bd
       -0.0015388911 0.028318785 -0.06554829 -0.044725664
0001e0 08 8d ad bd cb b7 9a 3d 9a 59 b8 bc 6f a8 9c bd
       -0.08474165 0.07554587 -0.022503663 -0.07649314
0001f0 cc 35 14 3d a8 b7 dd 3b b3 87 79 3c e1 53 80 3d
       0.036184117 0.0067662783 0.015230107 0.06265999
000200 46 85 82 bc 59 91 c1 bd 7c 09 0c 3d f6 91 f6 bc
       -0.01593269 -0.09451551 0.034188733 -0.030098896
000210 95 53 6a bd 71 f8 84 bb c0 17 78 bd 42 ef 85 3d
       -0.057208616 -0.004057937 -0.060569525 0.065397754
000220 3a 74 f0 3b 2e 02 24 3d 64 c9 73 3d 26 43 02 3d
       0.007338074 0.04004114 0.059518233 0.03180232
000230 3c 38 a7 3d 75 fa 4e bd 90 10 81 bd ae 0e 16 3d
       0.08165023 -0.050531823 -0.06301987 0.036635093
000240 f4 2f 68 bd 29 23 3e 3c de e7 df bc 02 75 a0 bc
       -0.056686357 0.0116050625 -0.027332243 -0.019587044
000250 1f 6b 9e 38 1f 64 c8 3b 2a 8d 60 bd fe 51 a2 3d
       7.55398e-05 0.006115451 -0.054822125 0.07925795
000260 66 45 ad bc cd 85 6c 3d 3f 24 58 3d 79 80 4f bd
       -0.021151256 0.05774479 0.052768942 -0.05065963
000270 1d ab 3b bd 2d 99 76 bd 62 b9 95 bd 7c 7d 41 bc
       -0.045817483 -0.060204674 -0.073107496 -0.011809703
000280 ad 7c e2 bb c9 92 a5 bb 2b 9b bb 3c 68 72 ea bc
       -0.006911835 -0.0050528985 0.022901138 -0.028619006
000290 b6 47 48 bd 75 df 3b bd e7 67 85 3d f1 24 59 bb
       -0.048896514 -0.045867402 0.065139584 -0.003313359
0002a0 35 42 dc 3c e3 97 c0 bd fa 50 73 bd 0d dc a1 bd
       0.026887039 -0.0940397 -0.059403397 -0.079032995
0002b0 b3 c0 ce 3a 91 81 76 bd 9d c7 89 3d 5e bc 8c bc
       0.0015773982 -0.060182158 0.06727526 -0.017179664
0002c0 0a 4e 42 3d 14 37 98 3d a9 94 91 bd 11 e3 7a 3d
       0.047437705 0.0743238 -0.07108433 0.061251704
0002d0 83 09 63 bd b4 1a 5b bd ff 05 98 bd b7 61 79 bd
       -0.055428993 -0.053492263 -0.07423019 -0.060884204
0002e0 3c 9f ab 3c 9f 2c a9 bd c6 fe 87 3d 70 42 21 bd
       0.020949952 -0.08260464 0.06640391 -0.03937
0002f0 77 9a 06 3d 6a 3c b0 bd 6c db 92 3d 8a aa c3 bb
       0.032862153 -0.08605273 0.07170758 -0.0059712576
000300 a9 45 81 3d bf b8 08 3d 75 31 07 bc 51 13 29 bd
       0.06312115 0.033379313 -0.008251538 -0.041278187
000310 51 50 60 3c 7a d0 4b 3c 47 9f 9c 3d 5f b4 af 3d
       0.013691024 0.012439841 0.07647567 0.08579325
000320 69 3f 22 3d 89 f7 4d bd fd 6e aa 3d 51 7c 37 bd
       0.039611254 -0.050284896 0.083219506 -0.04479629
000330 cd 95 62 3d 76 ea fc 3c 8b b7 8c bc 49 e4 e9 3c
       0.055318642 0.030873518 -0.017177364 0.028551238
000340 7b b0 9b 3d 10 d9 ad bd 02 9f 74 bd aa ae a3 bc
       0.0760202 -0.08488667 -0.059721954 -0.019980747
000350 fe f8 4c 3d 5f 17 a1 bd 84 d2 56 3d f1 cd 20 bd
       0.050042145 -0.07865786 0.052446857 -0.0392589
000360 26 40 af bc c3 9e 4f bd 8b 71 76 bb 8f 62 9d bd
       -0.021392893 -0.050688516 -0.0037604298 -0.07684814
000370 1c 80 9f 3d 3d 8e 21 bc 4d 9a 89 3d eb 02 c5 bc
       0.07788107 -0.009860572 0.06718884 -0.024049243
000380 e9 f5 29 3d e4 b8 25 bd c0 ec 36 bd de 0b a5 bc
       0.041494284 -0.04045953 -0.044659376 -0.02014726
000390 f2 ea ed bc 0c 79 62 3d b9 7d cd 3c ff 3f 86 3d
       -0.029042695 0.05529122 0.025084363 0.06555175
0003a0 ae 4a 1d bd f6 92 a7 3c 5f 2e a1 bb 1c 44 52 bc
       -0.0384013 0.020455819 -0.004918858 -0.012833621
0003b0 c7 14 a4 ba 24 3c a7 bd 72 fc eb 3c 03 96 2f bc
       -0.0012518399 -0.08165768 0.028806899 -0.010716918
0003c0 d5 9f 40 3d ab 0b 8b 3d 1d df 05 bd e5 db e5 bc
       0.047027428 0.06789335 -0.03268348 -0.028058955
0003d0 22 13 56 3d dd 11 6e bd 7a 5f 15 bd d9 94 76 bc
       0.05226434 -0.058122505 -0.036468007 -0.0150501365
0003e0 12 a3 7a 3d d3 88 c2 3c 1a b8 29 bd 15 59 e5 bc
       0.061190672 0.023746883 -0.04143534 -0.02799658
0003f0 74 9e 89 bd a8 f9 cc 3c ba d7 4c bd b8 54 4f 3d
       -0.06719676 0.02502139 -0.05001042 0.050617903

weight_function_network.initial_cnn.8.bias f4 [32]
000000 3e 99 0a bd 42 42 49 3d 68 53 6c bd 9b a2 bc bc
       -0.03383755 0.049135454 -0.05769673 -0.023026755
000010 33 f6 6f bd 6f 4f 03 bd 12 97 a5 bd 3a f4 63 bd
       -0.058584403 -0.032058176 -0.08085455 -0.055652834
000020 d8 ed 58 bd c6 ba 33 bd b4 57 1a 3d 5e 9f b1 bc
       -0.0529612 -0.043879293 0.037681296 -0.021682438
000030 7e 29 06 3b ed 0e cb bb ee a1 bb 3c bb e3 89 bd
       0.0020471509 -0.0061968477 0.022904363 -0.06732889
000040 02 ff 9e 3d 63 41 a4 bd 91 94 8d bd 8a 0a 84 bd
       0.07763483 -0.08020284 -0.069131024 -0.06447323
000050 63 b6 50 3c e7 3d a2 3c 82 48 a4 bc 2a bf 87 bd
       0.012738797 0.019804908 -0.020054106 -0.066282585
000060 55 d8 23 3d d6 52 5a 3d 28 ce 57 3c 6b 93 b1 bc
       0.040001232 0.053301655 0.01317171 -0.02167674
000070 04 61 a9 bb 57 8a 10 bd e4 0f 88 3d e4 d5 a6 bc
       -0.005169036 -0.03528818 0.06643656 -0.020365663

weight_function_network.initial_cnn.9.weight f4 [32]
000000 da 61 81 3f 05 9a 7c 3f f0 43 80 3f be 58 7e 3f
       1.0107987 0.98672515 1.0020733 0.9935416
000010 36 12 80 3f 4a e5 7b 3f 57 a4 7e 3f 85 1b 80 3f
       1.0005558 0.9839674 0.9946951 1.0008398
000020 bf 17 7f 3f bb 53 81 3f 7f 8c 7f 3f 13 ed 7e 3f
       0.9964561 1.0103678 0.99823755 0.99580497
000030 3b 9c 7f 3f 4c 89 80 3f 72 66 7e 3f 44 5e 7b 3f
       0.99847764 1.00419 0.9937507 0.9819071
000040 0b 02 80 3f f9 67 81 3f 4d 1d 80 3f f6 c4 7e 3f
       1.0000623 1.0109855 1.0008942 0.9951929
000050 6a 10 80 3f c8 f1 81 3f 1f 76 80 3f df 6a 7f 3f
       1.0005009 1.0151911 1.0036048 0.9977245
000060 da 0c 82 3f 85 44 7d 3f b2 2a 7f 3f 33 97 80 3f
       1.0160172 0.9893268 0.9967452 1.0046142
000070 12 b2 7d 3f d6 e1 80 3f 4a a0 80 3f 0f fe 7f 3f
       0.9909984 1.006892 1.0048916 0.9999704

weight_function_network.initial_cnn.9.bias f4 [32]
000000 c2 f7 b7 3a d9 5c 6b bc 27 aa 93 38 fb 61 69 3b
       0.001403563 -0.014365398 7.0411996e-05 0.003561138
000010 52 10 4d bc 52 48 0d bc ca 47 c3 bc 8f ee 7d bc
       -0.012516098 -0.0086232 -0.023837943 -0.015498771
000020 9b 27 22 bb 62 11 e8 bb b7 48 6c bc dc 1d d2 bb
       -0.0024742845 -0.0070821503 -0.014421633 -0.006412251
000030 c5 95 89 bc 46 32 99 bb 6d 65 8d bc ac 68 34 bc
       -0.016795048 -0.0046751825 -0.017260278 -0.011011284
000040 0e a5 4c bb 2e 69 20 bc 89 c1 43 bc 94 9b 3f b9
       -0.003122631 -0.009790702 -0.011947998 -0.00018273137
000050 54 c6 78 bc e3 d6 cd 3a 29 6b ae bb e1 aa 33 bc
       -0.015184004 0.00157043 -0.005322833 -0.010966034
000060 02 0b 4f 3c f9 1a d1 bb 58 fe 36 bc 9e be 34 bc
       0.012636902 -0.006381389 -0.011169039 -0.011031775
000070 b7 e5 dc 39 46 92 32 3c 7e f2 a6 bc d1 71 62 bb
       0.0004213282 0.010899132 -0.020379301 -0.0034552703

weight_function_network.initial_cnn.9.running_mean f4 [32]
000000 8a 64 23 be 53 df 4e bd 8f 60 11 3e 7f ba a7 be
       -0.15956321 -0.050505947 0.1419699 -0.32759473
000010 26 ed 1e 3e 84 a5 40 be d4 68 61 3e dd 61 f3 bd
       0.15520152 -0.18813139 0.22012645 -0.118839
000020 d3 95 49 be 86 af 1e bb 35 71 1d 3d f2 a6 c0 bc
       -0.1968606 -0.0024213507 0.03843804 -0.023517106
000030 22 1d 69 3e 84 f7 8c be c6 01 74 bc a0 7c 63 3e
       0.2276502 -0.2753259 -0.014893001 0.2221551
000040 c6 0c 9d be 29 32 54 be 69 2a 0d be 37 67 ca be
       -0.30673808 -0.2072226 -0.1378571 -0.39531872
000050 b2 fb c4 3d 09 63 19 3d 3d 7e 95 bd 6d 86 3d be
       0.096183196 0.037447963 -0.07299469 -0.1850831
000060 2e 46 89 3e 8b f8 bb 3e 71 04 74 3e e3 00 19 3e
       0.26811355 0.3671306 0.2382982 0.14941745
000070 46 d4 5a 3d d7 93 9e bd 1e a1 d9 3d 0d c5 3d 3e
       0.053425096 -0.07743042 0.10626434 0.185322

weight_function_network.initial_cnn.9.running_var f4 [32]
000000 88 3d 6c 3d 41 c5 6b 3d d0 dd 68 3d fb c9 5d 3d
       0.05767587 0.057561163 0.056852162 0.0541477
000010 61 aa b0 3d 03 56 8a 3d d8 3d 85 3d b0 a1 86 3d
       0.08626247 0.06754687 0.065059364 0.06573808
000020 7e 35 9b 3d fe 00 4e 3d 63 9f 11 3d 93 89 33 3d
       0.07578562 0.050293915 0.035552394 0.043832373
000030 17 1a 66 3d 27 00 9a 3d 86 c2 23 3d cb 22 7c 3d
       0.056177225 0.0751956 0.039980434 0.06155662
000040 4c b8 86 3d f3 93 b7 3d 2f 45 0f 3d be 03 94 3d
       0.065781206 0.08963766 0.034978088 0.07227276
000050 7c 9e b5 3c a3 82 88 3d 95 69 3a 3d fc 6e a9 3d
       0.022170298 0.06665542 0.045510847 0.08273122
000060 2c bb 9a 3d b7 60 2a 3d c0 48 2e 3d a6 cf e1 3d
       0.075552315 0.04159614 0.04254985 0.11025934
000070 22 9e af 3d 5e b7 14 3d 14 8c f8 3c be e2 83 3d
       0.08575083 0.036307685 0.030340232 0.06439732

weight_function_network.initial_cnn.11.weight f4 [32, 32, 3, 3]
000000 17 71 83 3d f1 70 68 3d 9a 00 71 3d b5 a6 7b 3c
       0.064180546 0.056748334 0.058838464 0.01535957
000010 26 ac df 3c b8 a6 05 3d 7e 54 0c bd 2a 16 9c bb
       0.027303766 0.0326297 -0.034260266 -0.0047633843
000020 cd 52 ef bb f5 93 07 3d 45 3a 09 bd fc d6 a1 bb
       -0.007303572 0.033100087 -0.033502836 -0.004938958
000030 39 3e 36 3d 34 14 87 3c 96 af 93 3d de 97 53 3c
       0.044492934 0.016489126 0.07211225 0.012914626
000040 f8 09 4e 3d 1b 26 5d 3d cb 6e 20 3c 77 67 96 bc
       0.050302476 0.05399142 0.00979204 -0.018359883
000050 bf bf 59 3d 9c 44 06 3d aa 79 83 3c 66 bc d5 bc
       0.05316138 0.032780275 0.016049225 -0.026090812
000060 85 71 58 ba dd 7d a7 3c 72 3b e7 3c ec 19 92 bc
       -0.0008256662 0.020445758 0.028226588 -0.017834626
000070 89 94 86 3c 10 c5 27 bd 4f ee ff 3c 3d 39 16 3d
       0.016428249 -0.040959418 0.031241564 0.03667568
000080 a2 a2 e6 3c 89 25 b3 3c f4 15 4f bd 09 5a 35 3d
       0.028153721 0.021868484 -0.050558046 0.044275317
000090 7c 7d 27 bc dc a5 36 3c 94 7f 6f bd cb 4f 0b bd
       -0.010222789 0.011147942 -0.058471277 -0.034011643
0000a0 7a ca 89 bc 3f 37 eb 3c 6c 96 db bc 54 49 ed 3c
       -0.016820181 0.028712867 -0.026805125 0.02896563
0000b0 23 50 06 3d 1e 05 38 3d bb 69 3f bd e4 f8 dc 3c
       0.032791268 0.044926755 -0.04673169 0.026974149
0000c0 5d 53 38 bd a8 bf 74 3c f6 72 e5 bc 41 29 4a bd
       -0.045001376 0.014938273 -0.02800892 -0.04935575
0000d0 8e 70 25 3c 64 b2 50 3b dc 6c c3 3b 14 35 2d bd
       0.010097636 0.003184461 0.005963905 -0.042286947
0000e0 14 4f 43 bc 74 b6 07 bc 57 93 16 bd eb 40 46 bc
       -0.011920709 -0.008283246 -0.036761608 -0.012100439
0000f0 a2 32 87 3c 9a 60 40 3d f4 fd 33 3c 45 1b 36 bd
       0.016503636 0.046967126 0.01098584 -0.0444596
000100 1a ee b4 ba 0c ac 1c bd 2a e9 0d bd 7a 69 5f bc
       -0.001380387 -0.038250014 -0.03464619 -0.013635987
000110 80 8e ae bc 38 d6 21 3d e8 64 fb bc 63 fd db 3b
       -0.021308184 0.039510936 -0.030687764 0.0067135557
000120 a3 b0 3f bd bc 7b 07 bd 02 76 05 bd 83 05 c7 3c
       -0.046799313 -0.033076987 -0.032583244 0.02429462
000130 90 81 e1 bb f0 03 12 bd e9 e3 be 3c 3c f4 2f bd
       -0.0068819 -0.035648286 0.023302035 -0.04295753
000140 52 83 29 bd 81 26 7c bd a4 31 26 bb 23 70 11 3d
       -0.041385002 -0.061560158 -0.0025359178 0.035507333
000150 2b 33 06 3d 41 1f fa bc ac 70 a5 3a b9 53 41 bd
       0.03276364 -0.030532481 0.001262208 -0.047198985
000160 91 03 e9 bc 09 5e 40 bd 3f 01 2c bd 3d b1 54 3c
       -0.028444083 -0.04696468 -0.041993376 0.01298171
000170 79 dd 19 3d 89 c5 46 3d fa bf 5e bc c0 dd f5 bb
       0.03756473 0.048528228 -0.0135955755 -0.0075032413
000180 69 89 d8 bc 54 33 19 3d b0 0a 6b bc 65 b7 12 bd
       -0.02643271 0.037402466 -0.01434581 -0.03581943
000190 5e ca 95 bc 46 f4 18 3d b0 46 20 bd 9f ba 46 bc
       -0.018284973 0.037342332 -0.039129913 -0.012129455
0001a0 39 64 93 bc f2 38 ba bc 64 ae 4d bd 44 ec 43 3c
       -0.017992126 -0.022732232 -0.05021514 0.011958186
0001b0 77 94 09 3c f3 6e 08 bd 2c 64 e0 3c de cf f9 bc
       0.008397213 -0.033308934 0.027391516 -0.030494627
0001c0 27 a5 9b bc 08 57 b2 bc 3d 8f 65 3c d4 8c 22 3b
       -0.01899965 -0.021770015 0.014011201 0.0024803178
0001d0 07 30 3e 3c a2 69 13 bd 47 b5 57 3d 08 4d 34 3d
       0.01160813 -0.03598941 0.052663114 0.044018775
0001e0 71 c0 ce 3c 11 44 f1 bc 6c 55 05 bd 8c c1 03 bd
       0.025238248 -0.029451402 -0.032552168 -0.032167003
0001f0 95 53 df 3c 8b bf 75 3d 77 44 a5 bb b7 04 00 bc
       0.027261535 0.059997123 -0.005043562 -0.007813624
000200 2b 1a 8c bc 95 81 06 bc b0 fe 2d bd 04 78 47 3c
       -0.017102322 -0.008209606 -0.042479217 0.01217461
000210 db 9e e2 3c 2a e9 b9 bc 1c bf d5 bc 52 7e 02 bd
       0.027663639 -0.02269419 -0.026092105 -0.03185875
000220 22 90 17 bd 29 40 3b bd ef 92 a3 bc 50 81 c4 bc
       -0.03700269 -0.045715485 -0.019967524 -0.023987442
000230 b0 95 ff bc 89 0d a1 3c 72 53 c1 3b cd 6f 37 3d
       -0.031199306 0.019659774 0.00589984 0.044784356
000240 f0 f0 07 bd e3 bd 69 3d d7 fc 59 3d 7d 77 19 3d
       -0.03318876 0.057065856 0.053219642 0.03746747
000250 93 a8 7e bd 64 41 21 bc 37 34 1f bd 4c 6c 19 3d
       -0.062172484 -0.0098422505 -0.038868155 0.037456796
000260 0a 25 91 bb c6 c7 2d bd 2d 30 69 b9 5f 87 69 3d
       -0.004429464 -0.042426847 -0.00022238558 0.057013866
000270 97 71 26 bd 61 d1 44 bd d3 1c 60 bb d4 12 07 bd
       -0.04063567 -0.04805124 -0.0034196868 -0.03297694
000280 e6 2c 60 3d 80 9c 70 bc 6e ba 58 bd 86 a9 0c 3d
       0.05473032 -0.01468575 -0.05291217 0.034341358
000290 f7 52 1d 3d cf 96 68 3c f2 82 b9 3b ae 95 54 3c
       0.0384092 0.014196112 0.005661362 0.01297514
0002a0 bb 16 21 bd f2 a8 fa bc 65 21 8d bd 7c 6d 72 3a
       -0.039328318 -0.030598138 -0.06891135 0.0009247882
0002b0 22 b0 b5 3b 06 0e 88 3c bf 78 c1 3a a5 98 0a 3d
       0.0055446783 0.01660825 0.0014760717 0.03383698
0002c0 6a 47 57 3d 2e 7e 4c 3d 85 67 16 bd 16 a5 0e 3d
       0.05255834 0.04992502 -0.036719818 0.034825407
0002d0 1d 98 79 bd 80 c2 8a bd 33 30 ba bc 21 b1 f1 3c
       -0.060936082 -0.06775379 -0.022728061 0.029503407
0002e0 76 d8 05 3d 0f c3 01 bd eb 54 2c bc 25 f3 bb 3c
       0.032677136 -0.031680163 -0.010518293 0.022943089
0002f0 3b 4d 65 3d f9 6a 2e 3d a0 ce 57 3b 3f 1f 0b 3c
       0.055981856 0.042582486 0.0032929555 0.008491336
000300 89 90 50 bc bf fa 97 bc 0e 54 0a bd 9e 18 61 bc
       -0.012729772 -0.018552182 -0.033771567 -0.013738779
000310 59 d6 54 b9 80 08 85 3a 80 33 08 bd 89 66 3c bd
       -0.00020297746 0.0010149628 -0.03325224 -0.045996223
000320 3e 2a 6d bd 65 cf 8c 3b 43 b0 6a bd c9 52 be bb
       -0.057901613 0.0042971843 -0.057297003 -0.0058082086
000330 ee bd 4f 3d a9 bf 8c 3c c3 fd d7 ba e2 fe 5d bc
       0.05071824 0.017181234 -0.0016478825 -0.013549538
000340 52 5f ed 3c 1c 13 3b bd 56 4d 2f 3d e2 f9 27 3d
       0.028976116 -0.04567252 0.042798363 0.04100979
000350 52 03 09 bc 15 7f e8 bc 2d f2 82 bc 65 29 1e 3d
       -0.008362608 -0.02838091 -0.015984619 0.038613696
000360 46 67 02 3d 12 2d 25 3d 2c af 59 3d 40 b1 8d 3b
       0.03183677 0.040326186 0.053145573 0.0043241084
000370 fa f2 cb bb 71 e4 1b bd f0 39 59 bd e3 61 13 bd
       -0.0062240334 -0.038059656 -0.05303377 -0.035982024
000380 5a a6 42 bd c5 55 64 bd 71 67 6b 3c 7f 33 f1 3b
       -0.047521926 -0.05574586 0.014367924 0.007360875
000390 fa 21 f6 bb da 9d 27 bd bb 55 d1 3b e2 d6 76 bd
       -0.0075113745 -0.040922023 0.0063883937 -0.060263522
0003a0 ce 7f 73 3d 2e 1c 0a bd 65 92 09 3c fb 33 9b bc
       0.059448056 -0.03371828 0.00839672 -0.018945685
0003b0 49 4a 15 bd 7f 44 68 3d 96 8e 67 3d 6e ce 24 3d
       -0.036447797 0.056705948 0.056532465 0.04023593
0003c0 c1 86 a4 bc 06 20 46 3b 53 5d 0b 3d 2f c5 ee 3c
       -0.020083787 0.003023149 0.034024548 0.029146759
0003d0 d4 e8 80 3c 8b 83 d8 ba da 45 e3 3c dc 6c dc 3c
       0.015736021 -0.0016518695 0.027743269 0.026907377
0003e0 dc a4 44 bd 93 77 6f bc b7 05 23 3d b9 b3 92 bd
       -0.048008785 -0.014615911 0.039800372 -0.071631856
0003f0 aa 08 94 bb 65 48 4f bb d0 0d 26 3b 07 76 9e 3b
       -0.0045176344 -0.0031628844 0.0025337823 0.0048358473

weight_function_network.initial_cnn.11.bias f4 [32]
000000 64 c4 6b bc 95 1e 30 bc 47 67 c9 3c cf a3 b5 3c
       -0.014390085 -0.010749479 0.02458538 0.022172837
000010 1e 69 4c 3c c3 68 e5 bc e8 a4 d4 3c 6e c1 0f bd
       0.012476234 -0.028004056 0.02595754 -0.03509658
000020 ae e9 4b 3d 10 b7 66 3c 17 08 fb 3c 0c fa 0f 3d
       0.0497834 0.014081731 0.030643506 0.035150573
000030 b4 80 51 bd 9c 3f 18 3d c5 38 0f 3d 59 bb 5b 3d
       -0.05114813 0.037170038 0.03496625 0.053645466
000040 69 1e 47 3d 46 7f 2d 3d c7 2c 54 3d 1c ee 4b 3d
       0.048612986 0.042357706 0.051800516 0.049787626
000050 d5 ce a9 bc c8 0e 37 3d fa b8 30 bd 5b 54 48 bd
       -0.020728508 0.04469183 -0.043145157 -0.048908573
000060 59 66 08 bd ae 6c 18 3b 16 43 43 3c d8 09 49 3d
       -0.03330073 0.0023258138 0.01191785 0.049081653
000070 f9 1f db bb 1e df 10 bb 9c e4 67 3d 15 14 04 3b
       -0.006687161 -0.0022105644 0.056614503 0.0020153571

weight_function_network.initial_cnn.12.weight f4 [32]
000000 29 d9 81 3f 04 ad 80 3f 9e 3f 81 3f 20 a0 80 3f
       1.0144397 1.00528 1.009754 1.0048866
000010 da 56 7e 3f f8 03 7f 3f cb d1 7d 3f 57 00 80 3f
       0.99351275 0.9961543 0.99148244 1.0000104
000020 6e ca 80 3f 15 d0 7f 3f 1f fa 7d 3f e8 e8 7f 3f
       1.0061777 0.99926883 0.9920978 0.9996476
000030 5d af 7f 3f f0 d2 7e 3f 5a 1e 80 3f 31 77 7e 3f
       0.9987696 0.99540615 1.0009263 0.9940062
000040 5d d8 81 3f 82 fd 80 3f b5 3e 80 3f 2b 00 81 3f
       1.0144154 1.0077364 1.0019137 1.0078176
000050 e9 73 7f 3f ba 33 7f 3f 53 f6 7c 3f 6d 7f 7d 3f
       0.9978624 0.99688303 0.9881336 0.9902256
000060 83 95 7f 3f c1 8e 80 3f 4b 19 80 3f cd fb 7f 3f
       0.9983751 1.0043565 1.0007719 0.9999359
000070 10 6e 80 3f c8 a9 80 3f 09 17 80 3f 37 47 80 3f
       1.0033588 1.0051813 1.000703 1.0021733

weight_function_network.initial_cnn.12.bias f4 [32]
000000 90 3d 1e bb 19 58 32 bb dc 1e b9 bb 10 7d d6 bb
       -0.002414558 -0.0027213155 -0.0056494307 -0.0065456703
000010 26 d4 6f bc 6e 34 bf bb 32 2b 08 bc ba b3 21 bb
       -0.0146379825 -0.0058351075 -0.00831108 -0.0024673776
000020 9d 66 b7 bb cc c6 31 3c 97 07 95 bc b3 66 02 3c
       -0.0055969493 0.0108506195 -0.018192096 0.007959056
000030 26 76 c4 3a 54 ba 1a bb 35 47 12 3c 6e 7f 43 bc
       0.0014988824 -0.0023609595 0.00892811 -0.011932237
000040 52 bd 7a 3b 46 f3 ea bb 2b dd 9a bc ac fc 9e ba
       0.0038259816 -0.0071701137 -0.01890429 -0.0012129745
000050 e4 1e 95 bb 38 96 8d bc d1 4c 66 bc 76 8b bf bc
       -0.0045508016 -0.017283544 -0.0140564 -0.02338193
000060 50 b3 49 3a bc a9 b2 ba c2 a1 36 bb 81 69 2b bc
       0.0007694261 -0.0013630907 -0.0027867411 -0.010462166
000070 2f ef 31 bc 81 32 24 bb fc 07 81 bc 83 a5 14 bc
       -0.0108602485 -0.0025054517 -0.015750878 -0.009072664

weight_function_network.initial_cnn.12.running_mean f4 [32]
000000 46 1d 2b be 77 b2 66 be b9 21 1e be 96 81 97 bd
       -0.16710386 -0.22529016 -0.15442552 -0.073977634
000010 22 6e 96 3e ee 06 d7 be 38 a2 b6 3e be e6 09 3e
       0.293809 -0.41997474 0.35670638 0.13466927
000020 54 3d 9b 3e e2 81 b9 bb 2c b0 6e 3e 63 8d 7d 3d
       0.30320227 -0.005661235 0.23309392 0.061902415
000030 2d 3b 0f bd 84 bd 0d 3e 2d ed 0e be ff 1d 9a 3d
       -0.034968544 0.13841826 -0.13957663 0.075252526
000040 d8 1c 26 3e a7 68 d7 bd 59 97 f8 3e 2c ad 37 bd
       0.1622194 -0.10518008 0.4855297 -0.044842884
000050 f4 6b 37 bd 17 91 f5 bd c3 77 22 be 6f 39 8e 3d
       -0.044780686 -0.11990564 -0.15865998 0.06944548
000060 2c a7 5c 3e 22 8d b1 bc 17 e0 2f 3d 58 37 b9 3e
       0.21548146 -0.021673743 0.042938318 0.36175036
000070 53 2e 6f be 21 be 09 3e 12 93 8d 3e 10 34 78 be
       -0.23357515 0.13451435 0.27651268 -0.2423861

weight_function_network.initial_cnn.12.running_var f4 [32]
000000 e4 e9 0b 3e c8 3d bc 3d e0 3a e2 3d ac b6 b7 3d
       0.13663441 0.09191471 0.11046386 0.08970389
000010 2c a1 a3 3d 0b 85 0e 3e b3 e2 10 3e 91 28 f2 3d
       0.079897255 0.1391794 0.14148979 0.11824144
000020 2f 75 a2 3d 90 83 3e 3e d7 7a c0 3d 08 89 86 3d
       0.07932507 0.18604875 0.0939843 0.065691054
000030 37 56 0c 3e 2e 0f 3d 3e 84 25 02 3e b6 ed af 3d
       0.13704763 0.18462822 0.12709624 0.08590262
000040 9d 4e af 3d 68 65 d7 3d d1 50 e9 3d d9 17 eb 3d
       0.08559916 0.105173886 0.11392368 0.11479158
000050 e4 08 01 3e 26 1c c1 3d 30 6a 00 3e be 34 b9 3d
       0.12601048 0.09429197 0.12540507 0.09043263
000060 90 fb ca 3d 34 0a f6 3d ff 73 c5 3d 04 34 b5 3d
       0.09911263 0.12013665 0.09641265 0.08847812
000070 9a 5d c4 3d 18 d0 1c 3e cf ba e4 3d 7b c6 b7 3d
       0.095881656 0.15313756 0.111684434 0.08973404

weight_function_network.adaptive_layer.1.weight f4 [64, 32, 3, 3]
000000 d3 b8 49 3b 39 14 7b bd ae fb 9d 3c 26 f8 9a bd
       0.003078033 -0.061298583 0.01928505 -0.07566862
000010 e4 38 46 3c 52 86 14 bd be d5 69 bc a7 cb 06 bd
       0.012098525 -0.03626091 -0.0142721515 -0.03290906
000020 ae d3 82 bd 69 39 24 3d 2b 6c 7c 3d 31 c5 73 3d
       -0.06388031 0.040093813 0.061626595 0.05951423
000030 e9 16 f5 bc 6e 47 07 bd 83 0c c6 3c 2a 49 59 3d
       -0.029918151 -0.033027105 0.024175888 0.05304829
000040 6f 6a 3b bd 22 15 35 3d e4 92 17 bd 99 71 7b 3c
       -0.0457558 0.044209607 -0.03700532 0.015346908
000050 1f a3 2d 3d a4 a4 75 bd ee 9b 3d bd 03 57 54 bd
       0.042391893 -0.059971467 -0.046291284 -0.051840793
000060 b6 02 73 bd 1b a5 70 bd 73 89 e5 bb 7d 5a bd bb
       -0.059328757 -0.058751207 -0.0070049106 -0.0057786093
000070 ea 79 4a 3d 66 b5 8c bc 68 4c 21 3d ec 46 b4 bb
       0.049432673 -0.017176341 0.039379507 -0.0055016186
000080 e0 82 18 bd b7 4d 53 3c 14 9a 34 3d 4a 51 fb bb
       -0.037234187 0.012896947 0.044092253 -0.0076696025
000090 27 af 88 3c ed f5 58 3d 90 06 c0 3c 52 d1 09 3c
       0.016685082 0.052968908 0.02344063 0.008411722
0000a0 92 53 86 3c 04 5d 13 3b 3b 58 6c 3d 39 f2 88 3b
       0.016397271 0.0022485862 0.05770133 0.004179266
0000b0 38 1a db 3b 5b 04 ce 3c af 00 53 bd 37 e7 0f bd
       0.006686475 0.025148561 -0.051514324 -0.035132613
0000c0 65 3e b7 bb ad 17 59 3c f3 c3 07 3d 35 2c fc bc
       -0.005592155 0.013250274 0.033145856 -0.030782798
0000d0 83 1b e4 3c 6b a2 8d bc 38 9e 80 3b 87 e0 58 39
       0.02784515 -0.017289361 0.003925111 0.00020683008
0000e0 24 94 01 bd 8f 71 15 bd 57 f9 4f 3d c6 85 94 3c
       -0.03163542 -0.03648525 0.0507749 0.018130194
0000f0 e9 cc f6 3b d4 80 29 bd c2 0a d7 bb a7 61 83 3d
       0.0075317514 -0.041382626 -0.0065625617 0.0641511
000100 5c 7b 85 3c 12 d8 dd 3c 43 48 25 bd aa 53 51 3c
       0.016294174 0.02708057 -0.040352117 0.012776295
000110 8c b8 2e 3c e4 8b fd 3c f3 0d 17 3d a6 3d 16 bd
       0.010664117 0.030950494 0.036878537 -0.036679886
000120 ee fb 2d 3d ef a4 1e bd 5f 5e 27 3c 8e 6d cb bc
       0.042476587 -0.03873151 0.010215371 -0.024832513
000130 7c 36 4a bd d6 be 7f bc 97 1f 60 bc 03 30 93 bc
       -0.049368367 -0.015609464 -0.013679407 -0.01796723
000140 2d 08 2e 3d de 06 6f bd 40 56 ae 3c 7e 81 38 bd
       0.042488266 -0.05835616 0.021281362 -0.04504537
000150 18 2f 4b bd f8 e8 61 bd 3c 12 91 bc a1 73 08 3d
       -0.04960546 -0.055153817 -0.01770889 0.033313397
000160 89 88 47 bc 58 85 aa ba 1f 1b b6 bc 05 8b 3d bd
       -0.012178549 -0.001300971 -0.02222973 -0.046275157
000170 8a a8 c6 bc 5c a6 60 3d ab 9b db 3c 4a 0f 20 bd
       -0.024250288 0.054846153 0.026807627 -0.03907708
000180 a8 20 29 3b 97 1f 91 bc f4 1f 0c 3d b2 ff 1e 3d
       0.0025806818 -0.017715259 0.03421016 0.03881807
000190 34 e3 90 bc 91 c4 50 bd c5 a6 e6 bc 80 54 a6 bc
       -0.017686464 -0.05096871 -0.028155694 -0.020303965
0001a0 80 da 80 3c 55 37 8d 3c 0d 4c 2e 3d 84 c8 4e bd
       0.015729189 0.017238298 0.042552996 -0.050484195
0001b0 78 9a 86 bc 52 17 a0 ba 78 e9 87 3b 0d 4b 12 3d
       -0.016431078 -0.0012213981 0.0041477047 0.035716105
0001c0 53 40 5a bc fe 8d b9 3c f2 93 f3 bb c1 4f a0 3c
       -0.013321 0.022650715 -0.007433408 0.01956928
0001d0 d7 3a 80 bd eb 72 c2 bc 68 80 e1 bc c6 45 a7 3c
       -0.06261223 -0.023736438 -0.02752705 0.020419013
0001e0 94 b3 11 3d 85 70 1d 3d d7 95 2a 3c 28 a1 26 3d
       0.03557165 0.038437385 0.010411701 0.040681034
0001f0 92 75 d7 bb e0 80 1d bc 06 dd a7 bb 43 07 24 3d
       -0.006575295 -0.009613246 -0.0051227836 0.040045988
000200 53 8d 76 3c e2 ae 0c 3d ab c6 17 bb 5e 26 f7 bb
       0.015048343 0.03434647 -0.0023159187 -0.0075424155
000210 4a a3 79 3d 7b 26 03 bd 9e 9b 01 3d 46 b5 3a bd
       0.06094674 -0.03201912 0.03164255 -0.045583032
000220 63 2f c5 bb 1f f7 80 bc 31 a8 26 bd d4 0a 10 bd
       -0.006017612 -0.015742837 -0.040687744 -0.035166577
000230 e6 c2 19 bd 78 91 0f bc f2 70 23 bc 3c 49 54 bd
       -0.037539385 -0.00876271 -0.009975659 -0.051827654
000240 75 b4 a1 3c 79 00 07 3d 44 8a 57 bd 14 a4 8b 3c
       0.019739369 0.032959435 -0.052622095 0.017046012
000250 58 67 46 3d b3 12 41 bd cf 80 0d bd 77 13 32 bd
       0.0484384 -0.047136974 -0.03454667 -0.043475594
000260 3c 86 17 3d 5f e6 2b 3b 2a fb 53 bd 0a 74 7d bd
       0.03699325 0.0026229841 -0.0517532 -0.06187824
000270 e1 b6 92 bd cb 2f 94 bc c6 91 88 bd 24 4a 69 bd
       -0.07163788 -0.018089196 -0.06668429 -0.05695547
000280 2c 5b 0c bd 53 ab d8 3c f5 c9 c1 bc e7 c8 3b 3d
       -0.034266636 0.026448881 -0.02365587 0.045845892
000290 a7 f2 49 bd 24 4b 10 bd a4 2f 3a 3c 36 27 64 bc
       -0.049303677 -0.03522791 0.0113638975 -0.013925364
0002a0 fc 42 ca 3b f5 45 de bc e6 a2 e2 3b 98 25 49 bd
       0.006172536 -0.027132967 0.0069163917 -0.049108118
0002b0 92 fe 97 bc e3 eb 37 3d 58 ad 40 3c 3e 7c 7b 3b
       -0.018554006 0.044902693 0.011760078 0.0038373615
0002c0 c7 a0 47 bd 6e 43 88 bd 90 a5 20 bd 80 1d e5 3c
       -0.048737314 -0.06653486 -0.039220393 0.027968168
0002d0 06 ab 06 3d a0 a9 d3 3c 41 66 0e 3d 09 4a 6b 3c
       0.032877944 0.02583772 0.034765486 0.014360913
0002e0 13 4e 6c bd f1 a8 f5 bc a1 cc 63 3c 7f 1d 6a bc
       -0.057691645 -0.029987784 0.013903768 -0.014289259
0002f0 83 be 89 3c 2d 99 8b 3c 64 2b 40 3d c4 3e 42 bd
       0.016814476 0.017040813 0.04691638 -0.04742314
000300 6c 44 00 bc 6d 48 7b 3d ea a3 62 3d bc 1b 1a 3d
       -0.007828813 0.061348367 0.055332102 0.037624106
000310 b5 32 47 bd c2 28 c1 3c 27 ab 06 bd 56 41 8b 3c
       -0.048632342 0.023579005 -0.032878067 0.016998928
000320 2d 32 01 bc 41 26 95 3c 53 f0 27 bd 29 97 73 3c
       -0.007885498 0.018206717 -0.041000675 0.014867582
000330 a1 36 12 3d cd 2d 28 3d a6 d6 a9 bc fa df 14 3d
       0.03569663 0.041059304 -0.020732235 0.036346413
000340 ce a3 52 bd cd 7c a6 3c 83 67 7b bd eb 64 17 3d
       -0.051425748 0.020323182 -0.061378013 0.036961477
000350 af 96 29 3d 18 f3 02 3d 6b 2d f9 ba c8 8b 03 3d
       0.04140347 0.031970114 -0.0019010728 0.032115728
000360 db a9 f5 3c 1f d8 25 3d 8f f2 ee 3c 1f 13 ae bb
       0.02998822 0.040489312 0.029168395 -0.005312338
000370 96 5f 2e bc aa aa 33 bd 84 5d 44 3d ad a6 2c 3a
       -0.010642907 -0.04386393 0.047940746 0.0006586116
000380 ed 54 3d 3d 78 bd 05 bd 8d fe b3 3a e8 5f 55 3d
       0.04622357 -0.032651395 0.0013732478 0.052093416
000390 3c a5 1d bb ef f1 e8 bc ae 64 10 3b 08 22 6a bc
       -0.0024054786 -0.028435675 0.0022032666 -0.01429034
0003a0 96 2e 4b bd 6e 2b 7f 3d ac f9 0d bc 67 ca ca bb
       -0.049604975 0.062297277 -0.008665483 -0.006188679
0003b0 44 68 c2 bc 61 ba b5 bc 84 ae f0 bc 78 90 34 bc
       -0.023731358 -0.022183599 -0.02938009 -0.011020772
0003c0 0d 22 00 bd c7 c2 d5 3c fc 32 8f 3c f5 8c d4 3c
       -0.031282473 0.026093854 0.017480366 0.02594612
0003d0 72 b7 eb 3c 5e 3a a9 3c d0 b6 58 bd bf 8c 13 3d
       0.028773997 0.020657714 -0.05290872 0.036022898
0003e0 f9 00 65 bd 71 32 1d bd 39 42 80 bd 01 95 26 bd
       -0.05590913 -0.038378183 -0.06262631 -0.040669445
0003f0 02 07 69 bb 89 b1 87 bc 22 3e c8 bc 80 9b 09 3d
       -0.0035557155 -0.016564148 -0.02444369 0.033595562

weight_function_network.adaptive_layer.1.bias f4 [64]
000000 73 79 f4 3c b1 d7 71 bc 51 20 6b bd a4 3a 3c bd
       0.029843068 -0.0147608975 -0.057403866 -0.04595436
000010 7a 60 66 3d 3a 04 25 bd 16 f7 9e 3c 2a 28 51 3d
       0.05624435 -0.040287234 0.01940493 0.051063694
000020 c9 ac 2a 3d 4f 34 41 3d b5 cd 29 bd 94 37 a8 bc
       0.041668687 0.047169026 -0.041455943 -0.020534314
000030 35 b0 b1 bc a3 71 1c bd 1c e0 14 bc 6f 97 f3 bc
       -0.021690467 -0.03819431 -0.009086635 -0.029735295
000040 61 2d 85 bc 97 38 49 bd 97 ed 79 3c 83 de 56 3c
       -0.01625699 -0.049126234 0.0152544 0.013114574
000050 b2 6a 21 bd 1b 2a eb 3b 4c d0 59 3d e8 52 07 3d
       -0.039408393 0.00717665 0.053177163 0.03303805
000060 15 62 b0 bb fe 42 a7 3c 6e 85 80 3c 29 ac ca 3c
       -0.005382786 0.020417687 0.015688624 0.024740295
000070 6f 9d f6 bc 92 0e 0b bc f0 d4 af 3c c1 06 56 bd
       -0.030104367 -0.008487361 0.021463841 -0.052252535
000080 ba ce 6b 3d 30 21 e1 bc 2c ce 84 bc a0 8c 34 bd
       0.057570197 -0.027481645 -0.016211592 -0.044079423
000090 58 93 0e 3d 04 e3 0a 3d ba 4f 5c 3d e0 25 62 bd
       0.034808487 0.033907905 0.05378697 -0.0552119
0000a0 e2 03 9b ba bb 19 3a 3c 6e 02 c7 bc 84 92 ef bc
       -0.0011826719 0.011358674 -0.02429315 -0.029244669
0000b0 32 d1 41 bd 6c 41 f7 bc 05 ac e1 3c 21 49 a3 3c
       -0.047318645 -0.030182563 0.027547846 0.019932332
0000c0 8e 64 be 3c d3 91 63 3d 8c 64 4c bb 93 61 19 bc
       0.023241308 0.05555899 -0.003118786 -0.009361642
0000d0 94 f3 be 3c d0 49 1f 3c 61 bd 2c bd 35 51 9f bc
       0.023309506 0.009722188 -0.042172793 -0.019447902
0000e0 7a ce 64 3d a8 1a f6 3c 6f 9b 8e 3c 29 83 d8 3c
       0.055860974 0.030042008 0.0174081 0.02642973
0000f0 a1 74 32 3d 7a 6c a2 3c 2e fd b8 bc c6 d7 b0 bc
       0.043568257 0.019827116 -0.022581663 -0.021587264

weight_function_network.adaptive_layer.2.weight f4 [64]
000000 06 db 80 3f f8 52 7f 3f 33 24 80 3f 9c 87 7f 3f
       1.0066841 0.99735975 1.0011047 0.998163
000010 38 37 7e 3f f1 19 7d 3f 00 d4 7d 3f f3 bc 7d 3f
       0.9930301 0.9886771 0.9915161 0.9911644
000020 63 b8 7e 3f 7e 35 80 3f 3f 34 80 3f fd c6 7f 3f
       0.995001 1.0016325 1.0015944 0.9991301
000030 ea ea 7d 3f 10 94 7f 3f 6d a2 7e 3f 55 32 7f 3f
       0.99186575 0.998353 0.9946659 0.99686176
000040 ab 85 80 3f 31 d9 7e 3f 5f f5 7d 3f 1a db 7f 3f
       1.0040792 0.9955016 0.9920253 0.999437
000050 cb d0 7f 3f f9 20 7b 3f d2 cd 80 3f e6 e5 7c 3f
       0.9992797 0.9809719 1.0062811 0.987883
000060 a3 cd 7c 3f be 14 80 3f 06 96 80 3f 0a 19 81 3f
       0.98751277 1.000633 1.0045784 1.0085766
000070 dc 93 80 3f 69 84 7e 3f ce ef 7b 3f e3 bf 7f 3f
       1.0045123 0.9942079 0.9841279 0.9990217
000080 ba 2f 7f 3f dc 91 82 3f 44 04 81 3f 62 5d 80 3f
       0.996822 1.0200763 1.0079427 1.0028498
000090 85 80 80 3f 0c 91 7d 3f 74 b7 7e 3f d2 b4 7d 3f
       1.0039221 0.9904945 0.9949868 0.99104035
0000a0 28 21 81 3f 28 cd 80 3f e8 4a 81 3f 5f 66 80 3f
       1.0088243 1.0062609 1.0100985 1.0031241
0000b0 61 a0 7f 3f ac 1b 81 3f fe eb 80 3f 77 f4 7f 3f
       0.99854094 1.008657 1.0072019 0.999824
0000c0 74 62 82 3f b0 b5 7d 3f e6 9f 7e 3f 42 45 81 3f
       1.0186296 0.9910536 0.99462736 1.0099261
0000d0 b1 71 80 3f b9 2b 7f 3f e9 8e 80 3f db 12 80 3f
       1.0034696 0.9967609 1.0043613 1.0005754
0000e0 dc d6 7a 3f b4 30 7d 3f 8e 5d 81 3f 98 23 7e 3f
       0.979841 0.9890244 1.0106676 0.9927306
0000f0 a5 50 80 3f fc ab 7e 3f 86 21 80 3f f2 9a 80 3f
       1.0024611 0.9948118 1.001023 1.0047286

weight_function_network.adaptive_layer.2.bias f4 [64]
000000 03 8f 83 bc bc 59 43 bc 15 c7 82 bc 38 dd 58 3a
       -0.016059404 -0.01192325 -0.01596407 0.000827271
000010 d3 1e 0f bc 35 5e 65 bc 92 b5 6d bc d1 54 4f bc
       -0.008735376 -0.0139995115 -0.014508622 -0.012654499
000020 e8 58 1f bc 2b 02 a1 bc 02 ef 1a bc 34 b8 a0 bc
       -0.009725787 -0.019654354 -0.009456398 -0.019619085
000030 bb 4e 37 bc bb 19 a5 bc 91 8d 21 bc ee fb b6 bc
       -0.011188204 -0.02015387 -0.009860412 -0.022336926
000040 60 ef 4e bc 57 a3 1d bc 73 63 18 bc de 26 82 bc
       -0.012630314 -0.009621463 -0.009301054 -0.015887674
000050 99 ff 4f bc a7 16 10 bc 4b 0c a9 bc 9d 31 20 bc
       -0.012695217 -0.008794463 -0.020635745 -0.009777454
000060 32 9e 9a bc 73 19 ec bb a3 c3 93 bc c8 12 1c bc
       -0.018874262 -0.007205182 -0.018037623 -0.009525962
000070 ad b7 c8 bb c8 78 68 bc 6b e6 97 bc ef 42 3f bc
       -0.0061254115 -0.014188953 -0.018542489 -0.011673673
000080 4e 2a b6 bc 10 08 66 3c b1 b5 4b bc c8 83 b3 bc
       -0.02223697 0.014040008 -0.012433455 -0.021913424
000090 34 1a 73 bc 20 8e 8c ba 62 0a f1 bc 13 15 34 bc
       -0.01483779 -0.0010723509 -0.029423896 -0.010991353
0000a0 08 83 78 bc 45 c8 22 bc 53 37 37 bc 6e 12 34 bc
       -0.015167959 -0.009935443 -0.011182624 -0.010990722
0000b0 80 b1 27 bc c4 3e 20 bb 33 81 4f bc 6e 06 b3 bc
       -0.01023519 -0.0024451474 -0.012665081 -0.021853652
0000c0 af 46 05 ba cc 0e 7e bb 6f 0f e0 bb b1 af 23 3b
       -0.000508408 -0.0038766144 -0.0068377773 0.0024976546
0000d0 33 41 1b bc d2 97 91 bb dd c6 59 bc c7 d1 26 bb
       -0.009475994 -0.004443147 -0.013292042 -0.0025454627
0000e0 05 29 93 bc 01 3e 9e bc 82 cb 7f bc 4e c5 a3 bc
       -0.017963896 -0.019316675 -0.015612485 -0.019991543
0000f0 42 87 95 bc f4 10 b2 bc 2f 63 93 ba 3d af 2e ba
       -0.018252973 -0.0217366 -0.0011244769 -0.0006663686

weight_function_network.adaptive_layer.2.running_mean f4 [64]
000000 f7 a7 68 be e5 3c d4 be f6 ba d5 be f6 88 84 3e
       -0.22720324 -0.4145271 -0.41744202 0.25885743
000010 56 35 92 be 05 e4 95 bc 31 f2 02 be b7 d7 6c be
       -0.28556317 -0.018297205 -0.12787701 -0.23129164
000020 33 d6 d8 bc 1c d8 83 be d6 08 90 3e fa cb b9 bb
       -0.026469326 -0.25750816 0.2813174 -0.005670068
000030 1b 63 fc bd 82 15 f3 3d 3b 8b ab be ab af 35 bd
       -0.1232359 0.11869337 -0.33504662 -0.044356983
000040 f8 89 20 bf 41 44 13 bf c1 db e9 3e e2 3c 21 3e
       -0.62710524 -0.5752602 0.4567547 0.15745881
000050 3b c6 c0 3d be 34 d8 be 28 ec 79 be 5a 7e 28 3e
       0.094128095 -0.4222774 -0.24406493 0.1645445
000060 78 93 05 bd 6e 16 5b 3e cc a6 87 bd d4 57 40 3e
       -0.03261134 0.21395275 -0.06623611 0.18783504
000070 5d b5 27 3f 62 9f 09 3e 94 3c 21 be 73 ba 96 bd
       0.65511113 0.13439706 -0.15745765 -0.07359781
000080 d8 61 e3 be 1b 37 00 bf a3 2d 19 3e 6d 64 a9 bc
       -0.44410586 -0.50084084 0.14958815 -0.02067777
000090 5d 9d e3 3e 55 09 b4 be 60 10 a2 3c 6a c6 bd 3e
       0.44455996 -0.3516337 0.019783199 0.3706544
0000a0 8c e6 9b 3e ca 92 d7 be ce 3d 95 3d c5 63 5e 3e
       0.3044933 -0.4210418 0.07287179 0.21717747
0000b0 df 97 d1 be b9 c5 c1 3e 23 13 c9 3d 5b d1 8d be
       -0.4093618 0.37846163 0.09818103 -0.27698788
0000c0 97 cc ad be b4 1c 21 3c 0e 6a 85 be 8f 0e 9d 3d
       -0.33945152 0.0098335035 -0.26057476 0.076687925
0000d0 21 6d a1 3e b6 f7 9d be cd 5f 5e be 9a 9b b8 3e
       0.3152857 -0.3085305 -0.21716233 0.36056215
0000e0 7d 7e ec bd 3c 75 11 be dc d1 f1 3d 2c 76 34 bd
       -0.11547563 -0.14204878 0.118076056 -0.04405801
0000f0 c2 65 fa 3d 03 94 af 3e da 26 d6 bd ab d8 32 3e
       0.1222644 0.3429261 -0.10456629 0.17465465
