logs/测试initial_cnn_arg结构pooling结构带来的影响/weight_network.AdaptiveCNN.initial_cnn_arg.pooling_model=avgmodel.lr=0.0001/test_model_20250425_181326.pth (torch, 840675 bytes, 78 tensors)

weight_function_network.initial_cnn.0.weight f4 [8, 1, 3, 3]
00000000: 5d33 8c3e 51b6 3c3e c079 313e 181b 6b3d
00000010: d583 8fbd 78b0 a83d be8b cfbc b3ae a23d
00000020: ae9b 8d3d 3ced 743e 2b59 903e 34e5 adbe
00000030: 58cc af3e 95d6 a6bd 6235 503e 3c6d a83e
00000040: 99e2 13bd 013f 7f3d 8071 94be e6b5 7b3d
00000050: f1a5 7bbe 2ed6 8cbd ea93 a4be 4142 ad3d
00000060: b49e 1abe b35b 8abe 26f8 f93d 5281 49be
00000070: a1d7 5ebe f166 32be 55d6 843e 9458 91bd
00000080: 9489 9b3d 11ea 403d 7af6 003e 8037 893e
00000090: e766 a43e f67c 28be 7299 933e ad43 08be
000000a0: 69ef a6be d0c1 3e3c fdef 6ebe 2360 253d
000000b0: ef72 9c3e 3266 55bd 67c2 ab3e ea59 9fbe
000000c0: f95b 383e 2a3a 48bc 371d 7d3e 625b eabd
000000d0: 554f fd3d 50e4 cd3d 6e53 433e 5a6d 6fbe
000000e0: d25e 17be e72e 85be 53cf a3bd 418f 173e
000000f0: 9a62 b6bd 1b86 c9bd 8bd9 f0bd 090e 12be
00000100: 62d3 e63d 4c2b 98be b0be 80be 845a af3e
00000110: 69ae 4b3e 9da8 32be 782c 983c 7c99 10be
0.27382937 0.18428923 0.173316 0.057398885 -0.07007567 0.08236784 -0.025335189 0.079434775
0.06914459 0.23918623 0.2819303 -0.3396393 0.3433559 -0.08146397 0.20332864 0.3289584
-0.036104772 0.062315945 -0.28992844 0.06145277 -0.2457502 -0.06876789 -0.321441 0.084599026
-0.15099603 -0.27023086 0.12205534 -0.19678238 -0.21761943 -0.17422082 0.25944772 -0.07096973
0.075946 0.047098223 0.12594023 0.26800156 0.32109758 -0.16453919 0.28828007 -0.13307066
-0.3260453 0.011642888 -0.23333736 0.040374886 0.30556437 -0.052099414 0.33546755 -0.31123286
0.18003835 -0.012220899 0.24718176 -0.11443211 0.12368647 0.10053313 0.19074795 -0.23381558
-0.14782265 -0.26012346 -0.07998528 0.14800741 -0.089055255 -0.09840032 -0.11760243 -0.14263166
0.11270787 -0.29720533 -0.25145483 0.34248745 0.19890751 -0.17447133 0.018575892 -0.1412105

weight_function_network.initial_cnn.0.bias f4 [8]
00000000: 3ae8 a33e 5bac 973d aef3 fbbd 98e4 9bbe
00000010: 7ca1 153e e938 ba3d ebf6 80be fd19 2dbe
0.32013112 0.07405921 -0.123023376 -0.3044784 0.14612383 0.09092886 -0.25188383 -0.16904445

weight_function_network.initial_cnn.1.weight f4 [8]
00000000: 7cc8 7b3f 76d0 7c3f bd06 803f 9bf5 803f
00000010: 7935 813f 7a80 803f 11b8 7f3f 8599 813f
0.9835279 0.98755586 1.0002056 1.0074953 1.0094444 1.0039208 0.9989024 1.0124975

weight_function_network.initial_cnn.1.bias f4 [8]
00000000: db61 8cbc f147 9dbb fd07 62ba b2c6 1fbc
00000010: 4774 8d3b a9e9 a0bb d3fa afbb abc0 053c
-0.017136505 -0.004799836 -0.0008622406 -0.0097519625 0.00431684 -0.004910667 -0.0053704767 0.008163611

weight_function_network.initial_cnn.1.running_mean f4 [8]
00000000: 9796 2f3f b9c2 043f 2110 1abf df5a 81be
00000010: 379a 473e ba78 9f3e 76a6 0ebf 5e80 a2be
0.68589157 0.51859623 -0.6018086 -0.25264642 0.19492422 0.31146795 -0.5572275 -0.3173856

weight_function_network.initial_cnn.1.running_var f4 [8]
00000000: 854e dd3d f69d 2d3e 3058 403e fc42 743c
00000010: 7c3e 213c ea82 2e3d a3bf 9b3d e0c1 983c
0.10805992 0.16954789 0.18783641 0.014908548 0.009841558 0.042605318 0.07604911 0.018647134

weight_function_network.initial_cnn.4.weight f4 [16, 8, 3, 3]
00000000: 3d97 533c bf41 f13b b482 75bd a451 9b3d
00000010: 45c4 89bd 0772 c23d e67f 1d3c 5e80 6a3d
00000020: 1b0e 3b3d ae00 c63d e05c 9d3c caac 96bd
00000030: d5e2 dfbd 1ee8 8ebd 3e2f 91bd 3f8e 98bd
00000040: c404 813d 699f 653c 3a9f e23d c764 e83d
00000050: c18b 9cbd 806e 18bb 883d 91bd 1ffa 9f3d
00000060: 9f78 afbd f276 383d 68b8 bbbc 965e 44bd
00000070: a5f1 8cbd 0278 f1bc 1e78 883d 2222 3c3d
00000080: 1d4f c7bd 41cb acbc 834e d0bd 989a 9b3d
00000090: d990 b73d 8323 683d 781e aebd ecff 033d
000000a0: bdfc a2bd 1b14 6a3d 8256 fe3c 8396 3abd
000000b0: 9068 ab3b 5874 853d c86d 603b 000d e03d
000000c0: a3fe 49bd aa29 c1bd 8106 a3bc a92d b93d
000000d0: a584 3cbc 7b48 083c 2163 b43d f5a2 bb3d
000000e0: d8bf 5f3d d3e9 3c3a 99fe 333d fd64 323d
000000f0: 9f1f f4bc 1daa 8fbd 8ffe a9bc e249 5c3d
00000100: 3b7d ae3c 105d c93d 0a74 e53d 44cd 9cbd
00000110: f938 ae3d 1aee 4b3d 2f72 94bd 8664 043e
00000120: d54f dabc b1e0 c0bd e724 b7bd d7e6 bfbc
00000130: 6333 7abd 4e60 983d 69b3 fc3c f93d 06bd
00000140: f741 47bd 9f97 e4bd 997d 223d 0d12 d3bc
00000150: 4a3e d33d dc6e d8bd eec1 01bb d55f 5e3c
00000160: 9117 fcbd 75a1 efbb 71d1 db3c f64b a23d
00000170: 14b9 6a3d 3531 c13d 7f15 6dbd c481 393d
00000180: aebf 9abd d2be 893d 8f74 7dbd f71c 903d
00000190: 4b9b 5c3c 4cfc b2ba 0f17 423d 3df9 d1bd
000001a0: 415c 05be 5ef9 0c3d d841 ddbc 60db bfbc
000001b0: 769e a0bd 3ea8 fdbc 3235 c2bb d8c4 cfbc
000001c0: f073 5e3d cf5e 823d 2295 8fbc 055e 65bd
000001d0: ce71 363d 602a 1f3d 81eb b13d 9ef7 3b3c
000001e0: 40eb 0dbd b4dd 44bc 9a4e 1a3c 3f39 b0bc
000001f0: c85f 93bd d8ee e2bd 023b b53d af7b eebd
00000200: 26c3 32bd c059 b93d d054 c0bd 97f2 f0bc
00000210: accc b5bd 3cd0 5b3b 2c0e c63d 6eca 39bd
00000220: 85f4 a4bd 141b e0bc d5b4 3ebd fb5a b9bd
00000230: d700 6f3d 48d8 8c3d fa21 883d d983 95bd
00000240: 8a42 81bc 62b1 d03b 78b8 6dbd 4073 d33d
00000250: 988b a43d 7ded ca3d 65b3 3c3d 73c4 debd
00000260: 3654 c33d 8876 253d c958 b73c 3b00 ad3c
00000270: 1280 593d cbde 0f3c f812 1e3d 052c cbbd
00000280: 96b8 a93d 6c7e c23d 612b 503d 4393 f53d
00000290: a662 80bd f545 2c3c 0b92 00be 6fd3 a63d
000002a0: 18e1 1a3d 2d30 763d 735f b13b 54be 8cbd
000002b0: dc3f 58bd 1c66 6f3d 3dff 56bd c6f5 d83d
000002c0: 3269 7cbd 2fe0 d6bd acaf abbd f637 493d
000002d0: 11df 883d 1d96 5cbd 9d3f b0bd 2b8b a8bc
000002e0: fd26 e1bc 6bf8 dfbd f06e a33d 4af5 b53d
000002f0: 3caa 8cbc 7c84 12bd 1e5c d13d de41 4cbd
00000300: a366 0fbd a744 7dbd 44b0 633c d888 8c3c
00000310: 9157 e63d 8725 00be 4c8a a23d e47e 1b3d
00000320: 1e38 c03d bd5c 603d 1ce8 d03d edf7 fe3c
00000330: 41ce 013c 7845 4b3d d22d c83d 48e7 2f3c
00000340: d136 943d e562 0f3e 513c 7cbd 702c e43d
00000350: cb05 5b3d 34f0 37bd 4de6 003e d3fc 0e3d
00000360: 1718 b5bd 20e3 2ebd c49e f2bc cb02 9b3d
00000370: 9653 903d 0f2c 26bd 6148 eabd cf12 90bb
00000380: 399e cdbd a93d 4f3c e46f de3c 69d6 c0bd
00000390: dfa8 d9bc 758d d83c c330 ca3d 0a8e dc3d
000003a0: 8a2f febb 5b1a 0ebd 0724 b43c 0230 e03c
000003b0: 924f ea3d c043 e8bd 9146 bfbd 473a 89bd
000003c0: 5334 54bd 0757 823d 435d d0bd b593 ba3c
000003d0: 949b c2bd 6a31 cf3d eca5 c5bc 4caf ff3d
000003e0: 5510 643d a77a 6bbd da8b 113d 88b1 34bd
000003f0: ab36 9dbd 0fd5 c6bd 101e adbd cd74 623d
0.012914476 0.007362574 -0.0599391 0.07583931 -0.067268886 0.09494405 0.009613013 0.057251327
0.04566775 0.096680984 0.019209325 -0.07357176 -0.10931937 -0.069778666 -0.07089089 -0.07449006
0.06299737 0.014015057 0.11065526 0.11347347 -0.076438434 -0.0023259223 -0.07091814 0.07811379
-0.085679285 0.04503531 -0.02291508 -0.047941767 -0.068820275 -0.02947617 0.066635355 0.04593099
-0.097318865 -0.021093013 -0.10171225 0.07597846 0.089631744 0.05667449 -0.08501905 0.032226488
-0.07958362 0.05714808 0.03104711 -0.045553695 0.0052309707 0.065163314 0.0034245122 0.109399796
-0.049315106 -0.09431775 -0.019900562 0.09041912 -0.011506234 0.008318062 0.0880797 0.09161941
0.054626316 0.00072064734 0.043943975 0.04355334 -0.029800234 -0.070148684 -0.020751266 0.053781398
0.021299949 0.098322034 0.11203773 -0.07656339 0.085069604 0.04978762 -0.07248341 0.12928972
-0.026649395 -0.094178565 -0.089425854 -0.023425503 -0.061084162 0.07440244 0.030847268 -0.032773945
-0.048646893 -0.11161732 0.03967056 -0.025765443 0.10314615 -0.1056802 -0.001979943 0.013572653
-0.123091824 -0.0073129483 0.026833268 0.07924645 0.05730541 0.094332136 -0.05788183 0.04528977
-0.07556091 0.06725849 -0.061878737 0.070367746 0.013464759 -0.0013655513 0.04738527 -0.102526166
-0.13023473 0.034417503 -0.027008936 -0.023420036 -0.07842724 -0.030964013 -0.0059267515 -0.025362417
0.054309785 0.063657396 -0.017527167 -0.055997867 0.044542126 0.03885877 0.08687497 0.011472611
-0.03464818 -0.012015749 0.009418154 -0.021511672 -0.07196003 -0.11080712 0.088491455 -0.116446845
-0.04364314 0.090503216 -0.09391177 -0.02941255 -0.08876929 0.0033540865 0.09670672 -0.045359068
-0.08054451 -0.027356662 -0.046559174 -0.09050556 0.05835041 0.0687719 0.066471055 -0.073005386
-0.015778799 0.006368802 -0.05803725 0.103247166 0.08034438 0.099085785 0.04606952 -0.108773135
0.09537546 0.040396243 0.022381203 0.021118274 0.053100653 0.008781145 0.03859231 -0.099205054
0.0828716 0.09496769 0.05082262 0.119909786 -0.06268816 0.010514726 -0.12555711 0.081457965
0.037812322 0.060104538 0.0054129898 -0.0687224 -0.052795276 0.05844699 -0.052489508 0.105937526
-0.06162376 -0.104919784 -0.08383116 0.049125634 0.066831715 -0.053854097 -0.08605883 -0.020574173
-0.027484411 -0.10936054 0.07980144 0.08884676 -0.017171018 -0.03577088 0.10222648 -0.049867503
-0.03500999 -0.06183305 0.0138970055 0.017155096 0.11247171 -0.12514316 0.07936534 0.03796281
0.093857035 0.054775942 0.10200521 0.03112408 0.00792271 0.049626797 0.097743645 0.010736294
0.07237018 0.14002569 -0.06158096 0.11141288 0.05347232 -0.04490681 0.12587853 0.03490908
-0.088424854 -0.042697072 -0.029616721 0.07568892 0.07047193 -0.04056936 -0.114395864 -0.0043967734
-0.10039944 0.012648978 0.027152963 -0.094158955 -0.026569782 0.02643464 0.09872582 0.10769279
-0.007757132 -0.034693103 0.021989835 0.027366642 0.11440958 -0.11341047 -0.09339631 -0.06700569
-0.051807713 0.063642554 -0.10174038 0.02277551 -0.095023304 0.10116847 -0.02412697 0.12484607
0.055679638 -0.057490017 0.035533763 -0.04411462 -0.07676443 -0.097086065 -0.084529996 0.05528717

weight_function_network.initial_cnn.4.bias f4 [16]
00000000: d46c 203b e204 7c3d 4273 a5bd 613b 9bbd
00000010: e3a8 633d 700b a03d 059e 9cbd 4794 14bd
00000020: 39a6 de3d 0b56 96b9 2003 0c3c 03d5 8c3d
00000030: 53c4 a2bd 3822 cc3d 9a00 fcbb de54 19bd
0.002447893 0.061528094 -0.08078624 -0.07579685 0.055580985 0.078146815 -0.07647327 -0.03627422
0.10871548 -0.00028674336 0.008545667 0.06876566 -0.07947602 0.09967464 -0.0076905014 -0.03743445

weight_function_network.initial_cnn.5.weight f4 [16]
00000000: 12c6 803f 462f 803f ce16 813f 25f0 7d3f
00000010: 9031 803f cc82 7e3f aef0 7f3f ec44 7f3f
00000020: aa0f 7f3f 6a35 7f3f 1840 803f 3eee 7f3f
00000030: 98fe 803f 1e90 7d3f cf15 7f3f 17f6 813f
1.0060446 1.0014427 1.0085084 0.99194556 1.0015125 0.9941833 0.99976623 0.9971454
0.99633276 0.9969088 1.001956 0.99972904 1.0077696 0.9904803 0.9964265 1.0153226

weight_function_network.initial_cnn.5.bias f4 [16]
00000000: 1853 ea3b 2233 063b 8d71 dd3a bcbf 01bc
00000010: 5e14 763b 5074 99bc ed3f c8ba c7fa 10bc
00000020: 724e 0c3b dcf8 94bc ce6d 143c f052 95bb
00000030: 7123 bebb 7de8 4fbc f3f5 28bc 2b74 94bc
0.007151019 0.0020477255 0.0016894803 -0.007919248 0.003754876 -0.01873222 -0.001527784 -0.0088488525
0.0021409062 -0.018185072 0.009059383 -0.004557006 -0.005802565 -0.012689707 -0.010312545 -0.0181218

weight_function_network.initial_cnn.5.running_mean f4 [16]
00000000: 0ea4 5a3e 2fa5 a2be 7860 d43e b6f1 d7bd
00000010: 3eeb a6bd 96b6 4abe 41a7 0f3e 211b 79bc
00000020: 4eba 35bd 864f 6c3d 09a6 36be d441 cf3e
00000030: 0345 94bd 0458 3f3d 027b 453d c190 823d
0.21351644 -0.3176665 0.4147985 -0.105441496 -0.08150338 -0.19796214 0.14028646 -0.015204222
-0.044367127 0.057693027 -0.17836775 0.4047991 -0.072397254 0.046714798 0.048213013 0.06375266

weight_function_network.initial_cnn.5.running_var f4 [16]
00000000: 8ac8 953d 7d31 d73d 6d3b a63d 881b a83d
00000010: 0bdc 003e 4243 6a3d 1ab0 b33d a824 403d
00000020: a6c3 b83d 4480 643d 2de4 833d e607 1b3e
00000030: 889c 993d 1ba6 ce3d 8940 573d 87cd ed3c
0.073136404 0.10507486 0.08116803 0.08208376 0.1258394 0.05719305 0.08773823 0.046909958
0.09021692 0.055786386 0.064400055 0.15139732 0.07500559 0.10090276 0.05255178 0.029028667

weight_function_network.initial_cnn.8.weight f4 [32, 16, 3, 3]
00000000: 9e91 443c dddb 04bd c7ed 8dbd 0512 853d
00000010: 8642 68bd 7626 08bd 863b 90bd 2684 e5bc
00000020: 5fa2 9dbd 19b9 943d 3db9 a6bd fb34 3dbc
00000030: 125c a83d 3a01 63bd cb34 a13d f83f 793d
00000040: 2540 403d d8a7 99bd f77f d43b 3124 c039
00000050: 9ee2 edbc 6c0a afbd 26c9 493d 9be6 89bd
00000060: 4cd3 363d fe5c 01bd 7844 bdbc f64f 16bd
00000070: 2bef 80bc 4b4f 823d 883b b5bc 4dd7 503d
00000080: 86a0 6abd 0a76 903d 6db7 9d3d ca65 19bc
00000090: edfb 1dbd 76c4 493d 284e 983d c7c3 b5bc
000000a0: 6966 043d 12c7 363d 12f0 c6bc 09eb 6abd
000000b0: d480 933c dc43 0dbc fe1f 113d 70d0 5b3d
000000c0: 6ade 77b9 fa4d 2bbc 7f37 d3bc b57c dfbc
000000d0: 4dbd 663d 94f0 883d 92ca 96bd 7ab5 ecbc
000000e0: a9db c1bb b1ca 4dbd cc82 b83c 6c1f e0bc
000000f0: 88c8 d3bd 9907 8abd cfef ac3c 6ed3 163d
00000100: 588f 08bc 9237 c1bb 726c 983d 4bb1 94bd
00000110: 3d02 313d 0464 96bd a804 823d 5d4e 153d
00000120: 3b55 863d e1dc a63d 4e0c 5abd 8d3b 1ebc
00000130: 85bb a6bd ca70 feba bdc5 c0bd 41a5 75bd
00000140: ffd8 0f3d 909c 9c3d 11e6 163c 461a 42ba
00000150: c7e2 e2bc 74cf 283d 71f5 533b 135e 87bd
00000160: 15f1 2c3d 64cd 103a 952b 0b3d 32ed 813d
00000170: 1526 843d 898b e9ba b792 cd3c 5a18 82bb
00000180: 153d 603d ed8e 793d 1a9f feba 613d 2f3b
00000190: 1061 1ebd 8607 a93d b872 70bc 46db 253d
000001a0: 7082 99bc cf14 5abd bd22 a73c 9f15 903d
000001b0: 2e8d 533d c6f6 cdb9 df12 51bd 4b21 c4bd
000001c0: 3c86 49bd 5c18 8bbd 5925 8cbc 8d5d 53bd
000001d0: 0095 8abd c3b4 2cbd b55b eebc 9f4c 61bc
000001e0: e8c1 79bc 21cb 973c 9470 9ebb 586f a1bd
000001f0: 4ce0 54bc 6b9b 5ebd da63 d0bc 6749 d33b
00000200: 39ff 92bd 2656 1bbd d7a4 8dbd d16b 4abd
00000210: 12b5 903d 0106 2b3d 5fb0 7cbd ee1e b13d
00000220: 45b4 933c e11f 38bc db60 9e3d 1cfe 4c3d
00000230: 589b 653d 8b4a 593d d5f2 223b 6296 5e3d
00000240: 6f2d 95bd 304a 7b3d 86ce 4a3d 34be ca3c
00000250: 105d 84bd 7020 743d 6d7f 1bbd 5072 b63c
00000260: 2446 783c 82da 883d d4b0 47bc 4121 333d
00000270: ea22 c63c 2784 83bc 3177 b43d 8502 763d
00000280: 5683 eb3a 87b8 1b3d d4dc 85bb 8093 453d
00000290: 60e6 0cbd 214c a23d 3b3b 5b3d 22f3 8abd
000002a0: 3208 573c fd12 c23c c391 853c 6b3d a03d
000002b0: d9f0 38bd 3675 b0ba 2cb1 a03b 1e00 843d
000002c0: 970e adbd 33c1 a5bd d932 7e3a f389 a83d
000002d0: 3e67 19bd 3026 a63c 6d11 5ebd ed8b 63bd
000002e0: 2c66 ebbc 9baf 933d 893b 153d 0883 4a3c
000002f0: 0d8c 173d 9deb 1bbd 87a1 adbb 3201 aa3d
00000300: daed 9cbd ba2d 85bd 0da7 75bc d8e3 413d
00000310: b8e0 283d 163a 2ebd 9118 923d be2f bcbd
00000320: 96b5 57bc 7807 993c caf5 8ebd e14f 97bd
00000330: 9167 a33d 5a06 603a 9765 57bc 7c58 a7bb
00000340: 2869 03bd 9528 92bd 9f44 49bd 5f1f 793d
00000350: 235e b23d ca43 ac3c 7de8 9d3d a2c6 0abd
00000360: 829f e53c 8d18 d5bc 4d29 4f3d c927 a6bb
00000370: cfc0 ce3c 1686 84bd 7eb1 8bbd 3a22 823c
00000380: 560d 9e3c caa4 c5bc a898 8e3a 78b2 883d
00000390: 5e9e 88bd c927 8cbd c259 08bd 6e52 2e3d
000003a0: 8ae6 2c3d e4da 2fbc e284 383d 795b 8c3d
000003b0: 2f20 7dbd 2d43 67bd 9240 6f3a feda 873d
000003c0: 60f6 223b 234b fa3c c715 50bd 3e3d 52bb
000003d0: ea75 af3d d993 103d 2b26 7d3d 43c0 2dbc
000003e0: 1931 0bbc ed3d 98bc b684 9abd be07 84bc
000003f0: 692f 66bd ef67 463d 53ca 38bd d2aa 8fbd
0.0119976085 -0.03243624 -0.06930118 0.064975776 -0.056704067 -0.033239804 -0.07042603 -0.028017115
-0.076969855 0.07261867 -0.081408 -0.011548276 0.08220686 -0.05542109 0.078713976 0.06085202
0.046936173 -0.07502717 0.006484981 0.00036648058 -0.029038724 -0.0854691 0.049264096 -0.06733438
0.044635102 -0.031582825 -0.023103938 -0.03669735 -0.015739044 0.0636278 -0.022123113 0.050986577
-0.057281993 0.07053764 0.07701001 -0.009362647 -0.038570333 0.049259625 0.07436782 -0.02218808
0.03232423 0.044623442 -0.024284396 -0.057353053 0.018005766 -0.008622136 0.0354309 0.05366558
-0.00023638611 -0.010455603 -0.025783299 -0.027281145 0.056332875 0.06686512 -0.07362856 -0.028895129
-0.005916078 -0.05024213 0.022523306 -0.027358733 -0.10340983 -0.067397304 0.021110443 0.03682273
-0.008334957 -0.005896517 0.07442559 -0.072603785 0.043215025 -0.07343295 0.06348544 0.036451686
0.06559225 0.08147598 -0.05323439 -0.009657753 -0.08141235 -0.0019412276 -0.094127156 -0.05997205
0.035119053 0.076470494 0.009210126 -0.0007404428 -0.027696026 0.041213468 0.003234234 -0.0660974
0.0422221 0.00055237697 0.03397711 0.063440695 0.06452576 -0.0017818074 0.025094373 -0.003970188
0.054745752 0.06092732 -0.0019426078 0.0026739466 -0.038666785 0.08253388 -0.014675789 0.04049232
-0.018738955 -0.0532425 0.020402307 0.07035374 0.05164831 -0.00039284508 -0.051043388 -0.09576663
-0.04920028 -0.067917556 -0.017107653 -0.05160289 -0.06766701 -0.042164575 -0.029096464 -0.013751178
-0.015243985 0.018529477 -0.0048351977 -0.07882565 -0.01299293 -0.054347437 -0.025438238 0.006447959
-0.07177586 -0.037923954 -0.06916206 -0.049419228 0.070657864 0.041753773 -0.061691638 0.086484775
0.018030295 -0.011238069 0.077333175 0.050047025 0.05605635 0.053049605 0.0024863977 0.054342635
-0.072840564 0.061350048 0.049513362 0.024748899 -0.06463063 0.059601247 -0.03796332 0.022271305
0.015153442 0.06682302 -0.012188155 0.043732885 0.02418657 -0.016054226 0.088117965 0.060060997
0.0017968218 0.038017776 -0.0040851627 0.04823637 -0.03439939 0.07924677 0.053523283 -0.06784655
0.0131245125 0.023690695 0.016304856 0.078242145 -0.045151565 -0.0013462666 0.004903933 0.06445335
-0.084500484 -0.080934905 0.0009696908 0.08229437 -0.037451975 0.020281881 -0.054215837 -0.055553365
-0.028735243 0.072112285 0.03643373 0.012360342 0.036998797 -0.038066495 -0.0052987966 0.08301009
-0.07662554 -0.06502862 -0.014993441 0.04733643 0.041229934 -0.042535864 0.07133592 -0.091887936
-0.013165852 0.01868032 -0.06980474 -0.073882826 0.07978738 0.00085458683 -0.0131467795 -0.0051069837
-0.032082707 -0.07136647 -0.049137708 0.060820933 0.087093614 0.021028418 0.07710359 -0.033880837
0.02803016 -0.026012683 0.050576497 -0.0050706607 0.025238423 -0.06470887 -0.06820963 0.015885461
0.019293468 -0.02412643 0.0010879235 0.06674665 -0.06670831 -0.06843526 -0.033288725 0.04255908
0.042212047 -0.01073334 0.045048602 0.068533845 -0.06179827 -0.05646055 0.0009126748 0.06633566
0.002486609 0.030553406 -0.05080202 -0.003207996 0.08567412 0.03529725 0.061803978 -0.010604921
-0.0084955925 -0.018584216 -0.07544844 -0.016116973 -0.056197558 0.048438963 -0.045114826 -0.07015003

weight_function_network.initial_cnn.8.bias f4 [32]
00000000: 0a96 f3bc 63b9 823d 8908 98bd 4f85 11bd
00000010: 40a5 0a3d 1547 813d d33f 513d 0832 42bc
00000020: d51f 243d 319b 9abd 3098 3ebd 85b4 e4bb
00000030: 181c 95bd e910 023d 83bb ea3c 8d5d 98bd
00000040: 7bf6 15bc 9bb4 dbbc 0032 1c3d 57aa 64bd
00000050: 658e 53bd a41a 293c 1a57 3fbc d5b6 ee3b
00000060: 78e8 b83b 7b3c 5ebd 4d55 8cbc a5d8 3f3d
00000070: e99a 533d 43ed 993d ae5e f9bb b944 a43c
-0.02973463 0.06383016 -0.07423503 -0.035527524 0.033849 0.06312386 0.05108626 -0.011852749
0.04006942 -0.07549132 -0.046531856 -0.0069795274 -0.07280749 0.031754408 0.028653866 -0.074397184
-0.009153004 -0.026819518 0.03813362 -0.05582651 -0.05164947 0.010321293 -0.0116784815 0.007284979
0.005642947 -0.054256897 -0.017130518 0.046837468 0.051661406 0.07515957 -0.0076101637 0.0200523

weight_function_network.initial_cnn.9.weight f4 [32]
00000000: c89c 7c3f fe07 7d3f 4f54 803f 4254 803f
00000010: 617a 7f3f c018 813f 6d07 813f a49d 7e3f
00000020: 4c51 823f 6ead 7d3f 934b 813f 2b94 7f3f
00000030: 88ae 7f3f 3cbe 803f f4da 803f 41c3 7d3f
00000040: 9ca1 803f 4ecf 7d3f 1d6a 7e3f f342 803f
00000050: 7dee 7e3f 62aa 813f f05e 7f3f 121c 803f
00000060: 6256 803f bb5f 7c3f 08a7 7f3f eca7 803f
00000070: 5e81 7f3f 0e41 7c3f 4877 7e3f a241 803f
0.9867673 0.9884032 1.0025729 1.0025713 0.9979611 1.0085678 1.0080391 0.9945929
1.018106 0.9909276 1.0101188 0.9983546 0.9987569 1.0058055 1.0066819 0.9912606
1.0049319 0.99144447 0.99380666 1.0020431 0.99582654 1.0130122 0.9975424 1.0008566
1.0026362 0.98583573 0.99864244 1.0051246 0.99806774 0.98536766 0.9940076 1.002003

weight_function_network.initial_cnn.9.bias f4 [32]
00000000: 4b79 f9bb f88c 2fbc d81e eb3b 482f 3dbc
00000010: 4d9e dfbb c7c4 e73b 1e91 ffba 6881 78bc
00000020: b048 17bb 2db5 95bc 6496 d3bb 89d8 54bc
00000030: aed1 9dbb f956 40bb f6c4 a4bb 9899 c9bb
00000040: 58a6 b63b 76db c7bb 2857 59bc 329e 7ebb
00000050: 50b4 6cbc 26a7 f23a 9d92 bbbb ef16 92bb
00000060: 9421 fb3b b68f 19bc d9cb 5c3b 036f 6dba
00000070: af49 55bc 9592 15bc b6fd 0dbc 3f24 95bc
-0.007613336 -0.010714762 0.0071753077 -0.011546917 -0.006824291 0.0070730182 -0.0019498204 -0.015167572
-0.0023084097 -0.018274868 -0.006457137 -0.012991079 -0.0048162555 -0.0029348715 -0.0050283624 -0.006152343
0.005574029 -0.00609916 -0.013265409 -0.0038851616 -0.014447287 0.0018512949 -0.005724265 -0.0044583003
0.007663915 -0.009372642 0.0033690839 -0.00090573746 -0.013018056 -0.009129186 -0.008666446 -0.01820576

weight_function_network.initial_cnn.9.running_mean f4 [32]
00000000: 3033 44be bbcb d73d 32a7 acbd 6260 cebd
00000010: d822 dbbd ef29 5c3d a2c3 9c3e 1260 3cbd
00000020: b744 9e3e f55d 2bbe 9269 09be 947a d4bd
00000030: eeef dfbb 5cbb adbd 5489 193e 76b7 ae3c
00000040: 4c65 6abb 99f6 b7bd 24bf afbc ba14 dcbe
00000050: aa8f f2bd b81b 993d 2390 cfbe d494 783d
00000060: 094a b0be 76b6 af3c 034f bc3d 6812 6a3e
00000070: 6540 9ebd 669b 36be d2b2 893e 3bcc 90be
-0.19160151 0.105369054 -0.084303275 -0.10076977 -0.10700005 0.05375093 0.30618006 -0.045990057
0.309118 -0.1673506 -0.13419178 -0.103749424 -0.006834022 -0.084830016 0.14993793 0.021327715
-0.0035765944 -0.08982582 -0.021453448 -0.42984563 -0.11843808 0.0747599 -0.40539655 0.06068881
-0.34431484 0.021449309 0.09194758 0.22858584 -0.07727126 -0.17832717 0.26894242 -0.28280815

weight_function_network.initial_cnn.9.running_var f4 [32]
00000000: 4683 053e 4d35 b43d 347c ca3d f872 ce3d
00000010: 715f 7a3d a7fa 963d b377 993d ab0d a13d
00000020: 5ba1 833d e2de 843d 4ff7 573d 6844 763d
00000030: 6cf1 243d e60a 2f3d bfe1 ac3c 5292 c13d
00000040: b5d2 353d fbb4 8d3d 177e 003e 7023 233e
00000050: 0380 b23d 14b0 0f3d 4623 943d a662 873d
00000060: 0dca ac3d 0987 863d 5bdf b73d 8b59 a13d
00000070: 8141 5f3d c69b a23d 1afe 303e 39e5 003e
0.13038358 0.08799229 0.09886971 0.10080522 0.061126176 0.07372027 0.07493534 0.07863935
0.064272605 0.06487824 0.052726086 0.06012383 0.0402693 0.042735003 0.021103738 0.094517365
0.0443904 0.06919285 0.125481 0.15931487 0.087158225 0.03508003 0.072332904 0.066106126
0.08436976 0.06568725 0.089781485 0.07878407 0.05450583 0.07939868 0.17284432 0.12587442

weight_function_network.initial_cnn.11.weight f4 [32, 32, 3, 3]
00000000: 0235 0cbd eee1 e13c aa4c 843c 5b01 e03c
00000010: 214a 0abd 9a7a 263c 8b89 853b 1b88 25bd
00000020: 9e7c 9abc 7c20 683d 819b 07bc c062 b3bc
00000030: 5287 7bbd bcfe f43c 7597 413d 72cd 7fbb
00000040: a38d d83c 64e8 44bd 9d2a b13c 1810 ab3c
00000050: 72fd ff3b 7d05 893c bb5e 3b3d e151 3f3c
00000060: 2597 483c c8fe 04bd 2df6 bb3c d367 4a3c
00000070: caba c8bb 2c95 12bc 39fb 3cbd 394d 9ebc
00000080: 39ac 3bbc 4901 29bd 8884 a1bc c8e0 8c3b
00000090: 9ad9 d43c 2d9a 75bc cdaa 863d c038 753d
000000a0: 207b d1bc 0438 6f3d d63c 15bd 742b 54bd
000000b0: 82ad 8b3d a947 463d bbf9 cf3c c6bf 31bd
000000c0: f7a9 b3bc 3f2a 32bd a15b 98bc 5eea 2a3d
000000d0: 8201 91bd 05bb 003d 0b52 fe3c f409 03bd
000000e0: 5713 7dbc 6179 0fbd 5ad4 e2bc 15c6 083b
000000f0: d9b0 d4bb 7ffb 623d 2b36 8dbc fe53 d33c
00000100: bc69 24bd daac 5d3d 6c87 07bd 3dcc e9bc
00000110: b961 88bc 72c6 4d3d 85fa 99bc 56e0 59bd
00000120: 8b78 8a3d 4dcb c2bb 1ea8 1abd ffe2 3b3d
00000130: 87a4 273b 3b05 3dbd 615b 4c3c 2ef4 163c
00000140: ff7f 003d ea8d c33c 6ddf e03c 7dd8 13bd
00000150: 5b05 97bc ea32 3ebd 00ff 43bc acc5 063d
00000160: 842e 293d 75d2 0abd df9e 32bb cbd0 81bd
00000170: 40eb 4bbd c875 a4bc fc22 803c ec5a a7ba
00000180: 863f 853a 95ed 41bd 7f8f 9e3c 44dd 9e3d
00000190: 4f9e 37bd bc90 243d 634e 3e3d 2c44 32bc
000001a0: 4b4f 8a3c 0a7b 05bd 8f0a 7fbd 4be5 243d
000001b0: 9a13 4d3c 906b 7c3d d3f8 18bc 6d1a 6a3c
000001c0: a8b4 aebc 0aac 673d a7d7 83bc 8bde f83b
000001d0: 3ec3 303d 139c edbc 2eaf a73c 90b8 b43b
000001e0: 2aac 2a3d be75 7fbd 0fe8 033d 899d 3fbc
000001f0: f959 6dbd 2090 64bc d6a9 553d 8efe 33bd
00000200: c497 e83b 8be4 20bd a4ac 80bb bf4f 693d
00000210: 910a 093c 0eea d9bb b121 7cbc a194 9d3d
00000220: bd08 1a3d 9b03 33bd e742 a3bc 97b7 0c3d
00000230: e938 83bc 88ab fdbb 0077 47bd fd74 02bd
00000240: e2b5 ce3c 5b5d 703c 543c 503d 4bab 04bd
00000250: 1c61 11b9 54fb a73b a9db 0f3d acc0 623d
00000260: e601 8fbc 53a5 743d 4b11 a0bc 01b6 393b
00000270: f96e e03c 9b67 fe3c 06ce c7bb 75ac 09bd
00000280: 7bf9 393d c0a8 08bd ea8a 3cbd e2e1 1abd
00000290: 299c fbbb a369 503d 5990 0b3c b3e6 01bd
000002a0: ba61 c9bc dd3b 763a 2801 60b9 9483 52bd
000002b0: 83fd 2f3c a7a5 69ba 4428 0e3d 9fd8 3d3c
000002c0: 4fc4 f13b 16ee 45bc 1352 6c3c 2a0f bf3a
000002d0: ec95 003d 59bc 353d f496 5d3c cb99 083c
000002e0: 1de9 54bc df47 723d 8c6b 1f3c 4957 5bbc
000002f0: 3237 7d3d 625d fb3b e299 293d ff9e fa3c
00000300: f5dd a1bc 942e f83a 5e80 383b 9c71 bc3c
00000310: df63 2e3c b21e 17bd 23b1 283d 1148 a8bc
00000320: 3c04 9a3c 5dcf b5bc 01cd c23c 0bc0 43bd
00000330: c21d 05bd 7c51 873d c5a8 8abc 56d4 8dbc
00000340: 0b48 8bbd be12 efbc 76e7 30bd 42b2 c73c
00000350: 688e 063d f265 54bc 8c1d f9bb dc37 4abd
00000360: 1137 333b 1d5a 983c 877c f1bc 8abc 063b
00000370: 0ff2 503d 620f 0f3d 2f5b 3ebc 0d26 103d
00000380: bc9a 91bc 7d2e fd3c 97bf 78bd 5dcb 5ebd
00000390: 4d86 5fbc 24f6 843d 2fc4 33bc d2f6 043c
000003a0: a32e e2bc 9009 14bd 0d9d 5fbd cacf 5dbb
000003b0: 2660 abbb e31e a33b 7229 823d 8c62 543d
000003c0: 18ba 9d3b 1137 363d 5252 193b 547b 033c
000003d0: 1463 403d 0fc2 123d 7122 57bd 4235 2e3d
000003e0: 7bca c5bb 421d 143d 62bb ffbb cb78 babc
000003f0: 6210 653d 2933 02bd 0f3f 903c 0b9a 993d
-0.03423024 0.027573552 0.016149838 0.027344396 -0.0337621 0.010161066 0.0040752343 -0.040413003
-0.01885825 0.056671605 -0.008276821 -0.021897674 -0.06140835 0.029906623 0.04726358 -0.0039032367
0.026434725 -0.048073187 0.021626765 0.020881698 0.0078121955 0.01672625 0.04574464 0.011677236
0.012243067 -0.03246954 0.022944534 0.012353855 -0.0061257826 -0.008946698 -0.046138022 -0.019323932
-0.011454635 -0.04126099 -0.019716516 0.004299257 0.025982667 -0.014990372 0.065755464 0.059868574
-0.025571406 0.05840303 -0.03643497 -0.051799253 0.06820203 0.048408184 0.025387635 -0.04339578
-0.021931631 -0.04349732 -0.01859838 0.041727416 -0.07080366 0.031428356 0.03104498 -0.031991914
-0.0154465055 -0.035027865 -0.027689148 0.002087002 -0.0064908084 0.055415627 -0.017237743 0.025796887
-0.0401399 0.054119922 -0.033088133 -0.028539771 -0.01664816 0.05023808 -0.018796215 -0.05319246
0.06761273 -0.0059446455 -0.037757985 0.045870777 0.0025580244 -0.046147566 0.012472958 0.00921349
0.031372067 0.02387138 0.027450288 -0.03609513 -0.01843517 -0.046435274 -0.011962652 0.03290336
0.041304126 -0.033892114 -0.002725534 -0.06338652 -0.0497849 -0.020075694 0.015641682 -0.0012768186
0.0010166026 -0.047345717 0.019355534 0.07757047 -0.04482871 0.040177092 0.046461474 -0.010880511
0.016883513 -0.032588042 -0.06226593 0.040257733 0.01251688 0.061626017 -0.009336668 0.014288527
-0.021326378 0.056560554 -0.016094042 0.0075948886 0.043154947 -0.029005086 0.020469274 0.0055151656
0.041668095 -0.062368147 0.03220373 -0.011695274 -0.057947133 -0.013950378 0.05216392 -0.043943934
0.00709817 -0.039280456 -0.0039268304 0.056960817 0.008364336 -0.006650216 -0.015388892 0.07694364
0.03760599 -0.04370461 -0.019929362 0.034354772 -0.016018348 -0.0077413954 -0.04869747 -0.03184985
0.025233213 0.014670695 0.050838783 -0.03238992 -0.00013864454 0.005126396 0.035121594 0.055359527
-0.01745696 0.059727978 -0.019539496 0.0028337243 0.027396666 0.031055262 -0.006097558 -0.033611733
0.04540394 -0.033364058 -0.046030916 -0.037813075 -0.007678528 0.050881993 0.008518302 -0.031714153
-0.024582732 0.00093930756 -0.00021362735 -0.051395014 0.010741594 -0.0008912929 0.03470637 0.011587291
0.007378138 -0.01208069 0.014423865 0.0014576663 0.031392977 0.044369075 0.01352476 0.008337448
-0.012995032 0.059150573 0.009730231 -0.01338751 0.061820216 0.007671044 0.04140652 0.030593393
-0.019759158 0.001893478 0.0028152685 0.023003392 0.010643928 -0.036894508 0.041184556 -0.020542176
0.018800847 -0.022193605 0.023779394 -0.04779057 -0.032499082 0.06607339 -0.016926179 -0.017313164
-0.068008505 -0.029183742 -0.04318949 0.024376992 0.032850653 -0.012963759 -0.007602399 -0.049369678
0.0027346055 0.018597657 -0.029478325 0.0020559155 0.051012095 0.03492678 -0.01161842 0.035192538
-0.017773978 0.030905956 -0.06072959 -0.05439316 -0.01364286 0.0649226 -0.010972067 0.008115487
-0.027610129 -0.036141932 -0.054593135 -0.0033845776 -0.0052299676 0.004978047 0.06355561 0.051851794
0.004813444 0.04448611 0.0023395014 0.008025009 0.04696949 0.0358296 -0.05252308 0.04253126
-0.0060361004 0.036160715 -0.00780432 -0.022762677 0.055923827 -0.03178707 0.017608194 0.075000845

weight_function_network.initial_cnn.11.bias f4 [32]
00000000: 6b90 133d cc13 a83b 84a3 143d 1c22 bd3c
00000010: 2b5f 0c3d 85ca 17bd a793 18bd 746a b23c
00000020: f921 8b3b 7819 bd3c 0456 0cbd 2ea4 2d3d
00000030: dce7 c53c 527c a23c 05db 13bc 63bb d33c
00000040: a8e5 b83c 152b 68bd 614b fb3c a287 2ebd
00000050: 726b 41bd 1487 36bd cc87 47bd c6c0 38bd
00000060: 9a34 233d 6a01 17bc 7998 f7bc 0453 443d
00000070: 4fdb 63bd e16a 51bc d6ec 623c 635a 2b3c
0.0360264 0.005129313 0.036288753 0.023087554 0.034270447 -0.037058372 -0.037250187 0.021779276
0.004245993 0.023083434 -0.03426172 0.042392902 0.02415841 0.019834671 -0.009024386 0.025846189
0.022570446 -0.05668171 0.030675592 -0.04260982 -0.04722161 -0.044562414 -0.04871349 -0.045105718
0.039845087 -0.009216646 -0.030224072 0.047930732 -0.05562907 -0.01278183 0.013850411 0.010458562

weight_function_network.initial_cnn.12.weight f4 [32]
00000000: c597 813f 768c 813f 9888 803f 9c96 7f3f
00000010: 571b 7d3f 2299 7d3f adb9 7e3f d5e5 803f
00000020: 8fd4 803f 27c0 7e3f b447 813f 206c 7d3f
00000030: 16ac 7d3f 772b 823f fd07 803f 4296 813f
00000040: f44f 7e3f 3b5b 803f 9123 7f3f 7105 803f
00000050: 6861 7f3f da6a 803f 4849 7d3f 7fa0 7d3f
00000060: d601 7b3f 6e92 803f 9e9f 7f3f d24b 7f3f
00000070: abb7 803f 4ad8 7f3f dfd4 7e3f e5eb 7e3f
1.0124441 1.012099 1.0041685 0.99839187 0.9886984 0.9906179 0.9950207 1.0070139
1.0064868 0.9951195 1.0100007 0.9899311 0.9909071 1.0169514 1.0002438 1.012398
0.9934075 1.0027841 0.99663645 1.000166 0.99758005 1.0032609 0.98939943 0.9907302
0.98049676 1.0044687 0.9985293 0.9972507 1.0056051 0.99939406 0.99543566 0.99578696

weight_function_network.initial_cnn.12.bias f4 [32]
00000000: 4456 29bb 50cf cdba 709e 5fbc b290 8b3b
00000010: c6b3 aabc c80f 6bbc fe52 883a b648 5b3c
00000020: c098 023c 1539 cebb d2ee 96bc 383a 6dbb
00000030: 3fc0 6cbc e996 463c 02d8 74bb 91ba febb
00000040: f97b 44bc efe1 f2b9 ad6a dcbb 45d0 79bc
00000050: 2a51 36bb 03b1 4c3c 8993 3fbc bb36 963b
00000060: e0c5 83bc 09e5 6e3c 939e 6bbc 510b 1bbb
00000070: 7170 d43b b891 533b ad01 26bb 0f08 0cbc
-0.0025838772 -0.0015702043 -0.013648614 0.0042591924 -0.020837676 -0.014347024 0.001040071 0.013384035
0.007970989 -0.006293426 -0.018424425 -0.003619803 -0.014450132 0.012120941 -0.0037360196 -0.0077737053
-0.011992448 -0.0004632617 -0.006726584 -0.015247409 -0.0027819374 0.012493375 -0.01169289 0.004584161
-0.016085565 0.014580973 -0.014381069 -0.0023657868 0.0064831306 0.00322829 -0.0025330589 -0.008546843

weight_function_network.initial_cnn.12.running_mean f4 [32]
00000000: 3003 5d3e 91d4 bb3e 2a01 a9bb 6906 243e
00000010: ea20 a8bd 9403 f1be 77d9 f7be 0391 273e
00000020: 472f 63bc 651c e53d a97a 263e 3482 a43d
00000030: 5547 79be 270e a93e c34c b2bc 0baa f33d
00000040: eb8c a43e 2171 e03c d314 b83e ebe2 c8bd
00000050: 900d 553d da5c 7b3e 3854 433e a0c0 fe3d
00000060: 4ad8 e5be 7ee9 5ebc 470f 2abe c171 133e
00000070: 7761 b4be e06e bc3c ad0d 7fbd a54e ba3d
0.21583247 0.36685613 -0.0051576095 0.1601807 -0.08209403 -0.47073042 -0.484081 0.16363911
-0.013866252 0.111870565 0.16257729 0.08032647 -0.24343617 0.3301861 -0.021765118 0.118976675
0.32138762 0.027397694 0.35953388 -0.09808906 0.052014887 0.24547139 0.19075096 0.12439084
-0.44891578 -0.013605474 -0.1660739 0.14398862 -0.3523061 0.023002088 -0.0622689 0.090970315

weight_function_network.initial_cnn.12.running_var f4 [32]
00000000: 1297 e63d 2199 b93d 41ea fd3d fd5c cf3d
00000010: 00e4 e43d f206 193e ea54 483e 1c27 ae3d
00000020: c056 a03d 3d91 1d3e 317d ae3d 520c dd3d
00000030: a273 f43d de0c fd3d b494 b03d 4f9e 713d
00000040: 7f34 bb3d 6a99 923d 3b21 ef3d dfd9 ef3d
00000050: c9e8 9b3d 97ea b03d 73eb 1c3e 1ed4 f43d
00000060: 4dff 613e ebfe d23d 7aa7 0d3e 3648 c33d
00000070: f65b f13d d6b8 d23d 0a30 043e 1ab5 d53d
0.11259283 0.0906241 0.12398196 0.10125158 0.111763 0.14944056 0.19563642 0.08503553
0.07829046 0.15387435 0.08519972 0.107933655 0.11936118 0.1235597 0.08622113 0.058988865
0.09140872 0.07158168 0.1167626 0.117114775 0.076127596 0.086384945 0.15324192 0.11954521
0.22070046 0.10302528 0.13833418 0.095352575 0.11785118 0.10289161 0.1290895 0.10434933

weight_function_network.adaptive_layer.1.weight f4 [64, 32, 3, 3]
00000000: fa1d d7bc 0bb6 183d eb46 1fbc 198a 7cbd
00000010: a001 b3bc 2f23 1abd 43ba c3bc ca05 623c
00000020: c201 09bd 3835 2b3d 1ef1 09bc 674c 233d
00000030: 5bee b23c b9d9 113d 9a23 13bc cd48 45bd
00000040: aa5d 183c 97cd b73c eddd 65bd 0407 703c
00000050: bdfe 52bd 4afb 6b3d 1be3 203c 08b3 603a
00000060: 3a16 303d 36d3 133d 3d45 febc c2c0 923b
00000070: 542a 103d a2c0 82bc e37a 693d 3735 4e3a
00000080: fc44 403d f508 373d 0664 83bc f0f9 f33c
00000090: 8895 b9bc 43c4 0dbd f1e8 303d db76 85bc
000000a0: dfc5 efbc d8f4 53bd 6581 463d 7654 53bd
000000b0: c077 ba3b 699a b63c e565 a73c 2e6e 4b3d
000000c0: 9dae 2a3d 31a3 e83c a71b d5bb b271 ed3c
000000d0: 9472 d23c 2141 d3bc 5f25 9f3c ff04 bd3c
000000e0: 1136 583d fdf5 36bc b124 733d 8c64 1abd
000000f0: 0328 873b 941a 0b3d d212 d5bc 1895 6a3c
00000100: 1961 593b d2f5 083d bdd8 a93c 58b5 c7bc
00000110: 5761 b3bc f2de 5a3d dcdb 8bbb c52d 173d
00000120: ec27 30bc 661d 253c 44e6 393d 3df0 6139
00000130: 76b9 04bd 503f 0f3d b26c dfbc 51ea 2f3d
00000140: 929f ff3c 4742 91bd 6906 7abd 387b 22bd
00000150: bb89 8bbd a464 f7bc 2998 54bd 6877 10bd
00000160: ce5a a03b bd51 19bc f68c f8bc 8b68 7d3d
00000170: 06f1 4cbc 5cbb 1f3c bf10 32bc 5a3b 713d
00000180: 858c 1e3d b0c0 64bc cfe5 363d 3c71 3fbc
00000190: f5e2 153d 052f 483c 69f5 2e3d d046 12bd
000001a0: 82dc 293d 42fc f2bb b7eb aa3c 2c0c 43bd
000001b0: 3c40 41bd 1507 cbbc 22ff cfbc 21e2 6c3c
000001c0: 58a3 d13c b741 49bb 92b9 573d a569 ad3a
000001d0: 7e6e 79bd aebf f13c bfae 15bd 6938 6cbc
000001e0: b8db 1fbc dd48 80bd 4dce cfbc a591 27bd
000001f0: 5b24 70bd f2ec acbc d7bb 6bbd 7e50 4d3d
00000200: 3357 5bbd 50e2 31bd 1933 383d 7b8a cf3c
00000210: f0cc 75bc 9054 103d c0e6 483d 0d4d df3c
00000220: 4364 593d 5404 ccbc 03a4 c8bb de9e 9c3c
00000230: 5c0d 5ebd 6ef1 58bd 7014 87bb 8c65 57bc
00000240: f4d5 85bb a250 16bd f9aa 813d f238 393d
00000250: 1575 bfbc 528d 913c 949b a3bc 0494 73bc
00000260: e2bd 1f3d 521a 7d3d e490 453d 7313 023d
00000270: 0c50 55bc e37a 8b3d d7c0 983c e297 2ebc
00000280: 6e0c 24bc dea9 f2bb 462a 56bd 8739 22bd
00000290: c0a0 47bb 6bcc e2bc 2d89 c33c 2396 43bd
000002a0: 8761 1abd ce8b 1f3d 7aed c2ba abfe 33bc
000002b0: 3234 44bd 2a3e 373d 2106 bd3c 863d 2cbd
000002c0: c8b2 013a 2bac 83bc 88b8 a7bc a645 bebb
000002d0: 887e 5d3d 84e4 f6bb 9478 ca3c 9490 983c
000002e0: 0282 b2bc f4d7 1bbc dc0d 193d e714 12bc
000002f0: f276 e33c da8b a9bc b054 3cbc a2f5 cdbb
00000300: d079 18bd 7d14 063d ddf4 c1bc a203 9f3c
00000310: eb0e 7b3d 0509 143d ef9e 90bc 602b 01bd
00000320: 145b ac3a ebd3 313d 9cfb 303d 7592 3a3d
00000330: 7a72 02bd be1f b9bc 0d72 debc 7117 4b3b
00000340: 035b 5c3d 9d2f 8c3c a944 21bd 22a9 1d3d
00000350: 2cb3 f8bc 72e9 673c e097 69bd 255b 713c
00000360: cab7 333d 031d 54bd fba1 af3c f909 b53c
00000370: e53c e73c 0ca2 f0bc 4a84 b83b 2343 54bd
00000380: 4b50 343d 978c 42bd ded3 a3bc 7680 743d
00000390: 5a5a a9bc 6ed2 fcbc 947f 46b9 6a98 803d
000003a0: f5b1 2d3d 396f 4fbc f740 d0bc bd6c 10bd
000003b0: 79c7 c33c f1bc 04bd 891b b3bc 6190 e33c
000003c0: 73a0 473d edc1 a7bb 9dda a7bc b31c f0bc
000003d0: e68b 43bd 3751 69bd 397c b0bc 7682 5bbd
000003e0: bcf1 9d3c 834d 10bb eec5 8b3c 4fae 05bb
000003f0: 0c96 6a3c ca4f 65bd e491 80bd 0163 26bd
-0.026259411 0.037282985 -0.009721498 -0.061655138 -0.02185136 -0.03763121 -0.023892527 0.0137953255
-0.033448942 0.0417988 -0.008419303 0.039867785 0.021842172 0.035608027 -0.008980656 -0.04816513
0.009299675 0.0224369 -0.056119848 0.01465011 -0.05151247 0.057612695 0.009819771 0.00085715996
0.042989947 0.0360901 -0.031038875 0.004478545 0.035196617 -0.015960995 0.05700196 0.0007866206
0.04694079 0.044686276 -0.016038906 0.029782265 -0.02265431 -0.034610998 0.0431909 -0.016292026
-0.029269157 -0.051747173 0.048463244 -0.05159422 0.005690545 0.022290425 0.02043433 0.049665622
0.04167043 0.028398128 -0.0065035406 0.028984878 0.0256894 -0.025787892 0.019427 0.023073671
0.052785937 -0.011167047 0.059361164 -0.037693545 0.004124643 0.033960894 -0.02600995 0.014317773
0.0033169447 0.033437558 0.020733232 -0.024378464 -0.021897001 0.053435273 -0.0042681526 0.036908884
-0.010751706 0.01007781 0.045385614 0.00021547168 -0.03240343 0.03497249 -0.02727351 0.04294807
0.031204019 -0.070927195 -0.06104127 -0.03966829 -0.068133794 -0.030199356 -0.051902924 -0.035270125
0.0048936373 -0.009357867 -0.030340653 0.061867278 -0.012508636 0.00974926 -0.01086825 0.058894493
0.03870823 -0.013961956 0.044652756 -0.011684712 0.036593396 0.012218242 0.04271451 -0.035712063
0.04147006 -0.0074153254 0.02086435 -0.04761903 -0.0471804 -0.02478365 -0.025390211 0.01445821
0.025590584 -0.0030709335 0.052667208 0.0013230337 -0.06089639 0.029510345 -0.036543604 -0.014417746
-0.009756975 -0.062638976 -0.025366927 -0.04091038 -0.05862842 -0.021109078 -0.057552185 0.05012559
-0.053549957 -0.04342872 0.044970606 0.025334587 -0.015002474 0.035236895 0.049048185 0.02725842
0.053074133 -0.024904408 -0.0061230673 0.019118723 -0.05421196 -0.05296462 -0.0041223094 -0.013146769
-0.004084343 -0.03669799 0.063314386 0.045220323 -0.023371259 0.017767582 -0.019971646 -0.014866833
0.038999446 0.06179268 0.04823388 0.03175683 -0.013019573 0.06810548 0.01864664 -0.010656329
-0.010012729 -0.0074055037 -0.05228641 -0.039605644 -0.0030460805 -0.027685365 0.023869121 -0.047750603
-0.037690666 0.038951688 -0.0014871799 -0.010986011 -0.04790134 0.04473702 0.023074212 -0.04205086
0.00049476 -0.016073307 -0.020473734 -0.0058066426 0.054075748 -0.0075345654 0.0247157 0.018623628
-0.021790508 -0.009511936 0.037366733 -0.008916116 0.027766678 -0.02069657 -0.0114948 -0.006285385
-0.037225544 0.032734383 -0.02367633 0.019410912 0.061293524 0.036141414 -0.01765391 -0.031535506
0.0013149702 0.04341499 0.043208703 0.04554983 -0.031847455 -0.022598144 -0.027153993 0.0030989314
0.053797733 0.017112548 -0.03937212 0.038491376 -0.030358873 0.014154779 -0.057029605 0.014731203
0.043876447 -0.05178548 0.021439543 0.022099482 0.028227279 -0.029374145 0.0056310045 -0.05182184
0.044021886 -0.04749736 -0.019998487 0.059692822 -0.020672966 -0.03086206 -0.00018930278 0.06279071
0.04240604 -0.012660795 -0.025421603 -0.03525995 0.023898827 -0.03240675 -0.021863716 0.027778806
0.048737 -0.0051195533 -0.020489985 -0.02931056 -0.04774084 -0.056962218 -0.021543609 -0.053591214
0.019280307 -0.0022018857 0.017062154 -0.0020398085 0.0143180005 -0.055984296 -0.062778264 -0.04062176

weight_function_network.adaptive_layer.1.bias f4 [64]
00000000: 9e42 b0bc b903 063a a8ed 4d3c fdae 08bb
00000010: c894 203b d784 7e3c 28de a0bc c3fc 36bd
00000020: 7fb5 273d 1bd8 e5b9 75b3 f0bc 8307 d2bc
00000030: 9abb 5ebc dc5e 5d3c 3f16 34bd 731b d13c
00000040: 35d2 bd3c a8bc 423d c8d6 083d 4a3a 0fbd
00000050: fa73 f4bc 36f4 b13c b539 ccbc 0bf2 e53c
00000060: 527d 0d3c d518 acbc 7f88 33bc d06e fc3a
00000070: d2be 28bc 0797 46bc 6ed5 3f3d 460a 6b3d
00000080: 1a0c ecbb e635 6a3b 55e6 00bc 8a15 8cbc
00000090: 1d9c 2b3d 13df 3cbd 9ee2 95bc 3051 a93c
000000a0: 2245 ff3c 73b9 00bd d0ca 2d3d 69eb 3abc
000000b0: d69a 673c 611f 1d3d bcac 45bd 68ee 313c
000000c0: 8e11 65bd 3004 2d3c b183 57bd f325 533d
000000d0: bcc6 db3c 3440 6dbd 338b 0abc c657 213d
000000e0: 34e2 56bc 825b 273d f69e 09bd 219a d33c
000000f0: b190 53bc eb1e 143d fbe1 123d 0524 4ebd
-0.02151614 0.0005112249 0.012568869 -0.0020856254 0.0024502743 0.015534601 -0.019637182 -0.044674646
0.040944573 -0.00043839295 -0.029382447 -0.025638347 -0.013594532 0.013511386 -0.043966528 0.025525784
0.023171524 0.047543198 0.033407956 -0.0349677 -0.029840458 0.021722894 -0.02492986 0.028069517
0.008635836 -0.021007935 -0.010957836 0.0019259099 -0.010299401 -0.012120969 0.0468344 0.057382844
-0.007203591 0.0035737692 -0.007867415 -0.017100114 0.041896928 -0.046111178 -0.018296536 0.020668596
0.031160895 -0.03142686 0.042429745 -0.011408665 0.014136037 0.038360003 -0.048260435 0.010860063
-0.055924945 0.01056008 -0.052615825 0.051549863 0.026828162 -0.057922557 -0.008456039 0.039390348
-0.013115454 0.040858753 -0.033598863 0.02583033 -0.012912915 0.0361623 0.035860043 -0.05032732

weight_function_network.adaptive_layer.2.weight f4 [64]
00000000: 70d1 803f d5d6 803f 0765 803f d814 803f
00000010: 33eb 793f 6aee 7f3f 7f7d 7f3f 6f7c 7f3f
00000020: 0a4c 7e3f 1b8c 803f 3a8b 803f acc1 7f3f
00000030: d5f2 7d3f 0942 803f 2c30 813f 663e 803f
00000040: 3196 803f 70e9 7d3f 17e1 7d3f f68c 813f
00000050: 8e7c 803f c59d 813f a59c 7f3f 67a9 7c3f
00000060: a62f 7e3f 566e 7b3f 5fb0 7d3f dc9c 803f
00000070: 3c92 7a3f bd32 813f f609 813f 36b4 7f3f
00000080: 64c9 7d3f 6581 803f d8a1 7f3f bfc4 7d3f
00000090: b2f3 7e3f d838 813f a05b 7f3f 121b 803f
000000a0: 7f28 813f e028 7f3f 3a3e 803f deac 7c3f
000000b0: 0b27 7e3f c0a4 7b3f c9fa 7c3f d234 7a3f
000000c0: f509 7c3f e33c 803f 3435 7b3f da87 7e3f
000000d0: beb6 7e3f ecdf 803f e055 803f 9f96 803f
000000e0: 1be7 7d3f aafc 813f 4bc3 7e3f e95f 7f3f
000000f0: cb02 813f 9284 7e3f 6b5c 813f 206a 7d3f
1.0063915 1.0065562 1.0030831 1.0006361 0.9762451 0.99973166 0.99800867 0.99799246
0.99334776 1.0042757 1.0042489 0.99904895 0.9919866 1.0020152 1.0092826 1.0019042
1.0045835 0.9918432 0.99171585 1.0121143 1.0038011 1.0126272 0.99848396 0.9869599
0.99291456 0.98215234 0.99097246 1.004787 0.97879386 1.0093609 1.0081165 0.99884355
0.9913542 1.0039488 0.9985633 0.99128336 0.995906 1.0095472 0.99749184 1.0008261
1.0090483 0.99671745 1.001899 0.98701274 0.99278325 0.98298264 0.9882017 0.9773685
0.98452693 1.0018581 0.98128057 0.99426043 0.9949759 1.0068336 1.0026207 1.0045966
0.99180764 1.0155232 0.99516743 0.9975572 1.0078977 0.99421036 1.0106329 0.9899006

weight_function_network.adaptive_layer.2.bias f4 [64]
00000000: 8af8 91bb 96b8 89bc da33 9cbb 614b 2bbc
00000010: 68a6 87bc eadf 61bb 9196 8bbc 7cda f33b
00000020: 4ed7 d9bb 9d4b 53bc 583c 843b 7159 a3ba
00000030: 253a 0bbc 3ded c73b 9051 debc b506 8ebc
00000040: f5c2 a3bc ab21 83bc 8a1b 0cbc 25a9 20bc
00000050: 5191 1bbc 8b53 2aba 7960 e6bb c8dd d4bc
00000060: 1a33 72bc c1c3 8abc 05c7 88bc 2aa6 d8ba
00000070: a04a c5bc 2480 15bc ef40 f63b 2599 8ebc
00000080: a0c6 17bc 7caf 093b afef b7bc 0441 18bc
00000090: 1ce7 2dbc aee0 11bb e0e3 cbbb 2b34 c3bb
000000a0: e770 083b 56fd 7dbc a6bf 13bc b0ab 54bc
000000b0: 62fd 35bc dcf0 74bc ccc9 4abc 2cc5 c4bc
000000c0: faaf 13bc 99ec 85bb a729 57bc d6be dfbb
000000d0: 5862 04bc c91d 2db9 a94c 69bc 20c2 d43a
000000e0: bbf9 28bb aa46 173a 79b6 6abc 8cf0 02bc
000000f0: 7346 733b e0f2 bdbc a3b2 45bb 734f 31bc
-0.004454677 -0.01681165 -0.0047669234 -0.010454983 -0.01655884 -0.0034465739 -0.01703957 0.007441817
-0.006647981 -0.012896446 0.004035514 -0.0012462569 -0.008497749 0.006101279 -0.027138501 -0.017337183
-0.019990424 -0.016007265 -0.008551488 -0.009805952 -0.009495095 -0.0006497434 -0.0070305434 -0.02598466
-0.014782691 -0.016939046 -0.016696462 -0.0016529013 -0.024083436 -0.009124789 0.007515065 -0.01740701
-0.0092636645 0.0021009138 -0.022453157 -0.009292845 -0.010614183 -0.0022259164 -0.006222233 -0.0059571466
0.0020819248 -0.0155022945 -0.0090178605 -0.012980387 -0.011107774 -0.0149500035 -0.012377214 -0.0240198
-0.009014124 -0.0040870425 -0.013132489 -0.0068281693 -0.008080088 -0.00016509662 -0.014239469 0.001623217
-0.0025783617 0.00057707226 -0.014325731 -0.007991921 0.0037120848 -0.0231871 -0.003016629 -0.010822165

weight_function_network.adaptive_layer.2.running_mean f4 [64]
00000000: a856 21bc 8f85 49bf 133b c6be 5f31 143e
00000010: 872c 1b3e 4019 44be a401 303e 5bab 86be
00000020: 56cc 1b3e 376e 16be a714 e33e afa4 2a3c
00000030: cceb edbd d129 e03e f2f0 0ebe 8b7a 39bf
00000040: 9110 7abe 835d b63e 5801 3f3d 2002 d53c
00000050: d054 60be 81a4 1abe bc21 103f fa34 e2be
00000060: 2bf1 46bc 7f93 133e 4e9e 41be 5b1d 953d
00000070: f54f eabd 02e3 e6bd 0dee b8be 0b2a 923e
00000080: d1e7 673e a3dd ad3d 05f8 72be 40b3 bbbe
00000090: 640a f3bb 3540 d6be ba73 eabb afd6 74be
000000a0: b9c8 b9be 700c d83d 62a5 2ebe 6777 9ebe
000000b0: 5551 b7be b594 193d 63df 65bd b4dd d2be
000000c0: 7a26 37be 3bbc a3be 270d 76bd a261 283f
000000d0: 9fdc 7abd ed23 4b3f 6c16 343f 6a59 093f
000000e0: 3c79 0abd 9620 6d3c 841e 9d3d d37a b6be
000000f0: eda3 9c3e 4ae0 9ebe 28a6 89be 230c 673e
-0.009847321 -0.7871942 -0.38716945 0.14471959 0.15153705 -0.19150257 0.17188126 -0.2630261
0.15214667 -0.14690481 0.44351694 0.01041524 -0.1161724 0.43781903 -0.13959101 -0.7245261
-0.24420382 0.3561822 0.04663214 0.02600199 -0.21907353 -0.15101816 0.56301475 -0.44181043
-0.01214246 0.14411734 -0.18908045 0.0728099 -0.11441032 -0.11273767 -0.36119118 0.285477
0.22647025 0.084895395 -0.23727424 -0.36660194 -0.00741701 -0.4184586 -0.007154909 -0.2391002
-0.36285952 0.10549247 -0.17055276 -0.30950472 -0.3580424 0.037495334 -0.05612124 -0.4118477
-0.17885771 -0.31979546 -0.060071137 0.65773976 -0.061245557 0.79351693 0.70346713 0.5365206
-0.033807024 0.014473101 0.07671836 -0.35640582 0.30593815 -0.31030494 -0.2688458 0.22563224

weight_function_network.adaptive_layer.2.running_var f4 [64]
00000000: de45 163e 6db0 833e 561e 143e 4a84 0c3e
00000010: 4342 173e cb90 4b3e 2d9a 1d3e 52f3 743e
00000020: 7c51 9b3e 76ad fb3d 7ad2 823e 0481 443e
00000030: 521e 443e e617 6b3e 9f5d 5a3e c9b0 4e3e
00000040: 7e7b 123e 732e 3e3e 676f f03d 5747 303e
00000050: 1269 283e a352 523e 59b1 623e f2b9 1a3e
00000060: d7b5 343e 1936 ae3d 522b 5c3e 6295 8a3e
00000070: 0480 783e 6a06 283e 9511 2e3e 9a48 423e
00000080: 06f1 573e acd2 5c3e 856e 2d3e 9f71 f63d
00000090: fe14 103e 6bbf 203e 206d 663e c4d8 423e
000000a0: 2c13 533e be05 2a3e 40a9 273e fb55 f53d
000000b0: b1bc 843e 84cf 3e3e 7409 0d3e 7fe3 233e
000000c0: e219 513e bb65 003e e883 563e 31eb 213e
000000d0: 0b78 023e dac9 a23e 207f 543e cd41 523e
000000e0: 799e 463e 4b15 533e 7344 403e 7032 283e
000000f0: 6ddf 183e 567c 453e 3c79 6a3e 1ed3 013e
0.1467509 0.2572054 0.14464697 0.1372234 0.1477137 0.19879453 0.15390845 0.23920944
0.30335605 0.122889444 0.25551206 0.1918984 0.19152191 0.22958335 0.21324776 0.20184626
0.14304921 0.18572406 0.11739998 0.17214714 0.16446331 0.20539336 0.22137965 0.15109995
0.17647491 0.08506412 0.215009 0.27067095 0.24267584 0.16408697 0.16998895 0.18973008
0.21088037 0.2156474 0.16936691 0.1203339 0.14070508 0.1569802 0.22502565 0.19028002
0.20612782 0.16603753 0.16373158 0.1197929 0.2592521 0.18633848 0.13773137 0.16004752
0.2042003 0.12538807 0.20948756 0.15812375 0.12741105 0.31794626 0.2075162 0.20532914
0.1939639 0.20613591 0.18776111 0.1642549 0.1492898 0.19285712 0.2289781 0.12678191
