logs/测试initial_cnn_arg结构pooling结构带来的影响/weight_network.AdaptiveCNN.initial_cnn_arg.pooling_model=avgmodel.lr=0.0001/test_model_20250425_165101.pth (torch, 840675 bytes, 78 tensors)

weight_function_network.initial_cnn.0.weight f4 [8, 1, 3, 3]
00000000: d9d2 343e c1ea 873e 5bf0 6ebe 8619 a1be
00000010: 5f02 0c3e 3ef2 413e 34ca 3dbc ae58 8abe
00000020: e1cd f83d 7701 cc3d 79ec 1f3e a544 fd3d
00000030: 5eb2 95be 5cf4 11bd 44bf b9bd fe1b b2bd
00000040: 7117 88be c26b a8be 756b 6b3d 7dc9 16be
00000050: 6c4e 8f3c 5564 c23d 446d 153d ec84 74ba
00000060: 6270 4fbe 5c18 3c3e faf9 a8bd ca0f 503e
00000070: 0736 e03d 1d75 40bc b100 753e ece7 a53d
00000080: b94b 4fbe 22b4 70bd 91a4 92be 9e90 dc3c
00000090: f21b 6e3a 45e5 7b3e 689d 94be f1ff 57be
000000a0: b091 993e 5738 8dbe 6f0f 9dba d47e 693e
000000b0: 609f 9dbe 7fce 48be 62ba 01be fd64 803e
000000c0: e6fa 843e e066 293e ffd8 9b3e f27a 953d
000000d0: 9d35 a83c 2071 2d3e 5cd4 023e fe28 63be
000000e0: 4d85 a2bd 3c2a 303e 638c 893e c8f9 f6bd
000000f0: bf18 1b3e df5c 623e ecb9 a6be c4fb 72be
00000100: 5168 ae3e a77d 9f3b 8336 98be 5a6d 5c3d
00000110: 21eb aebc 40d2 8c3d 3718 59be bf1e 21be
0.17658557 0.2654629 -0.23333876 -0.31464785 0.1367278 0.18940064 -0.0115838535 -0.27020782
0.12148643 0.09961217 0.15617551 0.123666085 -0.29237646 -0.03563343 -0.09069684 -0.08696745
-0.26580384 -0.32894713 0.057475526 -0.14725299 0.01749345 0.09491793 0.036481157 -0.0009327668
-0.20257714 0.18368667 -0.08250804 0.20318523 0.10947805 -0.011746672 0.23926045 0.08100876
-0.2024373 -0.058765538 -0.2864118 0.026924428 0.00090831437 0.24599178 -0.2902634 -0.21093728
0.29993963 -0.27582046 -0.0011982749 0.22802287 -0.30785656 -0.19610022 -0.12668756 0.25077048
0.2597267 0.1654315 0.30438992 0.072988406 0.020533377 0.16937685 0.12776321 -0.22183606
-0.07935581 0.17203611 0.2686492 -0.12059361 0.15146159 0.2210574 -0.32563722 -0.23728853
0.34063962 0.004867274 -0.2972909 0.053815223 -0.021352353 0.068760395 -0.21200643 -0.15734385

weight_function_network.initial_cnn.0.bias f4 [8]
00000000: f24e a03d 69a9 ab3e f2a1 743e b6c8 eabd
00000010: 83c7 23be 26c3 f63d d654 893e 014f afbc
0.078275576 0.33527687 0.23889902 -0.11464064 -0.15994076 0.1204894 0.26822537 -0.021399977

weight_function_network.initial_cnn.1.weight f4 [8]
00000000: d3f9 803f 3ddd 7e3f 5779 823f 0e48 803f
00000010: 6dfb 7f3f 8306 7d3f ecf4 7e3f 496e 7f3f
1.007624 0.9955633 1.019328 1.0021989 0.9999302 0.9883806 0.9959247 0.99777657

weight_function_network.initial_cnn.1.bias f4 [8]
00000000: 2368 12bc 9018 57bc 37c0 9bbb 08d6 393c
00000010: b4b3 30bb 2ed5 d3ba ac97 66bc 7e18 90bc
-0.008935961 -0.013128415 -0.0047531384 0.011342533 -0.002696258 -0.0016161555 -0.014074247 -0.017589804

weight_function_network.initial_cnn.1.running_mean f4 [8]
00000000: 260a d73d ddba 7b3c 64e2 603e 8152 8fbd
00000010: a2be 98be f36a 073f ff42 b53e b78b 65be
0.104999825 0.015364376 0.21961361 -0.06998158 -0.2983294 0.52897567 0.35402676 -0.22416578

weight_function_network.initial_cnn.1.running_var f4 [8]
00000000: f0a7 5a3b 6b1a c43d f066 e139 4866 243c
00000010: cb10 b63c 6e10 113e f1c7 9b3c d8d6 123d
0.0033364259 0.09575351 0.0004299204 0.010034151 0.022224804 0.14166424 0.019016238 0.035849422

weight_function_network.initial_cnn.4.weight f4 [16, 8, 3, 3]
00000000: 6acb de3d 95e5 9a3d 51c1 5f3d 0c42 203c
00000010: a133 16bd 2a6e a73d c7ed 9ebc 560f 07bd
00000020: 34c0 2abd ce61 ebbd c7b4 cdbd 8010 b33d
00000030: e515 6a3b 0072 1b3d 5fed bbbc 8d12 aebd
00000040: 7901 a4bd 59b0 a33d f660 15bd 1a55 cc3d
00000050: 6efc 3ebd 174b 6c3d fd32 043d 1f03 5d3d
00000060: 467a e03d 2e56 373d c556 cabd 240c 7b3d
00000070: 99b6 8b3d f7d2 e4bd 9f88 edbd 3c0b 683d
00000080: e646 b5bd df7a f03c 58dc 2b3a c158 febc
00000090: 4e35 3e3d 04b7 11bd d843 753c cd70 aebd
000000a0: 949d a23d 23b5 663d e19e 54ba b6bd 8bbd
000000b0: 5fdf 5b3d 4ac7 193d 36c7 3d3d a9fa e03d
000000c0: 8ad3 92bd 6be3 663c 1f4d bebd ab1f b13d
000000d0: 0617 a3bd 588b d3bd 175b 163d 4bc3 643d
000000e0: 80ca be3c 75ee 77bd 7d39 503c 4c96 6a3d
000000f0: 6d7b 10bc ee11 0f39 367d d13b d90c 4abd
00000100: 3594 d03d 7308 0e3d 1465 67bd 4d17 a23d
00000110: 9728 a13d 30d3 783d 0f99 cbbd 362b 1fbc
00000120: 764b 313d f486 46bd d90d 0f3a 4d97 9f3d
00000130: 4f60 04bd 9537 86bc e39c d6bd b724 93bd
00000140: 6323 4a3d 7679 39bd 5a33 c63c 1614 973d
00000150: 684d 553d 8cea 623d 84bb f93c 5941 32bd
00000160: 07ed 95bd 26fb a73d 3c48 ce3d 4d71 c13d
00000170: 831d bbbc ccf6 72bc 0219 a33c 222b 8cbd
00000180: 8a31 7a3d bf50 263d bbe1 05bd 1f5f ee3d
00000190: 9b4b ab3d 4a51 02bb d293 bd3d e0b4 c8bc
000001a0: fd64 54bd 33b2 933d 67f2 91bd 0250 d83d
000001b0: c8ba acbc e3d0 fcbb 1d8b d1bb b613 c13d
000001c0: 74cd 90bd cc92 b2bd addc 09bc b9ac 7fba
000001d0: c1e5 ec3d 9337 d13d c8b3 0f3d 7ea3 50bd
000001e0: e25c 94bc 85bf bfbd 9632 cebd dcd8 26bd
000001f0: b6e5 babd 72a2 803d 118b 5d3d 098d 72bd
00000200: 1089 d0bd caad dc3d 4103 963c 5385 a4bd
00000210: e30a 80ba 1ffe efbc 69f4 85bd 13a5 58bc
00000220: 43be 16bd b00a 68bd 304a 723c 1cc4 64bd
00000230: 1efa b9bd d059 ea3d cc8b e6bd 2d15 023e
00000240: 47e0 d7bd c785 b1bc a126 c0bd c759 a73d
00000250: dacd e8bd 4785 783d ef78 7a3d 8310 423d
00000260: a6ff 89bd c5aa a3bd 7c29 d7bd 85d1 85bd
00000270: 1b97 83bd 1c59 97bd 1b39 fabc b80c e2bd
00000280: 47b6 35bc 8377 0e3d a761 01be 37c1 4abd
00000290: 7667 e1bd c8e3 babd 7174 b9bd 63e4 78bb
000002a0: 2f22 523d 579d e23d 8ec5 babd a79b 7dbb
000002b0: 3496 6a3d fb40 513d b6d4 d3bd 700a 763d
000002c0: 04ca 53bd ea1a 8bbd c40a 663c fd7a 173d
000002d0: 24d4 683c 7fbe aa3d ddf7 c33d e3df 1f3c
000002e0: b3c8 b73c 3123 5f3c bab0 a4bd 8895 e7bd
000002f0: 6684 9f3d 5263 c9bc 829a 3e3d f4c7 5dbd
00000300: f616 903c fbcf 13bd 6c54 99bd 0c95 6f3d
00000310: 3a5a 383d 0e92 a43c 7b9b 403d c3b8 35bd
00000320: 9d8c 7ebd c82a df3c 12c5 8cbc 0c96 f63c
00000330: d815 643c 47f3 ec3c 7380 d73d 878d b6bd
00000340: 011c a83d b925 32bd 2d72 6cbb c5cc 263a
00000350: 7300 2c3d 7849 1abd 89ee 55bd 6b63 013d
00000360: e843 cdbd 8b4e 30bd b1ac c13d 5cd1 6dbd
00000370: d807 d43d dc79 e4bd 6b2a f33d 7b30 833c
00000380: 52ce a73d 7016 14bd 9c70 28bc e4c9 b13d
00000390: 854c 663d 8482 a23b 5768 e3bd f6f5 e53d
000003a0: 99a0 d13d 1a69 b63d b1a4 b2bd e837 c03d
000003b0: bdfb 96bd f177 be3d b5cc 33bd 5714 c93d
000003c0: 26c8 bc3c df64 f83c 9cf6 f13d 0a69 593d
000003d0: 6bcc 91bd 8fd4 ca3d 6665 c1bd 4558 45bd
000003e0: deaa 9c3d 11ff 63bd 5bbb f8bc f949 b6bc
000003f0: 2fec 233d d029 343d 6c10 c9bd 7a03 493d
0.10878642 0.075633205 0.05462772 0.009781372 -0.03667033 0.08175309 -0.01940049 -0.03297361
-0.041687205 -0.11493264 -0.10044246 0.087433815 0.0035718617 0.037950516 -0.022940336 -0.08499632
-0.080080934 0.0799262 -0.036469422 0.09977169 -0.046627454 0.0576888 0.03227519 0.053958055
0.10960822 0.04475992 -0.09879831 0.061290875 0.06821937 -0.11173051 -0.11598324 0.05665134
-0.088514134 0.029355465 0.0006555966 -0.03104818 0.046437554 -0.035574928 0.0149697885 -0.08517609
0.07940212 0.05632509 -0.0008110833 -0.06823294 0.05367982 0.037543572 0.04633256 0.1098531
-0.07169254 0.014092307 -0.092920534 0.08648618 -0.07963376 -0.10329312 0.036707964 0.05585031
0.023289919 -0.060530145 0.012709019 0.05727224 -0.0088184895 0.00013644222 0.0063931 -0.04932866
0.10184518 0.034676027 -0.05649288 0.079146005 0.0786907 0.06074828 -0.09941303 -0.009714892
0.043284856 -0.048468545 0.00054570806 0.0779253 -0.03231841 -0.016383925 -0.104791425 -0.07184737
0.049350154 -0.04528185 0.024194408 0.07376878 0.052075773 0.055399463 0.030484922 -0.04351935
-0.073206 0.082022 0.10072371 0.094454385 -0.02284122 -0.014829349 0.019909386 -0.068441644
0.0610824 0.04060435 -0.032685976 0.11639237 0.0836403 -0.0019884878 0.0925671 -0.02450031
-0.051854122 0.07211723 -0.07126313 0.10562135 -0.021085158 -0.007715331 -0.0063947574 0.09427588
-0.07070437 -0.087194055 -0.00841443 -0.00097532157 0.115672596 0.10215678 0.035083562 -0.05093717
-0.018110696 -0.09362701 -0.10068242 -0.040734157 -0.09125845 0.06280984 0.054087702 -0.059216533
-0.101823926 0.10775335 0.018312098 -0.08033242 -0.000976887 -0.029295979 -0.06540758 -0.0132229505
-0.03680254 -0.056650817 0.0147881955 -0.055851087 -0.09080909 0.114429116 -0.11257133 0.1270339
-0.105408244 -0.021670235 -0.09382368 0.081714205 -0.11367388 0.06067398 0.061150488 0.047379028
-0.06738214 -0.07991556 -0.105059594 -0.06534103 -0.064253055 -0.07390043 -0.030544808 -0.11037582
-0.011090822 0.034781944 -0.12634908 -0.04950067 -0.11006062 -0.09125477 -0.090554126 -0.0037977926
0.05130213 0.110651664 -0.09119712 -0.0038697512 0.05727215 0.05108736 -0.10343306 0.060068548
-0.05170633 -0.06792243 0.014040653 0.036982525 0.0142107345 0.083371155 0.095687605 0.009757969
0.022434568 0.01361923 -0.080415204 -0.11307818 0.07788925 -0.024583492 0.04653407 -0.05414577
0.017589074 -0.036087018 -0.07486805 0.05849175 0.04500792 0.020089176 0.047023278 -0.044365656
-0.062145818 0.02724208 -0.017183814 0.030100845 0.013921224 0.028924597 0.105225466 -0.08913713
0.08208466 -0.043493006 -0.0036078796 0.00063629105 0.041992616 -0.03766772 -0.052229438 0.031588953
-0.10022718 -0.043043654 0.094567664 -0.05806099 0.103530586 -0.11156055 0.11873325 0.016014328
0.08193649 -0.03615421 -0.010280754 0.08681086 0.05622532 0.0049594063 -0.111038856 0.11228554
0.1023571 0.08906765 -0.08722819 0.09385663 -0.07372234 0.09300221 -0.043896396 0.09818333
0.023044657 0.030321537 0.11814615 0.05307869 -0.07119068 0.099038236 -0.09443168 -0.048179884
0.07649778 -0.055663172 -0.030362776 -0.02225207 0.040020164 0.043985188 -0.09817585 0.04907558

weight_function_network.initial_cnn.4.bias f4 [16]
00000000: 3be7 863d b414 c7bd 397f 77bd 63ca 9e3d
00000010: dd25 bdbd 9adc 28bd 902c cfbd bc88 1f3d
00000020: 4f86 863d 9758 253c 44e2 cdbd 27e4 333d
00000030: 1c42 7f3c a08b 5dbd 54e5 a13d 87ef e4bd
0.065870725 -0.09720746 -0.060424063 0.07753446 -0.092357375 -0.041226007 -0.101159215 0.03894876
0.06568586 0.010091922 -0.10052922 0.043918755 0.015579727 -0.054088235 0.07905069 -0.11178499

weight_function_network.initial_cnn.5.weight f4 [16]
00000000: 1538 7d3f 612b 803f 8fb2 7f3f 7b84 813f
00000010: a570 7c3f 8065 803f 7823 813f 7aa2 7f3f
00000020: 6357 803f 58a7 7c3f 88e6 823f 5564 7c3f
00000030: f609 813f f030 803f 9d59 803f e222 7d3f
0.989137 1.0013238 0.99881834 1.0118555 0.9860938 1.0030975 1.0088949 0.99857295
1.0026668 0.98692846 1.0226603 0.98590595 1.0081165 1.0014935 1.0027348 0.9888135

weight_function_network.initial_cnn.5.bias f4 [16]
00000000: c101 15bc 2407 3cbc 9104 77bc b341 3bbc
00000010: f506 66bc 316e 5bbb 79fe 113b 11f3 cebb
00000020: 1d08 053c 3ebf c5bc 57e3 1539 b21c 0dbc
00000030: af4d 8f3c b47e dabb 03ee 8dbb a36c 64bc
-0.009094656 -0.011476312 -0.015076772 -0.011429238 -0.014039745 -0.0033482427 0.0022276922 -0.006315597
0.00811961 -0.024139043 0.00014294438 -0.0086127985 0.017493097 -0.006667936 -0.0043313517 -0.013941917

weight_function_network.initial_cnn.5.running_mean f4 [16]
00000000: ef1c 4d3e ac4b eabd 932e afbe 4c9b 413e
00000010: c9b6 c73d f092 c0bd adc9 723e ef5b 6a3e
00000020: 532a 9a3d f7f9 df3d 75ee d1bd ad72 b33e
00000030: 3af4 ab3e 5c90 02bf 839f 1a3e 9a1b debe
0.20030569 -0.114402145 -0.3421522 0.18906897 0.097516604 -0.09403026 0.23709746 0.22886632
0.07527604 0.10936349 -0.1025056 0.35048428 0.33584768 -0.51001525 0.15099911 -0.43380433

weight_function_network.initial_cnn.5.running_var f4 [16]
00000000: bc66 643d 29f3 073e b8c9 2b3e 21bd 283d
00000010: ecb2 cd3d 846f 5f3d 2f97 a43d d6e9 e93d
00000020: 95f8 b13d ca68 893d 573b be3c 610a 923d
00000030: 6997 993d 3b17 8f3d b584 af3d 9f36 6c3d
0.055762038 0.13276352 0.16776168 0.041195992 0.10043892 0.05454971 0.080366485 0.11421554
0.086899914 0.0670944 0.023221655 0.07130886 0.07499582 0.06986853 0.08570234 0.05766928

weight_function_network.initial_cnn.8.weight f4 [32, 16, 3, 3]
00000000: 3d0f e9bc 31d4 49bc 5215 073d 6347 1fbd
00000010: 96f3 a6bc 98cb 63bd e415 013d 0bd0 c8bc
00000020: ec9b b93c 49ea e6bc 50d2 51bd 33bc f63c
00000030: a59c b0bd 2fdf a33d 6e74 60bc 3813 2cbd
00000040: db96 31bc 594f acbd fbd9 2e3d 222f 963d
00000050: c039 1bbd 3267 84bd 94ba bc3b eaa8 6dbd
00000060: 6edd babc 84f8 63bd 1a10 9d3c 5b7b b0bc
00000070: 4c78 54bd 50f6 8dbd 464d 2239 47de 013d
00000080: a560 753c f9a1 a63d bf93 4cbd ac69 a8bd
00000090: 8b61 ea3c c1f3 ccbb 5023 853d 574a b6bd
000000a0: 9faf 14bc 142b 57bd 0fd6 cbbd 5fa4 013d
000000b0: 795d 4e3c daff a3bc 5b47 97bd f7e7 d1bc
000000c0: 736e a63c ff81 163d 1f07 303d b0f1 903d
000000d0: 2e87 97bd 6ee1 36bd 675f f93c a8a8 2d3d
000000e0: 8979 313d b1a8 2b3d b492 8abd 5a57 6dbd
000000f0: f4e6 5a3d 37a0 78bd 399b 34bd 34cf 8dbd
00000100: 3e35 593c f160 613d b815 013d 1fba 473d
00000110: 0e9e c63c cff8 88bd c02c 48bd c03a 94bd
00000120: bf90 49bd a0bc 2cbd fa03 b13b edee f63a
00000130: bcbb 383d fbe4 563d dacc b3bd 0a9c 34bd
00000140: 6d4c 38bd 61f6 c83b 3515 b33d f1f8 9c3d
00000150: 0bc2 15bd c21a 89bc c4d7 133d cc17 c63c
00000160: 189a 8b3d fe66 aabb 0bc7 13bd 5662 7c3d
00000170: da47 a23d b611 91bc 090c 383d abd8 e8bc
00000180: 53bd 18bd 1440 493d 1694 603d a5a2 a53d
00000190: 171c 34bd 64c3 f23c 7c6b 493d 8520 75bd
000001a0: d775 1f3d 5057 6b3d c828 883d 25e6 943d
000001b0: b8ab bdbc f623 833d c938 8f3d a8a4 9bbd
000001c0: 59fa 7e3d b4e1 a1bd e704 ae3c d5c0 86bd
000001d0: ff39 853b 5ad7 b5bb 124e 553d 9294 893d
000001e0: e9ce d8bb 0fd0 1a3d 8ac1 8fbc 591c 97bd
000001f0: 85d3 adbc cb75 4abd 289d cdbc db6e 813c
00000200: 171c 0bbd 85a2 9abd a586 b23d 2e9e 9fbd
00000210: f05d 74bc ce32 38bc 8fde d53c 819e 54bc
00000220: b3f0 303d b69a 403d eec6 71bc a17f 243d
00000230: 7109 033d c9dd 8cbd c72d 8f3d fe6d 2b3d
00000240: ba88 c7bb dba5 0f3d 99eb 1f3d 4e8e 6cbd
00000250: 5274 823d 040d 54bc 67bc 15bd d8a2 9abd
00000260: 8d6e d23c 2c07 96bc 269d 84bd 5183 8639
00000270: c351 2fbd 0fc7 a2bd 9aae b8bd eec6 6e3d
00000280: 9297 debb f24f 953d 8e9c 713c 363e a0bd
00000290: 873a 24bd 7c33 b9bc b4ee c2bc 68b6 a3bc
000002a0: 9e95 b23d b5e9 a0bc 5a4b a23d 6fea abbc
000002b0: 7a11 523d 2eb5 9f3d a07f 92bc 2bd9 5f3d
000002c0: 9cc1 1cbd 08d5 87bb 3eec 653d d117 8bbd
000002d0: f725 883d a29d b3bc 8cd0 34bd ada3 423d
000002e0: 62d9 68bd ac21 aabc c7ab c23c 5aee 2bbc
000002f0: 7a2e 03bc 19d6 863d be99 f03c 438b f0bb
00000300: 4d15 0d3d da7f 973c bcab aebd 6a74 aebd
00000310: e13f 9e3d ad66 3c3d 1be5 ac3d fad7 503d
00000320: b172 b13d d7d8 353d 44d2 8d3d 21bc 8b3d
00000330: 27a8 57bd 62d2 87bc d0f4 c03c df0a 523b
00000340: 2dc2 89bd fee0 19bd 67e2 523d fcfd 913d
00000350: bf5b 73bc feab 0e3d ef40 eabc 7300 90bd
00000360: 9371 45bd b1b0 2b3c 8b69 36bd dd99 fcbc
00000370: 247c f53c 7d43 ff3c 9c0e 8b3d b82c 203d
00000380: 8a70 0c3d 20c1 0cbc 933d 90bc a5e7 b43c
00000390: d6a3 adbd 90b2 acbb 6370 6cbc 37fc 9f3d
000003a0: c7ba c73c 089d 9bbc 9c4a 293d 250c 96bd
000003b0: 2a40 353d 1707 8cbd 9080 0dbc b225 f73c
000003c0: b613 963d 20b5 1a3c df46 2fbd 6e28 60bd
000003d0: 6d1b 3dbd 0eef 163d 2eda 7a3d 69e5 d3bc
000003e0: d5c4 9a3d 7ad1 cc3c 50a4 c5bc 2b06 7e3d
000003f0: f5d8 c5bc 78bc b5bc b95e cf3c 0c22 853c
-0.028449649 -0.012318657 0.032979317 -0.03888644 -0.020379823 -0.055614084 0.031515017 -0.024513265
0.022657357 -0.028187888 -0.05122596 0.030119037 -0.086236276 0.08001553 -0.013699634 -0.042010516
-0.010839189 -0.08413572 0.04268835 0.073332086 -0.03789687 -0.064649954 0.0057595465 -0.058022417
-0.022810664 -0.055656925 0.019172717 -0.021543195 -0.051872537 -0.06931746 0.0001547831 0.03170612
0.014976655 0.081363626 -0.04994559 -0.0822328 0.028610965 -0.0062546437 0.06500876 -0.08900898
-0.009075074 -0.052531317 -0.09952938 0.031650897 0.012595528 -0.02001946 -0.07386657 -0.025623305
0.020316338 0.036745068 0.04297554 0.07077348 -0.0739883 -0.04464858 0.030441 0.04239717
0.043328796 0.041908924 -0.06766263 -0.057944633 0.05344291 -0.060699668 -0.044093344 -0.069242865
0.013257323 0.05502409 0.031514853 0.048761483 0.024245288 -0.066880815 -0.048870802 -0.07237768
-0.049210306 -0.042172074 0.0054020854 0.0018839516 0.045100912 0.052464467 -0.08779307 -0.044094123
-0.04499476 0.0061328863 0.08744279 0.07664669 -0.036562007 -0.016736392 0.036094442 0.02418127
0.068165004 -0.005200266 -0.036078494 0.061617218 0.07923861 -0.01770864 0.044933353 -0.028423628
-0.03728993 0.049133375 0.054828726 0.080876626 -0.0439721 0.029634185 0.04917477 -0.059845466
0.03893074 0.057456315 0.066484034 0.07270459 -0.023153171 0.064033434 0.06993253 -0.07599765
0.06225047 -0.079043776 0.021242572 -0.065797485 0.0040657516 -0.0055493535 0.052076407 0.06717791
-0.0066164625 0.037796076 -0.017548341 -0.07378454 -0.021219024 -0.049428742 -0.025099352 0.01579993
-0.033962335 -0.075505294 0.08717088 -0.07793842 -0.014914975 -0.0112425815 0.0261071 -0.012977243
0.0431983 0.047022544 -0.014756901 0.04016078 0.031991426 -0.0687824 0.06991153 0.041852944
-0.006089297 0.03507028 0.039043043 -0.0577529 0.063698426 -0.012942556 -0.036556628 -0.07550591
0.02568748 -0.018313967 -0.06475286 0.0002565631 -0.042802583 -0.07948124 -0.090176776 0.058295183
-0.006792971 0.07290639 0.014746798 -0.07824366 -0.04009488 -0.022607557 -0.023795463 -0.019984439
0.087199435 -0.01964269 0.079245284 -0.02098581 0.0512862 0.07798229 -0.017883122 0.054650467
-0.038270578 -0.0041452684 0.0561335 -0.06791652 0.06647866 -0.021925751 -0.0441442 0.047519375
-0.056847937 -0.02076801 0.02376355 -0.010493839 -0.008006686 0.06583805 0.029370185 -0.00734082
0.034444142 0.018493582 -0.085288495 -0.08518298 0.07727028 0.045996357 0.08442136 0.05098722
0.08664454 0.044396248 0.069248706 0.06822992 -0.052650597 -0.01657981 0.023554236 0.0032049937
-0.06726489 -0.037568085 0.051485445 0.07128522 -0.014853417 0.034831993 -0.028595416 -0.07031336
-0.048204016 0.010479138 -0.044534247 -0.030835086 0.029966421 0.03116011 0.06789896 0.039105147
0.034287013 -0.008590966 -0.017607486 0.022083113 -0.08478515 -0.0052703097 -0.014431092 0.07811778
0.024381055 -0.018995777 0.04133092 -0.07326535 0.044250645 -0.0683729 -0.008636609 0.030169342
0.07327978 0.009442598 -0.042792197 -0.054726057 -0.046168733 0.036849074 0.06124323 -0.025866227
0.07557074 0.02500223 -0.024126202 0.0620176 -0.024151305 -0.022184595 0.025313722 0.016251586

weight_function_network.initial_cnn.8.bias f4 [32]
00000000: 5b81 a23c 29e6 99bd 87cd 393d 0e2f a33c
00000010: ea84 153d f147 8abd 3cfd 323d d37f 06bd
00000020: 5693 1abd 265e 323d e15a a9bd 2978 7abd
00000030: fbbe a7bd ea3a 84bd d39b 63bd 4b44 04bd
00000040: ba16 01bd ac59 503c fae6 5b3d 9501 7d3d
00000050: 7225 913d a019 f5bb b738 8dbd 39d2 823d
00000060: 6b4c a23d 6eff d33c 8bd7 1c3c 18f2 5dbc
00000070: 5583 f8bc d971 27bc 99c6 7d3c 5cdd 5f3d
0.019837072 -0.07514603 0.04536202 0.019919898 0.03650371 -0.06752003 0.043698534 -0.032836746
-0.037738167 0.04354682 -0.08269287 -0.06114975 -0.081907235 -0.064565495 -0.055568527 -0.03229169
-0.031515814 0.012716692 0.053687073 0.061769087 0.0708722 -0.0074798614 -0.06895583 0.06387753
0.07924732 0.025878634 0.009572874 -0.013546489 -0.030336061 -0.0102200145 0.015489244 0.054654464

weight_function_network.initial_cnn.9.weight f4 [32]
00000000: 0ddb 7a3f 7de9 7d3f ba66 823f 74c0 803f
00000010: b284 7e3f 3bb1 803f 379a 813f 3cb1 823f
00000020: 97d4 7d3f 1ca0 7f3f 2266 7c3f 6900 7e3f
00000030: 3f50 7f3f de09 7e3f ecd3 813f 00a0 7f3f
00000040: 622c 813f 2b7e 7f3f bd5f 7e3f 2e20 803f
00000050: cac6 7c3f ced8 7e3f c89f 7f3f b61f 7e3f
00000060: ca00 823f e5ff 7c3f 77eb 7b3f 7e04 813f
00000070: a1f6 7c3f a597 823f 111c 7f3f b412 7d3f
0.97990495 0.991844 1.01876 1.0058732 0.99421227 1.0054086 1.0125188 1.0210338
0.9915251 0.9985368 0.9859334 0.99219376 0.9973182 0.99233806 1.0142798 0.99853516
1.009167 0.9980189 0.99364835 1.000982 0.9874083 0.9954957 0.9985318 0.9926714
1.0156491 0.98827964 0.98406166 1.0079496 0.98813826 1.0202528 0.996522 0.98856664

weight_function_network.initial_cnn.9.bias f4 [32]
00000000: 74eb 62bc 0476 7dbc 4a41 103c bf3d adbb
00000010: 1083 a4bb 0f58 0f3c 7a32 693c e05b 2f3c
00000020: 8062 32bc cb52 bcbc 16ec 4cbc b4db 83bc
00000030: 85b8 d8bb 964b 3cbb 9f02 b3bb 8e32 70ba
00000040: 54c4 d3bb bf1a 6e3b 700c 2cbc b71a 61bc
00000050: 3257 30bc ac35 cdbb 4d26 213c b68a a1ba
00000060: 864a beba 6712 12bc 0d95 1abc 361d 02ba
00000070: 7181 37bc d8eb 553c 02eb 32bc f190 e3bc
-0.013850082 -0.015470032 0.008804629 -0.0052869017 -0.0050205067 0.008749022 0.014233226 0.010703057
-0.010887742 -0.022988698 -0.012507459 -0.016095974 -0.0066137933 -0.0028731576 -0.005462959 -0.00091628067
-0.006462613 0.003633186 -0.010501012 -0.0137392795 -0.0107629765 -0.0062625017 0.009835792 -0.0012324664
-0.0014518059 -0.00891552 -0.009434951 -0.0004963459 -0.011200295 0.013056718 -0.010920288 -0.027779074

weight_function_network.initial_cnn.9.running_mean f4 [32]
00000000: f22d 073c 168f 81bc cb07 b63d 3ae6 66bd
00000010: 9d1a 273e 6ade 583d be03 38be 8978 a73d
00000020: 65db 9fbd a3b2 243e 8eb7 3dbe 5e4d 2cbc
00000030: b882 a13c cdd4 4dbe 0caf cabd c209 4ebd
00000040: ba47 133f 8eca c4bd 3141 13be 01f3 31bd
00000050: 8cb9 1f3e 544d a1be b682 4e3d b5af 1b3e
00000060: f84f 63bd 1fbd 84be 52ac d83d cf45 623e
00000070: ba7e 623e 942f fcbd 35e2 e3be c2e2 733e
0.0082507 -0.015815299 0.08888205 -0.056371905 0.16318746 0.052946486 -0.17970178 0.08177287
-0.07805518 0.1608377 -0.18527052 -0.010516493 0.019715652 -0.20100708 -0.09896669 -0.050302275
0.5753132 -0.09608947 -0.14380337 -0.043444637 0.15598124 -0.3150431 0.050417624 0.15203746
-0.055496186 -0.25925538 0.105797425 0.22096942 0.22118655 -0.12313762 -0.4450852 0.2381697

weight_function_network.initial_cnn.9.running_var f4 [32]
00000000: f0c2 923d c61f 393d e769 ad3d b602 903d
00000010: 91dc 393d bf2a 533d ba32 353d 7d75 dd3c
00000020: 8756 a63d b81a f53d ec3b a93d 957c c33d
00000030: ec7c 3a3d 2228 af3d 2b51 ee3c 5730 5a3d
00000040: cef2 dd3d 0259 2f3d 9773 803d bcea e53d
00000050: 29c6 8e3d 4d9c 753d 4086 653d 2e83 bb3d
00000060: 2313 533d ecd0 eb3d 43fa a83d 4a5e 723d
00000070: 5994 513d 27b5 d33c fd2f 093e ca95 073e
0.071660876 0.045196317 0.08467465 0.07031767 0.045376364 0.051554438 0.04423783 0.027033562
0.081219725 0.11967987 0.08263382 0.095452465 0.04552929 0.085525766 0.029091438 0.053268757
0.10837327 0.042809494 0.06272047 0.11226413 0.0697139 0.059963513 0.056036234 0.0915588
0.051531922 0.11514458 0.08250859 0.059171952 0.051166866 0.025843216 0.13397212 0.13240734

weight_function_network.initial_cnn.11.weight f4 [32, 32, 3, 3]
00000000: fdf0 17bd 10d1 7b3a fe23 87bc dc6a 163d
00000010: ae47 31bd dc9b dc3c 8f18 1f3d 5b05 95bb
00000020: beff 44bc 1496 2f3d a83b 7c3d 66d7 5abc
00000030: 0f2c 3ebd 61d9 4f3d 07c2 6c3d 5b82 343d
00000040: fe64 13bd 5f57 8ebc 0948 4dbd 6d6e a8bc
00000050: 18f1 6e3d 9b60 5b3d 0a74 813d c389 583c
00000060: b276 443d af88 ffbc 51ea babc cd20 8dbc
00000070: 3012 733d 6663 0f3a bc63 2c3d 9438 993b
00000080: ec49 1abd edf3 d3bc 7814 a13c be66 30bc
00000090: 2e67 e2bc c336 cb3c 403f fe3c fb17 3abd
000000a0: 0df6 8a3c 678c b5bc 62f2 243c c6fa 543b
000000b0: b94d 3f3d dc2c 493d b562 343b b3d2 5cbd
000000c0: 5160 073d 0122 433d c748 18bd 664f 87bc
000000d0: 970e 293c 1170 133d 5bc0 873d e53c 9abd
000000e0: a5ad 37bd c0f3 083c 4c6e 2fbd ddd6 8abd
000000f0: e170 273d 5eb7 c9bb 41fa 80bc ab0b 6a3d
00000100: 3d1f a53c 06eb cf3c 770b 88bc ffc5 143c
00000110: 133b bf3c fff3 8fbc 1f02 5fbd 642a eabc
00000120: b837 47bd 845e 793d 9903 24bd f0cf 80bd
00000130: 4a57 80bd 4cca 363d d89e 52bd 0776 4c3c
00000140: 81ea 8c3c 092b 0abc 2548 3f3d 60aa bf3b
00000150: 2745 8a3d 2104 653a 6870 81bc a7b7 313d
00000160: f322 38bd ac5a 6ebd c8ec 523d 52c1 49bd
00000170: 9bfd 043d 0493 50bd b0f5 92bc e747 39bc
00000180: 3f8f 6bbd 3bde 503c cde6 803c 8c48 263d
00000190: caeb bcbc c41f 0f3d dfa4 f6bc 250c 40bd
000001a0: 519a bcbc 6d4e 083d 4b85 c5bb c780 a6bc
000001b0: 9eb7 45bd f07e 9ebc 5c74 053d b316 1dbd
000001c0: e11a ac3c 2945 4e3d 9db9 fabc 98a2 b53a
000001d0: 7de4 28bd 768f 25bd 1a44 053c 19ce a83c
000001e0: 2b4a 84bc a86f c43c 0de7 313d b748 72bc
000001f0: 9c48 f23b f519 173b a83f 4d3b 5995 dbbc
00000200: 5f01 b43c ec3c bf3c 08a9 a13b 75aa b13b
00000210: ef7b 97ba 00fa 47bd 0127 9e3c ea4b 50bd
00000220: bd0d fb3c 5ed4 813c e93d 843d 385d 1a3d
00000230: 2419 b2bc 190a bf3c 804e 27bd dcf0 0fbd
00000240: 852a ef3c 7585 c6bc 12ea a6bc 8cb2 5e3c
00000250: 2efd 153b 6001 14bd 5f14 f83c 36f6 a4bc
00000260: cda7 0f3c 7f1e 423d b3a0 d13b 230f 6abc
00000270: 9aa7 2dbd f792 c2bc 058a 403d 8276 16bd
00000280: 9a49 54bd fcb1 6fbd 8483 0abd 8555 8d3c
00000290: 4d24 eabc 6d9a c63c 98e7 bf3c 7683 52bd
000002a0: 66ef fdbc 04c4 cb3c 0ce2 b9bc 90d0 e5bc
000002b0: e865 a6bc b43c 863d c953 0fbc 6043 e83c
000002c0: 971f 253d 2508 72bc e27d 4b3c 53a2 883b
000002d0: e217 753d 114d 5cbc 84c3 903c 26c5 aebc
000002e0: 8aa5 993b 0552 54bd 09d4 77bd ed77 313d
000002f0: 5fc5 36bd 935d 0dbd 9723 103d 49ef 42bd
00000300: becc 7bbd bc36 fb3c bad7 f03b 7821 3c3c
00000310: 1c85 0b3d ec37 edbc 2518 d3bc 29c9 bcbc
00000320: eec6 c93c 6fda f33b f078 f6bc 0147 733d
00000330: 33bf 543d aed5 b93c c458 023d b882 55bd
00000340: 6cc6 793c 98f6 133d 3379 72bd 92cf 363d
00000350: 6a98 8a3b 1ca2 42bc 2a64 29bd b9b5 da3c
00000360: a398 d83c 1947 333d 22a8 253d 94b0 2f3d
00000370: 0a4d be3c b0c9 87bb f27d c53c ca54 3ebd
00000380: dba4 283b 5c8b 81bd 9373 4c3c e927 f8bc
00000390: a995 d4bc 8ebb bebc e5f6 023b 867e 2ebd
000003a0: e550 d93c 3ce9 5dbd 2848 37bd eca7 aabc
000003b0: 7e58 1dbc 451c 053d f413 af3c 3f58 ffbc
000003c0: 387e 46bd af0b 423d b89a 2d3d daf5 b6bc
000003d0: 9707 04bd cdcb 373d 678e 223d 05b8 13bd
000003e0: 95e7 a2bc 5b92 47bc 9ff2 76bc 0ddf aebc
000003f0: b197 18bd 33b7 56bb 911f 0e3d 077d d53c
-0.03709506 0.0009606043 -0.016496655 0.036723003 -0.04328125 0.026929788 0.03884178 -0.0045477576
-0.012023864 0.042867735 0.06158033 -0.013357019 -0.046428736 0.050744418 0.057802226 0.04406963
-0.035984986 -0.017375646 -0.050117526 -0.020560468 0.058335394 0.053558927 0.06320961 0.013216439
0.04796476 -0.031193106 -0.022816809 -0.017227555 0.059343517 0.00054698286 0.0420873 0.004675934
-0.037668154 -0.025873149 0.01966308 -0.010766683 -0.02763709 0.024806386 0.03103602 -0.045433026
0.01696303 -0.022161676 0.010067554 0.0032498105 0.04670498 0.049115047 0.0027524654 -0.053911876
0.03305084 0.04763985 -0.03717878 -0.016517352 0.01031842 0.035995547 0.06628486 -0.07531146
-0.044843335 0.008358896 -0.042829797 -0.06779263 0.040879134 -0.0061558923 -0.01574433 0.057140034
0.020156497 0.025380623 -0.01660703 0.009080409 0.023343598 -0.017572401 -0.054445382 -0.028584667
-0.048637122 0.060881153 -0.040042493 -0.06289661 -0.06266649 0.04462652 -0.051421016 0.012479312
0.017201664 -0.008433112 0.04669966 0.0058491677 0.06751471 0.0008736272 -0.01580067 0.043388035
-0.044955205 -0.05819194 0.051495343 -0.04925663 0.03246842 -0.050921455 -0.017939419 -0.011308647
-0.057509657 0.012748296 0.015735054 0.04059653 -0.023061652 0.034942403 -0.030107914 -0.046886582
-0.023022803 0.033277918 -0.0060278527 -0.020325078 -0.048270814 -0.019347638 0.032581672 -0.038351726
0.02100891 0.050358925 -0.030606085 0.0013857661 -0.04123353 -0.040420018 0.008133912 0.020606088
-0.016148647 0.023979023 0.043433238 -0.014787844 0.0073939096 0.0023056243 0.003131846 -0.026804613
0.02197331 0.02334448 0.00493348 0.0054219314 -0.0011557321 -0.048822403 0.019305708 -0.050853647
0.0306462 0.015848335 0.06457121 0.037686557 -0.021740504 0.023320245 -0.040846348 -0.03514181
0.02919508 -0.02423356 -0.020375285 0.013592374 0.0022886503 -0.036134124 0.030283151 -0.020136934
0.008768034 0.047392365 0.0063973307 -0.014285835 -0.042396165 -0.023751719 0.047006626 -0.03673411
-0.051828004 -0.05851935 -0.03381683 0.017252693 -0.028581763 0.024243558 0.023425862 -0.051394902
-0.030997943 0.024873741 -0.022690795 -0.028053552 -0.020312265 0.06554547 -0.008748003 0.02835244
0.04031333 -0.01477245 0.0124201495 0.004169741 0.05983723 -0.013446108 0.017671354 -0.021334242
0.0046889232 -0.051836032 -0.060504947 0.04332726 -0.04462182 -0.034513067 0.03519019 -0.04759148
-0.061474554 0.030665748 0.0073499354 0.011482589 0.03406249 -0.02895733 -0.025768349 -0.02304514
0.02463099 0.007441811 -0.030086964 0.059393886 0.051940154 0.022684898 0.031822935 -0.052126616
0.015245061 0.036123842 -0.059197616 0.04463155 0.004229595 -0.01187947 -0.04135529 0.02669798
0.02643997 0.043768976 0.040443547 0.042893007 0.023230094 -0.004143916 0.024107907 -0.04646758
0.0025733027 -0.06325409 0.012478727 -0.030292468 -0.02595027 -0.023282792 0.0019983586 -0.04260113
0.026527831 -0.054177508 -0.044746548 -0.020832025 -0.009603618 0.032497663 0.02137182 -0.031170009
-0.048460215 0.047374424 0.04238388 -0.022334028 -0.0322338 0.044872094 0.039686587 -0.036064167
-0.019885818 -0.01218089 -0.015072494 -0.021346593 -0.03725404 -0.0032763004 0.034698073 0.026060594

weight_function_network.initial_cnn.11.bias f4 [32]
00000000: 863a d13b b606 563d 6a16 5e3d cf5b 793d
00000010: 774f dc3c d880 203c 5db1 d9bc 4d7a 30bd
00000020: 1792 87bc c66a cd3c 95ec 2b3d 5559 43bc
00000030: f4bd 28bd b386 84bc 65ce 1f3d 4e9c a93c
00000040: ca3c 39bc 05bb 6ebd f292 abbc b3ac 2fbd
00000050: 1737 a73b bc84 6c3d 0050 5bbd bda6 163d
00000060: 7248 edbc fc77 823c f139 84bc 8122 89bc
00000070: 057a 9a3c f64e d33c 5635 2c3d 2481 52bd
0.0063851504 0.052252494 0.054220594 0.06087857 0.02689336 0.009796344 -0.026573831 -0.043085385
-0.016549153 0.025075328 0.04197367 -0.011923154 -0.04119678 -0.01617751 0.039015193 0.020704415
-0.011305997 -0.058283824 -0.020944092 -0.04288931 0.005103003 0.057743773 -0.05354309 0.036780108
-0.028965209 0.015926354 -0.01614091 -0.016740086 0.018857012 0.025794487 0.042043053 -0.05139269

weight_function_network.initial_cnn.12.weight f4 [32]
00000000: 973e 7e3f dfb3 7f3f 623e 7f3f 8dac 803f
00000010: f31f 803f 4035 813f 394b 7f3f c57c 7f3f
00000020: 8d38 803f c187 803f 530e 803f 9717 7e3f
00000030: 33b3 803f 234b 813f 0910 813f 68e2 7f3f
00000040: d1fd 803f 425d 7f3f 5259 813f e24c 813f
00000050: b5b1 7e3f 9b87 803f 6b7a 7c3f 6890 803f
00000060: 0893 7e3f ce25 7d3f f2fb 7f3f 1226 803f
00000070: b5a0 7e3f 8c14 7d3f dfe2 7f3f 6389 7f3f
0.99314255 0.99883837 0.99704564 1.0052658 1.000975 1.0094376 0.99724156 0.9979976
1.0017258 1.0041429 1.0004371 0.99254745 1.0054687 1.0101055 1.0083019 0.99954844
1.0077459 0.99751675 1.0105383 1.0101588 0.9948991 1.0041384 0.98624295 1.0044069
0.994431 0.9888581 0.99993813 1.0011618 0.9946397 0.9885948 0.9995555 0.9981901

weight_function_network.initial_cnn.12.bias f4 [32]
00000000: 683e 583b b5bf a33b d719 7aba 833f 21bc
00000010: 1a10 28ba e68d 443a 0284 78bb e4a8 a5bc
00000020: 5839 e2bc 6720 f6b9 b7eb 063c 054b aebb
00000030: 9cde 6a3a e18c 4fbc 7ebb 22ba cfe0 6f3b
00000040: 8cc7 11bb 6c3e 6ebb ae44 03bc 1965 98bc
00000050: 95e4 36bc 8382 c4bc 8675 6dbc 1bc7 ba3a
00000060: d319 19bc eeac 8ebc 6c66 1b3c d17a 2ebc
00000070: 948d 16bc 476f 05bd 5da2 30bc 18bc 83bc
0.0032996181 0.0049972185 -0.00095405936 -0.0098418025 -0.0006411091 0.0007497951 -0.003792048 -0.020222135
-0.027615234 -0.00046944918 0.00823491 -0.0053190016 0.0008959563 -0.0126678655 -0.0006207748 0.0036602502
-0.0022244183 -0.0036353124 -0.00801198 -0.018602895 -0.011162897 -0.023988014 -0.014493352 0.0014250012
-0.009344536 -0.017416444 0.0094848685 -0.010649399 -0.009189028 -0.032576825 -0.010780898 -0.016080901

weight_function_network.initial_cnn.12.running_mean f4 [32]
00000000: 4628 5fbe 085f fcbc 4832 45be 7f36 bcbb
00000010: 7d2c 1bbf 7161 bd3c 3e13 093e 6908 94be
00000020: 3402 553e e583 183e e00b c73d b378 a0bc
00000030: 1a11 8ebe bba0 973e e43e 5c3e 0167 03be
00000040: 0f8e e13d e71a 8bbc 3879 4a3d 2745 c53e
00000050: c208 93bd 6825 633e 7a35 843e 8f7d e33e
00000060: cd22 843d c337 88bd ebc2 043e a926 86be
00000070: 4db2 4f3d 9037 e93d 0bf1 5f3e 1e8c 9d3d
-0.21792707 -0.030807033 -0.19257462 -0.005743801 -0.6061476 0.023117753 0.13386247 -0.28912666
0.20801622 0.14894064 0.09719062 -0.019588804 -0.27747422 0.29614815 0.21508366 -0.12832262
0.11013424 -0.016980601 0.04943201 0.38529322 -0.07179405 0.22182238 0.2582205 0.4443173
0.0645195 -0.06651261 0.1296498 -0.2620137 0.05070715 0.11387551 0.21869294 0.07692741

weight_function_network.initial_cnn.12.running_var f4 [32]
00000000: 9bb8 d03d cd68 983d 7c38 d33d 3fbf cc3d
00000010: a18e 203e 17d0 ca3d ee48 c83d 84a8 023e
00000020: 12f8 dd3d 4c77 033e c66a 103e 917a 1c3e
00000030: 8d9e 093e 1dd9 ed3d afa6 ca3d b6db 263e
00000040: 1182 bb3d ab5c fb3d 4c10 b43d 13b8 033e
00000050: 8042 c73d cfc9 af3d 52b8 f03d ecf4 0f3e
00000060: 4430 d13d e751 cd3d 3578 f53d 91fb dd3d
00000070: f26c e13d d745 c33d 95f1 f33d b973 123e
0.10191461 0.07441864 0.10313508 0.09997415 0.15679409 0.09902971 0.09779535 0.12759596
0.10838331 0.12838477 0.14103231 0.1528113 0.13439389 0.11613677 0.098950736 0.1629475
0.091556676 0.122735344 0.08792171 0.12863187 0.09729481 0.08583414 0.11753906 0.14058274
0.10214284 0.10025387 0.11985818 0.10838998 0.11007108 0.09534805 0.119113125 0.14301957

weight_function_network.adaptive_layer.1.weight f4 [64, 32, 3, 3]
00000000: bf84 113c 0096 50bc 3159 14bd 322b 113c
00000010: 04e2 09bd 58bf f13b 28b5 0e3b 1fbd 9ebb
00000020: 862e ecbc e1b6 82bc 00b5 5abd 1007 373d
00000030: 570e f0bc 319a 243d 148e 6ebc 773a 033c
00000040: 6e4b 48bd 7858 3abd 9ea1 11bd 1778 1a3d
00000050: 956f 113d b0e4 39bd 6755 28bd e404 aebc
00000060: e598 c0bb deac b03c 4d7b f5bc 0fc5 58bd
00000070: 7c29 453d 4219 653c 4f37 323c d752 26bd
00000080: 45ad dfbc e71c 22bd 17af 86bc 1d65 21bd
00000090: 8c5a a1ba 5cd9 a1bb 46e7 91bb 8fb5 9fbc
000000a0: f38f 963c f9e4 e63c 3b82 323d a27b a73b
000000b0: 17d1 303d 5065 273d fdb5 553d 6f0d a939
000000c0: c9bb c23c c70b b13c 8924 e63c 2add a63c
000000d0: 5c49 2abd 7858 d8bc 311b c6bc 4785 3abd
000000e0: 4eef 0c3d 5991 463d 67d6 4b3d c8a6 153d
000000f0: 170a cb3c 8428 37bd 883a 433d 58e3 0e3d
00000100: 56e8 513d 63d5 4ebd fc63 dc3c 3863 423d
00000110: aa4f bb3b 521e d1bc 4bad c73c c218 753d
00000120: 73c9 90bc fb33 0c3d 0a3f 75bd 0e5a d13c
00000130: 7fac 81bc 86c4 53bd 16fc 1ebd b7f6 d6bc
00000140: 6445 0a3d 2de0 233d daeb 0f3d 04b7 5ebb
00000150: a3ae 8dbb 4a48 9a3a 00b3 fa3c 6514 d3bc
00000160: b776 6fbc 7d0a 9d3b 97d9 203d ee76 3dbd
00000170: d075 953c bc30 a93c 6b59 9e3a 45ec 843c
00000180: 6608 8dbb 3d5e 3cbd 83c5 113b d989 cfbc
00000190: 3ddc cbb9 91ea 67bd 5762 80bd 3f3e 21bd
000001a0: 1a5a eabc 2e53 f83b 41a8 31bc 387c 4bbc
000001b0: 71d6 c23c e6ad cebc 5d92 4bbb 9662 42bd
000001c0: 3138 623d 26b2 acbc b2ac 96bc 888e b0b9
000001d0: 1af5 aabc 4c14 433d 029a 93bc acfa 1abd
000001e0: a90c 62bc 53a6 873c 047a 543d b880 443d
000001f0: c0c7 b73c f610 093c 4589 203d 1554 c43c
00000200: c94d 6bbd 8387 e13c 72ed d8bc 7ed8 1e3d
00000210: fd98 ee3c 1c9a 5dbd 1ff2 45bd 0af5 ac3c
00000220: d5be 8b3c 0938 99bc bf8a 5cbd 2ba0 ba3c
00000230: 5ae3 353d 382b 71bd e079 c3bb 9ce9 ba3c
00000240: c966 613c 7621 1b3b 4c5e 713d 0884 e23c
00000250: 3a7c 39bd df00 a33c ac47 083d 13f5 533a
00000260: ac51 28bd d84c 9ebc 5376 023d 073d d83c
00000270: 6bd5 0d3d 0f03 203c 7537 093d d1ef 803c
00000280: 8c5b 943c d0be 58bd 9ec5 20bd 3eab ffbc
00000290: fe99 7e3d 49db 2d3d 0a75 483d d523 38bc
000002a0: 96d7 443d c06c 033d b6c2 333a 045e 213d
000002b0: 54de 12bd efba cc3c 07c9 eabc f7b0 d8bc
000002c0: 4942 b7bc bba7 14bd feba d73c 347c 32bd
000002d0: ac7b 14bd e778 dcbc 4e0c 6c3d 6b80 703d
000002e0: 3433 743d bb55 883b e194 273d a76f 933c
000002f0: 9824 8ebc d144 01bc 6c15 043d 35a7 103d
00000300: 5144 123d 13a2 0fba 4b7e b83c f883 693d
00000310: 6614 593d b80a fc3a 29d0 5cbd 256a 49bd
00000320: c35b e13c ba06 b53c 23d3 8ebc ae72 d0bb
00000330: fc61 193d 606c e8bc fbaf 54bd 2429 b3bc
00000340: b170 eabc 48e1 ca3c 4b00 22bc bb3d 2b3d
00000350: 6e47 79bd add6 89bc 81a9 083d b5dd 12bd
00000360: 8e0b 85bc e3c0 253d 6521 56bd 70ff 913c
00000370: 4636 6a3c 2783 c8bc 4d4a 2ebb a7b1 22bd
00000380: 6de9 4d3d 1ec5 6e3d be48 3abc b2da b63c
00000390: a98f 783c dded c2bc 60c3 003d 431b edbb
000003a0: 92f6 6d3d 56ef a7bc cf48 f3bc 4ba6 53bc
000003b0: 7ce0 cf3c 9599 41bd 17bd 78bc 9527 323d
000003c0: 1d78 6a3d bb3a 5cbd 2ccd 123c 6cc7 8dbc
000003d0: 74cc 193d 6312 133b c65e 40bc 7cd5 973c
000003e0: e6ae 423d 2024 9d3c ff55 2c3d 3873 fe3b
000003f0: 1239 37bd 309c 21bd 558b ac3c ba52 8e3c
0.008881747 -0.012731075 -0.036217872 0.008860396 -0.03366281 0.0073775463 0.0021775458 -0.0048443223
-0.028830778 -0.015956344 -0.05339527 0.04468447 -0.029303713 0.04018611 -0.014560241 0.008009545
-0.04890006 -0.045494527 -0.03555452 0.037712183 0.035506804 -0.04538411 -0.04109707 -0.021242566
-0.0058776014 0.021566804 -0.029966021 -0.052922305 0.048135266 0.013983073 0.010877444 -0.040606346
-0.027304301 -0.039578345 -0.016440911 -0.03940307 -0.001231031 -0.0049392413 -0.004452619 -0.019495754
0.018379187 0.028185355 0.04358123 0.0051111737 0.043168154 0.040868104 0.05217551 0.000322442
0.023771184 0.021612061 0.028093593 0.020369131 -0.041573867 -0.026409373 -0.024182888 -0.04553726
0.034407906 0.048478458 0.049765017 0.036536008 0.024785085 -0.044716373 0.04766324 0.03488478
0.051246963 -0.05049647 0.026903145 0.047457904 0.005716284 -0.025527153 0.024374625 0.059838064
-0.017674183 0.03422926 -0.05987457 0.025555637 -0.015829323 -0.05170109 -0.038814627 -0.02624069
0.033757582 0.040008713 0.035137035 -0.0033983598 -0.004323797 0.0011770811 0.030602932 -0.02576656
-0.014615706 0.00479251 0.03927001 -0.046256 0.018244654 0.020653121 0.0012081092 0.016225943
-0.0043039797 -0.04598831 0.002224297 -0.025334286 -0.00038883268 -0.056620184 -0.06268757 -0.039366003
-0.028607417 0.007578275 -0.0108433375 -0.012419753 0.023783894 -0.025229406 -0.003106258 -0.0474573
0.05522937 -0.021081042 -0.018392894 -0.0003367553 -0.020868827 0.04762678 -0.018017773 -0.037836716
-0.013796964 0.016558802 0.051874176 0.04797432 0.022434115 0.00836586 0.03919341 0.023965875
-0.05744723 0.027530437 -0.02648041 0.03878068 0.029125685 -0.05410205 -0.048326608 0.021112937
0.01705877 -0.018703477 -0.053843256 0.022781452 0.044406272 -0.058879107 -0.0059654564 0.022816472
0.013757416 0.0023671067 0.05892782 0.027650848 -0.045284487 0.019897876 0.033271477 0.000808553
-0.041093513 -0.019323751 0.031851124 0.026396288 0.03462736 0.009766354 0.033500154 0.015739353
0.01811006 -0.052916348 -0.039250962 -0.031209584 0.062158577 0.042445455 0.048939742 -0.011239012
0.04805716 0.032086134 0.00068573223 0.0393963 -0.03585656 0.02499148 -0.02866031 -0.02645157
-0.022370474 -0.036292773 0.026334282 -0.04357548 -0.036250755 -0.02691312 0.057628922 0.05871622
0.059619144 0.0041606105 0.040913466 0.017997576 -0.017351434 -0.007889942 0.032246992 0.03531571
0.035709683 -0.0005479168 0.022521159 0.05701062 0.05299797 0.0019229269 -0.053909454 -0.049173493
0.027509576 0.022097934 -0.017434662 -0.006361327 0.03744696 -0.02837199 -0.05192564 -0.021870203
-0.028618189 0.024765626 -0.009887765 0.041806918 -0.060859136 -0.016825998 0.033364777 -0.035855968
-0.016240861 0.040467154 -0.05227794 0.017821997 0.014295166 -0.0244766 -0.002659458 -0.039720204
0.05027144 0.058293454 -0.011369882 0.022321079 0.01517097 -0.023795063 0.031436324 -0.007235916
0.058096476 -0.020499866 -0.029697804 -0.012918065 0.025375597 -0.047265608 -0.015181801 0.04349478
0.057243455 -0.053766947 0.00896005 -0.017307006 0.037548497 0.002244138 -0.011741346 0.018534414
0.047530077 0.019182265 0.0420742 0.0077652 -0.04473216 -0.039455593 0.021062532 0.017373431

weight_function_network.adaptive_layer.1.bias f4 [64]
00000000: 998d f0bc f1fd 7dbc 576b 233d 0feb 1ebd
00000010: b121 823c 80ed e1bc a65f 1a3d b0d6 573b
00000020: b3ba 6db9 135b 7fbc 5114 6e3c 21df 5bbd
00000030: 8a19 34bd d6db a7bc 68d9 0ebc c1bc 2abc
00000040: 4019 a33c 41fe 53bd c01d 663d 0cf3 843c
00000050: 1472 65bd f57c 4ebd 9988 413d 53a4 42bd
00000060: 9bde e0bc f9f4 f4bc d6e2 21bd de46 fe3c
00000070: 65f7 003c 51c3 49bd 68fe 463d 014f 5b3d
00000080: 771e 5bbd 9340 4d3d 4ec8 13bb ace6 523a
00000090: 3ae2 bfbc 7334 eebb 5b59 e53b 3ad5 c4bc
000000a0: ef17 fd3c ff40 073d c52f c73c c47d 4a3d
000000b0: fb49 12bd eebd 9bbc 1f1b 693d edfa 103c
000000c0: 3fd4 51bd 40c8 53bd 6c87 18bd 594c 42bd
000000d0: fb6e ac3b b121 e8bb 098d 303c 80cb 5f3b
000000e0: f04e 0dbc 4d28 223d 1d2e 5cbd e323 6d3d
000000f0: e4b0 61bd 9d18 6ebd d5cc abbc eabc 773c
-0.029364394 -0.015502439 0.03989729 -0.038798388 0.015885206 -0.02757907 0.037688874 0.003293436
-0.00022671632 -0.015585679 0.014531211 -0.05367959 -0.04396967 -0.020490568 -0.008718826 -0.010420979
0.019909501 -0.051756147 0.056180716 0.016229175 -0.056016997 -0.050412137 0.04724941 -0.047519993
-0.027449897 -0.029901968 -0.03952297 0.031039651 0.007871483 -0.049258534 0.048582464 0.05354214
-0.05349585 0.05011041 -0.002254981 0.0008045237 -0.023423303 -0.007269436 0.0069991774 -0.024027456
0.030895201 0.03302097 0.02431477 0.049436346 -0.035715085 -0.019011464 0.05691063 0.008848888
-0.051227804 -0.051704645 -0.037238523 -0.047436092 0.0052622533 -0.0070840945 0.010775813 0.0034148395
-0.008624777 0.039589215 -0.053754915 0.057895552 -0.055100337 -0.05812894 -0.020971695 0.015120724

weight_function_network.adaptive_layer.2.weight f4 [64]
00000000: 2cfd 803f 91e0 7a3f c80d 803f 1249 7f3f
00000010: b7fb 803f 9008 803f c57b 813f 5e55 7f3f
00000020: 15f6 7e3f a243 803f 6598 813f e35c 803f
00000030: de36 7d3f f980 7d3f f2c2 823f cb0a 7d3f
00000040: 76a7 7f3f 8f16 7f3f 51d7 803f ed56 7f3f
00000050: f3e3 7e3f 987c 7f3f a14c 803f 04c8 7c3f
00000060: ed1b 813f dc32 803f b3a9 7c3f 1c29 803f
00000070: d7e2 7f3f 0acb 7f3f f935 803f 94d3 803f
00000080: 98a7 7f3f 8437 813f 38c4 813f 2514 7e3f
00000090: 1f20 7c3f d743 7d3f 0bd0 803f bf10 7b3f
000000a0: e616 803f 6128 813f 89df 7e3f 00da 7f3f
000000b0: 1a68 7f3f 415c 813f 5bb1 803f 9282 7e3f
000000c0: ba44 803f 9082 7f3f 1d99 7c3f 724d 7e3f
000000d0: 0fb6 7d3f 43ff 7f3f 9546 803f c769 803f
000000e0: 4e2f 7a3f 891d 803f 5971 823f 9f02 803f
000000f0: 6d44 7f3f ed59 7e3f 284f 7d3f be5a 7a3f
1.0077262 0.9799891 1.0004206 0.9972087 1.0076817 1.0002613 1.0115896 0.99739635
0.9959424 1.002064 1.0124632 1.0028347 0.98911846 0.9902492 1.0215743 0.98844594
0.998649 0.99643797 1.0065709 0.99742013 0.9956657 0.9979949 1.0023385 0.987427
1.0086647 1.0015521 0.9869644 1.0012546 0.99955505 0.9991919 1.0016471 1.0064569
0.998651 1.0095067 1.0138006 0.9924949 0.9848651 0.9893164 1.006349 0.9807243
1.0006988 1.0090448 0.9955984 0.99942017 0.9976822 1.0106279 1.0054125 0.99417984
1.0020974 0.998086 0.9867113 0.9933692 0.99105924 0.99998873 1.002154 1.0032281
0.9772843 1.0009013 1.0190841 1.00008 0.99713784 0.99355966 0.9894891 0.9779471

weight_function_network.adaptive_layer.2.bias f4 [64]
00000000: 0b29 06bc 36a8 e7bc d650 abb9 70a5 5fbc
00000010: 1b09 a03b a209 91bc 3fd9 4abb e91b 84bb
00000020: 7522 30bc 3b2b afbc b20c 7cbb d92d 20bc
00000030: 3f8a 9fbc 160e abbc 3b9e 8fbb ebca b1bc
00000040: 2f66 30bc 490a f83a ef1b 5139 74b3 8abc
00000050: c8a3 c7bc 605a 6fbc 744c 1abb e598 aabc
00000060: 0ca6 adbb 8687 98bc e511 5dbc 4e5e b3bc
00000070: da39 a8bb 700d e7bb c910 04bc e1e7 a53b
00000080: 7c56 80bc a4f5 96bb a854 8abb c415 14bc
00000090: 5484 dabb c258 88bc 9a4e b83b 29b9 61bc
000000a0: 78b3 29bc edaa 36bc da35 5bbc e805 53bc
000000b0: e0bc 53bc 907f 043b ea01 bcbb 7ca2 cabc
000000c0: 5bc0 65bc 63a6 75bc 9d95 e4bc 9c28 b3bc
000000d0: 1254 f7bb 92fe 20bc ed3f 2bbc 9b85 bdbb
000000e0: 9516 03bd 0fee 8fbc 692f 483b 453a 7cbc
000000f0: e340 9ab8 e5b2 cfbb c68b 5dbc 5653 94bc
-0.008188496 -0.028278451 -0.0003267589 -0.013650283 0.004883898 -0.017704789 -0.0030952243 -0.0040316475
-0.010750403 -0.021382919 -0.0038459715 -0.009776556 -0.0194751 -0.02088074 -0.004382876 -0.021703204
-0.01076655 0.0018923964 0.000199422 -0.016931273 -0.02437009 -0.014608949 -0.0023544105 -0.020824859
-0.0052993353 -0.01861931 -0.013493036 -0.021895554 -0.0051338496 -0.0070511624 -0.0080606425 0.0050630425
-0.015666239 -0.0046069194 -0.0042215176 -0.009038392 -0.006668607 -0.016643886 0.0056246044 -0.013777056
-0.01035773 -0.01114915 -0.013379538 -0.012879826 -0.012923449 0.0020217635 -0.005737533 -0.024735682
-0.014022912 -0.014993283 -0.027903372 -0.02186995 -0.0075478638 -0.009826319 -0.010452253 -0.0057837493
-0.032003958 -0.01756957 0.0030545837 -0.015394752 -7.355378e-05 -0.0063384646 -0.013522094 -0.018106144

weight_function_network.adaptive_layer.2.running_mean f4 [64]
00000000: 1075 5f3e bbaa 53bc 611e a73e 8fe4 2cbd
00000010: c4a1 4e3e 2d6d 453f fdc0 833e f5f8 25bd
00000020: 1719 5a3e 86a9 a73e b133 8bbe 11a6 c8be
00000030: fe99 fdbe d3af a23e db5d 88be 32eb 01be
00000040: 2c51 a0be 3d9f babe d3e5 833e cbfd 283f
00000050: 534a d2be 27d8 c3be 9ee2 71be dbf4 02bf
00000060: 147e ff3d 4e9d d3be 0d3a 14bf 6bc0 fb3e
00000070: a549 8ebe c819 9bbe 7571 af3e 164c b4be
00000080: 2704 03bf 5e80 113e 98c3 39be d289 273e
00000090: 5b39 bd3e a1af 51bf c2d5 02bf f6fe a03e
000000a0: a1dd 043f dcc1 643e fd31 123f 0df9 913e
000000b0: 4629 18be 7fa4 b8be 7a52 10be f2b5 7dbd
000000c0: d079 993e 8e9a 633e 1e0a 383e 73d6 ba3e
000000d0: c29b 07bd d44c a93e 0fc9 293f 9d58 56bc
000000e0: 5069 d9bc 5940 8b3e 7a6f 3dbe ae32 9fbe
000000f0: a2d7 d3be 19f4 81bc a34e 92be 9a4e 3dbe
0.21822 -0.012919123 0.32640365 -0.042210158 0.20178896 0.77119714 0.25733176 -0.040520627
0.21298634 0.32746524 -0.27187875 -0.391892 -0.4953155 0.31774768 -0.26634106 -0.12687376
-0.3131193 -0.36449614 0.2576128 0.6601226 -0.4107233 -0.3825085 -0.23621604 -0.5115487
0.12475219 -0.4133095 -0.5790108 0.4917024 -0.2779056 -0.30293107 0.34266248 -0.352143
-0.5117821 0.14209124 -0.1814102 0.16361168 0.3695782 -0.81908613 -0.5110742 0.3144452
0.5190068 0.22339576 0.57107526 0.28510323 -0.14859495 -0.36063 -0.14093962 -0.061941095
0.29975748 0.22226927 0.1797261 0.36491737 -0.033107527 0.33066428 0.66322416 -0.0130826505
-0.026539475 0.2719753 -0.18499556 -0.31093353 -0.41375452 -0.015863465 -0.2857562 -0.18487015

weight_function_network.adaptive_layer.2.running_var f4 [64]
00000000: 3b3f 263e bf1d 313e a1ec 4c3e 8c16 3b3e
00000010: 8f9f fa3d a9c2 5d3e 71d4 323e 1f7c 5e3e
00000020: 621b 6b3e 66b8 863e add0 a33e c047 273e
00000030: e5d1 1d3e 8501 2c3e c8d9 303e 0725 313e
00000040: 3ef6 323e d1da 283e 2615 3d3e d688 833e
00000050: 3aee 423e 1a82 103e b583 433e 0127 813e
00000060: b71d 283e bba6 673e 7d70 313e da59 5e3e
00000070: 106c 353e 9be9 303e 7d92 6a3e 785e 723e
00000080: 53b7 5f3e 9413 263e cb57 263e c9ba 273e
00000090: d52f 743e 0c29 b33e 1375 fc3d 446e 8e3e
000000a0: 28b0 7d3e 28f6 443e 522a 0a3e 5477 173e
000000b0: af4f 273e 272c 2f3e d681 843e 18e8 2b3e
000000c0: f11e 8a3e 0520 3f3e 820c 173e c5b8 6e3e
000000d0: e427 683e 11e8 9b3e ad59 a43e 87e6 193e
000000e0: 6607 183e 92f7 633e 1edb 083e 5f90 5e3e
000000f0: ad51 773e cb53 413e 271b 043e 3c0f 3e3e
0.16235058 0.17296503 0.20012142 0.1827032 0.12237465 0.21656288 0.17463852 0.21727036
0.22959664 0.2631256 0.31995144 0.16335964 0.154121 0.16797455 0.17270577 0.17299281
0.17476746 0.16489722 0.18465099 0.25690335 0.19036189 0.1411213 0.19093211 0.2522507
0.16417585 0.22622196 0.17328067 0.21713963 0.17717004 0.17276613 0.22907443 0.2366885
0.21847276 0.16218406 0.16244428 0.16379847 0.23846371 0.34992254 0.12327018 0.278185
0.2477423 0.19234526 0.13492706 0.14791614 0.1633899 0.17106687 0.25880307 0.16787755
0.2697673 0.18664558 0.14750865 0.23312671 0.22671467 0.3045049 0.32099667 0.15029345
0.14846572 0.2226241 0.13364837 0.2173476 0.2415225 0.1887962 0.12900983 0.18560499
