logs/测试initial_cnn_arg结构pooling结构带来的影响/weight_network.AdaptiveCNN.initial_cnn_arg.pooling_model=avgmodel.lr=0.0001/test_model_20250425_202808.pth (torch, 840675 bytes, 78 tensors)

weight_function_network.initial_cnn.0.weight f4 [8, 1, 3, 3]
000000 8b ce 28 3d 87 fa a6 3e 0d 58 f8 bd e2 88 61 3e
       0.0412126 0.32613012 -0.12126169 0.22024873
000010 94 46 e2 bd 2d 33 fc bc fb e7 12 3e 9f c9 a1 3e
       -0.11048618 -0.030786121 0.14346306 0.31599137
000020 87 73 7c 3e e1 51 02 be 39 3f 8d be ae d0 f7 bd
       0.24653445 -0.12726547 -0.27587298 -0.12100349
000030 bc d4 04 3d 75 f4 f3 bd 10 fd db bd 31 77 94 be
       0.03242944 -0.11911861 -0.10741627 -0.28997186
000040 48 0e 39 3e 52 4b 77 bd 71 d0 2a be 43 4f ac 3d
       0.18071854 -0.060374565 -0.16681077 0.084135555
000050 d7 14 c0 bb de cd 3a be 18 12 91 3e d1 77 2f 3e
       -0.0058618593 -0.18242595 0.28334117 0.1713555
000060 74 f5 f3 bd 26 86 b6 3c ef 87 f1 3c c1 86 7a be
       -0.11912051 0.022280764 0.029483764 -0.24465467
000070 aa c8 9b be ca de d9 bd d9 be 8a be 80 2b a9 bd
       -0.30426532 -0.10638197 -0.2709873 -0.0826025
000080 89 a1 84 be 5b 84 61 3e d9 ab 3a be b7 4b 3f bd
       -0.25904492 0.22023146 -0.18229617 -0.046703067
000090 db 21 a2 3e 81 5d 83 be 09 9a 2e 3c cc 98 de bd
       0.31666455 -0.25657275 0.010656842 -0.108689874
0000a0 75 cf fc bd f3 06 97 3e 1f e5 db bc 6e 77 08 3c
       -0.12344257 0.2949749 -0.026842652 0.0083292555
0000b0 6c 81 aa bd be 51 fa bc c2 3a 48 be f7 ac ab bc
       -0.083254665 -0.030556556 -0.19553664 -0.0209565
0000c0 6e 32 ab 3d 35 62 d6 bd 6d 7f a9 be a4 b3 ab 3d
       0.08359228 -0.1046795 -0.3310503 0.08383873
0000d0 88 2e 99 3e 43 26 3c 3e f2 cc 93 3e d6 d1 05 bd
       0.29918313 0.1837397 0.28867298 -0.03267082
0000e0 7d 3e 32 3e ff 4b 5d 3e 3f f9 33 bb 3f 72 34 3e
       0.1740665 0.21611021 -0.0027461795 0.17621706
0000f0 73 86 6a be 81 bc ea 3d 35 87 7e be 86 f8 58 bd
       -0.22902851 0.114617355 -0.24856265 -0.052971385
000100 f8 87 b6 3d ec 12 87 3d a5 ab 6f be bd ab 4a be
       0.08912653 0.06595406 -0.23405321 -0.19792075
000110 b8 4c cb 3c 99 72 99 be c9 c7 76 3d 9c 40 5d 3e
       0.024816856 -0.29970244 0.060249124 0.21606678

weight_function_network.initial_cnn.0.bias f4 [8]
000000 f7 a8 75 3e 4d 2b 9c 3e 02 c7 04 bd 08 02 8e 3e
       0.23990236 0.30501786 -0.03241635 0.27735925
000010 37 3a 9c 3e 84 4d 1a 3e e3 60 78 3e 0d 01 8a be
       0.30513164 0.15068632 0.2425571 -0.26953927

weight_function_network.initial_cnn.1.weight f4 [8]
000000 f5 07 7c 3f 67 8d 7f 3f 7d fe 80 3f ea cd 7d 3f
       0.9844964 0.9982514 1.0077664 0.99142325
000010 52 42 80 3f 82 08 81 3f 8e 5a 80 3f b5 e0 80 3f
       1.0020239 1.0080721 1.0027635 1.0068575

weight_function_network.initial_cnn.1.bias f4 [8]
000000 99 d0 3a bc 9f ac a9 3b 95 c3 44 3a e9 8e ea bb
       -0.011402273 0.0051780487 0.00075059506 -0.0071581495
000010 d3 35 d1 ba 58 1e 33 3b e0 eb 9d bc 56 13 84 3b
       -0.0015961475 0.0027331319 -0.019277513 0.0040306253

weight_function_network.initial_cnn.1.running_mean f4 [8]
000000 02 89 32 3f bc 37 b6 bd 3e f8 9b 3c 67 10 94 be
       0.6974031 -0.08897349 0.01903927 -0.28918764
000010 62 67 a3 3e e2 38 0b 3e a3 ef e3 3e dc 8e d4 be
       0.31914812 0.13595918 0.44518766 -0.41515243

weight_function_network.initial_cnn.1.running_var f4 [8]
000000 4e 00 2f 3e 31 e9 fe 3d 2e b6 11 3c 17 5e 88 3e
       0.1708996 0.124468215 0.008893533 0.26634285
000010 62 f5 b0 3a bf d4 20 3c 4f 60 29 3d 43 95 e2 3c
       0.0013500864 0.009816348 0.041351613 0.027659064

weight_function_network.initial_cnn.4.weight f4 [16, 8, 3, 3]
000000 df 30 10 3d 9e 22 2b 3a ba cf 85 3c 34 c1 b8 3c
       0.035202857 0.00065282907 0.016334403 0.022553064
000010 dc bf 6a bd 39 97 ec bc bd 94 ed 3d 05 85 83 3a
       -0.057311878 -0.028880702 0.11600635 0.001003415
000020 23 2e 9e 3b 9f d1 9f bb 88 2d be bd a1 55 d2 bd
       0.0048272773 -0.0048772837 -0.09286028 -0.10270239
000030 ea 80 38 bd f2 11 30 3b f4 fa 9d 3c a5 2d 11 bd
       -0.045044817 0.0026866165 0.019284703 -0.03544392
000040 2c 88 02 bd c4 34 1b 3d 16 ef a7 3d 32 7a 18 bd
       -0.031868145 0.037892118 0.08199899 -0.03722591
000050 9f 7b 61 bd 85 a6 d6 bd ff 3b 32 bd 62 ca 7c bd
       -0.055049535 -0.1048098 -0.043514248 -0.061716445
000060 cf 55 25 bd ec f7 55 bd 93 bb d1 3c 95 03 c5 bd
       -0.040365037 -0.05223839 0.025602138 -0.09619824
000070 88 49 9f bd 50 38 b8 3d 11 58 d6 bd 4f 26 b9 bc
       -0.07777697 0.08995116 -0.10466016 -0.022601275
000080 44 12 81 bd 24 3d c4 bd 2c e0 40 3d e7 b3 d2 3d
       -0.06302312 -0.09581974 0.047088787 0.1028822
000090 da 96 5d 3d 92 17 81 3c a9 dd a4 bd 87 9a c9 3c
       0.05409894 0.01575831 -0.08050091 0.024609817
0000a0 e0 71 bf bd 72 84 00 bc b2 4c 32 3d c2 80 cd 3d
       -0.09347892 -0.007844077 0.043530174 0.10034324
0000b0 d8 4a 57 bd 57 70 b2 bd 3b d9 d3 3d 1c 02 b5 bd
       -0.05256161 -0.087128334 0.10344168 -0.08838293
0000c0 db db c7 3d 0b 86 1f bb 8c a2 df 3d c0 3c 34 3d
       0.09758731 -0.002434137 0.10919675 0.04400325
0000d0 ae f4 b0 3d 8c 67 c3 3d a0 f6 2b 3d 12 ad a0 bd
       0.08640419 0.095412344 0.041983247 -0.078455105
0000e0 cb 4b 8d bd 61 27 c9 3c bb 8a 8e bd e0 bb d1 bd
       -0.06899222 0.02455491 -0.069600545 -0.102409124
0000f0 bc a3 9b 3b 6d 95 a4 bd f6 b9 7e 3d d0 e2 55 bc
       0.0047497433 -0.08036313 0.062189065 -0.013054565
000100 56 87 d7 bd f9 59 04 bb e7 dd f3 ba 40 aa 3b 3d
       -0.1052386 -0.002019523 -0.0018605561 0.04581666
000110 80 ab 9b 3d 7d f1 f0 3d cd 48 01 be 13 38 a9 3d
       0.076010704 0.1176481 -0.12625428 0.082626484
000120 15 b6 a1 bb 0a de f5 3d 8e 95 b0 bd 04 28 bb 3a
       -0.004935036 0.12005241 -0.08622275 0.0014278893
000130 cc 24 36 bd c7 47 da bd dd b9 9b bd 22 66 50 bd
       -0.044468686 -0.10658222 -0.0760381 -0.05087865
000140 45 6f 93 3d ab bc 23 3d 9d 78 84 bd 29 ad df bd
       0.07198957 0.03997485 -0.06468318 -0.109216996
000150 b3 e1 ca 3c e1 ba ab bc 05 b7 fa ba b7 0f 82 bd
       0.024765825 -0.020963134 -0.001912803 -0.063506536
000160 78 1a 6b bc cf 74 6a bd e2 3c bb 3c 91 1a 9c 3d
       -0.014349572 -0.057240304 0.02285618 0.07622255
000170 46 06 14 3d 47 9f 95 bc 08 b8 bd bd 6a ab e2 bd
       0.036138795 -0.018264426 -0.09263617 -0.11067851
000180 7d 6d 81 bd ed a5 ec 3c d9 d0 02 3d 1d 32 80 3d
       -0.06319711 0.028887713 0.031937454 0.06259558
000190 7b ba a2 bd 61 4f 76 bd 68 04 84 3d 44 0a b7 3d
       -0.079457246 -0.060134295 0.06446153 0.08937505
0001a0 dd a7 3a 3d 24 61 af 3d a7 cb 17 bd 0b 2c 1f bd
       0.045570243 0.0856345 -0.037059452 -0.038860362
0001b0 2c af 49 3d da 0e d6 bd eb a5 72 bd 63 8f be bd
       0.049239323 -0.104520515 -0.059240263 -0.093046926
0001c0 f9 a9 e5 bc 93 72 df 3d 3f 8f 0c 3a 75 7d 01 bd
       -0.02803515 0.10910525 0.00053619215 -0.031613786
0001d0 a1 0a 61 3d fc fe 48 3d 52 f7 80 3d b4 73 b9 bd
       0.054941777 0.049071297 0.062971726 -0.09055272
0001e0 ed 8e 9f bb b8 06 88 3c 2e 95 13 3d dd 56 ec bd
       -0.004869333 0.016604766 0.03603094 -0.11540005
0001f0 f1 b6 00 3d e5 12 b3 3c 9d e4 db 3d 65 a8 7a 3d
       0.031424467 0.021859596 0.10736964 0.06119575
000200 bd 3b 47 3d a2 8c d5 bc d6 3e 2c 3d ec d2 c1 bd
       0.048640955 -0.026068036 0.042052113 -0.09464058
000210 42 88 97 3d 37 a2 a1 3c 08 ee 52 3c 95 cf f1 3c
       0.07399036 0.01973067 0.012874134 0.029517928
000220 78 a4 de 3d 33 21 b8 3d 75 27 9a bd be af 99 bc
       0.10871214 0.08990707 -0.07527057 -0.018760558
000230 e1 9f 92 bd d9 8c 13 bd 21 a0 55 b9 ea fe f6 3b
       -0.07159401 -0.036022995 -0.00020372916 0.0075377123
000240 93 5b e4 3c 15 57 f7 39 11 48 d0 3c b8 d7 d6 3d
       0.027875697 0.00047176392 0.025424989 0.10490364
000250 1a 01 a1 3d 56 6a 9a 3d a9 a3 1c 3d 6f a1 e1 bc
       0.07861538 0.07539813 0.038242016 -0.027542798
000260 d9 ff c2 3d ee 20 de bc 6d 89 d5 3d d3 85 3e 3d
       0.09521455 -0.027115311 0.104266025 0.046514343
000270 c2 a3 21 3d 5f 16 f3 3d f7 6b d9 bd d7 02 3b 3d
       0.039462812 0.11869501 -0.10616296 0.045657005
000280 88 f0 40 3d 52 d5 83 3d de d2 ba 3d 8a 20 a3 3b
       0.04710439 0.06437172 0.09122251 0.004978244
000290 c3 ad 7e 3b 25 34 f2 bd 12 9f 47 bd 4b d7 09 bd
       0.0038860894 -0.11826352 -0.048735686 -0.033652585
0002a0 60 6a 6c bc aa 91 c5 bd ca e5 40 bc 72 d7 d5 3d
       -0.014429659 -0.09646924 -0.011773536 0.104414836
0002b0 ab 85 64 3d 09 f6 ed 3d cd c7 8f bd ac 97 d9 3d
       0.05579154 0.11619193 -0.07020531 0.10624632
0002c0 cf c1 ac bd 1a 22 8d bd be dc 98 3c 26 18 7c 3d
       -0.084354036 -0.0689127 0.018659946 0.061546467
0002d0 ea 2e bc 3d 8a 70 cd 3d 5d e4 69 bd d0 73 d5 bd
       0.09188636 0.10031231 -0.05710255 -0.1042248
0002e0 37 a0 4f bd 24 06 67 3d b2 a0 4b 3d 78 c2 61 bd
       -0.050689902 0.05640234 0.049713798 -0.0551171
0002f0 d5 0b a2 bd 13 da bc 3d 6a 8c 18 bd b0 c1 a8 bd
       -0.07912413 0.09221282 -0.037243284 -0.08240068
000300 f7 c3 f0 bd ca 69 b1 3d d4 db 80 3d 8a e9 dd 3d
       -0.11756127 0.08662756 0.06291929 0.1083556
000310 99 0b 43 3c 89 51 f5 39 cf 90 aa 3b c3 c3 74 bd
       0.011904621 0.0004679079 0.005205251 -0.059757005
000320 19 6d d3 3d 4f 5a ab 39 c7 aa 1e bd 1d f7 18 3d
       0.10323543 0.00032682947 -0.038737085 0.03734504
000330 76 3a 9a 3c c1 31 b5 3d f9 21 5e 3c 6a 5f d2 bd
       0.018826704 0.088473804 0.013557904 -0.10272105
000340 bc 30 29 bd 89 7f 3d 3d 7f d6 a8 3c 16 eb 58 bc
       -0.041306242 0.046264205 0.020610092 -0.013239643
000350 01 35 b5 bd 60 5b 25 3b 12 d6 15 bd 0e 66 14 bd
       -0.08848 0.0025231466 -0.036581106 -0.03623014
000360 da 85 dd bd 8c 39 9e 3d cc f5 d0 bc 3e 26 b9 bd
       -0.10816546 0.0772582 -0.02550783 -0.09040497
000370 39 85 ec bd df f4 cb bc 8d 51 33 39 1a fb 64 3d
       -0.11548848 -0.024897037 0.0001710115 0.05590353
000380 c4 40 d6 3d 09 81 a5 bc 7c d9 08 3c 0f a9 11 bd
       0.10461572 -0.02020313 0.008352634 -0.035561617
000390 01 a2 9c bc 88 f6 c8 bd a2 7e 60 3d cf e9 ca bd
       -0.019120218 -0.09812647 0.054808266 -0.09907877
0003a0 bd 4d 35 bd fd 8e 9c 3c fa 85 e2 bd 05 91 bc 3d
       -0.04426359 0.01911115 -0.1106071 0.09207348
0003b0 a2 89 41 bd 98 d0 6d 3d 3e 81 37 3d 1b 39 77 bb
       -0.047250398 0.05806026 0.04480099 -0.0037723246
0003c0 86 a0 15 3c 99 50 e6 3d e5 a2 86 3d bd b6 f7 ba
       0.00913251 0.112458415 0.065740384 -0.0018899065
0003d0 20 b7 0a bd e1 45 d8 bd c5 18 96 3d 1c 5f c1 3d
       -0.033866048 -0.10560203 0.07328943 0.09441969
0003e0 bf 59 c1 bb 7e c9 92 3d 24 af a3 bd f7 24 05 3c
       -0.005900591 0.07167338 -0.0799239 0.008126489
0003f0 a3 e1 5d 3c 47 92 ab 3d 12 4e c0 3d 22 18 a8 3d
       0.0135425655 0.083775096 0.09389891 0.08207728

weight_function_network.initial_cnn.4.bias f4 [16]
000000 47 e4 91 3d a5 dd 8e 3d 98 8d b6 3d 1e 3f ab 3d
       0.071236186 0.06975869 0.089137256 0.08361648
000010 cc 36 9b bc 57 93 c0 3c 0f 00 f1 bc 70 28 9e 3d
       -0.018947028 0.023507757 -0.029418973 0.077225566
000020 b2 a4 8f 3d 25 23 94 3d db 52 88 bd c4 21 5d bd
       0.07013835 0.07233266 -0.066564284 -0.05398728
000030 3d a1 2c bd 13 29 92 bd 0a 55 86 bd 6a b3 c1 bd
       -0.042145956 -0.071367405 -0.06559189 -0.09458049

weight_function_network.initial_cnn.5.weight f4 [16]
000000 32 50 7e 3f 8c 50 82 3f 37 72 7d 3f 51 11 7d 3f
       0.9934112 1.0180831 0.99002403 0.9885455
000010 c9 8b 7e 3f 54 1e 81 3f 58 ef 7d 3f 9d 86 82 3f
       0.99432045 1.008738 0.99193335 1.0197331
000020 5e ba 81 3f 14 0a 7e 3f e4 74 7f 3f 1e 64 7f 3f
       1.0135 0.9923413 0.99787736 0.9976214
000030 73 f8 7e 3f 7e ea 7d 3f ad d7 81 3f 31 99 7e 3f
       0.99597853 0.9918593 1.0143944 0.994525

weight_function_network.initial_cnn.5.bias f4 [16]
000000 6d 10 1f bc 2d 51 1a 3c 49 40 ba bb 6c 21 5f bc
       -0.009708506 0.009418768 -0.005683933 -0.013618808
000010 24 26 dd bb 59 cf b2 3b 51 6b 32 bc 11 e4 51 3c
       -0.0067489315 0.0054568467 -0.010889844 0.012810723
000020 a7 36 25 bb 23 2c 4d bc 45 46 0e 39 aa e4 f2 bb
       -0.0025209577 -0.01252273 0.00013568353 -0.007412513
000030 e9 5a e3 bb 50 3f 23 bc d5 ca 0b 3b 8e a2 4b bc
       -0.0069383276 -0.009963825 0.0021330614 -0.012428893

weight_function_network.initial_cnn.5.running_mean f4 [16]
000000 a4 ee 19 be 02 c6 e5 3b b2 5b cb 3e 27 51 22 3e
       -0.1503244 0.0070121298 0.39718395 0.1585127
000010 f1 8c 48 bd 34 ea da 3e 73 a5 fb 3e c7 48 b9 be
       -0.048962537 0.42756808 0.49149665 -0.36188337
000020 3a d8 c0 3e bc 7b 0c be ce 13 23 3d ee 63 f6 3d
       0.37664968 -0.13719076 0.03981381 0.12030779
000030 9f 1d f8 be f0 a7 78 3d a2 e5 77 3e e3 5e bf 3e
       -0.484601 0.060707033 0.24208692 0.3737708

weight_function_network.initial_cnn.5.running_var f4 [16]
000000 34 df 12 3e 03 95 ea 3c 54 4d 54 3d 63 68 79 3d
       0.14342958 0.028635507 0.05183156 0.060890567
000010 05 65 dd 3d 93 9c 7d 3d 36 66 a5 3d b5 44 e1 3d
       0.108102836 0.0619169 0.08076136 0.10999433
000020 43 6e 19 3d 71 2e 15 3e 4d 04 a8 3d 3d fb 13 3e
       0.03745867 0.14568497 0.08203945 0.14451309
000030 32 1e af 3d c1 38 48 3d b2 c0 b8 3d 89 77 a9 3d
       0.08550681 0.04888225 0.09021129 0.08274753

weight_function_network.initial_cnn.8.weight f4 [32, 16, 3, 3]
000000 35 88 40 3d 66 5d 99 bd 3d 33 79 bb 36 5b f1 3c
       0.047004897 -0.074885175 -0.0038024925 0.029462438
000010 c2 13 66 bc de fa 98 bd 5e 7f 34 3d 41 fb 42 3d
       -0.014042797 -0.07469724 0.04406678 0.047602896
000020 7f 54 c6 39 3c 2b 95 bd 6d 37 47 bd c0 07 c5 bd
       0.00037828457 -0.07283637 -0.048636843 -0.09620619
000030 5b 42 b8 3c c9 42 c4 bc 1e 78 85 3d a6 0a 66 3d
       0.022492578 -0.023957627 0.06517051 0.0561625
000040 7a 49 88 3d 5c 97 58 3c d9 d3 49 3d 45 e8 32 bc
       0.066546395 0.013219681 0.0492743 -0.010919635
000050 03 f0 95 3c d7 ba a4 3d 0c 82 a6 3d 09 03 0b bd
       0.018302923 0.08043449 0.08130273 -0.03393844
000060 77 9f 68 bc 20 91 43 bc 88 ea d3 3c 05 57 a8 3c
       -0.014198176 -0.011936456 0.02586867 0.020549307
000070 03 08 97 bd 5a fc b3 bd d1 e6 d8 bc e8 8e bb 3d
       -0.07374575 -0.087883666 -0.02647725 0.091581166
000080 da f5 41 bd 01 46 20 3d b5 03 6b 3d f1 d2 3c 3d
       -0.047353603 0.03912926 0.057376582 0.046099607
000090 52 1c 3d 3d 15 a4 36 bd f0 96 ed 3c ec 22 79 3c
       0.046169586 -0.044590075 0.029002637 0.01520608
0000a0 0c b5 a6 3d 16 de 70 3c 7d de 9a bd 3e 94 4f bd
       0.08140001 0.014701387 -0.075619675 -0.050678484
0000b0 01 0d 8e 3c b9 b1 9b 3d e6 03 a8 3c 8b 02 b7 3c
       0.017340185 0.07602257 0.020509671 0.02234008
0000c0 b8 4a 44 bd 6b cb 2c 3d 62 43 8b bd 21 1f 85 3d
       -0.04792282 0.042186182 -0.067999616 0.06500078
0000d0 7d 42 14 bd 9f 08 b3 bd 54 61 9a bd a6 31 ff bb
       -0.03619622 -0.08741879 -0.07538095 -0.007787901
0000e0 11 3a 8a bd 42 0e 89 bc 74 ae 42 3c 5f 6a d9 bc
       -0.067493565 -0.016730431 0.011882413 -0.02653998
0000f0 32 8d 1c bc e0 f0 c8 bc d5 7c f6 bc ea b2 a6 bd
       -0.009555148 -0.02452892 -0.030088821 -0.08139594
000100 36 3c 8f bd 4f 82 a6 bd cd 17 c5 3c 45 0f 24 bb
       -0.06993906 -0.08130323 0.0240592 -0.0025033515
000110 9a 67 85 3d 8a 78 b3 bd 7d 72 65 bd 80 bd 74 bd
       0.06513901 -0.087632254 -0.056017388 -0.059751034
000120 a0 36 8d bc 1e 4c b6 3c a8 57 73 bd 73 99 7e 3c
       -0.017237961 0.022253092 -0.059409767 0.015539515
000130 01 7b 50 3c d2 43 f3 bc 9d 7e 70 3c c0 22 c8 3c
       0.012724639 -0.029695425 0.014678624 0.024430633
000140 c2 b7 35 bd c2 ff 8d bd 94 db e2 3c dd fa 8d bd
       -0.0443647 -0.069335476 0.027692594 -0.06932614
000150 14 8e 28 3d 28 cc 97 bd 05 bd c4 bc 90 2d 37 3c
       0.04115112 -0.074119866 -0.024015913 0.011180297
000160 c8 f4 36 bd 00 c4 94 3d d5 3c 22 bd 09 09 de bc
       -0.044667035 0.072639465 -0.039608795 -0.027103918
000170 50 cb 4d bd 74 c4 0b 3d 37 1f f7 3c f8 b8 c6 bc
       -0.050242722 0.0341229 0.030166252 -0.024258122
000180 40 b9 fb 3c d4 78 ae bd 7d 00 6c bc 83 ae 2e bd
       0.030727983 -0.0851914 -0.014404413 -0.042646896
000190 44 04 9f bd 8e a6 4b bd d8 98 93 3d 97 32 0c bd
       -0.077644855 -0.049719386 0.07206887 -0.034227934
0001a0 e7 d0 6a bd 1d ad 1a 3d 93 ca 86 bd 88 d9 e4 3b
       -0.05732813 0.03776275 -0.06581607 0.0069839396
0001b0 a0 32 56 bd 0e bf 54 3d bf 14 11 bd 18 74 78 bd
       -0.052294374 0.051940016 -0.035420176 -0.06065759
0001c0 a6 c5 19 bd 19 e8 d7 3c 55 5a 96 bd 62 ee f2 3c
       -0.037542008 0.02635579 -0.07341448 0.029654685
0001d0 bf c9 84 bd f5 a6 9c 3b c7 e8 73 3d ca 2d 0b bd
       -0.064837925 0.004780645 0.059548166 -0.033979215
0001e0 27 88 93 3d 85 6c 15 bd 67 25 ad b9 7f ed 1b 3d
       0.072037034 -0.036480445 -0.00033024998 0.03806829
0001f0 e8 1e 01 bd 34 5d f9 bc fa 21 36 3d 4c 5b 22 3c
       -0.031523615 -0.03043995 0.044465996 0.009909462
000200 25 19 8e bd 7f f6 84 3d ab ee 08 bd fa 65 23 3d
       -0.0693839 0.06492328 -0.033430737 0.039892174
000210 45 4e 04 3d 00 cd 7a bd 02 d9 c7 3d e9 0a 43 bc
       0.032301206 -0.06123066 0.09758188 -0.011904457
000220 d0 62 19 ba 91 d1 02 3d 5f 2d 28 bd c2 72 90 3d
       -0.0005851211 0.03193814 -0.041058894 0.07053138
000230 c3 28 51 3d 69 69 1d 3b 61 64 b4 3c 7c dc 17 bb
       0.051064264 0.0024019128 0.02202052 -0.002317219
000240 6f f8 24 bc e1 cf ea 3a 92 14 e7 bc 4d d3 ed bb
       -0.010068997 0.0017914736 -0.02820805 -0.007257855
000250 2e 21 8e bd 9f 19 5d bd dd a7 2b bd 0c 40 f6 3b
       -0.06939922 -0.053979512 -0.041908134 0.007514959
000260 1a 5a d1 bc 36 0e 9a bd ca 5e 9d 3d 74 ef 07 3d
       -0.02555566 -0.07522242 0.07684095 0.033187345
000270 a1 e3 82 3d ef 01 73 3b 0c 34 b1 3d 08 1d 4b bc
       0.06391073 0.003708001 0.08652505 -0.012397058
000280 19 1b 8c 3d 35 80 83 3d 4a fd 99 bd 7c 5c 42 3d
       0.06841106 0.06420938 -0.07519014 0.04745148
000290 34 10 1c bc a2 79 64 bd 26 76 16 3d 4b 0a 86 3d
       -0.0095253475 -0.05578006 0.03673377 0.06544932
0002a0 87 f5 86 bc 47 60 a1 3d f0 2c 1a bc 50 74 38 3d
       -0.016474498 0.078796916 -0.009410128 0.0450328
0002b0 b9 9e be bc ac 32 34 bd 9f e0 1d bd 7a d3 0c bc
       -0.023269044 -0.043993637 -0.038544293 -0.008595342
0002c0 7f a3 78 ba 39 ce 8a 3c d5 80 8d 3d e3 72 26 3d
       -0.0009484812 0.016944038 0.069093384 0.04063691
0002d0 59 ee 71 3d 42 5e 79 3d e8 c5 eb bb 9e 47 a9 bc
       0.059065197 0.060880907 -0.007195223 -0.020664033
0002e0 70 de 84 bd db 17 b8 bb 4b 86 8c 3d 5a 6f 29 3c
       -0.06487739 -0.005618078 0.06861552 0.01034149
0002f0 79 76 71 bd d3 87 7a bc bd a0 36 3d ef c6 36 3d
       -0.058950875 -0.015291172 0.044586886 0.04462331
000300 ff 28 84 3c ad 7d 58 3d 82 66 15 3d 8d 6c 50 3d
       0.01613283 0.05285423 0.036474712 0.050884772
000310 c7 c5 b1 3d 27 a8 2c bd 20 5c 7f 3c 50 72 ff 3b
       0.08680301 -0.04215255 0.015585929 0.0077956095
000320 0d 63 8b bd 42 8e 41 bd b2 e4 eb bc 91 b3 8f 3b
       -0.06806002 -0.04725481 -0.028795574 0.0043854197
000330 3c 9c 5e bd 3b 35 bf bb 16 a4 e8 3c 09 bf b4 3c
       -0.054348215 -0.005835203 0.028398555 0.022063749
000340 14 b4 09 3a 99 c7 80 3d ba aa 9b bc 5f 6b b7 bd
       0.0005252969 0.0628807 -0.019002307 -0.08956026
000350 bc c3 8c bd f1 d1 4e bd 8e d5 94 bd 15 3e 63 bd
       -0.06873271 -0.050493184 -0.07267295 -0.055479128
000360 57 07 fe bc c7 75 99 bd 0a 8f c4 3d d1 1f 8d bd
       -0.03100936 -0.07493167 0.09597595 -0.06890834
000370 84 b5 7d 3d d9 2d 37 3d 1f 86 0a bd 32 92 db ba
       0.061940685 0.044721458 -0.033819314 -0.0016751944
000380 e8 6c 86 3d 36 f3 58 3b 10 b9 e7 3b e1 e2 97 bc
       0.06563741 0.003310395 0.0070716217 -0.018540801
000390 1e bd 7c bd c5 4f fb bc 9e 96 43 3a 94 26 f2 bc
       -0.061703794 -0.030677686 0.00074611034 -0.029559411
0003a0 b2 3d f5 bc 37 2f 9b 3d 6d 39 3e bd e5 fe a7 bb
       -0.029936645 0.07577365 -0.046441484 -0.0051268213
0003b0 98 50 37 3c 8b e7 05 bb 7e 5f 2a bd e0 ea 71 bd
       0.011188649 -0.00204322 -0.041594975 -0.059061885
0003c0 75 82 8b 3d 87 41 5c bd 36 64 0b bd b1 20 e1 ba
       0.06811992 -0.05377343 -0.034031115 -0.001717588
0003d0 fa 95 5a bd d2 23 70 3c 9e 9f 32 bd 0b 18 fc 3c
       -0.053365685 0.014656978 -0.043609254 0.030773183
0003e0 38 c8 a6 3d ae 58 de 3c a2 71 9b bd f4 b5 42 3d
       0.081436574 0.027141895 -0.07590033 0.047536805
0003f0 58 3a 33 bd 73 c9 21 bd ae 22 02 3d cc 06 8c 3d
       -0.043756813 -0.039498758 0.031771354 0.06837234

weight_function_network.initial_cnn.8.bias f4 [32]
000000 2e 56 97 bd b2 0b 23 3d 9e a3 16 bd cd 0f 55 bd
       -0.07389484 0.039806075 -0.03677713 -0.052017022
000010 e3 b8 0f bd 5d 71 3e bd 55 44 a3 3d 69 be 6b 3d
       -0.03508843 -0.04649483 0.07972018 0.057554636
000020 dc 34 86 3d 4b 33 9f 3d d0 b2 a2 3d 7a c8 6e 3d
       0.06553051 0.07773455 0.07944262 0.058296658
000030 5a fb 1b bd 5a 32 32 bd 04 62 86 3d 73 95 88 3d
       -0.038081504 -0.04350505 0.06561664 0.0666913
000040 0d 12 84 bd e7 83 69 bd 99 d4 2d bd 05 7c 88 3d
       -0.064487554 -0.057010558 -0.042439077 0.0666428
000050 8e 4b 5e bc ee 3c a7 bd 86 f4 a0 bd 01 af c7 3c
       -0.013567818 -0.08165918 -0.07859139 0.02437544
000060 97 2f c1 3c 70 18 0d bc f3 d2 cf bb aa 37 4e 3d
       0.023582263 -0.008611783 -0.006342286 0.050346054
000070 32 e9 0d 3d 0d 78 23 3b fa 4a 31 bc 1a 2e 13 bc
       0.03464622 0.0024943382 -0.010821098 -0.008983159

weight_function_network.initial_cnn.9.weight f4 [32]
000000 1b 18 7f 3f 4c 16 7e 3f 39 cc 7f 3f f9 73 7e 3f
       0.9964616 0.9925277 0.99920994 0.9939571
000010 a3 8b 80 3f c9 99 82 3f 5f 3f 7f 3f 28 19 7f 3f
       1.0042614 1.0203182 0.9970607 0.9964776
000020 32 c9 7e 3f 5e 39 7d 3f ad 65 7f 3f 3d 2e 7f 3f
       0.9952575 0.9891566 0.9976452 0.9967993
000030 51 e6 80 3f be 5e 7f 3f 56 f2 7d 3f 2a 10 7f 3f
       1.0070287 0.9975394 0.991979 0.9963404
000040 66 f5 80 3f 10 9a 80 3f 0d 28 83 3f 6e 53 7c 3f
       1.007489 1.0047016 1.0246598 0.98564804
000050 b1 cb 80 3f 22 75 80 3f b2 27 7e 3f 8a 43 7f 3f
       1.0062162 1.0035746 0.9927932 0.9971243
000060 58 d9 7d 3f f2 e3 7c 3f d4 e4 7f 3f d8 ab 80 3f
       0.99159765 0.98785317 0.9995854 1.0052443
000070 c2 78 81 3f 30 c7 7c 3f 1b 41 7e 3f 64 af 7f 3f
       1.0114977 0.98741436 0.99318093 0.99877

weight_function_network.initial_cnn.9.bias f4 [32]
000000 0c 61 42 bc 2d 9d 15 ba 2e 10 65 bc b4 96 4c bb
       -0.011863958 -0.000570732 -0.013980908 -0.0031217756
000010 bc 15 f8 bb 4c 34 92 3b e4 89 10 bc 15 81 9f 3b
       -0.0075709503 0.0044618007 -0.008821938 0.0048676827
000020 73 40 49 bb 51 1d 91 3a 38 58 97 3a b1 4c 8f bc
       -0.003070858 0.0011071359 0.0011546677 -0.017492624
000030 8b 4c 31 bc 2c 86 b5 b9 77 1f 97 bb af 1c 19 bc
       -0.010821472 -0.00034622976 -0.004611905 -0.009345218
000040 d3 c8 7b 3b 37 de 0a 3b 90 05 40 3c 82 1a 75 bc
       0.003841926 0.002118958 0.011720076 -0.014959933
000050 4b ce 31 bb 7f de bc ba 42 9b ab bb 7c b5 08 bb
       -0.0027131017 -0.0014409571 -0.005237014 -0.0020860126
000060 bb 51 93 bb ea 4c 9c bc 98 4f 4e bc 6d 57 a4 3b
       -0.004495827 -0.019079644 -0.012592219 0.005015305
000070 31 b1 3b bc 65 dd f1 bb 74 7d 04 bc 28 d5 ab bb
       -0.01145582 -0.0073811286 -0.008086551 -0.005243916

weight_function_network.initial_cnn.9.running_mean f4 [32]
000000 94 86 ba be d2 16 5a bd 29 10 b3 3e f5 df 8c be
       -0.364308 -0.05324442 0.34973267 -0.27514616
000010 d4 9c 28 be dd 87 5c be 5c 34 aa 3e 05 a5 28 3f
       -0.16466075 -0.21536203 0.33243072 0.658768
000020 f6 cb 6f be 4b 0e 09 be e4 7a 93 3d b0 65 81 3e
       -0.23417649 -0.13384359 0.07201174 0.25272894
000030 71 84 a0 3e bd 5e ec bd 60 57 93 3e 33 b8 ec 3c
       0.31351045 -0.115415074 0.287776 0.028896427
000040 85 97 07 3e a7 0e 82 be e1 ac b0 3e 74 a6 3c 3c
       0.13241394 -0.25401804 0.34506896 0.011514295
000050 b9 ed d1 bd 96 3b 08 3c 43 80 ff be 4c f4 a9 3d
       -0.1025042 0.008314988 -0.49902543 0.08298549
000060 35 5c 36 be 7e 39 26 3e 44 08 a4 3d ba 0c 4b be
       -0.17808612 0.16232869 0.08009389 -0.19829074
000070 e9 6e 5f 3e 7d b6 a4 be fb 02 26 3d e5 15 63 3d
       0.21819653 -0.32170478 0.040530186 0.055440802

weight_function_network.initial_cnn.9.running_var f4 [32]
000000 55 73 6e 3d 4e 4f 4b 3d a5 4d 83 3d 52 b4 07 3e
       0.058215458 0.049636178 0.06411294 0.1325238
000010 a9 d5 95 3d 69 f2 88 3d bf bd 7e 3d f5 e3 ca 3d
       0.07316143 0.06686861 0.062192675 0.099067606
000020 2b 1e a6 3d 80 a2 06 3e d7 d4 ab 3d de 36 54 3d
       0.08111223 0.13147926 0.08390205 0.051810138
000030 22 93 7f 3d 64 2f 9d 3d 0c de e7 3d f0 d1 b3 3d
       0.062396176 0.07675055 0.11321649 0.08780277
000040 fb 11 dc 3d a4 3e 7e 3d 75 de 31 3d 63 b3 91 3d
       0.10745617 0.062071458 0.043425042 0.071142934
000050 2b 7e 76 3d 53 6f a9 3d aa 15 dd 3d f5 ce 8e 3d
       0.060178917 0.082731865 0.10795148 0.06973068
000060 2c 17 93 3d 97 05 65 3d 25 d9 49 3d fd e6 bc 3d
       0.07182154 0.055913534 0.04927935 0.09223745
000070 3a f5 36 3d 57 3b 8f 3d f7 b0 91 3d e2 2a 7d 3d
       0.04466746 0.0699374 0.071138315 0.061808474

weight_function_network.initial_cnn.11.weight f4 [32, 32, 3, 3]
000000 b2 84 41 3d 9e cb 5f ba 61 cc c2 bc fe a9 81 bd
       0.04724569 -0.0008537116 -0.023779096 -0.063312516
000010 38 14 60 3d 0e 28 39 bd 41 d1 c9 3c 60 a6 85 bc
       0.054706782 -0.045204215 0.024635913 -0.016314685
000020 18 97 ac bc 6a c1 c7 3c aa b9 25 3d 8d c3 2f bc
       -0.02106814 0.02438422 0.040460266 -0.010727775
000030 da 55 b1 bb 81 40 4f bd af d7 78 3d 6f 77 33 bc
       -0.0054118456 -0.050598625 0.060752567 -0.010953768
000040 16 fa 37 bd b2 72 0f 3d 61 8f 30 bd 89 f8 10 3b
       -0.044916235 0.03502149 -0.043105487 0.0022120795
000050 0f f2 06 3d ad d6 e2 3c 2f 61 10 3d e1 1d 20 bc
       0.03294569 0.027690256 0.03524893 -0.009772749
000060 db d2 92 3c 3f a2 b4 bc 8f d1 91 3b b3 5f 7e 3d
       0.01792281 -0.022050021 0.00445003 0.062102985
000070 48 c7 48 bd a4 06 2b bd 12 04 20 3d 18 79 c2 3c
       -0.049018174 -0.04175438 0.03906638 0.023739383
000080 76 3a 3b 3d 69 5f 29 3d 46 79 22 3d 84 95 6d 3d
       0.04571005 0.041350756 0.039666437 0.058003917
000090 3e 10 78 bc ef ce 20 3d e3 ac 99 bd 5e a4 ed bc
       -0.015140591 0.039259847 -0.07503679 -0.02900904
0000a0 85 80 58 3d 37 84 20 3c 77 a1 c1 3b 07 fc 6c 3c
       0.05285694 0.0097971475 0.0059091407 0.014464385
0000b0 57 a2 29 bd 19 52 13 bc f7 fd 22 3d f7 a5 12 3d
       -0.041414585 -0.008991742 0.03979298 0.035802808
0000c0 98 85 c8 bc 74 13 6d 3d 4b a6 97 bc a6 59 55 bd
       -0.024477765 0.05787988 -0.018511912 -0.05208745
0000d0 5f 12 02 3d 1e a9 07 bd b6 ad 5e bd bb d6 00 3c
       0.0317558 -0.033120267 -0.054364882 0.007863696
0000e0 98 d6 43 3d a5 21 92 3c 0c 5e b3 bc cd 86 58 3d
       0.047812074 0.017838309 -0.021895431 0.05286293
0000f0 06 a5 71 3c dc a8 43 bd 82 55 5e bd 40 ce 93 3c
       0.014748817 -0.04776846 -0.054280765 0.018042684
000100 56 94 05 bb 67 9c a3 bc 7d 33 22 3d 89 08 ca 3c
       -0.0020382605 -0.01997204 0.039599884 0.024662273
000110 c7 ef 73 bc a6 0f d7 3c 74 3a 8e bc 73 18 e8 3c
       -0.01488871 0.026252579 -0.017361857 0.02833197
000120 2b 0f 3d 3d fa 1c 3d 3d 59 0f 6f 3d 93 fe 4b bd
       0.046157043 0.046170212 0.058364246 -0.049803328
000130 6e 10 40 bd 5d cd 55 bc 55 c0 4f bd b7 4c 77 3c
       -0.04689067 -0.013049451 -0.05072053 0.015093974
000140 df 7b 3e bd 7e ac 3a 3d fc f6 75 bd 50 33 36 3d
       -0.04650485 0.045574658 -0.060049996 0.04448253
000150 4d f7 63 3b 38 2b 10 3d 0e a3 03 bd f0 6d e8 3c
       0.0034784854 0.035197467 -0.032137923 0.028372735
000160 9c 7d 3b bd 43 38 0a 3d e5 e5 77 3d 82 e1 ae bb
       -0.045774087 0.03374506 0.06052198 -0.005336941
000170 52 d8 42 3c 2e bb 57 3c ff d8 62 bd fa 6d 98 3d
       0.011892395 0.013167186 -0.055382725 0.07442851
000180 9a 24 32 3d 1d dd 48 3a e4 02 2e bd 76 e6 10 3d
       0.043491937 0.0007662343 -0.042483225 0.035376035
000190 00 9b 3c 3c 02 22 05 bd a4 76 3c bd d8 ab 5a 3d
       0.011511564 -0.032503136 -0.046011582 0.05338654
0001a0 55 a0 07 bd a3 b1 09 bc 64 f4 14 3d 46 cb 97 3b
       -0.03311189 -0.008404168 0.03636588 0.0046323864
0001b0 ea 29 0c 3d 94 8c 57 3c 08 e8 1e 3d 02 a2 81 3d
       0.03421966 0.013156075 0.0387955 0.06329729
0001c0 ce 78 9b bc f3 8e 32 bc c0 d5 2d 3c 2c 84 76 bc
       -0.018978503 -0.01089834 0.010610044 -0.015046161
0001d0 b1 7d 37 3d 3e 0b 04 3d cf e4 bc 3c 5b 8e 1c 3d
       0.044797603 0.032237284 0.023058323 0.0382217
0001e0 04 67 03 bc 3e cc a3 3c 28 00 28 bd 05 03 20 3d
       -0.008020166 0.019994851 -0.041015774 0.03906538
0001f0 1a 33 7e bd a6 22 44 3d d0 66 e7 ba dc 3d b4 3c
       -0.062060453 0.047884606 -0.0017654542 0.022002153
000200 c2 ed 24 3d 66 17 fb 3c 7b cb bc bc c8 be 5d bd
       0.040265806 0.030650806 -0.023046246 -0.05413702
000210 15 63 55 3d 38 d5 d3 bc 4e 5b 20 3c b2 66 86 bc
       0.052096445 -0.025858507 0.009787394 -0.01640639
000220 dd 67 78 bd 79 d3 66 bd c7 a8 79 bc 4b 86 7c 3c
       -0.060645927 -0.05635402 -0.015237994 0.015412877
000230 57 1d 9b bc 8e eb 78 3d 81 69 89 3c c4 09 b4 ba
       -0.018934889 0.060771517 0.016773941 -0.001373582
000240 43 2b ad 3c 3a 9b 99 3c 78 7b f6 bc a0 0d 59 3c
       0.021138793 0.018750776 -0.030088171 0.013247877
000250 93 e7 38 3c 5c e6 61 bd 91 9f 0e 3d 58 8b 5a 3c
       0.01128568 -0.05515133 0.034820143 0.013338886
000260 ef 14 db 3c 08 35 d1 3c f8 51 82 3d a4 b6 81 3c
       0.02674338 0.025537983 0.063632905 0.01583416
000270 3e 81 37 3d 7a 76 79 3d 2f 77 52 3d a6 48 ea 3c
       0.04480099 0.060904004 0.051383194 0.028599095
000280 d8 d8 1a 3d 41 68 56 bb 99 36 ce 3c bb 4f 83 3d
       0.037804455 -0.0032715949 0.025172519 0.06411692
000290 f4 4c a1 3c c9 35 64 3d 88 d2 0c bc bc 73 08 3d
       0.019690014 0.055715356 -0.008595116 0.033313498
0002a0 11 97 32 3d a5 56 2b bd a5 a9 8f bc c5 0f 20 bd
       0.0436011 -0.041830678 -0.017536948 -0.03907754
0002b0 b1 35 22 bd 93 76 a9 3c c1 e6 eb 3c fd 08 ec bb
       -0.039601985 0.020686423 0.028796555 -0.00720322
0002c0 43 18 70 bd c6 c8 b3 3c 33 8d e5 3c ec a4 71 bc
       -0.058616888 0.021946322 0.02802143 -0.014748793
0002d0 ab a5 52 bd 81 fb fc 3c f1 c9 3f 3c 5b cc d2 3c
       -0.051427525 0.030881645 0.011705861 0.02573221
0002e0 b4 48 bd bc 63 52 0a 3c 1a ab 7a bc 47 a7 ba 3c
       -0.023105957 0.008442494 -0.015299583 0.022784842
0002f0 94 da 55 bd b3 9d b4 3c 12 2e f6 bc 5e e6 87 3b
       -0.052210405 0.022047853 -0.030051265 0.004147335
000300 2c a8 0d bd 14 ed 86 bd 95 02 f6 bc 9a 82 6d 3c
       -0.03458421 -0.06588188 -0.030030528 0.01449647
000310 c2 19 9f 3c d7 8d f7 bc 50 d8 7d 3d 98 1e e0 bc
       0.019421462 -0.030219002 0.06197387 -0.027358338
000320 bc 74 82 3d cc 8f 1f 3d eb 1a 01 3d c2 ab 94 3d
       0.063699216 0.038955495 0.03151981 0.07259323
000330 52 dd a3 3c 89 52 aa b9 43 dc 2c bd ee 66 9c bd
       0.020002995 -0.0003248642 -0.042202245 -0.0763682
000340 2e 3b 07 3d 4c b4 1e bd b2 fb 90 bc ce ab 02 3d
       0.033015423 -0.038746163 -0.017698143 0.031902127
000350 bf 59 dd 3b 0b 15 17 bd 59 2a 85 3c cb 0e 3f 3c
       0.0067550833 -0.036885303 0.016255544 0.011661242
000360 d9 7e 71 3d ad 28 0b bc 7d 69 2d 3d c1 3c 0b 3c
       0.058958862 -0.008493585 0.04233693 0.008498372
000370 bd 09 0e ba 66 39 75 3d d5 f7 51 bc 5a 13 29 3d
       -0.0005418321 0.059869193 -0.012815435 0.04127822
000380 18 06 71 3d ba 18 24 bc 88 72 52 bd 70 cd 30 bc
       0.058843702 -0.010015661 -0.051378757 -0.010791168
000390 fd 44 2f bd 26 50 a6 bb 23 95 83 3c 40 ee 6b bc
       -0.0427904 -0.0050754724 0.016062325 -0.014400065
0003a0 c5 fc 64 bd d4 6f ed 3c 7d 70 ff 3a ce 2a 03 bd
       -0.055905122 0.028983988 0.001948848 -0.032023244
0003b0 25 72 ed 3c 4b ab 6d bc 25 74 55 bd 56 90 1f bd
       0.028985092 -0.014506171 -0.052112717 -0.03895601
0003c0 67 68 04 3d eb 1a 21 bc 55 86 27 3b 86 8e 66 3b
       0.03232613 -0.009833078 0.0025562246 0.0035180165
0003d0 fa 5e 34 3d 47 2a 51 bd e1 30 10 bb 2e 71 81 bd
       0.04403589 -0.05106571 -0.002200179 -0.063204154
0003e0 8c 27 cf 3b b1 d9 69 3c b9 36 95 3c 6e 2b 52 3d
       0.006321853 0.014273093 0.01821457 0.05131095
0003f0 d1 b2 de 3c cb 94 40 3d 40 fe 2b 3d a2 d9 01 bd
       0.027184876 0.0470169 0.04199052 -0.03170169

weight_function_network.initial_cnn.11.bias f4 [32]
000000 f8 aa 16 bd e0 38 8c 3c 0a 84 01 3c be b4 b9 bc
       -0.036784142 0.017116964 0.007905016 -0.022669192
000010 8c 94 0a 3d 50 b9 2c 3c cb 1c 48 3d d5 90 37 bb
       0.03383307 0.010542229 0.048855584 -0.002800991
000020 c2 a2 ea bc e8 6e 3a 3d c8 bc f7 3c 9f 03 59 3d
       -0.028642062 0.045515925 0.030241385 0.05298197
000030 98 ef 84 bc 03 09 90 3b bb fe 0b bc 00 f6 17 3b
       -0.016227528 0.0043956055 -0.008544619 0.00231874
000040 b9 a2 f8 3c 9a ff e4 bc 1e 2d d9 3c 92 34 a6 bc
       0.03035103 -0.027953912 0.026510771 -0.02028874
000050 71 1f 38 bd 37 c0 1b 3d 26 2e 37 3d 79 5a f1 3c
       -0.04495186 0.038025107 0.044721745 0.029462086
000060 09 d2 65 3d 81 70 1f 3d f1 50 17 3d bc ec 37 3d
       0.05610851 0.03892565 0.036942426 0.044903502
000070 4c 77 4e bd 2a 66 39 3d ff 85 ef 3c 59 31 3f 3d
       -0.05040674 0.045263447 0.029238699 0.04667792

weight_function_network.initial_cnn.12.weight f4 [32]
000000 28 0a 7f 3f e6 20 7f 3f 90 19 80 3f 7f 0e 80 3f
       0.9962487 0.99659574 1.0007801 1.0004424
000010 7e 55 80 3f 67 8e 7d 3f 39 2b 7f 3f b2 31 7f 3f
       1.002609 0.99045414 0.9967533 0.99685204
000020 eb b4 80 3f 24 81 7e 3f e6 26 80 3f c3 bf 7d 3f
       1.0055212 0.994158 1.0011871 0.9912073
000030 98 f5 7e 3f ad 2b 80 3f 6b 44 80 3f e5 17 7f 3f
       0.99593496 1.0013329 1.002088 0.99645835
000040 5c fb 7e 3f 80 e5 7b 3f 1c 2b 81 3f d8 29 81 3f
       0.99602294 0.98397064 1.0091281 1.0090895
000050 79 1e 80 3f 3d ff 7d 3f 57 af 7d 3f 38 80 81 3f
       1.00093 0.9921759 0.9909567 1.0117254
000060 4e 99 80 3f ef 18 7e 3f d8 a5 80 3f 55 7c 81 3f
       1.0046785 0.99256796 1.0050611 1.0116068
000070 4a bb 7f 3f f7 55 81 3f 0e 54 81 3f ee c6 80 3f
       0.99895155 1.0104359 1.0103776 1.0060709

weight_function_network.initial_cnn.12.bias f4 [32]
000000 52 91 a1 bc 00 7e ff 3a 45 b4 aa bc c8 ec 31 bc
       -0.019722614 0.0019492507 -0.020837912 -0.010859676
000010 1b 77 04 bc 6f f1 88 38 c5 00 71 3b 15 13 49 bb
       -0.008085038 6.529956e-05 0.003677414 -0.003068154
000020 be fa 52 bc ca e9 0a bc 71 3d 8e bc d5 93 8e bc
       -0.012877164 -0.008478591 -0.017363282 -0.017404476
000030 1c 80 1b bc 9f 91 80 bc 17 86 e9 bb 92 ee 71 bb
       -0.009490993 -0.015694438 -0.0071265805 -0.003691588
000040 03 79 ba bc 1e a8 8b bc 16 98 ac ba dd f9 52 ba
       -0.022762781 -0.017047938 -0.0013167884 -0.0008048097
000050 65 94 11 bb 7f e9 51 bc 4a 97 c7 bc 1f de ce 3b
       -0.0022213694 -0.012812017 -0.024364132 0.0063131
000060 8b a9 0c ba cf 72 2f bc 70 92 2f bc 0a e5 de bb
       -0.000536584 -0.010708525 -0.010716066 -0.006802206
000070 6d 5f 55 bb ab d9 4b 3c f6 b8 51 bb ab 49 3f 3b
       -0.00325581 0.012442033 -0.0032001114 0.0029188197

weight_function_network.initial_cnn.12.running_mean f4 [32]
000000 e4 12 d0 3e 94 b7 79 bd d8 b7 93 3e 1a 58 95 3d
       0.40639412 -0.06096609 0.288512 0.07292195
000010 a2 74 19 3e 3b b7 95 be 32 f1 a5 be 21 13 4b be
       0.14985898 -0.29241356 -0.3241058 -0.19831516
000020 28 9f d5 bd 1c ac 28 3e ad 5c 5e be 19 ca bf bd
       -0.10430747 0.16471905 -0.2171504 -0.09364719
000030 27 20 8c bd d6 37 8e 3e 5a 63 23 bd f6 9b 30 ba
       -0.0684207 0.27776974 -0.03988967 -0.0006737107
000040 79 ea 65 3d 71 4a bf 3d 1e 51 ef bd 98 4a 89 3d
       0.056131814 0.093403704 -0.11685394 0.06703681
000050 2d 99 b7 bd 49 ef b1 bd 03 ab 30 3d 99 db 8e 3d
       -0.08964763 -0.08688218 0.04313184 0.06975479
000060 01 4c dd be ac 72 85 3e 30 b4 a6 3e 8f 5e 99 be
       -0.4322205 0.2606405 0.32559347 -0.29954955
000070 22 c5 87 bd e1 93 55 3e e5 a6 0f 3d 9e 9d 24 bc
       -0.06629397 0.20857193 0.035071272 -0.0100473445

weight_function_network.initial_cnn.12.running_var f4 [32]
000000 02 83 08 3e 6d 63 f4 3d 47 da ac 3d de 71 d7 3d
       0.13331226 0.119330265 0.084400706 0.10519765
000010 4b 39 e7 3d 05 3b f1 3d 5d fe 16 3e c0 e3 15 3e
       0.11290225 0.11778835 0.1474547 0.14637661
000020 08 ff b3 3d 4b 2d 44 3e 8b a6 f8 3d e6 d3 ea 3d
       0.08788878 0.19157903 0.121411406 0.11466198
000030 f1 e6 0b 3e de 88 d1 3d 66 ca db 3d 74 33 eb 3d
       0.13662316 0.102311835 0.10731964 0.11484423
000040 1e 03 b9 3d 6d d0 c1 3d 5c 5d ed 3d e8 bc b4 3d
       0.09033798 0.09463582 0.115900725 0.088250935
000050 30 8c 08 3e bc 06 05 3e a0 97 c5 3d b0 b4 d4 3d
       0.13334727 0.1299085 0.09648061 0.10386026
000060 b9 e6 64 3e 38 24 d8 3d a5 d7 1b 3e e3 8c e2 3d
       0.22353639 0.10553783 0.1521898 0.11062028
000070 fe fc a6 3d f8 d6 2d 3e 7d b3 db 3d 29 6d b1 3d
       0.08153723 0.16976535 0.10727594 0.08663399

weight_function_network.adaptive_layer.1.weight f4 [64, 32, 3, 3]
000000 41 fb ca 3c cb c3 11 bd 16 fd 6f 3d 44 ec e2 3a
       0.02477801 -0.035587113 0.05859097 0.0017312844
000010 10 fe 62 bc 88 c0 11 bd 95 58 a9 3c da 79 31 3d
       -0.0138545185 -0.035584003 0.020672122 0.043329097
000020 66 fe 23 3d 3d c9 5f 3d eb f1 76 3c 65 92 4d 3d
       0.040037535 0.054635275 0.015072326 0.05018844
000030 7f 39 82 bc 95 81 54 3d bc b1 2e bb df a5 07 3d
       -0.015896557 0.05188139 -0.002665623 0.03311717
000040 8f a1 a5 bc aa b6 66 3d 3f 75 68 3c 27 83 24 3d
       -0.020218639 0.056326546 0.01418811 0.04016414
000050 10 7e 84 3d 62 e4 57 bd de 76 14 3d 3e 5a 26 bd
       0.06469357 -0.052708037 0.036246173 -0.040613405
000060 60 ed 1b bd 1f 39 63 bb a8 30 2e 3d 0e 25 40 3b
       -0.038068175 -0.0034671498 0.04252687 0.0029318961
000070 47 75 2f 3d a5 68 35 bd e4 4f bd bc de 88 e6 3c
       0.042836454 -0.04428925 -0.023109384 0.028141435
000080 72 19 90 bd 25 67 8b bd 98 bc 46 bd 0d 3e 82 bc
       -0.07036103 -0.06806783 -0.0485197 -0.015898729
000090 c0 ca 0b 3d 5c 76 25 bc dd 99 83 3b e5 6f 1a bc
       0.034128904 -0.01009902 0.0040161447 -0.009426092
0000a0 2e 26 07 bc de ca 80 3d 6d ae 5c 3d 01 3d 09 3c
       -0.008248849 0.06288694 0.053877283 0.008376361
0000b0 08 68 9a 3c 81 71 b6 3a 7b 84 7b bc 9c 05 7d 3d
       0.018848434 0.0013919325 -0.01535141 0.061772928
0000c0 44 4d 3d 3d c4 f9 d9 bc 46 eb ec 3c dc b1 fc bc
       0.046216264 -0.026608355 0.02892078 -0.030846529
0000d0 a7 7c fc bc 4f d6 e3 bc 47 51 ab 3c 0a 29 a7 3c
       -0.030821158 -0.027812151 0.02091278 0.020405311
0000e0 b0 73 44 bd df c4 e9 bc de eb eb bb 0e 78 d1 3a
       -0.04796189 -0.028536258 -0.0071997484 0.0015981214
0000f0 ca 95 9c bc 05 d6 8b 3c d2 9c bc 3c d8 3e 2f bd
       -0.019114394 0.017069826 0.023023997 -0.04278454
000100 5c c7 9d 3c 75 bb 65 bc 3b 42 42 bc b0 2c ce 3c
       0.019260101 -0.014021744 -0.011856611 0.025167793
000110 88 80 87 bd 1a ca 43 3d ff b6 64 bd 4c 5c be 3c
       -0.06616312 0.04780016 -0.05583858 0.02323737
000120 2a e1 92 3c 8d 5e 8c 3d a0 e7 87 3d 23 95 50 3c
       0.017929632 0.06853972 0.06635976 0.012730869
000130 07 ce a1 3b 57 08 7a bc eb 74 55 3d 2b 4f 10 3d
       0.0049378905 -0.015260777 0.052113455 0.03523175
000140 3b 00 80 3d bf 73 0c 3d 7f 67 0a 3d 77 38 18 bd
       0.06250044 0.03429007 0.033790108 -0.037163224
000150 cd 51 5a bd 73 cc 3b 3d 7b 18 40 bd 2e ff 31 bd
       -0.053300668 0.045849275 -0.046898346 -0.04345625
000160 8a d3 58 bb 68 6b 59 3d e2 2e 0a 3d ed 32 f0 bc
       -0.0033085071 0.053080946 0.033736117 -0.029321158
000170 e5 08 8d bc c4 fc 2f bd 6b 24 05 3b 6a 6e 4f 3d
       -0.017216155 -0.042965665 0.0020315896 0.05064241
000180 50 72 0d 3c 3f e0 60 3d d3 be 0a 3d 18 52 a6 bc
       0.008633211 0.054901358 0.03387339 -0.020302817
000190 77 01 be 3b 69 c3 0f 3d f4 5e 8f bc d8 58 07 bd
       0.0057985145 0.035098467 -0.017501332 -0.033043712
0001a0 d5 43 c7 3c 7c 32 6f 38 21 18 04 bb 9a 22 1d bd
       0.024324337 5.7029058e-05 -0.0020155984 -0.038363077
0001b0 b4 67 f0 bc 7b 65 0f bd 2b 42 29 bd 8b 14 8a bc
       -0.029346325 -0.03500889 -0.04132287 -0.016855499
0001c0 dc 9d 09 bd ae fb d5 bc 3c 77 6b 3d cd b4 36 bc
       -0.033597812 -0.026120987 0.057486758 -0.011151505
0001d0 73 2c 0c 3d 18 c5 0d 3d 39 26 33 bd 1a 34 01 bd
       0.034222078 0.03461179 -0.043737624 -0.03154383
0001e0 15 a0 38 3c 09 be 1b bd 22 44 31 bd 5f 77 3c bc
       0.011268635 -0.03802303 -0.043277867 -0.01150307
0001f0 c8 12 f4 3c 15 11 c9 3b bd fc 2d 3d b0 13 1d bc
       0.029794112 0.0061360695 0.042477358 -0.009587213
000200 83 df 6e 3c e8 42 d4 bc 55 ae c4 bc 18 3c 17 3d
       0.0145796565 -0.02591081 -0.02400891 0.036922544
000210 4c 32 78 3d 65 4b 4a 3d 6f 11 3c bc 15 ec 2f 3c
       0.06059484 0.049388308 -0.011478766 0.010737439
000220 61 38 b8 bc 4f ac 0b bd 55 e9 bc 3c 39 7d 57 3d
       -0.022487821 -0.034099873 0.02306048 0.052609656
000230 c7 10 76 3d ef 9d 70 bc d3 9e 50 bc 6b 71 13 3c
       0.060074594 -0.014686092 -0.012733179 0.008999209
000240 a5 28 18 bd 22 b4 08 bd 53 56 7a 3b aa 5d 6a bd
       -0.037148137 -0.033374913 0.0038198426 -0.05721823
000250 2f f8 e3 bc 1d d9 ad bb 5d 94 95 bc 79 65 79 bc
       -0.027828304 -0.005305423 -0.018259222 -0.015221947
000260 9b a4 10 3d e7 1c 10 ba e0 65 3c bd 14 22 b3 bc
       0.03531323 -0.0005497471 -0.045995593 -0.021866836
000270 c8 12 81 bc f5 0a e3 3c 01 af 57 3d 76 96 48 bd
       -0.015756026 0.027715186 0.05265713 -0.048971616
000280 76 4f fd bc 6a 4f af 3a 20 b9 6c bd 5e c5 e1 3c
       -0.030921679 0.0013375108 -0.057793736 0.027559932
000290 43 3d 3e 3d e2 0d c3 bb a6 09 31 bd 54 4b 9c bc
       0.046445142 -0.0059525827 -0.043222092 -0.019078888
0002a0 18 3e de 3c f0 3c 9b 3c 86 ed 21 bc 31 f3 41 3d
       0.027129218 0.018949956 -0.00988329 0.047351066
0002b0 7a 80 02 3d ad 87 4e 3d 5c 2e 01 3d 72 4d 1e bd
       0.031860806 0.05042236 0.031538352 -0.038648076
0002c0 e9 55 1b bc 90 b0 1f 3d 75 11 e8 bc 8a 02 31 3d
       -0.009480932 0.038986742 -0.028328637 0.043215312
0002d0 61 9a 6b 3d 0b 1b 18 bd 63 56 d4 3b c8 7c db 3c
       0.057520274 -0.037135165 0.0064800247 0.026792899
0002e0 c4 34 84 3c 57 06 30 bd 94 ec 52 3d 39 80 d8 bc
       0.016138442 -0.042974796 0.05149515 -0.026428329
0002f0 fe b0 05 bc e4 b9 97 3b 43 77 17 3d 25 7e 8f bc
       -0.008159874 0.004630314 0.03697897 -0.017516205
000300 d0 47 56 bd 79 21 ce bc 6c d8 f5 bc 18 53 91 bc
       -0.05231458 -0.025162445 -0.030010425 -0.017739818
000310 eb 63 25 3d e1 d2 07 bd 92 17 37 3d ca 5b 86 3c
       0.040378492 -0.033160094 0.044700213 0.01640119
000320 2b ab c3 3c 4b 2b 0f 3d a2 94 5e 3d 24 ce dc 3c
       0.02388533 0.034953397 0.054340966 0.026953764
000330 70 1b 16 3b 6c e9 b2 3a e1 c2 f3 bc 24 3b 11 bd
       0.0022904538 0.0013649887 -0.029756011 -0.03545679
000340 64 09 85 3b 39 9d 8c bc b9 8a 40 3d f0 cd dc 3c
       0.0040599573 -0.017164813 0.047007296 0.026953667
000350 d5 67 28 3d db 63 93 3a 21 ad 42 3d f1 e5 e9 bc
       0.041114647 0.0011244969 0.04752839 -0.028552027
000360 95 f4 1f bd 54 ff 64 bd 94 ea 5e bd a4 65 73 3c
       -0.03905161 -0.055907562 -0.05442293 0.014855776
000370 b2 ac 54 bd a4 26 3c 3d 00 51 2e bd 1c 5e 19 bd
       -0.051922508 0.045935288 -0.042557716 -0.037443265
000380 ca 3c 21 bc 1d a3 81 bc 59 70 bb 3c d2 2c 5c bd
       -0.009841153 -0.015824849 0.02288072 -0.05375368
000390 d5 89 37 bc 7e 2b b9 3b 13 ec d2 bc a8 ef e1 3c
       -0.011202295 0.0056509366 -0.025747335 0.027580097
0003a0 18 9c 3d 3d db 66 4b bd 56 5f 3e bd 87 e1 97 39
       0.04629144 -0.049658637 -0.04647764 0.00028968995
0003b0 75 ce b5 b9 f8 42 e9 bc b5 1a 33 3d 34 60 4e 3d
       -0.00034676833 -0.028474316 0.04372664 0.050384715
0003c0 bf 54 62 bb 3c 42 9d 3c 19 a5 17 3d de 0d 62 bc
       -0.0034535376 0.019196622 0.037022684 -0.0137972515
0003d0 a1 79 03 bc ca b9 0b 3d af cf 7d bd e4 25 87 bb
       -0.008024604 0.03411273 -0.06196564 -0.00412439
0003e0 9a 89 e7 bc 29 d8 02 bd bd 24 3b bd bf ea 0d 3d
       -0.028263856 -0.031944428 -0.045689333 0.0346477
0003f0 d8 59 2e 3a 57 f5 0d bd d2 b4 3c 3d 5e 11 11 bd
       0.0006650961 -0.034657802 0.04607088 -0.035416953

weight_function_network.adaptive_layer.1.bias f4 [64]
000000 93 15 56 3d a0 24 7c 3c fb 75 36 3d 08 5c 89 bb
       0.05226667 0.015389591 0.04454611 -0.004191879
000010 4c 29 dc bc 0b 4e 21 3d b5 0c 69 bd c1 90 3d bc
       -0.02687516 0.03938107 -0.056896884 -0.011570157
000020 1f 3a 66 bd 97 94 36 bd 4c 2d 35 bd 45 ca 26 bb
       -0.056207772 -0.0445753 -0.04423265 -0.0025450152
000030 29 a7 44 bd 62 fd 9b 3c c6 6b 27 3c 39 06 06 bd
       -0.04801098 0.01904172 0.010218566 -0.03272078
000040 72 e6 68 3b 35 57 17 bc b7 45 62 b9 bc dd f9 bc
       0.0035537747 -0.0092371 -0.0002157901 -0.030501239
000050 eb 38 5a 3c 53 ae 20 bc ce 0d 1a bd 94 98 36 bd
       0.013319234 -0.009807187 -0.03761082 -0.044579104
000060 d6 14 ea bc 20 20 6c bb a0 75 42 3d 58 33 3e bd
       -0.028574388 -0.003602989 0.047475457 -0.046435684
000070 5c c8 f2 3a dd 58 1d 3c 12 10 94 3b d3 de 11 bd
       0.0018522847 0.009603706 0.0045185173 -0.035612892
000080 fe dd 0d bd 12 19 c3 bc 8b 3c 44 3c fd 6f f4 bc
       -0.034635536 -0.023815665 0.011977325 -0.029838556
000090 2a 73 27 3b 0f ab 54 3c 3c 4f 67 3d a4 44 5b 3d
       0.002555082 0.012980237 0.05647205 0.053532258
0000a0 86 6e 93 bc 69 4c 25 bd a1 a7 0c 3d 59 42 4f 3c
       -0.017997038 -0.040356074 0.03433955 0.012650096
0000b0 f2 db 37 bc d5 61 70 bd d8 45 60 ba 99 9f 53 3b
       -0.011221873 -0.05868705 -0.00085553294 0.0032291173
0000c0 e6 ba a9 bc 57 7f 8f bc 94 1d 08 3d fe 92 3e bd
       -0.020719003 -0.017516775 0.033231333 -0.0465269
0000d0 5f e7 10 3d 9b 90 ab bc db 71 01 bd 89 41 33 b9
       0.035376903 -0.020942977 -0.03160272 -0.00017095184
0000e0 29 54 f6 bc e6 c6 d0 bc f6 7c 4c 3d de 2a 4e bd
       -0.030069428 -0.025485467 0.04992386 -0.05033385
0000f0 e1 d1 5b bc 9d 0c 22 bd 96 84 6e 3d 68 6e a6 3c
       -0.013416738 -0.03956281 0.058231913 0.020316318

weight_function_network.adaptive_layer.2.weight f4 [64]
000000 ae 7c 7e 3f 4a 26 7f 3f 5f eb 7c 3f 0f ac 81 3f
       0.99408996 0.996678 0.9879665 1.0130633
000010 3f c4 80 3f 5f 88 7d 3f 98 ba 80 3f 75 91 7f 3f
       1.005989 0.9903621 1.0056944 0.99831325
000020 6b d9 7e 3f 3b e9 7f 3f 0d b5 7f 3f 29 49 80 3f
       0.99550503 0.99965256 0.99885637 1.0022327
000030 3a 20 7a 3f ba 32 80 3f f3 6e 80 3f 92 00 7b 3f
       0.97705424 1.001548 1.0033859 0.98047745
000040 ee 0d 81 3f ce f3 80 3f 9e 1e 79 3f 41 11 80 3f
       1.0082376 1.0074403 0.97312343 1.0005265
000050 24 bb 81 3f de 11 81 3f 28 e4 80 3f ca 50 7e 3f
       1.0135236 1.0083578 1.0069628 0.99342024
000060 e5 12 7e 3f 37 b6 7b 3f 81 9d 7d 3f b2 4f 7d 3f
       0.9924758 0.9832491 0.99068457 0.9894973
000070 be fa 7f 3f 76 95 7f 3f c9 b4 7f 3f d4 05 7f 3f
       0.9999198 0.99837434 0.9988523 0.9961827
000080 e1 93 80 3f 7e 2d 7f 3f 63 50 80 3f 29 22 81 3f
       1.0045129 0.9967879 1.0024532 1.008855
000090 1c eb 7e 3f ae 25 7e 3f ed 76 7c 3f f7 f7 7e 3f
       0.995775 0.99276245 0.98618966 0.99597114
0000a0 7e a4 7d 3f ce a7 7e 3f 28 a0 80 3f bc 7d 80 3f
       0.9907912 0.994748 1.0048876 1.0038371
0000b0 31 b0 80 3f 9f 36 7d 3f b6 f3 7c 3f 3f e9 80 3f
       1.0053769 0.9891147 0.98809373 1.0071181
0000c0 01 a8 80 3f f7 e0 81 3f b0 87 80 3f 7f df 7e 3f
       1.0051271 1.0146779 1.0041409 0.9955978
0000d0 c8 e2 7c 3f be 94 80 3f 7d 91 81 3f f5 01 80 3f
       0.9878354 1.0045393 1.0122524 1.0000597
0000e0 eb 33 80 3f 46 0d 7e 3f c5 a5 80 3f 7d 0f 80 3f
       1.0015844 0.99239004 1.0050589 1.0004727
0000f0 b7 86 80 3f 0a 71 7d 3f 32 fe 7f 3f f2 c7 7f 3f
       1.0041112 0.9900061 0.99997246 0.9991447

weight_function_network.adaptive_layer.2.bias f4 [64]
000000 94 1e 56 bc e7 70 36 bc 8b cb 4b bc 0b e4 23 3c
       -0.013068814 -0.011135316 -0.012438665 0.0100031
000010 eb ab 51 bc 4a 62 01 bc 19 90 46 bc 36 eb 29 bc
       -0.012797336 -0.007896969 -0.0121193165 -0.01037102
000020 8d 01 68 bc 16 4f fb 3b cd 52 b8 bb d0 b7 9f bc
       -0.014160526 0.00766934 -0.005625105 -0.019496828
000030 9e 88 15 bc 3d a8 d1 bb 0b c4 97 bb ec ef b6 bc
       -0.00912681 -0.0063982294 -0.0046315244 -0.0223312
000040 e2 64 97 3a ac 2b 2c 3c 40 d9 81 bc cb 37 d5 bb
       0.0011550451 0.010508459 -0.015850663 -0.006506895
000050 9c 06 22 3b 1b 6a 87 bc 1f 86 2d bc 94 fe 8b bb
       0.0024723178 -0.016530087 -0.010591059 -0.0042722914
000060 21 72 5a bc b0 e1 cc bc 63 02 23 bc bf c4 b0 bc
       -0.0133328745 -0.02500996 -0.0099492995 -0.02157819
000070 8d 53 63 bc 16 81 c7 bc a0 55 d4 39 73 7f 79 bb
       -0.0138749005 -0.024353545 0.00040499587 -0.003807035
000080 bf 67 41 bb 3c 4e 3e bb c2 e1 9d bc f9 88 44 bc
       -0.00295113 -0.002903833 -0.019272689 -0.011995547
000090 28 e2 a6 bb 41 b9 d3 bc 99 ca c6 bc 46 5a e4 bc
       -0.005092878 -0.025845172 -0.024266528 -0.027875077
0000a0 65 64 c0 bc c0 a1 98 bc a9 ea 4d bc 15 7f 29 bc
       -0.023485372 -0.018631816 -0.012568154 -0.01034524
0000b0 f3 2d 9e bb b6 6e 9a bc 6f 9b 06 3a 5c 24 2f bc
       -0.004827255 -0.01885162 0.0005134856 -0.010689821
0000c0 d4 1f 7a bc 9b 64 c8 3b 21 dc 9f bc 59 54 68 3a
       -0.0152663775 0.0061155087 -0.019514145 0.00088626664
0000d0 3f b6 b1 3b bb f4 90 bb 9c 4a 12 ba 65 6d 04 bc
       0.0054233368 -0.0044237054 -0.00055805757 -0.008082722
0000e0 5c a0 84 bb ed 4a b3 bc 37 24 20 bc 35 a1 1e bc
       -0.0040474366 -0.021886313 -0.009774259 -0.009681989
0000f0 c0 8e ba bc b1 47 95 bc 87 f0 e5 bc a8 77 7d bb
       -0.022773147 -0.018222662 -0.028068794 -0.0038676057

weight_function_network.adaptive_layer.2.running_mean f4 [64]
000000 97 67 77 3e 0b 8f 41 3d c2 5b 28 3e 0b fe 01 bf
       0.2416061 0.047255557 0.16441253 -0.50778264
000010 7b ff 57 3e fe 67 27 3c 55 e5 27 3f 9c d2 5f be
       0.21093552 0.010217665 0.6558431 -0.21857685
000020 d8 45 05 bf b0 11 a5 be 90 e4 52 be 64 e6 6a 3e
       -0.520597 -0.32240057 -0.20595002 0.2293945
000030 41 15 d9 bd 6f 48 b6 be e1 26 ba 3e a9 93 8a 3e
       -0.10599757 -0.35602137 0.36357787 0.2706578
000040 fe 13 88 3e b7 32 c6 be 56 42 40 bb f3 8f ca be
       0.26577753 -0.38710567 -0.0029336414 -0.3956295
000050 7f 97 b2 be 08 8f 6d 3e 5f 62 19 3f 9c 3e ca be
       -0.34881207 0.23199093 0.5991573 -0.39500892
000060 d4 8c 94 3e b6 a3 dd be 74 ca cc be af 11 3e 3e
       0.29013693 -0.43288964 -0.3999821 0.18561433
000070 b3 32 25 3e b4 14 cc bc ac 87 1b bf 97 6a 38 bf
       0.16132621 -0.024912216 -0.60753894 -0.72037643
000080 07 cb ea bd 90 e0 26 be ec e3 6f 3e b7 cf b6 3e
       -0.11464506 -0.16296601 0.23426789 0.3570535
000090 50 92 2f 3d 80 c7 6a bd c1 72 17 3e 2a 61 f6 3e
       0.042864144 -0.057319164 0.14789869 0.48121005
0000a0 75 3a 39 3f 1d 4c 9a be 46 dc 63 3d d0 9b 72 bd
       0.72354823 -0.30136195 0.05562999 -0.059230626
0000b0 72 c6 0e be 9d 55 8c be bd c8 2b bd 68 51 ab 3e
       -0.13942888 -0.27409068 -0.041939486 0.33460546
0000c0 d8 69 b3 3e 75 00 f5 be 82 84 28 bb d4 81 be be
       0.3504169 -0.4785191 -0.0025713746 -0.37208426
0000d0 8e a6 a9 bd 3f 1d 18 3e ec a1 aa be 67 95 10 bf
       -0.08283721 0.14854906 -0.33326662 -0.5647797
0000e0 40 2b 25 be a0 cb a6 3e 63 2b 43 bf de 66 80 be
       -0.1612978 0.3257723 -0.7623808 -0.2507848
0000f0 5b 87 8c be 31 57 6c be ad c1 ef 3e e0 f8 63 3d
       -0.27447018 -0.23080136 0.4682745 0.055657268
