logs/测试preditor网络架构的影响/preditor_network.MLP.layer_number=3preditor_network.MLP.layer_size=[32, 64, 128]/test_model_20250427_114811.pth (torch, 921501 bytes, 80 tensors)

weight_function_network.initial_cnn.0.weight f4 [8, 1, 3, 3]
0.14944124 0.03201463 -0.09833471 -0.33312818 0.2835003 0.07966716 0.21606345 -0.1268686
0.012521614 -0.14282641 0.14289619 0.1718505 0.13742442 0.24604706 -0.1154369 0.12203915
-0.26267648 0.31651032 -0.012011935 -0.15385123 -0.10900638 0.12609935 -0.15174015 0.24754238
-0.22453035 -0.14119636 -0.10050044 -0.16007957 -0.1587816 0.2958322 -0.20921609 -0.2918239
0.17132936 -0.20557748 0.27873358 -0.22326206 -0.2075625 0.071314156 0.28135684 0.28756276
-0.25915197 0.3269058 -0.15409976 -0.2652382 0.21156259 0.26613423 0.31762934 0.29317853
-0.2969413 -0.16856448 -0.32642078 0.31730673 -0.24492513 0.276176 -0.31233403 0.33288527
-0.15105838 0.018911583 -0.11947571 0.11424319 0.16966735 -0.037559584 -0.009336699 0.026853684
0.11779935 -0.10059782 0.0007324561 0.008165219 0.19584613 -0.20895822 -0.19654721 -0.27652055
00000000: 2007 193e c621 033d b563 c9bd c78f aabe
00000010: f426 913e 8928 a33d bd3f 5d3e d8e9 01be
00000020: 7527 4d3c 1641 12be 6153 123e 94f9 2f3e
00000030: fdb8 0c3e c3f3 7b3e 2e6a ecbd a9ef f93d
00000040: 887d 86be a40d a23e b5cd 44bc 2d8b 1dbe
00000050: bd3e dfbd 3020 013e c561 1bbe c07b 7d3e
00000060: 49eb 65be c795 10be 2dd3 cdbd e6eb 23be
00000070: a597 22be 5177 973e be3c 56be f169 95be
00000080: f770 2f3e e782 52be 2bb6 8e3e cf9e 64be
00000090: 448b 54be 280d 923d 010e 903e 6d3b 933e
000000a0: 91af 84be 3260 a73e 54cc 1dbe 4dcd 87be
000000b0: dda3 583e bf42 883e 50a0 a23e 7f1b 963e
000000c0: b108 98be 2b9c 2cbe a020 a7be 0776 a23e
000000d0: a7cd 7abe f166 8d3e 3fea 9fbe f06f aa3e
000000e0: 0caf 1abe 77ec 9a3c aeaf f4bd 55f8 e93d
000000f0: 47bd 2d3e 14d8 19bd f4f8 18bc 42fc db3c
00000100: c940 f13d 3b06 cebd 4c02 403a 69c7 053c
00000110: e38b 483e 25f9 55be ac43 49be 1a94 8dbe

weight_function_network.initial_cnn.0.bias f4 [8]
0.16663124 -0.05270549 0.26386577 -0.17177017 -0.27504787 -0.13989799 -0.15912975 -0.2500175
00000000: 61a1 2a3e b6e1 57bd 6a19 873e 85e4 2fbe
00000010: 13d3 8cbe 6b41 0fbe e9f2 22be 4b02 80be

weight_function_network.initial_cnn.1.weight f4 [8]
0.9936179 0.9936302 0.99206376 1.0011257 1.0011401 0.9900336 1.0230871 0.99877477
00000000: be5d 7e3f 8c5e 7e3f e4f7 7d3f e324 803f
00000010: 5c25 803f d872 7d3f 85f4 823f b4af 7f3f

weight_function_network.initial_cnn.1.bias f4 [8]
-0.00019733123 -0.014553399 -0.0064210054 -0.01452503 0.013877414 -0.006550852 0.0032243496 -0.0027680127
00000000: b3ea 4eb9 6171 6ebc 4c67 d2bb 64fa 6dbc
00000010: 185e 633c 88a8 d6bb 9c4f 533b 8c67 35bb

weight_function_network.initial_cnn.1.running_mean f4 [8]
0.2620589 0.2205618 0.033574957 -0.39488655 -0.1452444 0.05261597 -0.15649268 -0.4421947
00000000: 962c 863e f4da 613e e585 093d 922e cabe
00000010: f3ba 14be d883 573d 9e3f 20be 5867 e2be

weight_function_network.initial_cnn.1.running_var f4 [8]
0.007645888 0.060586546 0.043806594 0.048983034 0.025275454 0.033301864 0.0010861183 0.034590818
00000000: 5b8a fa3b 9929 783d 8b6e 333d 6fa2 483d
00000010: 780e cf3c 8967 083d 155c 8e3a 1aaf 0d3d

weight_function_network.initial_cnn.4.weight f4 [16, 8, 3, 3]
-0.0012692108 0.06791554 -0.11006274 0.053018004 -0.020167671 0.04680956 -0.07727647 0.030570084
-0.08978904 0.034977887 -0.09295992 -0.0407756 -0.07799881 -0.052913148 -0.041041125 0.10716001
-0.0798215 0.101088665 -0.05554486 0.099541575 -0.02215215 0.08435548 -0.09617896 -0.026185865
-0.021414757 -0.00066947436 0.103793964 -0.04346626 -0.08025316 -0.021232113 -0.05040143 -0.0003339761
0.060267877 0.07633929 -0.050430056 -0.078536525 -0.1130624 0.041228265 0.09934283 0.06247805
-0.030393941 -0.09676477 -0.066860795 -0.07397467 -0.011787604 0.035525654 0.039205074 -0.0989203
-0.09261379 0.08200449 0.10516696 -0.020318793 0.07996377 -0.09373172 0.037116017 -0.10579459
-0.07979809 0.039897762 -0.12089363 -0.030039806 -0.10836288 -0.024466865 0.042602014 -0.019738074
-0.0069172736 -0.0012322593 0.10209389 0.01898244 -0.032840952 -0.031464618 -0.086817294 -0.097016536
-0.10438402 0.10353405 -0.073371775 -0.00913206 0.0016286925 0.023272565 0.0330749 0.037802592
0.11465945 0.03397225 0.043344196 -0.091357596 -0.06038695 0.093654536 0.06276166 -0.06696833
0.03396636 -0.05594844 -0.078425564 -0.10897833 0.0014677814 0.0014666787 0.050369702 0.08412535
-0.099071875 -0.11777279 -0.09589388 0.10085733 0.043816082 0.07606942 0.092629604 0.013378679
0.027285289 -0.04024477 -0.11105454 0.013892594 -0.040514123 -0.02229529 -0.07285479 -0.09634275
0.09312069 0.11172102 0.00079334015 0.084598355 -0.07107209 0.09140443 0.009520161 -0.08515024
0.0031760493 -0.10163866 0.06482272 0.0014762053 0.033374336 -0.058302168 -0.055696424 0.106462926
0.030102134 0.010689187 -0.044481665 -0.017221238 -0.104160495 -0.10109069 -0.09606581 -0.11287367
-0.109364666 -0.038011562 -0.10071469 0.080401525 -0.016168738 0.07305261 -0.058460705 -0.03432105
-0.05536281 0.0015255328 0.04218206 -0.10776787 0.08463607 0.073835604 0.043863304 0.037756473
-0.02482222 -0.094936214 -0.110364854 0.12034384 0.058765158 -0.0885028 -0.059934076 0.038836546
0.028160818 -0.109671466 0.11033459 -0.013732609 0.040942848 0.08670471 -0.07397604 -0.0041296813
0.04493547 0.023508266 0.091851145 -0.06508076 -0.06495197 0.034593996 0.014782788 -0.12159974
0.012183404 -0.009845895 -0.06745145 -0.009522119 -0.100459374 0.045945387 0.097320974 -0.0155067695
-0.028862372 0.06315405 0.04799149 0.091365695 -0.076661035 -0.0043364703 -0.102201454 0.10082534
0.019066868 0.026170937 -0.08607695 0.09859162 0.102180034 -0.021200057 0.086269274 -0.00233571
0.022938585 -0.09545232 0.06362628 -0.13742119 0.07343613 0.070915654 0.03073638 0.015885435
0.096255414 0.058991402 -0.033561528 -0.08004236 -0.01712736 -0.02189745 -0.009252374 0.0059877476
0.09153095 0.0632175 0.06266492 -0.002885952 0.013166913 -0.07119389 -0.116055295 0.05287093
0.08955266 -0.0538445 -0.048900068 0.004917066 -0.09963159 0.06692131 0.007086234 -0.03219024
0.096583694 -0.027531875 -0.07175472 0.028604165 0.08375802 0.09260453 -0.04377079 -0.05241904
-0.08269124 0.056840226 0.040412415 0.08900844 -0.034355704 -0.026469424 -0.049513612 0.043192554
0.08886798 -0.04470574 0.07203183 0.02050418 -0.041634344 0.024516255 0.10112275 0.020023111
00000000: a65b a6ba 4d17 8b3d 9368 e1bd 6829 593d
00000010: ac36 a5bc 62bb 3f3d 2043 9ebd 1d6e fa3c
00000020: 51e3 b7bd f944 0f3d c561 bebd 5104 27bd
00000030: d7bd 9fbd 75bb 58bd bd1a 28bd b576 db3d
00000040: 7479 a3bd 9307 cf3d 0283 63bd 74dc cb3d
00000050: 6d78 b5bc 91c2 ac3d 79f9 c4bd bd83 d6bc
00000060: 006e afbc aa7f 2fba ee91 d43d ad09 32bd
00000070: c55b a4bd f8ee adbc bb71 4ebd 8319 afb9
00000080: 73db 763d c657 9c3d bf8f 4ebd c2d7 a0bd
00000090: 428d e7bd f8de 283d 4174 cb3d fce8 7f3d
000000a0: b7fc f8bc 9c2c c6bd 50ee 88bd 0880 97bd
000000b0: cb20 41bc 5983 113d 8095 203d ba96 cabd
000000c0: 4cac bdbd f8f1 a73d c661 d73d 9973 a6bc
000000d0: 0cc4 a33d 6af6 bfbd f706 183d d6aa d8bd
000000e0: 2e6d a3bd d66b 233d 1497 f7bd 0a16 f6bc
000000f0: 5ced ddbd bc6e c8bc 737f 2e3d beb1 a1bc
00000100: 4caa e2bb c383 a1ba 9a16 d13d 1081 9b3c
00000110: 3c84 06bd 0be1 00bd 44cd b1bd 9bb0 c6bd
00000120: 4ac7 d5bd a909 d43d f143 96bd a39e 15bc
00000130: da79 d53a 1ba6 be3c 8c79 073d e4d6 1a3d
00000140: 93d2 ea3d 7c26 0b3d af89 313d b119 bbbd
00000150: 4e58 77bd f3cd bf3d 2f89 803d b126 89bd
00000160: 4f20 0b3d 312a 65bd 959d a0bd 0830 dfbd
00000170: 9262 c03a 923d c03a 7650 4e3d e949 ac3d
00000180: 32e6 cabd dc32 f1bd 0364 c4bd 4a8e ce3d
00000190: 7e78 333d 49ca 9b3d 97b4 bd3d 3f32 5b3c
000001a0: 6685 df3c b3d7 24bd 9070 e3bd c39d 633c
000001b0: 23f2 25bd 9da4 b6bc e434 95bd 594f c5bd
000001c0: 0fb6 be3d fdcd e43d 28f8 4f3a e741 ad3d
000001d0: 3e8e 91bd 3f32 bb3d 73fa 1b3c 4063 aebd
000001e0: 4425 503b ee27 d0bd c6c1 843d 3b7d c13a
000001f0: 87b3 083d 41ce 6ebd ef21 64bd 3c09 da3d
00000200: c098 f63c b321 2f3c 6832 36bd 8e13 8dbc
00000210: 1952 d5bd a308 cfbd 27be c4bd 502a e7bd
00000220: 95fa dfbd 03b2 1bbd 8143 cebd 8ea9 a43d
00000230: 4d74 84bc 9b9c 953d 7e74 6fbd 3b94 0cbd
00000240: 1dc4 62bd 63f4 c73a 19c7 2c3d 67b5 dcbd
00000250: ad55 ad3d 1f37 973d 02aa 333d 88a6 1a3d
00000260: f857 cbbc eb6d c2bd f806 e2bd d576 f63d
00000270: bcb3 703d f540 b5bd 6f7d 75bd 1213 1f3d
00000280: 84b1 e63c 6f9b e0bd 1af7 e13d bdfe 60bc
00000290: b0b3 273d 3d92 b13d c080 97bd 4752 87bb
000002a0: 410e 383d 6894 c03c 741c bc3d 1049 85bd
000002b0: 8a05 85bd 6fb2 0d3d 8233 723c 4909 f9bd
000002c0: e69c 473c ad50 21bc fc23 8abd a902 1cbc
000002d0: a5bd cdbd 3b31 3c3d 3850 c73d 1b10 7ebc
000002e0: c870 ecbc e956 813d ba92 443d f01d bb3d
000002f0: 7600 9dbd f318 8ebb ff4e d1bd 847d ce3d
00000300: 1f32 9c3c 6f64 d63c 1d49 b0bd 67ea c93d
00000310: c443 d13d beab adbc f2ad b03d b612 19bb
00000320: b3e9 bb3c 827c c3bd 7f4e 823d 24b8 0cbe
00000330: af65 963d 3a3c 913d dcca fb3c 2c22 823c
00000340: 8f21 c53d f8a0 713d d077 09bd 40ed a3bd
00000350: ad4e 8cbc 4862 b3bc 4597 17bc de34 c43b
00000360: 9474 bb3d 2d78 813d 7756 803d 3d22 3dbb
00000370: 09ba 573c 1ace 91bd 66ae edbd 308f 583d
00000380: 6367 b73d 0d8c 5cbd 704b 48bd 571f a13b
00000390: a60b ccbd 0a0e 893d a433 e83b ead9 03bd
000003a0: accd c53d 878a e1bc 23f4 92bd 4853 ea3c
000003b0: 5389 ab3d 72a7 bd3d 0049 33bd 59b5 56bd
000003c0: 065a a9bd 4cd1 683d 7d87 253d 0f4a b63d
000003d0: 91b8 0cbd 68d6 d8bc c9ce 4abd adea 303d
000003e0: 6a00 b63d 5e1d 37bd 6d85 933d 62f8 a73c
000003f0: c688 2abd 50d6 c83c 7219 cf3d 8207 a43c

weight_function_network.initial_cnn.4.bias f4 [16]
-0.066265665 0.09356298 -0.033200487 -0.109679095 -0.105582744 0.023164524 0.04351647 0.028668871
-0.019138047 -0.008273234 -0.03323676 -0.013324641 -0.015869137 -0.04180255 -0.07954143 -0.009384062
00000000: 4bb6 87bd f39d bf3d 3cfd 07bd 6f9f e0bd
00000010: c43b d8bd 87c3 bd3c 533e 323d fbda ea3c
00000020: 65c7 9cbc 758c 07bc 4523 08bd 984f 5abc
00000030: feff 81bc 2739 2bbd 9ee6 a2bd 9cbf 19bc

weight_function_network.initial_cnn.5.weight f4 [16]
0.9809192 1.0121279 1.0086174 1.0091902 0.9917214 0.9993847 1.0013322 0.99547863
1.0083619 0.99167603 1.0022278 0.99380577 0.9953732 0.99797827 1.0015514 0.99323636
00000000: 851d 7b3f 688d 813f 601a 813f 252d 813f
00000010: 74e1 7d3f add7 7f3f a72b 803f b0d7 7e3f
00000020: 0112 813f 7bde 7d3f 0049 803f 0e6a 7e3f
00000030: c7d0 7e3f 817b 7f3f d632 803f bd44 7e3f

weight_function_network.initial_cnn.5.bias f4 [16]
-0.013336947 0.002921209 -0.015037634 0.0057233716 -0.013314469 -0.012337766 0.0035717576 -0.007233531
0.0024812606 -0.015619684 -0.007692693 -0.014137304 0.0010643012 -0.013721351 0.00017920768 -0.003747429
00000000: 3683 5abc c171 3f3b 6960 76bc 1f8b bb3b
00000010: ee24 5abc 5724 4abc 2614 6a3b 4207 edbb
00000020: a59c 223b b4e9 7fbc fc12 fcbb 27a0 67bc
00000030: 0680 8b3a 84cf 60bc b2e9 3b39 6d97 75bb

weight_function_network.initial_cnn.5.running_mean f4 [16]
-0.5461266 -0.15536569 0.07209343 -0.1355758 0.0827455 -0.28914604 0.4718228 -0.04407181
0.1477259 -0.111339435 0.27219397 0.16652511 -0.057107754 0.45758134 -0.116387755 -0.55873257
00000000: f4ce 0bbf 2f18 1fbe b8a5 933d 62d4 0abe
00000010: 7976 a93d f30a 94be c292 f13e a484 34bd
00000020: 7545 173e ee05 e4bd 025d 8b3e 8f85 2a3e
00000030: d2e9 69bd 1a48 ea3e b45c eebd 1909 0fbf

weight_function_network.initial_cnn.5.running_var f4 [16]
0.12442452 0.11434287 0.056221273 0.100048274 0.08375448 0.22771204 0.3278852 0.08448724
0.08520668 0.11456246 0.07048218 0.1360889 0.06365857 0.08102879 0.21571334 0.16294831
00000000: 48d2 fe3d 982c ea3d 4748 663d 1ce6 cc3d
00000010: 7887 ab3d 582d 693e 92e0 a73e a507 ad3d
00000020: d780 ae3d b99f ea3d f658 903d e35a 0b3e
00000030: 6d5f 823d 6cf2 a53d f5e3 5c3e ecdb 263e

weight_function_network.initial_cnn.8.weight f4 [32, 16, 3, 3]
-0.050162654 0.029763613 0.0016086634 0.008985071 -0.06635415 -0.02398988 -0.02338637 -0.03993952
0.053559355 0.07366803 0.012512977 -0.052026186 -0.0688656 0.056851916 0.010725962 -0.030477054
-0.08442697 -0.00085570914 -0.010513684 -0.04671234 -0.10090527 0.00085895933 0.050803933 -0.0013700405
0.06811967 -0.04929872 -0.046272498 0.009550985 0.04336599 -0.043469064 -0.06698676 -0.043684084
-0.04345663 -0.069036655 0.067934796 0.016654963 -0.015226785 -0.020281596 -0.08036207 0.07943061
-0.0062056687 -0.031163117 -0.03050612 -0.025281131 -0.029706681 -0.00903236 -0.022674486 0.06136361
-0.038042415 0.01146919 0.00774838 0.086441636 -0.016775249 0.08538471 -0.04480429 -0.027185451
-0.022847665 -0.034809224 0.02758506 0.005829178 0.08089016 0.07288636 -0.022813136 0.010680682
0.014080438 -0.040689565 0.054812614 -0.057654694 -0.06441575 -0.083157174 0.0176366 0.082915924
0.005479238 0.039463613 0.00793788 -0.07102637 0.037491534 0.033602305 -0.009746123 0.06416933
-0.06006811 -0.08370512 -0.0007391237 -0.015985949 -0.04024715 0.060100596 0.00409813 -0.038341705
0.022286622 -0.080370076 -0.03719568 -0.050964314 0.059918277 -0.035965577 -0.026196858 -0.069627956
0.05447308 -0.06580506 -0.016214982 -0.055342197 0.030786067 -0.06809342 -0.08553192 0.055408232
0.05948036 -0.028343093 -0.023601938 0.0075473944 -0.043195147 -0.043307938 -0.056385286 0.07594243
0.052284356 -0.09535739 -0.06479538 -0.036373097 -0.059753764 0.016305605 0.027164401 0.0047738743
0.07789065 0.024973407 -0.053575497 -0.017070998 -0.008349049 -0.08573001 0.037025373 0.073001966
-0.02533376 0.024730425 0.06732366 -0.044168774 0.061356712 0.06661346 -0.07418568 -0.02045503
0.040762946 -0.044970304 -0.024728362 0.062629975 -0.07496341 -0.012513545 0.02748181 0.07214055
0.0017148145 0.057859343 0.07238714 -0.0065721693 -0.036822587 -0.043309513 0.04148384 0.0155523345
0.070882395 0.002439245 0.06509967 0.05721081 0.07131952 0.09799299 -0.046698038 -0.010293462
-0.07610753 -0.046745203 -0.056402385 -0.08572329 0.019117601 0.0032283126 -0.053340912 -0.070785314
-0.039869927 -0.074896075 0.012573766 -0.053073756 -0.057765964 0.011213227 0.017418168 0.07354944
0.032353137 -0.019909289 -0.013781268 0.022519974 0.03061991 0.0871606 0.064117946 0.035069816
0.061363958 -0.016612396 0.029355576 -0.06509168 0.035354637 0.05520054 0.05930414 -0.0032286749
0.024278196 0.02528997 0.05284642 0.041664604 -0.056455098 0.013267234 0.06362941 -0.09976577
-0.06918844 0.07503072 -0.03845361 0.054814257 0.0147298 -0.021935023 -0.07071622 0.01928941
0.028033739 -0.0302973 0.058402132 0.06332029 -0.03923256 0.017182136 -0.004256335 0.08479023
0.044320457 -0.010028171 0.028276078 0.007898419 -0.07736216 0.028364345 -0.02137514 -0.07502746
0.08729809 -0.062144272 0.050583363 -0.08125942 0.0420554 -0.06654132 0.022234837 -0.021868495
-0.08142194 0.022426322 0.029265683 -0.06077364 0.082532346 0.019258618 0.056562327 0.0037321844
-0.069109716 -0.088175446 -0.07151772 -0.023551013 -0.014154129 0.04520363 0.048495952 0.016054342
-0.04699778 0.029005144 0.049334623 -0.031238819 0.06493952 0.013916628 -0.08927905 -0.04332311
00000000: 5b77 4dbd d2d2 f33c c9d9 d23a 1f36 133c
00000010: afe4 87bd 6d86 c4bc c694 bfbc 9f97 23bd
00000020: 0e61 5b3d 44df 963d 3b03 4d3c 6919 55bd
00000030: 6809 8dbd 8edd 683d f2bb 2f3c 04ab f9bc
00000040: 0ce8 acbd ab51 60ba 9641 2cbc 7055 3fbd
00000050: 6ca7 cebd c92b 613a c917 503d ee92 b3ba
00000060: 5382 8b3d 74ed 49bd 3b88 3dbd bc7b 1c3c
00000070: 89a0 313d 9e0c 32bd 5b30 89bd 15ee 32bd
00000080: 94ff 31bd 1763 8dbd 6621 8b3d fd6f 883c
00000090: c479 79bc 9725 a6bc de94 a4bd 84ac a23d
000000a0: ec58 cbbb cb49 ffbc f8e7 f9bc 601a cfbc
000000b0: 6d5b f3bc 77fc 13bc d8bf b9bc 6958 7b3d
000000c0: 5dd2 1bbd 45e9 3b3c 1fe6 fd3b 5008 b13d
000000d0: 3f6c 89bc 2ede ae3d b484 37bd 06b4 debc
000000e0: 072b bbbc 1e94 0ebd 10fa e13c b002 bf3b
000000f0: bda9 a53d 7245 953d 9de2 babc 07fe 2e3c
00000100: a3b1 663c 1aaa 26bd 3183 603d 5427 6cbd
00000110: 68ec 83bd 4f4e aabd a27a 903c d3cf a93d
00000120: 2e8b b33b 99a4 213d e20d 023c 4676 91bd
00000130: b990 193d 92a2 093d 34ae 1fbc 366b 833d
00000140: fa09 76bd 976d abbd c0c1 41ba f7f4 82bc
00000150: 32da 24bd 0b2c 763d 9b49 863b 310c 1dbd
00000160: 6f92 b63c 1199 a4bd 7f5a 18bd f5bf 50bd
00000170: de6c 753d a450 13bd cb9a d6bc 1a99 8ebd
00000180: 2a1f 5f3d cec4 86bd 48d5 84bc 80ae 62bd
00000190: 1033 fc3c 9074 8bbd 5c2b afbd bef3 623d
000001a0: aea1 733d c62f e8bc da58 c1bc 2250 f73b
000001b0: 65ed 30bd aa63 31bd 42f4 66bd b487 9b3d
000001c0: 1f28 563d bc4a c3bd 71b3 84bd f5fb 14bd
000001d0: 5dc0 74bd 5593 853c e187 de3c 296e 9c3b
000001e0: 2285 9f3d 0895 cc3c fb71 5bbd 7ad8 8bbc
000001f0: 73ca 08bc 3793 afbd eba7 173d 0e82 953d
00000200: bf88 cfbc 7697 ca3c fde0 893d 51ea 34bd
00000210: 2d51 7b3d a36c 883d a9ee 97bd 4f91 a7bc
00000220: 0cf7 263d c832 38bd 2293 cabc 2544 803d
00000230: 6b86 99bd 9d05 4dbc 8821 e13c 6dbe 933d
00000240: a0c3 e03a ebfd 6c3d b53f 943d 5a5b d7bb
00000250: 48d3 16bd 5165 31bd f6ea 293d 38cf 7e3c
00000260: ca2a 913d bedb 1f3b fa52 853d e255 6a3d
00000270: f80f 923d 8cb0 c83d 7146 3fbd e9a5 28bc
00000280: 44de 9bbd e677 3fbd 3006 67bd b18f afbd
00000290: 849c 9c3c 1992 533b 007c 5abd e4f7 90bd
000002a0: a64e 23bd 1d63 99bd 3202 4e3c de63 59bd
000002b0: 019c 6cbd afb7 373c 8cb0 8e3c 17a1 963d
000002c0: b984 043d ce18 a3bc d4ca 61bc cf7b b83c
000002d0: 9bd6 fa3c 4281 b23d 4550 833d 5ea5 0f3d
000002e0: c658 7b3d b816 88bc 1b7b f03c c94e 85bd
000002f0: 06d0 103d f619 623d e6e8 723d 2d98 53bb
00000300: 11e3 c63c e92c cf3c 7d75 583d 81a8 2a3d
00000310: 763d 67bd d05e 593c 2350 823d ff51 ccbd
00000320: abb2 8dbd b5a9 993d 8881 1dbd ea84 603d
00000330: 4255 713c 14b1 b3bc aad3 90bd d304 9e3c
00000340: 03a7 e53c 0b32 f8bc 1337 6f3d 11ae 813d
00000350: 52b2 20bd 8dc1 8c3c ba78 8bbb 80a6 ad3d
00000360: 5e89 353d 334d 24bc 3ca3 e73c 5f68 013c
00000370: 0d70 9ebd 585c e83c eb1a afbc ffa7 99bd
00000380: 57c9 b23d fe8a 7ebd 8030 4f3d 576b a6bd
00000390: 4842 2c3d d146 88bd d525 b63c 8f25 b3bc
000003a0: 8cc0 a6bd 68b7 b73c 96be ef3c c8ed 78bd
000003b0: b806 a93d 40c4 9d3c e6ad 673d aa97 743b
000003c0: 6589 8dbd 5495 b4bd e277 92bd 0eee c0bc
000003d0: b8e6 67bc 7127 393d b1a3 463d 6584 833c
000003e0: bf80 40bd 329c ed3c 1a13 4a3d 8de8 ffbc
000003f0: 03ff 843d 9202 643c efd7 b6bd 9373 31bd

weight_function_network.initial_cnn.8.bias f4 [32]
0.06443004 0.083737314 0.07425052 -0.058421075 0.040173925 0.04682681 -0.0056459666 -0.042790215
-0.044844348 0.011931991 0.012975238 0.022062544 -0.0067295465 -0.02658264 0.06813731 0.06480309
0.070887774 0.04780031 -0.004190511 0.056378435 -0.064917274 0.0063079954 -0.049298406 0.06431282
-0.0809452 -0.0026436294 0.018814478 -0.047186743 -0.06676036 0.083005086 0.07244102 0.07579619
00000000: e6f3 833d 787e ab3d a810 983d f04a 6fbd
00000010: 6a8d 243d 78cd 3f3d cd01 b9bb cb44 2fbd
00000020: b5ae 37bd 667e 433c 1896 543c 82bc b43c
00000030: 8783 dcbb d6c3 d9bc 938b 8b3d 7cb7 843d
00000040: 9c2d 913d 42ca 433d 8e50 89bb 13ed 663d
00000050: 59f3 84bd 4db3 ce3b 20ed 49bd 71b6 833d
00000060: 99c6 a5bd be40 2dbb d220 9a3c e346 41bd
00000070: a8b9 88bd 92fe a93d f55b 943d 083b 9b3d

weight_function_network.initial_cnn.9.weight f4 [32]
1.0026019 1.0006249 0.99272394 0.9998892 0.98716325 0.99958134 0.9979463 1.0046308
1.0122013 0.9859501 1.0045296 1.010995 0.9941773 1.0024211 1.0042119 1.0078719
1.0038333 0.9930377 1.0052987 1.0092891 0.9843024 1.0057726 0.99107367 0.99948466
0.9994109 0.9902871 0.97505903 0.99845576 1.0040278 0.9988605 1.013052 1.0010812
00000000: 4255 803f 7a14 803f 2823 7e3f bdf8 7f3f
00000010: bbb6 7c3f 90e4 7f3f 6979 7f3f be97 803f
00000020: d08f 813f 3a67 7c3f 6d94 803f 4968 813f
00000030: 6782 7e3f 564f 803f 048a 803f f201 813f
00000040: 9c7d 803f b837 7e3f a1ad 803f 6330 813f
00000050: 3efb 7b3f 28bd 803f 01b7 7d3f 3ade 7f3f
00000060: 65d9 7f3f 7583 7d3f 789d 793f cc9a 7f3f
00000070: fc83 803f 52b5 7f3f b0ab 813f 6e23 803f

weight_function_network.initial_cnn.9.bias f4 [32]
0.0063290554 -0.0021594404 -0.008963548 -0.012125636 -0.013780417 0.003971387 -0.016561754 0.0023275162
-0.009558119 -0.0072326306 -0.00036812172 0.0182188 0.0024956723 0.0017570216 -0.004736716 0.0016309929
-0.00326751 -0.017234923 -0.009937146 -0.0021248981 -0.009389449 -0.019146556 -0.010987296 0.00645297
-0.010550854 -0.011010194 -0.015541194 -0.004743269 0.006402915 -0.01520731 0.0014026724 -0.0008913029
00000000: f763 cf3b 6685 0dbb d8db 12bc 9baa 46bc
00000010: 42c7 61bc 6922 823b 84ac 87bc 3e89 183b
00000020: a899 1cbc b4ff ecbb 7600 c1b9 983f 953c
00000030: 6f8e 233b dd4b e63a 7436 9bbb 0ac7 d53a
00000040: b923 56bb 4130 8dbc 69cf 22bc e041 0bbb
00000050: 34d6 19bc 3dd9 9cbc 0f04 34bc 7073 d33b
00000060: 7ddd 2cbc 1a64 34bc 7ea0 7ebc 6d6d 9bbb
00000070: 8bcf d13b 1528 79bc e0d9 b73a 53a6 69ba

weight_function_network.initial_cnn.9.running_mean f4 [32]
-0.39323264 0.1497763 0.34313783 0.1646856 -0.35833198 0.35317966 -0.1402881 -0.6138427
-0.03344384 -0.47737667 0.17166974 -0.19452518 -0.63524413 -0.10162551 -0.056162477 -0.09209978
0.26440278 -0.44498664 0.20907496 0.594678 -0.33816275 0.20778401 -0.11679678 -0.0037089323
-0.004168076 -0.50197285 -0.087086834 -0.29477087 0.26109213 0.18737014 0.1556862 0.35371548
00000000: ca55 c9be f55e 193e c3af af3e 58a3 283e
00000010: 4a77 b7be f7d3 b43e afa7 0fbe cc24 1dbf
00000020: 68fc 08bd b76a f4be 31ca 2f3e 9c31 47be
00000030: 5c9f 22bf 0921 d0bd a00a 66bd cf9e bcbd
00000040: cd5f 873e 4ad5 e3be bf17 563e d13c 183f
00000050: ab23 adbe 55c5 543e 2633 efbd 8f11 73bb
00000060: 5b94 88bb 4b81 00bf 955a b2bd 35ec 96be
00000070: dead 853e f5dd 3f3e 346c 1f3e 321a b53e

weight_function_network.initial_cnn.9.running_var f4 [32]
0.22074343 0.093048856 0.16075675 0.15784182 0.15480573 0.07866708 0.20735976 0.2557572
0.118000515 0.16705541 0.26772705 0.071556255 0.32003748 0.14424558 0.10604215 0.13972616
0.14368753 0.26796156 0.16892643 0.16276 0.16824129 0.10282537 0.10007053 0.08169853
0.09957721 0.19828206 0.3824539 0.11014069 0.15273333 0.12217193 0.15898627 0.117683195
00000000: 910a 623e 6690 be3d 6b9d 243e 49a1 213e
00000010: 6585 1e3e 351c a13d 1e56 543e 9cf2 823e
00000020: 41aa f13d 9310 2b3e 8513 893e 168c 923d
00000030: f4db a33e 1db5 133e a02c d93d 6014 0f3e
00000040: d322 133e 4232 893e 0dfb 2c3e 8faa 263e
00000050: 7247 2c3e 1c96 d23d c7f1 cc3d 8f51 a73d
00000060: 23ef cb3d 740a 4b3e ffd0 c33e 7191 e13d
00000070: 2066 1c3e 4735 fa3d 4ccd 223e e303 f13d

weight_function_network.initial_cnn.11.weight f4 [32, 32, 3, 3]
0.058574878 -0.013733972 0.013168263 0.06403714 0.019896068 -0.028812416 -0.0018332232 0.026648454
0.0382914 -0.008183765 -0.054816052 0.01429062 -0.05175281 -0.009361252 0.010532984 0.0030690904
-0.008165389 -0.04968319 0.020640096 -0.048960537 0.02950727 -0.037664764 -0.0149049675 0.012991227
-0.024189562 -0.041424256 -0.029820828 0.035616264 -0.05051191 -0.018259982 0.060398996 -0.039140876
-0.008332245 -0.018041955 0.054715637 -0.00020877502 0.025495028 0.04077843 0.026764894 0.009463422
-0.019825803 0.004466349 -0.010950914 0.04087605 -0.01483822 -0.048330143 0.02677434 0.034845147
-0.0054515717 0.019789914 0.011084449 0.0431777 -0.03584836 0.015713625 -0.032631706 0.03813679
-0.0329733 0.028574798 0.015582328 0.013740775 -0.0070040333 0.06401943 0.013311975 0.0035443248
0.058105532 -0.039685417 -0.0020082665 0.05069084 -0.03537971 -0.06585648 0.0317343 -0.014085607
0.02763803 0.0035401073 -0.0306966 -0.03539084 -0.026541539 -0.002515352 -0.03349613 -0.018845748
-0.007857322 0.054130137 0.043104075 0.0107874945 -0.017621592 0.0005360871 0.045275073 -0.05206039
0.029626777 0.00927488 -0.06758815 0.002399673 0.028411437 -0.009646127 -0.014821401 0.034226865
-0.05693966 -0.038502634 -0.014219796 -0.06498953 -0.0026241571 0.029206209 -0.0647011 0.019368533
0.030989692 -0.052748207 -0.05080146 0.040711574 0.004349392 0.009133449 0.044391185 -0.018049827
-0.047765855 0.018560832 -0.035676364 0.044554748 -0.05964581 0.046514176 -0.015803741 0.047866367
0.05189905 -0.027660832 -0.04587284 -0.048784606 -0.039037324 0.044552922 -0.02000092 0.016393421
-0.0054623075 0.026169097 -0.021542601 0.0030988473 0.0661307 0.02819109 -0.016234862 -0.018766873
-0.052156456 -0.03357819 -0.049944114 -0.009996853 -0.03695506 0.055434573 0.050981753 -0.019674702
-0.03640354 0.034681123 -0.035461392 -0.051711235 -0.039841313 0.0064995596 -0.070848495 0.04423901
-0.00045565257 0.030942999 0.0030932543 0.04221775 0.0056175226 -0.07218476 -0.0449088 -0.016426785
-0.00023756521 0.018788781 0.0282991 -0.024732538 -0.04937313 -0.037764553 -0.055925984 0.015672196
0.016898986 -0.00034519736 0.05040875 -0.061496735 -0.021633295 -0.047785237 0.007927445 -0.04410733
-0.011012279 -0.0429239 0.024344327 -0.061196905 0.0031048695 -0.021544743 -0.046245173 0.01157248
0.0072824424 0.03535032 0.027010802 -0.026105808 -0.004814382 0.027407896 0.05322061 -0.0031270245
-0.061192308 0.05771448 -0.02753436 -0.014668008 -0.05999585 -0.0056853313 0.00025168396 0.06045591
0.021374715 -0.0419245 -0.011901751 0.009832216 -0.016369155 0.07695828 0.028601108 0.00042753847
-0.0397764 0.03390865 -0.056861352 0.036914337 0.04600238 0.02790052 0.016179435 -0.0042768973
-0.034414563 -0.031673077 0.029102484 0.018501457 -0.0101587055 -0.05467932 0.012398659 -0.052775044
0.0071188062 -0.005719215 -0.005170034 -0.033118255 0.010331506 -0.03713901 -0.0045812484 0.03433765
-0.0010508929 0.028650885 -0.012515704 0.035522174 -0.009134159 0.051436536 0.04169364 -0.028468339
-0.027561497 -0.04850611 0.020325128 0.0071646157 0.04350686 0.04325539 0.018541377 0.052069176
-0.03351355 0.07284153 0.018738013 0.037208658 -0.02927801 0.035886187 -0.0035243174 -0.059268348
00000000: 36ec 6f3d 7404 61bc b3bf 573c e725 833d
00000010: 14fd a23c 0408 ecbc c348 f0ba dc4d da3c
00000020: 71d7 1c3d 3315 06bc cc86 60bd 3423 6a3c
00000030: c1fa 53bd f05f 19bc 8992 2c3c cb22 493b
00000040: 20c8 05bc 9a80 4bbd 6b15 a93c d88a 48bd
00000050: 3bb9 f13c 5e46 1abd f733 74bc 28d9 543c
00000060: 3029 c6bc 7bac 29bd cf4a f4bc 5ce2 113d
00000070: 94e5 4ebd f595 95bc f064 773d 2f52 20bd
00000080: f883 08bc b9cc 93bc 811d 603d 9eea 5ab9
00000090: f3da d03c 4807 273d 0d42 db3c 780c 1b3c
000000a0: b969 a2bc 735a 923b 766b 33bc a56d 273d
000000b0: 011c 73bc d4f5 45bd dc55 db3c c9b9 0e3d
000000c0: 19a3 b2bb 751e a23c 8c9b 353c 1adb 303d
000000d0: bbd5 12bd dcb9 803c d3a8 05bd 5335 1c3d
000000e0: 030f 07bd b215 ea3c 054d 7f3c fd20 613c
000000f0: 1782 e5bb 9e1c 833d 781a 5a3c e747 683b
00000100: 1100 6e3d 2d8d 22bd 1f9d 03bb 33a1 4f3d
00000110: 51ea 10bd c3df 86bd d3fb 013d 51c7 66bc
00000120: 2669 e23c 2501 683b 7077 fbbc fcf5 10bd
00000130: a46d d9bc 9bd8 24bb 3d33 09bd 6662 9abc
00000140: ffbb 00bc 90b7 5d3d e68d 303d 08be 303c
00000150: 285b 90bc 3288 0c3a 5b72 393d 473d 55bd
00000160: dbb3 f23c abf5 173c a86b 8abd d543 1d3b
00000170: 1abf e83c ca0a 1ebc 76d5 72bc 7831 0c3d
00000180: 9039 69bd f0b4 1dbd 26fa 68bc 3b19 85bd
00000190: 0dfa 2bbb dc41 ef3c 0382 84bd c2aa 9e3c
000001a0: 18de fd3c 810e 58bd 3115 50bd 2ec1 263d
000001b0: 5885 8e3b 76a4 153c 88d3 353d 3bdd 93bc
000001c0: 21a6 43bd e30c 983c 6121 12bd 0a7f 363d
000001d0: 2a4f 74bd a685 3e3d d976 81bc 860f 443d
000001e0: 1994 543d f898 e2bc 29e5 3bbd 5ed2 47bd
000001f0: 9ae5 1fbd 207d 363d f8d8 a3bc 7f4b 863c
00000200: 28fd b2bb 9360 d63c 1c7a b0bc 0816 4b3b
00000210: 886f 873d 00f1 e63c f9fe 84bc fcbc 99bc
00000220: 02a2 55bd 4989 09bd 3392 4cbd d7c9 23bc
00000230: 305e 17bd 5d0f 633d 3ed2 503d d72c a1bc
00000240: e11b 15bd cb0d 0e3d f73f 11bd 29cf 53bd
00000250: a530 23bd 42fa d43b 0419 91bd f733 353d
00000260: a7e4 eeb9 2c7c fd3c 32b8 4a3b 85ec 2c3d
00000270: 3213 b83b 9ad5 93bd 4af2 37bd 7791 86bc
00000280: ed1a 79b9 eeea 993c 84d3 e73c e49b cabc
00000290: 7b3b 4abd 01af 1abd a512 65bd fa62 803c
000002a0: be6f 8a3c 9bfb b4b9 6879 4e3d 00e4 7bbd
000002b0: 4f38 b1bc 74ba 43bd 1de2 013c e3a9 34bd
000002c0: d96c 34bc f9d0 2fbd c16d c73c 9ba9 7abd
000002d0: 117b 4b3b 9a7e b0bc 946b 3dbd 809a 3d3c
000002e0: 8ea1 ee3b 7fcb 103d c245 dd3c d9db d5bc
000002f0: f7c1 9dbb 8686 e03c dbfd 593d c4ee 4cbb
00000300: c9a4 7abd 0566 6c3d bd8f e1bc 1652 70bc
00000310: 35be 75bd 044c babb 73f4 8339 9ea0 773d
00000320: 071a af3c 06b9 2bbd 90ff 42bc 4e17 213c
00000330: 9b18 86bc 4d9c 9d3d df4c ea3c 3e27 e039
00000340: 94ec 22bd cce3 0a3d 73e7 68bd 7d33 173d
00000350: fe6c 3c3d a28f e43c bc8a 843c 3725 8cbb
00000360: 49f6 0cbd a1bb 01bd 5568 ee3c 5e90 973c
00000370: b370 26bc 6cf7 5fbd bf23 4b3c a52a 58bd
00000380: e044 e93b 4168 bbbb 6369 a9bb 02a7 07bd
00000390: 7a45 293c 131f 18bd 4c1e 96bb a3a5 0c3d
000003a0: 1dbe 89ba 43b5 ea3c ab0e 4dbc b37f 113d
000003b0: 71a7 15bc 1eaf 523d f3c6 2a3d 6f36 e9bc
000003c0: a6c8 e1bc 58ae 46bd e280 a63c 27c5 ea3b
000003d0: 4034 323d 902c 313d 16e4 973c 7d46 553d
000003e0: 8145 09bd f12d 953d 7680 993c 1b68 183d
000003f0: 70d8 efbc 65fd 123d 3cf8 66bb 5ec3 72bd

weight_function_network.initial_cnn.11.bias f4 [32]
-0.046465047 -0.05762991 -0.015391514 0.005373594 0.014326334 -0.006920522 0.016426213 -0.0015732674
0.026790924 -0.0031385375 0.036322076 -0.048849776 -0.021875663 0.01208658 -0.009396676 -0.05027767
-0.045728877 -0.017567905 0.010888156 0.031492896 0.040287446 -0.04352237 -0.008075188 0.015478408
-0.02764831 -0.042231526 -0.038363528 0.01341298 -0.016953882 0.040507924 0.0496603 -0.007787657
00000000: 2252 3ebd 570d 6cbd b02c 7cbc f914 b03b
00000010: 00b9 6a3c 8cc5 e2bb 4490 863c 1836 ceba
00000020: a478 db3c ecaf 4dbb 75c6 143d b416 48bd
00000030: 9734 b3bc ca06 463c 84f4 19bc f5ef 4dbd
00000040: 344e 3bbd 91ea 8fbc 3c64 323c b2fe 003d
00000050: 7304 253d 8344 32bd cb4d 04bc 2699 7d3c
00000060: b57e e2bc f7fa 2cbd 1323 1dbd 1ec2 5b3c
00000070: dee2 8abc a3eb 253d 9968 4b3d 9a2f ffbb

weight_function_network.initial_cnn.12.weight f4 [32]
1.0072263 1.0113627 0.98903596 1.007478 1.0059428 1.0001562 1.0059359 0.9857402
1.0068953 0.99625057 1.0082605 0.99336 0.9911247 1.0059779 0.987939 0.99520665
0.9949585 0.9902758 0.99865204 1.0129963 0.9987423 1.0002261 0.9938692 1.0070322
0.9990567 0.99380547 1.0041255 0.9993728 0.99725074 1.0024639 0.99267834 1.0050908
00000000: cbec 803f 5574 813f 7631 7d3f 0af5 803f
00000010: bcc2 803f 1e05 803f 82c2 803f 7859 7c3f
00000020: f2e1 803f 470a 7f3f ae0e 813f d74c 7e3f
00000030: 59ba 7d3f e2c3 803f 92e9 7c3f ddc5 7e3f
00000040: 9ab5 7e3f b782 7d3f a9a7 7f3f dda9 813f
00000050: 93ad 7f3f 6907 803f 366e 7e3f 6ee6 803f
00000060: 2ec2 7f3f 096a 7e3f 2f87 803f e5d6 7f3f
00000070: d34b 7f3f bd50 803f 2b20 7e3f d1a6 803f

weight_function_network.initial_cnn.12.bias f4 [32]
-0.003386305 0.0050181337 -0.010581693 -0.004554656 0.0052577956 -0.005385145 0.00557376 -0.00630836
-0.008198274 -0.004981133 -0.016654344 0.003973083 -0.021338431 -0.0037415468 -0.014022107 -0.013385727
-0.0029257261 -0.016563648 -0.015744928 0.015987577 -0.0024949363 0.0087496955 0.0067489883 -0.0009358467
-0.005585036 -0.022790855 0.007697529 -0.001785417 -0.006306682 0.005492003 -0.00883875 0.007916616
00000000: c5ec 5dbb 286f a43b d65e 2dbc 393f 95bb
00000010: 9649 ac3b df75 b0bb 16a4 b63b 5cb6 cebb
00000020: 0e52 06bc c638 a3bb b16e 88bc a330 823b
00000030: efcd aebc bd34 75bb fbbc 65bc cf4f 5bbc
00000040: 8abd 3fbb 7db0 87bc 82fb 80bc 61f8 823c
00000050: 1682 23bb e25a 0f3c 9e26 dd3b 9c53 75ba
00000060: ad02 b7bb e3b3 babc 8e3b fc3b a704 eaba
00000070: 48a8 cebb 43f6 b33b 68d0 10bc b2b4 013c

weight_function_network.initial_cnn.12.running_mean f4 [32]
-0.30885816 -0.3158956 -0.028993236 0.2180914 0.11768502 -0.14111678 -0.09716588 0.04869254
0.28128612 -0.10740915 -0.17632304 -0.12664308 -0.06419202 0.24399018 -0.034040038 -0.110423826
0.02473174 -0.054386236 -0.10131531 0.26355356 0.20230561 -0.38775158 -0.00083617104 -0.22903426
-0.11040081 0.294074 -0.07021347 -0.175516 0.19172946 0.4256857 0.033906627 -0.22989479
00000000: a822 9ebe 11bd a1be 3983 edbc 5a53 5f3e
00000010: d804 f13d eb80 10be e8fe c6bd d471 473d
00000020: bc04 903e 54f9 dbbd 078e 34be b9ae 01be
00000030: 1b77 83bd 90d8 793e 916d 0bbd e325 e2bd
00000040: 389a ca3c 1ac4 5ebd 677e cfbd 7ef0 863e
00000050: 3429 4f3e 6087 c6be 7d32 5bba f587 6abe
00000060: d219 e2bd de90 963e 14cc 8fbd 77ba 33be
00000070: ba54 443e 7af3 d93e ade1 0a3d 8a69 6bbe

weight_function_network.initial_cnn.12.running_var f4 [32]
0.13623081 0.10418473 0.13627002 0.08258001 0.098462045 0.15717587 0.08681131 0.14121363
0.09408181 0.13602895 0.08468815 0.10891137 0.09605796 0.12981464 0.13822487 0.124678105
0.13105386 0.10956927 0.11248052 0.09241118 0.10505216 0.12499949 0.09328222 0.12218208
0.09669228 0.10887448 0.08734948 0.07988 0.14872569 0.1276277 0.12285639 0.09310414
00000000: 1780 0b3e ce5e d53d 5e8a 0b3e b51f a93d
00000010: 78a6 c93d b6f2 203e 21ca b13d 4e9a 103e
00000020: f7ad c03d 2c4b 0b3e fb70 ad3d ed0c df3d
00000030: 09ba c43d 21ee 043e d28a 0d3e 3c57 ff3d
00000040: fc32 063e da65 e03d 305c e63d 1342 bd3d
00000050: 9625 d73d bcff ff3d c00a bf3d 993a fa3d
00000060: 9a06 c63d 95f9 de3d 49e4 b23d 2098 a33d
00000070: 8c4b 183e d6b0 023e 229c fb3d 62ad be3d

weight_function_network.adaptive_layer.1.weight f4 [64, 32, 3, 3]
-0.042895813 0.016063273 0.05141758 -0.05652894 0.032972462 0.0267132 -0.0100468155 0.046527468
0.04500309 -0.028912766 -0.031592768 0.0374768 0.024193006 0.030034853 0.017197255 0.027475027
0.016055072 -0.0046808487 -0.046077605 0.00883566 -0.023731545 -0.026402107 0.005973116 0.046966318
0.021839097 -0.02496092 -0.023878561 0.041858267 0.03337935 0.059580337 0.0013628011 -0.006522057
-0.029483348 0.06784466 -0.004278584 0.03630795 0.017691214 -0.020799935 -0.006052307 -0.00783041
-0.039383948 0.008532272 -0.04025955 -0.0040326975 0.058374837 0.038912192 -0.023313353 0.016898142
0.026234377 0.038864315 -0.0035339706 -0.01885636 -0.03356509 0.056240756 0.064256184 0.028809581
-0.01754121 -0.0226524 0.04048271 0.058756657 0.0024043655 -0.0097765 0.026096728 0.024202988
-0.039139647 0.009350313 -0.003989061 -0.05836362 -0.055720143 -0.034664482 -0.018285258 -0.0036229445
0.029907282 0.022131335 0.032323394 0.013143649 -0.033844776 0.059218105 -0.0040226458 -0.03664647
0.06101016 -0.041396648 -0.033667337 -0.062966004 0.045795336 0.015105368 0.04773497 -0.064607725
0.006415464 -0.032947812 -0.0021671338 0.030295592 0.020749813 -0.016749002 -0.006089324 0.0268863
0.023667065 -0.020310974 0.054080896 0.013842556 0.04431025 -0.051888634 -0.024599249 0.041118193
0.047815003 -0.019415224 -0.044905752 -0.039766412 -0.03460767 0.030760387 -0.033896293 -0.010400608
-0.021610888 -0.04379275 -0.044623166 -0.012396452 0.020519074 0.0032200022 -0.030922761 -0.024054743
0.012111299 -0.013154675 -0.00224286 -0.040363222 0.044337768 0.013398197 0.0066403695 0.041907255
-0.009578835 -0.028464532 0.03528722 0.04917156 0.010335726 -0.04151025 -0.057534423 0.007890137
0.030469052 0.050510384 -0.032482266 0.011871816 0.007500683 0.007952505 -0.035524406 -0.03508148
-0.05067135 -0.057487633 0.02955424 -0.023594646 -0.03548526 0.02781599 0.036405135 0.004322506
0.021624133 0.03739561 0.0012118494 0.009820639 -0.02215699 -0.051247165 -0.05395902 0.038879924
0.0017339779 -0.016409896 -0.04917966 0.0086694 0.050205592 0.019218747 -0.054754134 0.044894118
-0.05758051 -0.04971017 0.05331181 -0.018633144 0.029810103 -0.0066629443 -0.00050624483 0.052908298
0.024617974 0.0197366 0.029588647 0.0034435214 0.018696863 0.022867741 -0.040374637 -0.04643942
0.062343653 0.02637287 0.036543738 0.019051222 -0.006713907 0.024787001 0.05496804 -0.011906398
0.029629901 -0.0072168247 0.016701946 0.05157441 0.00057901716 -0.036593698 0.006745124 0.03706825
-0.050343614 0.026584588 0.016553866 -0.023212116 0.061744254 -0.033382125 0.054453142 -0.037481382
0.033123516 -0.014551853 -0.046165783 -0.042292032 0.044891067 -0.024781909 -0.0070446744 0.024438174
0.051848337 0.0077441465 0.015397793 0.015023979 0.017730197 0.042927284 -0.06538364 0.03769484
-0.058409657 -0.0020705678 0.013507962 -0.034678016 0.002132923 0.008423902 -0.02479745 0.04318679
-0.051258374 -0.03508601 -0.017124306 0.004476189 0.0005249198 -0.03827877 -0.03085038 0.010218253
0.038491264 -0.051472906 0.020800656 -0.06005965 -0.025839742 -0.06283449 -0.05309316 -0.045249145
0.00528273 0.00985848 -0.00033443852 -0.03250929 0.004268358 0.014923486 -0.05809433 0.041251794
00000000: 85b3 2fbd 2097 833c 3e9b 523d e48a 67bd
00000010: 220e 073d a4d5 da3c 669b 24bc 9693 3e3d
00000020: 2955 383d 77da ecbc 6b67 01bd 4681 193d
00000030: 6930 c63c a70b f63c 42e1 8c3c 4f13 e13c
00000040: ed85 833c ce61 99bb dfbb 3cbd 72c3 103c
00000050: a868 c2bc 3b49 d8bc 21ba c33b c15f 403d
00000060: e8e7 b23c d87a ccbc f99c c3bc 9373 2b3d
00000070: c9b8 083d 830a 743d 04a0 b23a fbb6 d5bb
00000080: 1087 f1bc 24f2 8a3d 5d33 8cbb a5b7 143d
00000090: 2aed 903c a064 aabc 6e52 c6bb 1f4b 00bc
000000a0: 1051 21bd f1ca 0b3c 33e7 24bd b824 84bb
000000b0: 741a 6f3d 6462 1f3d a5fb bebc f96d 8a3c
000000c0: 7ae9 d63c 3030 1f3d 309a 67bb a778 9abc
000000d0: 8c7b 09bd b55c 663d bf98 833d 1202 ec3c
000000e0: 95b2 8fbc 8791 b9bc 33d1 253d d2aa 703d
000000f0: 8f92 1d3b 9d2d 20bc cec8 d53c 5845 c63c
00000100: e550 20bd 0e32 193c abb6 82bb b10e 6fbd
00000110: ce3a 64bd 58fc 0dbd f7ca 95bc ec6e 6dbb
00000120: 1e00 f53c c64c b53c 8965 043d 7658 573c
00000130: d2a0 0abd af8e 723d 66d0 83bb 9c1a 16bd
00000140: cae5 793d 888f 29bd c3e6 09bd 52f4 80bd
00000150: e493 3b3d 817c 773c be85 433d 0e51 84bd
00000160: d038 d23b 49f4 06bd 7906 0ebb 762e f83c
00000170: 83fb a93c 3435 89bc f488 c7bb a840 dc3c
00000180: 6fe1 c13c 3363 a6bc ee83 5d3d e3cb 623c
00000190: aa7e 353d 2d89 54bd 5d84 c9bc 8d6b 283d
000001a0: aad9 433d ad0c 9fbc 18ef 37bd 1be2 22bd
000001b0: c6c0 0dbd 35fd fb3c d7d6 0abd 5067 2abc
000001c0: 5109 b1bc 0760 33bd c8c6 36bd 7d1a 4bbc
000001d0: 9e17 a83c ac06 533b bb51 fdbc 740e c5bc
000001e0: 786e 463c b586 57bc f2fc 12bb e853 25bd
000001f0: 859b 353d 1c84 5b3c 7597 d93b f1a6 2b3d
00000200: 8cf0 1cbc 732e e9bc 5589 103d 1e68 493d
00000210: 2d57 293c a706 2abd 37a9 6bbd a245 013c
00000220: 3c9a f93c fae3 4e3d 200c 05bd 0182 423c
00000230: 4ac8 f53b 394b 023c 0a82 11bd 99b1 0fbd
00000240: c38c 4fbd 2778 6bbd bc1b f23c 8f49 c1bc
00000250: fe58 11bd 5cde e33c 8d1d 153d cfa3 8d3b
00000260: 1825 b13c 242c 193d ebd6 9e3a bfe6 203c
00000270: 9382 b5bc 8ce8 51bd 2204 5dbd 8e40 1f3d
00000280: a546 e33a 0c6e 86bc 9c70 49bd 190a 0e3c
00000290: 61a4 4d3d a270 9d3c df45 60bd e5e2 373d
000002a0: 8ad9 6bbd e49c 4bbd 7c5d 5a3d 89a4 98bc
000002b0: 5134 f43c d454 dabb 84b5 04ba 5fb6 583d
000002c0: a2ab c93c a6ae a13c e463 f23c b4ac 613b
000002d0: 2a2a 993c 2155 bb3c e05f 25bd 4337 3ebd
000002e0: 0f5c 7f3d eb0b d83c e3ae 153d 4f11 9c3c
000002f0: 5500 dcbb 1c0e cb3c 2b26 613d 0e13 43bc
00000300: 68ba f23c 1d7b ecbb 85d2 883c b03f 533d
00000310: 2fc9 173a 46e3 15bd 3306 dd3b e1d4 173d
00000320: 1b35 4ebd ecc7 d93c f99b 873c 5627 bebc
00000330: 8be7 7c3d b2bb 08bd 420a 5f3d 1486 19bd
00000340: 86ac 073d e56a 6ebc 5518 3dbd 693a 2dbd
00000350: b2df 373d 6e03 cbbc 03d7 e6bb 9132 c83c
00000360: ec5e 543d 9cc2 fd3b 0647 7c3c 2327 763c
00000370: eb3e 913c 85d4 2f3d dce7 85bd e865 1a3d
00000380: f73e 6fbd 5db2 07bb 8050 5d3c 890a 0ebd
00000390: 83c8 0b3b 6804 0a3c 0624 cbbc a2e4 303d
000003a0: 4df4 51bd 59b6 0fbd 4648 8cbc ffac 923b
000003b0: c59a 093a 33ca 1cbd f0b9 fcbc 766a 273c
000003c0: 04a9 1d3d 41d5 52bd 2366 aa3c 1c01 76bd
000003d0: dead d3bc 5eaf 80bd 3778 59bd 2b57 39bd
000003e0: c01a ad3b 7685 213c 9457 afb9 7628 05bd
000003f0: 95dd 8b3b a381 743c 52f4 6dbd a4f7 283d

weight_function_network.adaptive_layer.1.bias f4 [64]
0.017785402 -0.020204818 -0.05151426 0.01757425 0.05614056 0.022607854 -0.05395672 -0.019030878
-0.004777721 -0.035252474 -0.02890256 0.00769731 -0.053598944 -0.031391267 0.007956585 -0.019270174
-0.02684566 -0.016238255 -0.030513719 0.006255136 0.00075450167 0.022146445 0.05110857 0.053359374
0.028416965 -0.030103635 0.037743933 -0.053437203 -0.03814046 -0.001510014 0.036278445 -0.009582018
0.008322912 0.019024037 0.024629131 -0.05219144 -0.026462141 -0.014471875 -0.009685165 0.05533925
-0.051013354 0.03894615 0.038123127 -0.011770054 0.027326617 -0.0105847735 0.037982844 -0.044511035
0.043045104 0.026046123 -0.03486141 -0.028760035 -0.0033806358 -0.022421058 0.057402086 -0.0023564585
0.058845043 0.041724242 -0.04227029 -0.032532927 -0.014487853 0.016388018 -0.050457645 -0.057559468
00000000: b1b2 913c 9384 a5bc 9e00 53bd e0f7 8f3c
00000010: a5f3 653d 1b34 b93c b901 5dbd a5e6 9bbc
00000020: 6e8e 9cbb e664 10bd 10c5 ecbc b739 fc3b
00000030: 918a 5bbd 2194 00bd 565c 023c 7cdc 9dbc
00000040: 6eeb dbbc 1706 85bc e8f7 f9bc e2f7 cc3b
00000050: c0c9 453a 766c b53c 3857 513d 5c8f 5a3d
00000060: b2ca e83c e69b f6bc 6299 1a3d f8e0 5abd
00000070: 2c39 1cbd a9eb c5ba b598 143d e5fd 1cbc
00000080: d35c 083c 4cd8 9b3c 08c3 c93c b1c6 55bd
00000090: 22c7 d8bc 711b 6dbc 87ae 1ebc 69ab 623d
000000a0: 61f3 50bd 0086 1f3d ff26 1c3d 2fd7 40bc
000000b0: 12dc df3c c26b 2dbc e693 1b3d 3451 36bd
000000c0: 1050 303d ae5e d53c d6ca 0ebd 2a9a ebbc
000000d0: a88d 5dbb 5eac b7bc 731e 6b3d d06e 1abb
000000e0: 8007 713d 0ae7 2a3d 9d23 2dbd 3f41 05bd
000000f0: 765e 6dbc 2a40 863c adac 4ebd 7ac3 6bbd

weight_function_network.adaptive_layer.2.weight f4 [64]
1.0030797 1.0073885 1.000704 0.9930654 1.000568 0.9902592 0.9886731 1.008826
1.0044065 1.0106926 0.996937 0.9923729 1.0029348 0.99011505 0.989594 0.99304336
0.99834895 1.003339 1.0000032 0.98336005 1.0143944 0.98665327 1.0021001 0.99729896
0.9900147 0.9866875 1.0007019 1.0061839 1.0027962 1.0097497 0.99829644 1.0062227
0.9932875 1.0060487 1.0061296 0.9899816 1.0095251 0.97512394 0.98585105 1.0045048
0.9824421 0.9944645 0.99659544 1.0070343 0.99110615 0.99940073 0.99701786 1.0013448
0.9918691 1.0050371 0.9911618 0.99079233 1.0148505 1.0025995 0.9934674 0.99894565
1.0105052 1.0048755 0.99788284 0.99776465 0.99516666 1.0077292 1.0062057 0.98226064
00000000: ea64 803f 1bf2 803f 1217 803f 8939 7e3f
00000010: 9d12 803f a081 7d3f ae19 7d3f 3621 813f
00000020: 6490 803f 605e 813f 4337 7f3f 260c 7e3f
00000030: 2b60 803f 2e78 7d3f 0856 7d3f 1738 7e3f
00000040: cc93 7f3f 6a6d 803f 1b00 803f 7cbd 7b3f
00000050: add7 813f 4f95 7c3f d144 803f fc4e 7f3f
00000060: 9a71 7d3f 8d97 7c3f 0017 803f a2ca 803f
00000070: a05b 803f 7a3f 813f 5b90 7f3f e8cb 803f
00000080: 1748 7e3f 34c6 803f dbc8 803f 6f6f 7d3f
00000090: 1e38 813f b9a1 793f bc60 7c3f 9d93 803f
000000a0: 5381 7b3f 3a95 7e3f e120 7f3f 80e6 803f
000000b0: 22b9 7d3f bad8 7f3f 903c 7f3f 112c 803f
000000c0: 22eb 7d3f 0ea5 803f c8bc 7d3f 91a4 7d3f
000000d0: 9fe6 813f 2e55 803f e153 7e3f e7ba 7f3f
000000e0: 3c58 813f c39f 803f 4075 7f3f 816d 7f3f
000000f0: 3ec3 7e3f 45fd 803f 59cb 803f 6f75 7b3f

weight_function_network.adaptive_layer.2.bias f4 [64]
-0.0029069427 -0.01565056 -0.0032493372 -0.023398532 -0.014557044 -0.0035144878 -0.01002068 2.3921823e-06
-0.0102675725 0.0073519708 -0.011108282 -0.00566493 0.0013714454 -0.011440409 -0.0030848517 -0.010203261
-0.008187021 -0.005300393 -0.0020688155 -0.014952776 0.0076168124 -0.01276022 -0.003330151 0.0020014
-0.030510968 -0.0061345887 -0.007596039 -0.005850873 -0.015442522 -0.016087802 -0.024788372 0.0058315387
-0.013414513 -0.0043369853 0.0021329825 -0.0046987426 -0.0067391805 -0.019743755 -0.012574616 -0.0025720024
-0.019442838 -0.009309497 -0.0028698323 -0.008411421 -0.010009268 -0.010897249 0.004247582 -0.0044645714
3.407225e-05 -0.00020666693 -0.010808326 0.0029163128 0.0023504724 -0.0006342413 -0.02157366 -0.010425826
-0.014687768 -0.006780576 -0.012872425 0.007406897 -0.00026665497 0.006133933 -0.013336097 -0.021984963
00000000: 6882 3ebb 9a35 80bc d5f2 54bb 47ae bfbc
00000010: ab80 6ebc 5253 66bb c72d 24bc 6189 2036
00000020: 5239 28bc cde8 f03b 83ff 35bc e1a0 b9bb
00000030: 12c2 b33a 8e70 3bbc 392b 4abb 942b 27bc
00000040: db22 06bc ebae adbb f794 07bb 7dfc 74bc
00000050: 7496 f93b 3e10 51bc aa3e 5abb ec29 033b
00000060: 23f2 f9bc a904 c9bb 32e8 f8bb aeb8 bfbb
00000070: a202 7dbc 91ca 83bc fc10 cbbc 7e16 bf3b
00000080: 8cc8 5bbc 451d 8ebb 82c9 0b3b e9f7 99bb
00000090: 58d4 dcbb a8bd a1bc c305 4ebc 0a8f 28bb
000000a0: 9646 9fbc dc86 18bc cc13 3cbb 0fd0 09bc
000000b0: eafd 23bc 608a 32bc 4d2f 8b3b 8a4b 92bb
000000c0: cde8 0e38 bbb4 58b9 6815 31bc 9c1f 3f3b
000000d0: 620a 1a3b 3743 26ba 3fbb b0bc 15d1 2abc
000000e0: f7a4 70bc 982f debb dde6 52bc 8eb5 f23b
000000f0: d3cd 8bb9 29ff c83b a57f 5abc cf19 b4bc

weight_function_network.adaptive_layer.2.running_mean f4 [64]
0.26664117 0.10615056 0.3169778 -0.023763958 0.58382773 0.5245723 -0.34131837 -0.50372475
0.2883271 0.27188882 -0.27881202 -0.16302392 -0.19230199 -0.17398487 0.13433707 -0.35764834
-0.10325392 -0.0841193 -0.4226602 -0.29568142 0.109520026 -0.46004564 -0.007371689 0.25957757
0.48344925 0.16238841 0.45118576 -0.3805632 -0.08474216 -0.3864626 -0.09084165 0.1972747
-0.17892708 -0.07054182 -0.3538238 -0.07780699 0.8012591 0.40308058 0.17326443 0.42196238
-0.23616944 -0.016665753 0.22963348 0.0726604 -0.061643332 -0.09676564 0.024398463 -0.35113972
0.5041028 -0.1023164 -0.31889564 -0.19220334 -0.3399134 0.3489893 0.5309371 -0.0076969974
-0.45144895 -0.052992325 -0.2892706 -0.12961827 -0.37962174 -0.13605946 0.45230997 -0.28940293
00000000: 3185 883e 7765 d93d ea4a a23e a2ac c2bc
00000010: bc75 153f 5f4a 063f 48c1 aebe 1bf4 00bf
00000020: 9c9f 933e 0335 8b3e 73c0 8ebe beef 26be
00000030: d0ea 44be 1729 32be a88f 093e af1d b7be
00000040: cb76 d3bd bd46 acbd eb66 d8be 8e63 97be
00000050: 094c e03d 1a8b ebbe 368e f1bb 5ae7 843e
00000060: a986 f73e 2649 263e d201 e73e 2ed9 c2be
00000070: 4c8d adbd 6dde c5be 300b babd 6102 4a3e
00000080: a938 37be 3b78 90bd 6528 b5be 4559 9fbd
00000090: 511f 4d3f 9460 ce3e 3b6c 313e 740b d83e
000000a0: 67d6 71be 9e86 88bc 0a25 6b3e face 943d
000000b0: b87d 7cbd 102d c6bd 49df c73c 96c8 b3be
000000c0: e20c 013f 438b d1bd 4a46 a3be f4d0 44be
000000d0: 2109 aebe baae b23e 7eeb 073f 1837 fcbb
000000e0: 5124 e7be 7b0e 59bd 471b 94be a7ba 04be
000000f0: c85d c2be 2c53 0bbe 2c95 e73e 9f2c 94be

weight_function_network.adaptive_layer.2.running_var f4 [64]
0.20137574 0.15985134 0.21970618 0.16286363 0.15289159 0.22072972 0.21166888 0.26618314
0.14426813 0.19170798 0.16068079 0.21476819 0.13849352 0.13963312 0.11749772 0.2938318
0.16402265 0.14962971 0.23510268 0.13890561 0.17945237 0.1962816 0.1398455 0.20831285
0.14106146 0.21351452 0.18070902 0.19598095 0.1625815 0.27826402 0.18683226 0.22934973
0.13898034 0.14208339 0.22445403 0.14180976 0.30080208 0.19025123 0.16476886 0.20627481
0.26859912 0.10925805 0.13615957 0.10354543 0.22631203 0.14393829 0.17491591 0.20471314
0.17632873 0.25582215 0.13554011 0.16047695 0.22595479 0.20296158 0.16640888 0.21494383
0.28132772 0.12635337 0.27225685 0.1867565 0.3303251 0.19790956 0.22153841 0.1249087
00000000: 7135 4e3e 12b0 233e a8fa 603e b9c5 263e
00000010: 9d8f 1c3e f906 623e babf 583e 2849 883e
00000020: 06bb 133e 194f 443e 8189 243e 31ec 5b3e
00000030: 3fd1 0d3e fcfb 0e3e a5a2 f03d 1f71 963e
00000040: 8ef5 273e 8838 193e c2be 703e 463d 0e3e
00000050: 5dc2 373e 0bfe 483e a933 0f3e f74f 553e
00000060: 6a72 103e 8da3 5a3e c90b 393e 3baf 483e
00000070: c47b 263e 9f78 8e3e f550 3f3e a8da 6a3e
00000080: dd50 0e3e 4f7e 113e 47d7 653e 9436 113e
00000090: bb02 9a3e 38d1 423e 2bb9 283e b439 533e
000000a0: d385 893e afc2 df3d 6a6d 0b3e a00f d43d
000000b0: 57be 673e 8f64 133e 281d 333e 52a0 513e
000000c0: 858f 343e 1ffb 823e 07cb 0a3e 1254 243e
000000d0: b160 673e 29d5 4f3e 1767 2a3e 3c1a 5c3e
000000e0: 300a 903e c762 013e 4065 8b3e 193d 3f3e
000000f0: 5f20 a93e cea8 4a3e f7da 623e 22d0 ff3d
