logs/测试代码的通畅性/weight_network.AdaptiveCNN.initial_cnn_arg.pooling_model=maxmodel.lr=0.0001/test_model_20250426_125534.pth (torch, 840675 bytes, 78 tensors)

weight_function_network.initial_cnn.0.weight f4 [8, 1, 3, 3]
0	0xbe93158c	-0.28727376
1	0x3d94afe2	0.072601095
2	0x3d37fb1b	0.044917207
3	0x3e6d1f2e	0.23156425
4	0x3e122b29	0.14274277
5	0x3e904fb3	0.28185806
6	0xbe765093	-0.24054174
7	0xbe19c6f4	-0.15017301
8	0x3e3815b3	0.17977028
9	0xbe5631ea	-0.20917478
10	0xbda96a91	-0.08272279
11	0xbdf1a6c9	-0.1179939
12	0x3dba3cc4	0.090936214
13	0xbc1730ed	-0.009227973
14	0x3e95d5d0	0.29264688
15	0x3df2f5ef	0.11863314
16	0xbc31defe	-0.010856388
17	0x3e76136b	0.24030845
18	0x3d2e601a	0.04257212
19	0xbe56be66	-0.20971069
20	0x3e11583c	0.14193815
21	0x3de2a8d7	0.1106736
22	0x3e3be205	0.18347938
23	0xbccbf539	-0.024897205
24	0xbe19441a	-0.14967385
25	0x3df800db	0.12109538
26	0x3ddf76f0	0.109113574
27	0x3c73c01c	0.014877345
28	0x3e393c58	0.18089426
29	0xbe98bec1	-0.29833034
30	0x3e83ef6b	0.257686
31	0x3d56025e	0.05224835
32	0x3e719de2	0.23595384
33	0xbdfb5a41	-0.12273074
34	0x3d841edd	0.06451199
35	0x3e834064	0.25635064
36	0x3d4cdea8	0.05001703
37	0xbc98a73e	-0.018634435
38	0x3e929f73	0.28637275
39	0x3d55412d	0.05206411
40	0xbdc80161	-0.09765888
41	0xbe15c82a	-0.14627138
42	0xbc38ce99	-0.0112797255
43	0xbd7694d0	-0.060200512
44	0x3e0537a4	0.13009506
45	0x3de7cc1e	0.11318229
46	0xbe4f0572	-0.20216921
47	0x3dc695e2	0.09696557
48	0xbe63371a	-0.22188988
49	0x3b5f7fb8	0.0034103226
50	0xbd315dd1	-0.04330236
51	0xbe0cf2cf	-0.13764499
52	0x3e8069aa	0.25080615
53	0x3db320e5	0.087465085
54	0x3e429637	0.19002615
55	0x3e490ecb	0.1963455
56	0xbe0808a8	-0.13284552
57	0x3e59cf1b	0.2127041
58	0xbe8678b8	-0.26263976
59	0xbd9eac45	-0.077477016
60	0x3bd9a3e7	0.006641853
61	0x3d5a881d	0.053352464
62	0xbe95aafd	-0.29232016
63	0x3de3f118	0.11129969
64	0xbe2d3b3f	-0.16917132
65	0x3e9b95b7	0.3038766
66	0xbe6e9502	-0.2329903
67	0xbe0fb43c	-0.14033598
68	0x3e16ad7c	0.14714617
69	0x3e5ed1e1	0.2175975
70	0xbe1b9846	-0.15194806
71	0x3e83ab00	0.257164

weight_function_network.initial_cnn.0.bias f4 [8]
0	0x3e0d693a	0.13809672
1	0xbd393d4e	-0.04522448
2	0xbd24eb70	-0.040263593
3	0xbdec5d4b	-0.11541232
4	0x3cc312fa	0.02381276
5	0x3e961ef9	0.29320505
6	0xbcfec07a	-0.03109764
7	0x3d2f329e	0.04277288

weight_function_network.initial_cnn.1.weight f4 [8]
0	0x3f817187	1.0112771
1	0x3f800d03	1.0003971
2	0x3f7f912a	0.9983088
3	0x3f79d5c5	0.9759181
4	0x3f803d06	1.0018623
5	0x3f80e7d2	1.0070746
6	0x3f8181d2	1.0117743
7	0x3f7ccd1a	0.9875046

weight_function_network.initial_cnn.1.bias f4 [8]
0	0x3c1d592b	0.009603779
1	0x3bd18378	0.006393846
2	0xbb046f21	-0.002020784
3	0xbc8ab7e8	-0.016933396
4	0xbc2136da	-0.009839738
5	0xba0bb415	-0.00053292635
6	0xbaf196e5	-0.0018431811
7	0xbc905e24	-0.017623015

weight_function_network.initial_cnn.1.running_mean f4 [8]
0	0x3e8520c1	0.26001552
1	0x3dbfba20	0.093616724
2	0x3dd48228	0.10376388
3	0x3e2d784c	0.16940421
4	0x3dd83937	0.10557788
5	0x3e89ee77	0.26939747
6	0xbd9f995d	-0.077929236
7	0x3e478488	0.1948415

weight_function_network.initial_cnn.1.running_var f4 [8]
0	0x3cb7b6d1	0.02242604
1	0x3ccac099	0.02475004
2	0x3c935585	0.017985115
3	0x3d8e5662	0.0695007
4	0x3bce5169	0.006296326
5	0x3b5070a3	0.0031805418
6	0x3c672989	0.014109024
7	0x3cb7aa9e	0.022420224

weight_function_network.initial_cnn.4.weight f4 [16, 8, 3, 3]
0	0x3de4a402	0.111640945
1	0x3c434268	0.011917688
2	0xbe030e23	-0.12798361
3	0xbd90a3e6	-0.07062511
4	0x3acff0bb	0.001586459
5	0x3dce88f2	0.10084714
6	0xbddd0204	-0.107914
7	0x3d81b7eb	0.06333908
8	0x3cbd0a74	0.023076274
9	0xbcd405da	-0.025881696
10	0xbce9576f	-0.028484074
11	0xbb8bb3ab	-0.0042633615
12	0xbc31bb76	-0.010847917
13	0x3d489831	0.048973266
14	0xbd20f87a	-0.039299466
15	0xbdcd3766	-0.10020332
16	0xbdc51f4c	-0.0962511
17	0x3daad474	0.083413035
18	0xbcd99f9c	-0.026565365
19	0x3dcfd11e	0.10147308
20	0xbcfbf2ba	-0.03075539
21	0xbd9654fc	-0.07340428
22	0xbd4f08b4	-0.05054541
23	0xbd76637e	-0.060153477
24	0xbb6dc64f	-0.0036281531
25	0xbc1afd29	-0.009459772
26	0xbd3e24db	-0.046421867
27	0x3dca9dbb	0.09893366
28	0xbdda7bc4	-0.10668138
29	0x3d77367e	0.060354702
30	0xbcb42d24	-0.021994181
31	0xbd9c2dc4	-0.076259166
32	0xbd56e2aa	-0.052462257
33	0x3d9c0ecc	0.0762001
34	0xbd0ff300	-0.035143852
35	0x3d257e05	0.040403385
36	0xbda2d68f	-0.0795108
37	0x3c874bdd	0.016515667
38	0xbc2caad3	-0.010538775
39	0x3d9bcac4	0.07607034
40	0xbd1a4df6	-0.037672006
41	0xbdd93399	-0.106055446
42	0x3c60746b	0.013699631
43	0xbda43a3e	-0.08018921
44	0xbd62c457	-0.055363026
45	0x3d9a639f	0.075385325
46	0x3d2da222	0.04239095
47	0xbd12e155	-0.035859425
48	0xbc14d9f3	-0.009085166
49	0x3bd5dfbd	0.006526916
50	0x3d5d5aa1	0.05404151
51	0xbdd8faad	-0.105946876
52	0xba4d3e0c	-0.0007829375
53	0xbde1fa92	-0.110341206
54	0x3bc0de77	0.005885895
55	0xbd1f59d9	-0.038904045
56	0x3c05a483	0.008156898
57	0x3df6d8fd	0.12053106
58	0xbc8503ac	-0.016237102
59	0x3d78f29c	0.060778245
60	0xbdaff726	-0.08592062
61	0x3d2edaf6	0.042689286
62	0x3cdb8928	0.0267988
63	0x3b19c0ab	0.0023460786
64	0xbd0df82c	-0.034660503
65	0xbe020a66	-0.12699279
66	0xbd62a494	-0.055332735
67	0xbddadbf9	-0.10686488
68	0xbdd29132	-0.102816
69	0x3db9b0ae	0.09066902
70	0x3d84c0d5	0.06482092
71	0x3b96a987	0.004597846
72	0xbdc79b0a	-0.09746368
73	0xbdb8b86c	-0.09019551
74	0x3dd04363	0.10169103
75	0xbdb8034e	-0.08985005
76	0xbc13ffed	-0.009033185
77	0x3d118c51	0.035534207
78	0x3d85e1c4	0.06537202
79	0x3b96f176	0.004606421
80	0x3d5790af	0.052628215
81	0xbd502ca6	-0.05082383
82	0x3dd5daf4	0.104421526
83	0x3d7bc1ce	0.061464123
84	0x3dd10a76	0.102070734
85	0x3db9d1c6	0.09073214
86	0xbbf771b9	-0.0075513986
87	0x3dc6f96e	0.09715544
88	0xbdd0d8ab	-0.10197576
89	0xbdc13aba	-0.09435029
90	0x3d25feca	0.04052619
91	0xbdabf696	-0.08396642
92	0x3d663011	0.056198183
93	0x3d92fbd4	0.07176939
94	0xbdbb8b66	-0.091574475
95	0xbc8b23f4	-0.016984917
96	0x3d5fa072	0.054596372
97	0xbd9e6256	-0.077336
98	0x3dac5c51	0.084160455
99	0xbd437736	-0.04772111
100	0x3d2c8fc8	0.042129308
101	0x3cd99423	0.026559895
102	0xbd9be624	-0.07612255
103	0x3b2fc25a	0.0026818723
104	0x3dad143f	0.08451127
105	0xbc907916	-0.017635863
106	0xbcdfffc4	-0.027343638
107	0x3cd6fa24	0.026242323
108	0xbde5813f	-0.11206292
109	0x3cc090eb	0.023506602
110	0xbd601382	-0.054706104
111	0x3c997299	0.018731402
112	0x3d4be9df	0.049783584
113	0x3dd9c7d6	0.10633819
114	0xbdb673a9	-0.08908779
115	0xbc07c03f	-0.008285581
116	0xbcfe117e	-0.0310142
117	0xbc3b5e82	-0.011436107
118	0xbd8541c7	-0.06506687
119	0x3d39d281	0.045366768
120	0x3d75753f	0.059926268
121	0xbd6e55c0	-0.058187246
122	0xbdd1b203	-0.10239031
123	0xbd6aa7ef	-0.05728906
124	0xbd37670d	-0.04477601
125	0x3b259510	0.002526585
126	0x3da3745f	0.079811804
127	0x3de6d440	0.11270952
128	0xbdf42dd2	-0.11922802
129	0x3da41085	0.08010963
130	0x3c28221c	0.010262039
131	0x3db6ce3e	0.08926056
132	0xbc913f85	-0.017730484
133	0x3c7e517b	0.015522356
134	0xbc352b3d	-0.011057672
135	0xbc42e051	-0.0118943015
136	0x3dba9042	0.09109546
137	0x3d977899	0.07396049
138	0x3daf45af	0.08558213
139	0xbda9ae48	-0.08285195
140	0xbd78a420	-0.060703397
141	0x3df823ed	0.12116227
142	0x3d5acb69	0.053416643
143	0xbcd2cde4	-0.025732942
144	0xbd1eab7a	-0.03873775
145	0x3db0c4e8	0.08631307
146	0x3da18546	0.07886748
147	0x3d2b437b	0.0418124
148	0xbde31731	-0.11088408
149	0xbdce26fd	-0.1006603
150	0x3daa6e76	0.0832185
151	0xbd124e2e	-0.03571909
152	0xbda6bc1a	-0.08141346
153	0x3db3691c	0.087602824
154	0xbd88cb8c	-0.066794485
155	0x3d9f6c44	0.07784322
156	0x3d749d4a	0.059720315
157	0x3d9eb7c6	0.07749896
158	0x3ceb392f	0.02871379
159	0x3d25039d	0.04028665
160	0x3d0dcfb9	0.034621928
161	0x3d9c3055	0.07626406
162	0x3dfbbaa4	0.12291458
163	0x3db0a937	0.08626025
164	0xbd08efeb	-0.03343193
165	0x3d99cb7a	0.07509513
166	0xbd94a34b	-0.07257708
167	0xbcb5102b	-0.022102436
168	0xbda85b8d	-0.08220587
169	0xbc477651	-0.012174205
170	0x3ad5a0ad	0.0016298495
171	0x3e00fa2a	0.1259543
172	0xbda6a4da	-0.08136912
173	0x3c8398f4	0.016064145
174	0xbd951ec8	-0.07281262
175	0x3d7dcbbe	0.06196188
176	0x3d0c7175	0.03428789
177	0x3dabc5cb	0.083873354
178	0xbde4bc77	-0.11168759
179	0x3b8599c1	0.004077167
180	0xbdc1cbd5	-0.09462706
181	0xbbb4f33a	-0.005522159
182	0xbd703048	-0.058639795
183	0xbd9bfc37	-0.076164655
184	0x3de69b69	0.11260111
185	0xbd3974f7	-0.045277562
186	0x3d0debd3	0.034648728
187	0x3d716166	0.058930777
188	0x3d95fc2c	0.073234886
189	0x3d14eb7b	0.036357384
190	0x3d823700	0.06358147
191	0xbdc75b44	-0.097342044
192	0x3d4c1716	0.049826704
193	0xbce50211	-0.027955087
194	0x3d919683	0.07108786
195	0xb8dd3cc2	-0.00010549418
196	0x3dfc47b4	0.12318364
197	0xbd0e0e74	-0.034681752
198	0xbd839c3b	-0.06426283
199	0x3dd4bef5	0.10387985
200	0x3d8546ae	0.06507622
201	0x3db2dcbc	0.08733508
202	0x3ccf7e0d	0.02532866
203	0x3dad909c	0.08474848
204	0xbdb72d0c	-0.08944139
205	0x3d2269ca	0.03965167
206	0xbdc3d3c3	-0.09561875
207	0xbd07b799	-0.033134077
208	0xbde2803b	-0.11059614
209	0xbd606784	-0.05478622
210	0x3a9b5d1b	0.0011853309
211	0xbddd2c0e	-0.107994184
212	0xbc1d075c	-0.009584274
213	0xbd7bf7d5	-0.061515648
214	0x3dc9d72d	0.09855495
215	0x3cc6f169	0.024285035
216	0x3d835d31	0.06414259
217	0x3d1fdcce	0.039028935
218	0x3d35528f	0.044268187
219	0xbd8df30e	-0.06931125
220	0xbd331450	-0.043720543
221	0xbd14696c	-0.03623335
222	0x3def1f88	0.11675936
223	0x3c4d16aa	0.012517611
224	0xbc2de71e	-0.010614185
225	0xbdb1a360	-0.086737394
226	0xbda01cf7	-0.078180246
227	0xbcd8ad5f	-0.026449857
228	0x3cd0e600	0.025500298
229	0x3dd547f6	0.10414116
230	0x3d73afe2	0.059493907
231	0xbda140a0	-0.07873654
232	0x3d2191ea	0.039445795
233	0xbd8bf2b9	-0.06833405
234	0x3da52c3d	0.080650784
235	0xbdac4c7f	-0.08413028
236	0x3ddf15ec	0.10892853
237	0x3d9302c7	0.07178264
238	0xbdc8e08d	-0.09808455
239	0x3c098ef5	0.0083959
240	0x3dd23512	0.102640286
241	0xbd111a58	-0.035425514
242	0xbcb84ea8	-0.022498444
243	0xbc6c5aec	-0.014425974
244	0xbdb3755c	-0.08762619
245	0x3ca1b49f	0.019739447
246	0x3dc00b0c	0.09377107
247	0x3d908f99	0.07058639
248	0xbd8f3215	-0.06991974
249	0x3db1b317	0.08676737
250	0xbdc643ef	-0.09680926
251	0xbcd571f4	-0.026055314
252	0x3de38054	0.11108461
253	0xbd2074df	-0.039173957
254	0xbd90a7e7	-0.07063275
255	0x3d8bf011	0.068328984

weight_function_network.initial_cnn.4.bias f4 [16]
0	0x3de25d77	0.11052983
1	0xbd129c05	-0.035793323
2	0xbd7f00b8	-0.062256545
3	0x3d95f461	0.07322002
4	0x3d73673c	0.059424624
5	0x3c81ad38	0.015829667
6	0xbc81ea21	-0.015858712
7	0x3d9fc860	0.078018904
8	0x3cf455d3	0.02982608
9	0xbde8e63c	-0.11372039
10	0x3db91c4d	0.09038601
11	0x3db541ec	0.08850464
12	0xbda36312	-0.079778805
13	0xbdab319e	-0.08359073
14	0xbdc1d82b	-0.09465059
15	0x3dd34433	0.10315742

weight_function_network.initial_cnn.5.weight f4 [16]
0	0x3f7bf9a1	0.9842778
1	0x3f7ed9c3	0.9955103
2	0x3f7ffb52	0.9999286
3	0x3f7c896b	0.98647183
4	0x3f7d7381	0.9900437
5	0x3f8020ea	1.0010045
6	0x3f812daf	1.0092067
7	0x3f80a8a7	1.0051469
8	0x3f7fa625	0.9986289
9	0x3f7d6e0f	0.9899606
10	0x3f812732	1.0090086
11	0x3f80bba9	1.0057269
12	0x3f8032a5	1.0015455
13	0x3f80ef98	1.0073118
14	0x3f818d2d	1.0121208
15	0x3f815563	1.0104183

weight_function_network.initial_cnn.5.bias f4 [16]
0	0xbca08328	-0.01959379
1	0xbc694268	-0.014237024
2	0xba45c481	-0.0007544235
3	0xbce8d6b8	-0.028422698
4	0xbc89a5b7	-0.016802652
5	0x3b689de8	0.003549451
6	0xbafacabd	-0.0019133907
7	0xbc6a103d	-0.014286098
8	0xba9c6ce5	-0.0011934309
9	0xbbfeea73	-0.0077794134
10	0xbbdf3657	-0.0068118977
11	0xbc7bd065	-0.015369509
12	0xbc18d094	-0.009327073
13	0x3c94fe88	0.018187776
14	0x3c00b221	0.007854969
15	0xbc14365c	-0.009046163

weight_function_network.initial_cnn.5.running_mean f4 [16]
0	0xbebd12e3	-0.36928472
1	0x3e283b14	0.16428787
2	0x3e5f101f	0.21783493
3	0x3d04dbca	0.03243617
4	0x3e8ccae6	0.2749855
5	0xbe453ba9	-0.1926104
6	0x3e28b982	0.16477016
7	0x3ea7356b	0.32657942
8	0x3e42590f	0.18979286
9	0xbe489410	-0.19587731
10	0xbdc594de	-0.09647535
11	0x3f0e7f7c	0.55663276
12	0xbe04e2d0	-0.12977147
13	0xbf03f116	-0.5153974
14	0xbe882686	-0.2659189
15	0xbddb0bd7	-0.10695618

weight_function_network.initial_cnn.5.running_var f4 [16]
0	0x3e80b733	0.2513977
1	0x3da79d07	0.081842475
2	0x3d9cd9b0	0.07658708
3	0x3d8e00b0	0.06933725
4	0x3de9b8d3	0.114122055
5	0x3d3f372f	0.046683487
6	0x3e2af78c	0.16695994
7	0x3e60106e	0.21881267
8	0x3d9ca96b	0.076495014
9	0x3d98afb4	0.07455388
10	0x3dbfb23f	0.093601696
11	0x3e2dfd9b	0.16991274
12	0x3e2bb46a	0.16768041
13	0x3ea4ad05	0.32163253
14	0x3e354b28	0.17704451
15	0x3e2527cd	0.16128464

weight_function_network.initial_cnn.8.weight f4 [32, 16, 3, 3]
0	0x3bdeca55	0.006799022
1	0x3cbb8d42	0.022894505
2	0xbc086678	-0.008325212
3	0x3d2e6dff	0.04258537
4	0x3d05c977	0.032662835
5	0xbd795245	-0.060869474
6	0xbd7b14d1	-0.06129915
7	0xbc9a9121	-0.018868031
8	0x3d0263b7	0.031833377
9	0x3c91aae6	0.017781686
10	0xbd955f11	-0.07293523
11	0xbb1ca5fe	-0.002390265
12	0x3cb83689	0.022486942
13	0x3c5320f3	0.012886274
14	0x3d696936	0.056985103
15	0x3d904fc0	0.07046461
16	0x3c8d13ba	0.01722132
17	0xbc16e364	-0.009209488
18	0x3d9ca489	0.0764857
19	0x3d78c76e	0.060737066
20	0x39fb3bd9	0.0004791904
21	0x3d6cab98	0.057780832
22	0xbb0b2b10	-0.0021235384
23	0xbc98ca89	-0.018651264
24	0xbd4cf13f	-0.050034758
25	0x3c80eb91	0.015737327
26	0x3da568b9	0.08076615
27	0xbcb621d2	-0.022232924
28	0xbd47abb9	-0.04874775
29	0xbd67c8a1	-0.05658782
30	0x3d67955b	0.05653892
31	0x3ce9f54a	0.028559346
32	0x3c530b60	0.01288113
33	0xbc553250	-0.013012484
34	0x3d3ec522	0.04657472
35	0x3c710e86	0.014712935
36	0x3d58d802	0.052940376
37	0x3d87d199	0.066317745
38	0xbc44c1c3	-0.012009087
39	0x3be42738	0.006962683
40	0x3d88cbdb	0.06679507
41	0x3d2ac202	0.041688927
42	0xbb00dd6f	-0.0019663235
43	0xbc812f49	-0.015769618
44	0xbc1e8ba2	-0.009676846
45	0xbd600e92	-0.054701395
46	0x3d7be1a1	0.061494473
47	0x3cd1e3c9	0.025621312
48	0xbd74d1be	-0.05977034
49	0xbca91aeb	-0.020642718
50	0xbd83a04c	-0.064270586
51	0x3d884451	0.06653655
52	0x3cf3a4a8	0.0297416
53	0x3d941dd5	0.072322525
54	0x3d57489a	0.052559473
55	0xbd4754db	-0.04866491
56	0x3d8e687e	0.06953524
57	0x3d66d999	0.05635986
58	0xbd8162ff	-0.0631771
59	0x3d63126d	0.055437494
60	0x3cd2ffa1	0.025756659
61	0xbc104445	-0.008805339
62	0xbd9d8fa9	-0.076934166
63	0xbc42bb50	-0.011885479
64	0x3d559dac	0.05215232
65	0x3d2dc2a6	0.04242196
66	0xbbe9c152	-0.0071336413
67	0x3d519664	0.051168814
68	0xbd02076c	-0.03174536
69	0x3d48fa8f	0.049067076
70	0x3dbf6115	0.09344689
71	0xbd2420b5	-0.040070254
72	0xbbb1b4a7	-0.0054231468
73	0xbd10450a	-0.03522209
74	0xbd61858d	-0.055059005
75	0xbd8c4f53	-0.068510674
76	0xbad85306	-0.0016504235
77	0x3d40bd29	0.047055397
78	0x3c78b510	0.015179887
79	0xbd4f2a16	-0.050577246
80	0x3c7167f6	0.014734259
81	0x3d967339	0.07346196
82	0x3ca5f37e	0.020257708
83	0xbd2d2b23	-0.042277467
84	0xbda2edb5	-0.07955495
85	0x3d4c164a	0.049825944
86	0xbc6d8f99	-0.014499568
87	0xbc888abd	-0.016667718
88	0xbd8ef9df	-0.06981253
89	0xbda2fd24	-0.07958439
90	0x3d2ac802	0.04169465
91	0xbb918a07	-0.004441503
92	0xbcda68a0	-0.026661217
93	0xbd2bf66c	-0.041983053
94	0xbd0bda82	-0.034143932
95	0x3d4e4858	0.05036196
96	0x3d433175	0.047654588
97	0x3d2bea43	0.041971456
98	0x3d247b21	0.040156487
99	0x3c6b87d7	0.014375648
100	0x3b179c5f	0.0023133976
101	0x3d81a53f	0.06330346
102	0x3dca2582	0.09870435
103	0x3d561c09	0.05227283
104	0xbc2795f7	-0.0102286255
105	0x3cbcff19	0.023070859
106	0xbd485e8e	-0.0489183
107	0xbdb9a508	-0.0906468
108	0x3d7082a7	0.05871835
109	0x3d3494ef	0.044087347
110	0x3c3e5127	0.011616028
111	0x3d29e524	0.04147829
112	0xbca2c055	-0.019867102
113	0x3d8c8630	0.06861532
114	0xbd469b23	-0.048487794
115	0x3cb92ff1	0.022605868
116	0x3bf89e20	0.0075872093
117	0x3d816f3c	0.063200444
118	0x3b90192c	0.004397532
119	0xbcd72c6d	-0.026266301
120	0xbd660141	-0.05615354
121	0xbcf1903e	-0.029487725
122	0xbd9c29cf	-0.07625162
123	0x3cadc0ff	0.021210192
124	0x3d51dd3a	0.05123637
125	0x3b68178e	0.003541443
126	0x3d74d1f9	0.059770558
127	0xbc0132aa	-0.007885614
128	0x3daa7cd9	0.08324594
129	0x3da28a9a	0.079365924
130	0x3dcf4fa3	0.101226114
131	0xbc9cf14f	-0.019158034
132	0xbcabcd3b	-0.020971885
133	0xbd873bfe	-0.066032395
134	0x3d5ad66e	0.053427152
135	0x3d2dcd9f	0.042432424
136	0xbd88a8d3	-0.06672826
137	0x3d574796	0.052558504
138	0xbbb8bf59	-0.005638045
139	0x3d43c75a	0.04779754
140	0x3daaef83	0.083464645
141	0xbd8c6806	-0.068557784
142	0x3bc02249	0.005863462
143	0x3d4f274b	0.050574582
144	0xbd88711a	-0.066621974
145	0x3c1c9405	0.009556775
146	0xbd9bee25	-0.07613782
147	0xbd10cafa	-0.035349824
148	0xbd612cbd	-0.054974306
149	0xbcab1fa7	-0.020889116
150	0x3c8ccaea	0.0171866
151	0x3d00c766	0.03144016
152	0xbd8d1734	-0.06889191
153	0xbb4fd256	-0.0031711063
154	0xbd9fb277	-0.07797711
155	0x3c89d857	0.016826792
156	0xbc9fe638	-0.019518957
157	0xbc92f5de	-0.017939504
158	0x3d9d3587	0.07676225
159	0xbc7b47ec	-0.015336972
160	0x3d1afef6	0.037840806
161	0x3d738fa1	0.059463147
162	0x3d360924	0.04444231
163	0x3d161b4a	0.03664712
164	0xbbded84e	-0.006800688
165	0xbc856a53	-0.01628605
166	0xbd0bc650	-0.034124672
167	0x3cd8583d	0.026409263
168	0xbd1323c6	-0.035922788
169	0xbc98081a	-0.01855855
170	0x3d25bd72	0.040463872
171	0xbd7b568e	-0.06136184
172	0xbd523116	-0.051316343
173	0x3bd0011e	0.0063477894
174	0xbca69b65	-0.02033777
175	0x3c56c8a8	0.013109364
176	0xbc25c9be	-0.0101189
177	0x3c6e9818	0.014562629
178	0xbcef4b6f	-0.029210774
179	0xbc7b5f34	-0.015342522
180	0x3cf56895	0.029957095
181	0xbcedbcf6	-0.029020768
182	0x3cd7499e	0.02628022
183	0xbc97f13c	-0.018547647
184	0xbcc68893	-0.024235046
185	0x3c697fae	0.014251633
186	0xbc02c721	-0.007982046
187	0x3d845c48	0.06462914
188	0xbc4aaba4	-0.012370024
189	0xbd38d9fb	-0.045129757
190	0x3ca337ff	0.019924162
191	0x3d5938db	0.053032737
192	0xbda40f88	-0.08010775
193	0xbda837af	-0.08213746
194	0xbd2f400a	-0.04278568
195	0x3dbfeafd	0.09370992
196	0x3c90b97d	0.017666573
197	0xbd708b0e	-0.058726363
198	0xbc96b323	-0.018395966
199	0x3d34e979	0.04416797
200	0x3d6ac9d3	0.05732138
201	0x3d3ce020	0.04611218
202	0x3d368949	0.04456452
203	0x3d936862	0.07197644
204	0xbdd728cc	-0.10505828
205	0xbdaacd7b	-0.083399735
206	0xbdb6d36b	-0.089270435
207	0x3d6c2c1d	0.057659257
208	0xbce2a3d8	-0.027666017
209	0xbd7ab2ee	-0.061205797
210	0x3c7b6ddc	0.015346017
211	0x3c0e4b21	0.008684904
212	0x3bf13998	0.007361602
213	0xbd409dc6	-0.047025464
214	0x3da6c84f	0.081436746
215	0xbd685a4a	-0.05672673
216	0xbd434f79	-0.047683213
217	0x3d8471ee	0.06467043
218	0xbd88649d	-0.066598155
219	0x3d4f1d58	0.050565094
220	0x3d098c1b	0.03358088
221	0xbd37043e	-0.04468178
222	0xbcad1550	-0.021128327
223	0x3c93192e	0.017956343
224	0xba267204	-0.0006349387
225	0xbcd95cbe	-0.02653348
226	0x3cbc39d5	0.022976795
227	0x3d73af1b	0.059493165
228	0x3d27163c	0.04079269
229	0x3ce5b346	0.028039586
230	0xbd8fb17f	-0.070162766
231	0x3c8c6967	0.017140104
232	0xbcbaf4a5	-0.022821734
233	0xbc9d51b9	-0.019204007
234	0x3bdc9306	0.0067313937
235	0xbdb01f74	-0.08599749
236	0xbd4e263f	-0.050329443
237	0xbd0650e9	-0.032792006
238	0xbb613111	-0.0034361521
239	0x3d759c9e	0.059963815
240	0xbcd99429	-0.026559906
241	0x3cfde157	0.03099124
242	0x3d085d68	0.033292204
243	0x3d990de2	0.07473351
244	0xbda293a2	-0.07938315
245	0x3d5f5cce	0.054531865
246	0xbd72eac6	-0.05930593
247	0xbd7e7570	-0.062123716
248	0x3d9e21f2	0.07721318
249	0xbdc25f73	-0.09490862
250	0x3cd141d3	0.025544083
251	0x3d7160c2	0.058930166
252	0xbc5ec01d	-0.013595608
253	0x3c997b06	0.01873542
254	0x3d950c19	0.07277698
255	0x3ca53e4f	0.020171313

weight_function_network.initial_cnn.8.bias f4 [32]
0	0x3d147529	0.036244545
1	0x3cf1053d	0.029421443
2	0xbd683459	-0.056690548
3	0x3cc1c717	0.023654504
4	0x3ca32037	0.019912822
5	0x3cf267d4	0.029590525
6	0xbd028e6f	-0.031874117
7	0xbc07e779	-0.0082949335
8	0xbd3432ca	-0.04399375
9	0xbd2fd030	-0.042923152
10	0xbca8ee7f	-0.020621536
11	0xbca38279	-0.019959675
12	0x3da0f115	0.07858483
13	0x3d025c1c	0.031826124
14	0xbd92c2c4	-0.07166055
15	0x3d7bc1cd	0.06146412
16	0xbda4a64e	-0.080395326
17	0x3d7e6927	0.062112
18	0x3cd3cbef	0.025854079
19	0x3c8f5ba3	0.01749975
20	0xbce27c3b	-0.027647128
21	0x3d33abee	0.043865137
22	0x3da91fcc	0.08258018
23	0x3ce14fb8	0.027503833
24	0xbd54da8b	-0.05196623
25	0xbd6fc068	-0.058533102
26	0xbd928c9d	-0.07155726
27	0x3d2f534e	0.042804055
28	0x3da11d91	0.078669675
29	0x3d2a6ee7	0.04160967
30	0x3d2207fa	0.03955839
31	0xbba81b62	-0.0051302174

weight_function_network.initial_cnn.9.weight f4 [32]
0	0x3f809230	1.0044613
1	0x3f7c3392	0.9851619
2	0x3f7e3ca7	0.993113
3	0x3f817db4	1.0116487
4	0x3f7f2640	0.9966774
5	0x3f824acc	1.0179076
6	0x3f7f9ac9	0.9984556
7	0x3f811bb3	1.0086578
8	0x3f80e037	1.0068425
9	0x3f8087e1	1.0041467
10	0x3f7e8b4a	0.9943129
11	0x3f7ebbfe	0.99505603
12	0x3f7fe465	0.9995788
13	0x3f7d098a	0.9884268
14	0x3f800eb2	1.0004485
15	0x3f7ee8b8	0.9957385
16	0x3f80147e	1.0006254
17	0x3f7df6bf	0.9920463
18	0x3f7fd6b7	0.99937004
19	0x3f7d51da	0.9895302
20	0x3f7bfb7b	0.98430604
21	0x3f83ac5b	1.0286974
22	0x3f815d6b	1.0106634
23	0x3f80b0f7	1.0054005
24	0x3f7da121	0.9907399
25	0x3f80bade	1.0057027
26	0x3f7f06ed	0.9961994
27	0x3f807d14	1.0038171
28	0x3f7df0dd	0.99195653
29	0x3f7e1c02	0.99261487
30	0x3f8183e6	1.0118377
31	0x3f7e9285	0.9944232

weight_function_network.initial_cnn.9.bias f4 [32]
0	0xbb94294e	-0.0045215255
1	0xbc0f849e	-0.008759646
2	0xbaa509eb	-0.0012591457
3	0xbc640b50	-0.013918713
4	0x3a2016a6	0.00061068905
5	0x3c88bdad	0.016692007
6	0xbb9fb9ce	-0.0048744446
7	0x39f31f81	0.00046372044
8	0xbc1490c0	-0.009067714
9	0xbc848d82	-0.016180757
10	0xbc99c8af	-0.018772451
11	0xbc9889ad	-0.018620336
12	0xbc4a3510	-0.012341753
13	0x39c92103	0.00038362303
14	0xbb62f1a0	-0.0034628883
15	0xbc4d0c3f	-0.012515127
16	0xbbebbd72	-0.0071942145
17	0xb93474b1	-0.00017209609
18	0xbb292566	-0.0025809645
19	0xbca92da4	-0.020651646
20	0xbc312b81	-0.010813595
21	0x3c50164d	0.012700629
22	0x3ba82e54	0.005132476
23	0xbb03c152	-0.0020104242
24	0xbcd04a94	-0.025426187
25	0xbc553bc0	-0.013014734
26	0xbc080ced	-0.008303863
27	0xbb79e427	-0.0038130374
28	0xbba89471	-0.0051446487
29	0xbc46cd09	-0.012133845
30	0xbbcbd963	-0.006220983
31	0xbc32d59c	-0.010915186

weight_function_network.initial_cnn.9.running_mean f4 [32]
0	0x3f24d7ab	0.64391583
1	0xbdc2ba96	-0.09508245
2	0xbea30f3d	-0.31847563
3	0x3eaaab5a	0.33333856
4	0xbd578bf3	-0.0526237
5	0x3e274fa9	0.16338982
6	0x3d5c8799	0.053840254
7	0x3cbf7bd8	0.023374483
8	0x3f2c0e2a	0.6720911
9	0x3e888893	0.26666698
10	0x3e2a8051	0.16650511
11	0x3f07e494	0.5308316
12	0x3e6ef4bd	0.23335548
13	0xbf1eb58a	-0.61995757
14	0x3dd87434	0.10569039
15	0x3e7bd3b8	0.24592483
16	0xbea3635b	-0.3191174
17	0xbe1acea3	-0.15117888
18	0xbe017be6	-0.1264492
19	0xbdbb60ac	-0.09149298
20	0x3e2cefc1	0.16888334
21	0xbe3046c1	-0.1721449
22	0xbdbb332b	-0.09140619
23	0x3e8b970b	0.27263674
24	0x3e8501d3	0.25977954
25	0x3e51cc81	0.20488168
26	0xbed7f123	-0.4217616
27	0xbf671910	-0.9027262
28	0xbd8c1b2b	-0.068411194
29	0x3efb0ee7	0.49034807
30	0x3e45fd39	0.19334878
31	0x3e22eb0c	0.15909976

weight_function_network.initial_cnn.9.running_var f4 [32]
0	0x3e46f708	0.19430172
1	0x3e6664fd	0.22499461
2	0x3e5be258	0.21473062
3	0x3dfd3768	0.123640835
4	0x3e718d9e	0.23589179
5	0x3db172b5	0.08664457
6	0x3ddd820a	0.108158186
7	0x3ec7011b	0.3886803
8	0x3df41dfe	0.11919783
9	0x3e800a18	0.250077
10	0x3db2b4fb	0.087259255
11	0x3e599623	0.21248679
12	0x3df1d4a8	0.11808139
13	0x3e84c647	0.25932524
14	0x3dd55c54	0.10418001
15	0x3e1c4ec3	0.1526442
16	0x3e114a52	0.14188507
17	0x3e196883	0.14981274
18	0x3e5f3343	0.21796899
19	0x3e568d5b	0.2095236
20	0x3e406372	0.18787935
21	0x3dd2532d	0.10269771
22	0x3e1aa900	0.15103531
23	0x3de78f34	0.11306611
24	0x3e1f58b3	0.1556118
25	0x3da78d1b	0.081812106
26	0x3e32ef24	0.17474037
27	0x3eb08fcb	0.34484705
28	0x3e798794	0.24368125
29	0x3e256496	0.16151652
30	0x3dea1816	0.11430375
31	0x3e2e8682	0.17043498

weight_function_network.initial_cnn.11.weight f4 [32, 32, 3, 3]
0	0xbd1b3c8c	-0.03789954
1	0xbd3411ee	-0.04396241
2	0xbd28edd2	-0.041242428
3	0x3d3596dc	0.044333324
4	0xbd383a9b	-0.044977766
5	0xbd45e4b2	-0.048313804
6	0x39f36b19	0.00046428366
7	0x3b7de668	0.003874207
8	0xbc5739e6	-0.013136363
9	0x3d1f7ee2	0.038939364
10	0x3d3cb5ff	0.046072003
11	0x3d5cdb7e	0.05392026
12	0xbd7b36bc	-0.061331496
13	0x3d4e1ee3	0.050322425
14	0x3c30a1d7	0.010780773
15	0x3d4dc6d2	0.050238438
16	0xbc60724f	-0.013699128
17	0x3c040139	0.008056932
18	0xbd24fe19	-0.04028139
19	0x3cc72ca7	0.024313284
20	0xbc2112a7	-0.009831107
21	0x3d35507a	0.0442662
22	0x3c86f8aa	0.016475994
23	0x3be69666	0.007036972
24	0xbd303398	-0.043017954
25	0xbd303ef5	-0.04302879
26	0x3b257aa2	0.0025250097
27	0x3c34f2b6	0.011044195
28	0xbc7e007b	-0.015503044
29	0xbbee2f3d	-0.007268815
30	0x3d6acec1	0.057326082
31	0xbc1bcf6a	-0.009509901
32	0xbcbc531e	-0.022988852
33	0x3b122d43	0.002230481
34	0x3cf59126	0.029976439
35	0x3bc1b9f6	0.005912061
36	0xbd1ee5cd	-0.038793374
37	0xbd6da035	-0.058014113
38	0x3ba8ca32	0.0051510567
39	0xbd36fb1b	-0.044673067
40	0x3d17a6e8	0.03702441
41	0xbd5f0776	-0.054450475
42	0xbc6d2b3c	-0.01447564
43	0xbd260ed8	-0.0405415
44	0xbd14e90c	-0.036355063
45	0xbc18a230	-0.009316012
46	0xbd0ff4d3	-0.035145592
47	0xbd9610e4	-0.073274404
48	0x3d0e4da9	0.03474203
49	0x3cd0c764	0.025485702
50	0x3cca00a4	0.024658509
51	0x3caf13ae	0.021371689
52	0x3d3d0cd2	0.046154805
53	0xbcefe5c1	-0.02928436
54	0xbd0152be	-0.03157305
55	0xbcd37b3f	-0.025815604
56	0xbbed293e	-0.0072375825
57	0xbae2bee3	-0.001729932
58	0xbc9d43cb	-0.019197365
59	0xbd0b1766	-0.03395786
60	0x3cfcd280	0.030862093
61	0xbd715261	-0.058916453
62	0x3d044670	0.032293737
63	0xbc336ab3	-0.010950732
64	0x3d254e7d	0.040358055
65	0x3c49c739	0.012315565
66	0x3cff9f22	0.03120381
67	0xbd44ba98	-0.048029512
68	0xbd0f80e5	-0.035035033
69	0x3d53f50f	0.051747378
70	0xbd0b4135	-0.033997733
71	0xbc10b5be	-0.008832393
72	0xbd45241e	-0.048130147
73	0x3b86af8a	0.0041102814
74	0xbccdf563	-0.025141424
75	0xbc5beaf2	-0.013422715
76	0x3c05baa2	0.0081621725
77	0xbd656e44	-0.05601336
78	0x3ca0628d	0.019578243
79	0x3d1ef5e3	0.038808715
80	0xbd32f07d	-0.04368638
81	0xbbadf299	-0.005308461
82	0x3d0ab598	0.033864588
83	0xbc7d5ab1	-0.015463517
84	0xbc608f59	-0.013706052
85	0x3d4acdc7	0.04951265
86	0x3d874046	0.06604056
87	0xbc4a13ac	-0.012333792
88	0x3d4e7bee	0.050411157
89	0x3bf5e573	0.007504159
90	0x3cb8ed62	0.02257413
91	0xbd162e77	-0.036665406
92	0x3d56467c	0.052313313
93	0x3c671fb5	0.014106681
94	0xbce11ef7	-0.027480586
95	0x3d517126	0.051133297
96	0xbcd0d043	-0.025489932
97	0xbccaa73b	-0.024737945
98	0x3b004475	0.0019572054
99	0xbc984cae	-0.018591251
100	0x3d4be02a	0.049774326
101	0xbcc11135	-0.023567775
102	0xbc344625	-0.011003052
103	0x3d3c02e0	0.04590118
104	0x3cd7a4c3	0.026323682
105	0x3d848b03	0.06471827
106	0x3c0088ed	0.007845146
107	0xbd4d5e81	-0.050138954
108	0xbd29e314	-0.041476324
109	0x3ba28d3e	0.004960685
110	0x3cac89db	0.021061828
111	0xbd7032d6	-0.05864223
112	0xbd27ed02	-0.040997513
113	0xbd67564c	-0.056478783
114	0x3d789c45	0.060695905
115	0x3d2fa46e	0.04288142
116	0xbd678914	-0.056527212
117	0x3c9ac351	0.018891962
118	0xbcde6d42	-0.027151708
119	0xbb9bea36	-0.0047581447
120	0x3c2e12c2	0.010624589
121	0xbd643192	-0.055711336
122	0xbd7e6ccd	-0.06211548
123	0xbce30535	-0.027712444
124	0xbbf3b9a6	-0.0074379025
125	0x3d60367a	0.054739453
126	0xb9b0fd63	-0.00033758124
127	0x3d4a39f6	0.049371682
128	0x3d141750	0.036155045
129	0x3d1979c1	0.03746963
130	0xbd26bbbc	-0.04070638
131	0x3d12cd2f	0.03584021
132	0x3d6c4150	0.057679474
133	0xbd3b457b	-0.04572056
134	0x3d06ffcd	0.032958794
135	0x3c17a705	0.009256129
136	0x3d403c8b	0.04693274
137	0x3d26ff4b	0.04077081
138	0xbd349d23	-0.04409517
139	0xbd5fd0d7	-0.054642525
140	0x3d3a4500	0.04547596
141	0xbd1ffc4d	-0.039058972
142	0xbd320a18	-0.043466657
143	0xbca39bea	-0.019971807
144	0x3d00d097	0.031448927
145	0xbd16c2d8	-0.03680691
146	0xbc12a357	-0.008950076
147	0xbd89e2f2	-0.067327395
148	0x3d3c7e57	0.046018925
149	0xbc85cab9	-0.016332017
150	0xbd23c22d	-0.039980102
151	0x3c35a370	0.01108633
152	0xbd4bc2e1	-0.049746398
153	0x3b6222d3	0.003450562
154	0x3bdc2531	0.0067183007
155	0x3d5e30c7	0.054245736
156	0x3d24469b	0.040106397
157	0xbca26f4b	-0.01982846
158	0xbd114d41	-0.035474066
159	0x3d2de8fc	0.04245852
160	0xbd4180dc	-0.04724203
161	0xbbb133d5	-0.00540779
162	0xbc6d19b7	-0.014471463
163	0x3d2d295c	0.04227577
164	0x3c3c3ea3	0.011489543
165	0x3b775a1b	0.0037742916
166	0x3bbf0e57	0.005830567
167	0x3d88dd56	0.066828415
168	0x3c41d608	0.011830814
169	0xbc61012b	-0.013733189
170	0xbcad00eb	-0.021118602
171	0x3ce37362	0.02776498
172	0x3befdf24	0.0073203016
173	0x3cb3b4b1	0.021936746
174	0xbd71aa42	-0.05900026
175	0x3d3df3c0	0.046375036
176	0xbc44f7e2	-0.0120219905
177	0xbc0ebcd3	-0.008712011
178	0x3c6eb2e4	0.014569018
179	0xbcf9f4a4	-0.030512162
180	0x3d19ffa8	0.03759733
181	0xbd35a397	-0.044345465
182	0x3d4d6d8c	0.0501533
183	0xbc8fbb01	-0.017545225
184	0xbd6339b2	-0.055474944
185	0x3d6781f0	0.056520402
186	0xbb595cdc	-0.003316692
187	0xbbe49b04	-0.006976487
188	0x3d47c6ee	0.0487737
189	0x3d400ac4	0.046885267
190	0x3ce15b15	0.027509252
191	0x3d86364f	0.06553327
192	0xbc30cc96	-0.010790965
193	0xbc8cc20b	-0.01718237
194	0x3c88936b	0.016671857
195	0xbd208657	-0.039190616
196	0xbce27c22	-0.027647082
197	0xbd240a09	-0.040048633
198	0xbc80fa7b	-0.015744438
199	0xbc2d9461	-0.010594458
200	0x3bd42c1f	0.006474986
201	0xbc5bc06a	-0.013412574
202	0xbcf73e0f	-0.030180959
203	0xbbd87228	-0.0066054054
204	0x3d4b7327	0.049670365
205	0xbcc85dc9	-0.024458783
206	0xbd370a0b	-0.044687312
207	0xbc234da1	-0.009967239
208	0x3d6d844c	0.057987496
209	0xbbaa8508	-0.005203847
210	0x3ca5b594	0.020228185
211	0x3d59915c	0.05311714
212	0x3a50419f	0.00079443486
213	0x3d670dba	0.056409575
214	0xbd104454	-0.035221413
215	0xbc46c552	-0.012132006
216	0xbd1a99bf	-0.03774428
217	0xbaaee4e5	-0.0013343362
218	0x3d2ce1e1	0.042207602
219	0xbd1c71a6	-0.03819432
220	0xbd4ed4e4	-0.050495997
221	0xbc6a82a8	-0.014313377
222	0x3d798c69	0.06092492
223	0x3ca0978d	0.019603515
224	0x3d71ebd0	0.05906278
225	0x3b89adef	0.0042016427
226	0x3d417e24	0.047239438
227	0xbd4cd53c	-0.050008044
228	0x3cd14518	0.025545642
229	0xbd3d7a47	-0.04625919
230	0x3ce9d7de	0.028545316
231	0x3ca75839	0.02042781
232	0x3d2ad72b	0.041709106
233	0x3ccdf7ed	0.025142634
234	0x3d38a952	0.04508335
235	0xbc97021c	-0.018433623
236	0x3cb78a8d	0.022404933
237	0xbcac0bab	-0.021001657
238	0xbd1f91e6	-0.0389575
239	0x3d21f74a	0.039542474
240	0xbd25ad1f	-0.040448304
241	0x3c616010	0.013755813
242	0xbcbc58b2	-0.022991512
243	0xbd4d2b1a	-0.050089933
244	0xbd251b28	-0.0403091
245	0xbd18ebb3	-0.037334155
246	0xbd6c937d	-0.057757843
247	0xbd46bb72	-0.048518606
248	0xbd26b378	-0.0406985
249	0xbcba3f02	-0.022735123
250	0xbd4da019	-0.05020151
251	0xbd655507	-0.05598929
252	0xbc925dbd	-0.017866964
253	0x3bfc9d78	0.0077092014
254	0x3d5731c7	0.052537706
255	0x3d13b56e	0.036061697

weight_function_network.initial_cnn.11.bias f4 [32]
0	0x3cdb6aa4	0.026784249
1	0xbceddc45	-0.029035697
2	0x3ca7b462	0.020471755
3	0xbac6b6b2	-0.0015160649
4	0xbd135bcf	-0.035976227
5	0x3d34cfbf	0.044143435
6	0xbd047e39	-0.032346938
7	0x3cae937f	0.021310566
8	0xbd3d8704	-0.04627134
9	0xbc5b96d9	-0.013402664
10	0x3a9fbbe4	0.0012186733
11	0x3d446768	0.04795018
12	0x3c421276	0.011845222
13	0x3cf3f6e0	0.029780805
14	0xbd51593e	-0.0511105
15	0xbcb55ee6	-0.022139978
16	0x3d449bd6	0.04800018
17	0xbca3f0da	-0.020012308
18	0xbd0a98ed	-0.033837248
19	0xbd4ed26c	-0.050493643
20	0xbce3c5e8	-0.02780433
21	0x3cdbb733	0.026820755
22	0x3c4c1a4e	0.012457443
23	0x3cdca88e	0.026935842
24	0xbc0d39e0	-0.0086197555
25	0xbd609b54	-0.054835632
26	0xbc831784	-0.016002424
27	0x3a4c72d1	0.00077990914
28	0xbd24cf68	-0.04023686
29	0xbd65a485	-0.0560651
30	0x3cc00ede	0.02344459
31	0x3ba4d86c	0.0050306823

weight_function_network.initial_cnn.12.weight f4 [32]
0	0x3f7e32eb	0.99296445
1	0x3f8154e8	1.0104036
2	0x3f817756	1.0114543
3	0x3f7f694e	0.9977006
4	0x3f7fe513	0.99958915
5	0x3f7d4851	0.9893847
6	0x3f7f52a0	0.9973545
7	0x3f7d252d	0.9888485
8	0x3f7fcc87	0.9992146
9	0x3f80778e	1.0036485
10	0x3f807226	1.0034835
11	0x3f811c69	1.0086795
12	0x3f7e931a	0.9944321
13	0x3f7f1b03	0.9965059
14	0x3f80308b	1.0014814
15	0x3f82593c	1.0183482
16	0x3f8132de	1.0093648
17	0x3f80d5cf	1.0065249
18	0x3f8001f9	1.0000602
19	0x3f7f1f47	0.996571
20	0x3f805604	1.002625
21	0x3f805101	1.002472
22	0x3f7e5c79	0.9935985
23	0x3f804928	1.0022326
24	0x3f7ecfa4	0.99535584
25	0x3f814049	1.0097743
26	0x3f80d6c5	1.0065542
27	0x3f7f45f0	0.9971609
28	0x3f80d639	1.0065376
29	0x3f7ebc1a	0.9950577
30	0x3f8018cd	1.0007569
31	0x3f7b6445	0.98199874

weight_function_network.initial_cnn.12.bias f4 [32]
0	0xbc5e09ea	-0.013552168
1	0xbc24ee7f	-0.0100666275
2	0x3c131d42	0.008979144
3	0xbc36c256	-0.011154732
4	0xbbae7133	-0.005323553
5	0xbc12cf1d	-0.0089605125
6	0xbc47311e	-0.012157707
7	0xbbc000fe	-0.0058594933
8	0xb9e0e2d5	-0.00042893612
9	0xbb4f043a	-0.0031588213
10	0x3af1b2c4	0.0018440117
11	0xbbf9805e	-0.0076141795
12	0x39957607	0.00028507432
13	0xbc1a6558	-0.009423576
14	0xbc7164ae	-0.014733477
15	0x3bf4223e	0.007450371
16	0x3bb046b7	0.0053795236
17	0x3b4c9a04	0.003121973
18	0xbb865fe3	-0.004100786
19	0xbcc5bad7	-0.024136944
20	0x3a50613b	0.0007949059
21	0xbc08c679	-0.008348101
22	0x3a9af79f	0.0011823064
23	0xbc4c1906	-0.012457138
24	0xbc0bafef	-0.008525833
25	0x3c18a3e7	0.009316421
26	0xb9b962b2	-0.00035359483
27	0xbbb9e877	-0.005673464
28	0xbc8509e8	-0.016240075
29	0xbbd4f79a	-0.006499243
30	0xbc206ec7	-0.009792036
31	0xbc994f62	-0.01871461

weight_function_network.initial_cnn.12.running_mean f4 [32]
0	0xbe577fc0	-0.21044827
1	0x3cf85d4c	0.030317925
2	0xbe9fdb99	-0.31222227
3	0x3ef5a984	0.47980893
4	0x3df27f18	0.118406475
5	0x3e1b9033	0.15191726
6	0x3d2752dc	0.040850505
7	0x3c647d21	0.013945849
8	0xbe2aaaf8	-0.16666782
9	0x3c549dba	0.012977058
10	0xb98d2a5b	-0.00026925173
11	0x3f02e889	0.5113607
12	0x3c1700e9	0.009216526
13	0x3daa051d	0.083017565
14	0xbdc14463	-0.09436872
15	0x3e6609a5	0.22464617
16	0xbe534947	-0.20633422
17	0xbec9d729	-0.39421967
18	0xbe88c415	-0.267121
19	0x3e881368	0.26577306
20	0xbe416e03	-0.18889622
21	0x3e248035	0.16064532
22	0x3d08e197	0.033418264
23	0x3eadf3a3	0.33974943
24	0xbe6c0535	-0.23048861
25	0xbe610ca2	-0.21977475
26	0xbdfe8cda	-0.12429209
27	0x3d99b0c6	0.0750442
28	0x3e85ad2a	0.26108676
29	0x3e8e8d0d	0.27841988
30	0x3e0080cd	0.12549134
31	0x3d791ecf	0.060820397

weight_function_network.initial_cnn.12.running_var f4 [32]
0	0x3deab1b3	0.11459675
1	0x3d9205be	0.071300015
2	0x3e0966f7	0.13418184
3	0x3e1a0600	0.15041351
4	0x3e168981	0.14700891
5	0x3df58d91	0.11989892
6	0x3de396b7	0.11112731
7	0x3e1e6d7a	0.1547145
8	0x3e00f847	0.1259471
9	0x3da33e6f	0.07970893
10	0x3dc21a2b	0.094776474
11	0x3e1c1102	0.15240863
12	0x3e212e49	0.15740313
13	0x3dddc26d	0.108280994
14	0x3e368d4b	0.17827336
15	0x3e11bd4e	0.1423237
16	0x3dcd67d7	0.100295715
17	0x3e53f01f	0.20697068
18	0x3e2b9138	0.16754615
19	0x3e67eb93	0.22648458
20	0x3dea153b	0.11429831
21	0x3e10b13d	0.14130111
22	0x3ddd8a0f	0.10817348
23	0x3e132f0e	0.14373419
24	0x3dda4271	0.10657204
25	0x3e343240	0.17597294
26	0x3e10cff6	0.14141831
27	0x3ddf666b	0.109082066
28	0x3dcfe88b	0.10151776
29	0x3e4ee596	0.20204768
30	0x3e5106b0	0.20412707
31	0x3e035996	0.12827143

weight_function_network.adaptive_layer.1.weight f4 [64, 32, 3, 3]
0	0x3b78a516	0.0037940196
1	0xbd38993f	-0.045068022
2	0xbd1601f9	-0.036622975
3	0xbc8f155e	-0.017466243
4	0xbd1faea7	-0.03898492
5	0xbbe3814d	-0.006942904
6	0xbc285e33	-0.010276365
7	0x3d07ed36	0.033185206
8	0xbd3e35cc	-0.046438023
9	0x3d074e6a	0.033033766
10	0x3c90aea2	0.017661396
11	0x3d243fe3	0.04009999
12	0x3d639fe4	0.055572405
13	0x3cf77371	0.030206414
14	0xbce17bb3	-0.027524805
15	0x3d00dbd4	0.031459644
16	0x3d10716e	0.035264425
17	0x3d390732	0.045172878
18	0xbcf483a8	-0.029847935
19	0xbd54c358	-0.051944107
20	0xbc700a24	-0.014650855
21	0xbd29a577	-0.041417565
22	0xbc6005f7	-0.013673297
23	0xbd4f61f5	-0.05063053
24	0x3c0cda80	0.008597016
25	0x3c9dc0fe	0.019257065
26	0x3d04ffb1	0.03247041
27	0xbceca05a	-0.028885055
28	0xbd68b504	-0.056813255
29	0xbc042cfc	-0.008067366
30	0x3d05b063	0.03263892
31	0x3d059b3e	0.032618754
32	0x3d25c4eb	0.040471
33	0x3d2b59a3	0.04183353
34	0x3ce56c99	0.028005885
35	0x3c72ab99	0.01481142
36	0x3d302681	0.04300547
37	0xbc38fca5	-0.011290704
38	0xbc98587d	-0.018596882
39	0x3d25076a	0.040290274
40	0xbc684d51	-0.01417859
41	0x3c372027	0.011177099
42	0x3add6848	0.001689204
43	0x3d6d1a73	0.057886552
44	0x3d3a68fe	0.045510285
45	0x3c516db0	0.012782499
46	0xbc1d76d7	-0.009610853
47	0xbd0c95d9	-0.034322593
48	0xbd486505	-0.048924465
49	0x3c8f0b99	0.017461585
50	0x3d324eb3	0.043532085
51	0x3c422d60	0.011851639
52	0xbbd0281b	-0.006352437
53	0x3c933699	0.01797037
54	0xbd1964b9	-0.037449572
55	0x3d3e4c98	0.046459764
56	0x3d818868	0.063248456
57	0x3bbf3ac8	0.0058358647
58	0x3b6b84fc	0.003593742
59	0xbd20c1be	-0.039247267
60	0x3c5fbbe5	0.013655637
61	0x3c53be18	0.01292374
62	0xbc745300	-0.014912367
63	0xbd33e12c	-0.043915913
64	0x3d0f0a0f	0.034921702
65	0xbd0b6c09	-0.034038577
66	0x3d57f225	0.05272116
67	0x3d603cab	0.054745357
68	0xbd24b00c	-0.040206954
69	0xbcce0844	-0.025150426
70	0x3cf3f964	0.029782005
71	0x3d1ec812	0.03876502
72	0x3d7c492b	0.061593216
73	0x3d51ad15	0.051190455
74	0x3d735cdd	0.059414733
75	0x3d507fac	0.050903007
76	0x3d6c9c0c	0.057766005
77	0x3d782551	0.060582463
78	0x3d77dec2	0.060515173
79	0xbd4484d7	-0.04797825
80	0x3a763c21	0.0009393115
81	0x3bd70603	0.006561996
82	0x3d13b389	0.03605989
83	0x3d1a623b	0.037691336
84	0x3b44cb4c	0.00300284
85	0xbc72a71d	-0.014810351
86	0x3d280888	0.04102376
87	0x3cadbf30	0.02120933
88	0xbd5d24d5	-0.053990204
89	0x3cd4a98b	0.02595975
90	0x3cbcc31e	0.023042258
91	0xbd015fc0	-0.031585455
92	0x3c785fbe	0.0151595455
93	0xbc3ba4d7	-0.011452875
94	0x3c9f5c03	0.019453054
95	0x3d6a656c	0.05722563
96	0x3cd36b39	0.025807964
97	0x3c8cfb60	0.017209709
98	0xbaca1bba	-0.001541964
99	0xbd2101de	-0.03930842
100	0xbc52ed4e	-0.012873961
101	0xbd7fe3db	-0.06247316
102	0x3d307962	0.04308451
103	0xbc8870d8	-0.01665537
104	0xbc9d5ab6	-0.019208293
105	0xbba92582	-0.005161942
106	0xbd309b8c	-0.04311709
107	0x3d1c024b	0.038088124
108	0x3bc51e9e	0.0060156127
109	0x3cdfdb22	0.02732617
110	0xbd71a3b6	-0.058994018
111	0x3d1494c3	0.036274683
112	0x3b035e13	0.0020045086
113	0xbd8a308e	-0.06747542
114	0x3c2aa197	0.010414503
115	0x3ceba418	0.02876477
116	0x3d338dd1	0.04383642
117	0x3d4a29cc	0.049356267
118	0x3d84c736	0.06483309
119	0xbd156307	-0.036471393
120	0xbc93e78f	-0.018054752
121	0x3d264318	0.04059133
122	0xbbf9fa0a	-0.007628684
123	0x3d10739c	0.035266504
124	0x3d5f991f	0.054589387
125	0x3cd77d15	0.026304761
126	0x3d078e47	0.03309467
127	0xbd75ab94	-0.059978083
128	0x3c3d705a	0.011562431
129	0x3ccaf8a8	0.024776772
130	0x3bddf953	0.0067741065
131	0x3c80534b	0.015664717
132	0x3d21447c	0.039371952
133	0x3d3c5628	0.045980603
134	0x3d14b89e	0.036308877
135	0x3d5e3e70	0.054258764
136	0xbd4b86b7	-0.04968902
137	0xbd32d7a0	-0.043662667
138	0xbd155057	-0.03645357
139	0x3cd0c4e3	0.025484508
140	0x3d696aac	0.056986496
141	0xbca3b377	-0.019983036
142	0x3b2b5654	0.0026143985
143	0xbd298b5d	-0.041392673
144	0xbd2bf82f	-0.041984733
145	0x3d358ee3	0.04432572
146	0xbbb58243	-0.00553921
147	0x3b0bbfb9	0.0021323992
148	0xbd4dde75	-0.05026098
149	0x3c30da22	0.010794194
150	0xbc6c7b3f	-0.014433681
151	0xbd1885de	-0.03723704
152	0x3d1351ae	0.035966568
153	0xbc9335d2	-0.01797
154	0xbcacb470	-0.021082133
155	0x3d08cd70	0.033399045
156	0xbd60f400	-0.054920197
157	0xbd41cd25	-0.04731478
158	0x3d3d38e8	0.04619685
159	0xbd0894bc	-0.03334497
160	0xbd47cd46	-0.04877975
161	0x3d3c5359	0.045977924
162	0x3c888560	0.01666516
163	0xbc53b52e	-0.012921615
164	0x3d0da1bd	0.034578074
165	0x3cd52026	0.026016306
166	0xbd43e97c	-0.04783009
167	0x3cb6a049	0.022293227
168	0x3d1c0972	0.038094945
169	0xbbe2a30a	-0.0069164084
170	0xbd7cabe5	-0.06168737
171	0x38825897	6.215384e-05
172	0x3c761f42	0.015022101
173	0xbd9fcc17	-0.07802599
174	0xbcbb9273	-0.02289698
175	0x3ca58702	0.020205978
176	0xbd83cb2f	-0.064352386
177	0xbb08fd79	-0.0020903035
178	0xbd3279d2	-0.04357321
179	0xbd06c17a	-0.032899357
180	0xbd39463d	-0.045233
181	0x3d4c25fd	0.049840916
182	0xbd6f6d51	-0.05845386
183	0x3d34b685	0.044119377
184	0x3b941af3	0.004519814
185	0xbc07c8fd	-0.008287665
186	0x3d47d6eb	0.048788946
187	0xbb47e6fc	-0.0030502668
188	0xbd36d765	-0.04463901
189	0xbd0237d2	-0.031791516
190	0x3d3e55fc	0.04646872
191	0xbc336b61	-0.010950894
192	0x3b9f9143	0.0048696115
193	0x3b6f08c2	0.0036473726
194	0xbd029358	-0.0318788
195	0xbccc5a05	-0.024945268
196	0x3c16fe1d	0.009215859
197	0x3c97f808	0.018550888
198	0xbccc5b61	-0.024945917
199	0x3d11464c	0.03546743
200	0xbd3e087d	-0.046394814
201	0xbd384c9f	-0.044994947
202	0x3d157e1e	0.036497228
203	0x3d347bed	0.044063497
204	0x3d45e303	0.0483122
205	0x3d14c0df	0.03631675
206	0xbce522b0	-0.027970642
207	0xbc87e7a0	-0.01658994
208	0xbccad3b5	-0.024759153
209	0xbd23e012	-0.040008612
210	0xbd386359	-0.04501662
211	0x3d60df6d	0.054900575
212	0x3d6021d4	0.05471976
213	0xbc185876	-0.0092984345
214	0x3d2eed57	0.042706814
215	0xbd1ffe10	-0.039060652
216	0xbd251378	-0.04030177
217	0xbd88f0a9	-0.06686527
218	0xbd7000a6	-0.05859437
219	0xbd85f0e4	-0.06540087
220	0x3b784158	0.0037880745
221	0x3d213f2e	0.039366893
222	0xbcbea004	-0.02326966
223	0xbc1c1653	-0.009526807
224	0x3d0fd0c9	0.035111222
225	0x3c6d5e93	0.01448788
226	0x3c6c7ca0	0.01443401
227	0x3cd06d17	0.025442643
228	0x3b75e8d8	0.003752282
229	0x3d6884be	0.056767218
230	0xbc0804a2	-0.008301886
231	0xbcc5c15a	-0.024140049
232	0xbd3ba80e	-0.045814566
233	0xbca116d8	-0.019664213
234	0xbd1beebd	-0.038069475
235	0x3a08124a	0.00051907136
236	0xbd571c0f	-0.052516993
237	0x3aadff4e	0.0013274939
238	0xbd22f8ac	-0.039787933
239	0x3bf52fbd	0.0074824975
240	0xbcc9a58f	-0.024615077
241	0xbd14b0d1	-0.036301438
242	0xbd6dee4b	-0.058088582
243	0x3d6c8feb	0.05775444
244	0xbd23d092	-0.03999383
245	0xbd65adc7	-0.05607393
246	0x3d545b97	0.05184516
247	0xbd1f344a	-0.038868226
248	0x3c3d5ed7	0.011558256
249	0xbd233ed2	-0.039854832
250	0xbd3dfbb9	-0.04638264
251	0xbd0cc00a	-0.03436283
252	0xbd3f1e7b	-0.046659928
253	0xbbbfedab	-0.0058571897
254	0x3d24a2d9	0.040194366
255	0xbd462b01	-0.048380855

weight_function_network.adaptive_layer.1.bias f4 [64]
0	0xbcaedbd2	-0.021345053
1	0x3d3e269b	0.046423536
2	0xbd537ea5	-0.05163445
3	0x3d0696fb	0.03285883
4	0xbc37bbce	-0.01121421
5	0xbadabefb	-0.0016688997
6	0x3d2a8768	0.04163304
7	0xbd0a7f26	-0.033812664
8	0x3d0e6b2f	0.034770187
9	0x3d46894f	0.04847079
10	0x3cd09d1d	0.025465542
11	0x3c66c334	0.014084626
12	0x3ad6e133	0.0016394019
13	0xbbc74a62	-0.006081865
14	0xbd1cdb95	-0.038295347
15	0xbd67e154	-0.056611374
16	0xbd333033	-0.04374714
17	0xbd286552	-0.04111225
18	0x3cf0905a	0.029365707
19	0x3d2987b0	0.041389167
20	0xbd45eceb	-0.048321646
21	0xbd0b7dbf	-0.034055468
22	0x3d709161	0.058732394
23	0xbbfe16d3	-0.0077541857
24	0xbcb27f41	-0.021789195
25	0xbd4a6ad8	-0.0494183
26	0xbd0485a2	-0.032354005
27	0xbd2f83e1	-0.04285038
28	0x3d1224b2	0.035679527
29	0xbc0a0129	-0.008423128
30	0xbd655743	-0.055991422
31	0x3c7ae96b	0.01531444
32	0xbce52c48	-0.027975217
33	0x3d0f3857	0.03496584
34	0x3c6fd784	0.014638785
35	0xbd66c70c	-0.05634217
36	0xbcdcf95f	-0.026974378
37	0xbcd2f91e	-0.025753554
38	0x3c1c0e91	0.009524957
39	0x39d98a1d	0.00041492368
40	0x3d62823a	0.055299975
41	0x3d4ff601	0.050771717
42	0xbccfbe51	-0.025359305
43	0x3d51351d	0.051076043
44	0xbd081a0b	-0.03322796
45	0x3c0d2860	0.008615583
46	0xbc0efb07	-0.008726842
47	0xbca972d7	-0.020684643
48	0xbd6607ba	-0.056159712
49	0x3d6d3dd1	0.05792028
50	0x3c34a516	0.011025688
51	0xbc84aa8e	-0.016194608
52	0x3cfa5943	0.030560141
53	0xbce54f7e	-0.027992006
54	0xbcb428d6	-0.021992128
55	0x3c1a75df	0.009427517
56	0xbc4c53ad	-0.012471122
57	0x3d5c3715	0.053763468
58	0x3d69811b	0.05700789
59	0xbd122422	-0.03567899
60	0x3cc7eaa4	0.024403878
61	0xbc31bf46	-0.010848826
62	0x3d2e9e43	0.0426314
63	0xbd3ce888	-0.046120197

weight_function_network.adaptive_layer.2.weight f4 [64]
0	0x3f80c7f4	1.0061021
1	0x3f7f2310	0.99662876
2	0x3f7c36d7	0.9852118
3	0x3f80ce81	1.006302
4	0x3f80dc3c	1.006721
5	0x3f7d1f17	0.98875564
6	0x3f7c4cd5	0.98554736
7	0x3f7ff495	0.9998258
8	0x3f7e9e55	0.99460346
9	0x3f7feaf3	0.9996788
10	0x3f805665	1.0026366
11	0x3f7cbdfc	0.98727393
12	0x3f80d120	1.006382
13	0x3f802303	1.0010685
14	0x3f7cf74e	0.98814857
15	0x3f7da700	0.99082947
16	0x3f7dbbf6	0.9911493
17	0x3f79a2b4	0.9751389
18	0x3f7e7268	0.9939332
19	0x3f7d8537	0.99031395
20	0x3f7fd196	0.9992918
21	0x3f80358f	1.0016345
22	0x3f7d6637	0.9898409
23	0x3f7d6b5b	0.98991936
24	0x3f7f3deb	0.99703854
25	0x3f7bdc47	0.9838299
26	0x3f81b41c	1.013309
27	0x3f7d41d8	0.98928595
28	0x3f7d5a6a	0.98966086
29	0x3f80a426	1.0050094
30	0x3f81c00b	1.0136732
31	0x3f80a270	1.0049572
32	0x3f7f0cd4	0.9962895
33	0x3f81d6a6	1.014363
34	0x3f810a74	1.0081315
35	0x3f7d9c3f	0.9906654
36	0x3f7de989	0.9918447
37	0x3f7f1936	0.99647844
38	0x3f80f383	1.0074314
39	0x3f7f7104	0.99781823
40	0x3f8098ef	1.0046672
41	0x3f82ac7c	1.0208888
42	0x3f80aef2	1.0053389
43	0x3f80416f	1.0019969
44	0x3f7f6e7a	0.9977795
45	0x3f7e5ffe	0.9936522
46	0x3f803e15	1.0018946
47	0x3f7d8b47	0.99040645
48	0x3f7c4ea3	0.9855749
49	0x3f7fd228	0.9993005
50	0x3f7b949d	0.9827364
51	0x3f805470	1.0025768
52	0x3f804246	1.0020225
53	0x3f7da41d	0.9907854
54	0x3f81b877	1.0134419
55	0x3f80d538	1.0065069
56	0x3f801101	1.0005189
57	0x3f7ca568	0.9868989
58	0x3f811389	1.0084087
59	0x3f803b9f	1.0018195
60	0x3f803570	1.0016308
61	0x3f80f4d4	1.0074716
62	0x3f806161	1.0029718
63	0x3f7cc241	0.9873391

weight_function_network.adaptive_layer.2.bias f4 [64]
0	0xbc2e8c95	-0.010653635
1	0xbc410437	-0.01178079
2	0xbc5faae6	-0.013651585
3	0x3a61bc10	0.00086110923
4	0xbc0e70de	-0.008693902
5	0xbc0576db	-0.008146013
6	0xbc76371c	-0.015027788
7	0xbc6c3e03	-0.014419082
8	0xbbe0cad6	-0.0068601174
9	0xbc18d6ac	-0.0093285255
10	0x3adb549f	0.0016733593
11	0xbc1a3423	-0.009411844
12	0xbc171497	-0.009221218
13	0xbb15010d	-0.0022736222
14	0xbc7ef417	-0.015561125
15	0xbb632c87	-0.0034663992
16	0xbb571b69	-0.0032822734
17	0xbc9c48ef	-0.019077746
18	0xb9c9a399	-0.00038459597
19	0xbcadb848	-0.021206036
20	0xbc78aaf4	-0.015177477
21	0x3ab6788f	0.0013921427
22	0xbc609957	-0.013708434
23	0xbc5608a8	-0.013063587
24	0xba9eef68	-0.0012125792
25	0xbcce3448	-0.025171414
26	0xbb1b4447	-0.002369182
27	0xbcb6556d	-0.022257531
28	0xbc1fd31a	-0.00975492
29	0xbc1b29f0	-0.009470448
30	0xbaf31b98	-0.0018547652
31	0x3c2f73db	0.010708774
32	0xbc10dfd1	-0.0088424245
33	0xbb99dfa4	-0.0046958495
34	0xbc823019	-0.015892075
35	0xbcacd4de	-0.021097597
36	0xbc2b3f98	-0.010452174
37	0xbc7473c6	-0.014920181
38	0x3bacd9ad	0.0052749724
39	0xbbc87c49	-0.0061183316
40	0xbb8dd996	-0.004328917
41	0xbaa2c833	-0.0012419283
42	0xbb1e0575	-0.002411214
43	0x3a9f7a95	0.001216727
44	0xbcc3da2d	-0.023907745
45	0xbb9d63c8	-0.0048031546
46	0xbbe0ab06	-0.006856325
47	0xb9e21a28	-0.00043125567
48	0xb9607ee9	-0.00021409582
49	0xbb2e06c0	-0.0026554316
50	0xbc82ca20	-0.015965521
51	0xbb0ae61d	-0.0021194287
52	0x39c65321	0.0003782744
53	0xbadac569	-0.0016690913
54	0xbb90658d	-0.004406637
55	0xbc062e1c	-0.008189704
56	0xbb86a2b9	-0.0041087535
57	0xbc8d0066	-0.017212104
58	0xbb93acbb	-0.004506675
59	0x3bfd08f4	0.0077220146
60	0xbb946e31	-0.0045297374
61	0xba6b49c1	-0.0008975529
62	0xbc78bdc3	-0.0151819615
63	0xbc9c5d8b	-0.019087574

weight_function_network.adaptive_layer.2.running_mean f4 [64]
0	0x3ded8155	0.11596934
1	0x3f054d06	0.52070653
2	0xbeacc24b	-0.33741984
3	0x3de0c24e	0.10974561
4	0xbd1972df	-0.037463065
5	0xbe509fb1	-0.20373417
6	0x3eadd981	0.33955005
7	0xbdef7964	-0.11693075
8	0xbddbcd9f	-0.107325785
9	0x3d551cb6	0.052029334
10	0x3f0314d8	0.5120368
11	0x3dace0f3	0.08441343
12	0xbbd99f16	-0.006641279
13	0x3f1a01ee	0.60159194
14	0x3e84c2a6	0.25929755
15	0xbe98e9b6	-0.29865807
16	0xbe659ed1	-0.22423865
17	0xbe317438	-0.1732949
18	0x3eb7b674	0.35881388
19	0x3e8c571a	0.27410203
20	0x3e2024e0	0.15639067
21	0xbed3c7ec	-0.41363466
22	0x3eee9ed4	0.4660555
23	0xbc0c6f34	-0.008571435
24	0xbdc9f5e1	-0.09861351
25	0x3e06fd50	0.13182569
26	0xbf330f2c	-0.69945025
27	0xbce8530b	-0.02835991
28	0xba470205	-0.00075915485
29	0x3e982daa	0.2972234
30	0xbcb8adae	-0.022543754
31	0x3ec95fb9	0.39330843
32	0x3ec17113	0.3778158
33	0xbe1a2020	-0.15051317
34	0xbe2dac20	-0.16960192
35	0x3eb5181d	0.3536996
36	0xbe896150	-0.26832056
37	0x3e88aaf2	0.2669292
38	0x3b253423	0.0025208078
39	0xbf1fa282	-0.6235734
40	0x3ee73921	0.45160773
41	0x3f2b642e	0.6694974
42	0xbee74818	-0.4517219
43	0xbf15913b	-0.5842473
44	0x3e8a1dc1	0.26975825
45	0x3e5fcf3e	0.218564
46	0x3f01b90e	0.50672996
47	0xbea9867d	-0.3311042
48	0x3ec04308	0.3755114
49	0xbe248e70	-0.1606996
50	0xbd64de72	-0.055876203
51	0x3e84ac96	0.25912923
52	0x3e121841	0.14267065
53	0x3e1ebd6f	0.1550195
54	0x3e80fbc2	0.25192076
55	0x3e9fd35f	0.3121595
56	0xbe812579	-0.25223902
57	0xbd8fc28a	-0.07019527
58	0x3e9dbb00	0.30806732
59	0xbe196b5b	-0.14982359
60	0xbe9f1dd0	-0.31077433
61	0xbdb81042	-0.08987476
62	0x3ee9aa94	0.45637953
63	0x3e9180e6	0.28418654

weight_function_network.adaptive_layer.2.running_var f4 [64]
0	0x3e34b974	0.1764887
1	0x3e41b75d	0.18917604
2	0x3e0c2807	0.13687144
3	0x3dee3b9d	0.11632464
4	0x3e1db790	0.15402055
5	0x3e1657c8	0.14681923
6	0x3e22c293	0.15894537
7	0x3e27719c	0.16351932
8	0x3e47cb5b	0.19511168
9	0x3e56f623	0.20992331
10	0x3ea72301	0.32643893
11	0x3e4a2d7e	0.19743916
12	0x3e250820	0.1611638
13	0x3e89d2a9	0.26918533
14	0x3e093a10	0.13401055
15	0x3e420fb0	0.18951297
16	0x3e6675a7	0.22505818
17	0x3e0a24ee	0.1349065
18	0x3edc1aac	0.429891
19	0x3e6492e7	0.22321664
20	0x3e10f39f	0.14155434
21	0x3e6155cd	0.22005387
22	0x3e4470b2	0.19183615
23	0x3dfde7ec	0.12397751
24	0x3df534a8	0.11972934
25	0x3e47ce53	0.195123
26	0x3e6bcd6f	0.23027585
27	0x3e00b95c	0.12570709
28	0x3eafa666	0.3430664
29	0x3e1edfd7	0.15515076
30	0x3e11744d	0.14204521
31	0x3e71eb87	0.23625003
32	0x3e696665	0.22792967
33	0x3e164947	0.1467639
34	0x3e3834f4	0.1798895
35	0x3e2425ee	0.16030094
36	0x3e22c987	0.15897189
37	0x3e5bdc2c	0.21470708
38	0x3e0a456b	0.13503043
39	0x3e50b90c	0.2038309
40	0x3e3bdc05	0.1834565
41	0x3e61bf96	0.2204574
42	0x3e4e7ca5	0.20164736
43	0x3e8145ac	0.25248468
44	0x3e2c5d55	0.16832478
45	0x3e26c97a	0.16287795
46	0x3e8040ce	0.25049442
47	0x3e1de811	0.15420558
48	0x3e1f95f6	0.1558455
49	0x3e4e7010	0.20159936
50	0x3e5087e5	0.2036434
51	0x3e2a37a9	0.16622795
52	0x3ddecc6b	0.108788334
53	0x3e7aed83	0.24504666
54	0x3e3102fe	0.17286298
55	0x3e732cbe	0.23747537
56	0x3e1c987d	0.15292545
57	0x3e58014a	0.21094242
58	0x3e24301b	0.16033976
59	0x3df98890	0.1218425
60	0x3e117f93	0.14208822
61	0x3e3ada16	0.18247256
62	0x3e764528	0.24049819
63	0x3e473216	0.194527
