logs/测试学习率策略对训练准确度与稳定性的影响/model.lr=0.001scheduler.MultiStepLR.milestones=[10, 20, 30]scheduler.MultiStepLR.gamma=0.1/test_model_20250418_120521.pth (torch, 193285 bytes, 32 tensors)

weight f4 [128, 1]
000000 17 fb 7a be 4a e9 45 3f 35 46 8e bf 97 4a a3 3e
       -0.24509846 0.77309096 -1.1115175 0.31892845
000010 d3 a2 5f bf 14 38 5d bf 8f 12 90 bf 9b 89 9a bf
       -0.87357825 -0.86413693 -1.1255664 -1.2073244
000020 e8 99 ad be 10 9e 85 bf cb 34 08 3f 73 3b 4d bf
       -0.33906484 -1.0438862 0.53205556 -0.8016884
000030 75 43 26 3f 4d 63 7e bf 90 ff d8 be c0 06 99 3c
       0.6494668 -0.9937027 -0.4238248 0.018679976
000040 48 18 82 3e fd 9e 91 3f 1b 01 33 3e 43 cd 29 3e
       0.2540915 1.1376644 0.1748089 0.16582207
000050 32 d4 56 bf db 86 e2 3e 6c af 38 bf e9 8a 2a bf
       -0.83917534 0.44243512 -0.7214267 -0.6661821
000060 3c 49 99 bf c0 7c b4 3c 2d 1b 46 3f 7c 4f 7f bf
       -1.1975474 0.022032142 0.77385217 -0.9973066
000070 c0 f6 e2 3d 45 b7 37 3f af b9 74 bf 87 a4 88 3f
       0.1108222 0.7176402 -0.9559583 1.067521
000080 91 77 03 3e fc f7 75 3f c4 35 ee bd 00 40 be bb
       0.1283858 0.9608152 -0.11631349 -0.0058059692
000090 8c 3a 04 bf 80 7a 34 3e 10 a4 78 be d0 ca 03 3e
       -0.51651835 0.17624855 -0.24281335 0.12870336
0000a0 c0 ce a5 bd 5e 38 58 3f f0 51 a0 bd 24 5a e7 3e
       -0.08096075 0.8446101 -0.07828128 0.4518596
0000b0 5e 59 4a bf 56 d1 09 3f 52 cf 81 bf 48 99 45 3e
       -0.79042614 0.53835046 -1.0141394 0.19296753
0000c0 a4 88 88 3e 5c ac 04 bf 2e 77 b1 be 58 e5 40 bf
       0.2666675 -0.518255 -0.3466124 -0.7534995
0000d0 4b 50 a1 bf 9c 57 f4 3e c0 3a 50 3e e0 70 ae 3d
       -1.2602628 0.4772309 0.20334911 0.08517623
0000e0 78 cf e6 be 8c ab 35 3f 88 71 8f bf f0 35 13 3d
       -0.4508016 0.70964885 -1.1206522 0.03594011
0000f0 c4 23 8b bf a5 10 7b bf e0 d0 6d bf 0d 86 5d 3f
       -1.087029 -0.9807227 -0.9289684 0.8653267
000100 cb d9 44 bf 8c 49 4c bf 3a 24 18 bf a1 48 28 3f
       -0.76894826 -0.79799724 -0.5943028 0.6573582
000110 9f a0 9d 3e 6f 23 3a 3f 9d 6e 4b bf e8 21 a4 be
       0.30786607 0.7271032 -0.7946566 -0.32057118
000120 f0 c8 a7 3e cd 54 e5 be 6f ca 57 3e 45 f1 4a 3e
       0.3277049 -0.4479126 0.21073316 0.198186
000130 c2 35 34 bf 6e eb 96 bf 01 d3 92 bf f2 f6 14 bf
       -0.7039453 -1.1790597 -1.1470643 -0.5818931
000140 b1 20 74 bf 0f ed a6 bd 81 96 a2 3e 5b fe 82 bf
       -0.95362383 -0.08150684 0.3175545 -1.0233873
000150 77 81 58 3f a0 45 5f be 18 a6 b4 3e 4c 89 2c bf
       0.8457255 -0.21803904 0.3528297 -0.67397
000160 b0 8d 95 3d b5 e5 8a bd 00 8b 56 bc 40 e0 02 3d
       0.07302415 -0.067820944 -0.013094664 0.031952143
000170 00 22 8b 3f 54 de 5a bf 9c 10 45 bf 6c 1c 8e bf
       1.0869751 -0.85495496 -0.7697847 -1.1102424
000180 9a 96 8a bf 97 d5 1d 3f 24 eb dc 3e a4 db ef be
       -1.082721 0.6165404 0.43148148 -0.4684726
000190 53 ed 0f bf c4 ad 73 3f c9 aa c8 3e 6c d0 68 3f
       -0.56221503 0.9518702 0.391928 0.90943027
0001a0 df 87 88 3e cf f7 2b 3f 87 d8 8c bf 79 32 23 3f
       0.2666616 0.67175 -1.1003579 0.6374889
0001b0 43 9f 3a 3f 7f c5 ac 3e 5e 79 49 bf df 0d 66 bf
       0.72899264 0.33744428 -0.78700817 -0.89864916
0001c0 30 f9 61 3e 60 90 ef be ad bc 6b bf 70 7d 92 bf
       0.22067714 -0.46789837 -0.9208477 -1.144453
0001d0 dd d5 8e bf f4 a6 58 3e 7d 11 82 bf b0 a9 b6 3e
       -1.1159016 0.21157438 -1.0161587 0.35676336
0001e0 0b fe 6d bf d0 bc f0 be 06 89 24 bf 9f ab 4f bf
       -0.92965764 -0.47019053 -0.6427158 -0.8112125
0001f0 fa 0e ff 3d 35 f1 e8 3c 1e d0 28 bf 43 b0 cb bd
       0.124540284 0.028435329 -0.6594256 -0.09945729

bias f4 [128]
000000 65 04 7b 3e 02 92 5d 3f 2b a2 42 3c 56 aa 26 3e
       0.24513395 0.86550915 0.011879484 0.16275916
000010 91 16 63 3f 48 17 73 bf c0 96 dc b9 6a 38 b9 be
       0.8870631 -0.949574 -0.00042073987 -0.36175853
000020 f6 e3 68 bf b8 05 b4 be 82 02 52 3f ce 45 66 3f
       -0.9097284 -0.35160613 0.82035077 0.89950264
000030 7e a9 1d 3f 27 9f d5 be b0 1c 4e bf fc 26 13 bf
       0.6158675 -0.41722986 -0.80512524 -0.5748136
000040 06 21 12 bf 36 56 1c bf 1a a8 20 3e d8 85 2c 3f
       -0.5708164 -0.6106905 0.15689126 0.6739173
000050 90 6a 67 3f d2 80 16 3e 46 2d 52 39 10 de 4b 3e
       0.90396976 0.14697579 0.00020044026 0.19908929
000060 20 ae cb 3d f8 8a 37 bf e5 22 47 bf 7a fd 1e 3b
       0.09945321 -0.71696424 -0.7778762 0.002425997
000070 f8 b1 23 be 6d ae d1 3e bc bf c1 be 1f 1f b6 be
       -0.15985858 0.4095339 -0.37841594 -0.3557062
000080 c0 4b 2f bd d6 75 c1 bc 64 18 6a 3f f0 b3 50 bf
       -0.04279685 -0.023615759 0.9144347 -0.8152456
000090 82 e5 28 bf 20 11 a9 be 52 78 21 3f 48 7f de be
       -0.659752 -0.33020878 0.6307422 -0.43456483
0000a0 ec e8 eb be 1b 7c a3 3d 10 fb c5 be 30 8e 33 bf
       -0.46076143 0.079826556 -0.38668108 -0.70138836
0000b0 b6 9d dc bb 94 6e 48 bf 57 f5 ac 3e dc 2f b4 be
       -0.006732668 -0.7829373 0.3378093 -0.35192764
0000c0 d6 82 00 bf 86 d9 63 3f 5c 2f 47 3d 61 8d 80 3e
       -0.5019964 0.8900379 0.04862915 0.25107864
0000d0 13 18 d7 3e 04 89 78 bf ca 47 46 bf 4c 83 9c be
       0.42010555 -0.9708407 -0.7745329 -0.30568922
0000e0 66 92 21 bf 94 77 62 bf 4e c0 c6 bc de 6c 3b 3f
       -0.6311401 -0.8846371 -0.02426162 0.73212993
0000f0 4c 75 b9 3e ca 57 a7 3e 8d 6c 46 3d a2 55 49 3f
       0.36222303 0.32684165 0.048443366 0.7864629
000100 f9 13 46 3d 48 34 0f bd 3d bc 1f 3f 1f 9e 68 3f
       0.04835889 -0.03496197 0.62396604 0.90866274
000110 b9 c6 12 3f 5e 48 82 3e c9 dd b2 3e 04 50 1e bf
       0.57334477 0.25445837 0.34934834 -0.61840844
000120 4c f0 45 bf 3a fb 4f 3f d7 be d6 3d e0 ed 7f 3f
       -0.7731979 0.81242716 0.104856186 0.99972343
000130 18 f7 21 bd 36 5d 04 bf 51 c9 c3 3e e3 5e 54 3f
       -0.039542288 -0.5170473 0.3823953 0.82957286
000140 a7 a5 99 be 0d 80 fb 3e b2 10 39 3f e9 70 1c 3f
       -0.30009195 0.49121132 0.722911 0.6110979
000150 01 9c 99 3d 08 a3 7e bf fc 86 5b bf 13 d7 2e 3c
       0.075004585 -0.99467516 -0.85752845 0.010671395
000160 08 d1 d7 be a1 a2 9a 3e 80 f8 a0 bc 18 57 7b bf
       -0.42151666 0.302022 -0.019649744 -0.9817977
000170 aa 08 cc be 0a d4 78 bf eb 5e 83 3e 38 8e 30 3f
       -0.3985036 -0.97198546 0.25658354 0.6896701
000180 e2 ca b8 3e 0c 73 52 be de 42 13 bf 60 62 20 bf
       0.36092287 -0.205517 -0.57523906 -0.6265011
000190 19 77 58 3c ee 23 a9 bd d2 a4 f5 3e 87 ff 1e 3f
       0.013211989 -0.08258806 0.4797731 0.62108654
0001a0 b0 3b 77 bd c0 1e e5 3e c9 ca bb 3e 2f 9d 59 be
       -0.060359657 0.44750023 0.3667815 -0.21251367
0001b0 90 c5 78 be b7 5e f8 3e 22 86 4d 3f 60 fc c4 3c
       -0.24294114 0.48509762 0.80282795 0.024046123
0001c0 60 74 82 be de 3e 0c bf 9e 4b 0b ba 13 93 83 3e
       -0.25479412 -0.5478343 -0.0005313697 0.25698146
0001d0 2c 91 31 3e 01 06 c8 3e a3 75 ad 3e a8 70 f3 bd
       0.17340535 0.3906708 0.33878812 -0.11886722
0001e0 83 a0 9e 3e c8 a9 05 bf 9d fc 5a 3e fe 32 ff 3e
       0.30981836 -0.5221219 0.21385427 0.4984359
0001f0 52 a5 df 3d 24 d0 57 3d 62 92 3f 3c c7 e3 40 3f
       0.10920204 0.052688733 0.011692615 0.7534756

weight f4 [8, 128]
000000 80 14 2c bb 30 dd 98 3d b7 69 0e 3d 5d 15 99 3d
       -0.0026257336 0.07464063 0.034768786 0.07474778
000010 9b 5a eb bd 86 cc 2d 3d 06 fc dd bc 2f 25 de bd
       -0.11491891 0.042431377 -0.027097713 -0.10846936
000020 da a0 6d 3d d9 8e c2 bd 67 e5 90 3d c8 4d e2 bd
       0.058014728 -0.09499902 0.07075005 -0.11049992
000030 75 6e 51 bd 33 1d 28 bd 4a 48 37 bd a4 c2 05 3d
       -0.05113073 -0.04104347 -0.044746675 0.032656327
000040 3e 57 95 bd b1 8e 64 3e 3f e2 a0 3d be fd ab 3d
       -0.07292031 0.22320057 0.07855653 0.08398007
000050 67 d8 3a bd bd 6f cc bc 00 fa ce bc 6c 16 77 3d
       -0.045616534 -0.024955625 -0.025265694 0.060324118
000060 a0 0a 1b bd 58 04 0d 3d 37 c9 08 bd a0 50 8d 3b
       -0.03785193 0.03442797 -0.03339502 0.0043125898
000070 bb 6e 92 bd 2c 3e c4 3c 5b 41 78 bd ea 72 fe 3c
       -0.071500264 0.023955427 -0.060609203 0.031060655
000080 37 45 64 bc 00 86 1b bb aa b7 85 3d a6 e6 5a 3d
       -0.013932518 -0.0023730993 0.06529172 0.05344262
000090 27 80 26 bd 7f ec 98 3d 72 b1 d0 bc 26 6e 05 3d
       -0.04064956 0.07466983 -0.025475238 0.03257575
0000a0 00 61 e3 3a b9 e9 dd 3d 07 83 8e 3d 60 a5 79 bb
       0.0017347634 0.10835595 0.06958585 -0.0038092956
0000b0 15 90 be bd d3 95 ab bd ac a7 00 3d c8 25 a8 bc
       -0.09304825 -0.08378186 0.031409904 -0.020525828
0000c0 7d f7 98 3d ec 2f 64 bd b5 c8 38 3d 69 f8 84 3d
       0.0746908 -0.055709764 0.045113284 0.06492693
0000d0 ea 7b 56 3d 58 e2 c0 bc f0 66 f6 3b f4 56 20 bd
       0.052364267 -0.02354543 0.0075195953 -0.039145425
0000e0 a4 cb ba bc c5 f6 84 3d be 27 03 3d f0 b6 d3 3d
       -0.022802182 0.0649238 0.032020323 0.10337627
0000f0 8c f5 9b bc ee e6 a0 bc ce 2c 9b bd d4 62 e5 3d
       -0.019037984 -0.019641366 -0.07576905 0.112004906
000100 c5 14 b4 bd 41 bc ad bd 9c da e9 bc 63 08 95 3d
       -0.08793024 -0.08483172 -0.028546624 0.0727699
000110 2d d6 cc 3d 5d 46 16 bd d1 b6 75 bd 10 29 7d bc
       0.10001788 -0.036688197 -0.0599888 -0.015451685
000120 a2 dc 43 3d f9 a2 d5 3c aa 53 67 3d 8e a7 d6 3d
       0.047817834 0.026078688 0.056476273 0.10481177
000130 f1 18 f4 bd bd 8e a1 bc 88 37 89 3d 1e 6c 3b 3a
       -0.1191882 -0.019721383 0.06700045 0.00071495946
000140 1b 94 a5 bd aa a9 93 bd 5c 8d 26 3d b7 23 6e 3d
       -0.080848895 -0.07210095 0.040662155 0.05813953
000150 e1 df 53 bd c8 55 45 3c f7 00 30 bd 3f d5 08 bd
       -0.05172718 0.012044378 -0.04296967 -0.033406492
000160 8e 37 18 3d d5 72 b3 ba 38 20 85 bd 76 02 89 bd
       0.037162356 -0.0013690839 -0.06500286 -0.066899225
000170 7c 0c d9 3d 06 9d 5e 3d 12 33 ae 3d e2 92 69 bd
       0.10598084 0.054348968 0.08505835 -0.057024844
000180 60 56 1b bb 14 23 26 3e a5 7c 1d bd a7 5d 83 3d
       -0.0023702607 0.16224319 -0.03844895 0.06414347
000190 ef 2c 9c bd d3 58 94 3d 8a 56 c9 bb 5c 6f 70 3d
       -0.07625758 0.072435044 -0.0061443495 0.05869995
0001a0 d9 69 38 bd 89 7a 8c 3c 5d 7c f1 3d 7c 32 90 3d
       -0.04502282 0.017148273 0.117912985 0.07040879
0001b0 ab 2c f0 3d 1f b8 10 bc 16 6b 18 3d 50 fe 88 bb
       0.1172727 -0.00883296 0.0372115 -0.004180707
0001c0 b5 8c 6d bd 68 ee a1 bc 46 47 e9 bd bf e3 4d bc
       -0.057995517 -0.019767001 -0.113905475 -0.012566506
0001d0 a2 bf 90 3d 7c 96 4f 3d 59 8e 33 3d cd 85 04 3e
       0.07067801 0.050680622 0.043836925 0.12941666
0001e0 b3 b6 ff bc d8 06 08 3d e4 c0 10 bd 65 18 a1 bd
       -0.031215047 0.03320965 -0.035340205 -0.07865981
0001f0 75 ff 3e 3b 66 db 60 3d 86 10 f5 bd fb bc eb 3c
       0.0029143963 0.054896735 -0.11966042 0.028776636
000200 13 ae 3a 3e ee dd 26 bd 72 81 d1 bd a3 e1 b2 bc
       0.18230467 -0.040738992 -0.10229768 -0.021836108
000210 59 93 9c 3d 25 78 a6 3d 43 18 0b be 8d 64 4f be
       0.07645292 0.081283845 -0.13583474 -0.20253201
000220 bc 8a c5 bc 3f a5 61 be 6a 93 58 3d f4 4a 3b 3d
       -0.024114005 -0.22035693 0.05287496 0.045725778
000230 89 68 d3 3d 9e dd f2 bd 29 b8 5c bd 92 6d 2b 3d
       0.10322673 -0.118586764 -0.053886566 0.04185254
000240 22 1f 19 3d 8b 3e 83 be eb 3b 37 bd 71 fd 27 3c
       0.037383206 -0.25633654 -0.044734877 0.010253296
000250 1c c9 4e 3d 6b 66 c2 bd cc 74 f4 bd 09 bb bd bd
       0.05048476 -0.09492191 -0.1193634 -0.0926419
000260 e1 c7 ea bc cb 6f 99 bd 70 63 43 3d 5b 5f d8 bd
       -0.028659763 -0.07492026 0.047702253 -0.105650626
000270 ec d3 91 bc 4f 9d 90 3b c5 bc 3c be bc 5a 9f bd
       -0.017801248 0.004413284 -0.18431385 -0.07780978
000280 1a c5 7d bd 00 a9 3a be 25 b2 cd 3d e6 41 73 bd
       -0.06195555 -0.18228531 0.10043744 -0.059389018
000290 7a e8 fa bc e8 cc a6 bd cb b6 b6 3d 32 25 ff bc
       -0.030628432 -0.081445515 0.08921584 -0.031145666
0002a0 65 8c a8 bd 63 e7 9c bd 27 b2 8f 3d e7 18 18 bd
       -0.08229903 -0.07661321 0.07016402 -0.037133124
0002b0 cf 7f 20 be 75 20 ae bd 27 92 52 3c 40 61 83 bd
       -0.15673755 -0.085022844 0.012852228 -0.06415033
0002c0 16 a3 2f 3d 57 c1 63 3c 48 02 d3 bd fe 9b f8 bc
       0.04288014 0.013901076 -0.103031695 -0.03034782
0002d0 f8 1c 0c 3c 80 67 77 3a 67 09 46 bd 91 8c a8 bd
       0.008551829 0.0009437725 -0.04834881 -0.08229936
0002e0 d2 95 15 3d d4 33 fe 3c ee f6 8d bd 54 af 9c bc
       0.036519833 0.031030573 -0.06931864 -0.019126572
0002f0 72 31 39 bd 96 86 ce bd 7a 16 a5 bd 93 62 3f 3d
       -0.04521317 -0.10084264 -0.08060928 0.046724867
000300 07 a6 27 be 57 a2 5c be 71 56 da 3d 50 ed b0 bc
       -0.16371928 -0.21546303 0.10661019 -0.021597534
000310 00 e2 01 bd 9a 28 82 bd b9 4b f8 3b c8 3c 91 bc
       -0.03170967 -0.063554004 0.007577386 -0.017729178
000320 a7 60 a7 bd 54 80 16 bc ca e7 66 3d 7d 26 e4 3d
       -0.08172732 -0.009185869 0.056373395 0.111401536
000330 4a cb 67 be 36 fb 25 be 54 66 4c 3c c3 95 d0 3c
       -0.22636142 -0.1620911 0.012475569 0.025462037
000340 39 5e b7 bd 94 af f2 bc 2b 95 96 3c bb e9 ad bc
       -0.089535184 -0.029624738 0.018381676 -0.021229615
000350 11 c9 99 bd f5 7c 92 3d 95 95 82 3d 05 e5 28 bd
       -0.075090535 0.0715274 0.06376187 -0.041234035
000360 77 0e 11 bd 75 8e ed 3c a0 3c 50 3b 2d e2 41 bd
       -0.035414185 0.028998593 0.0031774417 -0.04733484
000370 8b 66 42 be 0a 64 12 3d f4 00 17 bd 18 69 95 3d
       -0.1898443 0.035739936 -0.036866143 0.07295436
000380 c4 c8 bd 3d e6 59 84 be ba 05 34 bd e2 fb 40 bd
       0.09266809 -0.25849837 -0.043950774 -0.047115214
000390 b7 d1 59 be da 49 b3 bd 32 70 18 3c 1e 0a 1b 3d
       -0.21271406 -0.087543204 0.009304093 0.037851445
0003a0 dc de d0 ba 74 92 26 3d 02 c7 44 bd 95 34 f6 bd
       -0.0015935558 0.040667012 -0.04804135 -0.12021748
0003b0 f0 8b 18 be b1 bb 72 3d 7a a7 18 3d 21 10 3e bd
       -0.14897132 0.059261028 0.037269093 -0.0464021
0003c0 d6 f6 67 3d b7 d4 ac 3d 58 57 09 be 68 c6 af bd
       0.056631885 0.0843901 -0.13412225 -0.08582765
0003d0 b0 2f 1e bd 13 e8 94 3d cf cf 1a bd 4f 96 77 bd
       -0.038619697 0.07270827 -0.037795838 -0.06044608
0003e0 4b dd a5 bd 1d 69 9d bd d2 b3 a8 3d 8b 35 f1 bc
       -0.08098849 -0.076860644 0.08237423 -0.029444477
0003f0 25 cd 8c 3c c0 7f cc bc f7 37 52 be 7a 99 05 bd
       0.017187664 -0.02496326 -0.20529161 -0.03261707

bias f4 [8]
000000 ec e8 9e 3d a3 84 c9 3d 63 e7 0b bd 79 a4 f9 3d
       0.0775927 0.098397516 -0.034156214 0.12189574
000010 e0 94 97 3d fa 34 a6 bc ba 19 5f bb 68 f3 f7 3c
       0.074014425 -0.020288933 -0.0034042434 0.030267432

weight f4 [16, 2]
000000 7e 36 27 bf c5 d3 e9 3c 78 99 86 3e f5 61 31 bf
       -0.65317523 0.028543362 0.26288962 -0.69290096
000010 5b 83 e4 3e 06 e4 10 3e 80 3c 2a 3f 92 9f 41 3c
       0.44631466 0.14149484 0.66498566 0.01181783
000020 82 5d c2 be 8f b3 0a 3f f8 7a 02 bf de 25 99 3e
       -0.37961966 0.54180235 -0.50968885 0.29911703
000030 fc 81 d8 bd 1f d8 38 3e 28 03 43 3f 30 9a 70 bd
       -0.105716676 0.18051194 0.7617669 -0.058740795
000040 d5 f4 25 bf 02 e5 2d bf a6 2f 99 3e 06 90 9c 3e
       -0.6482671 -0.67927563 0.29919165 0.3057863
000050 1d 20 c8 3b 78 64 3a 3e 2b 11 2e 3f f2 bf af 3e
       0.006107344 0.18202388 0.67994946 0.3432613
000060 60 fa d3 be a8 bd ce 3b 5d 37 2f bf b4 93 16 bf
       -0.41401958 0.00630923 -0.6844385 -0.5881913
000070 70 ef c2 be 9e 51 f9 3e cc 4f 9f be 27 f2 f0 3e
       -0.380733 0.4869508 -0.31115568 0.47059748

bias f4 [16]
000000 56 8f f6 3e 3c dc 69 3e 7d f8 dd bd 46 95 dc be
       0.48156232 0.22837919 -0.10838411 -0.43082637
000010 bf f6 99 3e 0d 17 19 3f 51 70 93 3e 8d 1c 09 3f
       0.30071065 0.598008 0.28796628 0.5355919
000020 3d 5e 1d bf a2 88 82 be 04 a5 a1 3e f3 b1 20 3f
       -0.6147192 -0.25494868 0.3157121 0.6277153
000030 fb 90 53 3e 0e 0e f9 3e 74 8a af bd 47 30 a3 be
       0.20660774 0.48643535 -0.0857133 -0.3187277

weight f4 [16, 16]
000000 30 9a a7 3d 78 65 d6 3d cc b0 5a be 7e 76 77 be
       0.08183706 0.104685724 -0.21356505 -0.24166295
000010 a0 51 05 bc f4 44 90 bd de c1 5c 3e 00 4e 71 3b
       -0.008137137 -0.07044402 0.2155833 0.0036820173
000020 40 28 c4 3d 70 ca 27 3d 38 63 1f be aa b5 13 3e
       0.095779896 0.040964544 -0.15565193 0.14424768
000030 14 96 b2 3d ba b3 6e 3e ac ec 83 3d 0c cf 06 be
       0.087200314 0.23310748 0.06441626 -0.1316492
000040 b8 a1 76 bd 6c a6 65 be 12 4c 27 be 10 1f c0 bd
       -0.06021282 -0.22426766 -0.16337612 -0.09380925
000050 0c 13 82 3d 6e 1f 35 be d0 08 8c 3d a8 1a bf 3d
       0.06351289 -0.1768777 0.06837618 0.09331256
000060 02 d1 01 3e 10 d7 17 3e d8 46 da 3d 70 62 9b bc
       0.12677386 0.14828134 0.106580436 -0.018967837
000070 bc 0d d1 3d 24 a8 43 be 06 b5 42 be 74 17 e1 bd
       0.10207698 -0.1910711 -0.19014367 -0.109908015
000080 1c 73 f9 3d 21 df 4c 3e 03 22 36 3e 16 fe 99 3c
       0.121801585 0.20006992 0.17786412 0.018797915
000090 be 80 40 be 0d bb 64 be ab e4 49 3e fc b0 d7 bc
       -0.18799111 -0.22336979 0.19716136 -0.02632951
0000a0 f8 cb f0 bd a6 b9 d9 3d ea ef 4e 3e bd c8 2c 3e
       -0.11757654 0.10631113 0.20208707 0.1687345
0000b0 14 89 e4 bd 54 37 98 3d 66 fd c5 bd ca 01 66 be
       -0.11158958 0.07432428 -0.096674725 -0.2246162
0000c0 18 64 99 3d 18 26 99 3d 4e d8 7f be 9c a8 10 be
       0.074897945 0.07477969 -0.24984857 -0.1412682
0000d0 4c 46 41 3e 98 ba 9e bd aa aa 43 3e b6 5b 24 be
       0.18874472 -0.07750434 0.19108072 -0.1605061
0000e0 54 f0 69 3e 86 4a 0f be ce 38 29 be 80 97 9c bc
       0.22845584 -0.13993272 -0.16525576 -0.01911521
0000f0 76 63 59 be 80 e2 e7 bc 94 69 2c 3e 6c 26 41 be
       -0.21229348 -0.028306246 0.1683715 -0.18862313
000100 a8 6b f5 bc d5 d1 8e 3e 00 36 23 3e 88 f4 0e 3d
       -0.029958561 0.27894464 0.15938568 0.034901172
000110 d7 49 c9 3d de 27 a4 3d a0 ea 1c 3d 04 a5 6f 3d
       0.09828537 0.080154166 0.038309693 0.05850698
000120 00 c3 56 bb 38 45 0d be 60 12 50 be be 5e 13 3e
       -0.0032770038 -0.13795936 -0.2031951 0.1439161
000130 81 c2 82 3d 48 07 e9 bd 28 2d 3b ba 8c 76 d7 bd
       0.06384755 -0.11378342 -0.00071402127 -0.10520658
000140 e0 8a 06 be bf f9 26 3e 7b 34 8d 3d 70 cb 32 3e
       -0.13138914 0.16306208 0.068947755 0.17460418
000150 df 92 57 be 38 74 53 bd 95 88 0c 3e 38 69 08 be
       -0.2105212 -0.051624507 0.13723977 -0.13321388
000160 00 c9 50 3c 6d c7 e9 3d dc c8 51 bd 4a f0 27 be
       0.012743235 0.114149906 -0.051216945 -0.16400257
000170 40 a3 32 3d 66 85 21 be 12 9c 03 3e 74 94 7b be
       0.04361272 -0.15773544 0.12852505 -0.24568349
000180 71 a7 70 bd 58 00 02 be 0e 4b 6d be e5 da 0f 3e
       -0.058753435 -0.12695444 -0.23173162 0.14048345
000190 29 d9 59 3d 4d c1 89 3d d9 17 d7 3d f1 da 52 3e
       0.053185616 0.06726322 0.105025955 0.20591332
0001a0 78 4a fa 3d 56 8a 77 be 65 b8 34 3e 3e b0 72 be
       0.12221235 -0.24173865 0.17648466 -0.23700044
0001b0 a0 83 26 be dc 46 56 be f9 25 4b 3e e9 18 eb 3d
       -0.16261148 -0.20925468 0.19838704 0.114793606
0001c0 6e 47 77 3d 73 f4 f6 3d 59 f9 68 3b 9f e1 40 3e
       0.060370855 0.12058344 0.0035549013 0.18836068
0001d0 8e 98 48 bd fe a3 3d bd bc f1 c1 bd b5 df be bc
       -0.048973612 -0.046298973 -0.09469935 -0.023300031
0001e0 38 a4 12 3d ca 9f 07 3e 29 1a 92 3d 7a 47 3a 3d
       0.035801142 0.13244548 0.07133896 0.04547832
0001f0 0b 73 db 3d 94 1a 4e 3e fb 55 f1 bd 57 d8 49 3d
       0.10715302 0.20127326 -0.117839776 0.049278583
000200 07 8c d5 bd 83 33 47 3e 49 b5 85 3e 21 f8 42 3e
       -0.10427099 0.19453244 0.26114872 0.19039966
000210 90 45 fe 3d b9 26 bc be 1a 35 81 3d ad 87 f4 3d
       0.12415612 -0.36748293 0.063089564 0.119399406
000220 b8 46 4f 3e 4f 55 c1 3d cc 9a c9 3d 38 84 59 3d
       0.20241821 0.094400994 0.09843978 0.05310461
000230 0e 1a 93 bd 1e b5 38 3e 0c 59 88 be 6a 13 90 be
       -0.07182704 0.1803784 -0.26630437 -0.28139812
000240 ca 9c 3d 3e 3e f3 76 3c 7b f8 33 3c 7c bf 9a 3e
       0.18516842 0.015072642 0.010984535 0.30224216
000250 4b ee 1a 3e a3 b2 4d be d2 ad 58 3e 30 8c 84 3e
       0.15129964 -0.20087676 0.21160057 0.25888205
000260 62 8e 40 be 43 d4 62 3e ab 2c fa bd 4f 09 28 be
       -0.18804315 0.22151284 -0.12215551 -0.16409801
000270 a1 65 db 3d 84 5e 41 3e df b9 2a bd 2b a0 e3 3d
       0.107127436 0.18883711 -0.041681167 0.11114534
000280 72 92 52 be 6c 85 1d be d9 52 00 be 54 0d 81 be
       -0.20563677 -0.15382928 -0.12531604 -0.2520548
000290 88 2c 6a bd a8 dd 58 3d 97 49 5b 3e 09 a7 08 3e
       -0.057171375 0.052945763 0.21414791 0.13344969
0002a0 60 da 0e 3d fc 88 35 3e d5 de d1 bd 98 c4 0d bd
       0.034876227 0.17728037 -0.1024758 -0.034611315
0002b0 50 57 97 3d 00 e0 a1 b8 54 5c d4 bd d0 a7 d0 3c
       0.073897004 -7.7188015e-05 -0.10369173 0.025470644
0002c0 2c 60 a4 3d a6 12 2a be c2 01 5f be 90 b9 39 3e
       0.08026156 -0.16608676 -0.21778014 0.18137193
0002d0 24 0f d0 3d 94 4f 28 be 9e 44 23 be cc ce 1b be
       0.10159138 -0.16436607 -0.15944144 -0.15215605
0002e0 ec e1 50 3e 00 cb 6c 3e 18 7b a7 bd 00 ae d3 bd
       0.20398682 0.23124313 -0.08177775 -0.10335922
0002f0 8e 60 17 be b0 d6 5b 3e 26 6a 24 be e8 69 d3 3d
       -0.14782926 0.21468616 -0.16056117 0.103229344
000300 f8 4c 5a 3d 2e f7 50 be 44 36 c6 bd 80 8d 84 bc
       0.05329606 -0.20406792 -0.09678319 -0.016180754
000310 60 9d 09 bd 90 50 fb bc b0 d3 8a 3c 50 f4 d4 bc
       -0.03359735 -0.030678064 0.016946644 -0.025995404
000320 f4 24 0e 3e 84 86 7b 3e 00 92 62 3d 88 a2 77 be
       0.13881284 0.24563032 0.055315018 -0.24183095
000330 70 14 6f bd 3e 19 09 be 20 29 59 bc 5a a9 1d be
       -0.0583691 -0.13388535 -0.013254434 -0.15396634
000340 40 cc 98 bd 89 b9 63 3e b1 ee 29 3e 62 ae d7 bc
       -0.074608326 0.22238745 0.1659496 -0.02632827
000350 55 2d 98 bd 27 d6 9b be a6 29 03 be 27 11 5d 3e
       -0.074305214 -0.30436823 -0.12808856 0.21588574
000360 6a 2b 12 3e 3d 26 02 bd 49 36 20 3e 33 cd 6c 3e
       0.14274374 -0.031774748 0.15645708 0.23125152
000370 c2 55 67 3e 56 32 3b 3e 47 6b 4b be 4b fd 8e bd
       0.22591308 0.1828092 -0.19865142 -0.069819055
000380 f3 45 06 3e 05 17 a6 ba ad 3f 0b 3e 6d de 66 bd
       0.13112621 -0.0012671655 0.13598509 -0.056364466
000390 7c 9e c4 bc 83 c0 55 be 05 e3 9d 3c 74 c5 4a be
       -0.024001352 -0.20874219 0.01927329 -0.19801885
0003a0 20 0d 23 bd ef 65 ed bc 6a 63 4d be 7d 13 9b bc
       -0.03980744 -0.02897927 -0.20057455 -0.018930191
0003b0 4d 44 39 be d0 d9 4a bd ea 5f 15 3e 71 a8 0a 3e
       -0.18092461 -0.04952413 0.1458737 0.13540818
0003c0 92 f3 12 3e f7 68 70 3e 5a 11 6a 3b 16 73 4b 3e
       0.14350727 0.23477541 0.0035715909 0.1986812
0003d0 0b 05 87 bd 27 33 1a 3e 20 a7 3d 3d c6 8f 26 3e
       -0.06592759 0.15058576 0.04630196 0.16265783
0003e0 50 79 bd 3d 7e 50 2c 3d 12 94 88 b9 22 63 f0 3d
       0.09251654 0.04206895 -0.00026050262 0.11737658
0003f0 5f 3f 21 be a0 07 77 3d c0 b9 25 3e 91 49 11 be
       -0.1574683 0.060310006 0.16184139 -0.1418822

bias f4 [16]
000000 80 47 ec bb a4 b1 08 be 99 2e b8 bc 64 42 b9 bd
       -0.007210672 -0.13349015 -0.022483157 -0.09045866
000010 fd 8a 3d 3d a5 15 ad bd bf 9a ed bd 2f c3 14 bd
       0.046275128 -0.08451394 -0.11601781 -0.036318954
000020 c7 49 1a 3e 0a f7 6b be c6 ae 89 3a c0 95 56 3e
       0.15067206 -0.23043457 0.0010504357 0.20955563
000030 64 4e 75 be 8f 03 80 be 3c 6d 74 3e 8d 61 87 bd
       -0.23955685 -0.25002715 0.23869795 -0.06610403

weight f4 [32, 16]
000000 00 02 41 bd b4 ac a2 3d 23 b8 49 be 28 23 ae bd
       -0.047121048 0.07943097 -0.19699149 -0.08502799
000010 1e 17 53 be 4d 35 1d 3e 18 09 da bd b2 f1 63 3e
       -0.20614287 0.15352364 -0.10646266 0.22260168
000020 2a d9 0f be 54 8e bc 3d ba 44 78 be 34 f1 b2 bd
       -0.14047685 0.092068344 -0.24244967 -0.08737412
000030 bc 66 c1 3d 99 57 06 3e 23 7f 66 3e 18 ff f4 bd
       0.09443423 0.13119353 0.22509436 -0.11962718
000040 3e e8 6b 3e 9c 8c e1 3d bf 51 ef 3d d0 2d 96 3d
       0.23037812 0.11013147 0.11685514 0.07332957
000050 7b a7 6e bd 33 3f 1f 3e d2 ad 59 3e 64 01 03 3d
       -0.05826519 0.15551452 0.21257713 0.031983748
000060 44 e7 91 be 7e f3 be 3d 51 69 b1 bb 00 1d 34 3c
       -0.28496754 0.09323786 -0.005414166 0.010993242
000070 f6 2e 42 3e 02 08 f6 3d 33 74 50 bc 87 83 73 be
       0.18963227 0.12013246 -0.012723017 -0.23780642
000080 c8 c4 86 3d f0 e3 6e bd 4f 64 3a 3d ec 93 45 be
       0.06580502 -0.058322847 0.045505818 -0.19294709
000090 59 61 84 3d 83 64 29 bd 7d 8e cd bd 4e a6 25 be
       0.0646388 -0.04135562 -0.10036943 -0.16176721
0000a0 61 89 8c 3d f8 8c 84 3e 9c 77 9c 3d e8 90 e1 3d
       0.068621404 0.258888 0.07640001 0.11013967
0000b0 e0 ec 76 bd ff bc ba 3e 7a 69 1d 3e 3b ae 82 3e
       -0.060284495 0.36472318 0.15372267 0.25523552
0000c0 04 53 84 3d cc 87 5d be 61 45 b4 bd 5e 40 2c be
       0.064611465 -0.21633834 -0.088022955 -0.16821429
0000d0 00 48 8f bd 80 fa d3 3b 17 59 7d be 03 9b 47 bd
       -0.06996155 0.006469071 -0.24741016 -0.048731815
0000e0 7c 2b 00 bd 76 92 34 3e a8 ca 0b 3e ea eb 74 be
       -0.03129147 0.17633995 0.13651526 -0.23918119
0000f0 e0 81 39 bc b7 18 95 3c b3 df 0f bd a7 64 9a bb
       -0.0113224685 0.018200262 -0.035125446 -0.0047117057
000100 d0 f4 5a 3d 70 86 7f be 33 d4 50 bd 34 eb a9 bd
       0.053456128 -0.24953628 -0.05098362 -0.082968146
000110 23 0d ab bd 7f 3f 41 3d a4 df 6c 3e 1a 6c 08 3e
       -0.08352115 0.047179695 0.23132187 0.13322487
000120 e4 d8 ac be 42 49 77 be b0 ab 4b be fa eb 1d 3e
       -0.33759224 -0.2414904 -0.19889712 0.15422049
000130 22 25 14 be bf 44 a8 bb b1 37 1e bd f1 ca 45 bd
       -0.1446729 -0.0051351483 -0.03862733 -0.048289243
000140 58 88 4c be 20 36 9d 3c 6e 68 a9 3e fa 00 69 3e
       -0.19973886 0.019190848 0.33087486 0.22754279
000150 bc ff df 3d 67 d9 f3 3d 58 cd 22 3e 64 63 81 bc
       0.10937449 0.119067006 0.15898645 -0.015794463
000160 75 fa 9d 3d ed 7a 16 3e dd e7 aa 3d 98 99 5a 3d
       0.077137865 0.1469533 0.08345006 0.053369135
000170 10 6c e6 3d 98 25 0b 3e c4 ec dd 3d a1 03 a3 bc
       0.1125108 0.1358856 0.10836175 -0.019899191
000180 50 65 6a 3d 40 3b c0 bc c8 e9 45 be d0 e9 92 3c
       0.057225525 -0.023465753 -0.19327462 0.017933756
000190 cd c4 a3 3d 9d 9e cd 3c 01 a9 0e be 3e e8 b8 3d
       0.07996521 0.025100047 -0.13931657 0.09028672
0001a0 af 63 80 be 59 fe 25 3d 7c ad 75 3e 4c 75 ce bd
       -0.25076053 0.040525768 0.2399196 -0.10080966
0001b0 aa db 52 be 51 64 72 bd a9 de 2f be 1b 0b 4e 3e
       -0.20591608 -0.0591777 -0.17174782 0.20121424
0001c0 00 8e b1 3c b0 7d 97 3d 6c 40 43 bc d0 f5 b3 bd
       0.021674156 0.0739702 -0.011917215 -0.087871194
0001d0 db 68 c9 3d 69 bc 05 be 7d 4f 1b be 5a ed 5d be
       0.09834453 -0.13060154 -0.15167041 -0.21672574
0001e0 ed 03 33 3e ce 26 10 3e 26 70 38 be c8 1d 1b 3d
       0.17481966 0.14077303 -0.18011531 0.0378702
0001f0 98 57 2a 3e 14 4a 14 be b8 9e f9 3d 39 57 02 be
       0.16634977 -0.14481384 0.12188476 -0.12728585
000200 62 2e 3d be 8e b8 30 be 58 da 32 3d 46 98 01 be
       -0.18474725 -0.17257902 0.04366526 -0.12655744
000210 57 87 8a 3d 99 b0 27 be 86 55 3a 3e 84 d2 af bd
       0.06764095 -0.1637596 0.18196687 -0.085850745
000220 12 71 52 be 55 f9 41 be af 52 47 3e 44 75 43 be
       -0.20550945 -0.18942769 0.19465135 -0.19087702
000230 4e 73 30 3e 3f 5b 7e be 7d 0c 4c 3e 63 d7 6f be
       0.17231485 -0.24839495 0.19926639 -0.23422007
000240 26 27 5e be 58 48 88 3d 50 7e 67 bd e0 a1 f2 bd
       -0.21694621 0.066544235 -0.056516945 -0.118472815
000250 ce 68 44 3e a8 06 3d 3e 62 0a 7e be a6 2c d9 3c
       0.19180605 0.1845957 -0.24808648 0.026510548
000260 eb 12 1e 3e 49 63 2a 3e 6e 75 db bd 60 ea cb bc
       0.15436904 0.16639437 -0.10715757 -0.024892032
000270 a0 b7 a5 3d 4a 7c 53 3e 41 86 1a 3e eb 59 29 be
       0.08091664 0.20652881 0.15090276 -0.16538207
000280 44 c1 6b 3e 90 af 60 be 97 c5 f6 3d 4a 05 52 be
       0.23022944 -0.21941972 0.12049406 -0.2050983
000290 8c a5 82 bd e1 6f d3 3c 16 d8 c2 3b 68 c8 f0 3d
       -0.06379232 0.025810184 0.0059461696 0.117569745
0002a0 dc d0 9f bd 13 8c c3 bc 3b 84 f7 3c 00 38 59 3c
       -0.07803509 -0.023870504 0.03021442 0.01325798
0002b0 38 7a 63 be dd df cb 3c 79 b5 c0 bd 8c aa 3b be
       -0.22214592 0.02488702 -0.09409613 -0.18326777
0002c0 64 d0 a7 3d 64 d3 28 be 30 7e 8d be f8 c1 24 3d
       0.08194044 -0.16486889 -0.27635336 0.040224046
0002d0 b4 76 8e bd 17 f9 ba 3b e3 2f 02 3e 26 2b 4a be
       -0.069562346 0.0057059634 0.1271358 -0.19743022
0002e0 18 38 33 be df b0 5d be 1f eb 69 3e 24 64 39 be
       -0.17501867 -0.21649502 0.22843598 -0.18104607
0002f0 de 8f 1d be 0b 4d 43 bd b0 64 82 bd 77 12 2c be
       -0.15386912 -0.047680896 -0.06366861 -0.16803919
000300 40 7d 25 3d 76 e0 1a be 8c 5a 48 3e 7c 32 81 3d
       0.04040265 -0.15124688 0.19565791 0.06308457
000310 5d 4f 44 be f0 b0 31 3e b3 36 ad 3d d8 36 68 be
       -0.191709 0.17352653 0.08457699 -0.22677171
000320 7b e7 85 be 8f bb dc bd bd 8a f7 bd 3c c9 a5 bd
       -0.26153168 -0.107779615 -0.12087009 -0.08095023
000330 e6 f6 2b be 40 d9 ff bd 6d a7 83 bc 70 f6 bd 3d
       -0.16793403 -0.12492609 -0.016071046 0.0927552
000340 8a 31 25 be a0 1d 2d 3c ff fc 18 3d 6a 82 7f 3e
       -0.16132179 0.010566145 0.03735065 0.24952093
000350 42 10 36 be e7 af 00 3d 28 7f 5a 3e b4 9d 48 3e
       -0.1777964 0.031417754 0.21337569 0.19591409
000360 35 80 22 3d 59 07 2c bb 25 6b f5 bd ca 5b 20 3e
       0.03967305 -0.0026249497 -0.11983327 0.15660015
000370 08 64 d1 3d cc 2b a8 3e 3d 78 9a 3d c4 6f 4a be
       0.102241576 0.32845914 0.07542465 -0.19769198
000380 d8 63 6e 3e 94 69 0f 3e d6 ca f1 3d 9e f4 61 3e
       0.23280275 0.14005119 0.11806266 0.2206597
000390 31 20 e1 b9 15 42 fb 3c 9f 28 c9 bd 22 23 0e 3e
       -0.0004293933 0.030671159 -0.09822201 0.1388059
0003a0 78 01 e9 bd 8f 52 0d bd 3b e4 32 3e d4 cb 8f 3d
       -0.11377233 -0.034502562 0.17469876 0.07021299
0003b0 1c d8 8f bd a5 79 c1 3d 13 4b a5 bd 34 cd f2 3d
       -0.070236415 0.0944703 -0.0807096 0.11855546
0003c0 ea 5d 08 be a0 7f f7 bc 68 8c eb bd 80 73 22 3e
       -0.13317075 -0.030212224 -0.1150139 0.15864372
0003d0 31 6e 0e be ae 04 e0 3d 24 63 9f 3c 6a 3e a1 bd
       -0.13909222 0.109383926 0.019456454 -0.07873233
0003e0 33 dd 12 be 23 01 32 3e ef aa 0b be 9a 9a 56 be
       -0.14342193 0.17383246 -0.13639425 -0.20957413
0003f0 18 d8 7b 3e a3 e3 30 3d f1 93 10 3e de 2d 42 be
       0.24594152 0.04318584 0.14118935 -0.1896281

bias f4 [32]
000000 4a 9b 38 bc 4b c8 5c 3e 15 bc 91 bd 56 22 81 bd
       -0.011267493 0.2156078 -0.07115952 -0.06305377
000010 4e a5 32 bd f8 09 26 3d 50 11 89 3d 9f 3b 8e 3d
       -0.043614678 0.04053685 0.06692755 0.069449656
000020 ff e4 52 3e a3 66 98 be c4 c0 16 bd 87 e4 13 3e
       0.20595168 -0.29765806 -0.03680493 0.14442645
000030 60 19 35 be 98 b5 d6 bd ae 9b ac 3d 39 93 23 3e
       -0.17685461 -0.10483855 0.08428131 0.1597413
000040 3d 1e 05 be 49 07 30 be f3 d8 a2 3b 04 c2 53 3e
       -0.12999816 -0.17190279 0.00496971 0.2067948
000050 85 36 9b bd a5 2b 1b 3e 8d 6a 82 be 1a c4 4d 3e
       -0.07578758 0.15153368 -0.25471917 0.20094338
000060 a9 24 b1 3d 04 9d 93 3d 82 03 72 be 3d 0b 21 bd
       0.086495705 0.07207683 -0.2363415 -0.03931736
000070 0d 40 ba bd 84 ba 84 be d3 61 cc bc be b9 2d 3e
       -0.09094248 -0.2592355 -0.02494899 0.16965386

weight f4 [16, 4]
000000 88 18 9d be 80 fe 5d bd d2 76 f2 3e 90 6e 92 3e
       -0.30682778 -0.05419779 0.47356278 0.28599977
000010 74 ad bc be e8 03 c1 be c0 64 41 bd be ad df be
       -0.36851084 -0.37698293 -0.047215223 -0.43687242
000020 e4 bb cc 3e 60 b7 86 3e 95 cd 57 be bb 81 c7 be
       0.399871 0.2631178 -0.21074517 -0.38966164
000030 6c b2 5f 3e b7 0b 24 be a0 1c 5c 3e ed b9 94 3e
       0.21845406 -0.16020094 0.21495295 0.290481
000040 c1 06 ed 3e 51 63 90 be 0c c8 e1 3e e5 94 bb 3d
       0.46294215 -0.28200772 0.44097936 0.09159259
000050 2f 1a 8b 3e 56 4b 20 bd 45 1d aa be 3e 7a 28 bf
       0.27168414 -0.039134346 -0.33225456 -0.65811527
000060 9c eb 77 be 00 65 73 bb 98 e6 e7 3e ec 75 d2 3e
       -0.24210972 -0.0037139058 0.45293117 0.41105592
000070 06 fb 97 3e 18 8f 10 be d0 74 84 3e a4 55 9d be
       0.29683703 -0.14117086 0.2587037 -0.307294
000080 72 6e 4a 3e 8d 87 48 be bf 36 a0 3d cf 85 12 3f
       0.19768694 -0.19582959 0.07822942 0.57235426
000090 2b 08 3f 3e fd 53 e7 be aa 51 df 3e 7a 84 15 bf
       0.1865546 -0.45181265 0.43616992 -0.5840527
0000a0 4c 85 bd 3e 18 24 e9 be 45 18 bd bd 3b ad 37 be
       0.3701576 -0.4553535 -0.09233145 -0.17937176
0000b0 b3 0e d5 3d 10 08 3a 3e 53 22 b3 3d ba 93 5b 3e
       0.10403194 0.18167138 0.08746781 0.21443072
0000c0 97 7d 49 3e 7d b9 45 3e dc 10 ba 3e a9 e3 16 bf
       0.19676815 0.1930904 0.36340988 -0.5894113
0000d0 d0 79 c0 bd 7e ee f5 be fe 33 8f 3e 80 6c dc 3d
       -0.09398234 -0.48033518 0.27969354 0.10762882
0000e0 20 7c 8e bd fa a8 f4 3e 50 17 84 be 16 8f fe be
       -0.06957269 0.4778517 -0.25799036 -0.4971854
0000f0 90 91 4d be 6a f4 dd be a4 dc 79 be f8 11 19 3e
       -0.20075059 -0.43350536 -0.24400574 0.14948261

bias f4 [16]
000000 b0 4c 33 3d ec e5 47 3e 0b a9 c7 3e 22 f2 86 bc
       0.043774307 0.19521302 0.38996157 -0.01647288
000010 77 0f fc be f9 fa fb be 40 14 8a bd 35 88 c9 3e
       -0.4923055 -0.49214914 -0.06742144 0.3936173
000020 fa 7c b0 be d4 9d be 3d fe 43 c6 3e 58 c7 d6 bd
       -0.3447035 0.09307447 0.3872375 -0.104872406
000030 16 5c 90 3e f0 61 37 be 9c 40 aa 3e 16 79 93 3e
       0.28195256 -0.17908454 0.33252418 0.2880332

weight f4 [16, 16]
000000 c0 3e 36 3e ae 28 53 3e 1b 67 46 be d1 2e 2d 3e
       0.17797375 0.20620987 -0.19375269 0.1691239
000010 6c e5 52 3e f4 be b8 3d 60 3d 89 bc c9 35 df bd
       0.2059533 0.090207964 -0.016752899 -0.108989306
000020 53 8c 6a bd 52 c2 b0 bd 11 e8 0e 3e 40 66 af bd
       -0.05726273 -0.08630814 0.13955714 -0.085644245
000030 42 04 b3 3d 60 1b 3a 3c b6 8e 6e be 90 d8 51 3e
       0.087410465 0.011359066 -0.23296627 0.20492768
000040 60 35 5f 3e f8 a7 44 bd 7e 49 1f be a4 28 0d be
       0.21797705 -0.04801175 -0.15555379 -0.13785034
000050 00 c8 c6 bb c8 97 58 3e dc 7a a0 bd 00 17 31 be
       -0.0060663223 0.2115165 -0.078359336 -0.1729393
000060 e0 88 35 bc 00 e7 8d ba cc 2f 2f be 1e 0c 62 3e
       -0.011079997 -0.001082629 -0.17108077 0.22074935
000070 60 44 9f 3d 4c 56 45 be 5c af 37 3e a8 be 7d 3e
       0.07776713 -0.19271201 0.17937988 0.24779761
000080 92 74 44 3e c2 0d 76 3e 8c 9d 9c bd b8 4b ca 3d
       0.19185093 0.24028686 -0.07647237 0.098777235
000090 1c 24 84 bd 18 39 67 3d e0 2f a8 3d 78 16 89 3d
       -0.064522 0.056450933 0.082122564 0.06693739
0000a0 52 51 40 be 2a 66 36 be e8 b0 83 3d 8c e1 ad 3d
       -0.18781021 -0.1781241 0.064302266 0.08490285
0000b0 e8 2f 27 be a8 8c a1 3d e8 43 9f 3d 92 93 14 be
       -0.16326869 0.07888156 0.07776624 -0.14509419
0000c0 02 33 45 be 8c 4d 05 3e 11 7e 2f 3d 19 74 c5 3d
       -0.19257739 0.13017863 0.042844836 0.096412845
0000d0 76 8a 3b be 06 c3 16 be 44 cc 46 be d5 93 60 3e
       -0.18314537 -0.14722833 -0.19413859 0.21931393
0000e0 0a 0d 52 3e 1a bd 43 3e e5 3a 75 be a0 63 f4 bd
       0.20512787 0.19115105 -0.23948248 -0.119330645
0000f0 c7 96 4f 3e 00 8b 12 be e4 ac 3d 3e 90 e0 5f bd
       0.2027236 -0.14310837 0.18522984 -0.05465752
000100 d0 ab f5 bd d6 09 24 be 38 8a f2 bd 81 59 7a 3e
       -0.11995661 -0.16019377 -0.118427694 0.24448206
000110 9c 5e 2e 3e 5b 66 1e be c0 2f 3d bc df 6b 10 be
       0.17028278 -0.15468733 -0.011547029 -0.1410365
000120 f2 5b fa 3d 81 e2 99 3c e0 3a 55 3e 5c 98 60 be
       0.122245684 0.018784763 0.2082324 -0.2193312
000130 c1 3a 27 be 80 7f 7c 3c 78 86 ae bd 0c d6 c1 3d
       -0.16331007 0.015411258 -0.08521742 0.09464654
000140 54 27 c2 3d 04 cc f2 3d c2 43 ec bd e4 9e 95 bc
       0.094801575 0.11855319 -0.11536361 -0.018264242
000150 69 a4 82 3d 3b 7e 51 be c2 10 1f be 82 2c 28 be
       0.06379015 -0.2045831 -0.15533736 -0.16423228
000160 a5 df 3b 3e ee d6 99 bd 9e c0 06 3e a1 68 37 3e
       0.18347032 -0.07511698 0.13159415 0.17911007
000170 02 f9 a6 bd 00 a4 28 3c 00 5d 65 3b 90 bb 1f 3e
       -0.08152963 0.010293007 0.003499806 0.15598893
000180 f8 54 49 bd f8 32 64 bd 96 0f 3c 3e 98 1a 7c 3e
       -0.0491533 -0.05571267 0.1836532 0.2461952
000190 38 cb 59 be fc a5 06 be 3a 3a 28 3e 78 b6 87 bd
       -0.21268928 -0.13149256 0.16428462 -0.066266
0001a0 88 5a 57 bd c4 2c 63 be 80 c6 31 bc 1c 37 06 be
       -0.05257657 -0.22185045 -0.010850549 -0.1310696
0001b0 9a eb 28 3e d4 35 41 3e 00 d7 a3 bc 90 a0 48 3d
       0.16496125 0.1886819 -0.01999998 0.04898125
0001c0 e0 7e 26 bc 80 95 5f bb 76 fe 4e be 8c 01 a6 bd
       -0.010162085 -0.0034116209 -0.20214257 -0.08105764
0001d0 5c 0f b3 3d a0 92 f5 bd 04 ba 48 3e 20 12 96 3c
       0.08743164 -0.11990857 0.1960221 0.01831919
0001e0 b0 d3 de bc 74 1f 07 be fa 92 37 be 50 28 3a 3d
       -0.02720055 -0.13195592 -0.17927161 0.0454486
0001f0 04 96 cf bd 54 34 78 be e0 2f 55 3c 88 9c 82 bd
       -0.10136035 -0.24238712 0.013011903 -0.06377512
000200 e0 58 02 bc 72 b7 7d be 5e 9d 3e be 19 aa 32 bd
       -0.00795576 -0.2477701 -0.18614718 -0.04361925
000210 f3 91 29 3e 12 5a 0d 3e 22 75 3a 3e 3f e0 2b 3e
       0.16559581 0.1380389 0.18208745 0.16784762
000220 88 24 a2 bd 50 41 0f 3e 6e ec 26 bd f7 70 a5 3d
       -0.07917124 0.13989758 -0.04075282 0.08078187
000230 31 b4 5b be e2 cc 39 be b0 2e 90 3d b0 99 cb bd
       -0.21455456 -0.18144563 0.07040155 -0.09941423
000240 b4 02 b3 bd 10 ea 76 bd e0 09 a4 bd 2a bd 5f be
       -0.0874075 -0.060281813 -0.08009696 -0.21849504
000250 40 8e 3e 3d 2c 1b 65 3e 9c d6 a1 bd 54 83 cb 3d
       0.04652238 0.22373646 -0.079022616 0.09937158
000260 06 66 05 be 9c 17 04 be 10 a6 11 be b2 27 4b be
       -0.130272 -0.12899631 -0.14223504 -0.19839361
000270 e0 5a bc 3c 70 e2 4f bd 54 15 27 be 90 c8 6f be
       0.022992551 -0.050753057 -0.1631673 -0.23416352
000280 f0 f5 43 3e ae 99 11 be 50 44 60 bd 54 20 71 be
       0.19136786 -0.1421878 -0.054752648 -0.23547488
000290 98 06 b2 bd 5c 2f 43 3e b0 74 57 bd 30 ae 91 bc
       -0.08692664 0.19061035 -0.052601516 -0.017783254
0002a0 48 38 78 3d 20 bf 2a 3d 8c 18 04 be c6 b8 00 be
       0.06060055 0.041686177 -0.12899989 -0.12570485
0002b0 c0 77 c8 bc 20 a8 4d bd 0c 9c 03 3e 88 06 95 3d
       -0.024471164 -0.050209165 0.12852496 0.07276636
0002c0 80 01 5d bd 20 dc 15 bc f0 76 b4 3d 4c 91 61 be
       -0.05395651 -0.00914672 0.08811748 -0.22028083
0002d0 c0 8c 67 3d 46 78 07 3e 80 52 f8 3c 18 6d 10 bd
       0.056530714 0.13229474 0.030312777 -0.03526029
0002e0 62 d6 24 be d4 73 6a be 08 c1 03 bd 00 e1 d2 bd
       -0.16097406 -0.22895747 -0.03216651 -0.102968216
0002f0 e4 be a4 bd 00 89 cc bb 08 7d 29 bd 4c 9f 8a bd
       -0.08044222 -0.0062419176 -0.041379005 -0.06768665
000300 e8 77 4f be 54 e4 dd bd e3 95 19 3d 10 8a 2b be
       -0.20260584 -0.10834566 0.03749646 -0.16751885
000310 95 e9 f5 3d 8d 9b a7 bd 3c 38 72 be 7f 3a 88 be
       0.12007443 -0.08183966 -0.23654264 -0.2660713
000320 72 27 21 bd bc 02 28 be 2b ca 14 3e 64 96 e6 3d
       -0.03934426 -0.16407293 0.14530246 0.112591535
000330 2b 5d 35 3e 80 01 27 3c 28 fd c6 3d f0 aa 78 3e
       0.17711322 0.010193229 0.097162545 0.24283957
000340 80 6f 00 3c 00 92 8d bb a9 4d a4 bd 95 4f 0b 3e
       0.007839084 -0.004320383 -0.08022625 0.13604577
000350 d1 97 41 3e df 6e e4 bd 7c 55 fb bd c2 78 4e 3e
       0.1890557 -0.111539595 -0.12272164 0.20163253
000360 1f 4d 56 be ed 74 5c 3e d3 74 7d 3e fb 05 cf bd
       -0.20927857 0.21528979 0.24751596 -0.101085626
000370 26 5e 4c be da 24 41 be ea 10 68 be 82 27 6d be
       -0.1995779 -0.18861714 -0.22662702 -0.23159602
000380 3c d4 27 be f6 00 63 be 66 07 4f be 9b cb 6d 3e
       -0.16389555 -0.22168335 -0.20217666 0.232222
000390 c3 58 1c 3e 37 e2 6b 3e 90 af 7a bd ce e3 6f 3e
       0.15268235 0.23035513 -0.061202586 0.23426744
0003a0 6c 26 75 be 91 56 e3 3d c7 6e 03 3e 87 1b 33 3e
       -0.23940438 0.111004956 0.12835227 0.1749097
0003b0 39 0e 33 3e 20 a1 05 3e 68 b6 06 3d 58 97 11 be
       0.17485894 0.13049746 0.0328888 -0.1421789
0003c0 c8 41 c6 3d 34 a6 f5 3d 35 23 ec 3d 37 8c 3a 3e
       0.096805155 0.11994591 0.11530153 0.1821755
0003d0 b8 93 9a 3d d1 da d8 bc ac 1a 79 be d8 37 1c 3e
       0.07547706 -0.026471527 -0.24326581 0.15255678
0003e0 b5 97 82 3d c7 eb 08 3e 09 96 92 3d 73 ac 59 be
       0.06376592 0.13371192 0.07157523 -0.2125719
0003f0 be 3a 5e 3e 6c 09 8e bd 30 49 b0 3d 48 12 4c be
       0.21702096 -0.06935391 0.086077094 -0.19928849

bias f4 [16]
000000 72 b1 69 be 7c 82 64 be a0 8d 7a 3c 33 f6 67 3e
       -0.22821596 -0.22315401 0.015292555 0.22652511
000010 ec 65 eb 3d e5 9a 02 3e b8 35 b9 bd e6 ed 53 3e
       0.114940494 0.127544 -0.09043449 0.2069622
000020 eb 20 db bd d0 cf f9 3c 22 9e 29 be 70 f2 5e be
       -0.10699638 0.0304946 -0.16564229 -0.2177217
000030 c7 9f 12 be b8 4f 5f be f2 f6 1e be 8b dc 4a bc
       -0.14318763 -0.21807754 -0.1552389 -0.012381683

weight f4 [32, 16]
000000 ea a1 58 be bc 89 09 3e d0 51 d4 3c 66 14 14 bd
       -0.21155515 0.13431448 0.025917917 -0.036152266
000010 5b 0e 31 be 2d 11 3e 3d 20 66 d7 bd 10 24 d9 bd
       -0.17290632 0.0464031 -0.10517526 -0.106025815
000020 0a fd a6 3c f2 2f 09 3e a0 48 e0 bc 80 31 53 3b
       0.02038433 0.13397196 -0.02737838 0.003222555
000030 57 65 32 bc bf 42 44 be b5 6b 2b bd f6 bf 7c 3d
       -0.010888419 -0.19166087 -0.041850764 0.061706506
000040 1a d7 c1 3d 30 01 a8 bd f6 18 35 3e 08 a1 c0 3d
       0.094648555 -0.082033515 0.17685303 0.09405714
000050 47 ad 28 be 92 69 1a be 40 ea c9 3c 34 ab 43 be
       -0.1647235 -0.15079334 0.024647832 -0.19108278
000060 a2 00 1f be d4 0d 84 3d ac 50 00 3e a4 8a b0 3d
       -0.15527585 0.0644795 0.12530774 0.086201936
000070 27 38 28 3e 38 3e 47 3e 54 f7 70 3e 0e f5 00 3c
       0.1642767 0.19457328 0.23531848 0.007870926
000080 90 04 a3 3d 60 b5 86 3c 1e 4b 2f 3e b4 6e 6f be
       0.079598546 0.016443908 0.17118499 -0.23382074
000090 05 c5 42 3e 9a 41 84 3e 84 48 04 be f0 7d 64 bd
       0.1902047 0.258313 -0.12918288 -0.055784166
0000a0 b1 48 50 3e ca 92 16 3e 92 67 37 be e6 c5 39 be
       0.2034023 0.14704433 -0.17910603 -0.18141899
0000b0 bd 78 cf 3d 6c 5b d7 3d 43 f6 0c be d0 45 10 be
       0.10130451 0.10515484 -0.13765816 -0.14089131
0000c0 5d c5 0c bc 3c 4a 70 3e 50 dc 87 3d 3f 4a 63 be
       -0.008591977 0.23465818 0.06633818 -0.22196291
0000d0 94 4e 98 be 2b c0 95 3c 0c d1 d6 bd a4 63 96 3d
       -0.2974745 0.01828011 -0.10489091 0.07343224
0000e0 d3 04 be 3d 3a 6c 4e 3e e8 e6 23 3d 04 40 b0 bd
       0.09278264 0.20158473 0.04001513 -0.0860596
0000f0 3a 46 69 be 20 59 58 be 33 e2 d6 3d 63 01 16 3e
       -0.22780696 -0.21127748 0.10492363 0.14648966
000100 b0 32 ed 3d f8 58 26 be f4 24 ad 3d 96 cf e1 bc
       0.115819335 -0.16244876 0.08454314 -0.027564805
000110 ce 4c 0a bd 61 a7 05 be e2 fc 43 3e 9a 77 32 be
       -0.033764653 -0.13052131 0.19139436 -0.17428437
000120 7b 03 ad 3b 40 de 8e bc 82 bf 26 3e ea 27 45 3e
       0.005279956 -0.017439961 0.16283992 0.19253507
000130 20 62 c1 bd 04 c7 d5 3c b2 7f 2d 3e 3f 6a 37 3d
       -0.09442544 0.026095875 0.16943243 0.04477906
000140 99 72 55 be a8 8d 51 3e 6c 9e e8 bd d0 4b 98 3d
       -0.20844497 0.20464194 -0.113583416 0.07436335
000150 96 4d 02 be 53 4b 51 be 20 d9 5c 3c a8 60 61 bd
       -0.12724909 -0.2043889 0.013479501 -0.05502382
000160 37 88 3a 3e 3a f5 27 be c0 12 91 3c 40 57 52 be
       0.18216024 -0.1640214 0.017709136 -0.20541096
000170 42 c7 35 be 5b 88 7f be 9b f6 1b 3e 69 22 a0 bc
       -0.17751792 -0.24954359 0.15230791 -0.019547658
000180 17 e6 52 bc 58 d7 34 be 76 da 44 be 5c bd 1b 3e
       -0.0128722405 -0.17660272 -0.19223961 0.15208954
000190 f3 79 04 3d 89 40 3d 3e 20 2c 60 bd 3c df ba 3d
       0.032342862 0.1848165 -0.05472958 0.0912461
0001a0 98 2c 38 3d 00 fe 2f 3e 60 78 1c 3c 44 f0 f2 3d
       0.044964403 0.17186737 0.009550184 0.11862233
0001b0 5c 31 40 be 07 95 68 be 92 4f 1c be 56 ab 5b be
       -0.18768829 -0.227131 -0.15264729 -0.21452078
0001c0 52 f4 75 3e e0 d3 0c 3e 8e 31 5e 3e 38 2b de bd
       0.24018982 0.13752699 0.21698591 -0.10848087
0001d0 f2 7e 3f bc f1 49 b7 3c 94 2f 66 be 40 83 47 3c
       -0.011687981 0.022374125 -0.22479087 0.0121772885
0001e0 dd 2c 4d 3e 14 a3 6e 3e b8 97 ea 3d f8 22 61 3e
       0.20036645 0.23304397 0.11454719 0.21985996
0001f0 39 f4 81 bd 11 4f 4c be 5b 5c 38 3e 56 9b ef bd
       -0.0634541 -0.19952036 0.18003981 -0.1169955
000200 ff ac 19 bd 98 c5 ee bd 0e c0 0d be 8a 74 9c bd
       -0.037518498 -0.11658782 -0.13842794 -0.076394156
000210 6d ac 33 3e 04 5b 99 3d fe a6 1a be 24 47 9f 3d
       0.17546244 0.07488063 -0.15102765 0.07777241
000220 dc db ce 3d 7e 48 1a 3e a0 a6 20 3e 9c 75 20 be
       0.101005286 0.15066716 0.15688562 -0.15669864
000230 5c ea a1 bd d5 21 03 3e a4 b7 7b 3e 43 ac 1d 3d
       -0.07906029 0.12805875 0.24581772 0.03849436
000240 75 f1 63 be 00 df f0 bb c0 a3 05 3e e1 0b 03 be
       -0.22260077 -0.0073508024 0.13050747 -0.127975
000250 43 34 7e be 42 11 57 3e 90 60 39 3e 66 eb 49 3e
       -0.24824624 0.21002677 0.18103242 0.19718704
000260 b3 81 2c be 10 00 6e 3d a0 ec 58 be f0 57 7a bd
       -0.16846351 0.05810553 -0.21184015 -0.06111902
000270 ef 66 ee bd 05 db 5b 3e 31 44 65 3e d5 5e 64 3e
       -0.11640727 0.21470268 0.22389294 0.223018
000280 7d 39 6a be 1c 6c e5 bd ec 26 db bd 9a dc ca 3d
       -0.22873493 -0.11202261 -0.10700783 0.09905358
000290 7b a5 53 bd ba 84 2c 3e 80 63 1f bb 60 54 4b 3c
       -0.051671486 0.16847506 -0.0024320781 0.012410253
0002a0 2e 55 a3 bd 5c a9 c4 bd e0 ee eb 3d 60 9b cd 3c
       -0.07975231 -0.09602615 0.11520171 0.025098503
0002b0 e8 54 43 3e 6f b8 e2 3d 63 be e3 3c 2d 69 0e be
       0.19075358 0.11070334 0.027800744 -0.13907309
0002c0 3a ce 08 3e 18 da 10 be 80 49 9a 3c 4d 31 7d 3d
       0.13359919 -0.14145696 0.018833876 0.061814595
0002d0 5c 93 09 be 2e b1 d3 bd 4c fe d3 bd 7c 60 94 bd
       -0.1343512 -0.10336529 -0.10351238 -0.072449654
0002e0 f5 75 e1 bd b8 a0 d1 3d d4 7b 9c bd a8 13 68 3d
       -0.11008827 0.10235733 -0.07640806 0.05665937
0002f0 ba 2f 22 be af 7f 54 3d 3c 55 80 3d da 0f 71 3d
       -0.15838519 0.05187958 0.06266257 0.058853008
000300 a3 da f9 bd c0 0f 5f bd 96 37 6d be 21 9d f1 3d
       -0.12199905 -0.05445838 -0.23165736 0.11797548
000310 17 38 4f 3e db c2 1a be 64 0e d3 bd d6 17 5f be
       0.2023624 -0.15113394 -0.10305479 -0.21786436
000320 ea f3 f2 bd 3c 85 99 3d 72 bd 08 3e 74 20 24 be
       -0.11862929 0.074961156 0.13353518 -0.16028005
000330 ad 09 62 3e 3c e0 6f 3e 6c d1 41 be d0 73 22 3e
       0.22074004 0.23425382 -0.18927544 0.15864491
000340 5c 53 05 3e b0 da e2 bd 6a 68 55 be 8e 4a 90 3d
       0.1302008 -0.110768676 -0.20840612 0.0704547
000350 2b 35 68 be 0a ad 99 3d 66 77 2c be 60 b4 6b 3e
       -0.22676532 0.07503708 -0.16842422 0.23018026
000360 30 1b ac 3d 9a 09 14 3e e2 70 57 3e ea 2a 37 3e
       0.08403623 0.14456788 0.21039155 0.17887464
000370 e8 ba 1a 3d 2a 66 35 3e 08 42 35 be e6 fd a0 3c
       0.037775904 0.17714754 -0.1770097 0.019652318
000380 38 17 48 be 9c a6 31 be 80 61 fa 3b e0 b1 0f 3e
       -0.19540107 -0.17348713 0.0076410174 0.14032698
000390 0e 09 08 be be 31 6c 3e e4 84 c5 bd 80 ca 4a 3b
       -0.13284704 0.2306585 -0.096444875 0.0030943453
0003a0 80 20 ae 3c 96 8f 05 3e 0c b5 bc 3d 26 26 04 3e
       0.021255732 0.13043055 0.092142195 0.12905177
0003b0 73 91 30 be 8a e1 98 bc 40 89 68 be 9b 90 e3 3d
       -0.17242984 -0.018662233 -0.22708607 0.11111566
0003c0 56 0f a1 3b 90 2a c7 bc 40 09 0b 3d f3 13 21 be
       0.0049151583 -0.024312288 0.03394437 -0.15730266
0003d0 e8 2b 2f be b1 91 1e 3d f0 5b bf 3c ea db 49 3e
       -0.17106593 0.03871316 0.023359269 0.19712797
0003e0 f2 fd 5f 3e 7c 02 7b be 88 f4 04 be ce cd 48 3e
       0.21874216 -0.24512666 -0.12983906 0.19609758
0003f0 42 30 09 be 42 fc 80 bd 46 fa 44 bc 5b 61 46 be
       -0.13397315 -0.06298114 -0.01202256 -0.19373076

bias f4 [32]
000000 a0 f7 46 3e aa b0 3c be b7 c4 5f 3d 55 9b 7b 3d
       0.19430399 -0.18426767 0.05463096 0.061427433
000010 a5 ae 4c bc 61 3a 7b 3d c1 0f 29 be b4 b6 81 3d
       -0.01249281 0.06133497 -0.16509916 0.06333676
000020 a4 34 92 bd c2 c8 11 be a3 59 71 3c 37 a7 63 be
       -0.07138947 -0.1423674 0.014730844 -0.22231756
000030 45 06 9e 3c b1 1a e6 3d 7d 77 8d 3e c5 16 8a 3e
       0.019290099 0.1123556 0.27630225 0.26970497
000040 22 ab 0f bd 86 d5 0c bd b0 be 66 be 8b 24 a8 3d
       -0.035075314 -0.03438332 -0.22533679 0.08210095
000050 88 c3 90 bb de 1a f4 bd f8 87 6a be fa 5a 28 3e
       -0.0044178404 -0.11919187 -0.2290343 0.16440955
000060 d8 96 0c bd 2d 52 0d be 36 f3 5c 3e 04 0d 61 be
       -0.034323543 -0.13800879 0.21577153 -0.21977621
000070 43 30 31 be 0a ee 34 be 72 45 a2 3c 41 3b 88 be
       -0.17303567 -0.1766893 0.019808505 -0.26607707

weight f4 [16, 2]
000000 a3 be 2f 3f 58 79 0d be ae fa 9b 3e b0 a3 96 3d
       0.68650264 -0.1381582 0.3046469 0.0735544
000010 00 63 5b 3e 76 39 e2 3e 14 18 4f 3e 27 f0 2a bf
       0.21424484 0.44184464 0.20224029 -0.66772693
000020 a2 8d bc 3e 22 cc 9d 3e 15 1a 24 3f f0 42 55 be
       0.36826807 0.30819803 0.641023 -0.20826316
000030 a3 76 28 bf 75 2d d2 be 40 04 4f bc 9e 58 24 bf
       -0.65806025 -0.41050306 -0.012635291 -0.6419772
000040 61 58 2f bf 36 24 b4 be a3 72 16 bf 43 a1 26 bf
       -0.6849423 -0.35183877 -0.5876867 -0.65089816
000050 6b 3f 0f 3f 62 ab 94 3e a7 79 e6 be ec e1 57 be
       0.55956143 0.29037005 -0.45014688 -0.21082276
000060 62 45 bd 3e 8b bd 1e bf 26 02 e1 3e 62 b5 b9 3e
       0.36966997 -0.6200797 0.43946952 0.36271197
000070 b0 74 e3 bd df 18 2a bf 02 4a cb 3e c0 0a 67 3d
       -0.11106241 -0.664442 0.397049 0.056406736

bias f4 [16]
000000 f5 89 ae be 90 65 4f bd 9d d5 17 3f e0 c9 4b bd
       -0.34089628 -0.050633967 0.59310323 -0.04975307
000010 50 5d c8 3d a0 9c e7 3d e8 dc 49 3e 38 6b 6b 3e
       0.09783423 0.11309171 0.19713175 0.2299012
000020 82 12 bb be 89 1d 1c 3f 88 b3 3e be e5 18 a4 be
       -0.36537558 0.6098257 -0.18623173 -0.32050243
000030 fe 0c e1 3e 67 17 e3 be 78 f4 41 3e d0 94 dd 3d
       0.43955225 -0.44353792 0.18940914 0.10819399
