logs/测试preditor网络架构的影响/preditor_network.MLP.layer_number=2preditor_network.MLP.layer_size=[64, 64]/test_model_20250426_235131.pth (torch, 907107 bytes, 78 tensors)

weight_function_network.initial_cnn.0.weight f4 [8, 1, 3, 3]
000000 90 3a b5 3d 1b aa 52 3e a8 64 c9 3c 7e 24 5d 3e
       0.088490605 0.20572703 0.02458413 0.21595952
000010 94 a2 05 3e 41 2e 72 be 1d 3a 8f be bf 6a 85 3d
       0.130503 -0.23650457 -0.27974024 0.06514501
000020 d5 b6 a6 be 56 c7 a7 be 9a 1a 82 be 7e 2d 81 3e
       -0.32561365 -0.3276927 -0.2541092 0.2523002
000030 d2 18 df bd d2 aa 10 be 4c 18 9b be f5 73 38 be
       -0.10893406 -0.14127663 -0.30291975 -0.18012984
000040 d4 bd 2f be fb 90 8e be 8b 06 71 be 11 24 33 3e
       -0.17162257 -0.27844986 -0.23537652 0.17494227
000050 7e f5 4b 3e f0 8d 8a be 69 3c 99 be de 97 2e 3d
       0.19917867 -0.27061415 -0.29928902 0.0426253
000060 26 97 27 3d d0 6c ed 3d ce 75 8b 3e 36 05 5f be
       0.04091563 0.1159302 0.27238315 -0.21779332
000070 2b 10 1b bd 95 5d 6a 3e 8d fe b0 3e f9 da 48 be
       -0.037857216 0.22887261 0.34569207 -0.19614781
000080 e4 d2 d0 bd 9d b0 d6 bd 6f 6f ab bd e9 c7 96 bd
       -0.10196474 -0.10482905 -0.08370864 -0.073623486
000090 28 a6 6e be 36 40 69 be e5 99 49 be dd 55 e7 bd
       -0.23305571 -0.22778401 -0.19687612 -0.11295674
0000a0 0b 27 a4 be a5 c6 df b9 c6 d1 14 3e 46 9e 81 bd
       -0.32061037 -0.00042681876 0.14533147 -0.063290164
0000b0 61 92 a3 be fc 42 51 be 30 2d fc 3d ac f8 22 3e
       -0.31947616 -0.20435709 0.12313306 0.15915173
0000c0 4c 55 66 3e fa 48 80 3e 9e 89 73 3e 1f ad 20 be
       0.22493476 0.25055677 0.23782966 -0.1569104
0000d0 50 78 0c 3e 8b c3 10 3e f5 82 7c 3c 97 37 34 be
       0.1371777 0.14137094 0.015412082 -0.17599331
0000e0 59 21 51 3d 18 b3 96 be 66 04 a0 3e 55 b8 7d bc
       0.051057193 -0.29433513 0.31253356 -0.015485843
0000f0 12 9b 22 3d 4c 41 8c be bc 9a 26 be 26 70 89 3e
       0.039698668 -0.27393568 -0.16269964 0.26843375
000100 3e 22 a4 3d 45 27 a3 be a4 2e 4b bd 16 8a a6 bd
       0.08014344 -0.31865898 -0.049605027 -0.081318066
000110 e2 6c 0c be ed e1 e4 bd 52 ed 35 3d 75 3a 67 3e
       -0.1371341 -0.111759044 0.04441578 0.22580893

weight_function_network.initial_cnn.0.bias f4 [8]
000000 f0 c1 a1 be 0a 72 6a be 08 5a cc bc b5 96 7c be
       -0.31593275 -0.22895065 -0.024945274 -0.24666865
000010 aa 9c 0c 3e 96 cc 0e 3e c5 8d 91 3e 4d b0 37 bc
       0.13731638 0.13945231 0.28428474 -0.011211467

weight_function_network.initial_cnn.1.weight f4 [8]
000000 63 db 81 3f 49 04 7e 3f f0 0b 82 3f 0a b3 7d 3f
       1.0145077 0.9922529 1.0159893 0.99101317
000010 70 a4 79 3f 71 39 7d 3f af 07 81 3f 80 8a 7e 3f
       0.97516537 0.98915774 1.008047 0.99430084

weight_function_network.initial_cnn.1.bias f4 [8]
000000 db e3 9a bb a0 7e 51 bc ec c7 a1 bb 09 d5 d2 bc
       -0.0047268695 -0.012786537 -0.0049371626 -0.025736349
000010 d7 fc a4 bc 0e 38 ee bc b4 89 cb 3b 3d 88 19 bc
       -0.020140095 -0.029079463 0.006211484 -0.009370861

weight_function_network.initial_cnn.1.running_mean f4 [8]
000000 82 0a bb be f8 78 66 bf 03 dd e0 bb 8d 10 b5 be
       -0.36531454 -0.90028334 -0.006862284 -0.3536419
000010 e8 ae e7 be 20 67 0b 3f 2e d1 78 3d c7 f5 3e bd
       -0.4525063 0.5445423 0.060746364 -0.04662111

weight_function_network.initial_cnn.1.running_var f4 [8]
000000 09 94 6f 3c dc b9 ba 3e 74 71 5f 3c ae ab 2e 3c
       0.014622697 0.36469924 0.013637889 0.010661049
000010 aa 6f 91 3e 87 88 12 3e 14 57 25 3d 00 b5 66 3b
       0.28405505 0.14309894 0.040366247 0.00352031

weight_function_network.initial_cnn.4.weight f4 [16, 8, 3, 3]
000000 a5 07 9b 3d c4 ca a9 3a 3e 54 9f bc ff e2 17 bd
       0.075698175 0.0012954106 -0.01944935 -0.037081715
000010 a3 d7 cf bc 78 d0 ba 3c ea 5e ef 3c a3 a6 ad 3d
       -0.025371378 0.022804484 0.029220063 0.08479049
000020 0b 04 bd 3d b4 58 c2 3d 1f 9b 85 3b 81 3f a5 3d
       0.09229287 0.09489575 0.0040773298 0.08068753
000030 93 9a 90 bd 1d db 8e bd 5b a2 30 3a 51 27 73 3d
       -0.07060733 -0.06975386 0.000673806 0.059363667
000040 f1 34 4c bd 50 3f 8d bd f7 82 d4 bc ae 57 52 3d
       -0.049855176 -0.068968415 -0.025941355 0.05135315
000050 ca 98 32 bd 43 e1 b8 bd 6a 7b c1 3d 4c ed c5 bb
       -0.043602742 -0.0902734 0.094473675 -0.006040251
000060 5c a3 c0 bd f0 f0 c1 3d 11 ea 7b 3c fe c8 2b bc
       -0.09406158 0.09469783 0.01537563 -0.010484932
000070 65 fd ea 3d b7 0b e4 3d 37 e9 bf bd 44 cc 28 bc
       0.114741124 0.11135047 -0.09370654 -0.010302607
000080 14 38 53 bc ca de 95 3d bd ad d4 3d b4 95 e6 3d
       -0.012891788 0.07317884 0.103847004 0.11259022
000090 00 ff cb bd 16 1c 40 3d ac 0a 37 3c ad 82 8d 3b
       -0.09960747 0.046901785 0.011171978 0.0043185563
0000a0 17 e9 bc 3d e5 33 5c bd 2e a9 16 3a 1d ef c9 bb
       0.09224146 -0.053760428 0.00057472556 -0.0061625377
0000b0 7f 40 c0 bd b7 e6 2c 3d 39 d5 e5 bb 30 08 07 bd
       -0.09387302 0.042212214 -0.0070139435 -0.032966793
0000c0 31 4a 5e 3c 69 a2 7d bd ab 52 bb 3d f3 5c 8d bd
       0.013567493 -0.061922465 0.09146627 -0.06902494
0000d0 e1 ef 0e bd 0e 1a 8b 3c 48 b8 74 3d 4c e6 1f 3c
       -0.034896735 0.016980197 0.059746057 0.009759497
0000e0 42 8f bc bd 8c fe a2 3c 7e 19 3d bd a7 5e bd bd
       -0.09207012 0.019896768 -0.04616689 -0.09246569
0000f0 5b 67 3e bd 1d 4b c9 bd 25 53 a1 bd ca 67 d0 bd
       -0.046485286 -0.0982878 -0.07877187 -0.10176046
000100 07 4d ce 3d 41 f8 ce 3d d4 84 5e 3d a3 b2 0a 3d
       0.100732855 0.101059444 0.054325894 0.033861768
000110 54 1e 5f 3d cc ed 1e 3d 99 a6 f7 3c d7 4f b7 bd
       0.054472283 0.038801 0.030230807 -0.08950775
000120 89 11 27 bd 28 fa 64 bc 88 fa 8e bd e3 17 89 bc
       -0.040788207 -0.0139756575 -0.06981379 -0.016735023
000130 ec b1 ba 3c ad 9d 1f bd 9f 7b 31 3d 10 92 46 3d
       0.022789918 -0.03896873 0.043330785 0.04847914
000140 40 1a 2c bd 4b cc 39 bc a5 b1 1f 3d dc 1e 92 bd
       -0.04201722 -0.011340211 0.038987774 -0.07134792
000150 28 75 0d 3d 2f 09 3f bd 98 71 f4 bc 72 94 bf bd
       0.034535557 -0.046639618 -0.029839322 -0.093544856
000160 e6 ad 5c 3d fd af 65 3d cf 88 ac bd 03 5f 3a bd
       0.05387678 0.05607604 -0.08424532 -0.045500766
000170 49 ae c9 3d d7 26 41 3d ca a8 38 bd fe ee 34 3d
       0.098476954 0.04715618 -0.045082845 0.044173233
000180 95 82 b9 3c 0e a6 5f 3d c8 fd 9b 3c 26 86 1d 3d
       0.022645274 0.05460172 0.01904191 0.038458012
000190 c4 b0 82 bd b5 96 2c 3d 67 73 00 3d 43 af da 3c
       -0.063813716 0.042135913 0.031360056 0.0266949
0001a0 ab 25 8b 3d 49 c9 f4 3d 65 45 a3 3d 14 77 ca 3d
       0.06794294 0.119524546 0.0797222 0.098859936
0001b0 34 7d e2 bc ed d1 86 bd e3 36 86 bd d8 36 b9 bd
       -0.027647592 -0.06583009 -0.065534376 -0.09043664
0001c0 fb 8b a0 3c 0b 81 08 bd a9 93 bc 3b d5 61 8b 3d
       0.019597998 -0.03332619 0.005754907 0.06805769
0001d0 00 fa 9b 3c 2e 7f eb 3c 65 c7 a7 bd a9 48 cd 3d
       0.019040108 0.028747167 -0.08192328 0.100236244
0001e0 94 fc e0 3d d1 1f a4 bb 4e 79 98 bd 38 a5 43 3d
       0.109856755 -0.0050086756 -0.07445012 0.047764987
0001f0 87 09 1f bd f5 09 62 3d 16 5f a4 bd a3 66 dd ba
       -0.038827445 0.055185277 -0.08025949 -0.001689155
000200 a2 54 23 3d 0b 35 64 bd e5 99 99 3d 71 97 da bd
       0.039875634 -0.05571465 0.07500056 -0.106734164
000210 79 81 7f bd 36 ce ce bc 95 f1 5c bd 16 34 9a bb
       -0.062379334 -0.025244813 -0.053941328 -0.004705916
000220 3f d6 ba 3d b9 6d 3f 3d 9a 41 55 3d ba d5 be bd
       0.091228954 0.0467355 0.052064516 -0.09318109
000230 7a ba dc 3d 17 af 99 3c 85 30 9e 3c 99 7e 86 bd
       0.10777755 0.018760247 0.019310245 -0.06567115
000240 4f 0e 4b bb e0 ec da bc 0c d1 a9 3c 47 28 4a bd
       -0.003098387 -0.026724279 0.020729564 -0.049354818
000250 54 36 af 3b cb a9 f9 3d 58 0a c3 bc db b8 07 3d
       0.0053470526 0.121905886 -0.023808643 0.033135276
000260 99 04 2b bd 06 24 d1 bd d0 49 a3 bd 8c be c1 bd
       -0.04175243 -0.10211949 -0.07973063 -0.09460172
000270 1d 00 d1 3d 7f ee 8b bc 11 b1 b1 3d 9b e7 64 bb
       0.102051 -0.017081497 0.08676351 -0.0034928087
000280 34 99 4a bd fd 68 85 3c cf fb e0 bd 34 c0 c7 3d
       -0.049462512 0.016285414 -0.10985529 0.09753457
000290 ca 59 80 bc 0c fb af bc 98 93 c7 bd 73 f0 22 bd
       -0.015667815 -0.021482013 -0.09744948 -0.03978009
0002a0 2b d8 2d bd ad 13 d5 bd f3 9a 81 3d 94 19 02 be
       -0.042442482 -0.104041435 0.06328382 -0.1270507
0002b0 97 84 82 3d bd bc e6 bc 66 dc a3 3d 17 ba 0b 3d
       0.06372946 -0.02816617 0.08001022 0.034113016
0002c0 6d 5e be bd 4d 7e b2 3a 4a e9 79 3d 27 9f d5 3d
       -0.09295354 0.0013617963 0.061013497 0.104307465
0002d0 f5 0e 66 bd 35 5a 93 3d 9b c0 d5 bb cd 4d 85 bc
       -0.056166608 0.0719494 -0.0065232045 -0.01627245
0002e0 6f e4 8a 3d f8 21 9f 3d d3 9d 30 bd 88 1b 59 bd
       0.067818515 0.07770151 -0.043119263 -0.05300477
0002f0 0a d2 52 bd 92 51 92 bc 4f 46 e3 bd bd ae f1 bd
       -0.05146984 -0.017861161 -0.11097395 -0.11800907
000300 bb 64 6e bd 0b 25 42 3d 84 ee 05 bb f0 1e ac 3d
       -0.058201533 0.04739861 -0.0020436356 0.08404338
000310 d2 a9 9a bd 50 95 8f bd 34 03 d6 bd 2f 14 0d 3d
       -0.07551922 -0.07010901 -0.1044983 0.034443077
000320 8e 1b c0 bc ff bf 2b bd 36 a5 a8 3b 99 23 8c bd
       -0.02345064 -0.04193115 0.005146648 -0.06842727
000330 89 04 8b 3d 43 bf ca bc 7b 64 8d 3c 08 8e 45 3c
       0.067879744 -0.024749404 0.017259827 0.012057789
000340 98 f1 37 bd 0b 0f 4f 3d 32 98 1b bb 94 87 3e 3d
       -0.044908136 0.050551455 -0.0023741839 0.046516016
000350 04 68 76 3d 35 11 85 bd 67 b2 cf bd b1 40 e0 bb
       0.06015779 -0.064974226 -0.101414494 -0.0068436493
000360 20 80 ea bd df c0 a2 3d fb ce 71 bd b8 91 ee 3c
       -0.11450219 0.079469435 -0.059035283 0.029122218
000370 26 b0 ca bd f9 b3 d7 3c d4 ea d2 bc 6a c9 c0 3b
       -0.09896879 0.026330935 -0.02574674 0.0058833854
000380 5c 19 d5 bd d8 d0 22 bd a2 13 d6 bd ed 0b 65 3d
       -0.104052275 -0.03974995 -0.104529634 0.055919576
000390 28 cd 01 3c ed c9 cc bc c6 87 79 3d 26 b8 79 bc
       0.007922448 -0.02499863 0.0609205 -0.015241658
0003a0 d1 13 bf 3d 15 41 1e 3d 66 f9 f7 bd ba 02 88 3d
       0.093299516 0.038636286 -0.12108116 0.06641145
0003b0 32 76 d0 3d da 2c 4b bc 3b d2 c3 3d 94 4a 4d bb
       0.10178794 -0.01240083 0.09561583 -0.003132497
0003c0 57 ce a8 3c 10 0e ad 3d 2d c4 04 bc 71 35 c1 bd
       0.020606203 0.08449948 -0.008103413 -0.09434021
0003d0 ef dd 21 bd 60 eb 2b 3d 9d 6b ef b8 87 d8 80 bc
       -0.039518293 0.041972518 -0.000114164526 -0.015728248
0003e0 16 d2 1f bb a5 e6 b5 3d e2 a1 cb 3d 65 09 3f 3d
       -0.0024386696 0.088818826 0.09942986 0.04663982
0003f0 91 da 81 bd 95 27 ab bd 21 1f 99 bd e0 65 78 3b
       -0.06340516 -0.08357159 -0.074766405 0.003790252

weight_function_network.initial_cnn.4.bias f4 [16]
000000 f7 c8 5f 3d f5 c6 d9 3c 74 ca a9 bb 54 67 98 3d
       0.054635014 0.026584128 -0.005181605 0.07441583
000010 ef 7b f4 bc 9b 7a 13 3d e4 c9 b7 3d 66 ed 86 bc
       -0.029844252 0.036005598 0.089740545 -0.016470622
000020 c1 1e 94 3d d3 bd d9 bb 8a b0 64 bd 04 6d 32 bd
       0.07232428 -0.0066449433 -0.055832423 -0.043560997
000030 4c 4a 9a 3d b8 7b b3 3d 4a f3 ab bb 12 19 0d 3d
       0.07533702 0.08763832 -0.005247508 0.034447737

weight_function_network.initial_cnn.5.weight f4 [16]
000000 83 68 81 3f 8c 44 7e 3f 7a dd 80 3f 5f b4 7b 3f
       1.011002 0.99323344 1.0067589 0.983221
000010 e6 d3 81 3f 92 dc 7f 3f 6d bd 7f 3f 78 e8 7b 3f
       1.0142791 0.9994594 0.99898416 0.98401594
000020 8f 56 7f 3f 0d 5d 81 3f ef c0 80 3f 2f 47 7e 3f
       0.9974145 1.0106522 1.0058879 0.9932737
000030 e0 f5 7c 3f bb e4 82 3f 35 a7 80 3f f8 05 7d 3f
       0.98812675 1.0226053 1.0051028 0.9883723

weight_function_network.initial_cnn.5.bias f4 [16]
000000 ac 87 6c bb d2 e7 05 bd 3b ec 33 bb 6c ef 34 bc
       -0.003609161 -0.032691784 -0.0027454037 -0.011043411
000010 78 6c 92 3b 2e 68 83 bc e1 f0 97 bc d6 78 b0 bc
       0.004468497 -0.016040888 -0.018547477 -0.021541994
000020 49 58 e7 bb e8 a3 e3 bc e7 26 30 bb ac c9 75 bb
       -0.007060085 -0.027788118 -0.0026878656 -0.003750424
000030 54 20 e0 bb ca 57 97 3b 24 c8 43 bb 18 dc 27 3b
       -0.0068397913 0.0046186196 -0.0029873932 0.0025613364

weight_function_network.initial_cnn.5.running_mean f4 [16]
000000 5f 4e 43 3e 3b d6 2d 3e 41 42 aa be b9 e3 37 3e
       0.19072865 0.16976254 -0.33253673 0.17957963
000010 1a c5 a4 be a3 9c 15 be 1f df 93 3d 33 56 04 3e
       -0.32181627 -0.14610533 0.07220291 0.12923507
000020 09 72 a7 3e b5 bc 5b bc 4e ab 77 bd 65 d7 d7 3c
       0.3270419 -0.0134116905 -0.060466103 0.026347825
000030 71 86 5b bd 73 22 c5 3e 20 d8 21 be ff f1 e3 be
       -0.05359501 0.38502845 -0.15805101 -0.44520566

weight_function_network.initial_cnn.5.running_var f4 [16]
000000 8f db de 3d 56 68 79 3d ec 26 e4 3d 23 7a a0 3d
       0.10881721 0.060890518 0.11140236 0.07835796
000010 60 3a 0d 3e 85 7b 99 3d c2 b7 2a 3e f9 49 ef 3d
       0.137918 0.074942626 0.1667166 0.11684031
000020 e0 1a 59 3e fd 8b 7a 3d 18 a4 c5 3d 62 b7 00 3e
       0.21201658 0.06116866 0.09650439 0.12569955
000030 6e 24 00 3e e8 58 33 3e c0 cf a4 3d 08 14 58 3e
       0.12513897 0.17514384 0.08047438 0.21101391

weight_function_network.initial_cnn.8.weight f4 [32, 16, 3, 3]
000000 e6 37 92 3d 16 e0 6f bd 31 b8 b3 3c 42 f6 d6 3a
       0.07139568 -0.058563314 0.021938415 0.0016400295
000010 88 6c f1 bc b2 f5 70 3d e7 83 5f bc c6 65 cf bc
       -0.029470697 0.058828063 -0.013642288 -0.025317084
000020 bf c0 d3 3c 5d a8 9e bd 93 30 9e 3d 1b f4 91 3d
       0.025848744 -0.077469565 0.077241085 0.071266375
000030 de 39 0b 3d 45 22 b5 3d 23 86 bd 3c ae e5 73 bd
       0.033990733 0.08844427 0.02313525 -0.05954521
000040 1e ce c6 3d 45 76 a5 3d 80 56 33 3d 13 38 a9 3d
       0.097072825 0.08079199 0.043783665 0.082626484
000050 93 61 6b 3d 81 f8 77 bd ba 25 d8 bb 6e 8b df 3c
       0.0574661 -0.060539726 -0.006596294 0.027288165
000060 62 b5 93 bd 15 dc bf 3c c2 88 7e bc b2 fe 1f 3c
       -0.072123304 0.023420373 -0.015535535 0.009765314
000070 fd 0a 80 3c 8c fd 9a 3d aa 5e 71 bd 0b fb 26 bd
       0.01563024 0.075678915 -0.05892817 -0.040766757
000080 b2 13 2a bc 2b f6 81 3d fd b5 a7 3c 7b 8b b4 bd
       -0.010380672 0.06345781 0.020472521 -0.08815666
000090 03 d7 46 3c 37 e7 aa 3c 3f 5b b5 3b 3d 83 54 3d
       0.012136224 0.020862205 0.005534559 0.05188297
0000a0 6b 19 a6 3c 92 f9 a7 3d 66 36 13 bd 1d 53 83 3d
       0.020275792 0.08201899 -0.03594055 0.06412337
0000b0 8b c1 90 bd 47 33 5d bd 00 dd 49 3d 9f 8e 91 3d
       -0.070681654 -0.05400398 0.049283028 0.07107281
0000c0 16 be a6 3d 2e da a1 3b bf 44 6e bc 52 65 d2 bb
       0.08141725 0.004939339 -0.0145427575 -0.0064207697
0000d0 2f 58 5c bc cc 7d 20 3d 67 7b 9f 3b 46 e6 85 bd
       -0.013448759 0.03918247 0.0048670056 -0.06538062
0000e0 0d 3b 4b 3d a7 74 a4 3c 27 0f 38 3d 99 6b 90 bb
       0.049616862 0.020075155 0.044936325 -0.004407358
0000f0 52 c0 8b 3d 5b f0 67 3d 7d 3f 86 bc 7c 7e 8c bc
       0.068237916 0.056625705 -0.016387695 -0.017150156
000100 4d 88 52 3d 12 e6 33 3d 91 9a 6f bd 0d 2c c7 bc
       0.051399518 0.043920584 -0.058497015 -0.024312997
000110 dc bd 35 3d e0 f2 fd bc 77 bf a2 bd 56 9d 78 3d
       0.044370517 -0.0309996 -0.07946675 0.060696922
000120 98 f8 c1 3c f5 c7 d0 ba 93 b8 4a bd 67 b3 8f 3c
       0.023678109 -0.0015928732 -0.04949243 0.0175416
000130 35 f6 06 3d 5c 84 8a 3d 66 d7 0a 3d ea 6c 05 3d
       0.032949645 0.06763527 0.033896826 0.03257457
000140 a5 b1 76 39 60 27 93 3d cf 7c 36 bd 2c c6 99 3c
       0.00023526566 0.071852446 -0.04455262 0.018771254
000150 24 15 b9 3d 7d 10 5e bd 70 25 b3 3c f8 1d 3f 3d
       0.090372354 -0.054214943 0.021868438 0.04665944
000160 46 e4 c5 bc b9 04 15 bd ea c6 7a bd b3 1c 62 ba
       -0.0241567 -0.036381457 -0.061224855 -0.00086254923
000170 1a 78 71 3d 46 94 ed bc 4f 79 32 3b 7b c0 44 3c
       0.05895243 -0.029001366 0.002723295 0.012008782
000180 9a 69 9a 3d dc c4 e3 3c 17 63 bc bd 4b 8f f1 3c
       0.07539673 0.02780383 -0.091985874 0.029487273
000190 b2 b5 6e 3c cc cf 28 bd 62 59 06 bd 2b 3b 85 3d
       0.014569687 -0.041213796 -0.032800086 0.06505426
0001a0 d3 c7 54 bc 67 d5 25 bd 98 3c 2e bd 23 64 09 bd
       -0.012987095 -0.04048672 -0.042538255 -0.033542763
0001b0 b5 17 88 bd 8f 7a 91 bc 24 4f d2 bc b0 25 b0 bc
       -0.06645147 -0.017758636 -0.025672503 -0.021502346
0001c0 6b 85 99 3d a0 55 4a bd 91 c4 8d bd f0 f6 93 bd
       0.074961506 -0.049398065 -0.06922258 -0.07224834
0001d0 80 58 ed bb 94 3d 85 3d 78 2a 2e 3d 46 c1 9b 3d
       -0.007243216 0.06505886 0.04252097 0.07605223
0001e0 d6 87 84 3d 88 b9 6d 3d 3f 30 de 3d c0 73 03 bd
       0.06471221 0.058038265 0.10849046 -0.03209281
0001f0 b5 88 61 3b eb fd c9 3d 54 ba b5 3c 82 f2 04 3d
       0.003441376 0.09862884 0.022183575 0.032457836
000200 78 af 82 bd e6 ee aa 3c 4f 09 b9 bc 4e fd 9e bc
       -0.06381124 0.020865869 -0.022587446 -0.019407894
000210 a7 1e 1c bc 2a 1e 0e bd f2 58 b0 3d ea 80 8b 3a
       -0.009528792 -0.034696735 0.08610715 0.0010643278
000220 b3 27 67 bd 66 c6 4e bd 6d 9e 89 bb 41 34 d1 3d
       -0.056434345 -0.050482176 -0.004199794 0.10215045
000230 31 d0 bb 3c 22 27 86 bc 80 7b fa 3c 46 44 97 bb
       0.022926422 -0.016376082 0.030576468 -0.004616293
000240 0e ee 14 bd 03 3c 8e bd 93 5e ad 3d d7 59 ba 3c
       -0.03635984 -0.0694504 0.08465304 0.022747917
000250 4b 80 10 3d fd cc 40 3c ff d2 7b 3d a0 c2 0e 3d
       0.0352786 0.011767623 0.06148052 0.034853578
000260 9f 8c 48 bd 51 39 fb 3c 50 28 56 bd c0 3c b1 bb
       -0.04896223 0.030666979 -0.05228454 -0.0054088533
000270 af e0 75 3d 51 e4 4a 3d 9a 8a 13 bc 71 a4 60 3d
       0.060028728 0.049534146 -0.009005213 0.054844324
000280 18 05 46 ba be e4 a4 bc c8 b6 3a bd 5f 39 6d bb
       -0.00075538596 -0.020128604 -0.04558447 -0.0036197526
000290 c0 f1 89 bd a1 03 a7 bc 14 e2 01 3d 05 ca 85 3d
       -0.06735563 -0.020387473 0.031709746 0.06532673
0002a0 3d 5c 1b 3c 93 26 1f 3d ad 85 ad bc 74 ce 7f 3d
       0.009482441 0.038855147 -0.021181906 0.06245275
0002b0 fd a2 76 bb 9d bf a7 bc 95 39 67 bd 38 4b 61 3d
       -0.003763377 -0.02047711 -0.0564514 0.055003375
0002c0 af 7f fc 3c e7 91 96 bb 1f ac 3b bd 6d b0 66 3b
       0.030822603 -0.0045950296 -0.045818444 0.0035200373
0002d0 57 83 4c 3d fa 8d ba 3d 84 02 cb 3a c6 7e 89 bc
       0.049929943 0.09109111 0.0015488421 -0.016784083
0002e0 e1 46 3a bd 51 20 c7 3c 66 31 05 bc 2c 28 b0 3d
       -0.04547775 0.024307402 -0.008129453 0.08601412
0002f0 ff 49 21 3d 0e 22 2e bd ad e1 28 3d 77 4d 18 3d
       0.03937721 -0.042512946 0.041230846 0.03718325
000300 35 43 8d 3d 91 1d 31 3d ea 9c 54 3d 0b 29 3e 3c
       0.06897584 0.043241087 0.051907457 0.011606465
000310 a9 a0 f8 bc 4d 34 41 3d 55 92 70 bd 36 0d 62 3d
       -0.030350046 0.04716902 -0.058733303 0.05518838
000320 35 20 5a bd d9 5a 14 3c 97 71 08 bd 59 ab 2b 39
       -0.05325337 0.009054863 -0.033311453 0.00016371663
000330 bc f2 9f 3d 33 8c 31 bd 32 41 60 bd f4 ae 3d 3c
       0.0780997 -0.043346595 -0.054749675 0.011577357
000340 49 6b b9 3b c7 d4 10 3d 55 ff 5f 3d 1a 60 47 3d
       0.0056585413 0.03535917 0.054686863 0.048675634
000350 98 a7 2e bd 1d ab e9 3c 4f b1 29 bc c9 58 a6 3c
       -0.0426403 0.028523976 -0.010357215 0.020306008
000360 95 2c 70 ba 2f bb ad bc 7a f5 53 bc b3 8e 49 3c
       -0.00091619167 -0.02120742 -0.012936944 0.012302089
000370 b3 30 f8 3c 30 97 c6 bc 8b 83 e8 bc de b3 83 bd
       0.03029666 -0.024242014 -0.028383037 -0.06430791
000380 31 38 29 bc 7c 6f b1 3d 08 30 82 3c a7 46 94 3d
       -0.0103283385 0.08663842 0.015892044 0.07240038
000390 83 b3 1c 3d f7 cb 8c bc f2 ad 0d 3d cc b2 50 3d
       0.038257133 -0.017187102 0.034589715 0.050951764
0003a0 09 df 45 bc 3b b8 93 bd 56 a3 7d 3d 3a 8e 38 3d
       -0.0120771015 -0.072128735 0.061923347 0.045057513
0003b0 2f 7b b3 3d a6 46 9d bd ac 78 44 3d 33 3b 30 bd
       0.0876373 -0.07679491 0.047966644 -0.043025207
0003c0 dd df a7 bc 55 eb 51 bd e5 d0 0b 3d 85 06 88 bd
       -0.020492489 -0.05124982 0.034134764 -0.066418685
0003d0 60 d4 97 3d cf 14 53 3b ac 74 4f bd 47 48 00 3d
       0.07413554 0.0032208448 -0.050648376 0.03131893
0003e0 82 1b 5c bd 5a 0b 0c 3d f7 c8 39 3d 8f 04 8b 39
       -0.05373717 0.034190513 0.04535767 0.00026515542
0003f0 e8 14 ff 3c b7 31 9a 3d 0f 64 9b 3d cf 8b 47 3d
       0.031137899 0.075290136 0.07587444 0.048717316

weight_function_network.initial_cnn.8.bias f4 [32]
000000 4a d0 44 3d d1 bd dd bc 84 6b 87 bc cf 14 38 bd
       0.048050202 -0.02706805 -0.01653076 -0.04494172
000010 b7 48 91 3d d0 41 46 3d 00 e3 d7 3b 48 d4 2b bd
       0.070939474 0.048402607 0.00658834 -0.041950494
000020 fc 73 77 bd e5 a3 7b bd 7f 14 93 3d 0f ad 30 3c
       -0.060413346 -0.0614356 0.07181644 0.010783448
000030 bc fb f3 bc 07 02 1d bd 7d 2b 8d bd 9e 28 48 bd
       -0.029783122 -0.03833201 -0.0689306 -0.04886686
000040 9c 4e 6d 3d ce 01 97 3d 4d c7 13 bd 80 fb 96 3d
       0.057936296 0.07373391 -0.03607874 0.073721886
000050 3b 40 2d bd d7 55 aa bd db 18 92 bc 30 ca e0 bc
       -0.042297583 -0.08317154 -0.017834118 -0.02744016
000060 3f 48 8d 3d 54 29 f4 3c 16 a4 b0 bc d3 3f 0c bd
       0.068985455 0.029804863 -0.021562617 -0.034240555
000070 24 d5 bf bc dc 54 a4 bd 57 1a 93 bd 5f c4 43 bd
       -0.023417063 -0.08023998 -0.07182758 -0.047794696

weight_function_network.initial_cnn.9.weight f4 [32]
000000 5e 17 80 3f 5c 80 7c 3f 80 c9 80 3f 07 27 7f 3f
       1.0007131 0.9863336 1.0061493 0.99668926
000010 be 3d 80 3f 5f bd 81 3f 34 3b 7f 3f b0 95 80 3f
       1.0018842 1.0135916 0.9969971 1.0045681
000020 56 ee 80 3f 6f 9f 7e 3f 65 f5 7f 3f 0d c2 80 3f
       1.0072734 0.99462026 0.9998382 1.005922
000030 d4 79 7e 3f fd c6 7d 3f 22 3a 7e 3f 4e 0b 80 3f
       0.99404645 0.9913176 0.99307454 1.000345
000040 a8 54 7f 3f f7 18 7e 3f d2 50 81 3f 54 b3 80 3f
       0.9973855 0.99256843 1.0102789 1.0054727
000050 16 dd 80 3f de d1 7c 3f 97 a4 7d 3f 82 8c 7d 3f
       1.006747 0.9875773 0.9907927 0.9904252
000060 83 5e 80 3f 3b 9f 7d 3f 9f 97 7d 3f a3 ab 7e 3f
       1.0028843 0.9907109 0.9905948 0.99480647
000070 84 6e 7d 3f be 17 82 3f 61 97 82 3f 64 ac 81 3f
       0.9899676 1.0163496 1.0202447 1.0130734

weight_function_network.initial_cnn.9.bias f4 [32]
000000 c2 44 22 bc ae 8d 5e bc c4 68 16 bb 51 64 72 bc
       -0.009904088 -0.013583584 -0.0022950629 -0.014794425
000010 02 7e ba 3a c3 d2 2b 3b 8d 58 09 3a 94 58 0b bc
       0.0014228227 0.0026218153 0.00052393303 -0.008505005
000020 d6 75 ae ba d1 d3 ca bb 19 4c b1 ba 07 fa 8d bc
       -0.0013310264 -0.0061898013 -0.0013526707 -0.017331136
000030 db be 32 3b 3d a0 c5 bb a1 a8 66 bb 07 a9 91 3b
       0.0027274403 -0.006031065 -0.0035195726 0.0044451985
000040 f3 a6 21 3b 90 ea d5 bb ba 6b 8e 3b 91 55 88 bc
       0.002466616 -0.006528206 0.004346338 -0.016642364
000050 2c ee cd bc 3d 62 a5 bb ca 59 38 bc d7 39 00 3b
       -0.025137983 -0.0050471113 -0.011251876 0.0019565725
000060 5c 39 a6 bb 34 57 ed ba 9f 5d ca bb b8 54 1c bc
       -0.0050727557 -0.0018107654 -0.0061757113 -0.009541683
000070 ba 9f bc bb c3 e2 b5 bc 04 a3 60 bb a9 a5 54 3b
       -0.0057563456 -0.022202855 -0.0034276852 0.0032447374

weight_function_network.initial_cnn.9.running_mean f4 [32]
000000 48 a6 3c 3f 16 57 fb 3e 9b aa 25 3e 6a b6 b9 bd
       0.73691225 0.4908988 0.16178362 -0.09067996
000010 51 eb 35 3e 74 6c 8b be d9 0c 06 bf 2c 8b 17 3e
       0.17765547 -0.2723118 -0.52363354 0.14799184
000020 c9 7a 94 3e 00 9e ff bd 30 db 62 bd f9 5c 0f 3f
       0.28999928 -0.12481308 -0.055384815 0.5600124
000030 e8 8f 09 3e ff 18 ca be 4d 6c 24 bf 07 60 25 be
       0.13433802 -0.39472196 -0.64227754 -0.16149913
000040 f0 c4 c8 bd ab f8 a5 3d 12 fd 0f bf f6 50 ad 3e
       -0.09803188 0.0810407 -0.5624553 0.3385083
000050 09 91 ec bd 08 70 a2 be a6 9b 3b 3e 24 87 b8 3e
       -0.11551101 -0.31726098 0.18321094 0.36040604
000060 d5 99 b1 be 5e 22 c0 be 5c bb f7 be 4c 9c 6c 3e
       -0.34687677 -0.3752622 -0.4838513 0.23106498
000070 2d b3 2e be 71 fc c5 3e 56 c0 e4 be e5 8c b8 bd
       -0.17060538 0.3866916 -0.4467799 -0.090112485

weight_function_network.initial_cnn.9.running_var f4 [32]
000000 62 1f 4a 3e ec 0b 36 3e ed 3b 65 3e 97 d6 f4 3d
       0.19738534 0.17777985 0.22386141 0.11954992
000010 94 b8 5c 3e 41 4c c8 3d f4 8e 1c 3e f2 b0 a4 3d
       0.21554786 0.09780169 0.15288907 0.08041562
000020 1b 31 01 3e a1 c4 60 3e d1 e9 ec 3d 41 06 2f 3e
       0.12616388 0.21950008 0.115680344 0.1709223
000030 20 11 57 3e 8f 55 0e 3e 8a 76 52 3e 34 c5 53 3e
       0.21002626 0.13899826 0.20553032 0.20680696
000040 0c c9 b5 3d 72 f3 54 3e 1f 94 10 3e 84 6c de 3d
       0.08876237 0.20795992 0.14119004 0.108605415
000050 76 77 1f 3e 7d c8 12 3e 4e 37 53 3e fe ef 0e 3e
       0.15572914 0.14334293 0.20626566 0.13958737
000060 f8 40 f8 3d f1 16 8b 3e eb 84 73 3e ac 61 60 3e
       0.12121767 0.2716594 0.23781173 0.21912259
000070 06 c2 59 3e c9 b8 11 3e 51 81 e0 3d 37 7e 03 3e
       0.2126542 0.14230646 0.10962165 0.12841116

weight_function_network.initial_cnn.11.weight f4 [32, 32, 3, 3]
000000 6c 14 7a bc 03 04 25 bd 64 41 de 3c 6e 5b 1f bc
       -0.015263658 -0.04028703 0.02713079 -0.009726388
000010 16 1d 69 bd cd 45 6d 3c cc 3f 3c 3d fd 34 05 3d
       -0.056912504 0.014481974 0.04595928 0.032521237
000020 07 b5 31 3d 86 f8 02 3d f5 1a 02 bd 07 cd 17 3c
       0.04338553 0.03197529 -0.03176399 0.009265191
000030 28 8c d2 bb 18 aa 52 bd c1 7d ee 3c f9 5b e5 bc
       -0.0064253993 -0.051431745 0.029112699 -0.027997958
000040 5e b3 ee 3c 66 e4 52 bd f4 7c 80 3d ab 20 12 3d
       0.029138263 -0.05148735 0.06273833 0.035675686
000050 77 6a 7f 3c c2 e8 23 bd 81 96 fc 3b f6 ee 5a 3c
       0.015589348 -0.040016897 0.007708371 0.013362637
000060 96 31 83 bc bf 73 ca 3c 9f 58 b1 bb 4a aa 51 3d
       -0.016014855 0.024713395 -0.005412176 0.05118779
000070 e6 91 43 bc d3 3a 46 bd c3 e5 0b 3d c0 a3 d0 bb
       -0.01193664 -0.048395943 0.034154665 -0.006367177
000080 4f 66 cb bc be f7 33 3d 75 ab c6 bc bd 77 cd 3a
       -0.024829058 0.043937437 -0.024251679 0.0015675944
000090 e8 87 1c 3d 08 5e 7e 3d be 07 00 3d 24 0f 8d ba
       0.038215548 0.062101394 0.031257384 -0.0010761959
0000a0 ec cd 25 3c dd ed 75 3b 97 4b 4b 3d 03 73 4c bd
       0.010119896 0.003752581 0.049632635 -0.04991437
0000b0 7b 0b 30 3d eb 35 45 3b 6c b0 29 3d c0 86 8f 3d
       0.0429797 0.0030091952 0.041428015 0.070081234
0000c0 ba f6 9a 39 69 20 81 3d 70 0f 28 3d 0d 2d 20 bd
       0.00029556995 0.0630501 0.041030347 -0.039105464
0000d0 c8 b1 df 3c 63 a6 1f 3b 7a 09 52 3d 90 15 c0 bc
       0.027306452 0.0024360649 0.05127857 -0.023447782
0000e0 3a cc f9 bc 01 b6 c2 3b de 11 3c bd 0d b3 56 bc
       -0.03049289 0.0059421067 -0.045915477 -0.0131042125
0000f0 cd 17 8f bd 2c 4e 79 bd 4b 3e 8f bc e4 58 e4 bc
       -0.069869615 -0.060865566 -0.017485758 -0.027874418
000100 46 9d a2 3c 1b 8a 16 3d fc 18 39 bd be 37 f7 bc
       0.019850384 0.0367528 -0.045189843 -0.030177947
000110 0e 56 5a 3c 04 da fa 3c 7d 0a d7 3c bd a9 6c 3b
       0.013326181 0.030621536 0.026250118 0.0036111914
000120 41 33 d4 bc e8 14 75 3b f7 55 b6 3c 4a 77 69 3d
       -0.025903346 0.0037396494 0.022257788 0.05699853
000130 51 98 16 bd 40 bd 05 bd ca 87 1e bb 69 d2 7a 3d
       -0.036766354 -0.032651186 -0.0024189823 0.06123582
000140 b6 eb 8d 3b c0 4e 5e 3c d4 ff 70 bd f8 0f 2e bd
       0.0043310774 0.01356858 -0.058837727 -0.042495698
000150 43 db 23 3d aa 81 ad 3c 99 de 60 bd 65 fe 5d bc
       0.040004026 0.021179993 -0.054899786 -0.013549422
000160 e7 af 13 bd d5 63 83 3d 91 c1 99 3c 5c 7c 08 3c
       -0.036056425 0.06415526 0.018769057 0.008330431
000170 36 a0 2e bc 5f 5c 29 3d 81 8a 9c 3c d0 a9 2b bc
       -0.010658314 0.041347858 0.019109013 -0.010477498
000180 6b 68 80 3b 5d a2 a9 3b c1 79 11 3c d4 b4 85 3d
       0.0039186976 0.005176826 0.008879126 0.06528631
000190 52 10 0b 3d 59 bb 61 3d ce 34 0a bd 2c ab 2b 3d
       0.03395111 0.05511031 -0.033741765 0.04191129
0001a0 d0 f4 30 bd bc 0f 25 3b ff 4f 1e 3c 73 ca 70 3d
       -0.04320222 0.002518638 0.009662627 0.05878682
0001b0 19 bc 01 bd 7c 73 37 3c a4 f7 3b bd 73 a1 83 3c
       -0.031673525 0.011196967 -0.045890465 0.016068196
0001c0 33 93 46 3b 0f 8a 14 3d 23 9e a6 bb ca 2f 33 bd
       0.003030014 0.036264475 -0.0050847693 -0.043746747
0001d0 a8 6a ba 3b fe f7 af 3c dc 12 b8 3c 0d e1 ed 3b
       0.005688984 0.021480557 0.02246993 0.007259494
0001e0 a5 df 14 bd c3 b2 10 3d 69 12 8a 3c 75 d2 39 bd
       -0.036346097 0.03532673 0.016854482 -0.045366723
0001f0 23 39 42 3d b6 4c 23 bc df 95 a9 bc a1 00 1a 3d
       0.04741777 -0.00996702 -0.020701347 0.037598256
000200 5a 14 15 3d a5 d0 f9 3c d1 62 c4 3c d3 2f 73 3c
       0.036396362 0.030494997 0.0239729 0.014842945
000210 91 ad 0c bd 1d 0a d8 3c 46 a6 04 3d f2 87 28 bd
       -0.034345213 0.02637201 0.032385133 -0.041145273
000220 89 39 3d bd a3 ed 21 bd 36 0d 8f 3c 8e 03 48 bd
       -0.046197448 -0.03953327 0.017462354 -0.048831515
000230 7f c0 1c bd 48 4f 0d bd af ab 6e 3d a2 58 87 3d
       -0.038269516 -0.034499437 0.0582692 0.06608702
000240 4e d7 cf bc 2a d1 13 3d f3 b7 37 3d 4f 25 86 3b
       -0.02537122 0.036088146 0.044853162 0.004093803
000250 75 8a d0 bc 34 0a f8 bc 8b 52 08 3d 40 a8 63 3c
       -0.025456646 -0.030278303 0.033281844 0.013895094
000260 cc 8c cf bb 0e eb ca 3c 33 4c d0 bc 5b eb 9f 3c
       -0.006333923 0.024770286 -0.02542696 0.019521406
000270 3a 8e 33 3b 15 89 60 bd 3c 57 f1 3c 89 63 11 bc
       0.0027398006 -0.05481823 0.029460542 -0.008873829
000280 12 3e 2d bb e7 48 0b 3c f9 0c af bc f1 f3 6e bc
       -0.0026434702 0.008501268 -0.02136849 -0.014584527
000290 1c 1e 72 bd bc 5e f8 bb 2e 73 01 bd 24 b8 57 bd
       -0.059110746 -0.0075796526 -0.031603985 -0.052665845
0002a0 0e ce a6 3b c1 ad b9 3b fd d1 4f bd be 9f 35 3d
       0.0050904816 0.005666465 -0.05073737 0.044341795
0002b0 3a 58 28 bd a8 02 e0 3c 77 1c ff bc 97 1a 5e 3c
       -0.041099764 0.027345017 -0.031141503 0.013556144
0002c0 7f 0e 6c 3d 6c 63 08 3d ec cf 36 3d a1 36 f2 bc
       0.057631012 0.03329794 0.044631884 -0.029567065
0002d0 99 91 a6 bc 1a 4c b7 3c 75 49 82 bd 91 f5 c3 3c
       -0.020333098 0.022375155 -0.06361667 0.023920806
0002e0 54 2e 67 3d ab df 6a bc 41 b7 88 bb 3f e2 b2 bc
       0.056440666 -0.014335553 -0.004172236 -0.021836398
0002f0 5d bd 29 3d e4 30 ee 3c f9 22 87 b9 a3 f9 63 3d
       0.041440357 0.029076047 -0.00025775263 0.055657994
000300 45 cc 3c 3d 60 ca 87 3d 65 82 d6 b9 45 d1 56 bd
       0.046093244 0.06630397 -0.00040914412 -0.05244567
000310 88 bb 12 3d 93 a4 c5 ba af 37 77 3d fe c7 32 3d
       0.035823375 -0.0015078954 0.06035584 0.04364776
000320 c4 df 1a 3b 6c 23 f8 bc fc 0f 27 bd 1d 80 0f 3d
       0.002363191 -0.030290328 -0.04078673 0.035034288
000330 e2 2d 42 3d b2 01 24 bd 51 ec 5f bd 78 83 77 bc
       0.04740704 -0.04004068 -0.05466873 -0.015107028
000340 c7 2e 6a 3c 04 d7 1c 3d c9 8b d9 3c 5a 46 9a 3b
       0.014293379 0.038290992 0.026555913 0.0047080936
000350 c1 fa 87 3d f6 0d 75 3c b1 fb c3 bc 0c 89 88 3c
       0.066396244 0.014956942 -0.023923727 0.016666912
000360 4d 64 6b bc 75 7d 28 ba c0 5f a5 3c 58 72 cd bc
       -0.014367175 -0.0006427386 0.020187259 -0.025078937
000370 20 dd 77 3d aa 5d 20 3d d5 23 ad bc c2 5f 9c bb
       0.060513616 0.039151825 -0.02113525 -0.0047721574
000380 ae 1b 31 bc 23 49 34 bd 7d e9 4f bd 32 8d 98 3c
       -0.010809822 -0.04401506 -0.05075978 0.018622015
000390 66 3f 3d bc 2d dc 46 bd 35 c1 10 bd b9 01 a6 3c
       -0.01155076 -0.04854982 -0.035340507 0.020264493
0003a0 b6 d0 15 bd 34 92 4d 3d 87 6d 69 bc d5 54 23 3c
       -0.036575995 0.05018826 -0.014247305 0.009968956
0003b0 f6 e8 18 3d 65 5a bc 3b 7d 8e 41 3d 03 03 ea 3c
       0.037331544 0.0057480806 0.047255028 0.02856589
0003c0 cf a4 52 bd df 85 33 bd ba b6 0e 3c 5e 67 f6 bc
       -0.051426705 -0.04382884 0.008710558 -0.030078586
0003d0 36 0b e4 3c 3c f0 0d 3d 70 ac 38 3d 07 55 6b bc
       0.027837377 0.034652933 0.045086324 -0.014363534
0003e0 f3 ca 32 bd 2c 79 cb 3c 6b 0e 74 3c 03 6d 1c 3d
       -0.04365058 0.024838053 0.014896016 0.0381899
0003f0 8c 74 00 3d 36 9e 3c 3d 19 ab 0f 3d 92 00 05 bd
       0.031361148 0.04604932 0.03507528 -0.032471247

weight_function_network.initial_cnn.11.bias f4 [32]
000000 b0 92 61 3d 2b 4e 35 bd 04 d5 12 bd 4b 0d 74 3c
       0.055071533 -0.044264 -0.03584768 0.014895747
000010 4c 60 c6 bc a2 62 02 bd 6d 79 81 bc 43 2c 20 bd
       -0.02421584 -0.031832345 -0.01580497 -0.03910471
000020 66 38 9d 3c 10 0b 62 3c 84 c1 64 3d d8 4d 14 bd
       0.019191932 0.013796583 0.055848613 -0.03620705
000030 27 4d d8 3b f0 ee c1 3c a9 09 97 3b d9 fd 40 bd
       0.006600994 0.023673505 0.004609306 -0.047117088
000040 7f 61 88 bc 33 2d 28 3d a0 d0 98 bb ec 40 82 3c
       -0.016648052 0.04105873 -0.004663542 0.015900098
000050 2c 90 6b 3d 8c da 4c 3d 66 36 ec bc 04 9e be bc
       0.05751054 0.05001311 -0.028834533 -0.023268707
000060 80 ee e1 bc 71 02 1b 3d 09 b8 73 3c 1d a1 69 3b
       -0.027579546 0.037844125 0.01487542 0.003564901
000070 de cc 38 3c 5c e6 ac 3c b4 f8 b9 3a 5a ac 53 3d
       0.011279313 0.021105938 0.0014188499 0.05167804

weight_function_network.initial_cnn.12.weight f4 [32]
000000 dd 44 80 3f 52 78 81 3f 4d b1 7c 3f e0 ed 7b 3f
       1.0021015 1.0114844 0.9870804 0.98409843
000010 6a 86 7e 3f c7 41 7f 3f a3 a6 7d 3f 67 b0 81 3f
       0.9942385 0.99709743 0.9908239 1.0131959
000020 aa a5 7c 3f a6 99 80 3f 87 82 81 3f a8 d9 7e 3f
       0.98690283 1.004689 1.0117959 0.9955087
000030 b3 dd 7f 3f ff 38 80 3f 9a e6 7c 3f 65 43 7f 3f
       0.9994766 1.0017394 0.9878937 0.9971221
000040 07 21 80 3f 32 c8 7e 3f 2c da 80 3f 77 8e 7f 3f
       1.0010079 0.99524224 1.0066581 0.9982676
000050 66 fd 81 3f 17 8a 7f 3f 84 3b 80 3f 2c 91 7e 3f
       1.0155456 0.99820083 1.0018163 0.99440265
000060 36 ab 81 3f 49 7b 7d 3f 34 33 80 3f 09 1d 80 3f
       1.0130374 0.99016243 1.0015626 1.0008861
000070 94 95 80 3f 0e ff 7d 3f e0 a4 7e 3f 57 90 81 3f
       1.0045648 0.9921731 0.9947033 1.0122174

weight_function_network.initial_cnn.12.bias f4 [32]
000000 06 9b 29 bc bc 4f a2 39 c9 8a 8e bc 43 b7 75 bc
       -0.010351902 0.00030958455 -0.017400162 -0.014997306
000010 34 db 4e bc 6a 7a ef 3b d9 55 8c bc 62 3e 4f bb
       -0.012625504 0.007308294 -0.01713078 -0.0031622876
000020 28 a1 53 3b 6c 68 2d bc d4 ca 63 bc e0 ac b3 bc
       0.0032292102 -0.010583978 -0.013903338 -0.02193302
000030 90 1a 31 bc bf d7 d7 bb f5 ef 80 bc 64 a8 5f 3b
       -0.010809556 -0.0065869982 -0.01573942 0.0034127468
000040 34 95 13 bc b3 e3 c1 bb c7 02 88 3c 45 36 1b bc
       -0.009007741 -0.0059170364 0.016602887 -0.009473388
000050 ab e4 2c 3b 66 4f 06 3b 4d eb e5 bb 1c ba 4b bc
       0.0026381414 0.0020494103 -0.0070165754 -0.012434509
000060 e7 10 98 bc 2e 59 41 bc e6 d9 13 bc 70 61 d0 3b
       -0.018562747 -0.011801047 -0.009024119 0.0063592717
000070 18 5c 80 bc 12 19 85 bc 42 56 9c bb df 76 ce bb
       -0.015668914 -0.016247306 -0.004771025 -0.0063007916

weight_function_network.initial_cnn.12.running_mean f4 [32]
000000 c8 84 e2 3e a6 78 93 be 07 d4 06 3e 3e b2 1e be
       0.4424193 -0.28802985 0.1316682 -0.15497681
000010 6b 0d 09 3e bc 6d ff be 3c 3a 35 bd 53 40 2b bd
       0.13384025 -0.49888408 -0.04424499 -0.04180939
000020 7a 72 8e be 84 8b ab be 49 41 e4 3e 6e 44 8c 3e
       -0.27821714 -0.3350488 0.4458106 0.27395958
000030 27 d3 e0 3d 2f b6 ae be 55 14 25 be 83 fe 35 be
       0.10977774 -0.3412337 -0.16121037 -0.1777287
000040 ce a4 16 be 6e e6 d9 bc 57 7a 58 be a7 d4 86 3e
       -0.14711305 -0.026599135 -0.21140419 0.26334116
000050 54 e5 3d 3d c7 a4 fb bd a3 97 37 be a8 c7 5b 3d
       0.046361282 -0.12287288 -0.17928939 0.053657204
000060 63 ff 9e 3e a8 a3 5e 3e 11 fb c3 3a a4 9c a7 bc
       0.3105422 0.21742117 0.0014952143 -0.020460434
000070 be 8f cf 3e 06 87 b5 bd cf 21 95 3e 73 73 2f be
       0.40539354 -0.08863644 0.29127356 -0.17133884

weight_function_network.initial_cnn.12.running_var f4 [32]
000000 ee 21 d0 3d 54 41 e7 3d d2 14 01 3e e9 46 1c 3e
       0.101627216 0.11291757 0.12605599 0.15261425
000010 c3 db 0e 3e 48 b5 63 3e 4e 0b b1 3d 76 99 da 3d
       0.1395102 0.22237122 0.08644734 0.106738016
000020 47 36 ef 3d d9 e9 00 3e 35 a0 1e 3e eb dc d3 3d
       0.116802745 0.12589206 0.15490802 0.10344871
000030 e8 28 0e 3e ac 45 ba 3d 4e 97 b2 3d 99 e3 00 3e
       0.13882792 0.0909532 0.08720265 0.12586822
000040 3d 48 cf 3d 1d 11 e1 3d 94 16 13 3e 50 aa c7 3d
       0.101212 0.10989592 0.14364082 0.097492814
000050 b5 23 ce 3d 5b 8b f9 3d 8b 30 91 3d 3f 9a f9 3d
       0.10065404 0.12184783 0.07089337 0.12187623
000060 b1 f1 ac 3d db e1 24 3e 9e bf 13 3e 4a 1d f1 3d
       0.084445365 0.16101782 0.14428565 0.117731646
000070 0c 6b 0d 3e d8 01 06 3e f8 72 db 3d d4 e8 05 3e
       0.13810366 0.13086641 0.10715288 0.13077098

weight_function_network.adaptive_layer.1.weight f4 [64, 32, 3, 3]
000000 04 d1 b1 bc 00 e6 29 3d 83 71 c8 39 f3 a3 e3 3b
       -0.021706112 0.04147911 0.00038231545 0.0069470345
000010 bc 15 24 bd 34 f9 15 3d cb 64 a5 bc c6 60 52 3d
       -0.04005979 0.03661461 -0.020189663 0.05136182
000020 0a c1 c3 3c b6 e4 8d 3c c8 97 04 3c 40 18 99 bd
       0.02389576 0.017320972 0.008092828 -0.074753284
000030 58 a7 88 bd f2 58 05 bd 5d 91 11 bd 5d 59 83 bc
       -0.06672543 -0.032555528 -0.03553902 -0.016033823
000040 e7 a0 a1 3c 02 78 0f bd 4d f4 f4 3c 2e e6 b9 bb
       0.019730045 -0.035026558 0.029901648 -0.0056731915
000050 00 94 2b 3d cb eb 81 bb 23 36 11 3d 95 81 ef 3c
       0.04188919 -0.0039648763 0.03545202 0.029236594
000060 63 d1 85 3c 53 f0 4b 3d 8a 67 5f bc 25 8a 5d 3d
       0.016335195 0.049789738 -0.0136355255 0.054086823
000070 f6 a7 22 3d 20 6a 51 3c 22 8b 1e 3d 9c d9 3f 3d
       0.03971096 0.01278165 0.038706906 0.046838388
000080 f8 90 40 bc 51 b3 a7 bc 75 08 5f bd 1f f0 4a 3b
       -0.011753313 -0.020471247 -0.054451425 0.0030965877
000090 85 6b ca 3c c2 a4 4c bd 50 be 99 bb 6a 31 4e bd
       0.024709472 -0.049961813 -0.0046918765 -0.050340094
0000a0 e0 21 5e bd d3 b6 6b bb a5 96 c6 3c d3 1f 41 3d
       -0.054231524 -0.0035967126 0.024241755 0.04714949
0000b0 00 7e 36 bd 31 0f eb bc 26 e5 50 3d a5 b8 15 bd
       -0.044553757 -0.028693767 0.050999783 -0.036553044
0000c0 96 c5 2f 3d ed d2 ba 3b 7a d1 80 3b ee ec 99 bc
       0.042913042 0.005701414 0.0039312216 -0.018789735
0000d0 8a c1 ac bc 40 21 15 bd 57 28 aa bc 8d b2 3a 3d
       -0.02108838 -0.036408663 -0.020771189 0.045580436
0000e0 cf 9e 8b bc bb d2 3e bd 2b e8 36 3c 9b 2d 2d 3d
       -0.0170435 -0.046587687 0.011163752 0.04227982
0000f0 c9 89 30 3d 92 2b 17 bd 97 58 24 bd 16 91 f8 3c
       0.043100152 -0.036906786 -0.04012355 0.03034262
000100 05 00 4b 3c c7 34 88 bd 59 a8 21 bd 7c 7f 83 bd
       0.012390141 -0.066506915 -0.03946719 -0.064208
000110 33 31 42 bc 52 b1 1d bd 77 f3 ed 3b e8 32 97 bd
       -0.01185255 -0.038499184 0.0072616893 -0.073827565
000120 50 31 7f bd 31 1a 28 bd d9 a5 f4 3c b4 61 f9 bc
       -0.062302887 -0.041040603 0.029864239 -0.030442096
000130 c8 a3 d3 bc 7e 9b ca bc 51 52 3b bc 09 69 47 3d
       -0.025834933 -0.024732348 -0.0114332 0.048684154
000140 8f e8 fe bc 2a 2d 46 bc fd 30 3c bd bd c0 ee bc
       -0.031116752 -0.012095729 -0.045945156 -0.02914464
000150 ce 36 70 bd 4c bf 57 bb ca bd a7 bc 8a d0 5a bd
       -0.058646016 -0.0032920418 -0.02047624 -0.053421535
000160 21 3b 3a bd 93 9c 43 3d d3 2e 04 3d 3d 98 3e 3d
       -0.045466546 0.047756743 0.032271218 0.046531904
000170 d1 01 5c bd ae e6 00 3d 30 4c d2 bb 06 b8 56 3d
       -0.05371267 0.031469993 -0.0064177737 0.052421592
000180 e7 f9 43 bc 77 c8 da bc 2f 55 81 3c 9c bf 46 bd
       -0.011961437 -0.026706917 0.015787689 -0.048522577
000190 d0 e5 5d bd 7b b4 57 bd b9 83 29 3b 6e 42 ea bc
       -0.054174244 -0.052662354 0.0025865866 -0.02859613
0001a0 1a 6e 8e ba 90 7c ba 3c 95 fb 3e bc 0e 01 d1 ba
       -0.0010866553 0.022764474 -0.0116566615 -0.0015945749
0001b0 c1 c5 79 bd d4 50 5f bd bd f3 b2 bc 65 27 ee 3b
       -0.06097961 -0.054520443 -0.02184474 0.00726788
0001c0 74 5f 54 bd 21 e5 26 3d de 00 88 bd 8e bc 4b bd
       -0.051848844 0.040745858 -0.066407904 -0.049740367
0001d0 ae 98 3e bd 58 d0 ca bb 4e 30 63 3d 0c 8d c0 b8
       -0.046532325 -0.0061893873 0.05546599 -9.1815455e-05
0001e0 4e bb 33 3d 24 98 e4 ba b8 1c d5 bc 8e ef a0 bb
       0.0438798 -0.0017440361 -0.02601467 -0.0049113696
0001f0 96 e0 ec bc 89 ef 20 bd 2c 22 03 3d 8a bb 1b 3d
       -0.028915685 -0.03929094 0.03201501 0.038020648
000200 a6 2c af 3c 6d 4b b0 bc 03 26 e4 bc 91 40 eb 3c
       0.021383595 -0.02152034 -0.027850157 0.028717311
000210 42 07 3c 3d 0c 72 37 3d 36 23 0b 3d 8d de 02 bc
       0.04590536 0.044786498 0.033969127 -0.007987631
000220 bd 35 12 3d a5 50 92 39 b7 57 c0 bc fd 43 2c bd
       0.03569578 0.00027907375 -0.023479326 -0.042057026
000230 68 67 72 bb 58 d7 a6 bc 5e 6c d8 bc 0f 1f db bc
       -0.0036987904 -0.020366356 -0.026418861 -0.026748208
000240 5c 73 53 bd 72 06 fd 3c 0f 29 5e 3d b1 94 48 bd
       -0.051623687 0.030886862 0.054238375 -0.04896993
000250 fa 17 14 bd df 2c 6b 3d d9 8d 29 bc be c6 c5 bc
       -0.03615568 0.05741584 -0.0103487605 -0.02414262
000260 38 aa dd 3c 4b db 0f bc e4 81 51 bc 5f 8c 11 3d
       0.027058706 -0.008780311 -0.012787316 0.03553426
000270 a8 52 b0 3c 60 40 83 3c 8b 92 d3 bc 82 a1 2c 3c
       0.021523789 0.016021907 -0.025826713 0.010536553
000280 7a c4 5d bd 16 e5 40 3d 6c 7c fc 3b d0 49 64 3d
       -0.054142453 0.047093473 0.007705262 0.055734456
000290 c0 8d 59 bd b3 e8 7d 3b d8 27 ec b8 b2 15 26 bd
       -0.0531137 0.0038743436 -0.000112607784 -0.040548034
0002a0 80 50 29 bd b7 81 0a 3d fc 5e dc 3c 11 d6 53 3d
       -0.041336536 0.033815112 0.02690076 0.05171782
0002b0 05 be d4 3c 44 b2 46 bd 87 fd ce 3c 44 3f 57 bd
       0.025969515 -0.04850985 0.025267376 -0.05255057
0002c0 30 cb 56 bd 47 93 97 bc 65 ba 29 bd bd 29 7f 3b
       -0.05243987 -0.018502844 -0.041437525 0.003893479
0002d0 79 18 1c 3d c5 e4 f6 3c d3 db 00 bd d3 66 6d bd
       0.038109276 0.030138383 -0.03145964 -0.05795939
0002e0 43 38 30 bd 85 9d 80 bd 9a 63 2c bd 8d 1c 24 bd
       -0.043022405 -0.062800445 -0.042087175 -0.04006629
0002f0 a7 6d 03 bd 87 e8 23 bd 94 ba 3d bb 83 0b 67 3c
       -0.032086994 -0.040016677 -0.002895032 0.014101866
000300 1b 50 3b bd c5 0d 07 3c 86 31 b5 bb f1 44 5e bc
       -0.04573069 0.008243029 -0.0055295853 -0.013566242
000310 ce cd 1d bc 38 08 2a 3d d2 f8 cc 3c 66 ac 63 3d
       -0.009631587 0.041511744 0.02502099 0.055584334
000320 50 85 2b 3d 33 0b 43 3d e5 de 3b bd bd 37 b0 3c
       0.041875184 0.047618102 -0.045866866 0.021510953
000330 5b 25 50 3c e6 1c 77 3d a3 2e ca 3c 93 8b ca 3c
       0.012704219 0.060330294 0.024680441 0.024724757
000340 92 3a 13 3d 3a c7 09 3d e6 ca c6 3c 6e 50 4c bd
       0.03594453 0.033637263 0.024266671 -0.04988139
000350 02 a8 09 bc f9 24 e1 bc d1 77 02 3d 48 94 f0 bb
       -0.008401873 -0.02748345 0.031852547 -0.0073418953
000360 0f 9c 19 bc 08 67 00 bd 30 75 f9 ba 97 d8 a0 bc
       -0.009375586 -0.03134826 -0.0019032117 -0.019634528
000370 71 dd 53 bd 66 e8 2f 3d 40 bb 6e bc 94 63 45 bc
       -0.051724855 0.04294624 -0.014571011 -0.012047667
000380 c5 b5 23 bd c6 f6 32 bc 21 af 2e 3d 7b db c0 3c
       -0.03996827 -0.010923093 0.042647485 0.023542156
000390 61 2b ac 3c 0c 9c f7 bc aa 32 32 bd ca 62 e9 bc
       0.021016778 -0.030225776 -0.04350535 -0.02848949
0003a0 fb 63 42 3d 7a a4 6b 3d 82 86 c7 3c 9c 79 26 bd
       0.04745863 0.057529904 0.02435613 -0.04064332
0003b0 bb 2b 27 bc 8b c9 65 bd 58 8d 90 3c ca 4e 3d bd
       -0.010203297 -0.05610041 0.017645523 -0.046217717
0003c0 8f ec 59 3d 92 ba cc 3c c1 0c cd 3c 97 fe 0a 3b
       0.053204115 0.024991307 0.025030496 0.0021208876
0003d0 2c fb 3e 3c 64 1c 02 bd 60 a9 26 bd 10 3d f6 3c
       0.011656564 -0.031765357 -0.040688872 0.030058414
0003e0 08 72 ce 3c 34 8f d8 bc 11 2d 15 3d 03 03 d9 3c
       0.025200859 -0.026435472 0.03641993 0.026490694
0003f0 06 61 64 bd 8f 31 16 bd f9 4d 1e 3d b0 2d 17 bd
       -0.05575659 -0.036668357 0.03864858 -0.036908805

weight_function_network.adaptive_layer.1.bias f4 [64]
000000 e1 54 ce bc 65 f7 1a bd 6b 3a 5b 3d 34 f5 d5 3c
       -0.025186958 -0.03783359 0.05352251 0.026117899
000010 78 9a 1e bc b3 92 10 3d 41 64 0e bb cd 95 41 bd
       -0.009680383 0.035296153 -0.0021727236 -0.047262
000020 c3 ab 14 3d c4 9b fb 3b 7b d9 42 bd 57 36 4a 3d
       0.036296617 0.007678481 -0.047570687 0.04936823
000030 b7 07 47 bd 6e 7f 1f 3d ec b5 33 bd b6 14 d6 bc
       -0.04859134 0.038939886 -0.043874666 -0.026132923
000040 f9 ad 5a 3d 16 b3 ca 3c 8a 65 b0 bc eb b7 a1 3c
       0.05338857 0.024743598 -0.021532793 0.01974102
000050 86 5e e1 bc 5d 26 32 3d ce b4 64 bc 01 f4 00 3d
       -0.027510893 0.043493617 -0.013959123 0.0314827
000060 06 b4 fe bc 03 7f 18 3d d0 a8 ca 3c 55 21 61 3d
       -0.031091701 0.037230503 0.0247387 0.05496343
000070 61 6d b4 3b 03 b3 e8 3c b2 d8 d7 3c 40 c4 3a 3d
       0.005506203 0.028405672 0.026348446 0.045597315
000080 57 a0 30 bd 63 9c f8 3c 5d 62 b1 3c ea ff eb bc
       -0.043121662 0.030348008 0.021653349 -0.028808553
000090 5d 89 00 3d 94 32 95 bb e4 5a 4b bd 7e c6 35 bb
       0.031381 -0.0045531485 -0.049647227 -0.0027736719
0000a0 6a 2e 94 bc 72 be d0 bc a1 67 41 3d 6d 8a 86 3c
       -0.018088538 -0.025481436 0.04721797 0.016423428
0000b0 ca 04 7a bb b0 4d 2c bc 09 5f db bc 6b 9d 2c bd
       -0.0038149827 -0.010516569 -0.026778715 -0.042142313
0000c0 d5 8e 1c bd 41 10 85 3c a4 d4 66 bc 45 8d 2b 3b
       -0.038222153 0.016243102 -0.014088783 0.0026176732
0000d0 3a 2b 61 3d 19 97 b5 3c 00 fb 14 bd d1 82 5f bd
       0.054972865 0.022166776 -0.036372185 -0.054568116
0000e0 88 98 04 3d 46 e1 2f bd 8e 99 4b 3d d4 0c 4f bc
       0.032372028 -0.042939447 0.049706988 -0.012637336
0000f0 48 26 53 bd 1b de 3d 3c ee 72 12 bd 5f 43 65 3d
       -0.05155018 0.011588599 -0.035754137 0.055972453

weight_function_network.adaptive_layer.2.weight f4 [64]
000000 a7 ea 81 3f 0f 7d 7f 3f c2 90 80 3f 42 30 7f 3f
       1.0149735 0.998002 1.0044177 0.9968301
000010 9d 20 7f 3f 6c 98 7f 3f 1f 3b 7b 3f 56 4c 80 3f
       0.9965914 0.9984195 0.98137087 1.0023296
000020 fe 30 80 3f e0 f8 7e 3f 60 74 81 3f a1 11 7c 3f
       1.0014951 0.99598503 1.011364 0.984644
000030 aa fc 7c 3f 57 8b 7c 3f 97 f8 7f 3f b4 e5 7f 3f
       0.98823035 0.98650116 0.99988693 0.99959874
000040 df b1 82 3f e0 37 81 3f d0 75 80 3f c3 9e 7f 3f
       1.0210532 1.0095177 1.0035954 0.99851626
000050 f4 c1 7f 3f 3b 8b 80 3f 18 ca 80 3f c2 fe 7e 3f
       0.99905324 1.004249 1.0061674 0.9960748
000060 6d b6 7e 3f 12 4f 7e 3f a0 9c 81 3f c9 4a 7d 3f
       0.9949711 0.993394 1.0125923 0.9894224
000070 4f c6 7e 3f 10 52 81 3f ea 35 80 3f 6a 4a 79 3f
       0.99521345 1.0103168 1.0016453 0.9737917
000080 6f 43 80 3f 70 1a 7e 3f 19 59 7f 3f 76 79 7e 3f
       1.0020579 0.9925909 0.9974533 0.99404085
000090 82 20 7e 3f b0 3f 7f 3f d5 f3 7d 3f 66 0c 7d 3f
       0.99268353 0.99706554 0.99200183 0.98847044
0000a0 60 95 82 3f 67 35 82 3f 65 29 7e 3f 62 eb 7e 3f
       1.0201836 1.0172547 0.99281913 0.99577916
0000b0 5e d7 7f 3f ab 33 7f 3f a9 09 80 3f 2f 19 7f 3f
       0.99938 0.99688214 1.0002948 0.996478
0000c0 e8 68 7c 3f 79 ff 80 3f d6 ea 80 3f 14 3e 80 3f
       0.98597574 1.0077964 1.0071666 1.0018945
0000d0 82 56 7e 3f 7e 2c 7a 3f 1a 4f 7d 3f 51 fe 7d 3f
       0.9935075 0.9772414 0.98948824 0.9921618
0000e0 23 c2 7e 3f fd dc 7a 3f a0 40 81 3f ee ec 80 3f
       0.9951498 0.9799345 1.0097847 1.0072305
0000f0 f1 fe 80 3f 61 6b 80 3f e2 b0 7e 3f 8d 47 7e 3f
       1.0077802 1.003277 0.9948865 0.9932793

weight_function_network.adaptive_layer.2.bias f4 [64]
000000 15 ec 7f 3b d7 44 2d bc 16 51 89 bb 2c 3b 7c bc
       0.0039050628 -0.010575495 -0.0041905744 -0.015394967
000010 3b 7b b4 bc 10 9f f3 bb ee 60 76 bc 60 60 5f bc
       -0.022031417 -0.007434733 -0.015037758 -0.013633817
000020 f7 4b ea bb 46 7d d0 bb 23 bd 17 bc 3d 02 50 bc
       -0.007150169 -0.00636259 -0.009261402 -0.012695846
000030 cb e6 83 bc c5 f0 fa 3a 19 95 ce 3a d5 0e 32 bc
       -0.016101262 0.0019145241 0.0015760987 -0.010867794
000040 98 4c 8f 3c e1 4f 54 3b d3 eb 57 bb 8b 3a f5 bb
       0.017492577 0.0032396244 -0.0032946959 -0.0074837855
000050 92 5b 0a bc b5 c4 77 bc 73 f4 a4 3b ce f4 85 bc
       -0.008444684 -0.015122582 0.0050340234 -0.016352084
000060 59 0b 8b bc e5 51 ac bb 7c 76 18 3b 58 34 91 bc
       -0.016973184 -0.005258786 0.0023263982 -0.017725155
000070 42 cd 4f 3a 1b c6 42 3c 15 a8 01 bb 7c 5a 7c bc
       0.0007927009 0.011888052 -0.0019784023 -0.0154024325
000080 81 02 59 3a 07 05 d1 bb 6e 23 e8 bc 16 6b 8d bc
       0.0008278266 -0.006378773 -0.028337207 -0.017262977
000090 f7 79 d9 bc 90 7b c6 bb a7 04 32 ba 57 fb cf bc
       -0.026547415 -0.0060572103 -0.00067908544 -0.025388403
0000a0 50 39 2f 3c 0e a7 70 bc 9e 61 b0 bb 6a 94 e8 b9
       0.010694817 -0.014688266 -0.0053827306 -0.00044361065
0000b0 0b ab dc bb a8 a0 a2 bc 6a 53 d6 bb bf 1d c9 b9
       -0.006734257 -0.019851997 -0.0065407054 -0.0003835987
0000c0 34 9b 81 bc 86 32 4a bc 48 d8 4e 3a 11 b8 88 bc
       -0.015821077 -0.012341147 0.0007890505 -0.016689332
0000d0 a3 1e 98 3a 66 93 e9 bc 58 49 85 bc f9 7f a6 bc
       0.001160581 -0.028512668 -0.016270325 -0.020324694
0000e0 3b bd e4 bb fb db 75 bc 8d fc 5e bb 45 50 00 3b
       -0.006980566 -0.015006061 -0.0034025044 0.0019579094
0000f0 11 39 52 bb 28 1e cf 3a f7 96 94 3a e1 e3 1d bc
       -0.0032077471 0.0015801834 0.0011336495 -0.00963685

weight_function_network.adaptive_layer.2.running_mean f4 [64]
000000 10 ce 1a bf 23 a0 88 bd 53 46 fc 3e 9b d2 e6 3c
       -0.60470676 -0.06671169 0.49272403 0.028176596
000010 41 57 52 3b aa ad 25 3e 8e 8b 77 be 43 68 81 bc
       0.0032095464 0.16179529 -0.2417433 -0.015796786
000020 80 c0 57 3e ad 94 b1 bd 06 25 43 3f e8 df d0 be
       0.21069527 -0.08670936 0.7622837 -0.40795827
000030 ab 8b 2d 3d f4 7d 9a 3d d5 e5 85 be b2 c8 93 be
       0.042369526 0.07543555 -0.2615191 -0.28864056
000040 1e 9c 01 bf 4d bb e2 3e d6 7a a4 be 91 2f b2 3e
       -0.5062884 0.44283524 -0.32124966 0.34801915
000050 e3 3c 45 be 10 4a c4 be e4 a6 01 bf 11 2d 5e 3e
       -0.19261508 -0.38337755 -0.5064528 0.21696879
000060 4a 25 de bd 8d 57 5c be 80 89 f4 be 29 67 05 3e
       -0.10846956 -0.21517773 -0.47761154 0.13027634
000070 c6 96 19 3c d2 39 36 bd fd 7c 0c bf ca 00 aa bd
       0.009374326 -0.044488735 -0.54878217 -0.08300932
000080 59 5e dd be 9c 9c 53 be 53 b9 1a bf ef 6f 51 bc
       -0.43236044 -0.2066521 -0.6043903 -0.012783035
000090 be bd 2c be 33 2e 56 3e 5d 34 23 3d b4 90 7b 3e
       -0.16869256 0.20916061 0.03984486 0.24566919
0000a0 fa 6c b0 be f9 6c 2f 3f 37 24 8c be 44 ce 1e bd
       -0.34458143 0.68525654 -0.2737138 -0.03877093
0000b0 03 82 20 bd 38 ee 3a 3b 01 5e 34 3f af 10 96 be
       -0.03918649 0.0028523337 0.7045594 -0.29309604
0000c0 2e 43 c5 bc 76 72 98 3d 00 c4 d4 be 06 07 59 3e
       -0.024079885 0.07443707 -0.41555786 0.21194085
0000d0 dc 33 b2 be 59 93 59 3c 9b 7b f3 3e 65 35 d3 bc
       -0.3480519 0.013279759 0.4755524 -0.025782296
0000e0 92 84 06 bd 0b ff a8 be d1 43 07 be f2 9c f9 be
       -0.032841273 -0.33007082 -0.13209464 -0.48752552
0000f0 be 7d e5 be 1d ff 05 be ae fb 18 bf cf 52 9e 3e
       -0.44822496 -0.13085599 -0.5975903 0.30922553
