logs/测试损失函数中mse的权重带来的影响/loss.cross_entropu_loss_with_mse.alpha=0.0/test_model_20250426_134204.pth (torch, 840675 bytes, 78 tensors)

weight_function_network.initial_cnn.0.weight f4 [8, 1, 3, 3]
-0.22403349 0.14573982 0.09984677 0.12744892 0.18959251 0.15395984 0.18337093 0.3278639
-0.30504513 -0.15841739 0.35129523 0.29761302 0.037794404 0.23541199 0.18438925 0.1392721
-0.056805763 -0.186838 -0.052581813 0.04172632 -0.23294377 0.17310458 -0.1604589 0.042848323
0.042207927 -0.104992636 -0.25698352 0.2240933 -0.01592638 -0.2967444 0.33281407 -0.01160174
0.13204268 0.27784562 -0.15842012 -0.28305736 -0.2913061 -0.32535714 -0.057885047 0.020689312
0.004257391 0.085687555 -0.08479171 -0.062939644 0.022269903 0.13323472 0.0061879978 -0.24290384
-0.32473558 -0.3147783 0.2069191 0.013757536 0.13374393 -0.10350806 0.03207774 0.0908381
0.30800405 0.27497762 -0.0655705 -0.28969583 -0.25951195 -0.12892991 -0.055402327 0.061779965
-0.047457613 0.21306026 -0.19149342 -0.3099906 -0.22287592 -0.17430213 -0.29126236 -0.011053226
00000000: 0969 65be d23c 153e 777c cc3d f881 023e
00000010: 8a24 423e a6a7 1d3e 97c5 3b3e c7dd a73e
00000020: e02e 9cbe 2b38 22be f8dc b33e bc60 983e
00000030: 4ece 1a3d d70f 713e 89d0 3c3e 589d 0e3e
00000040: 29ad 68bd 7652 3fbe 0760 57bd 38e9 2a3d
00000050: d088 6ebe 5442 313e 564f 24be b981 2f3d
00000060: 38e2 2c3d 6106 d7bd 5893 83be b778 653e
00000070: 0a78 82bc e2ee 97be 9b66 aa3e 3915 3ebc
00000080: 3236 073e c841 8e3e e238 22be e5ec 90be
00000090: 1326 95be 3695 a6be df18 6dbd a27c a93c
000000a0: 9681 8b3b f57c af3d 47a7 adbd 80e6 80bd
000000b0: 5f6f b63c af6e 083e b0c4 ca3b c9bb 78be
000000c0: be43 a6be 9f2a a1be 9ae2 533e 4a67 613c
000000d0: 2bf4 083e 09fc d3bd f363 033d 5309 ba3d
000000e0: b5b2 9d3e dec9 8c3e d449 86bd 0353 94be
000000f0: c0de 84be 3406 04be 8ded 62bd fd0c 7d3d
00000100: ea62 42bd 782c 5a3e da16 44be 17b7 9ebe
00000110: 9639 64be 427c 32be 5720 95be 9718 35bc

weight_function_network.initial_cnn.0.bias f4 [8]
-0.022406662 -0.15436369 0.014035145 0.31130496 -0.1775819 -0.040851403 0.12479385 -0.06704319
00000000: 2d8e b7bc 8411 1ebe aaf3 653c 5d63 9f3e
00000010: 08d8 35be cd53 27bd eb93 ff3d f14d 89bd

weight_function_network.initial_cnn.1.weight f4 [8]
0.9915377 0.99419695 1.0036201 1.0023354 1.001575 1.0068095 0.99582094 1.0077065
00000000: 6ad5 7d3f b183 7e3f a076 803f 874c 803f
00000010: 9c33 803f 22df 803f 1fee 7e3f 87fc 803f

weight_function_network.initial_cnn.1.bias f4 [8]
-0.02447951 -0.000244877 -0.0046998113 0.0028720684 -0.011447662 0.014841177 -0.0066459468 0.01867318
00000000: 4189 c8bc d662 80b9 e000 9abb 5039 3c3b
00000010: f98e 3bbc 6828 733c 3ec6 d9bb 7ff8 983c

weight_function_network.initial_cnn.1.running_mean f4 [8]
0.28765103 0.22007541 -0.2113313 0.40048584 -0.483548 -0.25896946 0.08339684 -0.49917725
00000000: ff46 933e 735b 613e 3b67 58be 7b0c cd3e
00000010: 9a93 f7be a597 84be f6cb aa3d 2994 ffbe

weight_function_network.initial_cnn.1.running_var f4 [8]
0.08378712 0.12159576 0.044435367 0.026586263 0.079797804 0.040281266 0.010485099 0.16434473
00000000: 9598 ab3d 3307 f93d dc01 363d 6fcb d93c
00000010: 086d a33d f8fd 243d b1c9 2b3c fc49 283e

weight_function_network.initial_cnn.4.weight f4 [16, 8, 3, 3]
-0.04842836 -0.080226496 -0.08837417 -0.019970514 0.014233052 0.114793904 -0.013015613 -0.108311206
-0.057085272 0.06779906 -0.026421955 -0.05077026 0.0648811 0.00048347807 0.07063909 -0.107614845
0.014744698 0.013660738 -0.062422924 -0.0081293015 0.004208169 0.048840385 0.09845987 -0.029748263
-0.037602957 0.10411323 -0.042078383 -0.0799262 0.033110674 -0.109594814 -0.0051750373 -0.02312175
-0.053714346 -0.088115245 0.022415752 -0.0020033976 0.028301274 -0.008793114 -0.045665294 0.07250367
0.013507793 0.08896069 -0.09652374 0.0030762164 -0.06649692 0.08148571 0.027890863 -0.06515319
-0.08002894 -0.024915423 0.015482364 -0.015462138 0.03324264 0.0087030465 0.07061727 0.020185696
0.027876688 -0.00090843084 0.08673977 0.010081251 0.098090194 0.103567965 0.095140405 -0.03571111
0.049466446 -0.021965224 -0.024498275 0.07672863 0.00013090052 -0.0969864 0.033878263 -0.0695032
0.086313225 -0.072502606 -0.050850913 -0.009362824 0.092268646 0.043306652 0.03575666 0.07178605
-0.060517844 -0.05628087 -0.08495242 -0.07689048 -0.014207265 0.02859583 -0.05532632 0.05662639
-0.101952404 -0.07241693 -0.10301458 0.072669856 -0.04158597 0.10204344 -0.03179102 -0.04186973
0.101621285 -0.021801183 -0.031354114 -0.0526649 0.09556242 0.049651362 -0.063384034 0.06518591
-0.1150882 -0.021645293 0.027185148 0.09059989 0.057397448 -0.0032883605 -0.030663148 0.05941172
0.0055398205 -0.037507936 -0.09696479 -0.0919383 -0.08326116 0.03648316 -0.023833765 -0.08839226
0.096843705 -0.0047464287 -0.06315018 -0.09984602 -0.100345924 -0.0072578266 -0.00784386 -0.12121857
0.044219133 0.085607514 -0.09600918 -0.053438783 -0.016051533 -0.09068815 -0.07881167 -0.0030950916
-0.053623885 -0.065448605 -0.026529673 0.09049251 0.0074795517 -0.004082141 0.094833136 -0.08241241
0.017229544 0.016250068 0.052519724 0.08749388 0.061389275 -0.04848327 0.050842464 0.05809348
-0.010502985 0.0026818374 0.117641024 0.02159475 0.060972054 0.026344385 0.047321033 0.0944015
-0.032287918 -0.105572216 -0.11949826 0.033925828 -0.046046127 0.030755002 0.0036302963 0.03517853
-0.07400698 0.08997517 -0.06162903 -0.07468083 0.020526055 -0.06992454 0.008082547 0.029906776
-0.117740385 0.07704868 0.0051905136 -0.121326596 -0.10404487 -0.067833155 -0.027008586 -0.0928296
-0.07050176 -0.0070351996 -0.010060233 0.04264082 0.06981763 -0.1150632 -0.03774437 -0.08476787
-0.046074852 -0.06990442 0.079265356 -0.029921927 0.0618276 0.054390542 -0.06695263 0.065710306
-0.103161536 -0.043525543 0.020434288 -0.02837356 -0.083828315 -0.008510782 -0.037466455 -0.0074011125
-0.010738897 -0.08745721 -0.06796479 0.0069173025 0.093128964 -0.0573527 0.08185931 -0.0022891993
0.10092428 -0.10180082 -0.01647525 0.058485255 0.07154392 -0.09355153 0.026262967 -0.008229713
-0.014848981 0.015202246 -0.081773855 -0.047725216 -0.119346276 -0.019783622 -0.06687935 0.03461461
-0.039017476 -0.0048158243 -0.067793004 0.017195828 -0.10785148 -0.022278504 -0.10545485 0.08337728
0.02781106 -0.09346511 -0.059140474 -0.06875208 0.046209816 -0.06840719 -0.012242278 -0.017601524
0.10075615 -0.076466046 -0.027366623 0.07088774 0.015352746 0.1334947 -0.05393829 0.090697445
00000000: d15c 46bd ca4d a4bd 84fd b4bd 3499 a3bc
00000010: bf31 693c 1119 eb3d 703f 55bc 44d2 ddbd
00000020: 3fd2 69bd 3cda 8a3d db72 d8bc 7af4 4fbd
00000030: 62e0 843d 547b fd39 3aab 903d 2c65 dcbd
00000040: bf93 713c 4ad1 5f3c 2eaf 7fbd c330 05bc
00000050: aee4 893b db0c 483d 54a5 c93d a1b2 f3bc
00000060: 8f05 1abd 5139 d53d 625a 2cbd 59b0 a3bd
00000070: 0f9f 073d 3f73 e0bd 5c93 a9bb d369 bdbc
00000080: 9303 5cbd c475 b4bd 3da1 b73c 6f4b 03bb
00000090: 13d8 e73c fe10 10bc 880b 3bbd ce7c 943d
000000a0: ca4f 5d3c 0631 b63d 3dae c5bd 599a 493b
000000b0: 8a2f 88bd fbe1 a63d 617b e43c 096f 85bd
000000c0: 37e6 a3bd 6e1b ccbc bea9 7d3c e854 7dbc
000000d0: 6f29 083d 3997 0e3c ca9f 903d 795c a53c
000000e0: a75d e43c c323 6eba 9fa4 b13d d52b 253c
000000f0: 83e3 c83d 711b d43d f9d8 c23d d045 12bd
00000100: 549d 4a3d 6af0 b3bc 9bb0 c8bc e623 9d3d
00000110: 5742 0939 cea0 c6bd efc3 0a3d b257 8ebd
00000120: fdc4 b03d 3f7c 94bd 0c49 50bd 8866 19bc
00000130: 58f7 bc3d 5162 313d 9375 123d 9104 933d
00000140: 8fe1 77bd c586 66bd 89fb adbd c278 9dbd
00000150: 97c5 68bc cd41 ea3c da9d 62bd 13f1 673d
00000160: 6ccc d0bd 544f 94bd 4ff9 d2bd efd3 943d
00000170: 0d56 2abd 27fc d03d 4d37 02bd 987f 2bbd
00000180: d21e d03d 6598 b2bc 2c6d 00bd 26b7 57bd
00000190: 3bb6 c33d 3a5f 4b3d 7dcf 81bd 3180 853d
000001a0: 5db3 ebbd 7851 b1bc 63b3 de3c 6f8c b93d
000001b0: 9619 6b3d 8981 57bb 4831 fbbc b459 733d
000001c0: 6287 b53b eca1 19bd 7a95 c6bd 264a bcbd
000001d0: d484 aabd 5e6f 153d 073f c3bc 0007 b5bd
000001e0: fe55 c63d ee87 9bbb e254 81bd 127c ccbd
000001f0: 2a82 cdbd 10d3 edbb 8983 00bc 7141 f8bd
00000200: 1f1f 353d fe52 af3d 76a0 c4bd a0e2 5abd
00000210: 817e 83bc b5ba b9bd 0368 a1bd 05d7 4abb
00000220: b8a4 5bbd eb09 86bd c254 d9bc 2354 b93d
00000230: 0717 f53b 7bc3 85bb e037 c23d d6c7 a8bd
00000240: f924 8d3c dd1e 853c ec1e 573d fe2f b33d
00000250: 5273 7b3d 6596 46bd 3040 503d 6ef3 6d3d
00000260: b614 2cbc c4c1 2f3b c7ed f03d 79e7 b03c
00000270: d5bd 793d 2ed0 d73c b3d3 413d 9355 c13d
00000280: 5640 04bd 3f36 d8bd 81bb f4bd cff5 0a3d
00000290: dd9a 3cbd eaf1 fb3c 44ea 6d3b 5d17 103d
000002a0: f990 97bd e744 b83d b96e 7cbd 43f2 98bd
000002b0: 4226 a83c 9934 8fbd a96c 043c 0eff f43c
000002c0: df21 f1bd b3cb 9d3d 2f15 aa3b 147a f8bd
000002d0: 7a15 d5bd 1cec 8abd 1c41 ddbc 721d bebd
000002e0: 3a63 90bd 8887 e6bb add3 24bc 24a8 2e3d
000002f0: 8cfc 8e3d 41a6 ebbd d799 1abd c79a adbd
00000300: fcb8 3cbd 0c2a 8fbd e055 a23d d41e f5bc
00000310: f03e 7d3d 9ec8 5e3d 761e 89bd 2093 863d
00000320: 5b46 d3bd d747 32bd cf65 a73c ab6f e8bc
00000330: 2eae abbd cf70 0bbc 6d76 19bd 0885 f2bb
00000340: 33f2 2fbc c41c b3bd 2031 8bbd 8aaa e23b
00000350: 66ba be3d aaea 6abd dba5 a73d 6406 16bb
00000360: 64b1 ce3d f37c d0bd 1af7 86bc 3c8e 6f3d
00000370: 9e85 923d f297 bfbd 6f25 d73c ebd5 06bc
00000380: 2449 73bc d712 793c 0d79 a7bd 847b 43bd
00000390: d26b f4bd 4311 a2bc 0af8 88bd 0dc8 0d3d
000003a0: cad0 1fbd 10ce 9dbb 0fd7 8abd 44de 8c3c
000003b0: 3de1 dcbd 6981 b6bc b6f8 d7bd b5c1 aa3d
000003c0: 05d4 e33c a36a bfbd 483d 72bd e4cd 8cbd
000003d0: 8146 3d3d 1219 8cbd d693 48bc 1231 90bc
000003e0: 3e59 ce3d 3b9a 9cbd f82f e0bc 972d 913d
000003f0: 158a 7b3c d6b2 083e 65ee 5cbd 95bf b93d

weight_function_network.initial_cnn.4.bias f4 [16]
-0.07298449 -0.030793905 0.065729305 0.11391133 0.021957807 -0.08841093 0.11288242 0.014641642
0.08799109 -0.05567304 0.056003217 -0.100070804 -0.044016458 -0.08712332 -0.016167238 -0.01746484
00000000: e478 95bd 8043 fcbc 169d 863d 584a e93d
00000010: dce0 b33c ca10 b5bd e62e e73d 7fe3 6f3c
00000020: ac34 b43d 6a09 64bd a163 653d ecf1 ccbd
00000030: 9a4a 34bd b66d b2bd 2871 84bc 6d12 8fbc

weight_function_network.initial_cnn.5.weight f4 [16]
1.0033047 0.98185384 1.0082685 0.98447406 0.9999171 0.98897487 1.0117296 1.0080423
0.9923982 0.9885739 0.99894005 1.0077146 1.0092804 0.9862843 1.0176102 1.0028112
00000000: 4a6c 803f c65a 7b3f f10e 813f 7e06 7c3f
00000010: 91fa 7f3f 752d 7d3f 5b80 813f 8807 813f
00000020: cf0d 7e3f 2e13 7d3f 89ba 7f3f cbfc 803f
00000030: 1a30 813f 217d 7c3f 0d41 823f 1e5c 803f

weight_function_network.initial_cnn.5.bias f4 [16]
-0.007926944 -0.013870198 -0.0019444502 0.005974591 0.0042788815 0.0055967188 -0.0011922974 0.0022971672
-0.008190461 -0.0021046177 -0.0019125241 0.011602205 -0.0048909173 0.003973499 0.0050102468 -0.007925613
00000000: 03e0 01bc d43f 63bc ecdc feba 80c6 c33b
00000010: dc35 8c3b ae64 b73b dd46 9cba 128c 163b
00000020: 4931 06bc a0ed 09bb a9ad faba 2d17 3e3c
00000030: fd43 a0bb 2034 823b ff2c a43b 6eda 01bc

weight_function_network.initial_cnn.5.running_mean f4 [16]
-0.12498286 -0.43019107 -0.1051712 0.16213043 0.05012924 -0.12191564 0.3456698 0.09288251
0.05421253 0.12634398 -0.30175984 -0.22918642 0.13218038 -0.09695333 0.47783175 -0.13731177
00000000: 04f7 ffbd 0142 dcbe 0064 d7bd 8505 263e
00000010: 5154 4d3d e8ae f9bd a2fb b03e 2f39 be3d
00000020: f50d 5e3d 5160 013e 4480 9abe d8af 6abe
00000030: 4b5a 073e 788f c6bd 5da6 f43e 759b 0cbe

weight_function_network.initial_cnn.5.running_var f4 [16]
0.15472437 0.12069025 0.26282158 0.12786235 0.077568434 0.11640713 0.08178839 0.059845444
0.051532954 0.18148467 0.2087134 0.12830046 0.06586818 0.09416196 0.08013245 0.0772857
00000000: 1170 1e3e 732c f73d 8d90 863e 59ee 023e
00000010: 33dc 9e3d dd66 ee3d ac80 a73d 7f20 753d
00000020: 3814 533d 1ed7 393e f7b8 553e 3261 033e
00000030: e5e5 863d fcd7 c03d 7b1c a43d f747 9e3d

weight_function_network.initial_cnn.8.weight f4 [32, 16, 3, 3]
0.027605062 -0.0020997822 0.009199189 0.036470927 -0.0039957003 -0.04019512 0.07925834 0.046396174
0.00932931 -0.023593893 -0.07576041 -0.030711336 0.021373771 -0.013672319 -0.008503015 0.09002328
-0.0023343114 -0.0064784987 0.017404782 -0.065989636 -0.030047987 0.040840786 -0.06755649 -0.010428098
-0.045139436 0.07022018 0.05452145 -0.01293325 -0.0071806917 -0.05454127 -0.059864778 0.040250648
0.053422906 0.06087318 0.05402587 0.05947558 0.043461207 0.06994417 -0.019038573 -0.044931456
-0.0160905 -0.03359297 0.056190882 0.04969404 0.061629396 -0.06809943 -0.03959133 0.046215918
-0.031324957 -0.023054255 0.047957897 -0.036267508 0.06258039 -0.0015598353 0.040556595 0.03079849
0.012421972 -0.046598893 0.0030343032 0.033545922 -0.026713999 -0.07594808 0.04996725 0.060328186
0.04442673 0.076784834 0.010485902 -0.06700545 -0.05237501 -0.045746326 0.061748564 -0.0011516254
-0.03406963 0.0860474 0.06768231 -0.043849476 0.05448267 0.007963463 -0.029686654 -0.061718956
0.01238547 -0.08226819 0.017285643 0.055556543 0.05719648 0.07762706 0.018449554 -0.03629368
-0.0469991 -0.006365115 0.036942005 0.011758454 -0.081962354 -0.043416478 0.055817075 -0.057442054
0.081613824 0.030684741 -0.023930684 8.7498636e-05 0.06595864 0.042067852 0.049717996 -0.004345971
0.04028817 -0.019117465 -0.06657117 0.091880895 -0.026584676 0.008228448 -0.035151016 0.062350474
-0.00744078 -0.044544034 -0.010896004 0.06967548 -0.0074715633 -0.0777794 0.06792153 0.036815483
-0.02682495 -0.04732604 -0.01778813 -0.030669224 0.02247364 -0.015668804 0.046686642 0.036522556
0.0177585 0.075090565 0.026891768 0.055764824 0.06680405 0.05514681 -0.05828507 -0.035178784
0.06533077 -0.060483363 -0.04404977 -0.0056719873 -0.06758073 -0.058649175 0.042151313 -0.09140683
-0.042573236 0.03859576 0.025026156 -0.07509283 -0.03303498 -0.044866897 0.08750148 0.047316935
0.032223493 0.027783591 0.063199975 -0.026414482 0.003764216 -0.04830493 0.027479606 0.047265463
-0.029708652 -0.05126782 -0.047504693 0.08594102 -0.081607565 -0.018480325 0.0019333418 -0.043201014
0.053580668 -8.636478e-05 -0.03380338 0.0013199676 0.0012168178 -0.0003724652 0.026585972 0.06431724
0.06703546 -0.023210924 0.067982405 -0.02837356 0.025228089 0.03618757 0.016044695 -0.012033948
0.037649315 -0.0829926 -0.07718662 0.033062603 0.07710839 0.042940278 0.04247168 -0.052186936
0.05536735 0.03124688 -0.042481232 0.0021444845 0.067745745 0.005752162 -0.0711159 -0.018849906
-0.059541456 0.05371436 0.020315731 0.027609173 -0.04610108 -0.0031947119 -0.051922522 0.028651383
0.04354899 -0.016728759 -0.03374097 0.061363965 -0.051290322 0.01844115 0.07152028 0.056484915
-0.055275954 0.0059215575 -0.017268252 -0.07393812 -0.021918092 -0.05465177 -0.059267715 -0.07433603
-0.019604564 -0.007475551 0.08009159 -0.0809078 0.017880898 -0.048450135 -0.041541662 -0.036821075
-0.054099914 -0.07145008 -0.036863454 0.08204585 0.0069487644 0.040432237 0.06885801 -0.08784754
0.05476697 0.037548184 -0.049172327 0.063929476 -0.013173396 0.014950693 -0.04766953 -0.077425696
0.08554013 -0.074947774 -0.09768878 0.040921833 0.046453204 0.030712117 0.0490368 0.062590316
00000000: 0324 e23c 809c 09bb 32b8 163c 8a62 153d
00000010: 5dee 82bb a3a3 24bd 3252 a23d ea09 3e3d
00000020: f6d9 183c fb47 c1bc 4628 9bbd 5796 fbbc
00000030: 0c18 af3c dd01 60bc 3b50 0bbc 205e b83d
00000040: 3ffb 18bb 9649 d4bb 7994 8e3c 9325 87bd
00000050: 3227 f6bc ab48 273d 0f5b 8abd 9dda 2abc
00000060: 21e4 38bd 99cf 8f3d e251 5f3d fbe5 53bc
00000070: 024c ebbb ab66 5fbd c534 75bd dddd 243d
00000080: fad1 5a3d 2856 793d 3b4a 5d3d aa9c 733d
00000090: 6104 323d e43e 8f3d c8f6 9bbc 0c0a 38bd
000000a0: 39d0 83bc c898 09bd 6928 663d fa8b 4b3d
000000b0: 1b6f 7c3d b777 8bbd 852a 22bd e74c 3d3d
000000c0: 994e 00bd 47dc bcbc 806f 443d 3d8d 14bd
000000d0: 262a 803d 6373 ccba ac1e 263d 1d4d fc3c
000000e0: 8785 4b3c 7bde 3ebd 29db 463b 7367 093d
000000f0: 51d7 dabc ab8a 9bbd 76aa 4c3d b01a 773d
00000100: cef8 353d 5e41 9d3d 10cd 2b3c 273a 89bd
00000110: 2e87 56bd 8060 3bbd 10ec 7c3d 23f2 96ba
00000120: 998c 0bbd 9f39 b03d 069d 8a3d 829b 33bd
00000130: 3829 5f3d 2f79 023c 6d31 f3bc 04cd 7cbd
00000140: 6dec 4a3c 3a7c a8bd 9f9a 8d3c 428f 633d
00000150: db46 6a3d f0fa 9e3d 8523 973c afa8 14bd
00000160: 2182 40bd 7492 d0bb 8050 173d 88a6 403c
00000170: e1db a7bd 7ad5 31bd 72a0 643d 5c48 6bbd
00000180: 2625 a73d 915e fb3c 480a c4bc 797f b738
00000190: 5315 873d 574f 2c3d 19a5 4b3d a668 8ebb
000001a0: 3505 253d 3b9c 9cbc 7756 88bd 0d2c bc3d
000001b0: 1bc8 d9bc 9dd0 063c 83fa 0fbd 3663 7f3d
000001c0: c9d1 f3bb ce73 36bd 2785 32bc 05b2 8e3d
000001d0: 04d4 f4bb ce4a 9fbd 711a 8b3d d5cb 163d
000001e0: ffbf dbbc f3d8 41bd 6ab8 91bc 063e fbbc
000001f0: a41a b83c dd5b 80bc 7e3a 3f3d ad98 153d
00000200: 467a 913c 15c9 993d 204c dc3c a869 643d
00000210: 90d0 883d 9fe1 613d 53bc 6ebd a117 10bd
00000220: 24cc 853d 67bd 77bd 886d 34bd 14dc b9bb
00000230: c467 8abd 1e3a 70bd dba6 2c3d 8133 bbbd
00000240: 4661 2ebd 9616 1e3d a703 cd3c 45ca 99bd
00000250: b04f 07bd 5ac6 37bd fa33 b33d 67cf 413d
00000260: c8fc 033d 6a9a e33c fd6e 813d 2f63 d8bc
00000270: 11b1 763b 64db 45bd e91c e13c 6e99 413d
00000280: 8f5f f3bc 35fe 51bd 4894 42bd d801 b03d
00000290: de21 a7bd 0d64 97bc 3068 fd3a 8cf3 30bd
000002a0: 6777 5b3d bd1e b5b8 6a75 0abd c302 ad3a
000002b0: a17d 9f3a 6f47 c3b9 d3ca d93c c2b8 833d
000002c0: e349 893d d624 bebc 5c3a 8b3d ab6f e8bc
000002d0: 23ab ce3c 6b39 143d 2a70 833c 092a 45bc
000002e0: 2b36 1a3d 06f8 a9bd 0514 9ebd a76c 073d
000002f0: 01eb 9d3d 25e2 2f3d c9f6 2d3d f8c1 55bd
00000300: e0c8 623d 75f9 ff3c cd00 2ebd 7b8a 0c3b
00000310: 48be 8a3d a27c bc3b 37a5 91bd 1e6b 9abc
00000320: bee1 73bd 9703 5c3d 2d6d a63c a22c e23c
00000330: 7cd4 3cbd 5f5e 51bb b6ac 54bd 4eb6 ea3c
00000340: 6d60 323d c00a 89bc f933 0abd c858 7b3d
00000350: cd15 52bd e511 973c 3979 923d ba5c 673d
00000360: 0a69 62bd a009 c23b 2676 8dbc de6c 97bd
00000370: 928d b3bc 89da 5fbd b4c2 72bd 7d3d 98bd
00000380: c099 a0bc 78f5 f4bb 0f07 a43d fdb2 a5bd
00000390: f67a 923c a673 46bd 9727 2abd b2d1 16bd
000003a0: df97 5dbd 6b54 92bd 22fe 16bd a807 a83d
000003b0: 76b2 e33b 469c 253d 6e05 8d3d 69e9 b3bd
000003c0: 5553 603d 20cc 193d ec68 49bd 75ed 823d
000003d0: 3ad5 57bc c0f3 743c 2041 43bd 5d91 9ebd
000003e0: aa2f af3d 387e 99bd 0e11 c8bd a79d 273d
000003f0: b745 3e3d fa97 fb3c d0da 483d 5a2f 803d

weight_function_network.initial_cnn.8.bias f4 [32]
0.0043332684 -0.03842378 -0.015283233 0.08353271 -0.05910333 -0.0448275 -0.06544355 0.021721207
0.02587575 0.064770326 -0.005208755 0.0122643355 -0.030926537 -0.048900165 -0.05503864 -0.01999746
-0.027541958 0.047028486 -0.026229057 0.02458946 0.037175186 0.056572378 0.07914609 0.02611941
-0.030492436 -0.04690439 0.08010752 -0.025427086 0.0034516412 -0.030316452 0.015111226 -0.0593201
00000000: 17fe 8d3b 4162 1dbd 8666 7abc 3313 ab3d
00000010: 5516 72bd 0a9d 37bd 4507 86bd acf0 b13c
00000020: 62f9 d33c 4ea6 843d 34ae aabb 5af0 483c
00000030: a659 fdbc 8a4b 48bd 3270 61bd b7d1 a3bc
00000040: ac9f e1bc f1a0 403d 52de d6bc d66f c93c
00000050: 0245 183d 70b8 673d 5817 a23d 5ff8 d53c
00000060: 46cb f9bc d11e 40bd 690f a43d 774c d0bc
00000070: ee34 623b 355a f8bc 1395 773c a2f9 72bd

weight_function_network.initial_cnn.9.weight f4 [32]
1.0172862 1.0046362 1.0049844 1.0062721 0.9893075 1.0012653 1.0064168 0.98977804
1.0032803 0.9951998 0.9924632 1.0102235 1.0017028 0.99705166 1.0067725 1.000907
1.0029875 0.99696785 0.9916936 0.99038863 0.9898274 1.0028044 1.0009835 0.99006844
0.99992305 0.9944609 0.99958444 1.0022284 1.0082626 1.0060025 0.9822782 1.0053607
00000000: 6f36 823f eb97 803f 54a3 803f 86cd 803f
00000010: 4243 7d3f 7629 803f 44d2 803f 1862 7d3f
00000020: 7d6b 803f 6ac5 7e3f 1112 7e3f 014f 813f
00000030: cc37 803f c73e 7f3f ecdd 803f b81d 803f
00000040: e561 803f 4939 7f3f a2df 7d3f 1c8a 7d3f
00000050: 5465 7d3f e55b 803f 3a20 803f 2075 7d3f
00000060: f5fa 7f3f fd94 7e3f c4e4 7f3f 0549 803f
00000070: c00e 813f b1c4 803f 9676 7b3f a9af 803f

weight_function_network.initial_cnn.9.bias f4 [32]
0.009038264 -0.00048266485 -0.0031798873 -0.007304162 -0.008247435 0.006353645 -0.01125829 -0.009320859
0.0061195735 -0.004868201 -0.0028924702 -0.00041065292 -0.011754392 -0.027909802 -0.00715771 -0.021573177
-0.013346619 -0.01848219 -0.0023076227 -0.01835619 -0.016794756 0.0088605685 -0.01585076 -0.018895987
-0.0076778787 -0.0010636293 -0.012503718 -0.006733346 0.0024361168 -0.0012833277 0.0013409982 -0.0034745107
00000000: 3a15 143c 2e0e fdb9 a865 50bb c057 efbb
00000010: 4020 07bc 3d32 d03b b174 38bc 84b6 18bc
00000020: b486 c83b 6e85 9fbb 998f 3dbb e74c d7b9
00000030: 7e95 40bc 19a3 e4bc 398b eabb 3bba b0bc
00000040: c7ab 5abc f667 97bc 7c3b 17bb b85f 96bc
00000050: 2895 89bc eb2b 113c 74d9 81bc c2cb 9abc
00000060: b796 fbbb 7a69 8bba 65dc 4cbc 66a3 dcbb
00000070: 42a7 1f3b 5535 a8ba 6fc4 af3a 9eb4 63bb

weight_function_network.initial_cnn.9.running_mean f4 [32]
0.35924995 0.10482837 0.37170756 -0.24624407 0.4916006 -0.19734628 0.036280643 0.19716837
-0.16199483 0.69224733 -0.6180626 0.41157907 -0.49467027 -0.55651885 0.36830398 -0.057959627
-0.008453025 0.30858824 -0.080421135 0.14422235 0.41636077 -0.0137082245 0.11651586 0.06810443
0.067630604 -0.053511668 0.18456672 0.59614867 -0.15323432 0.50841945 -0.04129355 -0.11039334
00000000: 9cef b73e 42b0 d63d 7450 be3e 6827 7cbe
00000010: 13b3 fb3e 2515 4abe 039b 143d 81e6 493e
00000020: f9e1 25be 1f37 313f 5a39 1ebf 7eba d23e
00000030: 6c45 fdbe 0578 0ebf 5792 bc3e 1367 6dbd
00000040: 8e7e 0abc 47ff 9d3e d6b3 a4bd 06af 133e
00000050: 3d2d d53e 7698 60bc de9f ee3d 567a 8b3d
00000060: ea81 8a3d 0d2f 5bbd 0fff 3c3e 339d 183f
00000070: 75e9 1cbe c727 023f 6d23 29bd e715 e2bd

weight_function_network.initial_cnn.9.running_var f4 [32]
0.07271596 0.22409625 0.14440227 0.07783635 0.21286929 0.102414615 0.22695842 0.13110828
0.18295175 0.14155038 0.33987516 0.15200959 0.19947644 0.13234298 0.11296323 0.062924065
0.12833811 0.08996305 0.16422638 0.09068379 0.19648756 0.2006639 0.0866937 0.1599196
0.046437103 0.11615859 0.20811227 0.1467587 0.13842404 0.13166542 0.19298811 0.13320827
00000000: 1bec 943d 7d79 653e 30de 133e aa68 9f3d
00000010: 68fa 593e c1be d13d ca67 683e 4041 063e
00000020: b457 3b3e 95f2 103e 1e04 ae3e 67a8 1b3e
00000030: 8d43 4c3e eb84 073e 4459 e73d 55de 803d
00000040: 116b 033e 8c3e b83d f62a 283e 6cb8 b93d
00000050: 0934 493e d67a 4d3e 778c b13d f7c1 233e
00000060: d534 3e3d 8ee4 ed3d 621b 553e ea47 163e
00000070: 08bf 0d3e 4dd3 063e ad9e 453e c067 083e

weight_function_network.initial_cnn.11.weight f4 [32, 32, 3, 3]
-0.056149803 0.012003181 0.015158721 -0.0072369776 -0.04721228 -0.033159 -0.00081848644 -0.027969437
0.013767796 -0.03371754 0.021031236 0.05052772 0.028516341 0.039638117 0.046588175 -0.049658187
-0.037736468 0.048969105 -0.029148366 -0.013324633 0.05145019 -0.027987903 0.00130826 -0.032716483
-0.06067204 -0.035596535 -0.03818139 0.013746019 -0.013502953 -0.051321413 -0.0038859737 -0.013448788
-0.039454266 -0.07363485 0.03672304 0.0014024912 -0.04002754 0.052730214 -0.022333303 -0.010079231
-0.057983063 0.05938821 0.030099275 0.04572702 -0.026892625 0.017808225 0.026571674 -0.064792186
0.04210046 -0.054528028 0.02836541 -0.011819382 0.016828353 -0.0051728236 0.005983916 0.018260414
-0.03759726 -0.012512845 0.043378327 -0.008325028 0.025291886 -0.04074908 0.013048018 0.04453203
0.0011670607 0.054756 -0.0075521804 -0.026227506 -0.010825948 0.03923173 0.005378348 0.006814958
0.009787215 0.034040127 -0.018340204 0.022184925 0.066545516 -0.035001803 -0.04163501 -0.02053596
-0.04752953 -0.03158904 0.014136535 0.05244076 0.021333452 0.050425462 0.020074517 0.049440723
0.058635566 -0.016679823 0.04098332 -0.028519824 0.0059847054 0.046526346 0.059172314 0.02878131
-0.040388834 -0.03711646 0.0115826465 -0.011630556 0.053479083 -0.002719639 -0.0144888945 -0.034418773
0.03838095 -0.023484478 0.010142064 0.035069544 -0.03076628 0.017025264 0.0124404095 0.013138867
-0.00908137 -0.04158951 -0.009200003 0.021929123 0.06162333 0.054430388 0.053737726 -0.023620032
-0.011753116 -0.037419733 0.0172593 -0.0089001525 0.014501981 -0.042251203 -0.06794864 -0.04484355
-0.045532767 0.0034141426 -0.04216256 -0.036396295 -0.058333095 -0.019623509 0.0023625009 0.0569215
0.014379052 0.009849047 -0.022075893 0.036304165 -0.0076968772 -0.0024608797 -0.015116309 0.031581815
0.056651123 -0.04411813 -0.038786076 0.034260914 -0.02333843 0.06426827 0.02515773 0.021433884
-0.03543997 0.05117486 -0.037804175 -6.527193e-05 0.0382297 -0.055758655 -0.041038252 -0.006243831
-0.020842105 -0.03442332 0.0025694699 0.04814359 0.00838022 -0.019573506 -0.04540588 0.032134335
0.0033141226 0.03644733 -0.04042542 -0.005952962 -0.013539569 -0.011726819 -0.015977023 -0.015527929
-0.049531106 -0.03279083 0.024494927 0.008826309 -0.05593835 -0.04899852 0.022463562 -0.022584397
-0.03953534 -0.014541759 0.053975906 0.008244796 0.04669988 -0.0053245435 0.036839094 0.059058055
-0.009981957 -0.013938433 0.03289526 -0.04914496 -0.015363644 -0.013964604 -0.006973932 -0.051656418
-0.059883043 0.0035000867 0.049524248 0.007997791 -0.06827131 0.042831466 0.034519613 0.0134761995
-0.049895838 -0.064040385 0.022214023 -0.036461446 -0.06401919 0.020873906 -0.030167153 -0.013388662
-0.008800502 -0.023089996 -0.067232385 0.02608829 0.0059510083 -0.0404635 -0.0029865988 0.019157523
-0.0077491594 -0.02496753 0.00033473628 -0.049180333 0.036580946 0.0063973013 -0.032356344 0.040566076
0.05312618 -0.01035892 0.047963098 0.0013115456 -0.038097158 0.037120733 -0.020981822 0.002414112
-0.017728878 -0.012260324 -0.037206452 -0.0044914386 0.060494397 0.0037372413 -0.015369831 -0.048937723
0.034711037 -0.005693374 -0.03340175 -0.032088455 0.06070761 -0.034209773 0.015866218 0.017013462
00000000: 56fd 65bd fda8 443c 495c 783c 2b24 edbb
00000010: aa61 41bd bbd1 07bd b28f 56ba 2920 e5bc
00000020: 5292 613c 671b 0abd b349 ac3c 28f6 4e3d
00000030: 1a9b e93c 945b 223d 3ed3 3e3d 6266 4bbd
00000040: 8e91 1abd d493 483d 8ec8 eebc 904f 5abc
00000050: 6fbd 523d e346 e5bc ec79 ab3a b801 06bd
00000060: 3f83 78bd accd 11bd 1764 1cbd fc36 613c
00000070: 7d3b 5dbc 6736 52bd d2ab 7ebb 4e58 5cbc
00000080: cc9a 21bd decd 96bd e66a 163d ccd3 b73a
00000090: ebf3 23bd a3fb 573d 55f4 b6bc 5c23 25bc
000000a0: a67f 6dbd 0d41 733d c192 f63c 414c 3b3d
000000b0: ec4d dcbc 8ee2 913c d7ac d93c c4b1 84bd
000000c0: 8871 2c3d c858 5fbd 945e e83c 15a6 41bc
000000d0: 9ddb 893c ca80 a9bb ba14 c43b dd96 953c
000000e0: 96ff 19bd ad02 4dbc 79ad 313d b365 08bc
000000f0: ee30 cf3c 82e8 26bd 5bc7 553c 3867 363d
00000100: 0ff8 983a d447 603d 4878 f7bb 11db d6bc
00000110: 515f 31bc 73b1 203d da3c b03b 0350 df3b
00000120: 8e5a 203c a96d 0b3d 323e 96bc 29bd b53c
00000130: 0449 883d 0d5e 0fbd 7989 2abd 083b a8bc
00000140: 53ae 42bd 8263 01bd ed9c 673c 1fcc 563d
00000150: 7ec3 ae3c ee8a 4e3d 5073 a43c 5b82 4a3d
00000160: d92b 703d 20a4 88bc 20de 273d 68a2 e9bc
00000170: 591b c43b 6992 3e3d ab5e 723d c8c6 eb3c
00000180: c36e 25bd 6e07 18bd 24c5 3d3c 168e 3ebc
00000190: e20c 5b3d f93b 32bb d462 6dbc b3fa 0cbd
000001a0: 5835 1d3d 8562 c0bc e62a 263c 15a5 0f3d
000001b0: 9109 fcbc 9178 8b3c dcd2 4b3c 6744 573c
000001c0: 07ca 14bc c359 2abd 9cbb 16bc b4a4 b33c
000001d0: bf68 7c3d 66f2 5e3d 171c 5c3d cc7e c1bc
000001e0: 2490 40bc 6f45 19bd 6063 8d3c f2d1 11bc
000001f0: b899 6d3c 990f 2dbd a828 8bbd dfad 37bd
00000200: 9180 3abd cfbf 5f3b a6b2 2cbd 4814 15bd
00000210: afee 6ebd 7bc1 a0bc 30d4 1a3b 8526 693d
00000220: 1e96 6b3c e65d 213c 81d8 b4bc adb3 143d
00000230: 1636 fcbb b646 21bb 65aa 77bc ef5b 013d
00000240: 020b 683d 36b5 34bd 26de 1ebd 2c55 0c3d
00000250: 3c30 bfbc 159f 833d 9517 ce3c 1d96 af3c
00000260: 8129 11bd bb9c 513d 8dd8 1abd 9ae2 88b8
00000270: bf96 1c3d 3063 64bd ba17 28bd 0d99 ccbb
00000280: 10bd aabc 78ff 0cbd 8d64 283b 3732 453d
00000290: 314d 093c 9e58 a0bc 84fb 39bd 4b9f 033d
000002a0: c031 593b cc49 153d 2095 25bd 1111 c3bb
000002b0: 12d5 5dbc d821 40bc 3fe2 82bc db68 7ebc
000002c0: 21e1 4abd ad4f 06bd 96a9 c83c 399c 103c
000002d0: 9c1f 65bd acb2 48bd 8105 b83c ea02 b9bc
000002e0: cfef 21bd 8f40 6ebc d715 5d3d 2e15 073c
000002f0: 6048 3f3d 8279 aebb 97e4 163d dce6 713d
00000300: 5d8b 23bc 065e 64bc 2ebd 063d 3a4c 49bd
00000310: cbb7 7bbc cbcb 64bc 9585 e4bb ae95 53bd
00000320: ec47 75bd b661 653b f0d9 4a3d 2b09 033c
00000330: d4d1 8bbd 0c70 2f3d 7064 0d3d 47cb 5c3c
00000340: 945f 4cbd 9b27 83bd 2ffa b53c 9958 15bd
00000350: 7e1c 83bd c1ff aa3c 1b21 f7bc 1e5c 5bbc
00000360: fb2f 10bc 3b27 bdbc 22b1 89bd 1cb7 d53c
00000370: ad00 c33b 0ebd 25bd d0ba 43bb 3df0 9c3c
00000380: a9ec fdbb b588 ccbc 8b7f af39 5171 49bd
00000390: e7d5 153d 74a0 d13b 1688 04bd 9d28 263d
000003a0: d69a 593d 76b8 29bc f474 443d 2be8 ab3a
000003b0: c40b 1cbd e90b 183d 12e2 abbc 1436 1e3b
000003c0: 273c 91bc 87df 48bc cb65 18bd eb2c 93bb
000003d0: f9c8 773d 81ec 743b bed1 7bbc ec72 48bd
000003e0: 292d 0e3d 7c8f babb 46d0 08bd 2f6f 03bd
000003f0: 8ba8 783d 8c1f 0cbd dff9 813c d15f 8b3c

weight_function_network.initial_cnn.11.bias f4 [32]
0.053363115 0.003101998 -0.021015637 -0.010255056 0.054119863 0.05257763 0.0055441437 -0.010326764
-0.046154123 -0.010183389 0.0106148 0.016408674 0.034347884 0.011743946 -0.050951406 -0.039388042
-0.030976873 0.057411876 0.05419317 0.05403295 0.044752855 0.027029045 -0.0047716727 0.023555122
0.055906255 0.016199507 0.05034345 -0.0380232 0.00022310749 -0.053776473 0.040123414 -0.008928948
00000000: 4893 5a3d e44a 4b3b fc28 acbc d304 28bc
00000010: caac 5d3d a45b 573d a6ab b53b 9631 29bc
00000020: 1b0c 3dbd 3bd8 26bc b3e9 2d3c 7c6b 863c
00000030: 5eb0 0c3d ae69 403c 6cb2 50bd 5b55 21bd
00000040: 36c3 fdbc b728 6b3d a8f9 5d3d a851 5d3d
00000050: c54e 373d 046c dd3c b15b 9cbb acf6 c03c
00000060: f5fd 643d d4b4 843c ef34 4e3d 37be 1bbd
00000070: f6f1 6939 b844 5cbd 7358 243d b94a 12bc

weight_function_network.initial_cnn.12.weight f4 [32]
0.99868715 0.9945071 1.0093491 0.99497044 1.0083541 0.9878738 1.0070871 0.99814785
0.9972029 1.0062797 1.0069612 0.9944556 0.9884951 1.0168482 0.98656005 1.0110866
0.9890299 0.99855864 1.0040237 1.0198786 1.0004896 1.004091 0.9853086 0.9952922
0.998513 0.997434 0.996565 1.0080495 1.0013175 0.9931645 0.9883394 0.99541026
00000000: f6a9 7f3f 0498 7e3f 5a32 813f 62b6 7e3f
00000010: bf11 813f 4ce5 7c3f 3be8 803f 9e86 7f3f
00000020: b048 7f3f c6cd 803f 1be4 803f a494 7e3f
00000030: 040e 7d3f 1528 823f 338f 7c3f 496b 813f
00000040: 1031 7d3f 8aa1 7f3f d983 803f 628b 823f
00000050: 0b10 803f 0e86 803f 2f3d 7c3f 78cb 7e3f
00000060: 8c9e 7f3f d657 7f3f e21e 7f3f c407 813f
00000070: 2c2b 803f 0740 7e3f d003 7d3f 35d3 7e3f

weight_function_network.initial_cnn.12.bias f4 [32]
-0.013842172 -0.013578429 0.010310622 -0.0076003363 0.0057612685 -0.0118874395 -0.002312021 -0.0039271736
0.0010218947 0.00649795 -0.005275018 -0.00020136795 -0.011509405 0.013254832 -0.014106934 -0.0071480107
-0.013142765 -0.01982186 -0.007843701 0.00817368 -0.0025524276 0.0014354979 -0.0038736176 -0.0125988675
-0.017414538 -0.004673757 -0.0022889168 0.010327751 -0.001362654 -0.007947663 -0.007846725 -0.005230514
00000000: 47ca 62bc 0f78 5ebc e2ed 283c 3e0c f9bb
00000010: 06c9 bc3b 89c3 42bc 4785 17bb 85af 80bb
00000020: 19f1 853a c1ec d43b 0fda acbb 4c26 53b9
00000030: f291 3cbc cb2a 593c c520 67bc dc39 eabb
00000040: c054 57bc 7461 a2bc de82 00bc e6ea 053c
00000050: a146 27bb 5127 bc3a 85dc 7dbb 7b6b 4ebc
00000060: efa8 8ebc 5126 99bb a701 16bb ba35 293c
00000070: 159b b2ba ea36 02bc 8d8f 00bc bb64 abbb

weight_function_network.initial_cnn.12.running_mean f4 [32]
-0.05542442 -0.0038545555 0.029716322 -0.1951468 0.15609166 -0.41035706 0.13637836 -0.1767754
0.11083152 -0.040570084 0.45342985 -0.061968688 -0.03256519 -0.22731565 -0.30850196 0.27863336
0.20547543 0.088556804 0.6608581 0.1994567 0.18771411 -0.056407545 -0.07006608 0.26762974
-0.3176943 0.015381655 0.24808103 -0.16633968 0.31608456 0.14506781 0.10005615 0.23067062
00000000: b704 63bd b69c 7cbb a56f f33c 90d4 47be
00000010: 7ed6 1f3e 521a d2be c5a6 0b3e 9c04 35be
00000020: a3fb e23d d12c 26bd f527 e83e e1d2 7dbd
00000030: 1463 05bd 6fc5 68be f8f3 9dbe 08a9 8e3e
00000040: 2768 523e 455d b53d ff2d 293f 613e 4c3e
00000050: 2138 403e 990b 67bd ce7e 8fbd c406 893e
00000060: d4a8 a2be 5603 7c3c f408 7e3e f354 2abe
00000070: d6d5 a13e a88c 143e 3dea cc3d eb34 6c3e

weight_function_network.initial_cnn.12.running_var f4 [32]
0.0963193 0.09998365 0.11455163 0.07301718 0.10186395 0.11564933 0.09623617 0.10227913
0.107915 0.11262883 0.1374652 0.13785303 0.15618208 0.11391512 0.08704889 0.11235475
0.19737302 0.103029445 0.16705216 0.13445447 0.13442151 0.12945761 0.13669458 0.10892372
0.15003309 0.096070565 0.10655686 0.08124332 0.08951009 0.20212153 0.16066343 0.150344
00000000: 0e43 c53d 3ac4 cc3d 0c9a ea3d 088a 953d
00000010: 0c9e d03d 8ed9 ec3d 7817 c53d b877 d13d
00000020: 8a02 dd3d f2a9 e63d adc3 0c3e 5829 0d3e
00000030: 32ee 1f3e 554c e93d b046 b23d 3f1a e63d
00000040: 271c 4a3e 1a01 d33d b90f 2b3e 6fae 093e
00000050: cba5 093e 8990 043e aaf9 0b3e 6613 df3d
00000060: 46a2 193e a5c0 c43d 7c3a da3d e662 a63d
00000070: 1151 b73d f2f8 4e3e f484 243e c7f3 193e

weight_function_network.adaptive_layer.1.weight f4 [64, 32, 3, 3]
-0.015290973 0.0011658847 -0.05928902 0.025218831 -0.020251602 -0.019589545 0.0108992765 -0.02588868
0.024602119 0.0074251783 0.0062652207 -0.011860886 0.050102722 -0.04388009 0.043684725 0.0021591021
0.020684592 0.016446956 0.03936433 0.054301206 -0.061427455 -0.027683033 -6.841035e-05 -0.062703244
0.031292688 -0.037379626 -0.052284744 0.032162003 0.04439461 0.051724065 -0.015141277 -0.03158205
-0.027174702 -0.058190275 -0.019413058 0.023509147 -0.0047418755 0.0439748 -0.01739441 -0.038112823
0.00074310286 0.04159819 -0.024604501 -0.031300828 0.05110393 0.02945664 0.037474416 -0.04083528
-0.05088333 0.037250847 0.063074544 0.0054583154 0.025162844 0.06454173 -0.006513398 -0.05691982
-0.00639818 -0.05001423 -0.058332052 -0.057001106 0.03858891 -0.04604295 -0.042987943 0.0029766145
0.057813793 0.05786351 0.031489197 0.009731797 -0.016892307 -0.012605587 -0.012691998 0.06580608
0.06011329 -0.019739965 -0.038005367 -0.013204326 0.056232013 -0.034751404 0.012280746 0.048296615
0.061079103 -0.054921124 0.003700134 0.016412001 0.047158018 -0.049513657 0.021854812 -0.028548816
0.04342723 0.033307772 -0.008464267 -0.0135458 -0.03816559 -0.021738844 0.039115407 -0.031612657
-0.0005479512 -0.051171813 -0.008359504 0.040223517 -0.064429715 0.04173803 0.052333985 0.03219361
-0.015701126 0.04860318 -0.015805243 0.018423477 0.0069210324 0.049897175 -0.016497815 0.045969207
0.0067252843 -0.052872524 0.028244343 0.027570132 -0.04429079 -0.06633936 0.036084354 0.047260847
-0.061617743 -0.047759924 -0.022637349 -0.037126336 -0.031003313 -0.047292747 0.06791818 -0.019254107
-0.02101572 0.049451783 0.06875501 0.050966922 -0.050714083 0.064825065 0.061574504 -0.0073008533
0.023094082 -0.042581968 -0.025229553 0.014331516 -0.029210132 0.05883143 -0.04317176 -0.030678224
-0.0051276977 -0.040314365 0.012145583 -0.008406342 0.013765602 0.0016786973 -0.06473687 0.0281271
0.0018682895 0.037501145 0.023698542 -0.02311221 0.04069068 0.06963458 0.016181335 -0.031264447
-0.009614933 -0.026588535 -0.054569837 -0.042776827 0.03768705 0.055738665 0.018553516 -0.049157824
0.04460529 -0.045792323 0.009458917 0.05303153 -0.04030984 -0.03222834 0.0317543 0.016784066
0.049982954 -0.050991807 -0.049194317 -0.03232557 -0.057027128 -0.056397773 -0.05137827 0.02834816
-0.021693584 -0.06279867 0.033112783 -0.0061502815 -0.030632177 0.05998446 0.05715869 -0.012167564
-0.033303797 0.015981164 -0.02369848 -0.0060089626 0.04608568 -0.039353155 0.04758645 0.057398655
-0.01209346 -0.020197783 0.037737373 0.05183097 -0.055394776 -0.020284502 -0.0031833043 -0.0034019721
-0.045220636 -0.020475535 -0.054702807 -0.022359544 0.02053307 0.0312657 0.052408576 -0.01017043
-0.050490715 -0.021720188 0.021376083 0.033034828 -0.04577006 0.050733656 -0.04901691 0.009840893
0.0075818007 -0.052119702 -0.03581373 -0.00011207822 0.059614174 -0.0323646 0.042595904 0.031588692
-0.006359178 -0.037474453 -0.019300902 -0.022829644 -0.044696365 -0.019412553 0.03798398 0.052641988
-0.03947885 0.036223136 0.058849823 -0.0012624009 0.052008525 0.0024739061 0.027307846 0.050449956
0.030578876 0.0012854357 0.008150163 0.032011542 0.07179057 -0.032537654 -0.04180299 0.04825173
00000000: fd86 7abc 99d0 983a 0bd9 72bd b997 ce3c
00000010: b0e6 a5bc 417a a0bc e192 323c 7f14 d4bc
00000020: 628a c93c e94e f33b 7b4c cd3b 2954 42bc
00000030: 8338 4d3d 9cbb 33bd c1ee 323d b97f 0d3b
00000040: bc72 a93c c4bb 863c 7e3c 213d f16a 5e3d
00000050: 5b9b 7bbd 87c7 e2bc 8777 8fb8 8f6a 80bd
00000060: c32c 003d 611b 19bd 8728 56bd 4ebc 033d
00000070: 1fd7 353d 9ddc 533d 1e13 78bc 2e5c 01bd
00000080: 7b9d debc ed58 6ebd 2208 9fbc 4196 c03c
00000090: bc61 9bbb eb1e 343d b97e 8ebc 311c 1cbd
000000a0: cacc 423a dd62 2a3d 618f c9bc 4c35 00bd
000000b0: 5b52 513d 0d4f f13c c67e 193d e542 27bd
000000c0: 0a6b 50bd 5894 183d 3a2d 813d abdb b23b
000000d0: 4f22 ce3c 742e 843d 586e d5bb c224 69bd
000000e0: d3a7 d1bb b9db 4cbd 97ed 6ebd fe79 69bd
000000f0: 680f 1e3d 8897 3cbd 2014 30bd 4e13 433b
00000100: 28ce 6c3d 4a02 6d3d d1fa 003d 1d72 1f3c
00000110: bc61 8abc aa87 4ebc 19f2 4fbc 57c5 863d
00000120: 5a39 763d b5b5 a1bc 84ab 1bbd f556 58bc
00000130: 8a53 663d 7d57 0ebd 2f35 493c acd2 453d
00000140: 152e 7a3d f9f4 60bd f37d 723b 7672 863c
00000150: c428 413d d5ce 4abd dd08 b33c 35df e9bc
00000160: c0e0 313d bb6d 083d b5ad 0abc 34ef 5dbc
00000170: 8653 1cbd a915 b2bc 7a37 203d 467c 01bd
00000180: 62a4 0fba 8999 51bd 4df6 08bc 6ac1 243d
00000190: baf3 83bd 7ff5 2a3d 295c 563d 72dd 033d
000001a0: a69f 80bc 2114 473d ff79 81bc d5ec 963c
000001b0: d4c9 e23b fb60 4c3d 6d26 87bc 354a 3c3d
000001c0: c65f dc3b dc90 58bd ae60 e73c c2da e13c
000001d0: 426a 35bd eedc 87bd 30cd 133d 9794 413d
000001e0: e362 7cbd e99f 43bd f671 b9bc c911 18bd
000001f0: a9fa fdbc 0ab6 41bd b018 8b3d caba 9dbc
00000200: 2929 acbc f48d 4a3d 6dcf 8c3d b1c2 503d
00000210: 92b9 4fbd 01c3 843d 8c35 7c3d ff3b efbb
00000220: cd2f bd3c 6e6a 2ebd 35ae cebc bcce 6a3c
00000230: 164a efbc 3af9 703d dfd4 30bd e650 fbbc
00000240: 3f06 a8bb ad20 25bd 44fe 463c c1ba 09bc
00000250: 1f89 613c bc07 dc3a c494 84bd ce6a e63c
00000260: 65e1 f43a cd9a 193d 7223 c23c d155 bdbc
00000270: 45ab 263d 939c 8e3d b88e 843c 260f 00bd
00000280: f487 1dbc 33d0 d9bc 9f84 5fbd c136 2fbd
00000290: bc5d 1a3d 3a4e 643d 8bfd 973c b759 49bd
000002a0: 09b4 363d bb90 3bbd 93f9 1a3c 9737 593d
000002b0: ee1b 25bd dd01 04bd cc10 023d bd7e 893c
000002c0: edba 4c3d c9dc 50bd fb7f 49bd d167 04bd
000002d0: 4795 69bd 5a01 67bd 0572 52bd 673a e83c
000002e0: beb6 b1bc 979c 80bd 45a1 073d 4d88 c9bb
000002f0: 55f0 fabc 44b2 753d 3b1f 6a3d 765a 47bc
00000300: 9069 08bd eeea 823c 5123 c2bc d5e6 c4bb
00000310: 57c4 3c3d c630 21bd 02ea 423d da1a 6b3d
00000320: a623 46bc d275 a5bc 8192 1a3d b64c 543d
00000330: a2e5 62bd af2b a6bc fc9e 50bb 9ff3 5ebb
00000340: 4639 39bd 4fbc a7bc 0d10 60bd 5d2b b7bc
00000350: f834 a83c 7610 003d 60aa 563d e0a1 26bc
00000360: 5acf 4ebd 89ee b1bc e51c af3c 874f 073d
00000370: 6379 3bbd 18ce 4f3d f5c5 48bd b23b 213c
00000380: c170 f83b 787b 55bd 6bb1 12bd 890b ebb8
00000390: fe2d 743d be90 04bd 0b79 2e3d 2563 013d
000003a0: a760 d0bb d07e 19bd ed1c 9ebc 3c05 bbbc
000003b0: 8913 37bd 1307 9fbc 1795 1b3d 209f 573d
000003c0: 93b4 21bd b65e 143d 830c 713d 2577 a5ba
000003d0: e406 553d 4221 223b b4b4 df3c 9da4 4e3d
000003e0: 8d80 fa3c 117c a83a 4388 053c 891e 033d
000003f0: ef06 933d 3446 05bd 9d39 2bbd 9ba3 453d

weight_function_network.adaptive_layer.1.bias f4 [64]
-0.023660403 -0.015153442 0.006618738 0.051970568 0.056853604 0.037822086 0.016821463 0.038526457
0.048568036 -0.016707035 0.05849167 0.040104844 0.052236754 0.03810076 0.045166932 -0.042233683
-0.020734183 0.015080289 0.03201561 0.011206803 0.0076886043 0.014773437 0.031837534 0.0045513324
0.042854622 0.029753685 0.0589188 0.027915359 0.037335988 0.009962497 -0.04449145 0.040387783
0.030013714 -0.034382593 -0.055471573 -0.009874189 -0.017949319 -0.012492538 -0.027693084 -0.004301837
-0.019380398 -0.030694725 -0.004706017 0.033106867 0.030690981 -0.030019809 0.033972032 -0.0094537875
0.04143347 0.0076644793 0.013440537 -0.049421802 0.058287315 -0.05852794 0.058575984 0.0082320245
-0.058301643 -0.057747304 -0.018734146 -0.02232183 0.021625191 0.0419195 0.026813958 -0.009066312
00000000: 76d3 c1bc 2446 78bc 00e2 d83b 17df 543d
00000010: 53df 683d 55eb 1a3d 2acd 893c ebcd 1d3d
00000020: 47ef 463d 31dd 88bc f694 6f3d fa44 243d
00000030: 35f6 553d 8b0f 1c3d f600 393d 3afd 2cbd
00000040: bcda a9bc 5113 773c cd22 033d bd9c 373c
00000050: b0f0 fb3b 490c 723c 1368 023d 5823 953b
00000060: 5488 2f3d 00be f33c d754 713d c0ae e43c
00000070: 9fed 183d be39 233c ab3c 36bd a96d 253d
00000080: 52df f53c c3d4 0cbd 2936 63bd 5ac7 21bc
00000090: 730a 93bc 81ad 4cbc 9bdc e2bc 6df6 8cbb
000000a0: a4c3 9ebc 8173 fbbc ef34 9abb 119b 073d
000000b0: a76b fb3c 1aec f5bc 4226 0b3d 0fe4 1abc
000000c0: 24b6 293d 5026 fb3b b335 5c3c 846e 4abd
000000d0: aebe 6e3d feba 6fbd 5fed 6f3d 9ddf 063c
000000e0: b4cd 6ebd 7088 6cbd 5a78 99bc 45dc b6bc
000000f0: 5027 b13c c8b3 2b3d f2a8 db3c de8a 14bc

weight_function_network.adaptive_layer.2.weight f4 [64]
0.98499143 1.0071317 0.99210364 1.0042647 0.9756218 1.0005419 1.0056478 1.0053872
1.0034838 1.0122964 1.0074484 1.0100323 0.99949443 0.9938293 0.9967841 0.9964011
0.9917288 0.9871838 1.0115789 0.99888957 0.9946711 0.9993215 0.9968628 0.96888804
0.98580307 0.9921415 0.9910176 0.9780953 0.9823764 0.9935863 1.0079868 1.0157151
0.98672855 1.0069195 0.9962864 1.0079066 1.0065045 1.0032814 0.9891079 1.0097715
0.99014723 0.9996035 1.0031147 1.0030577 1.0037601 0.9916951 0.99176747 1.0084304
1.0099251 0.9876238 1.0122281 0.9814844 0.990601 1.000367 0.99900436 0.9871781
0.9957465 1.0095078 1.0031575 0.9851488 1.0101277 0.9890071 0.9977382 1.0100772
00000000: 6628 7c3f b1e9 803f 81fa 7d3f bf8b 803f
00000010: 5ac2 793f c211 803f 11b9 803f 87b0 803f
00000020: 2872 803f ee92 813f 12f4 803f bd48 813f
00000030: dede 7f3f 996b 7e3f 3e2d 7f3f 2414 7f3f
00000040: f0e1 7d3f 14b8 7c3f 6b7b 813f 3ab7 7f3f
00000050: c4a2 7e3f 89d3 7f3f 6732 7f3f 0c09 783f
00000060: 975d 7c3f fcfc 7d3f 54b3 7d3f 7464 7a3f
00000070: 057d 7b3f ac5b 7e3f b605 813f f402 823f
00000080: 3e9a 7c3f bde2 803f a00c 7f3f 1503 813f
00000090: 24d5 803f 866b 803f 2d36 7d3f 3140 813f
000000a0: 4a7a 7d3f 04e6 7f3f 1066 803f 3264 803f
000000b0: 367b 803f bbdf 7d3f 79e4 7d3f 3f14 813f
000000c0: 3a45 813f ead4 7c3f b190 813f 9042 7b3f
000000d0: 0798 7d3f 070c 803f c0be 7f3f b4b7 7c3f
000000e0: 3ee9 7e3f 8d37 813f 7767 803f b632 7c3f
000000f0: dd4b 813f 922f 7d3f c56b 7f3f 364a 813f

weight_function_network.adaptive_layer.2.bias f4 [64]
-0.018148454 -0.0047383797 -0.011140711 0.00916039 -0.020542854 -0.012766698 -0.022324614 0.0019186747
-0.012045864 -0.015640657 -0.005849454 -0.0033837033 -0.019732222 0.0046442584 -0.00315988 -0.0015952486
-0.009461048 -0.0038652383 0.00082821626 -0.003450521 -0.020104596 -0.021776868 -0.01273432 -0.029276732
-0.013150075 -0.006382971 0.0004897572 -0.007895113 -0.017857453 -0.009935035 -0.0042514307 0.008443502
-0.0051301788 -0.00061248057 -0.01179685 0.0018212034 0.01208765 0.0036686298 -0.0100907795 -0.005452669
-0.019492067 -0.015426897 0.0066432273 -0.004528324 -0.0032794431 -0.009354172 -0.013247715 -0.001327625
-0.0058173896 -0.0015291885 0.01449616 -0.022508001 -0.011599854 -0.00029438504 -0.008375852 -0.0029749214
-0.0039185523 -0.0108060865 -0.0043130587 -0.016570808 0.010053306 -0.0053473543 -0.0045196745 0.00874813
00000000: 11ac 94bc 6944 9bbb 8787 36bc 7615 163c
00000010: 7d49 a8bc 6a2b 51bc 1ce2 b6bc 0a7c fb3a
00000020: 045c 45bc d620 80bc c7ac bfbb 1fc1 5dbb
00000030: 78a5 a1bc dd2e 983b fd15 4fbb a917 d1ba
00000040: 8302 1bbc f04f 7dbb a71c 593a 2322 62bb
00000050: 65b2 a4bc 6765 b2bc 9ca3 50bc c2d5 efbc
00000060: 6a73 57bc 3e28 d1bb 0d63 003a 815a 01bc
00000070: cb49 92bc 8fc6 22bc 964f 8bbb 9d56 0a3c
00000080: 0f1b a8bb e08e 20ba 9347 41bc 72b5 ee3a
00000090: 470b 463c 656d 703b cc53 25bc 4eac b2bb
000000a0: d4ad 9fbc 19c1 7cbc 6eaf d93b 5662 94bb
000000b0: edeb 56bb 3e42 19bc f20c 59bc b403 aeba
000000c0: cd9f bebb 0d6f c8ba 4d81 6d3c b362 b8bc
000000d0: 500d 3ebc b157 9ab9 df3a 09bc e6f6 42bb
000000e0: 3367 80bb 030c 31bc 8f54 8dbb 81bf 87bc
000000f0: 9fb6 243c dc38 afbb c719 94bb 5154 0f3c

weight_function_network.adaptive_layer.2.running_mean f4 [64]
0.027814683 -0.4160249 -0.30541134 0.03772071 0.23456407 -0.44645616 -0.8317871 0.29644644
0.26111248 0.08863376 0.027150959 0.9048091 0.42837322 0.29220805 -0.122067876 -0.050702285
-0.5739818 0.2448711 0.39090016 0.16933933 -0.042375866 0.24092673 -0.0058686705 -0.004347773
0.045885425 0.032273296 -0.69371885 -0.26383018 0.10214523 -0.15026528 -0.041455757 0.13936369
-0.49669564 -0.09868365 -0.017650401 -0.49794215 -0.07830378 -0.11391672 0.08564833 -0.5343294
-0.44870827 0.64898616 0.104911625 0.11196738 -0.36991838 -0.088554755 -0.5812571 0.43042877
0.8693406 0.27620095 -0.091512725 -0.4635029 4.596076e-05 0.60438585 -0.120223 -0.6330648
-0.10147748 0.2075502 0.14060184 0.06740386 -0.09644184 0.105557896 0.21034718 -0.29367998
00000000: 9edb e33c 3701 d5be e05e 9cbe 0881 1a3d
00000010: 9031 703e e795 e4be 00f0 54bf d4c7 973e
00000020: 89b0 853e 9e85 b53d b06b de3c 92a1 673f
00000030: bc53 db3e 4b9c 953e b9fe f9bd 33ad 4fbd
00000040: 79f0 12bf 7dbf 7a3e 1124 c83e 4a67 2d3e
00000050: 5192 2dbd 7fb5 763e fa4d c0bb c377 8ebb
00000060: 5bf2 3b3d 0131 043d 8f97 31bf c014 87be
00000070: 8531 d13d 24df 19be 83cd 29bd 5bb5 0e3e
00000080: e44e febe a71a cabd 9397 90bc 46f2 febe
00000090: bb5d a0bd 2b4d e9bd 6468 af3d d0c9 08bf
000000a0: 17bd e5be f523 263f e8db d63d 274f e53d
000000b0: f165 bdbe 325c b5bd 44cd 14bf 2961 dc3e
000000c0: 1b8d 5e3f 366a 8d3e 066b bbbd 4150 edbe
000000d0: fec5 4038 08b9 1a3f 7a37 f6bd 8910 22bf
000000e0: 6dd3 cfbd 0a88 543e eef9 0f3e 090b 8a3d
000000f0: 4d83 c5bd bd2e d83d 4065 573e 395d 96be

weight_function_network.adaptive_layer.2.running_var f4 [64]
0.22843538 0.24532393 0.19661212 0.21862978 0.2130719 0.21182725 0.2546711 0.17720336
0.16244088 0.13163091 0.21116897 0.36474773 0.16174883 0.18477724 0.32925195 0.23639624
0.18498401 0.20010626 0.17683631 0.08809932 0.18877949 0.17299855 0.1749059 0.12063958
0.17747733 0.19193667 0.22446361 0.16710806 0.14796518 0.10338527 0.14337057 0.22535825
0.19857728 0.22246945 0.13405775 0.22306935 0.15041605 0.17171328 0.2465434 0.15628906
0.13815115 0.23259191 0.3396458 0.25673905 0.15889125 0.13644426 0.2135259 0.21978925
0.24224602 0.14863478 0.39258492 0.13782403 0.21781144 0.21288992 0.18638222 0.24462605
0.14567195 0.10539874 0.23537575 0.14035438 0.18811287 0.18196371 0.22796959 0.20462218
00000000: f7ea 693e 3236 7b3e b054 493e 7ce0 5f3e
00000010: 852f 5a3e 3ee9 583e 4064 823e cc74 353e
00000020: e756 263e 41ca 063e ae3c 583e 37c0 ba3e
00000030: 7ca1 253e 3f36 3d3e b693 a83e db11 723e
00000040: 736c 3d3e a8e8 4c3e 9414 353e 6b6d b43d
00000050: 694f 413e 8826 313e 881a 333e e211 f73d
00000060: 9ebc 353e 0c8b 443e cad9 653e 601e 2b3e
00000070: 2f84 173e a8bb d33d bccf 123e 50c4 663e
00000080: d857 4b3e 08cf 633e 6f46 093e 4b6c 643e
00000090: aa06 1a3e 9bd5 2f3e e075 7c3e 3d0a 203e
000000a0: 7f77 0d3e 932c 6e3e 0ee6 ad3e 4d73 833e
000000b0: 63b4 223e 0bb8 0b3e 89a6 5a3e 6f10 613e
000000c0: 570f 783e b733 183e e400 c93e be21 0d3e
000000d0: f609 5f3e d1ff 593e fbda 3e3e 407f 7a3e
000000e0: 072b 153e 4bdb d73d 5706 713e 0fb9 0f3e
000000f0: a9a0 403e b254 3a3e dc70 693e 7a88 513e
