logs/测试损失函数中mse的权重带来的影响/loss.cross_entropu_loss_with_mse.alpha=0.0/test_model_20250426_144347.pth (torch, 840675 bytes, 78 tensors)

weight_function_network.initial_cnn.0.weight f4 [8, 1, 3, 3]
00000000: a6d5 793c 66e6 983e 6486 413d dc65 b03d
00000010: c8f3 22bd 33c2 80be 9bf4 163e 0c2e c73d
00000020: f2a6 9fbd 09af 9abd 9cd0 84bd 6bf7 3e3c
00000030: 746d 813e 62e7 173e ee4d 9dbc 0623 62be
00000040: 1f40 03be 751a 3f3e 66bb 40be 6f71 87be
00000050: b04b 4ebd 058b e63d cfb8 9a3e 65a7 25be
00000060: dd40 743c b452 fa3d ff43 98be 0de5 70bd
00000070: 0679 ea3d 2c35 363e 0db3 24be e567 773d
00000080: 65fc 013e bd69 133e b40b 083e ac80 dbbd
00000090: fbdd 7f3e d47f 6fbd 54f7 82bc 1376 f03c
000000a0: e78f a9bc 5368 993d 0b7c 703e 3e29 5a3b
000000b0: ae22 f8bd 68bb 0bbb 6821 2bbe a416 c43c
000000c0: 89ca 38be 7ec1 3ebe 8514 703e 6e5e 923e
000000d0: 235f e3bd d05a 3cbe 8515 0bbe 37fd 81bd
000000e0: 3d71 2e3c 34a7 d43c 3961 333e 1b2b ea3d
000000f0: d3c1 6abe 2dfc 8c3d 0489 783d 2dfe c13d
00000100: 4549 de3d 9715 123e 8424 363d 272c 74be
00000110: 98d3 393e 33b2 9e3e 2e32 e9bd 9c79 5abe
0.015248692 0.2986328 0.047247306 0.08613178 -0.03978327 -0.25148162 0.14741747 0.097255796
-0.07795514 -0.075529166 -0.064851016 0.011655669 0.2527882 0.1483436 -0.019202199 -0.22083673
-0.12817429 0.18662436 -0.18821487 -0.2645373 -0.05036515 0.112569846 0.30219123 -0.16177137
0.014908043 0.122228056 -0.29739377 -0.05881219 0.11448865 0.17793721 -0.16083927 0.060401816
0.12693937 0.14395805 0.13285714 -0.107179016 0.24987023 -0.058471516 -0.015987076 0.029353177
-0.0206985 0.074906014 0.23484819 0.0033288742 -0.121159896 -0.002132142 -0.16711962 0.023936577
-0.18046011 -0.18628499 0.23445328 0.2858767 -0.1110213 -0.18394017 -0.13582428 -0.06347125
0.010647115 0.025958635 0.17517556 0.11434003 -0.229255 0.06884036 0.060677543 0.09472308
0.10853819 0.14266048 0.044468418 -0.23844968 0.18147123 0.3099533 -0.11386524 -0.21335453

weight_function_network.initial_cnn.0.bias f4 [8]
00000000: 9be0 183e 159a 81be 4df6 93bd e3cc 633e
00000010: 4634 413d 3b89 ffbd ad95 51be 1805 d6bc
0.1492943 -0.25312868 -0.072247125 0.22246127 0.047168992 -0.124773465 -0.20467253 -0.026125476

weight_function_network.initial_cnn.1.weight f4 [8]
00000000: 2dce 7f3f 6169 803f 40ce 7c3f 2933 813f
00000010: b54d 803f 7d1c 803f 1d5d 803f c619 7d3f
0.99923974 1.0032159 0.9875221 1.0093738 1.0023714 1.0008694 1.0028416 0.9886745

weight_function_network.initial_cnn.1.bias f4 [8]
00000000: 10bd c03b 3760 98bc 1a80 cdbc 906f 023c
00000010: 99d0 e93b a050 02bc 4824 adbc 6f47 a7bb
0.005881913 -0.018600566 -0.025085498 0.007961169 0.0071354625 -0.007953793 -0.021135464 -0.005104951

weight_function_network.initial_cnn.1.running_mean f4 [8]
00000000: 1cb2 953e a3b6 59be da26 82be 019b d33e
00000010: 1d1a 5b3e 561c 81be fef2 44be 49c2 e93d
0.2923745 -0.21261077 -0.25420266 0.41329196 0.2139668 -0.2521693 -0.19233319 0.1141401

weight_function_network.initial_cnn.1.running_var f4 [8]
00000000: d581 aa3c 19e7 3f3b db42 ee3c 760e fb3c
00000010: 5548 d03c 7e11 7b3c c16e 893b a675 943c
0.020813862 0.0029282032 0.029084614 0.030646544 0.025425116 0.015323995 0.004194111 0.018122505

weight_function_network.initial_cnn.4.weight f4 [16, 8, 3, 3]
00000000: b2d9 ebbd 60d6 2dbd 9960 c03c 0e15 81bb
00000010: da25 37bd cec0 59bd f826 aa3d a315 c33d
00000020: 35b2 55bc 8b1c f23d 8914 7abd 722c e9bc
00000030: 4c7e 8dbd b7ff cabd 6b71 f13d 3d1b 42bd
00000040: 0193 913d 8d2d 713d cf30 113d 725e cf3d
00000050: 557a 6c3c 76d5 a0bc c4ff a33d a74b 89bd
00000060: 411f ec3d 9d9b 813d b08a 05bd 6bba a0bd
00000070: b79d cf3c c587 883d 9a52 89bc 5986 22bd
00000080: 81b1 38bd 7185 b53c 5d40 71bd b342 3a3d
00000090: 4a55 e0bc d872 adbd c12a 9a3d dc4e 64bd
000000a0: bc33 743d 78af c6bd 7263 d63c e2a5 553d
000000b0: 284d 90bb 3cc7 38bd 0941 c2bd 97e9 a73d
000000c0: d9ec cc3d acc3 d93c cc74 53bd 4130 a43c
000000d0: d84f aabd 2b5c 8e3d d273 973d b2c3 8cbd
000000e0: eab3 173d 1351 283d bfed 063b 659a 5b3c
000000f0: e5d8 c5bc c5e6 a83d 9b44 f5bb 83b4 7bbd
00000100: 1cca b43d 1778 0c3d 6835 40bd 8ab6 cd3b
00000110: 1461 433d a802 c33c f778 d23d c712 6e3c
00000120: 827b 40bd 9c40 b5bc cf6b f53d 1270 183b
00000130: f2e0 81bd 6d74 93bd de66 623d 146d b93d
00000140: fac4 8c3d 166e f83d 5c03 0abd 88bb df3d
00000150: c04b 773d ad7b 80bc d9cc 883d 2c12 de37
00000160: 6700 3d3d b31c 8fbd ba92 843d 05a4 963d
00000170: a569 c7bd a4d0 3abd dcc1 00bc 1f11 593d
00000180: 8363 c3bd 7b4e ac3c 5af8 a6bd 671d af3d
00000190: acff eabc 7e3c adbd d930 aabd b067 fc3c
000001a0: 8d33 8bbd 7b75 c53d 12d7 ee3d d09c 23bc
000001b0: fccb ad3d e0c1 dd3d c8f7 c5bc b1ab dabd
000001c0: 9db4 513d 1fc5 b5bd ab0a 96bd 5417 85bc
000001d0: 8d89 89bd 6cef 8c3d 996d ba3c 0a36 a7bd
000001e0: f1cb b43d adfd f33d 9314 903d de99 f8bc
000001f0: 049c 813c 6689 5e3d 6600 83bd 8504 373d
00000200: 99c9 acbc ce4d a2bd dd5b f83d 6b36 8cbd
00000210: bcaa b4bd 0410 d43a 1a9c 98ba b44f fc3d
00000220: 9b32 593c 598c 8ebc c38d 67bd 4f73 96bd
00000230: da67 df3d 810e 0b3d 949f a4ba 2a83 b5ba
00000240: 0aa9 66bd 7dd6 26bd e0d5 863d 1b40 7c3d
00000250: 5317 c63d da73 9cbd 24e0 713d 72d4 8f3d
00000260: 1343 8dbc 01ca 5c3b de83 9b3d f9c3 3a3d
00000270: a8f7 92bd d156 973c 0010 083e 5bf0 93bd
00000280: 2850 36bc a02f c73d 8729 013d 97fd 87bd
00000290: 13e3 cabd 0eba 803b f87c 70bb 3be1 c83d
000002a0: fe36 86bd 290c 823c 24af 0d3c b1fa dc3d
000002b0: 32fa 163d bb55 193d c9ff 10bd 2e42 85bd
000002c0: 5854 fe3d b8dc b2bc 9d2e a83d 9443 e33d
000002d0: 9a8a 553d 6ee8 0bbb 24d0 783d b518 20bd
000002e0: 8794 7abd ff9d 05bd aec0 253b a060 b0bd
000002f0: 308e 713d 14d8 c3bb b7f7 373b 62fc 443d
00000300: d707 f53d 9c29 c43c ee6d 9abb 8a05 72bc
00000310: 38a9 cb3c 1bf9 90bd 816f d1bd 6f33 d3bc
00000320: 10d4 4f3c 42b1 70bd 9cad 9cbc 15f8 8f3d
00000330: 40db dcbd ca02 93bd 95b3 553d a161 abbc
00000340: fd84 32bd bbbb 38bd acdb ca3d 0a16 283d
00000350: 231f 24bd 342d 883d 0562 99bd 556b dc3d
00000360: 9204 69bd 5145 e5bc e5e6 d9bd 0749 d63d
00000370: 3ec2 b73d 6859 36bd 5d94 49bc ad09 2a3d
00000380: bcfb e5bd a920 2c3d fd03 7abd ba75 4e3d
00000390: dc70 c2bd d239 fc3d 6fe2 c3bd b938 f43d
000003a0: fbad 85bd 9f65 4c3d 6f26 4f3d 2235 9cbd
000003b0: 0f7a 12bd 89c6 273d 01f0 83bd f29b 8bbd
000003c0: b164 e8bd 4cbc 92bd 9f10 c1bd 3b41 afbd
000003d0: 9ec3 793d eb35 97bd e5e3 8a3d 503b a93d
000003e0: 77f8 ddbd b2b1 94bd 4df0 263d cb1a 8f3a
000003f0: faf3 97bd 673f 1cbd f71a 813d 6b4a 633d
-0.115161315 -0.042440772 0.023483561 -0.0039392775 -0.044713832 -0.05316239 0.08308214 0.09525611
-0.013042976 0.118218504 -0.06105474 -0.028463576 -0.06908855 -0.09912055 0.11789211 -0.047389258
0.07108117 0.05888133 0.035446938 0.10125436 0.014433463 -0.019633036 0.08007768 -0.06703883
0.11529399 0.06328509 -0.032602966 -0.078480564 0.025343759 0.06666521 -0.01676302 -0.039678905
-0.045091156 0.022158356 -0.058899272 0.045473766 -0.027384419 -0.0846917 0.07527686 -0.05573927
0.05961965 -0.09701437 0.026170466 0.05216015 -0.004403729 -0.04511188 -0.09485061 0.081988506
0.100061126 0.026582561 -0.051625058 0.02004254 -0.0831601 0.069511734 0.07395138 -0.068732634
0.037036814 0.041092943 0.0020588485 0.01340351 -0.024151275 0.08247141 -0.007484985 -0.061451446
0.08827612 0.034294214 -0.046925932 0.006277864 0.047700003 0.023804978 0.102769785 0.014530844
-0.046992786 -0.022125535 0.119834535 0.0023260158 -0.06341733 -0.07199941 0.055273883 0.09054008
0.06873508 0.12130372 -0.03369461 0.109244406 0.060374975 -0.015683973 0.066796966 2.6472924e-05
0.04614296 -0.06987896 0.06473298 0.07355503 -0.09736947 -0.04560913 -0.00785872 0.052994844
-0.09540465 0.021033516 -0.08152838 0.0855053 -0.028686367 -0.084588036 -0.08310098 0.03081116
-0.06796942 0.09641548 0.11662115 -0.0099861175 0.084861726 0.10827994 -0.024166003 -0.10677279
0.051197637 -0.088754885 -0.073262535 -0.016246475 -0.06715689 0.068816036 0.022757338 -0.08164604
0.08827961 0.11913619 0.07035174 -0.030346807 0.015821464 0.054330252 -0.0639656 0.044682045
-0.021092223 -0.07924996 0.121268965 -0.06846317 -0.088216275 0.001617909 -0.0011643202 0.1231989
0.013256694 -0.017400907 -0.05653168 -0.07346212 0.1090848 0.03394938 -0.0012559765 -0.0013848294
-0.056313552 -0.040731896 0.06583762 0.061584573 0.096724175 -0.076392844 0.059051648 0.070229426
-0.017243898 0.003368974 0.07593511 0.04559705 -0.07176143 0.018474014 0.13287354 -0.072235785
-0.011127509 0.097258806 0.031533744 -0.06640165 -0.09906592 0.0039284294 -0.003669558 0.09808584
-0.06553458 0.015874939 0.008647714 0.10790003 0.0368597 0.037435275 -0.035400186 -0.065067634
0.12418431 -0.021833763 0.08212016 0.11096874 0.052134134 -0.0021348256 0.060745373 -0.039086062
-0.061176803 -0.03262138 0.0025291848 -0.0861218 0.05897349 -0.0059766863 0.0028071234 0.048092254
0.11964386 0.023945622 -0.0047128117 -0.014771828 0.024860963 -0.07078763 -0.10226346 -0.025781361
0.012684837 -0.058762796 -0.019125752 0.0702974 -0.10784006 -0.07178266 0.052173216 -0.020920577
-0.04358386 -0.04510091 0.0990518 0.041036643 -0.040068757 0.06649247 -0.07489399 0.107626595
-0.056889124 -0.027987154 -0.10639743 0.104631476 0.08972596 -0.04451886 -0.012303439 0.041513134
-0.11229655 0.042023335 -0.06103896 0.05040524 -0.094941825 0.12315716 -0.09564673 0.119248815
-0.06527325 0.0499016 0.050573763 -0.07627322 -0.035760935 0.040960822 -0.064422615 -0.068168536
-0.1134733 -0.07164821 -0.09426998 -0.085573636 0.06097757 -0.07383331 0.06781749 0.08263266
-0.108384065 -0.07260455 0.040756512 0.0010918019 -0.07419582 -0.038146403 0.06303971 0.055490892

weight_function_network.initial_cnn.4.bias f4 [16]
00000000: 94ef 74bd 34c2 d03d d65f a53d 4fa7 c13d
00000010: 1041 6d3d 5d38 86bb 5783 85bc dc71 bdbd
00000020: 2e2f cabd 46cc 8e3d a2f3 dc3d eada 75bd
00000030: 6c0f 08bd 97a2 863d bcbb 723c a2f0 1abd
-0.059798792 0.10193291 0.0807492 0.0945574 0.057923377 -0.0040960745 -0.01629798 -0.092502326
-0.0987228 0.06972556 0.10788657 -0.060023226 -0.033217832 0.0657398 0.014815267 -0.03782714

weight_function_network.initial_cnn.5.weight f4 [16]
00000000: 528b 7f3f b6dd 803f 3deb 803f 81c3 823f
00000010: 69c3 7c3f 4f1d 7f3f efbd 803f 29b6 7e3f
00000020: 4665 7e3f 6804 7d3f 1f60 7d3f dd45 803f
00000030: c452 803f e4d2 7e3f 7751 813f 811d 803f
0.9982196 1.0067661 1.0071789 1.0215913 0.9873567 0.99654096 1.0057963 0.99496704
0.9937328 0.9883485 0.98974794 1.002132 1.0025258 0.99540544 1.0102986 1.0009004

weight_function_network.initial_cnn.5.bias f4 [16]
00000000: becf adbc ed3a 033c 38f1 653c d4c3 81bb
00000010: 5b43 14bb 58ed 0fbc f296 043c 65f8 a33a
00000020: 7cab 843b 66ff 003c a287 ecbb 14d3 23bc
00000030: baf6 79bc de5a 23bb ed58 be3b 10d6 84bb
-0.021217223 0.0080096545 0.014034562 -0.003960112 -0.0022623155 -0.0087846145 0.008092629 0.001250994
0.004048763 0.007873392 -0.007218317 -0.009999055 -0.015256578 -0.0024925987 0.0058089406 -0.0040538386

weight_function_network.initial_cnn.5.running_mean f4 [16]
00000000: 517e 253e 400a cf3e 5def e33e ae79 3cbe
00000010: 398a b63e 6e10 1ebe b691 c9be 54fa 07bf
00000020: 013e 0fbf 782b 873e f0a2 dc3e 1284 adbe
00000030: 9fe4 42bc 238a 603f 06ea 373c cf3d 44bd
0.16161467 0.40437508 0.44518557 -0.18405792 0.3565233 -0.15435955 -0.3936898 -0.53116345
-0.55953985 0.26400352 0.4309306 -0.33889824 -0.011895328 0.8771078 0.011225229 -0.047910508

weight_function_network.initial_cnn.5.running_var f4 [16]
00000000: cc70 a13d 1136 673d 445c 1c3e 4647 813d
00000010: 5b40 133e f453 543e 4f3f 023e bb76 4b3d
00000020: 911f 993e 2499 1c3e cdd3 6f3e af42 9b3d
00000030: d9c6 9f3d b02a 3d3e a3dc 493d 577c ea3d
0.078828424 0.056448046 0.15269572 0.063124225 0.14380018 0.2073515 0.12719463 0.049673777
0.29906896 0.15292794 0.2342064 0.07581078 0.07801599 0.18473315 0.04928268 0.11449497

weight_function_network.initial_cnn.8.weight f4 [32, 16, 3, 3]
00000000: 3369 193d 2025 56bd 1082 4fbb 81cf 853c
00000010: c59e aabc 575b fc3c 892a 543c 5f1a f03c
00000020: 44d4 c9bc fec7 933d 55ca 883d 7583 803d
00000030: d249 43bc 9bf0 6f3c 11a2 91bd 2a74 c03d
00000040: b801 e33c 0ec8 19bc 8319 a83c a8be fdbb
00000050: 943d 8f3d e7ae 893c 22d9 82bd 09f8 533d
00000060: 0ce3 7abd 387c 0d3d dcf1 5cbd ba17 85bd
00000070: b50e b93d 90fc 80bd c8d7 cabb 6dfa 8d3d
00000080: 5562 8c3d 8317 6d3d da63 48bb 8ed3 723d
00000090: f78d 56bd 2e7a 34bd adf6 aa3d c663 2f3d
000000a0: 6dfe 8f3d e646 a03c c1b6 bc3b 6a10 2bbc
000000b0: 6ae6 bcbc 4fb0 003a 24df 8d3c f412 74bd
000000c0: 23ec 343d f3b0 8d3c acf7 2c3c fa85 463d
000000d0: 53f9 fc3c 57a0 85bd 5b9c 373c b7d6 3f3c
000000e0: fb7a 5fbd da7c e1bc abef 7a3c 38c3 733d
000000f0: b293 393d 196f 303d 6b7a 59bc 57e6 7dbd
00000100: daf7 dc3c 9847 3cbc cd9a 6abd c8a5 f5bb
00000110: 3a39 c03c 5527 113d 57be 0cbc 6eff 883d
00000120: 6186 4fbd a37f 93bd 8e31 5f3d 10c2 b03d
00000130: b687 89bc a331 bebd 14cd d8bc 3f63 9e3d
00000140: 70ed 0b3b 5907 fdbc 0174 21bd a3d2 763d
00000150: f437 aabc 5798 86bd c35c a4bd 655c e83c
00000160: 2f96 b43c 80f0 373c 87c9 81bd d22e 2b3d
00000170: 5496 9b3c f322 27bc 5fd4 003d 3848 3b3d
00000180: 0327 413d 7444 273c aaba e2bc b14c 72bd
00000190: 74ec 853d 5000 213d 733c bcbc e510 3c3d
000001a0: 5c7e ae3a a9cd bb3b 59e5 e33c d841 753d
000001b0: 2956 13bb 9ef3 303d 2bb5 ce3b 0c42 77bc
000001c0: b035 1d3c 245b 89bd 2bf0 ba3c 7c37 62bd
000001d0: 001b f0bc 4f08 a03b 960f 723d e226 cd3c
000001e0: b0df ebbc f1d7 f4bc 00d8 f0bc 4c5e 97bd
000001f0: 8787 5ebc 57ea 91bd 5beb e1b9 30b8 9f3d
00000200: df9e a3bd fc72 d3bc 9215 af3d db54 babd
00000210: 1c49 113d 879c 0fbc 2e8a 0f3c 209f 82bd
00000220: 429b 363d 5b59 b4bc 55a1 393d a752 04bd
00000230: 73bf 1bbd 085a 8d3d 36be 853d c36c 973b
00000240: a471 903d d551 b03d ca37 a33d 483f 843c
00000250: 31fa a33d 7ff7 983d aec7 523d 0e85 22bd
00000260: 8dbc 55bd c3aa aabd edbf 80bb 63ad bcbd
00000270: 7642 823d 150c 4fbc de4d b53c 1e4c 373c
00000280: bbd0 9bbd 0ebf 973c 32ca 953d b6b4 823d
00000290: a2af aebd cf06 b63c 39f9 703d 469e 93bd
000002a0: 5030 e3bc 494c 04bc e7b6 8ebd c2cc 673d
000002b0: 7ba6 843c ef48 be3d 0efe 84bd c395 00bc
000002c0: 480b bcbd 7b2f 933b 43cc 813c b3ee 983c
000002d0: 4e1b 203d e766 98bd f2cb fe3a 4d53 64bd
000002e0: dd9a 68bc f9fb 933d b550 3dbd f6b3 a33d
000002f0: d740 b5bc 7d0a 203d 5f50 aabc de8f 65bd
00000300: 8b81 593c 95bd 7f3c ba87 d93c 6f79 cd3c
00000310: 991d 41bd ba29 b2bd 8054 01bd 9e58 abbc
00000320: 03f5 d63c 1637 ca3d a9f1 50bc 39f3 723d
00000330: 54b3 b9bb c788 1d3c 31ca 1fbd 6ce3 63bb
00000340: 02d7 ee3c 84ea 82bd 62b8 3b3d df6b 133c
00000350: b487 eb3c 0e21 4bbd 270d 833d 9d9f 693d
00000360: 6cd0 f23c 5e21 f03c d0b1 5d3d 8bfc 23bd
00000370: 7d5d 603d f8b1 953d 2665 61bd 1b83 68bd
00000380: 94cb 9b3c 5a2a 56bd 5e97 d5bc 86b8 9ebd
00000390: af6e f0bb 1050 a6bd 9e9e 453d 845c b73d
000003a0: 8889 123d dc90 453d 056c a13b e4e8 30bd
000003b0: 0261 943d fddd 08bd 3f94 b0bc e5fe 9cbc
000003c0: 3c4b 883d a17e 263d dc5f 013d e08b 33bd
000003d0: b40b 5c3d 73f8 74bd 862e cd3a 212e 4a3c
000003e0: 777d a0bd d830 01bc d225 083d 3f69 8abd
000003f0: 828c e93c ab4f 5d3b ebbe c3bc 43d0 45bd
0.03745384 -0.0522815 -0.0031663217 0.016334297 -0.02082766 0.030805273 0.012949594 0.02930945
-0.024637349 0.0721588 0.06679217 0.062750734 -0.011919456 0.014644767 -0.0711099 0.093971565
0.02771078 -0.009386076 0.020519977 -0.0077436753 0.06994167 0.016807033 -0.06389071 0.051750217
-0.061251685 0.034542292 -0.053941593 -0.06498666 0.09036008 -0.062981725 -0.006190274 0.069325306
0.06854693 0.05788375 -0.0030577094 0.059283786 -0.052381482 -0.044061832 0.08347831 0.04281976
0.0703095 0.019565057 0.0057590907 -0.010440925 -0.023059089 0.00049090845 0.017318316 -0.059588388
0.04417051 0.01729629 0.010557096 0.048467614 0.030880606 -0.06524723 0.011206712 0.011708907
-0.054560643 -0.027525354 0.01531593 0.059512347 0.04530687 0.0430747 -0.013273816 -0.061987247
0.026973654 -0.011491679 -0.057276536 -0.0074965693 0.023464788 0.0354379 -0.008590302 0.06689344
-0.050665263 -0.07202079 0.05449062 0.086307645 -0.016788345 -0.09286811 -0.026464976 0.077337734
0.002135124 -0.030887293 -0.03941727 0.060259473 -0.020778634 -0.06572025 -0.080255054 0.02836437
0.02204427 0.011226773 -0.063372664 0.0417927 0.01899258 -0.010201204 0.031452533 0.04572317
0.047156345 0.010209192 -0.027676899 -0.05915517 0.065392405 0.03930694 -0.022978043 0.04591455
0.0013312805 0.0057313037 0.027819322 0.059877247 -0.0022481775 0.04320108 0.006308218 -0.01509143
0.00959532 -0.06706837 0.0228196 -0.055228695 -0.02930975 0.004883803 0.059096895 0.025042955
-0.028793186 -0.029888125 -0.029399872 -0.073910326 -0.013582117 -0.07124775 -0.00043090698 0.07798803
-0.07989287 -0.025811665 0.08549036 -0.09098216 0.035470113 -0.008765346 0.008760972 -0.06378007
0.04458166 -0.022015264 0.045319874 -0.032305386 -0.038024377 0.06901938 0.065304205 0.0046211197
0.07052925 0.08609358 0.07969625 0.016143456 0.080067046 0.07469081 0.05145996 -0.039677672
-0.05218177 -0.083333515 -0.0039291293 -0.092127584 0.06360333 -0.012637158 0.022131857 0.011187581
-0.076081716 0.01852372 0.07313956 0.06382124 -0.08529593 0.022220043 0.058831427 -0.07207923
-0.027732998 -0.008074828 -0.069684796 0.056591757 0.016192665 0.09291255 -0.064937696 -0.007848206
-0.09181839 0.004491744 0.01584447 0.018668508 0.03908854 -0.07441502 0.0019439443 -0.055743504
-0.0141970785 0.07225794 -0.046219546 0.07993309 -0.022125645 0.039072502 -0.020790277 -0.056045406
0.013275514 0.015609165 0.026553977 0.025082318 -0.047147367 -0.08699365 -0.031574726 -0.02091628
0.026239878 0.09873788 -0.012752929 0.059313986 -0.0056671295 0.00961513 -0.039011184 -0.0034773005
0.029155258 -0.063923866 0.045830138 0.008997886 0.028751232 -0.04959207 0.06398993 0.057036985
0.029640399 0.029312786 0.054124653 -0.040035766 0.054776657 0.073093355 -0.055028103 -0.056765657
0.019017972 -0.052286483 -0.026073154 -0.07750039 -0.0073374133 -0.081207395 0.048246972 0.08953193
0.03577569 0.04823385 0.004926207 -0.04319085 0.07245065 -0.03341483 -0.021555064 -0.019164512
0.06654975 0.040648106 0.03158556 -0.043834567 0.0537221 -0.059807252 0.0015654124 0.0123401
-0.078364305 -0.00788518 0.033239193 -0.06758355 0.028509382 0.003376941 -0.023894748 -0.048294317

weight_function_network.initial_cnn.8.bias f4 [32]
00000000: f2cc eb3c 9ad3 1bbd 569a 8fbc d353 10bc
00000010: 3034 fd3c dc72 81ba 371d 99bc 5e69 a9bc
00000020: 9f68 8a3d 1452 193c 6acb 4ebd db08 9d3b
00000030: 58dd 163d 5f7b 72bd d539 663d 3b93 81bd
00000040: d9a7 00bc 601d 91bd 87df 3c3d 228d 533d
00000050: 24ef 62bd 9d44 583d db3b a23d 49af 073d
00000060: 04d7 39bd 6af2 14bc bb09 a0bb 952a 4fbd
00000070: 89b4 25bd 37e9 0c3c 7bc8 a73d 825b 24bc
0.028784249 -0.038043596 -0.017529648 -0.008809048 0.030908674 -0.000987615 -0.018690689 -0.020680126
0.06758236 0.009357948 -0.05048696 0.0047923154 0.036832184 -0.059199687 0.056207497 -0.0632691
-0.007852518 -0.07085681 0.04611161 0.051648267 -0.055403844 0.05279981 0.07921573 0.03312615
-0.04537107 -0.009090999 -0.0048839725 -0.05057772 -0.040455375 0.008600525 0.081925355 -0.010031583

weight_function_network.initial_cnn.9.weight f4 [32]
00000000: f9e3 7d3f 2fec 803f ec32 7e3f e2dd 813f
00000010: e53b 803f ddec 7e3f 09c0 803f 431a 803f
00000020: ebe8 7e3f 4ce8 803f 8ad2 7a3f b3c5 813f
00000030: e7dd 803f cb53 7e3f 538a 7e3f 6b09 803f
00000040: 9040 7f3f 8a88 803f 51d2 7f3f 3826 7e3f
00000050: 5af2 7d3f 7fd2 803f 0eda 7e3f a669 7e3f
00000060: b6db 7e3f c8b5 803f f54b 803f 0b06 803f
00000070: 524b 803f 0475 813f 46f4 7e3f 61c8 7e3f
0.99175984 1.0072078 0.9929645 1.0145838 1.0018278 0.99580175 1.0058604 1.0008014
0.99574155 1.0070891 0.9797751 1.0138458 1.0067719 0.9934661 0.99429816 1.0002874
0.9970789 1.0041668 0.9993029 0.9927707 0.99197924 1.0064238 0.99551475 0.99379957
0.99554 1.0055475 1.002318 1.0001844 1.0022986 1.0113835 0.9959148 0.99524504

weight_function_network.initial_cnn.9.bias f4 [32]
00000000: d5f7 9d3b abfd b13b 6ec3 6ebc 4747 ad3b
00000010: a8ac c33b 03f5 8fbc 01ce bfbb 352e 1dbb
00000020: 1948 04bb 7ab7 ffbb d365 52bc 7257 03bb
00000030: 27a5 e33b 2e7c d8bb 06c4 54ba 5c72 4dba
00000040: 460f acbc 4e1b 953b f7b0 54bc a857 17bc
00000050: d337 86bc cb5b b5bb 94ec b13b bad6 94bb
00000060: 57df f4bc 6c4b 7dbc 376f f7bb 22a9 78bc
00000070: 667a 5cbc acc6 b3b9 d5bf 55bc 171e 82b7
0.0048208036 0.005431851 -0.014572961 0.005288038 0.00597151 -0.017572885 -0.005853415 -0.002398384
-0.0020184575 -0.0078038545 -0.01284166 -0.0020041135 0.006947178 -0.0066066002 -0.0008116368 -0.000783717
-0.021003377 0.004550374 -0.012981645 -0.0092372075 -0.016384041 -0.005534624 0.0054298136 -0.004542199
-0.029891653 -0.0154598765 -0.0075510996 -0.015177043 -0.013456916 -0.00034289563 -0.013046225 -1.551122e-05

weight_function_network.initial_cnn.9.running_mean f4 [32]
00000000: 5cd8 b63e 50ba 553e 19a1 083f 1e46 acbe
00000010: ed7a 37be ac12 963e 8eaf 203f 0a08 39be
00000020: 3d66 6b3d 61c3 b63e 8840 01bf 2d93 973e
00000030: ecb9 08bf 15cf 8b3e 837e b43d 57f9 39bf
00000040: 62db d8bd f45d 1ebd f895 353e 43b0 5dbc
00000050: 36d6 06bf 17dc 513e 73f2 123e b637 aabd
00000060: ceda d63e 5b48 a43d a44f 083f 1294 9abe
00000070: 56b6 81bd 7fa1 9fbe 8aa3 113f 8876 1cbe
0.35711944 0.20871854 0.53370816 -0.33647245 -0.17917986 0.2931112 0.62767875 -0.18069473
0.05747055 0.35695937 -0.5048909 0.29604474 -0.53408694 0.2730643 0.08813193 -0.7264609
-0.10588719 -0.03866382 0.1773299 -0.013530794 -0.5267061 0.20494114 0.143503 -0.08311407
0.4196381 0.08021613 0.5324652 -0.30191094 -0.06333606 -0.311779 0.56890166 -0.15279591

weight_function_network.initial_cnn.9.running_var f4 [32]
00000000: 6870 1c3e 1ce4 f53d 40d2 7a3e 1d6c 593e
00000010: 6cd4 fb3d 0f2f 693e 979d 423e 9cf5 0a3e
00000020: 7098 323e d99c 573e 9515 9a3e 5254 a53d
00000030: 14dc 1f3e b97b 3a3e a966 ff3d e15a 9b3e
00000040: 79b3 8f3e 6e12 b73d aa06 093e 3c82 843e
00000050: 9ebd bf3e 1d0d 0b3e 2ce4 193e e931 0d3e
00000060: 34d5 373e 9fed b33d 5a92 643e ae59 1b3e
00000070: 1154 383e fcaf 3e3e ee5a 2c3e 3f73 333e
0.15277255 0.12006399 0.24494267 0.21232648 0.12296376 0.22771858 0.19005428 0.13570255
0.17440963 0.21055926 0.3009459 0.080727234 0.15611297 0.18211259 0.12470753 0.30342773
0.28066614 0.08939062 0.13381448 0.2588061 0.37449354 0.13579221 0.15028447 0.1378857
0.17952424 0.08785557 0.22321454 0.15170929 0.18000819 0.1862182 0.16831562 0.17524432

weight_function_network.initial_cnn.11.weight f4 [32, 32, 3, 3]
00000000: a537 493d 7fb9 673c 5d29 4e3d 913f 36bd
00000010: 0aa6 3fbd ddd8 b03b 5319 66bc 66c2 82bc
00000020: 5b97 2f3d 2019 483d 505d 193d 48b8 c7bc
00000030: f474 b5bc 60f3 293d 8512 75bc 80f7 573d
00000040: 3d8e 993c 7f9f dfbc 70d9 583d ffcc c6bc
00000050: 6dec 123d 2df8 2bbd b77b fdbc 648c 72bd
00000060: a0aa 8bbc d33c 72bd 97f5 e53c 0c7e 0b3d
00000070: 765b 353d 4732 fbbc 92e9 f03c 832d 1cbc
00000080: e9e3 d6bc 94dc d1bc cafe cc3b 2865 793d
00000090: ffc6 313d 844d 903d 768b d13b 2cbe a73a
000000a0: c91e ec3c de52 74bc 76b6 433d 5698 e0bb
000000b0: bd29 5abd cd86 3e3d 630c 5dbd adb4 b33c
000000c0: 3210 7abd 09dd 0c3d adde f9bc 4fe6 42bc
000000d0: 1856 5b3c 26a0 483b fa41 23bd 3a4c 113d
000000e0: 6ba6 37bd 9375 1b3d 439d 453d a727 88bd
000000f0: 7f85 e13c 2856 533c 3aa4 f0ba 86c2 a8bc
00000100: 5220 7fbc 77fa 513d 6c74 9539 aca7 6cbd
00000110: 0d08 df3c 2832 e8bb dbaa 6a3c 298e 91bb
00000120: 0bdc 55bd 61bd 80bb b84b 233d 89d2 c4bb
00000130: 445e dc3c 57e5 243a e1b7 1a3d 0180 21bb
00000140: 3844 fe3b b810 73bd a0c5 fa38 aecf 6abd
00000150: 2931 8ebc b6de 18bd 7aff e4bc fd9b 3cba
00000160: 4744 b43c 62da ea3c 87de 3e3c 5e44 7b3d
00000170: 5e8f 053c 0056 36bd 23f8 bb3c bdf9 06bd
00000180: 8f32 81bd 1b9f 6fbd d3c9 bfbc b72f a43c
00000190: 34dd c23c 0c95 1b3d 8d90 ecbc 1e42 413c
000001a0: 27b0 0cbd 31ab 7d3d 25df 7d3c 8455 b2bc
000001b0: 1b0d f5bc b607 2d3d ed9f 84bc 68b6 b93c
000001c0: aa95 11bc 2cc4 dcbc ca52 da3c a9da eb3c
000001d0: 59c2 4d3d b578 003d 270e 8cbc ed93 193d
000001e0: d429 0b3d fc20 d1bc 2d85 1abd e98f 1abd
000001f0: 5979 ccbc 4669 0cbd 8158 fb3c 179a 283d
00000200: 6c63 743d 4e1c 523c fcc5 273c 0cbb 2b3d
00000210: 44cb 97bd 84df 083d 3d13 cc3c 0e9d d9bc
00000220: ad71 1fbd 8b6b 093c d7dd 0a3d 62dd 5abd
00000230: 3da5 3d3c 9230 3c3d eaad 39bd db1b 893b
00000240: edd9 e43c a10c e4bc 3ddf debc 631d 6ebd
00000250: 1ab0 9d3c 8bc2 edbc 7abd d639 6a3c 2fbd
00000260: a06a 14bc bf97 4a3d 36a4 20bd 303c 9abc
00000270: adec 7b3d c9d5 033d 943b 36bd 4c6f ff3c
00000280: ed10 27bd 6182 603d e4b6 aeba a4b7 273c
00000290: 1d63 1d3d 4f8c 953b daf9 573c 604f cebc
000002a0: c459 333d 1f67 563c 3594 8d3c 34e7 c6bc
000002b0: e078 84bc c77d 443d d030 673c 4197 2cbd
000002c0: 3dfe 9c3b d64c fc3c 8a03 763d 8d9e 623d
000002d0: b24c 433d c564 bfbc da5f 7b3d ea05 c63b
000002e0: 8617 ec3c fee5 0abd f887 7abd f02f ff3b
000002f0: 7625 8c3c 8ea6 89bc 5b14 0abb fa0a fb3c
00000300: bb75 cfbb 791a cabc 4f22 04bd 68be 9fbb
00000310: 859f 80bd d8f5 e83c e82c 45bc a947 693b
00000320: 134f 0fbd cab7 1abd 5e57 c03c 2555 733d
00000330: 848e ed3c 00f5 0bbd 741a 51bd 1a7c 863d
00000340: e4d2 11bd 239f 2ebd 463b 1cbd ba10 763c
00000350: dbbb 62bd 79ef f8bc 6fb5 80bd 321a 9abc
00000360: f31b 153d b0c9 1b3c e7e5 843d 9a7f 4fbd
00000370: 5c02 5a3d 10be 7ebc 5636 593d 1256 133d
00000380: 709f f13c 0f1b 1cbd a11c 19bd c7fd fdbc
00000390: ab79 d03b 5c45 21bd 17b4 3dbd bcbd bf3c
000003a0: e50f 29bd a2fd 51bc dae3 4c3d ed6a 9fbb
000003b0: e9e9 ab3c dda9 183d 4de3 c5bb 6a2f 4b3d
000003c0: 5179 f53c 5109 4abd c679 29bd 00e7 25bd
000003d0: ac78 12bd c734 623c 9b90 963c 59ad 623c
000003e0: 4178 f63c 1c09 9bbc ca2c c43c 5bfa 6f3d
000003f0: c8eb 9bbc 5cfb 16bd 96a1 f7bc a0bd 08bc
0.049125332 0.014143347 0.050332416 -0.044494215 -0.046789207 0.005396946 -0.014044124 -0.015961837
0.042868953 0.048852086 0.037442505 -0.024379864 -0.022150494 0.041491866 -0.014958029 0.05272627
0.018744582 -0.027297733 0.05294174 -0.024267672 0.035870004 -0.041984726 -0.03094278 -0.05921592
-0.017049134 -0.059140038 0.028071208 0.034055755 0.044276677 -0.030663623 0.02940825 -0.009532335
-0.026231723 -0.025617875 0.006255959 0.060887486 0.043402668 0.07046035 0.006394799 0.0012797765
0.028823273 -0.014912335 0.04778143 -0.0068540974 -0.05326246 0.046515275 -0.05396689 0.021936739
-0.0610506 0.034390483 -0.030501688 -0.01189573 0.013387226 0.0030613034 -0.039857842 0.035473086
-0.044836443 0.037953924 0.04824568 -0.06648188 0.027529476 0.012898959 -0.001835949 -0.020600569
-0.015571671 0.051264253 0.00028506236 -0.05777709 0.027225519 -0.007086057 0.014322962 -0.0044419956
-0.052211802 -0.0039288257 0.039867133 -0.006006543 0.026900418 0.0006290278 0.037773017 -0.0024642947
0.007759597 -0.059342116 0.000119577395 -0.057326965 -0.017357426 -0.03732177 -0.027953852 -0.0007194875
0.022005213 0.028668586 0.011649734 0.061344497 0.008151857 -0.04451561 0.02294547 -0.032953013
-0.063084714 -0.058501344 -0.023411667 0.020042283 0.023787118 0.03798394 -0.028877521 0.011795549
-0.03434768 0.06193084 0.015495096 -0.021769293 -0.029913476 0.04224368 -0.01618954 0.022669986
-0.00888578 -0.02694901 0.026650805 0.028790789 0.050234172 0.031365115 -0.017096592 0.03749459
0.033975437 -0.025528423 -0.037724663 -0.0377349 -0.024960207 -0.034280084 0.03068185 0.041162577
0.05966513 0.012824131 0.010240074 0.04192643 -0.07411817 0.033416286 0.024911517 -0.026564147
-0.03892677 0.008387457 0.03390297 -0.053433783 0.01157504 0.045944758 -0.045331873 0.004184229
0.027935946 -0.027838053 -0.027206058 -0.058133494 0.01924901 -0.02902343 0.00040958432 -0.042782225
-0.0090586245 0.049461123 -0.039219104 -0.018827528 0.06150501 0.032186303 -0.044490412 0.031181
-0.040787626 0.05481184 -0.0013329652 0.010236654 0.0384246 0.004563845 0.013182128 -0.025184333
0.04378678 0.013086109 0.017282585 -0.024280168 -0.016170919 0.047971513 0.014110759 -0.042136434
0.0047910498 0.030798357 0.06006197 0.055326987 0.047680564 -0.02336348 0.061370708 0.0060431855
0.02881981 -0.033910744 -0.061164826 0.007787697 0.017107707 -0.016803052 -0.0021069262 0.030644882
-0.0063311732 -0.024670826 -0.03225928 -0.004874993 -0.06280426 0.02843754 -0.012034632 0.0035595691
-0.03498752 -0.03777293 0.02347916 0.059407372 0.02899862 -0.034169197 -0.05105062 0.06566639
-0.03560151 -0.042632233 -0.038142465 0.015018636 -0.055354934 -0.030387627 -0.06284606 -0.018811319
0.036403608 0.009508535 0.06489163 -0.0506588 0.053224906 -0.015548244 0.053030334 0.035970755
0.029494971 -0.038111743 -0.03738082 -0.0310048 0.00636216 -0.039372787 -0.046314325 0.023405902
-0.041274924 -0.012816818 0.050021984 -0.0048650415 0.02098556 0.03727137 -0.0060390593 0.049605764
0.029965075 -0.04932529 -0.041375898 -0.040503502 -0.035759613 0.013806528 0.0183795 0.013835275
0.030086638 -0.018925242 0.023947138 0.058588367 -0.019033328 -0.03686081 -0.030228417 -0.008345991

weight_function_network.initial_cnn.11.bias f4 [32]
00000000: d9f9 203d 3db6 afbc 86d6 733d 4e46 9d39
00000010: 7957 b7bc bf6a d1bc 14f6 e13a 4565 09bd
00000020: b8b9 ccbc 95e5 a0bc dcde 973b 5da5 05bc
00000030: 3613 40bd 4b60 643d 0704 723d 9b8b 183d
00000040: f21a b93c 080c 68bd 5242 5abd 5b8b 583d
00000050: fbe7 35bd 4c64 713d 158f eebb 3b31 943c
00000060: 6096 42bd 8fe5 ee3c ba81 66bd 26e9 5e3d
00000070: e4c4 f7bb 3dcc f33c 7507 bebc 56ac 823c
0.039300773 -0.021449203 0.059530757 0.00029997755 -0.022380577 -0.025563596 0.0017239475 -0.033543844
-0.024990901 -0.019640723 0.004634721 -0.008157101 -0.04689332 0.055755895 0.059085872 0.037242513
0.022595856 -0.0566521 -0.053285904 0.052867275 -0.044410687 0.05893354 -0.0072802403 0.018089881
-0.04750669 0.029162196 -0.05627606 0.054421566 -0.007561313 0.029760474 -0.023196915 0.015951317

weight_function_network.initial_cnn.12.weight f4 [32]
00000000: 0703 7f3f 4712 7f3f baea 7f3f e66a 7f3f
00000010: d28c 803f b125 7f3f 9b51 7e3f e594 7c3f
00000020: 717d 803f a055 7e3f 2bbc 803f 9e19 803f
00000030: 82d1 803f cb45 803f a3ad 813f d532 803f
00000040: f490 7f3f 2a57 7c3f 95dd 7f3f d9ad 813f
00000050: 0c39 813f 911a 7d3f e643 7d3f 961d 7f3f
00000060: 7c0f 7f3f 7717 7f3f 7bed 813f affe 803f
00000070: a789 7e3f 3638 7f3f 8914 7f3f 3b4b 813f
0.99613994 0.99637264 0.9996754 0.9977249 1.0042975 0.9966689 0.9934327 0.98664695
1.0038282 0.99349403 1.0057424 1.0007818 1.0063937 1.0021299 1.0131115 1.0015513
0.99830556 0.985705 0.9994748 1.0131179 1.0095534 0.9886866 0.9893173 0.9965452
0.99633 0.9964518 1.0150598 1.0077723 0.9942879 0.99695146 0.9964071 1.0101084

weight_function_network.initial_cnn.12.bias f4 [32]
00000000: 9045 6ebc 28f6 2f3c 3c5f b1bc bec1 b3bc
00000010: e564 79bb 1d04 3bbc 29c4 24bc eea8 96bc
00000020: 0536 8dbc e2be 8dbc 3447 633c 0716 a6bc
00000030: c2c5 1fbc 1ea3 213c a47f 05bb 67c5 90bb
00000040: 1eb2 c2bb 8636 0dbc 1cab 2dbb f1bd ddba
00000050: 7227 0fbc ac83 fabb 6e9b 9ebc fdaa e6bb
00000060: 98a8 35bc da8a 563b 5397 64bc 51ab 69bc
00000070: 4399 b3b9 66f1 863b 32e0 183b 4d5c 9abb
-0.014542952 0.010739841 -0.021651857 -0.02194297 -0.0038054523 -0.011414555 -0.010056534 -0.018391099
-0.017237673 -0.017302934 0.013871957 -0.020274175 -0.009751739 0.00986555 -0.002037027 -0.0044180634
-0.0059416434 -0.008618956 -0.0026499694 -0.0016917569 -0.008737432 -0.007645091 -0.019361224 -0.0070394264
-0.011087559 0.003273657 -0.013952094 -0.014262036 -0.0003425573 0.0041181324 0.002332699 -0.00471071

weight_function_network.initial_cnn.12.running_mean f4 [32]
00000000: d319 093e 414d 86be ba30 733e a0a8 e93e
00000010: ec77 9b3c 08b5 983e 4c43 f6bc 94cb bf3d
00000020: 7c1c 9b3d b42d 0e3f 653a 863e 322d 843e
00000030: f016 683e 04e7 3b3e f0e9 5bbe 2e71 a5bd
00000040: 9acf 2e3e 51b1 ce3b 1b6a 18be 6291 4ebe
00000050: de87 5ebe cab9 81bc 9348 59be 205c 853e
00000060: 4816 92bc 50d1 bdbc 6d9c bf3e 90e7 0cbe
00000070: b440 6c3e b33f 07be e16b fd3d 407c 5d3e
0.13388757 -0.26230815 0.23749056 0.45636463 0.018978082 0.29825616 -0.030061387 0.09365001
0.07573792 0.5553849 0.26216426 0.2581573 0.22665 0.18349844 -0.21475959 -0.08078228
0.17071381 0.006307759 -0.14884226 -0.20172647 -0.21731517 -0.015835661 -0.21219091 0.26046848
-0.01783289 -0.023171097 0.3742403 -0.13760209 0.23071557 -0.13207893 0.12374092 0.21629429

weight_function_network.initial_cnn.12.running_var f4 [32]
00000000: 083d 173e 4a69 f93d 7f66 e73d 6864 1d3e
00000010: b501 ba3d f090 da3d 9395 d83d b7f7 123e
00000020: 0f12 113e 0ac7 0d3e 858c d33d 223f 273e
00000030: cc6a bd3d 0e87 d93d 887a 313e f766 f23d
00000040: a8a8 e73d 6ddc ac3d 9f5e d83d 4bc3 db3d
00000050: 5d6b ad3d 2da1 d53d 1dbb f83d 7467 fc3d
00000060: ee3d 933d 934d 4d3e 475d c73d 0b45 0a3e
00000070: 4ad5 393e cc23 d73d fd12 b03d 9bbc ef3d
0.14769375 0.121782854 0.112988465 0.15370333 0.09082357 0.10672176 0.10575404 0.14352308
0.14167045 0.13845459 0.10329536 0.16332677 0.092488855 0.10621463 0.17331898 0.11836045
0.113114655 0.084404804 0.105649225 0.107306086 0.084677435 0.104311325 0.12145064 0.123244196
0.071895465 0.20049123 0.09734588 0.135029 0.1814777 0.105048746 0.08597372 0.117058955

weight_function_network.adaptive_layer.1.weight f4 [64, 32, 3, 3]
00000000: 9f2b 22bc 19e3 523d aa5e 48bc c905 293c
00000010: 7430 ca3c f7cb 23bd e4b7 f7bc 93b5 113d
00000020: fd01 99bb 9f3c 4fbd c8f9 5e3c f454 193d
00000030: d710 32bd 1a38 cebc 0cd7 9abc df83 e9bc
00000040: 171f fd3a 4e3e 0ebd e4f6 2e3d 5794 fa3c
00000050: 47d2 0abc 87d1 243c af65 e53c 4c02 9c3d
00000060: 3c07 02bd a4a0 573c 3ba3 263d 804d d7bc
00000070: 7781 b6bc 0e74 89bc b1dd e63c 30c8 ac3c
00000080: 0f5d 353d e213 5dbc 0e4c 7b3c f890 3d3d
00000090: 6973 f73b 984d 70bd 4aba 15bd 8e11 193d
000000a0: e38f 9a3c 88ea 2f3d d5be aebc 0311 24bd
000000b0: 2534 df3c 5c84 49bd 8dce d5ba 23a0 e5bc
000000c0: 2d1e cd3c 01ac 07bc 60ec 483d 442c 11bc
000000d0: 3545 853d dcab 033d 6e48 2e3d dfc3 003c
000000e0: b30d aabc ddb0 e93b e6cd d2b9 a95e 633b
000000f0: 60cf 48bd e37b 1fbd 2c29 443c 6861 263c
00000100: c887 b4bc ef3e 583d c725 6abd 52a0 28bd
00000110: 6abd dbbc 0989 da3c c7bf 04bc 0115 39bd
00000120: a10a fe3c b0f6 4ebd d6ce ebbc 15dc 13ba
00000130: 3faa ff3c 3344 a73c f198 4dbd 2770 16bd
00000140: e187 c83c 7e4b 7a3d b60f 8bbb b62f 43bd
00000150: f134 04bd b3aa f43c ed85 233d 8d26 21bd
00000160: c45a 07bd 387f 39bd 765a 47bd c095 4d3d
00000170: 4d3c efbc d1fe a03c b54f 79bd 9871 3b3d
00000180: 97c8 0c3c 8c35 3a3d 3a37 1abd 8188 373a
00000190: 5a88 013c 1bca 1abd b1ae aa3c a50a 22bd
000001a0: 1a9c e1bb 9856 61bd 7258 733d 7744 293d
000001b0: a1a6 c0bc 81f2 033d d745 31bd a176 80bd
000001c0: 51f1 9abd 2e38 8abd e8a2 56bd 886b 3fbd
000001d0: 1af3 173c 4f0b 62bd ba95 e03b 1afe 4b3d
000001e0: 9853 61bd b38a 41ba 3a57 b73c ce51 213d
000001f0: 2daa 0f3d 164a a3bc 5d3e c53c f55e 1abc
00000200: 4c2a 2f3d d5d2 fe3b 1caf b83c 7d58 30bc
00000210: 85fe a4bc 3fea 7dbd 6282 313d 1bdd 383d
00000220: 644f 66bd c91e 5d3d f1b2 153d 1e6c 48bd
00000230: 0d3d d03c 1e18 d6bc cbdf 8f3c 7e73 343d
00000240: 29bb 463d a5e9 e73c 2df4 ba3c 0c3b 29bc
00000250: 87b9 89bb 94eb 4e3d 42bb c4bc 80eb 403d
00000260: 55e1 00bd 8333 c1bb ee81 f83c bb69 0d3d
00000270: deac 29bc 1bf0 133a 7418 18bd 1073 69bd
00000280: df5b ea3b 51e0 523d 9aa8 ebbc 33d0 d2ba
00000290: 077e 873d f265 b3bc 9b16 f63a b101 013d
000002a0: c812 6b3d fee5 753b 8bb5 4c3d a02f 93bd
000002b0: 8e66 7d3c a816 a03c 953a e7bc 03de ea3c
000002c0: cc49 39bd 8216 8abb 3a58 8fbd 3ecd ed3c
000002d0: 5c1a 75bd 5fb8 60bd cd00 3a3d bd0a 52bd
000002e0: 8da7 813b a402 4b3d 36d0 603d e07c 11bc
000002f0: d65d 9cbc b827 1a3d 64eb 403c cab1 513c
00000300: c085 a6bc ee7e 86bd 291e 453d be21 233d
00000310: 67f6 2abd dfcb 163d 9620 013d c630 123d
00000320: e8b7 71bd 018b 3c3c 4159 e33c 51b4 6dbd
00000330: 2e2d 133d d0c3 45bd a991 86bd c95a 593d
00000340: 4e07 303d c2f0 35bd 59c6 023d 6690 acbc
00000350: f47a 5e3d 2df4 213d 0764 0a3b ac0b 89bc
00000360: 52cb b63c cc31 bd3c ee95 8bbc cb4f 37bc
00000370: 0b16 803c 295b 283c 62e0 0f3c 4fdd 0b3d
00000380: 6303 6cbd 64ba a7bc b29e b13c d770 20bd
00000390: 4334 05bc aea3 29bd fd23 3bbd 72b6 4bbd
000003a0: 9fe5 4cbc c7a7 dcbc edec 67bd cbe7 37bd
000003b0: d599 5f3d 1f9c f6bc d4f0 44bd 9755 1b36
000003c0: 1f90 7fbc b153 56bc 4359 853c 2918 653d
000003d0: e448 20bd 761e 333d 3e99 7abc fee9 083d
000003e0: c710 c7bc deca 9bbc 5f25 6b3d ccaa cf3a
000003f0: c22f 3d3d 9229 9bbb 6796 403d ec1d 293b
-0.009898095 0.05148611 -0.012229601 0.010316321 0.024681307 -0.039989438 -0.030239053 0.035573553
-0.0046694265 -0.050594922 0.013609357 0.037434533 -0.04347309 -0.025173236 -0.01890137 -0.028505264
0.0019311634 -0.034727387 0.042715922 0.030588312 -0.008472986 0.010059721 0.028002588 0.076176256
-0.03174518 0.013160858 0.040683012 -0.026282072 -0.02227853 -0.016778972 0.028181883 0.02109155
0.0442782 -0.01349351 0.015337957 0.04628083 0.0075515998 -0.05866775 -0.036554612 0.037370257
0.018867439 0.042948276 -0.02133123 -0.040055286 0.027246544 -0.049198493 -0.0016312167 -0.02803046
0.025038803 -0.008280755 0.04905355 -0.008860651 0.06507341 0.03214632 0.042549543 0.007859199
-0.020758485 0.0071316794 -0.00040207728 0.0034693873 -0.049025893 -0.038936507 0.011972707 0.010155059
-0.022037402 0.052794393 -0.057164934 -0.04116852 -0.026823718 0.026676672 -0.008102364 -0.045186047
0.031010928 -0.05052823 -0.02878515 -0.00056404 0.03120911 0.020418262 -0.050194684 -0.03672805
0.024478855 0.06110715 -0.0042438162 -0.047652923 -0.03227705 0.029866552 0.039922643 -0.039343406
-0.033045545 -0.04528734 -0.048670255 0.05019164 -0.029203558 0.019652756 -0.06086703 0.04576263
0.008592746 0.045461223 -0.037650324 0.00070012367 0.007906044 -0.0377904 0.020835252 -0.039560933
-0.006885064 -0.055014223 0.05941052 0.04132506 -0.023516955 0.03221369 -0.043279495 -0.06272627
-0.07565559 -0.06748997 -0.052401453 -0.04673341 0.0092742685 -0.055186566 0.0068537863 0.049802877
-0.05501136 -0.00073830335 0.02238046 0.039384656 0.0350744 -0.019932788 0.024077589 -0.009422054
0.042764947 0.007776598 0.022544436 -0.010763285 -0.020140896 -0.061990973 0.043337233 0.045132738
-0.056228057 0.053984437 0.036547605 -0.048931234 0.025419736 -0.026134547 0.017562767 0.044055454
0.048518334 0.028309653 0.02282151 -0.010329019 -0.004203025 0.050517634 -0.024015073 0.04709959
-0.031464893 -0.0058960333 0.030335393 0.03452466 -0.010356156 0.00056433835 -0.037132695 -0.056994498
0.007152065 0.051483456 -0.028766919 -0.0016083777 0.06615835 -0.021899197 0.0018775048 0.031495754
0.057390958 0.003752112 0.04997782 -0.07186818 0.0154663455 0.019542053 -0.028226176 0.028670317
-0.045236394 -0.004214109 -0.0699925 0.029028531 -0.05983959 -0.05486333 0.04541092 -0.051279772
0.003956741 0.049563065 0.054886065 -0.00887987 -0.019087713 0.037635535 0.0117748715 0.012798736
-0.020327449 -0.06567179 0.048124466 0.0398271 -0.041738894 0.03681552 0.031525217 0.035691045
-0.059013277 0.0115077505 0.02775252 -0.05803329 0.03593176 -0.048282444 -0.06570751 0.053065095
0.042975716 -0.044419058 0.03192744 -0.021064948 0.054316476 0.039539505 0.002111675 -0.016729198
0.022313748 0.023095034 -0.017039265 -0.011188458 0.01563551 0.0102756405 0.008781524 0.034146603
-0.057620417 -0.02047462 0.021682117 -0.039170112 -0.008130136 -0.041415863 -0.045688618 -0.04973454
-0.012505918 -0.026935471 -0.056622434 -0.04489879 0.054590065 -0.030103741 -0.048081234 2.314662e-06
-0.015598326 -0.013081477 0.016277915 0.055931244 -0.039132014 0.04373022 -0.015295325 0.033426277
-0.024299992 -0.019017633 0.057408687 0.0015843748 0.046188124 -0.00473518 0.047018435 0.0025805188

weight_function_network.adaptive_layer.1.bias f4 [64]
00000000: 1326 e33c 669f 33bd f907 56bd bc85 0e3d
00000010: 212b 933c 0e9f d93c 44a4 07bd b9ba 183c
00000020: c6a4 223c 6721 f7bc 334f 76bc 3c24 373d
00000030: 80f6 1d37 6c75 2bbd d142 22bd d48e 41bd
00000040: 4f28 873b b71d d1bc 6d8d 66bd e7bf 6cbd
00000050: 0ee1 193d 6222 1f3d b8ed 62bd 0166 6f3d
00000060: 01c4 573c 728a 343d c159 963c cd7a 5fbd
00000070: 6833 15bd 9aca fbbb 91e7 51bd 0dae 95bc
00000080: f82d 883c 2a03 ecbc 3901 343b ff31 403d
00000090: 4a3c 3d3c b939 633d 6f13 1bbd ad4a f2bc
000000a0: d7e6 90bc 23be ccbc cb72 bb3c 9a3f 21bd
000000b0: 867c 51bc f852 463d aef7 28bc fadf 70bd
000000c0: 34d0 d53c c242 1b3c 5a30 133d 011a 29bd
000000d0: e49b 25bc 3d49 29bc 6f9f 62bd a278 5dbd
000000e0: adc0 9abb 91b4 3b3d c93b 54bd f27d 2d3d
000000f0: 4bb4 483d e831 9abc 410a d6bb 0f15 42bc
0.027728116 -0.043853186 -0.052253697 0.034795508 0.017964901 0.026565101 -0.03311564 0.009321862
0.00992698 -0.030167295 -0.015033531 0.04471229 9.415322e-06 -0.04186003 -0.039614502 -0.047255352
0.004124678 -0.025526864 -0.056287218 -0.0578002 0.037568145 0.03885115 -0.055402488 0.058446888
0.01316929 0.044077344 0.018353345 -0.05456047 -0.036425978 -0.007684064 -0.05124623 -0.01827147
0.016623482 -0.028810102 0.002746655 0.04692268 0.011550019 0.05547497 -0.03786033 -0.029576624
-0.017688198 -0.024993008 0.022881886 -0.039367296 -0.012786036 0.04841897 -0.010312958 -0.05880735
0.026100256 0.0094763655 0.035934784 -0.041284565 -0.010107968 -0.010332403 -0.05532783 -0.054070123
-0.004722676 0.0458265 -0.051814828 0.04235644 0.049000066 -0.018822625 -0.006531984 -0.011845841

weight_function_network.adaptive_layer.2.weight f4 [64]
00000000: b9bf 7f3f d8da 7e3f ad12 803f 0fb8 7c3f
00000010: 10cf 7e3f 3b79 803f 665e 7e3f 83f0 7c3f
00000020: 8346 803f e31c 803f 3138 803f 306c 803f
00000030: 79f5 7e3f 0e11 803f 3a55 7f3f 6bdf 803f
00000040: 8ae4 803f 0eda 7f3f 567f 7f3f 9871 7f3f
00000050: 2332 7d3f aae2 803f 9cfb 7f3f e165 813f
00000060: db53 803f 3900 7d3f db37 7e3f f144 7e3f
00000070: c2fa 803f 1471 7b3f 741f 7e3f 4197 7d3f
00000080: 3d80 813f 9b9a 7e3f 1b44 7d3f 3e10 803f
00000090: 9981 803f ad6f 7d3f e5a5 7d3f 57ff 7f3f
000000a0: 9760 803f 7304 813f b033 7f3f e6d5 803f
000000b0: 4874 7f3f 5476 7f3f 9271 813f 57e6 7c3f
000000c0: 1c76 7e3f 1ace 803f bcb6 7f3f 7a1a 803f
000000d0: 9f36 803f 976e 803f ad64 7d3f 2243 803f
000000e0: 6db7 7f3f 54c7 7d3f d8a3 813f 85ea 803f
000000f0: 9fa9 803f f249 7d3f d67f 7e3f b674 7b3f
0.9990192 0.9955268 1.0005699 0.9871835 0.995347 1.0036997 0.9936279 0.9880449
1.0021518 1.0008816 1.0017148 1.0033016 0.9959331 1.0005205 0.9973942 1.0068182
1.0069745 0.999421 0.99803674 0.99782705 0.9890463 1.0069172 0.999933 1.0109216
1.0025591 0.98828465 0.9930398 0.99323946 1.0076525 0.9821942 0.99266744 0.9905892
1.011726 0.9945466 0.98932046 1.0004957 1.003955 0.9899853 0.9908126 0.9999899
1.0029477 1.0079483 0.99688244 1.0065277 0.99786806 0.9978993 1.0112784 0.9878897
0.9939897 1.0062897 0.99888206 1.000808 1.0016669 1.0033749 0.98981744 1.0020487
0.9988926 0.99132276 1.0128126 1.007157 1.0051764 0.98940957 0.9941381 0.9822496

weight_function_network.adaptive_layer.2.bias f4 [64]
00000000: b92a 38bc 65bd 7ebc 4fb3 d5bb f9bf 9ebc
00000010: 8fa0 603c 8c0f 9dbb 9d23 4abc 1ef4 0ebc
00000020: 90af d2bb 2e3b 12bc 6d4f c03a a495 04bb
00000030: f046 63bc ca05 bcba e438 d6bc 0056 c5bb
00000040: bfb4 4b38 ae69 aabc 498a 8dbc 9ac5 1dbc
00000050: 377e bdbc a445 2ebc cfd0 a43b 20ca 383c
00000060: 8f76 8dbc 139f 8abc 2c31 09bc 9a29 d1ba
00000070: 4283 c9ba efa1 84bc 76e9 29bc 9d42 24bc
00000080: 1008 0fbb c640 7fbc 51de 95bc fa11 9dbc
00000090: 6dfc 35bb 0e9f 17bc 4f6e 87bb cf3a 2d3a
000000a0: cb1c a9bc f260 84bb c56a b4bb 6c7f 81bc
000000b0: 754f 57bc 3c43 95bc 4bd9 1cbc 19bb babc
000000c0: 2d7c f3ba d06a 77bc 26db 15bc b643 a8ba
000000d0: cf3b 07bc 8d7b 8abc a290 d7ba 5d41 1ebb
000000e0: 01d0 c63b 6154 98bc d8bf a8bb c2e5 09bb
000000f0: 1ac1 0d3b 6c6c 41bc c3b8 d5bc eda3 a8bc
-0.011240655 -0.015548085 -0.0065216194 -0.01937865 0.013710155 -0.004793113 -0.012337592 -0.008725194
-0.00642962 -0.008925242 0.0014672108 -0.0020230794 -0.013871893 -0.0014344987 -0.026150174 -0.006022215
4.8567304e-05 -0.020802345 -0.017277854 -0.009629631 -0.023131473 -0.010636721 0.0050297747 0.011278659
-0.017268447 -0.016921556 -0.00837354 -0.0015957833 -0.0015374201 -0.016190497 -0.010370603 -0.0100256475
-0.0021824874 -0.015579408 -0.018294485 -0.019173611 -0.0027768866 -0.00925423 -0.004133023 0.00066081894
-0.020643612 -0.004039877 -0.005505892 -0.01580783 -0.013141503 -0.018220536 -0.009573291 -0.022794293
-0.0018576436 -0.01510115 -0.009146487 -0.0012837562 -0.008254006 -0.016904617 -0.0016446302 -0.0024147846
0.0060672765 -0.018594922 -0.0051498227 -0.0021041487 0.002162999 -0.011805635 -0.026089078 -0.020585978

weight_function_network.adaptive_layer.2.running_mean f4 [64]
00000000: 907e 60bd 2e55 bebe 722a 8abe da68 3e3e
00000010: 2578 80be b0dd 2abe d430 6ebe f230 df3e
00000020: ce3d 773d 386f 2c3e f7ff 9c3e 10f2 dcbb
00000030: b7ac dcbb b823 f3be f773 bf3e c41f f7be
00000040: e194 443d 4bdd 24be c72d bf3e 052d a23e
00000050: 283d d83d 0c15 f43e 98e8 03bf ce54 9ebe
00000060: 5961 073e 4606 87be d0fa 10bd 0b8b 0a3e
00000070: 1209 d9be 05a5 043c 3cdd 9abd c91c 98be
00000080: d633 fb3d 656f 9b3e 7917 b53e 1627 1bbe
00000090: 6911 c33e 6237 523d e617 51bc db81 80be
000000a0: 163e 1a3f 90ad 9bbd 0c0e 913e 7e10 7b3d
000000b0: a2c0 09bf 5f53 b13e d465 d23d af85 d7be
000000c0: 45da 2dbf a3d2 043f b27f f83e 6dd5 dfbe
000000d0: 33bb 9fbe ad46 2a3e 4451 cfbe 1de3 e1be
000000e0: 223e 38bf c88e c33e 7693 b83e ac58 b53c
000000f0: b79f 523e 92cc 9abe 3614 0c3e 1407 81be
-0.0548082 -0.37174362 -0.26985508 0.18594685 -0.25091663 -0.1668613 -0.23260814 0.4359203
0.060361676 0.16839302 0.30664036 -0.0067427233 -0.0067344564 -0.4748819 0.37393162 -0.48266423
0.047993544 -0.16100042 0.37339613 0.31674972 0.1055854 0.47672307 -0.51526785 -0.30924076
0.13220729 -0.26371974 -0.035395443 0.13529603 -0.42389733 0.008095984 -0.07561728 -0.2970946
0.12265746 0.30358425 0.3536947 -0.15151629 0.3809922 0.05132235 -0.0127620455 -0.25099072
0.60250986 -0.07601464 0.2833103 0.061295025 -0.5380956 0.3463392 0.102733284 -0.4209418
-0.6791118 0.51883906 0.48534924 -0.43717518 -0.3119751 0.16628523 -0.40491688 -0.44118586
-0.7196981 0.3819487 0.36050004 0.022137009 0.20568739 -0.302342 0.13679585 -0.25200713

weight_function_network.adaptive_layer.2.running_var f4 [64]
00000000: 0f5e 1d3e 94b8 313e 152b 753e 2e52 033e
00000010: b343 933e ee34 7b3e 6ecf f53d 8763 393e
00000020: d758 2b3e fc59 6c3e 50f9 493e 8cab 393e
00000030: 5352 973e 48b4 8e3e 240f 583e 28ad 4c3e
00000040: 2e9c 4d3e 5fed ec3d 0efb 703e a50b 903e
00000050: 6ee4 1b3e 4d0f 713e 9ffd 383e 66b6 353e
00000060: 45f3 8e3e d61c 353e 7e77 3f3e a7c4 073e
00000070: 3d98 a83e 09bd 0f3e a55b 883e d0b9 003e
00000080: f80a 5f3e 22d5 6b3e 8135 853e 40ff 633e
00000090: aca8 363e 889d 073e 4d1d 263e 85f2 2d3e
000000a0: cd97 433e 51f8 553e 4b5c 433e 1802 813e
000000b0: 9b86 463e cfa6 433e 01ae 2b3e e67b 303e
000000c0: 83b2 bd3e a6da 0f3e 447b 313e 36d6 a53e
000000d0: 0daa 733e 5643 373e f98c 443e 8874 933e
000000e0: 9a9d f63e e4e3 543e 5de1 9a3e 6356 203e
000000f0: 4168 0c3e 52c9 293e daaa a13d bf9a 1b3e
0.15367912 0.17355567 0.23942216 0.12824318 0.28762588 0.2453191 0.12002455 0.18104373
0.16733108 0.23081201 0.19724011 0.18131846 0.29554996 0.2787192 0.21099526 0.19987929
0.20079109 0.115687124 0.2353327 0.28133884 0.15223858 0.23540993 0.18065499 0.1774536
0.27919975 0.17686781 0.18697926 0.1325861 0.3292865 0.14036955 0.2663242 0.12570882
0.21781528 0.23030522 0.26017383 0.22265339 0.1783778 0.13243687 0.16222115 0.16987045
0.19100876 0.20895506 0.19078176 0.2519691 0.19387285 0.19106601 0.16765596 0.17234764
0.37050256 0.14048252 0.17332178 0.32389992 0.23795338 0.1789678 0.19194402 0.28799844
0.48167115 0.20790058 0.30250064 0.15657954 0.13711645 0.16580704 0.078939155 0.1519575
