tho_generator_model_pth/20250513_113700model40.pth (torch, 65479 bytes, 9 tensors)

model.0.weight f4 [32, 32]
00000000: 7101 1abe c016 363e 3204 043f 09d2 febe
00000010: 13ae 183e b576 bd3e 7f83 a5bc 23e8 2bbe
00000020: 200e 27bd 39b9 053f 43a3 c13d ee1c 993e
00000030: dc51 b23d 3b03 25be 7b1c f9bc c149 1dbf
00000040: f050 d13e b45d 1bbe 6449 103d 0672 aabe
00000050: 5b6f 313d 0bd5 7bbe aa01 923e 3b18 823e
00000060: aa51 5abe 8090 00bf 2c15 2c3d d322 dbbe
00000070: 3fdf 13bf b381 8d3d aa00 d4be 9c56 d13c
00000080: 5906 c53e 9b63 c4be 38b5 e0be c8a7 5d3e
00000090: fd7e 50be dc6b bbbe 4698 e63d 1667 273e
000000a0: 4b9a 1e3d cc4b febe a8a7 2f3d d12b 13bf
000000b0: 3d86 5cbe 4db6 c3bb 8e5d 3ebe d194 923e
000000c0: 8803 b7be 041e 0c3e 9a63 eabd 4b1a 803e
000000d0: 682d d5bd 7b4c c53d aa08 c0bd 3f20 8dbe
000000e0: 465b 9f3c 4d12 fa3d eec9 7abd abb8 073f
000000f0: ed30 af3e 33ea 7ebe fc79 613e 6673 983b
00000100: 99ff c03e 7af9 a0be 9ee4 08bf d73e 013f
00000110: b4b6 60be 8f5a cbbe 8d3d 0a3e 1cae c9bc
00000120: 2af0 a33d 3202 0ebf ad6f 4abe be28 a3be
00000130: 5671 0cbe dc8d e33d b419 59be e5db c63e
00000140: 4ee7 f5be d6ff 7abd ac88 fe3a de43 2a3e
00000150: 54c1 fcba 5a4b c73d 9d1a 63be ccae ffbe
00000160: 057d cbbc 1b61 cb3e 48ba f03d a196 003f
00000170: 8f88 073f 64a2 debc 6490 c33e cacd 6bbe
00000180: 48e9 8ebe a8ea 053e d492 d03e cd47 f5be
00000190: dedf 373e fbbf 9f3e 1e31 17bd 2aac 19bd
000001a0: 0614 3fbe 10ee cf3e 4302 bfbd babb 643e
000001b0: 232c 983e 303f 2abe 2035 1d3e 77bf bcbe
000001c0: 6d72 cc3e db51 3cbe 0791 7e3d 237b c9be
000001d0: edb9 333e 08f6 56be 1e05 bb3e 3867 193e
000001e0: c2c1 90be e1b5 bfbe 877c 3cbe 7dd4 06bf
000001f0: 73b8 eabe 5191 41bc 0419 16bf 8657 2b3e
00000200: 8ff6 aebe 87e0 c23e e592 db3e 2fd9 fabe
00000210: 6bb1 593d 0158 c63e d73a 43be f8c9 05be
00000220: f536 6cbe 9ee1 e93d 2191 793c 740e 163e
00000230: fec8 aa3d 5d9d c7bd 6258 063e e957 0abf
00000240: 6601 f93e b4b8 48be 66ca dfbc dcf9 a4be
00000250: da25 183e 8a45 92bd b490 363e c3df fe3e
00000260: 909a 08bd 8125 eabe c9ad 663d 46b4 bebe
00000270: bcc2 07bf ab3f 433e 3eb1 a8be 9483 10bd
00000280: 2b76 ac3e d9b5 a7be 3370 1abf 3b1f c93e
00000290: c9b3 0abe 56ef f2be b49d 79bd 8305 4b3d
000002a0: 7cce 1b3e 23cd cdbe 64d9 1ebe 61bb e0be
000002b0: 11f1 f8bd 8eec 11bc 6669 39bd d49d 503e
000002c0: 1ee8 a4be c38a 3b3d 74fa b9bd a82d 763e
000002d0: 379b 27be 32d1 993e c24f 46be 83cd ccbe
000002e0: 0b5c debc 7818 c43e f0c8 58be 4691 cb3e
000002f0: ae30 3e3e 0ba6 58bd 19b2 b33e 5d23 d2bd
00000300: 7109 b8be 1cc3 a93e f7e7 e33e acf2 c7be
00000310: c2ad ec3d 70c9 0d3f 372c 92be 355a dfbd
00000320: f61e c0be 5b7c d23e b204 a23c 4ac5 5a3e
00000330: 589e 3b3e 8ea1 45be 1764 4d3c 38ce c1be
00000340: 2c09 d63e 0332 0cbe 41af 883d dea2 76be
00000350: 5931 d23c 8d4d a2be 5904 993e af57 7d3e
00000360: 8743 26be 036f 01bf 1cc9 273d 0a6a abbe
00000370: f54a 09bf 1c5c 1c3d de9f bdbe 96a2 ee3d
00000380: 6c43 bcbe 9e4b 3f3e e4e9 a33e dbb0 9bbe
00000390: a0e2 ccbd 47ed b33d bb8f d7bd 121a 94be
000003a0: 734f 74be 7205 a33e 3daf 02bd 8dcb 9f3e
000003b0: 5fed 4a3e ce22 b0bd fbe8 a53c 880d e7be
000003c0: f21f 7c3e 6480 70be e891 3cbe 152b a5be
000003d0: ed75 50be db3b 2bbc a00e a33d 601f cd3d
000003e0: 7e1e f4bd a7d8 8abe 84b6 59be 26c7 90be
000003f0: 71c7 8fbe de9d 01be 15c6 d9be 4ab1 9f3d
-0.15039612 0.17782116 0.515689 -0.4976962 0.14910154 0.3700463 -0.020204304 -0.16787772
-0.040784955 0.5223575 0.09454968 0.29904884 0.0870702 -0.16114514 -0.030409088 -0.61440665
0.40882063 -0.15172464 0.03522624 -0.33290118 0.043319087 -0.24592988 0.28516895 0.2540911
-0.21320215 -0.5022049 0.04201238 -0.42800006 -0.5776252 0.06909504 -0.41406757 0.025553994
0.38481405 -0.38357243 -0.4388826 0.21646035 -0.20360942 -0.36605728 0.112595126 0.16347918
0.038721364 -0.49667203 0.0428845 -0.57488734 -0.21535583 -0.0059726597 -0.18590376 0.28629163
-0.35744882 0.13683325 -0.11444779 0.2502006 -0.10409051 0.09633728 -0.093766525 -0.27563664
0.019452702 0.12210522 -0.06122773 0.53016156 0.34217015 -0.24894027 0.2201919 0.0046524284
0.37695006 -0.31440336 -0.5347384 0.5048651 -0.21944696 -0.39717528 0.13500042 -0.024619155
0.08004792 -0.554721 -0.19769163 -0.3186702 -0.13715109 0.11111042 -0.21201211 0.3883964
-0.48028034 -0.06127914 0.0019419394 0.16627452 -0.001928369 0.09731169 -0.22178121 -0.49938047
-0.024839887 0.39722523 0.1175428 0.5022984 0.52942747 -0.027177043 0.381961 -0.23027721
-0.27912354 0.13077796 0.4073702 -0.47906342 0.17956492 0.31201157 -0.036912076 -0.037517704
-0.18659982 0.40611315 -0.09326603 0.22337237 0.29721174 -0.16625667 0.15352297 -0.36864826
0.3993105 -0.183906 0.062150028 -0.39351758 0.17551394 -0.20992291 0.36527342 0.14980781
-0.28272825 -0.3744345 -0.18406878 -0.5266798 -0.4584385 -0.011814431 -0.5863192 0.16732606
-0.34172484 0.38061926 0.4288551 -0.48993823 0.053147715 0.38739017 -0.19065414 -0.13065326
-0.2306784 0.11419986 0.015232355 0.14653951 0.083391175 -0.097468115 0.13119653 -0.5404039
0.4863388 -0.19601709 -0.02731819 -0.32221878 0.14858189 -0.0714217 0.17828637 0.49780092
-0.033350527 -0.45731738 0.05631808 -0.37246913 -0.53031516 0.19067256 -0.32947725 -0.035281733
0.33683905 -0.32755926 -0.6032745 0.3928164 -0.13545145 -0.47448224 -0.060941413 0.049565803
0.15215486 -0.4019557 -0.15512615 -0.4389296 -0.12155355 -0.008906497 -0.04526653 0.20372707
-0.3220834 0.04578663 -0.09080973 0.24040854 -0.16367804 0.30042416 -0.19366363 -0.40000543
-0.027143499 0.38299918 -0.21170402 0.39759272 0.18573257 -0.052892726 0.35096815 -0.10260651
-0.35944703 0.3315667 0.44512913 -0.3905233 0.11556579 0.55385494 -0.28549358 -0.109058775
-0.3752362 0.411105 0.01977763 0.21364322 0.18322122 -0.1929991 0.01253607 -0.37852645
0.41803873 -0.13690953 0.06674052 -0.24085566 0.025658296 -0.31699792 0.2988613 0.2474048
-0.16236697 -0.50560015 0.040963277 -0.3347934 -0.5363 0.03817378 -0.3703603 0.116521046
-0.3677019 0.1868119 0.32014382 -0.30408368 -0.10004163 0.087854914 -0.10525461 -0.2892614
-0.23858432 0.31840092 -0.0319054 0.31209984 0.19817112 -0.086003885 0.020252695 -0.4512751
0.24621561 -0.23486477 -0.18415034 -0.3225943 -0.20357485 -0.010451282 0.07961774 0.1001575
-0.119198784 -0.27118418 -0.2126103 -0.28276938 -0.2808185 -0.12657878 -0.42533937 0.07797487

model.0.bias f4 [32]
00000000: 3c33 90bd 27bf 36be b6f1 503d 9107 bdbc
00000010: dfc7 6fbd 17c7 9c3c a9f8 f2bd d6ed 313b
00000020: eb69 743d e4c2 003e 1d9b ed3d 2791 e33d
00000030: b43e babd 260c c0bd 75e3 d93d 9ed8 22be
00000040: 8a41 353c 0b09 59be 41a3 2f3c 798f 1cba
00000050: 588c 68be ed0d cabc 33d3 4dbe 6819 54be
00000060: 6ff4 c7bc 080d 1f3e 997c 693c 0628 1a3d
00000070: 69e3 5bbe 04e4 5d3d 779c 13be ef37 00be
-0.07041022 -0.17846356 0.051011764 -0.023074897 -0.05854022 0.019137902 -0.118638344 0.0027149818
0.059671324 0.12574345 0.11601851 0.1111167 -0.09093991 -0.09377317 0.10639087 -0.15902945
0.011062989 -0.21194856 0.010720075 -0.0005972307 -0.22709787 -0.024664843 -0.20100097 -0.20712817
-0.024408547 0.15532315 0.014250898 0.037635826 -0.21473469 0.05417253 -0.14415155 -0.12521337

model.2.weight f4 [64, 32]
00000000: 3c7a 103e 2c72 9a3c 642f 5dbe 0f53 b93e
00000010: 13a9 793e 5d12 78bc 17c7 163e 1510 97bd
00000020: 8304 a13e f10a d43e d2bf cf3e faba 8cbe
00000030: c559 ffbc f846 8cbe 17aa d53e ef72 04be
00000040: b7ed 42be cd1e 57be 0e26 44be 8209 c7bd
00000050: 23c0 f2bd 799e 2f3e 4671 62be c904 24be
00000060: 02a0 813e e8a2 853e 68a9 7abe 06fe 733e
00000070: 783f 22be 5933 d7be 5541 c5be 465f 963e
00000080: 3dd0 a3be 89d1 963d 6cee c23e 73d4 eebd
00000090: 981b 29be fd71 9b3e 4982 b7be 5972 89be
000000a0: f737 7cbe 247e 49be eae6 cebe 941c e93e
000000b0: f345 ac3e 71a4 dd3e 8212 c2be de4e 9a3e
000000c0: 73d3 b83e 1382 a03e 022d a33e 391e 533c
000000d0: 3140 4d3e f8c3 39be f43c af3c 8f93 b53e
000000e0: d446 55be 42d4 09be b291 6c3e d595 8ebd
000000f0: 003e b83e 4f59 db3e f192 803e 2415 aabe
00000100: 11f3 cc3e 0256 77be 6cd6 5cbe 4a0e 6d3e
00000110: 20a5 ba3e f195 51be aaaf a73e b6c4 103e
00000120: 5af8 9f3e 5455 833e 9842 b93e b413 9cbe
00000130: deab 8c3c 4ab3 24be 9ce1 e03d 1bdf 10be
00000140: 7432 25be 5d78 c5be ee8c 71be f149 31be
00000150: 0011 8cbd 96c5 3c3e 61e3 99be 269d c4be
00000160: d62d 1e3e 5de3 a53e 9f3f cfbd 6845 9a3e
00000170: c2ea 68be 17a2 21be 0695 41be fc36 be3e
00000180: 3d39 c33e 2f6a 81bb dca5 cdbd 408f 833e
00000190: 93d4 c93e fbab 6cbe fccc 9a3e bf99 e33d
000001a0: f483 143e 8c4d 583e f69d 1b3e 871b 64bd
000001b0: 3af8 e0bd 58b6 b1be eff3 d93e 86af 34be
000001c0: 01c1 38be 64cc 95be 76e0 f53a 80ca d2bd
000001d0: 3d8f 88be f2a0 6a3e b334 02bd 7454 9ebe
000001e0: 1ebb 603e 0a2a 923e 1581 cfbd 5734 e13e
000001f0: 3c91 2dbe 822e e5bd c29f 9abe f661 593e
00000200: 3f16 b03e 6334 63be 42dc b1be e067 6a3e
00000210: 7dc4 cb3e 7f78 39bd c200 5e3e 4f02 213e
00000220: 0091 003e e919 a13e 7d9f 123e 1498 a1be
00000230: ca7e 63be a54d edbe 0edd 663e b03b 23be
00000240: d7f2 8cbe db83 29be b07d e73c ad2b c3bc
00000250: f6cd a3be 3638 d33e 1000 52bd b465 3dbd
00000260: c648 d43e 0890 843e f188 783d 9b38 c43e
00000270: 8878 55be 7788 bdbe 994f c4be 6023 b13e
00000280: 3412 bd3d 6dd9 1bbe ae5f bbbe 60a4 f33d
00000290: 2dc2 3c3e 9a46 65be 3c66 2d3d 87b6 5fbd
000002a0: 5b7e d73d e2fc 8e3e 1f92 ec3d d698 b3be
000002b0: 52e6 3dbe 323e 43be 5a95 533e c1e9 6abe
000002c0: b6a2 6fbe b0ce 0ebd 1421 a9bd d439 413d
000002d0: 2126 6ebd f8ab 8a3e 4e7d 8ebe a09d c3be
000002e0: 6e94 803d 0d20 833d bcd8 81bd 3867 d23d
000002f0: 3e01 6ebe 0647 2dbe 99e4 1cbd 0efd 3d3e
00000300: a3b4 933e fba2 08bd eef4 10be cb7b 903e
00000310: ae60 a13e 469a cfbd c0d9 843e eed2 ed3d
00000320: b3e6 903e a047 a83e a0e8 b53e 210c c4be
00000330: 2c74 95be c87d f2be 5ddc a73e 3fa6 d0bd
00000340: b8cb 41be f08d 42be 7f84 82be 9a11 08be
00000350: 30ce bcbe efb4 3f3e 8e3f eabd a6b2 8bbe
00000360: 81b2 f53d d5a0 983e f2d7 04bd d5b0 ac3e
00000370: a406 1ebe c06b 00be 2080 b2be b2c7 193e
00000380: 5d00 4cbe c9ef 483d d9d8 d53e 9e11 56be
00000390: 3107 fdbd 5df9 793e d2b7 06be a956 8cbe
000003a0: 4597 47be 8d60 71be e799 97be 04a0 373e
000003b0: 55ce 053e a5a3 be3e b578 96be 90d4 043e
000003c0: ecd9 b33e bbc5 2d3e 292f 173e 6578 b5ba
000003d0: 95de b13e 17e0 a0be b936 953e f01b af3e
000003e0: 942b a9be 07b2 80be e228 663e c22f a9be
000003f0: b021 933e 58c6 353e 559d ac3e b1f4 88bd
0.14109129 0.01885327 -0.2160011 0.3619618 0.24380903 -0.015141097 0.14724384 -0.07376114
0.31448755 0.41414598 0.40576035 -0.27486402 -0.031170735 -0.27397895 0.4173133 -0.12934469
-0.19035994 -0.21007843 -0.19155142 -0.0971861 -0.118530534 0.17150296 -0.22113523 -0.1601745
0.2531739 0.2610085 -0.24478686 0.23827371 -0.15844524 -0.42031363 -0.38526407 0.29369563
-0.3199481 0.073641844 0.38072526 -0.11661615 -0.16514432 0.30360404 -0.35841587 -0.26845053
-0.24630724 -0.19677025 -0.40410548 0.45529616 0.33647117 0.4328952 -0.37904745 0.30138296
0.36098823 0.3134924 0.31870276 0.012885624 0.20044018 -0.18141162 0.02139137 0.3546414
-0.208278 -0.13459876 0.23102453 -0.06962172 0.35984802 0.42841575 0.25112107 -0.33219254
0.40029195 -0.24153903 -0.2156617 0.23149982 0.36454105 -0.20467354 0.3275121 0.1413754
0.31244165 0.25651038 0.3618362 -0.30483782 0.017171796 -0.16084018 0.109805316 -0.14147608
-0.16132528 -0.38568392 -0.23588917 -0.17313363 -0.0683918 0.18434748 -0.3005629 -0.38401145
0.15447173 0.32400027 -0.10119557 0.30131078 -0.22745803 -0.15784489 -0.18904504 0.37151325
0.38129607 -0.0039494256 -0.10041401 0.2569523 0.39419994 -0.2311248 0.30234516 0.11113309
0.14503461 0.21123332 0.15196976 -0.055690315 -0.109848455 -0.3470943 0.4256892 -0.17645082
-0.18042375 -0.292575 0.0018758911 -0.1029253 -0.26671782 0.22912958 -0.03178854 -0.30923808
0.2194638 0.28547698 -0.10132042 0.43985245 -0.16949934 -0.11190511 -0.3020001 0.21228775
0.34391972 -0.22187953 -0.34738356 0.22891188 0.39798346 -0.04528093 0.21679977 0.15723537
0.12555313 0.3146508 0.14318652 -0.3156134 -0.22216335 -0.463483 0.22545263 -0.15940738
-0.27529022 -0.16554205 0.028258175 -0.023824537 -0.31993073 0.41253823 -0.05126959 -0.04623957
0.41461772 0.25891137 0.060677473 0.38324437 -0.2084676 -0.37018177 -0.38341978 0.345973
0.092319876 -0.1521966 -0.36596435 0.118965864 0.18433447 -0.22390214 0.042333826 -0.05461743
0.10522147 0.2792731 0.11551308 -0.35077542 -0.18544891 -0.19066694 0.20662442 -0.22940733
-0.23401913 -0.03486508 -0.08258262 0.04717429 -0.05814183 0.27084327 -0.27829975 -0.38206196
0.06278311 0.064025976 -0.06340167 0.10273594 -0.23242661 -0.16921625 -0.038303945 0.18553564
0.28848752 -0.033358555 -0.14155933 0.28219447 0.31519073 -0.10136847 0.2594738 0.11612497
0.2830101 0.32867146 0.3552904 -0.38290504 -0.29190195 -0.47361588 0.3278531 -0.10187959
-0.18925369 -0.18999457 -0.25491711 -0.13287964 -0.3687606 0.18721364 -0.11437903 -0.27284735
0.119969375 0.29810205 -0.032432504 0.33728662 -0.1543222 -0.12541103 -0.34863377 0.15017584
-0.19922014 0.049056802 0.41767004 -0.20905158 -0.12354887 0.24411531 -0.1315606 -0.27409866
-0.19491298 -0.23571987 -0.29609606 0.17932135 0.1306699 0.37234226 -0.29388967 0.12971711
0.351272 0.1696996 0.14764084 -0.0013845084 0.3474013 -0.31420967 0.29143313 0.34201002
-0.3304106 -0.25135824 0.22476533 -0.3304425 0.2873664 0.17751443 0.33713785 -0.06687296

model.2.bias f4 [64]
00000000: facb 203e 2e4a 09be 72c0 fa3d 63ce 073e
00000010: 9f74 933d 40e1 4dbe 0fb6 4abd 9f9f 58bd
00000020: 29a7 19bd 2fb9 bcbc 792d 9a3c 3da4 49bd
00000030: 7321 96bc c2e4 83bd 11dd 19be e3f4 84bd
00000040: 1bf4 e0bd 554f bd3d 7724 ee3d 4517 953c
00000050: 1b79 f13d 0e87 123e dc01 de3d d753 dc3c
00000060: 024b e2bd 6c6b c03d e8a0 d5bb 834e ea3d
00000070: 88af e23d 3fb6 223e 3b08 cbbb 8d3b 1dbe
00000080: c813 96bd 1028 a53b 1835 cf3d 4454 22be
00000090: 80c4 9a3d 8a2a f83d 1526 1fbd 7369 fcbc
000000a0: 333b 36bc c3ef 673d 866f 3f3b 1b0e b2bc
000000b0: 9499 c4bc b653 adbd 1b69 273e 3fbb 15be
000000c0: f6f0 a23d 25f9 383d 3e60 263e 4491 03be
000000d0: 5fd3 66bc 67a1 70bd afe3 b9bb 3223 30be
000000e0: 93fc 293e c5c4 39be f4ad 373d f717 eabc
000000f0: 3a67 353e 5997 0e3e 2e1b 30be 740e f03d
0.15702811 -0.13407204 0.12243737 0.13262324 0.07199978 -0.20105457 -0.04949003 -0.0528866
-0.037512932 -0.023037521 0.018820511 -0.049228895 -0.018326497 -0.064401165 -0.15025736 -0.06492021
-0.109840594 0.09243647 0.11628049 0.018199572 0.11790677 0.14309332 0.108401984 0.026895447
-0.11049463 0.09395489 -0.0065194257 0.11440756 0.11068636 0.15889834 -0.0061960495 -0.15354748
-0.07327992 0.005040176 0.10117549 -0.15852457 0.07557011 0.12117489 -0.038854677 -0.030812
-0.011122513 0.05662514 0.002921076 -0.021735242 -0.023999013 -0.08463232 0.16348688 -0.1462221
0.07956116 0.045159478 0.16247651 -0.12848383 -0.014088481 -0.058747675 -0.005672894 -0.17200926
0.16600256 -0.18141468 0.04484363 -0.02857588 0.17715159 0.13924922 -0.17197868 0.11721507

model.4.weight f4 [128, 64]
00000000: 92d8 77be cb16 793d 9445 c7be 3648 93be
00000010: 79d0 d2be 298d 80be 5f48 c6be 38b0 c73d
00000020: 049d 7cbe 9427 8dbe ffde d23d 9225 a1be
00000030: 097a 393d 803a abbe 018a 273d 17d7 a6be
00000040: f567 8e3d d6aa 313d bca6 87be 7f3f 973d
00000050: 4a99 43be ea15 dc3c f55f b6be 7f61 1ebe
00000060: 4083 03be 28e6 5ebc 18c1 89be 4e1c 53be
00000070: 9737 72be 01fe 7fbe 74ab 0e3d d2d1 60be
00000080: f21e 1cbe 8cb2 6ebe cbce bcbe c7f7 61bd
00000090: 5408 c3be fa11 513d 0fea 203e b259 e5bd
000000a0: 3dc7 24be 44ff 3ebe 7189 4f3c 7c09 4dbe
000000b0: 7ffc adbe eef9 aabe 5900 8dbe 5465 c6be
000000c0: faa1 61be d135 d9bd 7480 88be 97e4 9fbe
000000d0: 85a5 19be 09bd b7be 8707 2abe e6a6 0fbe
000000e0: e8c3 bdbe e288 54bd da9e 09be ea33 d93c
000000f0: 3cff 89be 6a1f 9bbe fde2 1f3e 7915 e93d
00000100: f9aa 89be 4887 18bd 5bbd 1abe 46c6 abbe
00000110: a694 96be d20b 83be 68a7 96be 264f 90bd
00000120: 503e 65be b9ff 6cbe 5e85 883d 6785 6ebe
00000130: 6e6d 14bd 0bd1 83be ce07 6c3d a49c 91be
00000140: 7380 d1bd 8265 b4bd 7dcd 52be 930e 963d
00000150: 7a82 0ebe c500 113e b56b 38be 3921 043c
00000160: 8fc8 5fbe a270 c23d d46e b9be 1027 2cbe
00000170: ccdf c9be 35c6 18be 5170 b8bc bc83 b3be
00000180: 1c96 9cbe 6e77 3ebe fd78 2cbe 90b1 e73d
00000190: f6bf 62be 9525 2ebc 6cc7 213e e1bd 98be
000001a0: 5e93 31be 1815 8abe 90ea 173e 8a7b 82be
000001b0: e4b7 c2be c552 ddbd 2ac5 16be 814e 35be
000001c0: 4f5a 99be f005 903c b0ae 9cbe 14bd 85be
000001d0: fe69 71be ec67 8dbe 3512 10be 0943 55be
000001e0: 3ad6 37be c871 26be 79ad acbe 4dff 733d
000001f0: b0f1 7dbe 99cd 87be c43e 4f3d 0d9d cd3d
00000200: 03b1 36be 2840 8fbd 0e4c a1be 7157 94be
00000210: 88cb bcbe 2d93 60be f942 95bd be6c 2c3c
00000220: ca8e 39be a8a5 93be 7b71 19bd bd07 87be
00000230: 7307 973d 8d3e 84bd 8de5 383c 4e5d 53be
00000240: 0cba 1cbe c797 11be d56c 4cbe f377 30bd
00000250: 7801 9abe 0597 f6bc 7fbf 99be 28c4 e0bd
00000260: 4218 fcbd d676 1dbb 7a18 03be fbf3 80be
00000270: 019b 70be ffb6 9cbd 6444 883d cfcf 32be
00000280: 0a03 4fbe b1f0 90be c639 2bbe 422d 15be
00000290: ef90 1ebe b105 c33d 21eb 1f3e 6014 a0bd
000002a0: 266e 9bbe c8cc a7be f8ae dbbd 6f70 3bbe
000002b0: 8e6c 6cbe 9c60 94be ae07 32be 6947 d4bd
000002c0: 5945 52be 1da4 643d 27f4 45be b265 b2bd
000002d0: d961 31be e2ac 8bbe e114 0fbe b485 4cbe
000002e0: 54c4 5ebe 65e0 23be 4120 4fbe 1af5 f83c
000002f0: ba2c 8bbd a0b1 6ebe 440c 053e 15f1 533d
00000300: 2a7f fcbc 601f a1bd 9d16 ee3d d483 dfbb
00000310: 9068 2e3e a01b b73c 5602 1e3e 6e8a 39be
00000320: 9fc8 3c3e e8e5 2a3e 19dc 3f3c de66 a0bc
00000330: c974 71be cb6c fcbc 4ce8 01bd 6295 f83b
00000340: 14bc 32be 1314 60be c90b ea3d 2f78 85bd
00000350: 0203 b33d 1232 85bd b432 613e 141e 4a3c
00000360: 3133 9f3d 012a 13be b969 e63c 9d3c 1b3d
00000370: 1c86 103e fb62 143e 57c7 13be 85d4 a23d
00000380: 3f25 113e 5ed9 d93d e21d 1e3e d70d 34be
00000390: e6a7 9f3d 9d58 a53b c0b8 2cbe 4805 c63d
000003a0: 14a4 983c 4983 1e3e 10d6 1fbe 936a 1f3e
000003b0: 1a43 6e3e a38d bc3c 9462 933d cb00 a23d
000003c0: db60 373e 1948 1dbe 29eb 023c 700a 5a3e
000003d0: f398 213e 41d2 a3bc 50a8 5f3e cc62 a33d
000003e0: 7368 513e 349f 30be e310 233e b21a 34bc
000003f0: b96a 223e 01de 893c 7728 6fbd e8ca a6bd
-0.24203709 0.060812753 -0.3892027 -0.2876603 -0.41174677 -0.25107697 -0.3872709 0.09750408
-0.24669272 -0.27569258 0.102964394 -0.31473976 0.045282397 -0.3344307 0.040903095 -0.32585976
0.06953422 0.043375812 -0.26494396 0.07385158 -0.19101444 0.026865918 -0.35620084 -0.1546688
-0.12843037 -0.013604678 -0.2690513 -0.20616266 -0.23654018 -0.24999239 0.03483148 -0.2195504
-0.1524618 -0.23310298 -0.3687652 -0.05516794 -0.3809229 0.051042534 0.15714286 -0.11198749
-0.16091628 -0.18652064 0.012667046 -0.20023149 -0.33981702 -0.33393806 -0.27539328 -0.38749182
-0.22034445 -0.10605968 -0.26660502 -0.31229088 -0.15004547 -0.3588641 -0.16604434 -0.1402851
-0.37063527 -0.051888354 -0.13439503 0.026514012 -0.2695254 -0.30297405 0.15613933 0.11381049
-0.26888254 -0.03723839 -0.15111296 -0.33549708 -0.29410285 -0.25594956 -0.29424596 -0.07046346
-0.22387052 -0.23144425 0.06666063 -0.23293076 -0.036237173 -0.25745425 0.05762463 -0.2843982
-0.10229578 -0.088084236 -0.205862 0.073269986 -0.1391696 0.1416045 -0.18009837 0.0080645615
-0.21853851 0.09494139 -0.36217368 -0.16811776 -0.39428556 -0.1491936 -0.022514494 -0.35061443
-0.30583274 -0.18600246 -0.16843028 0.11313164 -0.2214354 -0.010629077 0.1579873 -0.29832366
-0.17341372 -0.26969218 0.14835572 -0.25484878 -0.38030922 -0.10806803 -0.1472365 -0.17705728
-0.29951712 0.017580956 -0.30602026 -0.26120818 -0.23575589 -0.2761835 -0.14069445 -0.20826353
-0.17952815 -0.16254342 -0.337261 0.059569646 -0.24799228 -0.26524046 0.050596967 0.10039721
-0.17840962 -0.06994659 -0.31503338 -0.28972962 -0.36874032 -0.21931143 -0.07288165 0.010523973
-0.18120876 -0.28837323 -0.03746174 -0.2637309 0.07374468 -0.06457243 0.011285198 -0.20641062
-0.15305346 -0.14218055 -0.19963391 -0.043083142 -0.30079246 -0.030101309 -0.30028912 -0.10974914
-0.12309314 -0.002402713 -0.12802306 -0.25186142 -0.2349663 -0.07652091 0.066536695 -0.17462085
-0.20216003 -0.28308633 -0.16721258 -0.14568046 -0.15484975 0.0952257 0.15617038 -0.07816386
-0.30357474 -0.32773423 -0.10726732 -0.18304609 -0.23088285 -0.28979957 -0.17385742 -0.10365183
-0.20534267 0.055820573 -0.19331418 -0.08710803 -0.17322482 -0.27280337 -0.13972808 -0.19972879
-0.2175458 -0.16003568 -0.20227148 0.030390311 -0.0679564 -0.23309946 0.1299296 0.051743586
-0.030822355 -0.078673124 0.11625407 -0.006821135 0.17032075 0.02235204 0.15430579 -0.18119213
0.18435906 0.16689265 0.01171019 -0.0195803 -0.23579706 -0.030813595 -0.031715676 0.007586167
-0.17454559 -0.21882658 0.11428029 -0.06517064 0.08740808 -0.06503691 0.21991998 0.012336273
0.07773436 -0.14371492 0.028126584 0.037899602 0.14113659 0.14490883 -0.14431511 0.07950691
0.14174365 0.106371626 0.15441087 -0.17583404 0.07795696 0.005045964 -0.16867352 0.09668976
0.018632926 0.15479769 -0.15609002 0.15567999 0.23267785 0.023016756 0.07196537 0.079103075
0.17908041 -0.15359534 0.007990637 0.21293044 0.15781002 -0.019997718 0.2184155 0.079778284
0.2045 -0.17248231 0.1592441 -0.010992693 0.15861024 0.016829493 -0.0583882 -0.0814417

model.4.bias f4 [128]
00000000: f9d3 f9bd 5973 d9bd 7faf 313c 72e5 823d
00000010: 0e2f 07bd 9f3d 34be 8660 68be 3018 17be
00000020: 8bce 0cbe b32b 9ebd 7295 1b3c 18d1 1fbe
00000030: 76f3 4bbe 02bb 5bbd 1e75 cabd f84c 4fbe
00000040: 5afc b7be 363f 8dbd e152 3b3e 9ad9 6cbe
00000050: 5145 12bd 59be d3bd 085c b4bd 2c6b c0bc
00000060: c88b 97bd 78c8 71be 1107 35be 1cd8 01bd
00000070: e8da 87bd 463e 3bbe d6c7 60be 5793 14be
00000080: d150 dfbc 5b0f 99bc ef4e f0bd 5aad babd
00000090: 6a85 e1bc f8ed 68bd e1b9 53be 30da 1d3e
000000a0: 350e e1bd 5274 c33c f9f8 5abb 96ae 103e
000000b0: a3ce 15be 8ffb 31be 753c 9a3d 4100 163e
000000c0: eaef 7dbd 10f5 2ebd fe8f c7bd 7cd6 a0be
000000d0: 39aa 89bd 2fce 70be 21bf 2bbe 4b9b fbbd
000000e0: 8015 993e e935 b8bd 1dad e8bd d898 60be
000000f0: 5059 bf3d 200d f2bd 9adc 73bc 0cd5 4bbe
00000100: 4c72 79bd a8c0 8abd 7621 05be 3c70 46be
00000110: 523c d6bb 500d a5bd e4cd e2bd 3cad f5bd
00000120: a31a 56be 41ff 203c 9d63 f9bc fe70 53be
00000130: 6336 30be 9321 173c 744d 41be 1660 60be
00000140: a0c2 013c 8007 a9bd 6c11 67bd 814a 58be
00000150: 3573 6dbe aae3 74be 4a14 5bbe d7ab 933c
00000160: be35 81bc b584 8abe 6267 37bc a2ad 17be
00000170: 83c0 0fbe 50d9 36be 17bc d1bd 8356 77bb
00000180: db1a 0abe 2475 4fbe bb8a 3fbc fee9 0ebe
00000190: 9799 dbbd f4f8 53be 3c47 873c 3f2f f5bd
000001a0: 9e3e 32be 4047 c4bd 6184 1fbe 8d04 393e
000001b0: 0d58 d6bd 16cf 48be b274 87be 58d4 b2bd
000001c0: 79d2 fbbd 6ba8 0bbe 5e29 6abe 85a7 c53b
000001d0: bd4f 21be 8e78 60be 6901 06be 323f 83bd
000001e0: ed5f adbc 5c2a a5bd 685d adbd 4912 44be
000001f0: 9380 273d 25f9 7e3c aad5 0abc e518 7abd
-0.12198634 -0.10617704 0.010845064 0.063914195 -0.03300386 -0.17601632 -0.22693071 -0.1475532
-0.13750665 -0.07723179 0.00949608 -0.15607107 -0.19917092 -0.05364514 -0.098856196 -0.20244205
-0.35934716 -0.06896822 0.18293335 -0.23129883 -0.035710637 -0.1033904 -0.08806616 -0.023488604
-0.07399708 -0.23611629 -0.17678477 -0.03170024 -0.0663355 -0.18285474 -0.21951231 -0.1450933
-0.027260216 -0.01868408 -0.117338054 -0.091150954 -0.027529437 -0.05686757 -0.20676376 0.15415263
-0.10989038 0.023859177 -0.003341256 0.14129099 -0.14629607 -0.17381118 0.075310625 0.14648534
-0.061996378 -0.04271418 -0.09744261 -0.3141364 -0.067219205 -0.23516153 -0.16772129 -0.12285479
0.29899216 -0.089946575 -0.11361144 -0.21933305 0.09343207 -0.1181891 -0.0148841385 -0.1990549
-0.060900018 -0.067750275 -0.13001046 -0.19378752 -0.0065379525 -0.0805918 -0.11074427 -0.119959325
-0.20908599 0.009826482 -0.030443007 -0.20648572 -0.17208247 0.009224313 -0.18877202 -0.21911654
0.007919937 -0.08253384 -0.0564131 -0.21122171 -0.23188479 -0.23914972 -0.21394458 0.018026276
-0.015772697 -0.27054372 -0.011194082 -0.1481233 -0.14038281 -0.17856336 -0.102409534 -0.0037740774
-0.13486807 -0.2025953 -0.011690791 -0.13956448 -0.10722654 -0.20700437 0.01651346 -0.11971902
-0.17406699 -0.09583902 -0.15577842 0.18068142 -0.10466013 -0.19610247 -0.2645622 -0.087319076
-0.12296004 -0.13638465 -0.22867343 0.006031933 -0.15753074 -0.21920988 -0.13086475 -0.06408538
-0.021163905 -0.0806472 -0.084650815 -0.191476 0.040894102 0.01556233 -0.008473793 -0.061058898

model.6.weight f4 [32, 128]
00000000: 64d2 f53d 5d24 393b 40ba 913d ef6c 71be
00000010: 1791 993c 689b 273d be1a 8b3b 3c48 0cbd
00000020: f281 0b3e a1f5 af3d bc82 e1bc 40f5 2b3e
00000030: 8504 61bc aa12 c13d b331 223d 155c f13d
00000040: 3de4 713d 5005 d4bc 147e a23d cba0 d03d
00000050: 992e 83be 5fd7 f1bc 7bec 4ebd 47a6 813d
00000060: 6e26 5fbe 3c97 a93c 9fe5 633e 7639 da3d
00000070: bd0f 0b3e ec45 963d 7fd3 533b 3fba 193e
00000080: 35f7 18bd f8cc e93d 4441 b4bb 06a6 723c
00000090: 734b a53d 2fd7 113e 8929 063e 8845 33be
000000a0: 521f 123e ca08 fb3d 2f14 003e 9ad9 833c
000000b0: 06aa d5bc d8e2 033e b844 ff3d 3c1a cb3d
000000c0: 9930 723b cc84 cd3d a674 b53d 846a 053d
000000d0: 5672 b73d 3748 c93c 3c05 523e 7db1 91bb
000000e0: a7f2 243e efcd c3bc 7f9e 2c3d dbf1 ca3d
000000f0: be57 373e 1e1c d73c 36c7 3f3d d9ff df3c
00000100: f18b b53c e4e9 4a3e 7c69 9a3d 55e3 0a3d
00000110: a661 6a3e b9a8 453d 1a9f 283d c567 ad3d
00000120: d75b 1b3e 6296 aaba 6198 503c 13a9 7b3d
00000130: 958a 123e 691f a43d bdd0 7a3d 7a8f cc3d
00000140: bf3c 2e3e 3d4b f03d 36fe 873d 7110 83bd
00000150: fe96 963d 98b3 d53d e30d c03d fb98 ec3d
00000160: 620b 59bd 877c b23d 2f23 853d 6b78 4b3e
00000170: b8ca af3d 519f d83d 2a42 3e3c d144 543e
00000180: f9c0 e63d 5c57 3d3d 1b11 ac3b 39d4 e23c
00000190: 0492 52bc f36a 983c 5f4a 5ebe c4bb 813d
000001a0: f371 5f3d c7c4 ce3d 1e84 5f3d 09cf 843e
000001b0: a3e4 9f3d 43b5 7b3a 5569 b73d 82ec ce3c
000001c0: b8f6 003d b35e bb3d 366c bf3a 5804 f33c
000001d0: cf8b 583e b543 7e3d e769 ad3d f0f8 fb3c
000001e0: 79ba 3b3d b9cb 883c 5a85 f73d 4d91 0bbd
000001f0: 5d10 ff3d 0821 7fbe 9c7d 953d f4ec 773d
00000200: 4484 a63d 542f aa3d 5f04 8c3d fdb9 9fbd
00000210: 48eb 03bd a1f4 b83d 2216 c0bc b7d5 1f3e
00000220: e13f a03d cb6a d13d 70b3 e13d 3acc 593d
00000230: bdb9 043e 28b7 023e 574d ae3d e5c0 f23b
00000240: 9d5d ef3c f3e7 4e3d 3a6d c03d ff94 733d
00000250: ad58 34be 2a37 113e 2950 0a3d 7caa d23d
00000260: d8f7 3bbe 9dbb 953d f085 9d3e e8f2 033e
00000270: a3e8 2a3e a33e 043e a966 153b 84a6 103e
00000280: 8791 a53d 58a5 d23d cfad 41bc 2ff4 293e
00000290: b060 6a3d 97e8 243e e4b7 293e 02d2 99be
000002a0: 5979 473e b27a fc3d cfe2 373d 5136 553e
000002b0: b17d ab3d b1d6 d73d 1db4 123e 85b2 273e
000002c0: 2d77 b23d b30f 423d 7618 0a3d 656e da3d
000002d0: 5a7a c83d 8205 253c 7d9c 823e 8b6e 053d
000002e0: 3208 513e f677 a63d 80d8 213e 28b6 ca3b
000002f0: 1486 743e e781 04bd 0824 1b3d fd2e 2bbc
00000300: 4d3e f43a 8e14 963d 5baa 2e3e e668 7b3d
00000310: 6f54 bd3d 1466 a53d 31e6 de3d 6a27 0e3d
00000320: 6d0c 363e a928 133e 8eec 953d 33e2 223d
00000330: 92f0 083e 213d 253d 142c f63d 3f6d 06bc
00000340: 2943 903d 4016 4d3e 0009 493c a742 9a3c
00000350: c0c6 df3d 36c3 5f3d 3c35 c33d 422f ad3d
00000360: e97e 063e a11e 70bc 2e23 083e 317a af3d
00000370: bed0 ba3d 206d b53d 7c64 c03d f9bd 943d
00000380: 1195 c83d f2f7 663d bf08 5c3c 522e 173e
00000390: 3cb6 e43d 666b 033d fd7d 67be add9 633d
000003a0: 663d 363d 9d23 da3b d5e8 9a3d 7cfe b13e
000003b0: e4a0 423b e440 02bd fd38 c73d 2143 103e
000003c0: d6bc c1bc 987d 143d 2c96 cc3d f2cb c53d
000003d0: 8a20 f73d d512 623c 5581 363d e70c f13b
000003e0: 5df6 7e3d 43cc f03d 63d3 8c3d 9b8e 243e
000003f0: c242 ca3d 4fc7 37be 458f 623d d35f 1c3e
0.120030195 0.0028250434 0.071156025 -0.23576711 0.018745942 0.04091969 0.0042451313 -0.034248576
0.13623789 0.08591772 -0.02752816 0.16792774 -0.013733988 0.09427388 0.039598178 0.117851414
0.059055556 -0.02588144 0.07934204 0.10186919 -0.2562149 -0.029521642 -0.050518494 0.06330543
-0.21792004 0.020701997 0.22255562 0.10655491 0.13580222 0.07337555 0.0032322106 0.15012453
-0.03734513 0.11416048 -0.0055009443 0.014810091 0.080710314 0.14242242 0.13101782 -0.17506993
0.1426976 0.12257536 0.125077 0.016094971 -0.02608205 0.12879503 0.12464279 0.09917113
0.0036955236 0.100350946 0.088601395 0.032572284 0.08957355 0.024570568 0.2050981 -0.004446207
0.1610819 -0.023901908 0.04214334 0.099094115 0.17904565 0.026258525 0.04682084 0.027343677
0.022161456 0.19815785 0.07539651 0.033908207 0.22888812 0.04825661 0.041167356 0.08467058
0.15171753 -0.0013014788 0.012731642 0.06144054 0.14310677 0.080138035 0.061234225 0.099883035
0.1701536 0.117331006 0.06640284 -0.0639962 0.07353018 0.104346454 0.09377649 0.11552616
-0.05298937 0.08715158 0.06500851 0.19870155 0.085835874 0.10577262 0.011612454 0.20729376
0.11267275 0.04622589 0.0052510626 0.027689086 -0.012852196 0.018605685 -0.21708058 0.063346416
0.05455203 0.10096126 0.054569356 0.25939205 0.07807281 0.00096019 0.08955637 0.02525926
0.03148529 0.09148922 0.0014604393 0.029665157 0.21147083 0.06207629 0.08467465 0.030758351
0.04583213 0.016698705 0.12085982 -0.034074116 0.12454293 -0.24914944 0.07299349 0.06052871
0.081306964 0.083098084 0.06836771 -0.07799146 -0.032206804 0.09031034 -0.023448054 0.1560887
0.07824684 0.10225447 0.11020553 0.05317328 0.12961479 0.12765181 0.08510845 0.0074082487
0.029219443 0.050514173 0.09395833 0.059468266 -0.17611952 0.141812 0.033767853 0.102864236
-0.18356264 0.07311175 0.3076625 0.1288563 0.16690306 0.12914519 0.0022796786 0.1412602
0.08084398 0.10285443 -0.011821224 0.16597055 0.057221115 0.16104351 0.16574055 -0.30043036
0.19479884 0.1232809 0.044894036 0.20821501 0.08373583 0.10538996 0.1432652 0.16376694
0.08714137 0.047378253 0.033714734 0.10665587 0.09788962 0.010072114 0.25510016 0.032576125
0.20413283 0.081283495 0.15805244 0.0061862655 0.23879272 -0.032350447 0.03787616 -0.010448215
0.001863429 0.07328139 0.17057173 0.061379336 0.0924462 0.080761105 0.10883749 0.034705557
0.17778178 0.1437098 0.0732051 0.0397665 0.1337302 0.0403415 0.12020126 -0.008204757
0.0704406 0.20028019 0.012270212 0.01883061 0.109265804 0.054629527 0.09531638 0.08456279
0.1313435 -0.01465574 0.1329467 0.08568228 0.09121846 0.088587046 0.09394166 0.07262797
0.09794057 0.056388803 0.01342982 0.14763764 0.11167571 0.032084845 -0.22606654 0.055627514
0.044492148 0.0066570775 0.075639404 0.3476447 0.002969795 -0.031800166 0.097276665 0.14088108
-0.023649614 0.036252588 0.099895805 0.0965804 0.12066753 0.013798435 0.044556934 0.0073562744
0.06224667 0.1175771 0.06876256 0.16070025 0.09876014 -0.17947124 0.055312414 0.15270929

model.6.bias f4 [32]
00000000: 1059 ddbd 82b1 a1bd 27c5 2e3c 47ef 4ebe
00000010: 9a31 2dbe 23da 36be d038 4abd 9f11 74be
00000020: d94e 2d3e 8c61 95be f744 5dbe 2b94 c93d
00000030: 9529 36be aad1 863d 53f3 76be d59e 113e
00000040: eb66 423e 25ca febd d516 30be 0a91 6f3d
00000050: 80a3 4abe d745 98bd 684a 8c3e f93f 4dbe
00000060: 458a 45be d8ce 94be 2975 3fbe 2c0c 60be
00000070: 2361 b4bd 73a7 4fbe 711f 093e fbd5 71be
-0.10808003 -0.07895185 0.010667122 -0.20208465 -0.16913453 -0.1785665 -0.049370587 -0.23834847
0.16924609 -0.29175985 -0.21608339 0.09842714 -0.177893 0.06582959 -0.24116258 0.14220746
0.18984573 -0.124409 -0.1719621 0.05848793 -0.19788933 -0.07435196 0.27400517 -0.20043935
-0.19291027 -0.2906406 -0.18697037 -0.21879643 -0.0880759 -0.2027872 0.133909 -0.23616783

model.8.weight f4 [1, 32]
00000000: ead8 99be 1204 95be 5472 843e 645f 95be
00000010: 9c4b ccbe 1005 9cbe d48a c5be 90f5 a1be
00000020: 8663 aa3e 9b70 b9be 56ca a3be f2fb 983e
00000030: c43c 87be 5a7c 903e 83f8 9fbe bb00 643e
00000040: 1666 8e3e 7ab3 bebe 8b6a 94be 10ca 933e
00000050: de00 a0be c241 cbbe 4f4b 4a3f 9526 a5be
00000060: 1b5b aabe b4a1 debe 6320 c1be 2f5d c8be
00000070: ca95 a3be f1e5 e1be b306 a13e 034a 9ebe
-0.30048305 -0.29104668 0.25868475 -0.2917434 -0.39901435 -0.30472612 -0.3858248 -0.31632662
0.33279055 -0.36218724 -0.31990308 0.2987972 -0.26413548 0.28219873 -0.31244287 0.22265904
0.2781226 -0.37246305 -0.28987536 0.288651 -0.31250662 -0.39698607 0.7902116 -0.32255998
-0.33272633 -0.43482745 -0.37720022 -0.39133593 -0.31950217 -0.44120744 0.31450424 -0.3091584
