logs/通过减少类别测试数据分布是否是有效的/model.output_dim=10/test_model_20250420_182857.pth (torch, 316165 bytes, 32 tensors)

weight f4 [128, 1]
-0.38014656 0.4090283 0.87715006 -0.59423006 0.83889246 -0.7689697 0.6916918 0.725323
-0.5278925 0.31063095 0.51062506 0.75665724 0.66217965 -0.531591 0.54728353 -0.50130904
-0.20141578 0.69566536 -0.40864813 -0.28470802 -0.98879296 0.050155994 0.13380075 -0.530064
0.42929986 0.7281957 -0.09754884 0.43183088 -0.09006943 0.15955502 0.22556317 -0.44038117
0.065614335 0.46056932 -0.8679878 0.26130223 1.0072292 -0.6994367 -0.79888684 0.26780808
0.83672756 -0.4419055 -0.3258685 0.36711144 0.24564612 0.043389678 0.61569726 0.5025291
0.28533947 -0.008157449 -0.19679856 0.91692936 0.92667365 0.49804726 -0.97423995 -0.7337033
-0.4439087 -0.7142744 0.16295654 0.37199372 -0.13154769 -0.56193703 -0.39689648 -0.777783
0.098631725 -0.7433214 -0.37098557 0.9883138 0.62515914 -0.1499126 0.9326572 -0.30518138
-0.49780962 -0.03417158 -0.03699553 0.42007092 0.14845657 -0.11584091 -0.52035666 0.3169963
0.2980858 0.13789317 -0.46908358 -0.76721185 0.71166986 -0.75149274 -0.77519816 -0.47980952
0.07762593 0.05417645 0.5985923 -0.9921767 -0.39283702 0.015838385 0.081972204 -0.004141569
-0.6630912 0.9127704 -0.62753284 0.29817203 0.7034606 -0.005979862 -0.07585482 0.9899156
-0.42060664 -0.0809405 0.7277384 -0.61037296 -0.7098342 0.29749644 -0.32916644 -0.48753846
-0.4088054 -0.7132993 -0.6039028 -0.7686735 0.6332718 0.3488403 -0.6176333 -0.5628965
-0.17446887 -0.88020384 0.94386333 0.23267972 -0.6771941 0.4645184 0.5647172 -0.36827582
00000000: 92a2 c2be 286c d13e e88c 603f 761f 18bf
00000010: a8c1 563f 33db 44bf b712 313f c5ae 393f
00000020: f623 07bf 050b 9f3e 53b8 023f 4ab4 413f
00000030: 9b84 293f 5916 08bf c61a 0c3f ca55 00bf
00000040: f03f 4ebe 2017 323f 543a d1be 40c5 91be
00000050: 8921 7dbf 5f70 4d3d 1003 093e 46b2 07bf
00000060: 31cd db3e 096b 3a3f b0c7 c7bd f018 dd3e
00000070: 5276 b8bd 6462 233e 08fa 663e a479 e1be
00000080: cf60 863d becf eb3e 7334 5ebf 68c9 853e
00000090: e3ec 803f 490e 33bf d983 4cbf 241e 893e
000000a0: c733 563f 7041 e2be 3cd8 a6be 08f6 bb3e
000000b0: a88a 7b3e 60b9 313d 569e 1d3f bfa5 003f
000000c0: 0418 923e d2a6 05bc 9085 49be e2bb 6a3f
000000d0: 7c3a 6d3f 0d00 ff3e ca67 79bf fbd3 3bbf
000000e0: 0048 e3be b0da 36bf 14de 263e f675 be3e
000000f0: 70b4 06be 1bdb 0fbf 0436 cbbe c91c 47bf
00000100: 6eff c93d 504a 3ebf d2f1 bdbe 2202 7d3f
00000110: 6e0a 203f b082 19be 9fc2 6e3f bc40 9cbe
00000120: e7e0 febe 80f7 0bbd a088 17bd 8913 d73e
00000130: 0005 183e 003e edbd 1836 05bf 574d a23e
00000140: b49e 983e de33 0d3e b92b f0be ff67 44bf
00000150: ff2f 363f d461 40bf 6373 46bf 98a9 f5be
00000160: 58fa 9e3d 20e8 5d3d 583d 193f 4bff 7dbf
00000170: ef21 c9be 80bf 813c 0be1 a73d 00b6 87bb
00000180: 58c0 29bf 52ab 693f fea5 20bf 01aa 983e
00000190: fe15 343f b8f2 c3bb c659 9bbd 1c6b 7d3f
000001a0: c159 d7be 22c4 a5bd 104d 3a3f 6741 1cbf
000001b0: b2b7 35bf 7451 983e 8188 a8be a49e f9be
000001c0: f14e d1be c89a 36bf 6099 1abf c9c7 44bf
000001d0: 1a1e 223f 329b b23e 371d 1ebf fc19 10bf
000001e0: f8a7 32be 0a55 61bf 07a1 713f 9843 6e3e
000001f0: 985c 2dbf 5bd5 ed3e 4e91 103f a68e bcbe

bias f4 [128]
0.80881166 -0.48220873 -0.7210452 -0.60162413 -0.8561596 0.5420253 -0.32405826 -0.64225787
-0.8891208 -0.15672478 -0.37363908 -0.00048767167 -0.54544693 -0.21999066 1.02734 0.4532205
-0.50447273 -0.41406143 -0.61204386 0.863568 0.35382482 0.4670333 -0.5297544 -0.7644925
0.5405349 0.1848062 -0.2615497 -0.14463301 0.9635548 0.91678405 -0.68221223 -0.5503292
0.18712474 0.37852627 -0.24772151 -0.97070134 -0.010777796 -0.032747395 0.0654509 -0.66331863
0.503 -0.29218093 -0.8911215 -0.6553496 -0.7926959 -0.6565299 0.077794865 0.47612822
-0.9198942 0.056204937 -0.34789634 -0.930869 -0.442764 0.8136302 -0.47637793 -0.07186516
-0.8173077 -0.08536446 0.94511795 -0.3821517 -0.90503967 -0.4111511 -0.7826067 0.17881559
0.74927133 -0.9923905 0.06517163 0.73461944 0.059305318 -0.7039658 0.64329773 -0.3992381
-0.2029549 -0.049214005 -0.699373 0.86580056 -0.5588509 -0.85445535 0.86253583 -0.05191143
-0.82344496 0.97625977 0.41371322 0.65894973 -0.39051017 0.6449947 -0.5495126 -0.63258195
1.0253527 -0.105543375 0.25889227 0.054383412 0.97635907 -0.5154251 0.008151203 -0.17650902
0.954787 -0.9328159 0.2210921 0.21618924 -0.24547139 0.41410777 0.7870962 0.48435023
0.2482421 0.5661316 0.55471843 -0.14048201 -0.71396613 -0.6396916 0.1733467 -0.94280684
5.3897787e-05 0.22044814 -0.6951952 -0.045962416 0.637687 0.71074176 0.3555482 0.1613182
-0.64329064 0.85024256 -0.7325279 -0.7959275 -0.16795252 0.33238038 -0.5821166 0.56377834
00000000: 480e 4f3f 10e4 f6be 6b96 38bf 0a04 1abf
00000010: 472d 5bbf 2cc2 0a3f f7ea a5be 036b 24bf
00000020: 6c9d 63bf 767c 20be 9f4d bfbe 2fae ffb9
00000030: 69a2 0bbf 3b45 61be e17f 833f 840c e83e
00000040: 2025 01bf dcff d3be e8ae 1cbf cb12 5d3f
00000050: 8728 b53e fd1e ef3e fc9d 07bf c8b5 43bf
00000060: 7f60 0a3f d63d 3d3e d8e9 85be ad1a 14be
00000070: 87ab 763f 5cb2 6a3f 76a5 2ebf 60e2 0cbf
00000080: a19d 3f3e 32ce c13e b5aa 7dbe e27f 78bf
00000090: 5a95 30bc 2222 06bd 1f0b 863d 40cf 29bf
000000a0: 9cc4 003f bd98 95be 8a20 64bf fec4 27bf
000000b0: 1eee 4abf 5812 28bf ea52 9f3d 14c7 f33e
000000c0: 307e 6bbf 2637 663d 781f b2be 6e4d 6ebf
000000d0: f7b1 e2be 124a 503f cfe7 f3be 0a2e 93bd
000000e0: 143b 51bf 90d3 aebd 40f3 713f 63a9 c3be
000000f0: aeb0 67bf 6682 d2be ea58 48bf 6f1b 373e
00000100: 3fd0 3f3f 4e0d 7ebf b478 853d 0510 3c3f
00000110: 22ea 723d 1a37 34bf 29af 243f f068 ccbe
00000120: 69d3 4fbe a094 49bd 1c0a 33bf 1ba5 5d3f
00000130: da10 0fbf 96bd 5abf 26cf 5c3f 14a1 54bd
00000140: 4acd 52bf 29ec 793f 38d2 d33e eeb0 283f
00000150: f3f0 c7be 5f1e 253f dcac 0cbf e4f0 21bf
00000160: c23e 833f 2027 d8bd 878d 843e 24c1 5e3d
00000170: abf2 793f e6f2 03bf a08c 053c c8be 34be
00000180: ec6c 743f 06cd 6ebf f865 623e b660 5d3e
00000190: da5c 7bbe ef05 d43e 237f 493f c1fc f73e
000001a0: 2d33 7e3e 00ee 103f 0702 0e3f 84da 0fbe
000001b0: 7cc6 36bf d4c2 23bf cc81 313e ca5b 71bf
000001c0: 4f10 6238 28bd 613e 50f8 31bf 1643 3cbd
000001d0: 753f 233f 2cf3 353f 6a0a b63e 9930 253e
000001e0: b2ae 24bf 7fa9 593f f386 3bbf e8c1 4bbf
000001f0: bffb 2bbe c32d aa3e 9805 15bf c753 103f

weight f4 [16, 128]
0.1251131 -0.064344406 0.037812598 -0.061098073 0.06393086 0.14026363 -0.02188947 -0.05593458
-0.054892097 -0.08580488 0.046724997 0.01695279 0.010676093 0.13242069 -0.008536011 0.1362207
-0.031762592 0.08614769 -0.023858644 0.1370763 -0.019621672 -0.0020191832 -0.050901476 0.0089278
0.08248298 0.033146657 0.06445225 0.008275911 0.075845316 0.013924226 0.023133807 0.08723431
-0.019009244 -0.031319994 0.1074739 0.014500171 -0.02443733 0.07357744 0.021696728 -0.025428534
0.00040878993 0.067707255 0.067977436 -0.024670586 0.026424512 0.04986333 -0.04978625 0.033928655
0.03893254 0.100943714 -0.013910398 0.027355313 0.03402713 -0.0034217057 0.09472579 0.019955156
0.06910566 0.039761852 0.043619324 0.080614485 -0.015742764 -0.024779635 -0.051745288 0.04299926
0.101003006 -0.025337547 0.13906066 0.05298407 0.114785835 0.06244544 0.11355713 0.023089781
0.028007299 0.014440671 0.052195705 0.051692955 -0.015273765 0.069747455 -0.0001400227 -0.042788006
0.0074371397 0.005614504 0.118334375 0.019663153 -0.03326795 0.023220371 -0.004927523 0.07325042
-0.001868818 0.024007507 0.066644885 0.10747336 0.09072776 -0.021137059 -0.04509201 0.07037564
0.08433632 0.04543201 0.05214887 0.08192469 0.054802366 0.003532711 0.13665926 -0.010902471
0.11600554 -0.0010068994 0.04874568 0.13665505 0.03516788 -0.004092224 0.041915342 -0.07642431
0.016879495 0.12134776 -0.08807002 0.107491314 -0.0225116 0.026526276 -0.024020394 0.050836947
-0.07796314 0.05043545 -0.0056177005 -0.054783054 0.015735412 0.07550554 0.024304539 0.099637665
0.065052785 0.01824832 0.043604605 0.08816814 -0.08562421 0.09736228 0.01584182 -0.0009369254
-0.013928458 0.084505476 -0.056463182 0.019685842 0.04478938 0.112604514 -0.021863446 0.001384657
0.050813667 0.035578996 0.012557097 0.03483003 0.07999742 0.00131314 -0.04504398 0.072336756
-0.12478402 -0.09069316 0.0017963275 -0.024899691 0.041979615 -0.055474296 -0.07042623 0.008605741
-0.09103208 -0.084168136 0.08813682 0.036810525 -0.074636504 0.059703335 0.12186177 0.0017957538
-0.019786077 0.07174519 -0.071389064 0.012103602 0.06535169 0.045028366 -0.0631992 -0.05460004
0.033806853 -0.10396951 -0.063198365 0.043257244 -0.054626603 -0.089480035 0.038855497 -0.015386207
0.06042915 0.11238897 -0.04273145 0.040455036 -0.0040880144 -0.029106483 -0.06480959 -0.033315286
-0.05461667 0.076463915 0.0033546488 -0.11151095 -0.05241415 -0.0063769 -0.06542283 -0.021985717
-0.027323917 -0.0054822713 -0.08612188 -0.016707271 -0.032736003 0.06348745 -0.06159108 -0.062188856
0.019434556 -0.041435476 0.01804159 -0.050756764 0.029152371 -0.054035787 -0.008643308 6.0789287e-05
-0.048044477 -0.03433925 -0.12606314 0.056883145 0.022943974 0.072233535 -0.019135589 -0.030681431
0.049875867 0.08075302 -0.013125317 -0.039309748 0.066292204 -0.083063446 -0.039728988 0.03512634
-0.050977997 -0.014977141 -0.11232434 -0.005729722 -0.024228066 0.009608574 0.028732363 0.042868577
0.052562863 0.007634503 -0.077214636 0.09579478 -0.122088246 0.00078230194 -0.06482784 -0.015806546
0.012539044 0.029858923 0.051703118 -0.05643993 0.060379162 -0.07212546 0.07132504 -0.028205568
00000000: a61d 003e 00c7 83bd 62e1 1a3d f941 7abd
00000010: 2fee 823d 45a1 0f3e 8c51 b3bc a81b 65bd
00000020: 89d6 60bd 78ba afbd b662 3f3d 94e0 8a3c
00000030: c8ea 2e3c 4a99 073e a0da 0bbc 707d 0b3e
00000040: 7e19 02bd 336e b03d 3473 c3bc bb5d 0c3e
00000050: a1bd a0bc 4654 04bb 117e 50bd e845 123c
00000060: d6ec a83d cac4 073d 8bff 833d b097 073c
00000070: ca54 9b3d 7022 643c 1c83 bd3c e7a7 b23d
00000080: 46b9 9bbc 6549 00bd 471b dc3d 2092 6d3c
00000090: cc30 c8bc c5af 963d 56bd b13c 804f d0bc
000000a0: db52 d639 1aaa 8a3d c137 8b3d f819 cabc
000000b0: 3878 d83c 7e3d 4c3d abec 4bbd c6f8 0a3d
000000c0: ba77 1f3d 94bb ce3d 70e8 63bc 4018 e03c
000000d0: 0860 0b3d b23e 60bb 98ff c13d ff78 a33c
000000e0: 4587 8d3d 53dd 223d 2daa 323d 3519 a53d
000000f0: f8f6 80bc a9fe cabc def2 53bd fe1f 303d
00000100: aada ce3d b090 cfbc eb65 0e3e d305 593d
00000110: d614 eb3d cac6 7f3d a490 e83d c826 bd3c
00000120: 906f e53c 9098 6c3c 2acb 553d febb 533d
00000130: d03e 7abc c1d7 8e3d 0fd3 12b9 7a42 2fbd
00000140: 40b3 f33b e0f9 b73b 4b59 f23d 9f14 a13c
00000150: f943 08bd a638 be3c 0f77 a1bb 5104 963d
00000160: 20f3 f4ba 64ab c43c 1d7d 883d fe1a dc3d
00000170: 7acf b93d a027 adbc 66b2 38bd 1b21 903d
00000180: 85b8 ac3d ea16 3a3d 0e9a 553d 22c8 a73d
00000190: 7278 603d 0e85 673b 68f0 0b3e 47a0 32bc
000001a0: 5094 ed3d f0f9 83ba 8da9 473d 4def 0b3e
000001b0: 320c 103d 1018 86bb 6caf 2b3d 5984 9cbd
000001c0: de46 8a3c 2d85 f83d 0e5e b4bd 6824 dc3d
000001d0: 3f6a b8bc a24d d93c 6bc6 c4bc 673a 503d
000001e0: 24ab 9fbd 6795 4e3d b014 b8bb 3264 60bd
000001f0: 8de7 803c a6a2 9a3d 501a c73c d50e cc3d
00000200: 653a 853d 807d 953c be9a 323d 7f91 b43d
00000210: bf5b afbd e065 c73d b4c6 813c 009c 75ba
00000220: 3034 64bc 3511 ad3d f045 67bd 3444 a13c
00000230: 1275 373d 329d e63d f81a b3bc 617d b53a
00000240: fe21 503d 48bb 113d 48bc 4d3c efa9 0e3d
00000250: b0d5 a33d ab1d ac3a 0980 38bd 4b25 943d
00000260: c48e ffbd 56bd b9bd c072 eb3a 70fa cbbc
00000270: d1f2 2b3d 0439 63bd a13b 90bd 18ff 0c3c
00000280: 076f babd 5860 acbd 1481 b43d a2c6 163d
00000290: 06db 98bd 7c8b 743d aa92 f93d 805f eb3a
000002a0: 6916 a2bc 24ef 923d 6e34 92bd 304e 463c
000002b0: 1bd7 853d aa6f 383d 956e 81bd 4ba4 5fbd
000002c0: 0e79 0a3d f7ed d4bd 256e 81bd 822e 313d
000002d0: 25c0 5fbd 4f41 b7bd f126 1f3d 6e16 7cbc
000002e0: 8e84 773d 302c e63d 2c07 2fbd 2eb4 253d
000002f0: c0f4 85bb b870 eebc e4ba 84bd 9c75 08bd
00000300: bbb5 5fbd 1d99 9c3d abd9 5b3b da5f e4bd
00000310: 38b0 56bd 50f5 d0bb 68fc 85bd 641b b4bc
00000320: 68d6 dfbc a0a4 b3bb ab60 b0bd b0dd 88bc
00000330: 3016 06bd b505 823d ee46 7cbd beb9 7ebd
00000340: 3835 9f3c 3fb8 29bd f5cb 933c 53e6 4fbd
00000350: f4d0 ee3c a154 5dbd a99c 0dbc 00f8 7e38
00000360: 49ca 44bd 50a7 0cbd b216 01be 4dfe 683d
00000370: 00f5 bb3c 2def 933d 3dc2 9cbc a057 fbbc
00000380: a34a 4c3d d761 a53d 920b 57bc 4203 21bd
00000390: 35c4 873d 2b1d aabd ddba 22bd a3e0 0f3d
000003a0: 4ece 50bd af62 75bc 4e0a e6bd 64c0 bbbb
000003b0: f079 c6bc 486d 1d3c 2260 eb3c f696 2f3d
000003c0: 284c 573d da2a fa3b b522 9ebd 0e30 c43d
000003d0: 6709 fabd 6513 4d3a 75c4 84bd bb7c 81bc
000003e0: 9070 4d3c b39a f43c a6c6 533d 8e2d 67bd
000003f0: 2450 773d 83b6 93bd dd12 923d 5d0f e7bc

bias f4 [16]
0.031809483 0.022535982 -0.07566998 -0.034523614 -0.087252215 0.11538112 -0.13072224 0.10304403
0.034010153 0.07817199 0.113443434 -0.13039255 0.009255303 -0.1014152 0.123175584 -0.095618926
00000000: a94a 023d 619d b83c ddf8 9abd a268 0dbd
00000010: 4ab1 b2bd f04c ec3d 0ddc 05be c008 d33d
00000020: 3b4e 0b3d a318 a03d 0855 e83d a085 05be
00000030: 8ea3 173c c6b2 cfbd 7b43 fc3d dbd3 c3bd

weight f4 [16, 2]
-0.65615255 0.4623576 0.51280415 -0.21894611 -0.21784702 -0.14578879 0.5423361 -0.38120192
0.16401723 0.2135711 -0.41338918 -0.4781859 0.2054451 0.67540616 -0.27463138 -0.41007298
-0.33587378 0.5582935 -0.6550536 -0.072793365 -0.34614682 -0.5492806 0.00968498 -0.6568555
0.5350182 0.17611298 0.20922709 0.4591357 -0.56156147 0.3952651 -0.10974942 0.15500176
00000000: 9df9 27bf 23ba ec3e 2247 033f 6933 60be
00000010: 4a13 5fbe a849 15be 8ad6 0a3f e62c c3be
00000020: 22f4 273e 62b2 5a3e bfa7 d3be c8d4 f4be
00000030: 3360 523e 6be7 2c3f 7c9c 8cbe 16f5 d1be
00000040: a6f7 abbe 53ec 0e3f 98b1 27bf b014 95bd
00000050: 283a b1be a79d 0cbf c0ad 1e3c af27 28bf
00000060: f4f6 083f f656 343e a03f 563e d613 eb3e
00000070: 7ec2 0fbf 3060 ca3e 4ec4 e0bd c8b8 1e3e

bias f4 [16]
-0.31998515 -0.057971504 -0.26755401 0.38278243 -0.31036946 0.095794976 -0.025533918 0.5634838
0.25752586 -0.10569149 -0.6998281 -0.43334875 -0.09586708 0.4551042 -0.5551368 -0.24760963
00000000: 18d5 a3be 8773 6dbd d7fc 88be 0ffc c33e
00000010: bfe8 9ebe 2830 c43d 822c d1bc 7940 103f
00000020: 6eda 833e c874 d8bd ef27 33bf e3df ddbe
00000030: f655 c4bd 6b03 e93e 721d 0ebf 618d 7dbe

weight f4 [16, 16]
0.10551751 -0.20965084 -0.14070258 0.1291509 0.2751277 -0.2098917 0.27852666 -0.10720977
-0.16835792 0.1229893 0.23524031 0.057976246 -0.13412687 0.14100224 -0.010325862 -0.17510733
-0.16144961 -0.060705893 -0.08550888 0.076035485 -0.20376948 0.055535644 -0.18280964 -0.0415743
0.12288436 -0.11179307 0.16263399 -0.13026848 0.13391154 0.1081113 -0.12173837 0.2676346
-0.16206901 -0.26088658 -0.16999075 0.14106947 0.071902774 -0.09748885 -0.04544729 0.2447078
-0.030694839 0.12316692 0.17917487 -0.24331862 0.2205359 0.1420553 -0.1905288 -0.2098359
0.17381911 0.058125045 -0.040549546 0.20773785 0.061753348 0.06269267 0.042647157 0.24312636
0.054941386 -0.11337936 -0.07161054 -0.04511112 -0.0362738 -0.09153012 -0.12446891 -0.06577137
-0.064879626 -0.18474212 -0.018664569 0.23896897 0.09615865 -0.24181953 -0.24808672 -0.24208462
-0.014871627 -0.04114023 0.20879331 -0.122802824 -0.24281749 0.19898573 0.0064400136 -0.07038981
0.0073094354 -0.24402773 0.18623033 -0.2119712 0.1279277 -0.060468137 0.05857441 0.12118271
-0.21300706 0.20070416 -0.1051712 0.17759854 -0.18320681 0.08104782 -0.08561047 -0.109945916
-0.2125165 0.15437673 0.117005765 -0.1826938 0.10163926 0.09953019 -0.030404193 -0.16111568
0.07454797 -0.11558235 -0.24276775 -0.20676214 0.24346119 0.005924349 0.24078971 0.16838996
-0.21969604 0.13194445 0.033976376 0.21059877 -0.18116523 -0.18089995 0.20084517 -0.0034095943
0.120276034 0.2044276 0.2162379 -0.084510684 0.2240978 -0.21314698 0.23602913 -0.14027697
-0.05148095 -0.06259626 -0.14148733 0.1235874 -0.031547874 0.11911777 0.04450345 -0.24751675
0.20576555 0.045074463 0.06913361 -0.002052009 -0.12405753 -0.1989347 -0.2447359 -0.12147063
-0.23572963 -0.06886795 0.027371317 -0.050576627 -0.06851256 -0.1936366 -0.038516313 0.049203396
0.09266317 -0.12910128 0.11590448 0.13102785 -0.16400379 -0.11258173 0.1174227 0.1856474
0.18448967 -0.03455001 -0.22433233 0.014606893 0.09086204 -0.10487583 -0.21450183 -0.03954217
0.014106164 0.13003159 -0.016769141 -0.03850165 0.016509669 0.02059354 0.07231178 -0.120000534
-0.18875271 0.04798749 0.069390476 0.108635336 0.1977874 0.14843649 -0.21998024 -0.2297054
-0.14341286 -0.22732589 -0.11036062 -0.20561257 -0.106934935 -0.051393807 -0.24427077 -0.06644443
0.070746765 0.14293084 0.14312536 -0.14802735 -0.056783155 -0.16286609 -0.106977455 -0.00835067
0.045342315 -0.24517295 0.14721215 -0.17855957 0.23981865 -0.15822266 0.22218412 0.10035243
-0.17503051 0.21454722 0.062619746 0.095182076 -0.056013633 -0.16199428 0.2323361 -0.12485877
0.06731314 -0.070011884 -0.12943202 -0.14933786 0.043851726 0.17519337 0.1971183 -0.13292615
-0.112153694 0.20204294 0.097215295 0.021570334 -0.12121666 -0.13354677 0.23491356 0.002830416
-0.1585297 0.03985569 0.08135712 -0.17229226 0.112507924 0.117619224 0.20792222 0.15284102
0.22315246 0.2183224 0.12823504 0.059385456 -0.15488993 0.018677771 -0.10701888 -0.1448242
-0.20532718 -0.20797452 0.09529883 -0.00073599815 -0.08967444 0.029088493 -0.23117828 0.03193465
00000000: 9019 d83d b6ae 56be 5614 10be 2240 043e
00000010: 8add 8c3e daed 56be 0c9b 8e3e cc90 dbbd
00000020: 0566 2cbe d0e1 fb3d d6e2 703e 8078 6d3d
00000030: 8e58 09be e462 103e ce2d 29bc 564f 33be
00000040: 0c53 25be bea6 78bd 481f afbd 7eb8 9b3d
00000050: f2a8 50be 5879 633d 7332 3bbe d049 2abd
00000060: ccaa fb3d c4f3 e4bd 8689 263e 1a65 05be
00000070: 1b20 093e 7569 dd3d f751 f9bd 6707 893e
00000080: 6bf5 25be ed92 85be 0e12 2ebe 8474 103e
00000090: c341 933d 3ca8 c7bd f026 3abd ae94 7a3e
000000a0: be73 fbbc f03e fc3d 9e79 373e 8428 79be
000000b0: 2ad4 613e f276 113e fb19 43be 39df 56be
000000c0: a3fd 313e 8714 6e3d 4817 26bd 3bb9 543e
000000d0: 14f1 7c3d 0465 803d c9ae 2e3d 1ef6 783e
000000e0: 380a 613d 7033 e8bd 8ca8 92bd 70c6 38bd
000000f0: d693 14bd 2574 bbbd 8ee9 febd 24b3 86bd
00000100: 9cdf 84bd 0a2d 3dbe 70e6 98bc 48b4 743e
00000110: d4ee c43d 8a9f 77be 720a 7ebe 08e5 77be
00000120: 20a8 73bc a882 28bd eacd 553e 0c80 fbbd
00000130: 26a5 78be eac2 4b3e c006 d33b 8828 90bd
00000140: fd83 ef3b 68e2 79be 2ab3 3e3e fa0e 59be
00000150: 7bff 023e 70ad 77bd b8eb 6f3d a42e f83d
00000160: 861e 5abe 6485 4d3e 0064 d7bd 64dc 353e
00000170: 919a 3bbe 66fc a53d 8b54 afbd 532b e1bd
00000180: ed9d 59be ef14 1e3e b8a0 ef3d 1514 3bbe
00000190: 3f28 d03d 7cd6 cb3d 3712 f9bc 82fb 24be
000001a0: 9bac 983d 70b6 ecbd 1c98 78be 74b9 53be
000001b0: e44d 793e 0b21 c23b 9491 763e 6b6e 2c3e
000001c0: 00f8 60be 721c 073e d02a 0b3d 34a7 573e
000001d0: 6183 39be d63d 39be 5baa 4d3e 8073 5fbb
000001e0: 4853 f63d 7855 513e 786d 5d3e f013 adbd
000001f0: e579 653e 3443 5abe 9fb1 713e c4a4 0fbe
00000200: b0dd 52bd 7832 80bd 0ee2 10be 641b fd3d
00000210: 5838 01bd 04f4 f33d 4049 363d 0875 7dbe
00000220: 34b4 523e 00a0 383d ec95 8d3d 007b 06bb
00000230: e011 febd 8ab5 4bbe 0c9c 7abe 98c5 f8bd
00000240: 1c63 71be a40a 8dbd d039 e03c 7029 4fbd
00000250: 5050 8cbd ac48 46be 48c3 1dbd 8089 493d
00000260: 30c6 bd3d 2033 04be 545f ed3d 2a2c 063e
00000270: 9cf0 27be 4091 e6bd 507b f03d 5a1a 3e3e
00000280: dcea 3c3e 5084 0dbd 60b7 65be c051 6f3c
00000290: e115 ba3d 24c9 d6bd 5ea6 5bbe f8f6 21bd
000002a0: 8a1d 673c 0027 053e 705f 89bc e8b3 1dbd
000002b0: 493f 873c c9b3 a83c 3318 943d d7c2 f5bd
000002c0: 6448 41be 888e 443d 981c 8e3d 347c de3d
000002d0: c888 4a3e bcff 173e 8042 61be e437 6bbe
000002e0: d2da 12be 1ec8 68be c004 e2bd 1a8c 52be
000002f0: b400 dbbd 5082 52bd 1e22 7abe 0414 88bd
00000300: aee3 903d 765c 123e 748f 123e 7b94 17be
00000310: 7495 68bd 5ec6 26be ff16 dbbd 40d1 08bc
00000320: ddb8 393d 9e0e 7bbe c8be 163e 52d8 36be
00000330: 0593 753e 1f05 22be 3c84 633e 9385 cd3d
00000340: 333b 33be 44b2 5b3e c83e 803d d2ee c23d
00000350: 8d6e 65bd d4e1 25be 84e9 6d3e f4b5 ffbd
00000360: 79db 893d 6462 8fbd d489 04be 06ec 18be
00000370: de9d 333d e465 333e 61d9 493e cb1d 08be
00000380: d6b0 e5bd 58e4 4e3e d018 c73d 45b4 b03c
00000390: 7140 f8bd 7cc0 08be 2e8d 703e 807e 393b
000003a0: 9c55 22be b83f 233d 909e a63d 626d 30be
000003b0: 8e6a e63d 59e2 f03d 90e9 543e 5b82 1c3e
000003c0: 1482 643e e88f 5f3e 0c50 033e 2a3e 733d
000003d0: 779b 1ebe 2002 993c b72c dbbd cc4c 14be
000003e0: 4a41 52be 46f7 54be 082c c33d 00f0 40ba
000003f0: 3ca7 b7bd fe4a ee3c 00ba 6cbe e8cd 023d

bias f4 [16]
0.014521412 0.14753222 0.08926616 0.16639757 -0.17078623 0.15972225 0.020456305 0.06422327
-0.022083849 -0.076945215 0.14837709 -0.18193793 -0.10315308 -0.07804535 0.27446598 0.050273877
00000000: 37eb 6d3c b012 173e 2dd1 b63d 2064 2a3e
00000010: 96e2 2ebe 3b8e 233e fb93 a73c 7d87 833d
00000020: 30e9 b4bc 7495 9dbd 2af0 173e f04d 3abe
00000030: ec41 d3bd 3ed6 9fbd ce86 8c3e fbeb 4d3d

weight f4 [32, 16]
0.09231357 0.09730665 -0.24195412 0.24689008 0.16909662 0.03192082 -0.19422421 0.053782344
-0.16980833 0.24299112 0.017404806 -0.021605968 0.087041326 0.09718601 -0.04477923 -0.019877782
-0.059406802 -0.035774548 -0.022409154 0.08715668 0.10817844 0.20239878 -0.20924158 -0.06690345
-0.19302878 0.011965811 -0.028841903 0.0019898415 0.028724512 -0.13084738 0.13543804 0.08862093
0.07404438 0.20125501 -0.022291332 0.008323296 -0.18310925 0.25660944 -0.22775431 0.22868335
0.14761275 0.20020059 -0.23687589 0.03006965 -0.04042553 0.17094143 -0.055952083 0.23631528
-0.0076125436 0.18651934 0.0632888 0.20988767 0.00051257014 0.16389906 -0.15923275 -0.24345547
0.09155288 -0.1311987 -0.026190652 -0.14135897 -0.12981701 -0.011223563 -0.13229324 0.20890826
-0.09270727 -0.18685453 0.13239728 0.1683697 0.11884537 -0.12889813 -0.009195945 -0.00979959
0.21741417 -0.16033256 -0.034712773 -0.074052036 0.23799688 0.23281202 -0.02217197 -0.05087241
-0.10957931 0.2526757 0.18969752 -0.19233106 0.2155348 0.05512821 -0.07478836 0.21601819
0.19762745 0.2499249 -0.0074522756 -0.23506665 0.07441735 0.17649718 -0.09161668 0.067422755
0.0699424 -0.065853775 -0.11184399 0.25369033 0.23390278 0.16713884 0.22992954 0.034198392
0.06890488 0.23785713 0.14723043 -0.10452655 0.18113557 -0.15134585 0.238675 -0.17772995
0.15666138 -0.24396734 -0.10341534 -0.21238042 0.031239003 0.139097 -0.21582823 0.19824782
0.12570405 -0.058867335 0.21808499 -0.06089887 -0.017301725 0.03512973 -0.12959413 -0.09526893
-0.18625249 -0.18560338 -0.13331214 0.098859295 0.08844593 -0.010596321 0.1022508 0.1940489
-0.08051959 -0.044790864 -0.15345886 0.2156102 -0.114583395 0.18365254 0.07048786 0.035664283
0.086834095 0.17982584 0.18951789 0.12248743 0.11142731 0.03667636 0.10387501 0.10325402
-0.063402265 0.060278416 0.2191122 -0.020251364 -0.19745807 0.08585678 0.1043717 0.2402468
-0.19158743 0.055181924 0.17866993 -0.0076417406 -0.06443691 0.14342082 0.14303306 0.13911775
-0.19123235 0.042226255 -0.08741279 -0.18350646 0.05570814 -0.09729403 0.0139219845 0.1352035
0.036664553 -0.07362813 -0.17714933 0.15047526 0.20713398 -0.042024348 -0.16726264 0.168056
-0.122483075 0.17124337 0.23274986 -0.10490841 0.056076683 -0.13393551 -0.03946044 -0.1703655
-0.21334825 0.07286225 -0.15526892 0.14147559 -0.20887801 0.03190568 0.15185979 0.11662089
-0.18306214 0.17440513 -0.09613317 0.2384277 -0.24494737 0.005372371 -0.10727956 -0.024558514
0.17841567 -0.09486128 0.066196315 -0.14234759 -0.14343318 0.093538836 -0.13547364 -0.15521155
0.02145487 0.1503416 -0.06496522 -0.10989961 0.18083867 -0.22765972 -0.2270058 -0.039917994
-0.023931237 -0.048194397 -0.034557253 -0.05738936 0.05809042 -0.010018037 0.19757837 -0.08825706
-0.04033792 -0.15529242 -0.1895629 0.19064632 -0.103078105 0.0759595 -0.15045752 0.15815713
-0.09375753 0.15907902 0.118549176 -0.027072398 0.066432774 0.03453117 -0.089254774 -0.07423354
0.18095037 -0.20134321 0.16415356 0.23414615 -0.04340378 0.019186623 0.2331667 0.12993585
00000000: e60e bd3d b548 c73d d2c2 77be c1d0 7c3e
00000010: aa27 2d3e 68bf 023d b6e2 46be e04a 5c3d
00000020: 3ce2 2dbe aad2 783e 8694 8e3c 00ff b0bc
00000030: b942 b23d 7509 c73d 6d6a 37bd bbd6 a2bc
00000040: 8c54 73bd 5588 12bd 6793 b7bc 347f b23d
00000050: a88c dd3d a041 4f3e 6d43 56be ad04 89bd
00000060: 56a9 45be 400c 443c db45 ecbc 0068 023b
00000070: ab4f eb3c dbfc 05be 45b0 0a3e e47e b53d
00000080: 94a4 973d cb15 4e3e 509c b6bc 6f5e 083c
00000090: fe80 3bbe 5062 833e 6d38 69be f82b 6a3e
000000a0: cc27 173e 6201 4d3e 988f 72be a054 f63c
000000b0: 3e95 25bd 450b 2f3e 032e 65bd a2fc 713e
000000c0: a572 f9bb edfe 3e3e 8f9d 813d cbec 563e
000000d0: 005e 063a 28d5 273e e90d 23be 644c 79be
000000e0: 1480 bb3d f458 06be c78d d6bc 68c0 10be
000000f0: c0ee 04be 09e3 37bc e177 07be 0cec 553e
00000100: 4fdd bdbd cb56 3fbe 2793 073e 1b69 2c3e
00000110: 3465 f33d dffd 03be 97aa 16bc 768e 20bc
00000120: d2a1 5e3e 382e 24be fb2e 0ebd 98a8 97bd
00000130: 74b5 733e 4666 6e3e fea1 b5bc 975f 50bd
00000140: 1e6b e0bd b65e 813e 1140 423e 6ff2 44be
00000150: 28b5 5c3e 1ece 613d a42a 99bd df33 5d3e
00000160: da5e 4a3e 50ec 7f3e 3832 f4bb 50b5 70be
00000170: 2068 983d adbb 343e 87a1 bbbd f114 8a3d
00000180: f63d 8f3d 58de 86bd 760e e5bd b3e3 813e
00000190: 3684 6f3e 7226 2b3e a672 6b3e 9d13 0c3d
000001a0: 001e 8d3d d290 733e 93c3 163e 0412 d6bd
000001b0: 9a7b 393e 68fa 1abe 3867 743e d7fe 35be
000001c0: d76b 203e 93d2 79be 6ccb d3bd 417a 59be
000001d0: f0e8 ff3c 726f 0e3e 1302 5dbe 7a01 4b3e
000001e0: 90b8 003e e01e 71bd ac51 5f3e 1871 79bd
000001f0: 59bc 8dbc 31e4 0f3d 53b4 04be 5b1c c3bd
00000200: f9b8 3ebe d00e 3ebe fa82 08be be76 ca3d
00000210: 2423 b53d 319c 2dbc de68 d13d c1b4 463e
00000220: 74e7 a4bd a076 37bd 5224 1dbe ecc8 5c3e
00000230: b3aa eabd 690f 3c3e f05b 903d b614 123d
00000240: 13d6 b13d 4424 383e fa10 423e b1da fa3d
00000250: 0034 e43d f339 163d 6cbc d43d d876 d33d
00000260: 0cd9 81bd 80e6 763d f35e 603e 30e6 a5bc
00000270: 7332 4abe aed5 af3d d4c0 d53d 4203 763e
00000280: 7f2f 44be 7106 623d 40f5 363e 9167 fabb
00000290: 80f7 83bd e8dc 123e 4277 123e e274 0e3e
000002a0: 6ad2 43be 70f5 2c3d 7a05 b3bd 1ee9 3bbe
000002b0: 382e 643d 1842 c7bd 0919 643c c972 0a3e
000002c0: 922d 163d 58ca 96bd a266 35be 3016 1a3e
000002d0: ee1a 543e b921 2cbd e646 2bbe df16 2c3e
000002e0: 68d8 fabd 6c5a 2f3e fb55 6e3e 38da d6bd
000002f0: aab0 653d 6426 09be 45a1 21bd 4b74 2ebe
00000300: f777 5abe ce38 953d d1fe 1ebe fade 103e
00000310: 1ee4 55be 88af 023d 2281 1b3e efd6 ee3d
00000320: a474 3bbe 4297 323e 78e1 c4bd 6426 743e
00000330: 7cd3 7abe b70a b03b 63b5 dbbd f02e c9bc
00000340: 99b2 363e a146 c2bd ef91 873d 91c3 11be
00000350: 26e0 12be 4a91 bf3d 9ab9 0abe c7ef 1ebe
00000360: 20c2 af3c 26f3 193e 7c0c 85bd 0c13 e1bd
00000370: c62d 393e a11f 69be 3574 68be 0d81 23bd
00000380: 710b c4bc 7d67 45bd e88b 0dbd 1b11 6bbd
00000390: 38f0 6d3d b122 24bc fc51 4a3e 1ec0 b4bd
000003a0: 6039 25bd fa04 1fbe c71c 42be ca38 433e
000003b0: 9d1a d3bd a890 9b3d 8911 1abe f1f3 213e
000003c0: f303 c0bd 9ce5 223e e9c9 f23d efc6 ddbc
000003d0: e80d 883d 8e70 0d3d 35cb b6bd c107 98bd
000003e0: 0e4b 393e ea2c 4ebe df17 283e 02c4 6f3e
000003f0: 29c8 31bd 442d 9d3c 40c3 6e3e e70d 053e

bias f4 [32]
-0.21642126 0.035509974 -0.13677934 0.1646535 -0.25090548 0.24714369 0.10803688 0.04285958
-0.013563349 0.0036475854 0.13661502 -0.16132917 -0.18186282 -0.13842237 0.14368008 -0.2508467
-0.016464114 -0.221364 0.17246084 0.2672363 0.25357288 -0.09542349 0.0012852581 0.15417759
0.13828872 0.12196235 -0.16007921 -0.23022693 0.20317444 0.0937175 0.07419468 -0.13899627
00000000: 899d 5dbe e872 113d e20f 0cbe ed9a 283e
00000010: af76 80be 3c13 7d3e 7142 dd3d 878d 2f3d
00000020: cf38 5ebc 540c 6f3b cfe4 0b3e 7933 25be
00000030: 3f3a 3abe 98be 0dbe df20 133e fb6e 80be
00000040: c0df 86bc 3fad 62be 9399 303e 32d3 883e
00000050: 4ed4 813e 646d c3bd 1b76 a83a bbe0 1d3e
00000060: 8f9b 0d3e 66c7 f93d ceeb 23be 9cc0 6bbe
00000070: f60c 503e f6ee bf3d 61f3 973d 0a55 0ebe

weight f4 [16, 4]
0.37245005 0.27573767 -0.37429175 0.054904766 0.03479798 0.13886246 0.44975677 0.15747921
-0.39880043 -0.048915863 -0.058507502 0.39220738 0.41320118 -0.10882698 -0.4117693 -0.04377686
-0.34000635 -0.27456498 0.11414826 -0.21918768 0.00044764223 0.016494805 0.016306536 -0.09621965
-0.40778166 0.19023913 0.45112675 0.41346252 -0.18343395 0.00774616 -0.47478122 -0.26774698
-0.02995801 0.4311853 0.17697465 -0.4946382 0.4650483 0.16321984 -0.36250103 -0.20758948
-0.058180034 0.35563558 -0.20785129 -0.004820287 0.24495424 0.45284235 0.009950574 0.2457192
0.4976197 -0.03557694 0.02604215 -0.09245752 -0.30767244 0.42439085 -0.1340431 -0.27031195
-0.43435895 0.47691715 -0.41546154 0.25119048 0.23254752 0.36308435 -0.49493876 -0.5175711
00000000: c6b1 be3e 7d2d 8d3e 2ba3 bfbe d2e3 603d
00000010: 5488 0e3d f631 0e3e 8546 e63e 3b42 213e
00000020: 922f ccbe 005c 48bd 90a5 6fbd 68cf c83e
00000030: 1b8f d33e aee0 debd 6dd3 d2be 5d4f 33bd
00000040: 5015 aebe c893 8cbe 90c6 e93d bc72 60be
00000050: 86b1 ea39 1d20 873c 4995 853c cf0e c5bd
00000060: c2c8 d0be 0cce 423e 16fa e63e 5cb1 d33e
00000070: 1cd6 3bbe 80d3 fd3b 8616 f3be 2216 89be
00000080: 806a f5bc 52c4 dc3e d838 353e 3841 fdbe
00000090: d01a ee3e 1a23 273e bc99 b9be 5692 54be
000000a0: 304e 6ebd de15 b63e f8d6 54be 80f3 9dbb
000000b0: 49d5 7a3e f4da e73e bb07 233c d09d 7b3e
000000c0: 02c8 fe3e 20b9 11bd 5956 d53c 5e5a bdbd
000000d0: 3e87 9dbe c249 d93e 9842 09be 5466 8abe
000000e0: 4c64 debe 7c2e f43e 60b7 d4be 0a9c 803e
000000f0: f020 6e3e 31e6 b93e 9d68 fdbe 8a7f 04bf

bias f4 [16]
-0.055456795 0.26420644 0.04000461 0.3424405 0.12694877 -0.07441495 0.12852585 0.4215151
0.122350276 0.0038968166 -0.14912426 0.22329456 -0.4696645 0.41089386 -0.41591102 0.22881931
00000000: aa26 63bd 1146 873e e0db 233d 5c54 af3e
00000010: dcfe 013e de66 98bd 489c 033e d4d0 d73e
00000020: c892 fa3d bc61 7f3b 08b4 18be 54a7 643e
00000030: de77 f0be ae60 d23e 4af2 d4be 9c4f 6a3e

weight f4 [16, 16]
0.052566264 -0.17175665 -0.048446268 0.17804469 0.034706116 -0.094427 0.18167043 0.06953117
-0.17902553 0.21190973 -0.15365824 -0.2479972 0.23475322 0.09633556 -0.08503041 -0.15164383
0.04519394 0.009813437 -0.142485 0.2320325 -0.10766181 -0.19039616 -0.1991058 -0.08661243
-0.20824939 0.01487907 -0.054392755 0.17167702 0.14588955 -0.10828328 -0.16881478 0.23691803
-0.010860827 0.19680303 0.16653079 -0.089491904 0.083984315 -0.12227301 -0.0424774 0.2346673
0.116245866 0.10566252 -0.09268883 0.25337008 0.11034705 -0.11819762 -0.2292096 -0.23543017
0.015746461 0.17254075 -0.027947783 -0.18690617 -0.16920319 -0.049986992 0.09438035 0.11984825
-0.0475733 0.22335967 0.050128102 0.21759629 0.2188608 -0.22919431 0.12573421 0.12432253
-0.027533373 0.22201489 0.14643437 0.095011294 -0.04159233 -0.1975973 0.04317698 0.2416229
-0.21826789 0.109121285 0.1331901 0.063357085 0.12845713 -0.14647084 0.09541395 0.15120232
0.1701374 0.048216313 -0.046563357 -0.22531316 -0.13909292 0.12068358 -0.06980282 0.15383208
-0.15332726 0.08697486 0.17692873 -0.14077628 -0.045262665 0.1780197 0.029652297 -0.027044713
0.013462752 -0.17594436 0.1346356 0.030066222 0.09243181 -0.07796726 -0.16562772 -0.10583976
-0.2489194 -0.23005635 0.028900415 0.21630463 -0.10659295 0.24881184 -0.041370064 0.13339564
0.17013285 -0.10180239 0.08773482 -0.069762886 -0.18275893 -0.23280185 0.11986822 -7.212162e-06
0.010939658 -0.09305361 -0.23092559 0.10664078 -0.018604023 0.036952704 -0.18026608 -0.048640866
-0.075191915 -0.12292227 0.19486979 -0.1600416 -0.036202937 0.12192038 -0.231386 0.0022188127
0.087496966 -0.07508972 -0.20111072 0.23585424 -0.09765914 0.070050746 0.10477933 0.2331787
0.063865334 -0.019434154 0.03516531 0.2130132 0.059881985 -0.15167102 -0.23012367 0.023896694
0.037460268 -0.2030716 -0.24084571 -0.12918371 -0.10528585 0.15364572 -0.1971941 -0.025918037
-0.07909522 -0.10367395 -0.049253702 -0.21421587 -0.17076138 -0.11795359 0.06132397 0.039402336
0.18384618 0.1332039 -0.2102609 0.15080127 0.12431572 -0.18803382 0.022171617 -0.09556251
0.044560462 -0.053959638 0.0982852 -0.0069243014 -0.10750842 0.07936019 0.18607676 0.046579123
0.21233258 -0.17468247 -0.14937526 -0.063969135 -0.20219359 -0.07898 -0.09848952 -0.24609286
-0.14072211 0.14113148 0.15384465 0.19608904 -0.19309357 0.13809541 -0.043899715 -0.099736005
0.17441839 0.017052632 -0.08577165 0.20089008 0.081445746 -0.23122472 0.18322352 -0.03508992
0.24666415 0.025139855 0.07325807 0.23745695 -0.014970511 -0.1928866 0.0014624298 0.21081385
0.17848101 -0.11438921 0.18484104 0.23100562 0.05481083 -0.19130448 0.04749286 -0.19619645
-0.12765658 0.0026709735 -0.08983323 -0.10793042 0.06709829 0.23678258 0.09337634 -0.18941694
-0.062084734 0.24660912 0.12773558 -0.085663766 -0.13569868 -0.16491106 0.106220156 -0.06043756
0.11060551 -0.038820177 -0.10289031 -0.21767336 0.19178617 -0.14820266 -0.22076026 -0.16954145
-0.10640305 -0.065294385 0.1403386 -0.15994334 0.12419519 0.089238524 0.10109246 0.18506306
00000000: b94f 573d fae0 2fbe 986f 46bd 5951 363e
00000010: 0028 0e3d f162 c1bd d007 3a3e 5c66 8e3d
00000020: 7852 37be ddfe 583e 9658 1dbe faf2 7dbe
00000030: 2663 703e 944b c53d 6c24 aebd 8548 1bbe
00000040: 481d 393d 8ac8 203c 96e7 11be ed99 6d3e
00000050: cc7d dcbd 36f7 42be 64e2 4bbe dc61 b1bd
00000060: 543f 55be 58c7 733c f0ca 5ebd 1acc 2f3e
00000070: 1264 153e a0c3 ddbd c8dd 2cbe a49a 723e
00000080: 9cf1 31bc bc86 493e 0c87 2a3e 8847 b7bd
00000090: f8ff ab3d 466a fabd c8fc 2dbd a04c 703e
000000a0: 5012 ee3d 9765 d83d a4d3 bdbd b9b9 813e
000000b0: a2fd e13d 9811 f2bd ecb5 6abe 9b14 71be
000000c0: b9fe 803c 86ae 303e c0f2 e4bc 5564 3fbe
000000d0: 9a43 2dbe 29bf 4cbd 7c4a c13d 0073 f53d
000000e0: 38dc 42bd 66b8 643e 2053 4d3d 90d1 5e3e
000000f0: 0c1d 603e eab1 6abe 78c0 003e d09c fe3d
00000100: ab8d e1bc df57 633e e4f2 153e 4895 c23d
00000110: b85c 2abd f256 4abe 58da 303d fe6b 773e
00000120: 9e81 5fbe fb7a df3d fc62 083e 5cc1 813d
00000130: 448a 033e 74fc 15be 6468 c33d c8d4 1a3e
00000140: 8038 2e3e 787e 453d 38b9 3ebd 7eb8 66be
00000150: 606e 0ebe f428 f73d c8f4 8ebd 2886 1d3e
00000160: d201 1dbe e01f b23d ce2c 353e a827 10be
00000170: 5865 39bd cc4a 363e 60e9 f23c e08c ddbc
00000180: e092 5c3c c22a 34be eadd 093e 704d f63c
00000190: e44c bd3d 4cad 9fbd 509a 29be 84c2 d8bd
000001a0: bae4 7ebe e493 6bbe 90c0 ec3c f67e 5d3e
000001b0: 684d dabd 88c8 7e3e a873 29bd de98 083e
000001c0: 4e37 2e3e c57d d0bd 50ae b33d d8df 8ebd
000001d0: 2825 3bbe 9c63 6ebe 787d f53d 0000 f2b6
000001e0: 403c 333c e492 bebd c277 6cbe 7b66 da3d
000001f0: 7767 98bc b85b 173d ac97 38be a53b 47bd
00000200: 38fe 99bd acbe fbbd f28b 473e f2e1 23be
00000210: 8849 14bd 64b1 f93d 74f0 6cbe 8069 113b
00000220: 9c31 b33d a4c8 99bd f8ef 4dbe c683 713e
00000230: 8401 c8bd c476 8f3d 8c96 d63d 66c6 6e3e
00000240: d4cb 823d 6034 9fbc 8009 103d 2220 5a3e
00000250: d046 753d a64f 1bbe 8aa5 6bbe 00c3 c33c
00000260: f06f 193d 00f2 4fbe 42a0 76be bc48 04be
00000270: 1ca0 d7bd 4e55 1d3e 40ed 49be 1052 d4bc
00000280: adfc a1bd 0253 d4bd 40be 49bd 685b 5bbe
00000290: 12dc 2ebe a791 f1bd d82e 7b3d 5864 213d
000002a0: 2c42 3c3e 9a66 083e a24e 57be a66b 1a3e
000002b0: 3d99 fe3d f08b 40be 40a1 b53c 47b6 c3bd
000002c0: 0885 363d c804 5dbd c049 c93d 40e5 e2bb
000002d0: 602d dcbd 9887 a23d e88a 3e3e c0c9 3e3d
000002e0: b66d 593e f6df 32be d4f5 18be 4002 83bd
000002f0: d60b 4fbe 44c0 a1bd e0b4 c9bd c4ff 7bbe
00000300: 7519 10be c584 103e 7489 1d3e 91cb 483e
00000310: 52ba 45be e268 0d3e 30d0 33bd 6442 ccbd
00000320: bc9a 323e f6b1 8b3c 0ca9 afbd 21b6 4d3e
00000330: 07cd a63d 2cc6 6cbe f29e 3b3e 73ba 0fbd
00000340: 8795 7c3e 19f2 cd3c 5408 963d ea27 733e
00000350: e046 75bc 1184 45be 00af bf3a 96df 573e
00000360: bac3 363e e444 eabd f846 3d3e bd8c 6c3e
00000370: 5281 603d 52e5 43be e087 423d b9e7 48be
00000380: 68b8 02be 800b 2f3b 7cfa b7bd a00a ddbd
00000390: d46a 893d 2277 723e 183c bf3d 84f6 41be
000003a0: 904c 7ebd 1a87 7c3e 1ecd 023e 7c70 afbd
000003b0: 98f4 0abe 72de 28be f489 d93d 608d 77bd
000003c0: 2485 e23d e801 1fbd 28b8 d2bd c4e5 5ebe
000003d0: 9863 443e 70c2 17be fa0e 62be 469c 2dbe
000003e0: d8e9 d9bd 10b9 85bd ecb4 0f3e 30c8 23be
000003f0: 0c5a fe3d b0c2 b63d 9009 cf3d 2c81 3d3e

bias f4 [16]
0.23457563 -0.017814578 0.1630197 0.2699685 0.16513631 0.041060716 0.18736243 -0.008901015
-0.096851885 -0.06162721 0.22821768 -0.23641244 -0.055831835 -0.11069172 -0.24836287 0.20325908
00000000: 9834 703e e1ef 91bc a3ee 263e 5039 8a3e
00000010: 7e19 293e 482f 283d f0db 3f3e 90d5 11bc
00000020: 485a c6bd d06c 7cbd e5b1 693e 1a16 72be
00000030: ecaf 64bd 57b2 e2bd d652 7ebe 2623 503e

weight f4 [32, 16]
0.054090198 0.05933101 -0.01660533 -0.14718813 -0.13468762 0.21638912 0.1015746 0.12356151
-0.053610653 -0.23881915 -0.020519717 -0.0032849908 -0.20764486 -0.045054127 0.20531058 0.100639224
0.19178212 -0.1478107 -0.06136147 -0.09774103 0.13541473 -0.24356675 -0.032765806 -0.009897675
-0.07967585 -0.18501747 0.15094067 0.034741044 0.01097461 -0.07582869 0.10095397 0.15207106
-0.08816843 0.15733771 -0.038419846 0.044586718 -0.027261129 0.0026998222 0.0800876 0.08621997
-0.006114632 -0.097653925 -0.24199396 -0.00412187 -0.09728725 -0.052666597 0.111582994 0.15095249
-0.17315297 0.16971406 0.12498796 -0.17390773 -0.098176785 0.14478865 0.17395341 -0.1371431
-0.0016229749 0.1581941 0.20068279 0.21089214 0.0886475 0.14663532 0.042981267 -0.21811804
0.07393746 -0.09361522 -0.17397445 -0.0861933 0.14303972 -0.09216848 0.20322403 -0.19611624
0.20661771 -0.106211275 0.17447664 -0.13318288 0.051960055 0.25818545 -0.16053906 0.14113232
-0.09818688 0.006644328 0.056327756 0.16448504 -0.1762147 -0.117782354 -0.20117846 0.022865726
-0.021818101 0.14484769 0.20743966 -0.05955392 -0.07875463 -0.051350687 -0.23567766 0.18572426
-0.04358923 0.230925 -0.09961899 0.124930106 -0.09253109 -0.030411988 -0.24860957 0.06538758
-0.187926 0.23424241 0.09840702 -0.12885886 0.041881807 0.1797681 0.11469698 -0.23398879
0.2027515 0.098693654 0.0605964 -0.06530882 -0.22357757 -0.07658675 0.038292736 -0.08282024
-0.08551508 0.063676596 0.059764758 -0.12530744 -0.16217527 -0.03935539 -0.06386411 0.24121338
-0.20682961 -0.07381088 0.03422811 0.25073567 -0.15963762 -0.1463086 -0.0017153323 0.1027822
-0.009176016 -0.14979714 -0.13906771 -0.1899738 0.24901828 0.1579988 0.19171774 0.03722194
-0.016037896 -0.09598971 0.18384485 0.08658972 -0.111550875 0.13977057 -0.022020668 0.1555391
0.021179259 0.06549811 0.1831192 0.15879968 0.15118048 0.2509778 -0.05137959 0.13082144
-0.02414346 -0.014898095 0.20742998 -0.16401245 -0.17451182 0.005522907 -0.24909207 -0.023099903
0.06365201 0.1965408 -0.2157126 0.10031286 -0.057139967 0.06576741 -0.051077604 0.17519557
-0.07477688 -0.0064022983 -0.15072247 -0.18149664 0.1463663 -0.13568798 -0.23915449 -0.2148075
-0.20330012 0.14900926 0.03571398 -0.11628714 -0.19986393 0.13324447 0.1917899 0.028996915
0.20090978 -0.23638646 0.017285528 0.04312568 -0.1526982 0.12344745 -0.038107336 -0.1400775
0.044566393 -0.13078493 -0.21934767 0.044092774 -0.1452188 -0.09619007 -0.04531488 0.055015534
-0.10300526 -0.1437281 0.15095195 0.21943848 0.21341 -0.10901603 -0.1229313 -0.079262994
0.2186197 -0.11899027 -0.20162848 0.12980524 0.15647168 0.22454913 0.08798355 -0.18139872
-0.15551022 -0.009811527 -0.1691932 -0.14141893 0.13220271 0.06417066 -0.24547723 0.015236049
0.22481853 -0.11092031 -0.051394254 0.0022965074 0.087413736 0.22370572 0.20564151 -0.11771968
-0.20542894 -0.057777647 -0.20006898 -0.04898946 0.23016337 -0.24964696 0.15642181 0.025297802
0.07626647 0.22376058 0.17732278 -0.24222922 -0.22871281 -0.112861946 0.24015683 -0.19825223
00000000: af8d 5d3d 1305 733d e707 88bc 7cb8 16be
00000010: 8deb 09be 1c95 5d3e 5806 d03d d10d fd3d
00000020: d896 5bbd 028d 74be f718 a8bc 0049 57bb
00000030: dba0 54be ad8a 38bd f03c 523e f01b ce3d
00000040: 8862 443e b05b 17be 2a56 7bbd 732c c8bd
00000050: 29aa 0a3e 9069 79be 7035 06bd dc29 22bc
00000060: 182d a3bd 3875 3dbe 3190 1a3e a04c 0e3d
00000070: dace 333c 124c 9bbd f4c0 ce3d 84b8 1b3e
00000080: a691 b4bd 231d 213e 215e 1dbd 90a0 363d
00000090: bb52 dfbc 80ef 303b f804 a43d 1894 b03d
000000a0: 405d c8bb c8fe c7bd 44cd 77be c010 87bb
000000b0: 8a3e c7bd eeb8 57bd a085 e43d 4a93 1a3e
000000c0: 034f 31be 86c9 2d3e b0f9 ff3d de14 32be
000000d0: e910 c9bd 7a43 143e d820 323e 3e6f 0cbe
000000e0: 00ba d4ba a2fd 213e ca7f 4d3e 1cf4 573e
000000f0: d28c b53d 9227 163e 200d 303d 565a 5fbe
00000100: 866c 973d 56b9 bfbd 5c26 32be 1d86 b0bd
00000110: 0179 123e d4c2 bcbd f619 503e b2d2 48be
00000120: 9893 533e 4c85 d9bd 01aa 323e 1861 08be
00000130: 11d4 543d e230 843e 5a64 24be fe84 103e
00000140: 3416 c9bd aab8 d93b efb7 663d c46e 283e
00000150: a071 34be e037 f1bd ba01 4ebe e750 bb3c
00000160: e0bb b2bc f452 143e 106b 543e d0ee 73bd
00000170: 1c4a a1bd 1955 52bd 7c55 71be 802e 3e3e
00000180: 9f8a 32bd 9a77 6c3e 0b05 ccbd 5bdb ff3d
00000190: f180 bdbd 9022 f9bc 8293 7ebe ece9 853d
000001a0: ac6f 40be 3edd 6f3e 9f89 c93d 94f3 03be
000001b0: 428c 2b3d 2115 383e 40e6 ea3d c29a 6fbe
000001c0: 179e 4f3e e61f ca3d ee33 783d a1c0 85bd
000001d0: 85f1 64be 84d9 9cbd d8d8 1c3d a89d a9bd
000001e0: 8822 afbd e068 823d e4cb 743d 9850 00be
000001f0: 4611 26be 1e33 21bd 30cb 82bd a400 773e
00000200: 24cb 53be 292a 97bd c632 0c3d 6d60 803e
00000210: 0b78 23be ecd1 15be 00d5 e0ba 797f d23d
00000220: 0057 16bc 6c64 19be c467 0ebe 7e88 42be
00000230: a6fe 7e3e 70ca 213e a851 443e 0876 183d
00000240: e861 83bc 4196 c4bd d341 3c3e f355 b13d
00000250: c974 e4bd 0420 0f3e b064 b4bc a445 1f3e
00000260: 2080 ad3c e023 863d 9983 3b3e 629c 223e
00000270: 0ecf 1a3e 2a80 803e 6873 52bd 0ef6 053e
00000280: 81c8 c5bc 2417 74bc 8668 543e e1f2 27be
00000290: 3ab3 32be 80f9 b43b fe11 7fbe 023c bdbc
000002a0: fc5b 823d fe41 493e c4e3 5cbe d470 cd3d
000002b0: 990b 6abd 10b1 863d c036 51bd 7866 333e
000002c0: 9f24 99bd 5fca d1bb fe56 1abe 41da 39be
000002d0: 0ce1 153e caf1 0abe eae4 74be 7ff6 5bbe
000002e0: e82d 50be e295 183e d348 123d f427 eebd
000002f0: 21a9 4cbe 3d71 083e 9264 443e f08a ed3c
00000300: 4bbb 4d3e 4b0f 72be 619a 8d3c 8ea4 303d
00000310: eb5c 1cbe 04d2 fc3d 7016 1cbd 7a70 0fbe
00000320: 408b 363d 7cec 05be ad9c 60be a09a 343d
00000330: 3db4 14be 4dff c4bd 189c 39bd f857 613d
00000340: 6cf4 d2bd 762d 13be 2693 1a3e 7bb4 603e
00000350: 2788 5a3e cc43 dfbd 68c3 fbbd a354 a2bd
00000360: d8dd 5f3e 2cb1 f3bd b277 4ebe aaeb 043e
00000370: 1d3a 203e 35f0 653e b830 b43d 96c0 39be
00000380: 123e 1fbe 87c0 20bc fb40 2dbe 20d0 10be
00000390: 2660 073e e86b 833d 625e 7bbe 9fa0 793c
000003a0: d436 663e 302a e3bd c882 52bd 0081 163b
000003b0: f905 b33d 1d13 653e b093 523e 0417 f1bd
000003c0: f75b 52be 41a8 6cbd e2de 4cbe 2ca9 48bd
000003d0: f2af 6b3e 74a3 7fbe 0a2d 203e 563d cf3c
000003e0: 9831 9c3d 7e21 653e 1a94 353e f00a 78be
000003f0: b133 6abe 2a24 e7bd aceb 753e a202 4bbe

bias f4 [32]
-0.2097051 0.0026735684 0.14566083 0.032454155 0.038047828 0.14854366 -0.20211484 -0.12706873
0.22559065 0.09628743 0.070455186 -0.12101573 -0.16058396 0.27340594 -0.1046362 -0.16678098
-0.17853469 0.21727277 -0.1074561 -0.112712264 -0.098478936 -0.1268951 -0.14148358 0.041709434
-0.08656852 0.14610514 0.22304773 -0.012049127 -0.07115148 0.059480965 0.22288743 0.039486513
00000000: efbc 56be 0937 2f3b 1d28 153e a6ee 043d
00000010: 0ad8 1b3d d41b 183e 31f7 4ebe 4e1e 02be
00000020: 3c01 673e 5832 c53d cf4a 903d 18d7 f7bd
00000030: 1f70 24be ddfb 8b3e 814b d6bd a2c8 2abe
00000040: ccd1 36be c17c 5e3e f211 dcbd b0d5 e6bd
00000050: 53af c9bd caf0 01be 12e1 10be 83d7 2a3d
00000060: d64a b1bd 969c 153e a066 643e b469 45bc
00000070: deb7 91bd 50a2 733d 9a3c 643e 9cbc 213d

weight f4 [16, 2]
0.5067436 0.19726825 0.6910979 0.10303199 -0.19862872 0.49253637 -0.1908598 -0.6564243
0.14592773 -0.23115253 -0.06893253 0.0644905 -0.13907003 -0.083925486 -0.025285244 0.20182222
0.35133666 0.45978492 -0.41986412 0.13490146 -0.34171492 -0.5326923 0.5941264 -0.016418755
0.39091533 0.17584229 -0.27532893 0.69341034 -0.36322558 0.6861102 0.18886787 -0.4448857
00000000: f3b9 013f b000 4a3e cbeb 303f 7002 d33d
00000010: 5465 4bbe ba2d fc3e c070 43be 6c0b 28bf
00000020: 146e 153e 40b3 6cbe 802c 8dbd 9813 843d
00000030: 6068 0ebe 20e1 abbd 0023 cfbc 7caa 4e3e
00000040: 66e2 b33e ee68 eb3e 6ef8 d6be 9c23 0a3e
00000050: 42f5 aebe 865e 08bf ab18 183f a080 86bc
00000060: 0e26 c83e 0010 343e eaf7 8cbe 5783 313f
00000070: b4f8 b9be eba4 2f3f 9466 413e 0fc8 e3be

bias f4 [16]
-0.26743287 0.48690385 0.44715804 0.57636553 -0.22280899 -0.6849317 -0.2872746 0.5990315
-0.2393946 -0.4945855 0.5850894 0.4955322 -0.5848462 0.6473232 -0.28096977 -0.56777954
00000000: f6ec 88be 764b f93e e6f1 e43e b18c 133f
00000010: 0a28 64be af57 2fbf a815 93be 215a 193f
00000020: dc23 75be 503a fdbe 6bc8 153f 66b6 fd3e
00000030: 7bb8 15bf f9b6 253f 45db 8fbe 005a 11bf
