logs/通过减少类别测试数据分布是否是有效的/model.output_dim=10/test_model_20250420_184046.pth (torch, 316165 bytes, 32 tensors)

weight f4 [128, 1]
00000000: 9ecf 823f 5a0e 72bf d5c0 153f 43f3 5fbf
00000010: 310e 00bf 20d4 ae3e 7de0 20bf f89d 67be
00000020: ee35 6c3f 9571 0fbf 830d 253f be52 543f
00000030: 3562 e8be 6e7d 1a3f 3588 6dbf ae20 39bf
00000040: 5bb6 d6bc 34d2 20bf 694d 813d 856b fb3e
00000050: d113 2b3f d86a 00bf 710c d6be a13a 013f
00000060: 4027 4dbe 1dc7 4d3f cc96 443f c6d9 4cbf
00000070: f5a8 99be cad0 19bf 2ad2 313f 00e8 6fbb
00000080: 4ec2 0f3f 9b48 34bf f6cf 2f3f 9d92 7c3f
00000090: bae5 733f 2383 293e 0064 583e fbe3 bfbe
000000a0: 294b 0bbf 981e 98be 84ad 3c3f d338 4cbf
000000b0: 2311 1f3f c107 af3e 2f9d 5e3f 83f9 5bbf
000000c0: 20ec e5be 8a09 6a3f 0631 733e bc4d 9c3e
000000d0: e254 a33e 900c cd3d b871 223f 1da0 4c3f
000000e0: 12bc c43e 040d bdbe eac4 16bf 341c 4ebf
000000f0: 07d8 823f b270 56bf 6036 21bf 8052 343c
00000100: fd9d 3a3e f824 97be d6cd 4bbf e05e e53e
00000110: 4a5c 81bf d833 0d3e a4ff 44be d866 f13e
00000120: 6304 453f 30de 533f cbb4 da3d ba2f 223f
00000130: 2936 f0be 5428 403f 7472 03be 8a10 57be
00000140: 38d2 483e 77c2 5dbe 138c 43bf a896 693f
00000150: e713 84bf fa3f f63e 15ae a7be 10e7 6e3f
00000160: 03a2 753f 9032 4fbe 38ae 8f3e fce0 573f
00000170: 286e 853f 983c 4abf 26f7 26bf 9010 493f
00000180: ecfe c3bd feab b03c ba13 1c3f a5a6 513f
00000190: bea4 1abf a1d2 503f d025 35be 90cb 72be
000001a0: 8009 55bf 5619 163f d0b2 3abe c53f eebe
000001b0: 88ab 6abf aa15 60bf 7414 9bbe 3eb9 22bf
000001c0: c83b 0e3f 28ed 273e 2017 723e 9d16 803f
000001d0: 802f 533c 2044 5c3d c082 b0bc 6747 f2be
000001e0: fe10 2cbf 4f8e 423f 8379 473f 88a4 ffbe
000001f0: ef4c c4be 6b2f 023e d4dc 3f3f b56e 3cbf
1.021961 -0.9455315 0.58497363 -0.8748056 -0.50021654 0.34146214 -0.6284254 -0.22618854
0.9226979 -0.5603269 0.6447374 0.82938755 -0.45387426 0.6034764 -0.9278596 -0.7231549
-0.02621 -0.62820745 0.06313593 0.49105468 0.6682711 -0.5016303 -0.41806367 0.50480086
-0.20034504 0.8038195 0.767926 -0.80019796 -0.30011716 -0.6008421 0.6946131 -0.0036606789
0.5615586 -0.7042329 0.686767 0.98661214 0.9527241 0.16553931 0.21131897 -0.37478623
-0.5441156 -0.2971084 0.73702264 -0.79774207 0.62135524 0.34185603 0.86958593 -0.859276
-0.44906712 0.91420805 0.2374917 0.30528057 0.31900698 0.10012162 0.6345477 0.79931813
0.38424736 -0.36923993 -0.58894217 -0.80511785 1.0222176 -0.8376571 -0.62973595 0.011005998
0.1822433 -0.29520392 -0.79610956 0.44798946 -1.0106289 0.13789308 -0.19238144 0.47148776
0.7695982 0.82760906 0.10679015 0.63354075 -0.4691632 0.75061536 -0.12836629 -0.21002403
0.19611442 -0.21656214 -0.7638561 0.9124551 -1.0318574 0.48095685 -0.32750002 0.93321323
0.95950335 -0.20234132 0.28062606 0.84327674 1.0424242 -0.7899871 -0.6522087 0.785409
-0.09570107 0.021566387 0.609676 0.81894904 -0.60407627 0.81571394 -0.17690206 -0.23710465
-0.8321762 0.5863241 -0.18232274 -0.46533027 -0.91667986 -0.87533057 -0.30289042 -0.6356391
0.5555997 0.16399062 0.23641634 1.0006901 0.012889743 0.053775907 -0.021546721 -0.473201
-0.6721343 0.75998396 0.7791979 -0.49930215 -0.38339946 0.12713401 0.7494633 -0.73606426

bias f4 [128]
00000000: cdca f1be a460 993e d2d8 3f3f 8f6f 6b3f
00000010: 1511 333f bc4c 69bf 385b 313f d041 0ebf
00000020: b3d5 f13e 3549 e3bd baa9 d33d 236d 38bf
00000030: a1c2 c4be 3ce6 4bbf f86a 48bf 8e5f 71bf
00000040: 9eb1 913d 3ad5 3f3e 0923 e13e 912c d93e
00000050: 5cbd 403f a1c4 d1bd 7d5d 9c3e 4bde 383f
00000060: 9074 18bf 1d82 883d b91c b63e 2b30 8e3e
00000070: ea35 2c3e e05c 4b3d 2a5c 44bf 247c 60bf
00000080: 6052 afbe cecc 02bf 9888 4fbf 1c80 7f3f
00000090: cf69 debe ded8 9fbd 2e54 77bf b67e 453f
000000a0: 97ba 223f 247d febe a1a0 233f 269b 2b3d
000000b0: 06fd 533f 3c7b b03d 9ca3 0bbf 17b8 cbbe
000000c0: 12e6 36bf 097f 1fbf aa3d 903e 9e39 2dbf
000000d0: 5ee8 2fbe 53b4 553f c663 253f 442f d5be
000000e0: cc16 f33e c8c9 36be ac08 5f3f 185f 34bf
000000f0: 94ea 10bf 321b e03c 5417 3dbf c2f1 53bf
00000100: f452 993e 9cc6 12bf 5086 893e 6a5b 3d3f
00000110: 77e9 683e b056 29bf 99e0 4b3f e220 6dbf
00000120: b84f 803f 196a 0f3f de09 0bbc 71ec f63e
00000130: 7456 f63d df0d 493f 0292 613f 4664 62be
00000140: aecd 4dbf 4cda f9bd 8a0d b93e bda9 8f3e
00000150: 2619 24bf 4bcc f33e 430f 4b3f e046 643f
00000160: fd25 533e d4f2 49bf 2cc4 d2be f8e6 483f
00000170: 58d5 6dbf 51b7 8cbe bec4 093e 826b 93be
00000180: 27d4 263e 2fbd 443f 9a1c 26bf d921 9dbe
00000190: afda e6be f803 233f 822a 18bf 7ab7 2dbf
000001a0: b2eb 56bf 13da 0d3f f6ea 263f 59ed 5b3d
000001b0: c7ba fb3e 8b4c 653d 5c7a 07bf 3f3e 06bf
000001c0: b2e4 29be 62c7 10bf 78c8 e5be d636 473f
000001d0: 6213 06bf 8efd 0fbf c009 f4bd bf63 05be
000001e0: aa2c 39bf 641d 803f d45d 163f d440 7abf
000001f0: 175c f63e 2c19 a63e b867 b93d 766c 3cbf
-0.47225037 0.29956543 0.74940217 0.919671 0.6994794 -0.9113271 0.69279814 -0.5556917
0.47233352 -0.110979475 0.10335107 -0.7204153 -0.3842974 -0.79648185 -0.7828822 -0.9428643
0.07113956 0.18733683 0.43972042 0.42416814 0.7528894 -0.10242582 0.30540076 0.7221419
-0.5955286 0.06665442 0.3556879 0.27771124 0.16817442 0.04964912 -0.7670313 -0.87689424
-0.34242535 -0.5109376 -0.810678 0.99804854 -0.434401 -0.07805036 -0.96612823 0.7714647
0.63565964 -0.4970485 0.63916975 0.041896008 0.8280796 0.08617255 -0.54546523 -0.39788887
-0.7144481 -0.62303215 0.28172046 -0.6766604 -0.17178485 0.8347828 0.6460537 -0.41637623
0.4747833 -0.17850411 0.8712261 -0.704576 -0.5660794 0.027356718 -0.7386372 -0.8279077
0.299461 -0.57334304 0.26860285 0.7396761 0.2274531 -0.661479 0.79639584 -0.926283
1.0024328 0.5602127 -0.008486239 0.48227265 0.120282084 0.7853679 0.88113415 -0.22108564
-0.8039197 -0.1219984 0.36143142 0.28059188 -0.64100873 0.476168 0.7932016 0.89170647
0.2061996 -0.7888615 -0.41165292 0.7847743 -0.9290366 -0.2748361 0.13453957 -0.2879296
0.16291867 0.7685117 -0.6488739 -0.30689886 -0.45088717 0.6367793 -0.5943986 -0.6785809
-0.8395339 0.5541088 0.6520227 0.05369315 0.49165937 0.0559812 -0.5292108 -0.5243873
-0.16591147 -0.56554234 -0.44879508 0.7781805 -0.52373326 -0.5624627 -0.11915922 -0.13026331
-0.72333777 1.0008969 0.5873692 -0.9775517 0.48117134 0.3244108 0.09052986 -0.73603

weight f4 [16, 128]
00000000: 3f24 833d b35a 56bd de9e 393b 1d14 223d
00000010: fc34 ab3b 420b 6f3d 1aaf 4bbc 44a7 9abc
00000020: ebf4 cf3d 80b4 a53d 3722 b13d 34a9 bf3b
00000030: 4cdb a33d 87ca 38bd c6fc 683d 6879 07bc
00000040: e9a0 353d fca6 d83d 670f 7c3d c408 c93d
00000050: e3c5 fc3d cf4c 093d 3e58 d03d 6699 b93d
00000060: ec04 82bd 5aaf 8abc 8213 fa3d 6d3f 103d
00000070: 51bf 68bc b983 8fbd 159d 933d 9884 a93c
00000080: 804d d93d 5227 003d 4ebe 393d 753e a13d
00000090: dec0 693d 32d5 673d 351f a4bd e43f 12b8
000000a0: 2768 e13c ce9c 633d 6b85 35bd 1151 5bbd
000000b0: 5a63 0f3d d576 4ebd ed9a 97bc fb77 9a3b
000000c0: 1263 473d e72f 753c d517 d4bc e6b1 543d
000000d0: e8fe 39bb f9c1 4a3d 9a96 ca3d a7d3 7d3d
000000e0: 8304 de3d 3359 d03d 0ccc ff3d 10ae b73d
000000f0: 0a7e d03d 819b 08bd e363 873d 7592 913d
00000100: 1ca5 653d 826b d5bc 8dd9 453d 92dc 043d
00000110: 14bd ce3d c077 4c3b a358 bc3d dc61 9cbc
00000120: 5bb2 a23d a740 31bd 91e5 b0bb 0b8c 18bc
00000130: 48fd c6bc 4344 a03b fa6f a43d a89e 8dbc
00000140: 52d4 4e3d ee5c c23c 69d0 283d 7706 9c3d
00000150: 0484 963d 8d13 e93d 04b4 913d 1d97 ac3d
00000160: 5cbe bcbc 2434 873c 585b 36bd 31c0 e33d
00000170: 43b7 ca3d 6421 b93d 1946 393d f813 b7bc
00000180: 15c4 903a 04a4 d33d 4f02 b5bd 642c a53d
00000190: 2acd 9d3d e92c 403d 4485 dfbc fe42 30bd
000001a0: edb8 92bd d107 873d 1074 aabc a2db 60bd
000001b0: b789 d4ba d3da 183c 822b 5dbd b708 4dbc
000001c0: 4d91 16bd ee9a 5f3d 101c 5a3c efca 833d
000001d0: 5f49 9b3d ca29 423d 39b5 08bd 6de7 8ebc
000001e0: 804d 2a3c 16c7 d53c f5ae 3a3d da0c 2b3d
000001f0: a1d0 fa3d ef42 59bc 0e56 d73c a9ba 96bc
00000200: 2184 ad3d f848 efbb dc1a 9b3d 59cd a2bc
00000210: abf6 9f3c e6a0 6a3d 25bb 053d aaaf 0a3d
00000220: 8da8 173d 68a9 0cbd 90c2 ec3d 833b 3bbd
00000230: a646 5f3d 0c6d 3ebd f95f d73c 4aea 313d
00000240: e2be 01bd b88a b53d 99f0 61bd 1889 023a
00000250: 6f2d debc f289 76bc 98f8 edbc 3632 55bd
00000260: 6805 50bc 4be3 ba3d 1096 65bd d825 ed3c
00000270: 68c3 093d 09c8 b0bc dd5d 9f3d ec93 73bd
00000280: c7a8 cd3d 5f5e 0f3d dc16 a5bd 0b58 e83b
00000290: 143c d33d e1ad be3d 941e 66bd 6145 833d
000002a0: e9a2 3b3d eca6 8c3c 7dce 8e3d 6303 603d
000002b0: 7470 6a3d d025 703c 04e9 763d 78ee 3fbc
000002c0: a6a6 6a3d 8cfd 923d 8b30 c73d cf13 72bd
000002d0: cfd0 5c3d 6e6a 8f3d 182e 1a3d 5cb1 b43c
000002e0: ee1f af3d 3d74 8abd dffa 8d3c 17e7 0cbd
000002f0: 06ac ec3d e24a 583d f8c8 b9bc 0667 143d
00000300: ed40 573d b264 f8bc b909 c1bc b3ba d1bc
00000310: 00bb 56bd 02da 193d c246 4d3d f96a b33d
00000320: a964 b2bc 4410 423d 05c3 cb3d a480 69bd
00000330: 3bd6 a03c 1286 a83d f0b6 b03c 553e 07bd
00000340: 894d 8d3d 8832 03bd f58a de3c c86f 2fbd
00000350: dcf9 d4b8 b081 b6bc bd81 afbc 54c1 993d
00000360: 4428 b93d 6126 893d c8e3 e3bc ef9b da3d
00000370: 7ae7 f53d d7fe 5abd f871 09bc d159 5f3d
00000380: 9d07 bb3c 96bb ae3c 7639 b3bd be19 53bb
00000390: c46c 263d 8f58 243c fff9 a03d a682 63bd
000003a0: 37cf aa3d f17e a13d f9c5 5dbd 91bd c13b
000003b0: e0db 603c 20ab 6d3d e09b e3bb 749f 573d
000003c0: e505 953d acee b6bc 514b 57bd 7ad2 f23c
000003d0: cb25 9f3d c42e af3c e2a4 e4bc 1b15 243d
000003e0: 2036 f7bb d633 853d c5c4 d33d 0480 8ebc
000003f0: 61bc c0bc e439 613d 23d5 313d e7a8 c93c
0.06403398 -0.05233259 0.0028323452 0.039569963 0.005224822 0.058360346 -0.012431884 -0.018878587
0.10154136 0.08091068 0.08649104 0.005849028 0.08000812 -0.04511502 0.05688169 -0.008268692
0.04434291 0.10578725 0.061538126 0.09816125 0.123424314 0.033520516 0.10173081 0.090624616
-0.06348595 -0.016929317 0.12210752 0.035216738 -0.01420577 -0.07007546 0.072076954 0.020693108
0.10610485 0.0312875 0.045347504 0.07873241 0.057068698 0.056599803 -0.08013765 -3.4868615e-05
0.027515484 0.055569462 -0.04431669 -0.053544108 0.03500686 -0.050406296 -0.018506492 0.00471401
0.048678465 0.014965034 -0.02589027 0.05192747 -0.0028380696 0.049501393 0.09892006 0.061969426
0.10840704 0.101732634 0.12490091 0.08968747 0.1018029 -0.033351425 0.06610849 0.071080126
0.056065664 -0.02605224 0.048303176 0.032436915 0.100946575 0.0031199306 0.091965936 -0.019089632
0.07944175 -0.043274548 -0.00539846 -0.009310733 -0.024290696 0.00489095 0.0802917 -0.017287567
0.050495453 0.023725953 0.04121438 0.076184206 0.07349399 0.11380682 0.071144134 0.0842726
-0.02303999 0.016504355 -0.044520706 0.11120642 0.09898236 0.09039572 0.045232866 -0.022348389
0.0011044765 0.10334018 -0.08838331 0.080651075 0.077051476 0.04691783 -0.027285226 -0.04303264
-0.07164178 0.06593288 -0.020807296 -0.05489696 -0.0016215359 0.0093295155 -0.05399657 -0.012514285
-0.036759663 0.05459111 0.013312355 0.06435191 0.07582354 0.047403134 -0.033375952 -0.017444337
0.010394454 0.026095908 0.04557701 0.041760303 0.12246824 -0.013260587 0.026286151 -0.018399553
0.08472467 -0.0073023997 0.075734824 -0.019873308 0.0195268 0.05728235 0.032649178 0.033858933
0.037025977 -0.034341246 0.11560547 -0.04571105 0.054510735 -0.046490714 0.02629088 0.043436326
-0.03167618 0.08864349 -0.055161092 0.0004979535 -0.027121274 -0.015047537 -0.029049203 -0.052049838
-0.012696601 0.09125384 -0.056051314 0.02894871 0.03363362 -0.02157976 0.07781575 -0.05946724
0.10041957 0.03500211 -0.08061001 0.0070905737 0.10314193 0.093105085 -0.056181505 0.06409717
0.04580966 0.017169438 0.06972978 0.05469073 0.05723615 0.014657453 0.060280815 -0.01171457
0.057287835 0.071772665 0.09726056 -0.059100922 0.053910073 0.07002722 0.037641615 0.022057228
0.08551012 -0.06760452 0.017331539 -0.034400072 0.11556248 0.05280579 -0.022678837 0.036231063
0.052552152 -0.030321453 -0.023564206 -0.02560172 -0.05242443 0.037561424 0.050116308 0.08760638
-0.021776514 0.047378793 0.099493064 -0.057007447 0.019633403 0.08228697 0.021571606 -0.03301843
0.06899554 -0.032030612 0.02716587 -0.042831212 -0.00010155488 -0.022278637 -0.021424169 0.075075775
0.09040883 0.06696773 -0.027818576 0.10674273 0.12007041 -0.05346569 -0.008388989 0.054529015
0.022830779 0.021329682 -0.08751194 -0.0032211388 0.04063107 0.01003088 0.07860183 -0.055544518
0.08340304 0.0788554 -0.05414388 0.0059124907 0.013724297 0.058024526 -0.006946072 0.0526423
0.07276515 -0.022330604 -0.05256206 0.029641379 0.0777088 0.021384604 -0.027910654 0.04005919
-0.007544294 0.065040275 0.10340265 -0.017395027 -0.023527326 0.05498685 0.043416154 0.024616672

bias f4 [16]
00000000: e2c5 ef3d 5161 473d 51ba a63d 4069 923c
00000010: cfe6 18bd eebc a43d 925a bd3c 8ff4 c43d
00000020: d01c 14bd daf7 eebc 3fb4 eebd befd a9bb
00000030: a715 dbbd d438 a93c b5a9 033c 2801 c23d
0.11707665 0.048676793 0.08141006 0.017872453 -0.03732949 0.08043848 0.023114476 0.09616958
-0.03616029 -0.02917092 -0.11655473 -0.005187719 -0.10697489 0.02065698 0.008036067 0.09472877

weight f4 [16, 2]
00000000: c517 b23e f7fc 8c3e 2366 053f e26c 8d3e
00000010: 94b1 15be 5830 f3be d784 21be 5bb3 873e
00000020: 8961 8b3e d075 cbbe 595f 873e 06a9 e5bd
00000030: 8989 e5be ca81 69be cec5 143f 75e3 693d
00000040: 3072 76bd ff37 03bf 55a0 523e a214 603d
00000050: a1d8 a7be 6ead 303f 2717 373f beb0 e9be
00000060: c3d3 9ebe 3e21 e13e ebae 313f f926 273f
00000070: 07ac 74be 32f9 083f d473 69be e2c8 223f
0.3478376 0.27536747 0.52108973 0.27622133 -0.14618522 -0.4749782 -0.1577333 0.26504025
0.2722285 -0.3973832 0.26439932 -0.11213879 -0.44831493 -0.22803417 0.58114326 0.057101686
-0.06016749 -0.5125732 0.20568974 0.054707177 -0.32782462 0.6901463 0.715197 -0.45642656
-0.31020936 0.43970674 0.6940753 0.6529384 -0.23893748 0.5350524 -0.22798091 0.6358777

bias f4 [16]
00000000: 35df 9e3c d3a0 0c3f 990b b8be a95a 13be
00000010: e47c 353f fff8 cabe e84b 8a3d 81b4 163e
00000020: 4d40 113f ebb8 8bbe 5669 9d3e 036d 14bf
00000030: b34b 3dbe 50f2 bf3d 2cf5 af3c 00aa 1b3f
0.019393543 0.549329 -0.35946348 -0.14390053 0.7089369 -0.39643094 0.06752759 0.14717294
0.5673874 -0.2728952 0.30744427 -0.5797884 -0.18485908 0.09372389 0.021479212 0.60806274

weight f4 [16, 16]
00000000: 82ef 5abe 2464 de3d 26b1 72be dbfb a9bd
00000010: e312 803d 76ae 41be d07a f7bc 4b05 833e
00000020: b0e6 3bbd 7b05 c5bd 6d4b 0cbe 7b39 6d3e
00000030: 8185 0fbe 8010 5a3d 98d3 433e 006e 22bd
00000040: c0e1 d0bb ec66 54be 1a52 703e d883 023d
00000050: 5a44 2bbe 007c 64bb a67e 2cbe 802f b4bc
00000060: 4c66 74be f270 13be 2010 633d d0ec d63d
00000070: a84b c6bd 48ca 4bbe fca5 a43d 8098 4c3c
00000080: 9284 183d 6296 fabd 903f 113e d124 3fbd
00000090: 5c1e 04bd 9432 083c 5abf 39be 8af6 9abd
000000a0: 14d2 2d3e e627 d53d 5686 8bbc 96e5 b1bd
000000b0: e234 163e d048 3f3e d07f ab3d 3786 6bbe
000000c0: a012 003e 9dcc 03be 3a21 043e e695 7e3e
000000d0: ce77 4f3e 8e26 493e e0d4 fbbd f6cc 4d3e
000000e0: ec82 28be 2679 11be ac46 553e 39b9 17be
000000f0: 864f be3d 9653 533e 9d8d 68be 18c7 623e
00000100: 68b8 cebd fec0 0abe d0c2 dfbc 581f 80bd
00000110: 9481 c23d 38e1 c23d 107d f6bd d0be 94bd
00000120: 10b2 61bd 1cd8 543e 20c1 ca3c 8c8f c33d
00000130: e602 67be ec4b 3cbe a091 5f3d 5a6d 61be
00000140: 87ff 6c3e ce5d c53d f403 633e 44df 213e
00000150: 6ecc c5bb bea2 583e 70c7 a4bd 9b09 2d3e
00000160: b098 b1bd adae 69be 96d3 8dbd 40b1 1abd
00000170: 10a3 423e 697d 5b3e 56c9 fabd 1d96 99bc
00000180: 6810 15bd 5d2a c8bc 74f9 783e d532 f63d
00000190: 7c45 9dbd 0c06 a63d 58bd a33d c706 98bd
000001a0: d843 3cbd 350b fbbd 48e2 803d 4ec1 303e
000001b0: 5b86 033e 340e a6bd dd20 02be 8ba2 f03d
000001c0: b3a7 eb3d 0e0e feba 2ee4 0cbe 6ce6 9fbd
000001d0: fb80 583e 9eaf 623e f005 043d 5a37 593d
000001e0: a060 e63d 25ac e6bd 11c5 fb3d 0978 48be
000001f0: e1ee 4f3e 413c 0d3e e31a e4bd 2fa6 993d
00000200: 71b3 8b3d dd9f 01be 8c34 f13d 40e8 f13d
00000210: 000d 093e 5c48 d93d 403a a33c ec5e f9bd
00000220: 721a 6d3e bc55 31be 2a26 633d c2d8 803e
00000230: 6ebc bfbd 2f6e ea3d a46a c4bd 5e7b 2a3e
00000240: 02f4 7a3e f006 c43d b0d3 e73c 3059 13be
00000250: 1430 fc3d f8db d43d 6080 4f3d 6e59 38be
00000260: f819 72be 0006 75be ecc5 8f3d d878 25be
00000270: 0017 1d3b 521f 77be 54d5 62be 3892 3e3d
00000280: 1ce8 7dbe 9c88 4c3e d85f 303d a049 68bc
00000290: 14c3 4a3e 02d7 493e 429f 26be 000d 823c
000002a0: fae9 2bbe 5c82 2bbe 502b 703e f0af d4bc
000002b0: d074 05bd ce14 63be 163c 4fbe 105c c33c
000002c0: 974b 463d 52fd 0a3e a8c2 823d d937 0a3e
000002d0: b863 9b3d 9f3d 5c3e aa86 0dbe 8340 bb3d
000002e0: 407d 433d 9834 1fbe d575 423e b392 3a3e
000002f0: 3152 803e 3a6b 3d3e 3bf7 e5bd f82f 663d
00000300: 8a1c e23d 440a 693e 7021 c23c 45fd dcbc
00000310: 8704 4f3e aa89 b63d 304c 3a3d 08a5 fb3d
00000320: e612 6fbe 292d 533e f452 673e fc41 c6bd
00000330: d30b 52bd 8d1f 3fbe 7cbc cabd 42c6 0cbd
00000340: 387b f13d 1ceb 58be a2f5 753e caf2 7f3e
00000350: c4c4 f2bd ba2f 563e c4c5 303e 1405 a83d
00000360: 6059 633c 10ce 18bd e0d7 1dbe c03d 18bd
00000370: 4c3f 983d 003c 0bbe 4058 54bd f4ea 47be
00000380: 0897 9b3d 58bb 29bd a47a ce3d 3080 5ebe
00000390: 505c b43c 8ade 413e e4d4 6a3e 0cd5 19be
000003a0: 4872 4a3d 6ee5 7cbe 0cb3 353e 5223 2a3e
000003b0: a485 4abe 5086 fdbd fc9c e33d 8886 81bd
000003c0: a8aa 2abe da7f 63be 40ea 9ebd 4a54 3e3e
000003d0: 1ef7 233e a6cf 653e 82a2 6b3e 6bfe 5dbe
000003e0: 7c0b 03be aff4 cb3d c253 6639 556d 563d
000003f0: ac40 3c3e 465f 6b3e 7638 0fbb baf7 a8bd
-0.21380427 0.10858944 -0.2370039 -0.08299991 0.06253602 -0.18914208 -0.030209929 0.25589976
-0.045874298 -0.09620186 -0.13700648 0.23166458 -0.14015771 0.053238392 0.19123685 -0.039655685
-0.0063745677 -0.20742387 0.2346882 0.031864017 -0.16725293 -0.0034863949 -0.16845188 -0.021995306
-0.23867148 -0.14398554 0.0554353 0.10494387 -0.09682399 -0.19901383 0.080394715 0.012487531
0.037235804 -0.122357145 0.14184403 -0.04666597 -0.032255515 0.00831284 -0.18139401 -0.07566555
0.1697467 0.10408001 -0.01703183 -0.08686368 0.1466861 0.1868012 0.08373988 -0.23000418
0.12507105 -0.12871023 0.129033 0.24861869 0.20260546 0.19643614 -0.12296462 0.20097718
-0.16456193 -0.1420637 0.2082774 -0.1481675 0.09292512 0.20637354 -0.22710271 0.2214626
-0.100937665 -0.13550183 -0.027314574 -0.06255978 0.09497371 0.09515613 -0.120355725 -0.07262957
-0.055101454 0.20785564 0.024750292 0.09548864 -0.225597 -0.18388337 0.05458224 -0.2201437
0.23144351 0.096370324 0.22169477 0.15807825 -0.006036333 0.21155831 -0.08045852 0.16898195
-0.08671701 -0.2282054 -0.069251224 -0.037766695 0.19007516 0.21434559 -0.12245433 -0.018748337
-0.0363926 -0.024434263 0.24313909 0.12021414 -0.07679269 0.08106622 0.07995099 -0.07423168
-0.04596314 -0.12257997 0.0629316 0.1726124 0.12844221 -0.08108178 -0.12707849 0.117497526
0.115065955 -0.0019382851 -0.13758919 -0.07807621 0.21142952 0.22137305 0.032232225 0.053031303
0.112488985 -0.11263303 0.12293447 -0.1957704 0.20305969 0.13792516 -0.11137941 0.075024
0.06821335 -0.12658639 0.11777601 0.11811876 0.13383865 0.106095046 0.019925237 -0.12176308
0.2315462 -0.17317861 0.055456318 0.25165373 -0.09362112 0.11446797 -0.095906526 0.16648623
0.24507144 0.09571636 0.028299183 -0.14389491 0.12313858 0.10393518 0.050659537 -0.18002865
-0.23642719 -0.2392807 0.070201725 -0.1615938 0.0023970008 -0.24133042 -0.2215169 0.046526164
-0.24795574 0.19973987 0.043060154 -0.01417771 0.19800979 0.19710925 -0.1627169 0.01587534
-0.16788474 -0.16748947 0.23454022 -0.0259628 -0.032582104 -0.22175905 -0.20237765 0.02384761
0.04841193 0.13573197 0.06384784 0.13497867 0.07587379 0.21507882 -0.13820902 0.09143164
0.04772687 -0.15547407 0.18990262 0.18220024 0.25062707 0.18497935 -0.11228796 0.05619809
0.110406 0.22757822 0.023697585 -0.026976237 0.20216571 0.08912976 0.045482814 0.122873366
-0.23347053 0.20622696 0.22590238 -0.09680554 -0.051280808 -0.1866438 -0.09899232 -0.03436876
0.1179108 -0.21183437 0.24019483 0.2499496 -0.11853936 0.20916644 0.17262942 0.082040936
0.013876289 -0.03730589 -0.15414381 -0.037168264 0.07433948 -0.13597107 -0.051841974 -0.19523221
0.07597166 -0.04143843 0.100819856 -0.21728587 0.022016674 0.18932548 0.22932774 -0.15022677
0.049425393 -0.24696895 0.17744082 0.16615036 -0.19777542 -0.12379134 0.11113927 -0.06324488
-0.16666663 -0.2221674 -0.077595234 0.18586841 0.16012236 0.22442493 0.2301121 -0.21679084
-0.1279735 0.09958779 0.00021965711 0.05235036 0.18384045 0.22985563 -0.0021853722 -0.08250375

bias f4 [16]
00000000: 900f 053e b481 70be 4051 1b3e b3a9 61bd
00000010: 9031 fb3c 5a30 8b3d 2795 e43d f368 55be
00000020: 7556 e03d 108f 10be e8b5 6b3d 0d5f 033d
00000030: 5422 6e3e 02c5 2c3e 967a 563e 957e 043c
0.12994218 -0.23486978 0.15167713 -0.05509348 0.030663282 0.06796332 0.11161261 -0.20840816
0.1095399 -0.14117074 0.057546526 0.03207307 0.23255283 0.16872028 0.209452 0.00808682

weight f4 [32, 16]
00000000: 91ea fa3c 500e e93c 6725 053e 6f97 cfbd
00000010: 1c04 333e a270 2abd 5675 0d3d 0825 07be
00000020: a25d 643e d872 34be 903e 633e 8480 6e3e
00000030: 85bb 3c3e 1e04 0a3e 701e dcbd 1228 e5bc
00000040: cafe 42be c053 943d 07fb 40be 1d7d 4ebd
00000050: e2a7 76be 73bb 363e 6af1 433e fe31 7fbe
00000060: f393 1bbe 00f5 6c3d 209b 97bd 4637 4abe
00000070: d821 a33d a032 90bd e8bc 24bd beb0 843d
00000080: 9952 a1bd a06b 2cbc 506c 303e b904 bebc
00000090: a40e 263e c252 8ebd 1839 7f3b b565 a93d
000000a0: a98d 4fbe e4d8 e93d 70d4 a93c 6209 91bd
000000b0: 35a4 243e c83c ecbd ec4b cd3d fceb f3bd
000000c0: 267b 00be 900a 4ebe 1cbf 73be 3ccc d7bb
000000d0: fafa 243e d356 08be d834 56bb fb31 f4bc
000000e0: 3349 a53d 50b4 153e a445 e9bd 73e4 4ebd
000000f0: 844c 6cbe 9025 8abd 1e0c 643e 9158 5ebe
00000100: 499e 45be 8446 303e cbed ed3d e17a a3bd
00000110: 8072 28be bf34 513e 99c8 e3bd d41e 50be
00000120: e510 46be 109d 893c b44d df3d 70c6 acbd
00000130: 4095 f93d 4041 11be f038 27bd f4c5 9d3d
00000140: 3e5e e63d 3c72 3d3e 1729 0a3e e118 29be
00000150: 5416 19be d1ce 593e fa14 58be 7f5c 4cbe
00000160: 59c7 87be 701a af3c aa64 303e 87bb 34be
00000170: 00d1 75be 40c7 1bbc d080 73be ad21 eebd
00000180: 7415 643e 40f8 d03b a164 6bbe 35b1 833e
00000190: c0be 143c 9955 a23d a240 0b3d 09c0 73be
000001a0: fe3e 05be 40d2 37bc 22c1 6ebe 5288 c8bd
000001b0: 5389 463e 8aa2 37be 04dc 6dbe b232 e7bd
000001c0: edf5 0a3e 98b7 203e d4f6 b3bd 997e e13d
000001d0: 8e32 3abe e346 083e 6b0d 1e3e c78d 823e
000001e0: 2904 07be b62f 163e f4d0 2bbe 6198 6f3e
000001f0: 4bea 753e 9a29 6a3e 90bb 8cbc 2259 b8bd
00000200: 2c93 aabc d0ec ab3c e228 99bd e8e4 56be
00000210: d0fe 04be 36bf 0a3c b8e4 213e a905 5abb
00000220: 50a3 6abe ba0c 453e 4249 3c3e 4443 1a3e
00000230: e0fc d83d a036 6f3c 6a3b 2a3e 17dc e6bd
00000240: 7294 dd3c f05e 31be 24ed 6fbe 8996 9f3d
00000250: fc0c fa3d 6486 e1bc c905 3bbe f82c c0bd
00000260: 4375 f53d 0433 31be a071 7fbd 4dd3 813e
00000270: 8116 e7bd 88c1 3dbd c0d1 e9bc 04f6 df3d
00000280: 86cc 6bbd a8da 19bd c1e6 f3bd 6f3c cbbc
00000290: c882 17be 6006 36be 1ce5 1abe 5461 4a3e
000002a0: c28b 1fbe b001 bd3c 28c6 a6bd 4380 513e
000002b0: f7c9 013e 9e88 06be d0af 53bd c336 2b3e
000002c0: ff83 da3d 405b d83d 26e0 da3d 4584 5ebe
000002d0: c0b3 43be 0f84 30bd 0792 1c3d e9c6 243d
000002e0: 43ab bf3d 30e2 c43d 58ec 183d b808 113e
000002f0: 7d76 f53d d229 6f3e 98ed e9bd a309 72be
00000300: c606 e13d aa48 72be 95e5 6bbd eb42 393e
00000310: 4ecc 163e f6a8 343c 799f 613d 9065 bcbd
00000320: 9642 31bc a4bf dabd eebf 563e 7b65 78be
00000330: 38db 293e 60e8 963d 18b9 fe3d 17ba 39bc
00000340: f86f 3abe bebb 043e 49de 2d3e a807 bbbd
00000350: 5018 dc3d ac47 e83d 381b 2cbd 5e3e a1bd
00000360: ef8b 16be 82c0 3c3e e054 cc3d 6a86 45be
00000370: 770f 7ebd 80c3 4fbe 9ed9 7abe 27fa 143e
00000380: 9b3b aabb 88e3 d63d 6217 183e 6908 423b
00000390: 2803 f13d 0c49 bbbd 5f4d 513d ffc8 553e
000003a0: 4521 e43d 8a7b 74be 504f 61be 1b4f 463e
000003b0: 1aae 763e d47a 00be c4aa efbd 5c07 653e
000003c0: e3b0 5f3e 08aa 243d 5d63 2dbe 88d2 fa3d
000003d0: fc31 5dbe d453 1a3e a64a 5dbd 46a5 7f3d
000003e0: 74a6 92bd 6063 583d a4ca 903d 55be 8abd
000003f0: 1d9b 6c3d b4c0 153e 5cb0 0c3e 2527 4f3e
0.030629428 0.028449208 0.13002549 -0.101363055 0.17482036 -0.04161132 0.03453573 -0.1319772
0.22301343 -0.17621934 0.22191834 0.23291212 0.18430908 0.13478133 -0.10747993 -0.027973209
-0.19042507 0.072425365 -0.1884576 -0.050412286 -0.2408748 0.17844944 0.19135061 -0.24921414
-0.15193157 0.057850838 -0.074026346 -0.19747648 0.079654396 -0.07040906 -0.040219218 0.064790234
-0.078770824 -0.010523707 0.17228818 -0.023195611 0.16216522 -0.069493786 0.0038943943 0.08271352
-0.20268883 0.11418322 0.02073118 -0.07081868 0.16078265 -0.115350306 0.100242466 -0.11910245
-0.12546977 -0.20121217 -0.23803371 -0.006585626 0.16111365 -0.13314371 -0.0032685306 -0.029808989
0.08070602 0.14619565 -0.11390236 -0.050510835 -0.23076063 -0.06745446 0.22270247 -0.21713473
-0.19298662 0.172144 0.11617621 -0.07982422 -0.16449928 0.20430277 -0.11122245 -0.2032426
-0.19342382 0.016798526 0.109034926 -0.084362864 0.1218667 -0.14185047 -0.040825784 0.07703772
0.11248444 0.18500608 0.13492237 -0.16513397 -0.14949924 0.212703 -0.21101752 -0.1995716
-0.26519278 0.021374911 0.172259 -0.17649661 -0.24005508 -0.009507954 -0.23779607 -0.11627517
0.22273809 0.00637725 -0.22987606 0.25721136 0.0090786815 0.07926483 0.033997186 -0.23803724
-0.13012311 -0.011219561 -0.23315862 -0.09791626 0.19388323 -0.17933097 -0.2322846 -0.11288966
0.13570376 0.15695035 -0.08787313 0.11010475 -0.18183348 0.13308291 0.15434806 0.25498793
-0.1318518 0.14666638 -0.16778928 0.23397972 0.24015157 0.22867432 -0.01717928 -0.09001376
-0.02082213 0.020986944 -0.07478501 -0.20985758 -0.12987828 0.00846844 0.15809906 -0.0033267534
-0.22913861 0.19243136 0.1838732 0.15064722 0.10595107 0.014600426 0.16624227 -0.112724476
0.027048323 -0.17321372 -0.23430306 0.07792384 0.12209508 -0.027529903 -0.18263926 -0.09383577
0.119852565 -0.17304617 -0.06236422 0.25356522 -0.11283589 -0.046327144 -0.0285424 0.10935596
-0.057568096 -0.037562042 -0.11909247 -0.02480909 -0.14795983 -0.1777587 -0.15126461 0.1976369
-0.15580657 0.023072094 -0.08143264 0.20459084 0.126747 -0.13138053 -0.05168134 0.16720109
0.106697075 0.105642796 0.10687284 -0.21730144 -0.19111538 -0.04309469 0.0382252 0.040228758
0.093588375 0.09613454 0.03733477 0.14163482 0.119854905 0.23355797 -0.114222705 -0.23636489
0.1098762 -0.23660532 -0.057591993 0.18091933 0.14726374 0.011026612 0.055083726 -0.09199059
-0.010819098 -0.10681084 0.20971653 -0.24257462 0.16587532 0.07368541 0.124376476 -0.011335871
-0.18206775 0.12962243 0.16979326 -0.0913232 0.10746825 0.11341795 -0.042018145 -0.07873224
-0.14701818 0.18432811 0.09977126 -0.19289556 -0.062026467 -0.20289421 -0.24497077 0.1454855
-0.005195094 0.10492617 0.1485267 0.0029607064 0.1176818 -0.09144792 0.051099177 0.20877455
0.11139158 -0.23875251 -0.22002912 0.19366114 0.24089852 -0.12546855 -0.11702493 0.22366089
0.2184482 0.040201217 -0.16932435 0.12247187 -0.21601099 0.1507104 -0.05402627 0.062413476
-0.07160655 0.052829146 0.07069901 -0.06774584 0.057765115 0.14624292 0.13739151 0.20229776

bias f4 [32]
00000000: 0698 a63d edeb 08be 0a87 77be 21af 343e
00000010: ed05 1b3e b910 1c3e c82d 1f3e 8a6b 54be
00000020: 0698 70be fd8a 3dbe d7ef cb3d 4567 953d
00000030: d151 6ebe b598 b7bd 8eb6 2abe 30ab 663e
00000040: 4f93 c6bd 569a 6dbe 0420 20be 9f3c 543e
00000050: d8bd 753c 0906 41be 216e f7bd 9356 023e
00000060: d1be ddbd 62d2 8d3d 9531 edbc b3f6 0bbe
00000070: 2768 07be a2e7 103c 4dc5 b13d ecd0 22bd
0.08134465 -0.13371249 -0.24172607 0.17644931 0.1513898 0.15240754 0.15544808 -0.20744148
-0.23495492 -0.18510051 0.09957855 0.07295088 -0.23273398 -0.089646734 -0.16671202 0.2252624
-0.09696066 -0.23203406 -0.15637213 0.2072625 0.014998876 -0.18849958 -0.12081552 0.12728338
-0.10827411 0.06924893 -0.028954307 -0.13668327 -0.13223325 0.008844288 0.0868021 -0.039750025

weight f4 [16, 4]
00000000: 1836 a83e 0e65 343e 79e2 38be 5f2a 57be
00000010: 8962 f13d 3ce4 e4be 5aa3 ddbe 4694 c4be
00000020: 0090 42bb 9449 083e d821 a7bd e0d8 d33c
00000030: 6065 6dbe e06a 78bd 3001 96be c061 af3c
00000040: 768a e0be 64e6 61be 9c5e 28be 28fc f4bd
00000050: 8075 00be bc98 0c3e 769f e73e ac54 2fbe
00000060: 76dc fa3b 4db9 153d 5969 8e3e 8851 c2be
00000070: cb9c 113e bb7f 203e fc7c 9dbe 1f5d 023f
00000080: 8a4d d3be c89a c93e d8f3 eebd 085b f53e
00000090: 983f 5bbe 3ad9 8dbe 008e 713c 00b5 f6bc
000000a0: bea9 133e e5d1 ca3c 08bb 1fbe 5dad 41be
000000b0: e4be e83e 0e23 013e b5c0 173e 461c e2bc
000000c0: f4d1 c63e 7d08 ea3e c692 ed3d 2c7e 3cbe
000000d0: 1bfa 363e 1370 733d 487f 99be d46b 5a3d
000000e0: ac92 34be 24c0 d33e e8df 393e b4ea 20be
000000f0: 5ae9 10bd 4243 b13e 7d94 ae3e 38f2 ec3d
0.3285377 0.17616674 -0.18055142 -0.21012257 0.11786372 -0.4470538 -0.4328869 -0.38394374
-0.0029687881 0.13309318 -0.08160752 0.02586025 -0.23183203 -0.0606488 -0.2929778 0.021408916
-0.43855637 -0.22060543 -0.1644234 -0.119621575 -0.12544823 0.13730139 0.45238847 -0.17122144
0.0076556755 0.03655367 0.2781475 -0.37952828 0.14219968 0.15673725 -0.30759418 0.5092334
-0.41270095 0.393759 -0.11667603 0.47921014 -0.21410978 -0.27704793 0.014743328 -0.030115604
0.1442022 0.024758289 -0.1559869 -0.18913789 0.45458138 0.12611029 0.14819606 -0.027601372
0.38832057 0.457096 0.116002604 -0.18407506 0.17868845 0.059433054 -0.2997992 0.05332549
-0.17634076 0.4135753 0.1815182 -0.15714532 -0.03537879 0.34621626 0.34097663 0.11569637

bias f4 [16]
00000000: 4462 de3e a3f4 003f 6afd 82be 80c4 ea3b
00000010: d684 e2be 7cd4 cabe 9621 ed3d 7fed 943e
00000020: e423 29be 1205 e53e 5c35 e5bd d247 383e
00000030: 7e12 d33d 1214 933d 40b4 ddbc 6825 ba3d
0.43434346 0.50373286 -0.25583965 0.007164538 -0.4424197 -0.39615238 0.11578672 0.29087445
-0.16517597 0.4473043 -0.11191818 0.17996147 0.103062615 0.071815625 -0.027063489 0.09089166

weight f4 [16, 16]
00000000: 40e0 cb3d a92a 873e 3c61 71be 8ef2 07be
00000010: 9c20 c1bd 38c5 273d 4b79 19be f19e 313e
00000020: bab2 6dbe 64cf fe3d b20d 373e 46a1 7f3d
00000030: ae12 6abc 9026 943d a8fe 1e3d fdfd 22be
00000040: eea7 693d ea9c 0d3e 00a6 16bb 5207 253e
00000050: beb3 0c3e 1ce8 1cbe 7af5 cbbd d1e2 8e3e
00000060: 6272 0cbe f07d 7abd 6011 3e3e b211 fd3d
00000070: 64de 10be 87e1 893e 74cf 833d 34d5 863d
00000080: 78f7 53bd 40cc 793e 5adf 393e 80fb bbbc
00000090: a09a 74be d05e e63d 6c62 9d3d 4403 5d3e
000000a0: 8079 673b c892 ba3d 46d3 44be 30cb 943d
000000b0: ec68 63be 16fa 69be 5c9a df3d c0fa 91bc
000000c0: a180 82bd e88c eabc 8ca3 0dbe 144f 5c3e
000000d0: ee8c 083e 288f 71be 8ebd 0e3e 1d87 adbd
000000e0: 00c9 7bbe d8ed 9f3d 651c 613c 4cfa 7a3e
000000f0: cb31 053e 5f05 b73d 20c7 d4bd d2f0 5ebd
00000100: 6ed6 293e 60a2 37bc e6cb 2a3e 9ca1 42be
00000110: b8bf 293d 4629 2bbe c4cb 6fbe 8810 38bd
00000120: 5078 ce3c 52ae 2ebe a049 b3bc 12bb 13be
00000130: 406b 733d 4820 cfbd 70e4 edbc 78e7 adbd
00000140: c4b1 69bd 81f0 0c3e 78b5 96bd 4c07 1c3e
00000150: 22ae 263e 642c 0dbe cb80 793e 9e96 28be
00000160: a0a1 133c d2c4 4f3e 74d3 c03d 75ea 3a3d
00000170: 7196 813d 1fc7 523e e607 053e dddc c0bd
00000180: ec20 7b3e a4da edbd 30f9 0ebe 1a53 1f3e
00000190: 868d 30be 5010 7a3d 98a5 19bd e02e 8b3c
000001a0: 986e a5bd 5037 c43d 34e0 1f3e 2aac 47be
000001b0: d03f 89bd 0842 08be f031 2abd 5833 f13d
000001c0: f4ed 32be 1011 bcbd 5657 5f3e 6425 843d
000001d0: a063 d0bc 243e 2c3e c036 31bd 14af 1cbe
000001e0: 20ce 75be cc98 b5bd 8851 35be bad7 44be
000001f0: a439 5e3e a87d 66bd 8673 333e 9ea6 61be
00000200: 6c50 13be 402f 933d d049 7abd ec77 dabd
00000210: 40b5 dbbd 1089 e0bc e616 f6bd f7fc 30bd
00000220: 40ba 233c ac59 e23d 1271 0abe d8ba 503e
00000230: 6215 08be 2f68 fb3d fe9a 3cbe f0d0 183e
00000240: b6b2 6dbe aac7 3cbe d04b b9bc 3c24 f43d
00000250: e0d6 6c3d 0066 2ebb 60b5 c0bd a855 103d
00000260: e4c0 ad3d 785d 063e a43d 39be ce0e 123e
00000270: e0b6 15be 8cd5 36be 3c87 b1bd 2064 25be
00000280: 5468 45be 689a c43d 943e 6fbe 1c11 ffbd
00000290: 787c ee3d 605a f5bd 5ca2 31be d8fe a23d
000002a0: 701e ebbc 4edf 1e3e 4064 fb3b f854 9d3d
000002b0: b248 76be e88e aabd c071 003d 0010 7cbd
000002c0: 594d 0cbe 677f 48bb 2a69 2a3e 30ea bdbd
000002d0: 9a77 603e 3894 63bd 6f4b 683a 2e9a b9bd
000002e0: e0e7 d5bd baf2 0dbe 931e 103e 495d fe3c
000002f0: 79f9 af3c d649 353e e466 ccbd 9a79 443d
00000300: 6cec abbd 7031 55bd 10a3 5bbe 0c10 bb3d
00000310: c6c4 6ebe ec32 28be 3838 01bd e64e 4a3e
00000320: b2e8 253e a0e5 453c b4ad 14be 3453 2d3e
00000330: 1009 76be 54d0 0abe 3086 76be 549c babd
00000340: c2dd f6bd 7e21 3d3e fc69 f5bd 902f 83bc
00000350: 7ccc bdbd 60c3 b93c 4e35 3dbe 1ead 75bd
00000360: be40 5c3e 84da d13d c31b 2fbe 75eb 5b3e
00000370: b00e 2c3e a9bb 843e aa3d 2f3e f5d5 6fbd
00000380: 0070 8338 ea08 48be 18f7 2f3e 44f0 47be
00000390: 987d fb3d 60f6 b0bd fcec 73be daf8 14be
000003a0: d204 14be 4e91 253e 0815 66bd ae60 5abe
000003b0: c03e aebb 10b9 40bd 8487 2d3e 8cdc 30be
000003c0: cde6 33be b208 df3c c4fc 00be e026 43be
000003d0: f412 4dbe 484f 7ebd e942 71bd 2488 2a3e
000003e0: 2863 49bd 42a9 2c3e bb41 083e 7a49 6ebd
000003f0: afca 863e df2e 543e 4013 be3d d0d7 453d
0.09954882 0.26399735 -0.23572248 -0.13276121 -0.09430048 0.040959567 -0.14987676 0.17345788
-0.2321271 0.124419 0.17876318 0.06240966 -0.01428668 0.07233918 0.038817078 -0.15917201
0.057044916 0.13829389 -0.0022987127 0.16116074 0.13740441 -0.15322918 -0.0995893 0.27907422
-0.13715509 -0.06115526 0.18561316 0.12356891 -0.14147335 0.26929876 0.06436053 0.06583634
-0.051749676 0.24394321 0.18151608 -0.022947073 -0.2388711 0.11248553 0.07684788 0.21583277
0.0035320222 0.091100276 -0.1922122 0.072653174 -0.22207993 -0.22849306 0.109181136 -0.017819762
-0.0637219 -0.028631642 -0.1383192 0.21514541 0.1333501 -0.23589766 0.13939497 -0.084730364
-0.24588394 0.07809037 0.01373968 0.24509543 0.13007276 0.08936571 -0.103895426 -0.054428883
0.16585705 -0.011208147 0.16679344 -0.19006962 0.041442603 -0.16714963 -0.23417574 -0.04493764
0.025203854 -0.17058685 -0.021885693 -0.1442683 0.059428453 -0.10113579 -0.029039592 -0.08491415
-0.057054296 0.1376362 -0.07358831 0.15237159 0.16277364 -0.13786465 0.24365537 -0.16463706
0.009010702 0.20289925 0.094153315 0.045633752 0.063275225 0.20583771 0.12991294 -0.09417126
0.24524277 -0.11613968 -0.13962245 0.15559044 -0.17241487 0.061050713 -0.037511438 0.016990125
-0.08077735 0.095808625 0.1561287 -0.19499269 -0.067016244 -0.13306439 -0.04155153 0.11777371
-0.17473584 -0.09182942 0.2181066 0.06452444 -0.02543813 0.1682058 -0.043265104 -0.15301162
-0.24004412 -0.08867034 -0.17706883 -0.19222918 0.21701676 -0.05627218 0.17524537 -0.22036216
-0.14386147 0.071867466 -0.06110555 -0.106674045 -0.1072793 -0.027409106 -0.12016086 -0.043209996
0.009993136 0.1105226 -0.13519695 0.20383775 -0.13289407 0.12275731 -0.184185 0.14923453
-0.23212704 -0.18435541 -0.022619158 0.11920974 0.05782211 -0.002661109 -0.094095945 0.03523794
0.084840566 0.13121593 -0.1808992 0.1426346 -0.14620543 -0.17854899 -0.08668372 -0.16151476
-0.1927808 0.09599763 -0.23363715 -0.12454435 0.11644834 -0.11980128 -0.17347091 0.07958764
-0.028701037 0.15514871 0.007671863 0.07682222 -0.24051169 -0.083280385 0.03135848 -0.061538696
-0.13701381 -0.0030593516 0.1664168 -0.09273183 0.21920624 -0.055561274 0.0008861338 -0.090626106
-0.10444617 -0.13862124 0.14074163 0.031050341 0.021481263 0.17703947 -0.09980562 0.04796753
-0.08394703 -0.0520491 -0.21448922 0.0913392 -0.2331725 -0.16425675 -0.031547755 0.1975666
0.16202047 0.012078673 -0.14519387 0.1692627 -0.24026895 -0.13556033 -0.24074626 -0.091118485
-0.12054016 0.18469808 -0.119831055 -0.01601389 -0.09267518 0.02267617 -0.18477365 -0.05997955
0.21509072 0.10246757 -0.17100434 0.21476538 0.16802478 0.25924423 0.17113367 -0.058553655
6.2674284e-05 -0.1953465 0.17184103 -0.19525248 0.122798145 -0.08640742 -0.23820871 -0.14548054
-0.14454964 0.1616871 -0.0561724 -0.21325943 -0.005317539 -0.04705149 0.16946226 -0.17271632
-0.17568512 0.027225826 -0.12596422 -0.19057798 -0.20026761 -0.062087327 -0.0589017 0.16653496
-0.04916683 0.16861442 0.13306324 -0.05817554 0.2632651 0.20721005 0.092810154 0.048301518

bias f4 [16]
00000000: 2eed 373e fc9e f3bd a051 2c3d 3767 37bd
00000010: dc5e 4ebe 908e 27bd b8be e1bd 9009 4a3e
00000020: fd47 c3bd 7c11 a73d 8852 103d 689b 143e
00000030: f0ff 5cbd 271c 40be 7608 49be 5c60 203d
0.1796157 -0.11895558 0.04207003 -0.044776168 -0.20153373 -0.040907443 -0.11022705 0.1973021
-0.09535215 0.08157632 0.035234958 0.14512408 -0.05395502 -0.1876074 -0.19632134 0.039154395

weight f4 [32, 16]
00000000: 1592 1c3e b90e 793e 40cc 0f3e 408b 6b3c
00000010: e062 583d b51a b0bd fe55 433e e8c4 b23d
00000020: 25e4 f33c 30c6 dd3d a0ec 493e d37f 3e3e
00000030: 2632 5dbe 3610 d2bd 7417 853d 2275 32be
00000040: 5acd 503d 41be 733e 4a83 5f3e 4d88 053e
00000050: 805f 4fbd 59bd 3cbe c4e0 503e 5608 40be
00000060: c29e 71bd 404d 7ebe 28fd 273e 23ab 6f3e
00000070: f8b2 f4bd 65fb c13c 68b9 84bd 5787 07be
00000080: 346f 6cbd 91a5 083e 2e47 743e 560a aebd
00000090: 1289 20be e989 893e 1028 073e de66 72be
000000a0: 973a a93d e4d3 913d 14ea 133e fc31 e4bd
000000b0: 4eff 62be 9a76 4e3e 50db c4bc d673 b43b
000000c0: 9f3e 89be aee7 983c 2c52 6c3e 0357 4b3e
000000d0: 9041 f23d 4120 b63d 5243 20be e26b 2e3e
000000e0: 5a08 263e aa95 773e 4424 a73d dc9c c4bd
000000f0: ba78 2b3e 2301 8e3c b09c 43be 0c5c 02be
00000100: be8c 45bd c770 edbc 667d 24be 52ef 44bc
00000110: 38f4 4abd 1ba9 f8bd 6ec3 5dbe f090 1c3d
00000120: d56a eaba 3661 5a3e 4c83 243e efe1 57bd
00000130: a452 523e bd67 56be 8667 17be 9795 01ba
00000140: 3838 473e 5e09 893e f848 b13d 0f08 ccbd
00000150: 9676 533e 100b aebd 7cca 6ebe 00c8 7b3e
00000160: b056 55be ba89 7ebe 0ef0 273e 777d 21be
00000170: b2df 573e 7b82 a83d 60ac 5d3c b6fd a43c
00000180: 1401 57be ef39 353e 0ae2 78be 5635 1dbe
00000190: 3c04 893d 1367 f4ba 6ae8 1d3e 2657 38be
000001a0: 38c6 85bd a04b aabd d49d a3bd f444 4b3e
000001b0: b690 403e e314 1abd a46a e23d 6336 b33c
000001c0: ccc8 b6bc 1482 233e c076 303c 6503 5a3e
000001d0: 9835 31be 2a23 763e 783b 1f3d e007 713e
000001e0: bf45 2bbc 0878 b5bd 6466 a2bd 48a5 523d
000001f0: 644d b7bd 7218 9b3d e013 493d 5209 e13d
00000200: d84f 26be 6512 04be 94c8 1f3e 56bd 41bd
00000210: bcfe a03d e486 cbbd 4c05 c8bd 72e7 29be
00000220: f7c1 033e 7a8a 2fbe cc4b 2dbe 5d18 de3d
00000230: 8a1a 103e f86c 1bbe 4661 09be f683 b8bd
00000240: 2974 88bd 4a24 1c3e 5cf9 90bd da2c c0bd
00000250: b08e 9b3d f2af 5c3e 1c7e 053e c03b 823c
00000260: 58b2 183e fc70 4dbe 2059 593c 00e3 eabd
00000270: f0b0 04be 8b51 8dbe d4c2 b1bd 67dc 4bbe
00000280: 0bc2 233e e50a 853c b0ac 1dbd 46e7 e7bd
00000290: 8078 54bb 2897 a03d 3c92 66be a4bb 47be
000002a0: 92ee 293e 9aa4 1ebe c4f2 233e dfca 333e
000002b0: c0b4 523c 6727 8b3e 7018 2dbe d397 1f3e
000002c0: fae5 1dbd 3f82 033c 306b d03d 57f9 b53d
000002d0: 5afa 09be 36b4 b2bd 2091 8abd c01e 38bc
000002e0: b62e 66be 508e f13c 58d6 04be 02e1 89bd
000002f0: 685d 583d 0dfe 72be 4ce3 623e 1b9d 64be
00000300: e088 873d 165d fe3d cccf 15be a4ab 7c3e
00000310: c87f 1dbd e15c 843e 401c 1ebd cc84 60be
00000320: e1c1 4cbe e45b f43d d06b 62bd 2314 0abe
00000330: 46b0 51be d9f2 0a3e 36a5 7e3e 0616 5a3d
00000340: f6ef 2ebe b74c 70be b8b9 12bd eed6 10be
00000350: a461 f03d cb94 3dbe 50fa 11bd 7679 65be
00000360: 140e 6f3d 2ce6 d9bd f6c6 203e e58f aabb
00000370: f804 8bbd 756c a43b 40f6 883b 1b6d c4bd
00000380: b47c 6cbe f03e 57be 74a7 a33d 733e 25be
00000390: 901c 4fbe 1642 163e 92b6 34be 788f ac3d
000003a0: a639 4cbd 889d ee3d e086 19be 4b8c fb3d
000003b0: 3c58 24be dc16 05bc 20fb 39be 5d63 423e
000003c0: e97f d53d 0c0e 34be c2dd 733e 1e72 afbd
000003d0: fc5b af3d a843 8b3d 10ab e63d e05c 2d3e
000003e0: 3df4 65be 081c 1abd f85b 0cbe da0d 9abd
000003f0: 661a 343e ef91 aabc 1041 19be 291d 8cbe
0.15290101 0.24322022 0.14042759 0.0143764615 0.05282867 -0.08598844 0.19075772 0.08728963
0.029771874 0.10828817 0.19719172 0.18603449 -0.21601161 -0.10256998 0.06498614 -0.17427495
0.05097709 0.23803045 0.21827427 0.13040276 -0.050628185 -0.18431605 0.20398241 -0.1875318
-0.058989294 -0.24834156 0.16405165 0.23405127 -0.11948198 0.023679445 -0.06480676 -0.13235222
-0.05772324 0.13344409 0.23855278 -0.08498065 -0.15677288 0.2686303 0.13198876 -0.23672053
0.08263128 0.07120493 0.14444762 -0.11142346 -0.22167704 0.2016243 -0.024030358 0.005506973
-0.2680559 0.018665161 0.23078221 0.19857411 0.11828911 0.08892871 -0.1565068 0.17033342
0.16214123 0.24178186 0.08161214 -0.09600231 0.16745272 0.017334526 -0.1910274 -0.12730426
-0.048229925 -0.02898444 -0.1606346 -0.012019949 -0.04954931 -0.12141629 -0.21656582 0.03822416
-0.0017884622 0.21326146 0.16065711 -0.0527057 0.20539337 -0.2093801 -0.14785585 -0.000494325
0.1945504 0.2676496 0.08656496 -0.099624746 0.20650706 -0.08498204 -0.23319429 0.24588013
-0.2083385 -0.24857226 0.16400167 -0.15770517 0.21081427 0.08228012 0.013529867 0.02014051
-0.20996505 0.17697881 -0.24304977 -0.15352377 0.06690261 -0.0018646441 0.1542069 -0.18001994
-0.06531948 -0.083152056 -0.07989088 0.19850522 0.18805203 -0.037617575 0.11055496 0.02187652
-0.022312544 0.1596759 0.0107705 0.21290357 -0.173056 0.24036852 0.038875073 0.2353816
-0.0104536405 -0.08860785 -0.07929686 0.051427156 -0.08950308 0.07573022 0.04909122 0.10988106
-0.16241395 -0.12897642 0.15603858 -0.047299705 0.07861087 -0.09937838 -0.09766635 -0.16592196
0.1286696 -0.17142668 -0.16923445 0.10844491 0.14072624 -0.15178287 -0.13416013 -0.090095446
-0.06662781 0.15248218 -0.070788115 -0.09383555 0.07595575 0.21551493 0.13036388 0.015897632
0.14911783 -0.20062631 0.013265878 -0.11469078 -0.12958121 -0.27601275 -0.08679739 -0.19908296
0.1599199 0.016240546 -0.038494766 -0.11323409 -0.0032420456 0.07841331 -0.22516721 -0.19505173
0.16594914 -0.15492478 0.16010576 0.17557858 0.012860477 0.271785 -0.16903853 0.1558526
-0.0385494 0.008026659 0.101766944 0.088854484 -0.13474408 -0.08725779 -0.06765962 -0.0112378
-0.22478756 0.029486805 -0.1297239 -0.0673237 0.052823454 -0.23729725 0.2215702 -0.22325556
0.06617904 0.124200985 -0.1463005 0.2467485 -0.03845194 0.2585211 -0.03860116 -0.21925658
-0.19995834 0.11931589 -0.0552786 -0.13484244 -0.20477399 0.13569202 0.2486771 0.05324366
-0.17083725 -0.23466764 -0.035821646 -0.14144489 0.117373735 -0.18513791 -0.035639107 -0.22409615
0.058363035 -0.10639605 0.15700898 -0.005205142 -0.06788057 0.005017812 0.004179746 -0.09591123
-0.23094445 -0.21020103 0.079909235 -0.16137104 -0.2022574 0.14673647 -0.1764777 0.08425802
-0.049859665 0.116511405 -0.14992857 0.12282618 -0.16049284 -0.008123126 -0.18162203 0.18983217
0.104247876 -0.17583483 0.23815063 -0.08566688 0.085624665 0.06800014 0.11263096 0.1692996
-0.22456451 -0.03762439 -0.13706958 -0.07522173 0.17588195 -0.02082154 -0.14966226 -0.27365997

bias f4 [32]
00000000: f8ef 42be a326 34bd b1d9 1abe 3e50 83be
00000010: e6d7 5a3d 41f1 a1bc 1895 0abe 72a9 563e
00000020: 99ef 24bd 292a 0e3d a7fb b6bd 8662 73be
00000030: 7111 35bd ae42 ccbd 6ab9 48be 5ec6 52be
00000040: 39d6 a83d 6e56 473d f959 52be d7df 3bbe
00000050: 719c dcbd 4063 e03c f63f 213d 1886 55be
00000060: f2b1 753e 6a4e 6b3e a5f7 ef3d 3ca8 73be
00000070: 1f19 55be b66f 83be f9c7 5b3e 5230 383e
-0.19036853 -0.04398216 -0.15122105 -0.25647157 0.053428553 -0.01976836 -0.13533437 0.20963076
-0.04026756 0.034708176 -0.089347176 -0.23768052 -0.044206087 -0.09973656 -0.1960198 -0.20583484
0.08243985 0.04866641 -0.20542134 -0.18347107 -0.10772026 0.027391076 0.03936764 -0.20851934
0.23993662 0.22979131 0.11717156 -0.23794645 -0.20810364 -0.25671166 0.21463002 0.17987183

weight f4 [16, 2]
00000000: 7ad2 1abf 9705 2d3f 874b 193f ded9 9b3e
00000010: 5b86 183f c832 c53d 806f 403d 7cf6 2cbf
00000020: 49ef 253f 4042 5abd c8f6 4e3e 5844 8e3d
00000030: ea4b 28bf 367f d03e e848 7b3e dd89 173f
00000040: f98a bfbe 76ca 923e db40 2abf 3652 803e
00000050: 2038 28bd b520 233f f7c6 02bf 0de6 05bf
00000060: e263 ce3e ce40 c93e 66b5 14bf 40e8 f63c
00000070: e4ed c7be aa49 31bf 8242 24bf aa23 d63e
-0.6047741 0.67586654 0.5988087 0.30439657 0.5958001 0.096288264 0.046981335 -0.67563605
0.64818245 -0.053285837 0.20211327 0.06946629 -0.65740836 0.40722054 0.2453953 0.5919474
-0.37410715 0.2867009 -0.6650521 0.25062722 -0.04106915 0.6372178 -0.51084846 -0.52304155
0.4031058 0.39307255 -0.5808929 0.030140042 -0.39048684 -0.6925303 -0.6416398 0.41824085

bias f4 [16]
00000000: b434 243e fc22 13be 912b 063f 670c a5be
00000010: 44c2 54be 5a74 da3e 8963 09bf 6090 4a3e
00000020: 2277 963e 55e0 303f 61c3 a3be c720 233f
00000030: c032 44bd 6c49 4abe 201d 1a3e d49f 18be
0.1603573 -0.14368814 0.5241023 -0.32236025 -0.20777231 0.42666894 -0.53667504 0.19781637
0.29387766 0.69092304 -0.31985 0.6372189 -0.04789996 -0.1975457 0.15050173 -0.1490472
