549logs/测试preditor激活函数与global_pool_size(不含mse label_smoothin=0.1)/preditor_network.MLP.act_fun=tanhweight_network.AdaptiveCNN.global_pool_size=1/test_model_20250427_203130.pth (torch, 907107 bytes, 78 tensors)

weight_function_network.initial_cnn.0.weight f4 [8, 1, 3, 3]
000000 4e 8c e2 3d a5 92 85 3e 3b 2c 54 bd f5 9c 75 be
       0.11061917 0.26088443 -0.051799994 -0.23985656
000010 b2 49 c9 bd d9 5f 80 3d 53 a9 65 3e e0 77 74 3d
       -0.098285094 0.062682815 0.22427873 0.059684634
000020 ee a1 95 3d ba f3 9e 3e 95 d6 fc 3d 54 f8 72 be
       0.07306276 0.31045324 0.12345616 -0.23727542
000030 1a d9 a4 bd a0 0d 94 3e 6d 02 e2 3d c8 a8 59 bd
       -0.08049221 0.28916645 0.11035619 -0.053139478
000040 c2 9f 07 3d 34 05 a9 be fc 3d 19 3e 2a 19 10 be
       0.03311134 -0.33011782 0.14965051 -0.140721
000050 74 6e 05 3e 04 dc 5c be 0f d2 0a 3e a6 7c ab bb
       0.13030416 -0.21568304 0.13556693 -0.005233365
000060 ce f5 8e 3e d1 90 92 3e 39 80 70 3e 85 28 83 bd
       0.2792191 0.2862611 0.23486413 -0.06404213
000070 9f 65 0d bd a4 18 1b be fd b9 89 be 45 46 08 bc
       -0.03452074 -0.15146118 -0.2689971 -0.008317535
000080 5e 03 21 3e 41 b9 40 3d 73 33 9f be bb fb 80 be
       0.1572394 0.047051672 -0.3109394 -0.25192055
000090 13 cf 39 be a3 67 62 3e dd 2a 5f 3d 76 ba 59 bd
       -0.18145399 0.22109847 0.054484237 -0.05315634
0000a0 1a a7 97 be 78 78 1a 3d 0e 70 65 3e e3 cd cc 3d
       -0.29619676 0.037712544 0.22406027 0.10000207
0000b0 56 81 a0 be 4e 89 1f be bd 82 44 be 64 31 6d 3e
       -0.31348675 -0.15579721 -0.19190498 0.23163372
0000c0 a1 6f 8e 3e 62 01 1d 3d fe b2 46 3e 01 33 67 3d
       0.2781954 0.038331397 0.19404218 0.056445125
0000d0 7f 4d 0f 3e 09 42 05 3e 42 a5 e3 bd 48 fb f3 bd
       0.13994406 0.13013472 -0.11115505 -0.119131625
0000e0 e4 bf 25 3d 50 00 0b 3e 48 18 02 3e ad 5b 8b 3d
       0.040466204 0.13574338 0.12704575 0.06804595
0000f0 08 f5 86 3e 3b 7b aa bd ba d5 e8 bd ba b6 61 be
       0.2635882 -0.083242856 -0.1136889 -0.22042361
000100 16 09 a5 3d 2a e7 10 3e 9e 02 cb bd d3 3c 58 3e
       0.08058374 0.14150682 -0.099126086 0.21116953
000110 3b d6 21 3e 91 fb 93 be de aa 8f 3e a9 33 d4 3d
       0.15804379 -0.28902867 0.2806005 0.10361416

weight_function_network.initial_cnn.0.bias f4 [8]
000000 50 de 27 bd 52 a3 77 3e 72 46 5c bd aa 34 bb 3d
       -0.040983498 0.24183396 -0.05377812 0.09140904
000010 9d 4d e0 3d 04 a2 c1 bd 5b 58 04 3d 42 85 26 3e
       0.109523036 -0.0945473 0.032310825 0.16261771

weight_function_network.initial_cnn.1.weight f4 [8]
000000 18 f9 7e 3f d2 7c 80 3f d4 75 7d 3f b2 2d 81 3f
       0.99598837 1.0038092 0.99007916 1.009207
000010 07 f9 7e 3f bc bf 7c 3f d2 44 80 3f 39 39 81 3f
       0.99598736 0.98730063 1.0021002 1.0095588

weight_function_network.initial_cnn.1.bias f4 [8]
000000 7f a9 22 bc b7 d2 ea bb 9d 8f c0 bb 7c ba 47 3b
       -0.009928106 -0.0071662324 -0.005876495 0.0030476144
000010 b9 ad 4a bc e9 01 8f bc ec 5b de b8 fc 55 ab ba
       -0.01237052 -0.017456966 -0.00010602907 -0.001307189

weight_function_network.initial_cnn.1.running_mean f4 [8]
000000 df 66 0c 3e aa 6b a1 3e 05 7a a6 3e 7a 85 9a be
       0.13711117 0.31527454 0.3251497 -0.3017996
000010 19 3d 8e 3c 83 cf 66 3e 15 b6 fe 3d 1c 80 a6 3e
       0.017363118 0.22540097 0.12437073 0.32519615

weight_function_network.initial_cnn.1.running_var f4 [8]
000000 d5 32 ce 3c 2d 1e 6f 3c 11 a7 f1 3d 9f cc fd 3d
       0.025170723 0.014594597 0.117994435 0.12392544
000010 70 26 0b 3c 5b 9d b1 3d fe 54 1a 3c a0 c7 14 3d
       0.008493051 0.08672591 0.009419678 0.03632319

weight_function_network.initial_cnn.4.weight f4 [16, 8, 3, 3]
000000 6f af 2a bd c1 4c ba bd c6 1a ca 3d 3c 6c 14 bd
       -0.041671213 -0.09096671 0.09868388 -0.036236033
000010 9c bd e6 3c 7a 2b 4d b9 7f 96 67 bd db d1 0c bd
       0.028166585 -0.0001956652 -0.05654001 -0.03437982
000020 7f 34 c6 bc ab d7 e6 bd 84 ee ca bd 6a 9f 98 bc
       -0.024194954 -0.11271604 -0.099087745 -0.018630702
000030 01 5a 34 3d 42 7a e5 bc 9b 1c 98 bc b8 e9 e1 bc
       0.044031147 -0.028012399 -0.018568328 -0.027577266
000040 95 53 84 3d db 68 78 3c 8e 15 8c bd b6 0e d9 3c
       0.064612545 0.015161718 -0.06840049 0.026496273
000050 0f 8b eb 3d ae fd 1c 3d a3 68 84 bd d1 ea 42 bd
       0.11501133 0.038327865 -0.0646527 -0.04758722
000060 20 37 cb 3d d8 46 04 bd 53 57 4b bd bd 1f 9c bd
       0.09922624 -0.032294124 -0.049643826 -0.07623241
000070 21 4e 8f 3c 17 01 ca bd 36 f2 db 3d 96 3e 9d 3d
       0.01749331 -0.09863489 0.107395574 0.07677953
000080 c4 9c ae 3d 7e 1a 74 3d 9f f3 5c bd e0 64 c1 3d
       0.085259944 0.059595577 -0.053943273 0.094430685
000090 e3 3d cb bd db 9a 39 bd 4c 76 90 3d 71 82 cd 3c
       -0.09923913 -0.045313697 0.07053813 0.025086613
0000a0 95 18 96 bd 69 20 8a bd b0 7d e6 3d 3d 05 a9 bc
       -0.073289074 -0.06744463 0.11254442 -0.02063238
0000b0 f4 da 1e 3c b6 27 a5 3b 7e d4 26 3c 76 4d a8 3d
       0.009695757 0.0050401343 0.010182498 0.082178995
0000c0 94 16 94 3d b7 1d 75 3d 7d 9a 5e 3c 9a d4 8e 3d
       0.07230869 0.05984279 0.013586638 0.06974144
0000d0 9f 5c 92 3c 35 98 f5 3b d5 66 86 3d 0a dd 9b bd
       0.01786643 0.007494951 0.065625824 -0.07610519
0000e0 b1 bf 83 3d 0f ea dc 3d 7a b7 99 3d 91 4f b2 bd
       0.064330466 0.10786831 0.075056985 -0.08706582
0000f0 6e 9e 62 3d 89 b7 cf bd a6 75 c0 bd 70 dc 30 3d
       0.05532687 -0.101424284 -0.0939744 0.043178976
000100 5a e2 cf bc 32 dc 3e 3d c7 e4 f5 bd 07 ab b9 3d
       -0.025376488 0.046596713 -0.120065264 0.09065824
000110 57 00 7f bc dc 74 38 bd dd 28 46 3d 95 32 ae 3d
       -0.015564046 -0.04503332 0.048378814 0.085057415
000120 39 e9 50 bd 26 84 10 bc 4f 68 31 bd 31 72 62 3c
       -0.05100367 -0.008820569 -0.043312367 0.013821171
000130 1b 8c 42 3c 1e a6 d9 3d c5 74 be 3d bf 33 80 3d
       0.011874224 0.106273875 0.09299616 0.0625987
000140 27 1a 3f bd ed c1 ac 3d 22 6e c4 bd 5d 23 a9 3d
       -0.0466558 0.08435426 -0.09591319 0.08258698
000150 41 a8 27 bd 86 ff 68 3d a1 b6 9b bd bb e6 9f bd
       -0.040931944 0.05688431 -0.07603193 -0.0780768
000160 7d 14 bf 3d 8f 40 e7 bb e8 31 9e 3d 52 28 e2 3d
       0.0933008 -0.0070572565 0.077243626 0.11042847
000170 5e 0d c1 3d b7 9b 9b bd 31 c4 5c bd e1 1c 23 3d
       0.09426378 -0.075980596 -0.05389804 0.039822463
000180 1e e1 ca 3c 98 24 e9 bd 7c ac ed bd 91 23 1c 3d
       0.024765547 -0.11383933 -0.116051644 0.038119856
000190 de 8c 13 bd 45 11 5f 3d 40 4e c1 3c 48 cd cd 3d
       -0.036023013 0.05445983 0.023596883 0.1004892
0001a0 52 b8 d3 bd de 82 dd bd cc 17 3b 3d 52 5c 94 bd
       -0.10337891 -0.108159766 0.04567699 -0.07244171
0001b0 4f f4 a5 bd 21 24 dd 3d 53 0e 3b 3c 76 85 78 3d
       -0.08103239 0.10797907 0.011416989 0.060674153
0001c0 28 22 bc 3d ec 30 a7 bd 6a 5c 12 3c 50 20 91 3d
       0.09186202 -0.08163628 0.008933166 0.07086241
0001d0 7d b1 d1 bc af 85 f7 bd be 6b 84 bd cc e8 f8 3b
       -0.025597328 -0.12086045 -0.06465863 0.007596111
0001e0 51 d1 40 3d fc ca c0 bd 93 b1 8d 3d 7c 50 5e bd
       0.04707462 -0.09413716 0.06918635 -0.054275975
0001f0 bf e2 cc 3d 36 59 c9 3d 21 29 eb 3d 41 ea 47 3d
       0.10004186 0.09831469 0.11482454 0.048807386
000200 c6 8f b6 bd 30 1d 13 b9 6b e7 c5 3d 11 96 ec 3d
       -0.08914141 -0.00014029886 0.0966328 0.115520604
000210 41 ec 14 bd f9 dc c0 3d d6 12 9d bd ea 9b 92 bd
       -0.03635812 0.09417147 -0.07669608 -0.071586445
000220 c4 d6 bb bd ae 5f 81 bd de 41 08 bd d2 1c f2 3d
       -0.09171823 -0.063170776 -0.03326594 0.11821903
000230 07 28 e9 3d 7a 0b b9 3d 86 53 34 bd b9 a7 83 bd
       0.11384588 0.09035392 -0.044024967 -0.06428475
000240 9d 4e 36 bd 7e 96 b7 3d c5 d0 8c 3d b5 b0 7f bc
       -0.044508565 0.08964251 0.06875757 -0.015606095
000250 22 b8 57 bd 84 68 58 bd e6 8f 88 3d de 9a 2e 3d
       -0.052665837 -0.05283405 0.066680714 0.04262816
000260 a1 de e0 3c ba 6a c2 3d de e0 61 bd 72 2e ee 3d
       0.027449908 0.09493013 -0.05514609 0.116299525
000270 2a 63 cc 3d e1 b2 01 bc fa 1a 07 bd eb 98 bf bc
       0.099798515 -0.007916183 -0.03298471 -0.023388347
000280 8f 46 4c bd d1 22 ec ba 0d 9c 66 3b 9b 9a 9e 3d
       -0.049871977 -0.0018015747 0.0035188228 0.077443324
000290 a9 d8 b3 3c fd 99 04 3b e0 f9 06 bc 47 83 8b 3d
       0.021953898 0.0020233386 -0.008238286 0.068121485
0002a0 b9 e4 97 bd 84 57 87 3d 8d 01 2f bd dd c9 0f 3e
       -0.07416672 0.06608489 -0.04272609 0.14041848
0002b0 05 3d 47 bc 9e 2e d8 3d a0 64 ef bc 72 dd 21 3d
       -0.012160544 0.105557665 -0.029222786 0.039517827
0002c0 96 4e a8 bd 47 fa 61 bc cd 8c ec 3c 33 05 56 bd
       -0.08218114 -0.013792581 0.028875733 -0.052251052
0002d0 f3 7a 7b 3d 12 f8 d4 bd 98 66 ae 3b 06 ce 8f 3d
       0.06139655 -0.10398878 0.0053222887 0.07021718
0002e0 26 2c ef 3c 0a 3f a6 3d b7 31 21 3b 4b dd 99 bd
       0.029195856 0.081174925 0.0024596283 -0.075129114
0002f0 53 80 69 3d 2d d8 b8 3d 57 8c 08 bd 79 11 9b 3d
       0.057007145 0.09025607 -0.033336964 0.07571692
000300 7b 25 04 bc 09 a4 b8 bb 91 98 a7 3c 75 57 ff bc
       -0.008065577 -0.005634789 0.020458492 -0.031169632
000310 75 4e 89 bd d1 43 23 3d b4 c4 a8 3b 46 d4 3b 3c
       -0.067044176 0.039859597 0.005150402 0.011464184
000320 35 ce 93 bd 93 fb 99 bd 80 51 47 3c 3e 43 f5 bc
       -0.07217065 -0.07518687 0.012165427 -0.02993929
000330 72 ce b5 3c ae 6e dc 3d ed d2 e4 bd 5d a6 f4 bd
       0.022193167 0.10763298 -0.111730434 -0.11945794
000340 77 1a 83 bd 27 60 19 3d 22 e6 8c 3d af 1a 51 3d
       -0.06401532 0.037445214 0.06879832 0.051050838
000350 31 4c d1 bd c7 2a ab 3d 0b d7 bb 3d ef 57 8c 3d
       -0.102196105 0.083577685 0.091718756 0.068527095
000360 73 d8 d8 bd 87 1e d7 3d 2b 32 d5 3c ca 36 39 bc
       -0.105881594 0.105038695 0.026024899 -0.011304567
000370 8b 02 bc bd a8 17 cd 3d a8 8e aa 3d 48 54 b7 bd
       -0.091801725 0.10014278 0.08327991 -0.08951622
000380 d9 8f c1 3d fa 76 ba bd ab 04 6a bd 64 3e 93 bd
       0.09451265 -0.09104724 -0.057133358 -0.071896344
000390 c8 53 6f 3d 2a 83 73 bd cf b9 bb 3d 82 91 c6 3d
       0.05842951 -0.05945126 0.091662996 0.09695722
0003a0 b4 c2 92 3d 37 ba 06 3b 30 cc 9c 3c 8a f1 ec bc
       0.07166043 0.002055777 0.019140333 -0.028923769
0003b0 f5 6e 22 bd c3 b3 e9 3d c1 5b e4 3d f6 be 96 3d
       -0.039656598 0.1141124 0.11150313 0.07360642
0003c0 e3 be a1 3d c8 4d ba 3d f3 6b 93 3d 5d 1e d7 ba
       0.07897737 0.09096867 0.07198324 -0.0016412247
0003d0 c0 6f cf bc cd c5 cc bd 5a 6f 1c bd 44 17 cb bc
       -0.025321841 -0.09998665 -0.03819213 -0.024791367
0003e0 3c 5c 17 3d 76 ae a0 bd ee 5f f2 bc 65 77 84 bc
       0.036953196 -0.07845776 -0.029586758 -0.016170213
0003f0 e2 76 bb 3d 84 0f ad 3c 75 07 da 3d 94 e8 9f bd
       0.091535345 0.021125562 0.106459536 -0.07808033

weight_function_network.initial_cnn.4.bias f4 [16]
000000 9f 90 ab bd 4f 2f 89 bd 84 69 b2 3d cc ee a1 bd
       -0.08377194 -0.066984765 0.08711532 -0.07906875
000010 6b 50 90 3c 4f a8 da bc de 51 94 3d 50 12 ca bc
       0.017616471 -0.026691584 0.072421774 -0.024666935
000020 2e 40 7e bd 58 97 21 bc 92 60 6f bd c2 1a 5c bd
       -0.062072925 -0.009862743 -0.058441706 -0.053736456
000030 44 69 88 3c c2 06 0e bc 02 e5 b4 3d 02 4a 0e bc
       0.016651757 -0.008668603 0.08832742 -0.008684637

weight_function_network.initial_cnn.5.weight f4 [16]
000000 8f 03 81 3f bd a6 80 3f 5a 4b 81 3f 47 be 80 3f
       1.0079211 1.0050884 1.010112 1.0058068
000010 81 77 81 3f 95 84 7d 3f cb d6 7a 3f 79 a3 81 3f
       1.0114595 0.9903043 0.97984 1.0128013
000020 8e 9b 80 3f 60 73 7e 3f 4d 16 80 3f e1 f4 7d 3f
       1.0047472 0.993948 1.0006806 0.9920178
000030 c2 92 80 3f b8 c7 7d 3f b3 a3 7d 3f 24 50 7d 3f
       1.0044787 0.9913287 0.9907791 0.9895041

weight_function_network.initial_cnn.5.bias f4 [16]
000000 9b 79 ab 3b c7 7c 8a bc 98 d3 c8 3b 39 69 f7 3b
       0.0052330024 -0.016905202 0.0061287396 0.0075503853
000010 2d 6f 7e bc 3c 18 51 39 20 72 bd bc 05 4a cc bb
       -0.015529436 0.00019940821 -0.023125708 -0.0062344098
000020 85 e3 c1 bb 0a a9 d6 bb 11 43 ea bb e1 91 ee 3a
       -0.005917015 -0.0065509127 -0.007149108 0.0018201434
000030 ec a1 8d bb 7b 8f 4a bc ec db b5 3b 2c 10 64 ba
       -0.004322281 -0.01236331 0.0055498984 -0.00086999196

weight_function_network.initial_cnn.5.running_mean f4 [16]
000000 ea 8b 10 3d ea 32 51 3e 4b 78 d6 3e 77 5e 1c be
       0.035289682 0.20429578 0.4188865 -0.1527041
000010 21 29 81 3d fc 6d 0c 3e 8d c6 22 3e e9 5a 91 3e
       0.06306673 0.1371383 0.15896054 0.2838967
000020 fb 7c ae 3b c3 db 3f 3e 8d a5 3b 3f 2f 42 13 bf
       0.0053249574 0.18736176 0.73299485 -0.57522863
000030 02 2a d2 3c 05 48 d6 3b 14 9f 85 3d f7 a8 62 be
       0.025654797 0.006539347 0.06524482 -0.22134767

weight_function_network.initial_cnn.5.running_var f4 [16]
000000 46 ad a3 3d b2 1e 71 3d 38 a1 2a 3d 76 94 a2 3d
       0.07992034 0.058867164 0.041657656 0.07938473
000010 78 f7 99 3d 05 71 9f 3d 87 5b ff 3d 5a f8 a4 3d
       0.07517904 0.07785229 0.12468629 0.08055182
000020 ff ce 01 3d a6 57 06 3e 32 d6 6c 3e 2a f1 0e 3f
       0.031691547 0.13119373 0.23128584 0.5583674
000030 6c b8 69 3d 71 0c af 3d 2d 1f 80 3d e7 05 bb 3d
       0.057060644 0.08547295 0.06255946 0.09131985

weight_function_network.initial_cnn.8.weight f4 [32, 16, 3, 3]
000000 88 7f e6 3c e1 00 1f 3c 57 ea c3 3b 0b 90 10 bd
       0.028136984 0.009704799 0.005978863 -0.03529362
000010 3a 76 18 3b e8 88 4e 3d f5 27 9a bd 71 88 aa bd
       0.0023263828 0.050423533 -0.075271524 -0.083268054
000020 6c 3f fa bc 39 a1 a8 3d 0f 23 11 bd 01 95 83 3d
       -0.03054782 0.08233876 -0.035433825 0.064249046
000030 f6 8a 3f bd 2d c0 a7 3b 9e 7a f9 3b 85 86 9d 3d
       -0.046763383 0.0051193447 0.007613494 0.07691673
000040 b1 86 b2 3d 93 1c 7e 3d 09 6f 6b bc 4c 22 a3 3d
       0.087170966 0.06203897 -0.014369735 0.07965526
000050 df ab 87 3c 15 13 22 bd 8f 53 d7 3c 78 ac 5b bd
       0.016561447 -0.03956898 0.026284961 -0.053631276
000060 84 bd 47 bd 40 dc 9b b9 63 eb 4c bb 22 36 e6 3c
       -0.04876472 -0.00029728003 -0.003126823 0.028101984
000070 eb ce 25 3d 14 c8 94 bd 59 f2 38 3c 06 62 a5 bd
       0.040480535 -0.072647244 0.011288249 -0.08075337
000080 ec d0 43 3d b0 8f 5c bd f3 17 76 3d 01 89 4e bd
       0.047806665 -0.05384797 0.060081434 -0.050423626
000090 ca 71 35 bd 9a 2f 50 bd 8e e1 6b 3c c1 cb c6 3c
       -0.04429797 -0.050826646 0.014397038 0.02426708
0000a0 8d aa b0 bc a1 e9 53 3d 4d 40 74 bd bc 3f ba bc
       -0.0215657 0.051736478 -0.059631635 -0.022735469
0000b0 3f d7 78 3c a0 94 b5 bd 2a 64 83 bd f2 b8 9d 3b
       0.015188037 -0.088662386 -0.06415589 0.004813307
0000c0 0a da 17 3d d9 8e 3d bd 27 d8 d5 3d 7e ae cf bc
       0.037073173 -0.04627881 0.104416184 -0.025351759
0000d0 0d fc b0 3c 1a 70 03 bd 3f 2f b4 3d 1e a0 8b bd
       0.021604562 -0.03208933 0.08798074 -0.06817649
0000e0 22 ed 87 bc 78 cc f9 3c 7a 8d 61 3c 6b 7f 91 3d
       -0.016592566 0.030493006 0.013766641 0.07104381
0000f0 79 20 52 bc f6 b0 e3 3a 8e a5 9e 3c f2 52 22 bc
       -0.012825125 0.0017371464 0.019366052 -0.009907471
000100 2f 3c 41 3d 80 00 d3 3c 94 1c 1c 3d 19 66 88 3d
       0.047176536 0.025757074 0.03811319 0.066600986
000110 fc 85 73 bd 26 8b 75 bd 9d 3b 3d bc 0b 13 92 3b
       -0.05945395 -0.059947155 -0.011549857 0.0044578365
000120 f9 e0 7d 3d 44 71 ab 3c 70 a6 77 3c b2 61 3e ba
       0.06198213 0.020928033 0.015115365 -0.00072624825
000130 86 34 44 3d f7 03 32 3d 3d b9 0e 3d b0 4c ab 3c
       0.047901653 0.043460812 0.034844626 0.02091059
000140 5b 5a ae 3d 5f ec 01 bd 86 0a 91 3d fb 65 ba bc
       0.08513328 -0.03171956 0.07082085 -0.022753706
000150 31 36 a5 3d 8b ac 59 bc d3 d2 9c 3b d4 44 c2 bc
       0.08066977 -0.013285766 0.0047858744 -0.02371446
000160 6a 38 6f 3d 63 6e f9 3c 90 16 53 bd f2 57 ee bc
       0.05840341 0.030448144 -0.05153519 -0.02909467
000170 d5 1c da 3c d1 22 96 3d 3d 32 97 3d 35 c0 47 bd
       0.026625076 0.073308595 0.07382629 -0.048767287
000180 bd 4d 55 3d 84 87 98 bd c8 1b 70 3d ae 4c 4e bd
       0.05207609 -0.074477226 0.058620244 -0.050366096
000190 a8 86 f6 bb fd c1 9c 3d 12 6c e3 bc ca bc 95 3c
       -0.0075233765 0.07654188 -0.027761493 0.018278498
0001a0 27 fc f4 3a 61 f3 3b bc 91 eb 7d bd 11 53 db bb
       0.001869087 -0.0114716 -0.06199223 -0.006693252
0001b0 77 22 29 bb d0 38 3b bd 75 00 7a 3b 97 dd 96 3d
       -0.0025807896 -0.045708477 0.0038147245 0.07366484
0001c0 e8 e6 6f 3d 7e d3 0c bd d6 d4 96 3d c3 07 4e 3d
       0.05856982 -0.034381382 0.07364814 0.05030037
0001d0 97 f9 26 3b 5e 60 93 3d 73 51 33 3c 2d 29 46 3d
       0.0025478357 0.07196115 0.010944712 0.048379112
0001e0 a3 f6 db 3c 23 49 99 3d 41 de 66 3b 15 bd 83 3a
       0.026851004 0.07484653 0.0035227688 0.0010050858
0001f0 43 ee 56 bd 47 e6 12 3c e3 00 33 bd 8f 86 73 bd
       -0.052473318 0.008966035 -0.043702018 -0.059454497
000200 12 7d ca 3c 09 52 ca bb 2c 05 ba 3b f4 ff 80 bb
       0.024717841 -0.00617433 0.005676886 -0.003936762
000210 6d 16 90 bd fd 13 95 bd 23 34 08 bc 18 59 90 3d
       -0.070355274 -0.07279203 -0.008313212 0.07048243
000220 63 8d 9a bd c7 a3 14 bd bf a8 8c bc be 42 d3 3c
       -0.075464986 -0.036289003 -0.017170308 0.025788661
000230 19 bb 0a 3c 94 eb 00 3d 49 d3 53 bd 84 fd b4 3d
       0.008467459 0.031474665 -0.05171517 0.08837417
000240 86 c7 bd bd 69 d7 79 3b 64 4d df 3c 44 e1 81 3d
       -0.09266572 0.003812278 0.027258582 0.06341794
000250 22 73 b0 bd e5 7a 21 3d 74 9c 1a 3d 56 d1 d1 bc
       -0.0861571 0.039423842 0.03774686 -0.025612514
000260 7f f9 6a bc a9 01 3d 3d 7e fd 0a bb d4 76 39 bd
       -0.014341711 0.04614416 -0.0021208222 -0.04527934
000270 20 51 30 3d 50 f9 a3 bd 18 69 8c bd 24 17 50 3d
       0.043046117 -0.08006537 -0.068559825 0.05080332
000280 55 97 25 3d d7 df 95 bd db 13 b6 bd 67 12 83 3d
       0.040427525 -0.07318085 -0.08890506 0.06399994
000290 59 3a 75 3c 14 9c 2d 3d 06 96 99 bd f7 44 37 bd
       0.014967524 0.042385176 -0.07499318 -0.044743504
0002a0 eb ce 8c bd 5a d0 65 3b 53 39 3c bb 2a 0c 7d bd
       -0.06875404 0.0035066814 -0.0028720691 -0.06177918
0002b0 bc 6b ac 3d 67 15 35 3c a8 6a 87 bd 63 3e 26 bd
       0.08418986 0.011052466 -0.0661214 -0.04058684
0002c0 f6 8a 96 bd 39 40 0f bd 12 40 14 bc 30 00 47 bc
       -0.073507234 -0.034973357 -0.009048479 -0.012146041
0002d0 84 f9 ba bc 6b 45 17 3d 67 17 63 bd 04 da cd 3c
       -0.022824056 0.036931437 -0.05544224 0.025128372
0002e0 5d c0 f8 ba 52 a6 9f bc f0 a6 f6 3c 4f d3 84 bd
       -0.0018978227 -0.019488487 0.030108899 -0.064856164
0002f0 7d 70 18 bd 26 26 76 bd b5 0d d9 3c 6c 77 7b bc
       -0.037216652 -0.060094975 0.026495794 -0.015348297
000300 3c c8 58 bd b0 66 1c bd 86 29 5b 3d 29 0a 0a 3d
       -0.052925333 -0.038183868 0.053506397 0.033701096
000310 44 84 91 bd f6 fd 8c bd 84 2a 99 bd e4 51 c0 bb
       -0.07105306 -0.06884377 -0.07478812 -0.005869137
000320 96 a5 e8 bc 97 5a 3a bd 26 0f f4 3b d1 95 d1 bc
       -0.02839927 -0.04549655 0.007448095 -0.025584133
000330 31 1c 46 bd da 67 34 3d 0e 13 54 bd 03 92 72 3d
       -0.04836673 0.044044353 -0.051775984 0.05922128
000340 e9 45 4f bd c5 c8 b0 3c 28 d5 97 3b 59 c5 87 bd
       -0.05060378 0.02158011 0.0046335645 -0.06629438
000350 e5 1a 7a bd 22 1a 86 bd bd 96 c6 3c 83 13 70 bd
       -0.061060805 -0.06547953 0.0242418 -0.058612358
000360 cd bd b0 3c 4d a2 dd 3c 78 6e 0e 3c 79 c5 8e bd
       0.021574879 0.02705493 0.00869333 -0.06971259
000370 87 39 35 bc 8d 45 2d 3d 4f 01 2b 3d ac 36 9e 3c
       -0.011061079 0.042302657 0.041749295 0.019313179
000380 48 c2 27 bd d7 26 88 3d d0 83 d0 3c 31 69 16 3b
       -0.040956765 0.06648033 0.025453478 0.0022950883
000390 79 2d b5 3c d5 2f b8 bd d3 d8 96 bd 66 41 72 3d
       0.02211641 -0.08993498 -0.07365575 0.0591444
0003a0 f7 27 8e 3d 1a cf bc bd 06 ac 32 bd 74 cc b3 bc
       0.069412164 -0.09219189 -0.043621086 -0.021948077
0003b0 2f 4a 4e bd 4b b8 0a bd 4c a8 3e 3d a3 11 f7 3c
       -0.050363716 -0.03386716 0.04654722 0.030159777
0003c0 fe 4a f4 bc 00 02 31 3d 1a c2 9f 3d ec a6 a0 3d
       -0.029820915 0.043214798 0.07800694 0.07844338
0003d0 4b 7d 8b bd 9f 8d 34 3d 68 bc a0 3b bf c9 88 bd
       -0.06811007 0.044080373 0.0049052723 -0.06679105
0003e0 4a bc 8a 3d 34 dc 5c bd d5 2d b0 bd 84 89 cc 3c
       0.067741945 -0.05392094 -0.08602492 0.024967916
0003f0 6b a9 82 bd a0 9e df bc cb 05 7e 3c e3 56 9d bd
       -0.0637997 -0.027297318 0.015504311 -0.07682588

weight_function_network.initial_cnn.8.bias f4 [32]
000000 69 9a b3 bc a6 a8 13 3d c3 d0 da bc 36 a3 08 bd
       -0.021924214 0.036049508 -0.026710873 -0.033358775
000010 41 3a a3 bd 16 57 c2 ba 4e 85 83 bd 18 a7 a8 bd
       -0.079700954 -0.0014826979 -0.0642191 -0.082349956
000020 c2 5c a8 bc 7c 07 7a bb cc 99 28 3d f9 76 c3 3c
       -0.020552043 -0.0038151434 0.041162297 0.023860442
000030 38 81 53 bd 96 76 f7 bc b2 78 95 bd 85 cd 77 3d
       -0.051636904 -0.030207913 -0.072984114 0.060498733
000040 04 a6 04 3d bb d9 95 bc 13 14 e6 3c 1d a4 ca bb
       0.032384887 -0.018292299 0.028085744 -0.0061841146
000050 c6 c5 26 3d 1e 54 fc 3c 3f c5 02 3d 52 ce 6b bd
       0.040715955 0.030801829 0.03192639 -0.05756981
000060 0a 5a 6a 3d e9 a4 d2 bc c1 a7 7a 3c d0 2a a9 3d
       0.057214774 -0.0257134 0.015298785 0.08260119
000070 e6 6b 85 bd 2c e5 b7 bb c4 10 a2 bd b5 b8 7a bd
       -0.065147206 -0.005612036 -0.07913354 -0.061211307

weight_function_network.initial_cnn.9.weight f4 [32]
000000 3e 0b 81 3f 8a 4b 7f 3f 39 e9 7e 3f c6 e3 80 3f
       1.0081556 0.9972464 0.9957462 1.0069511
000010 5e 35 7e 3f 1e 4d 80 3f be 89 80 3f d2 58 7e 3f
       0.9930018 1.0023534 1.0042036 0.9935428
000020 a7 b3 7c 3f 18 2f 80 3f ee 86 80 3f 59 f7 7f 3f
       0.9871163 1.0014372 1.0041177 0.999868
000030 81 80 7e 3f 2c 26 7f 3f d3 7e 80 3f ec 92 7e 3f
       0.9941483 0.9966762 1.0038704 0.99442935
000040 41 e2 7f 3f 63 b1 7f 3f 1c 5b 80 3f 6f 4c 80 3f
       0.9995461 0.99880046 1.0027804 1.0023326
000050 a3 32 80 3f 76 d0 80 3f eb 12 80 3f 5a 0d 81 3f
       1.0015453 1.0063617 1.0005773 1.00822
000060 eb 50 7d 3f 46 10 7f 3f c8 a2 7e 3f b0 86 80 3f
       0.98951596 0.99634206 0.99467134 1.0041103
000070 c9 29 80 3f fb 55 80 3f 1e 61 80 3f c5 56 7e 3f
       1.0012752 1.0026239 1.0029638 0.9935115

weight_function_network.initial_cnn.9.bias f4 [32]
000000 7f 6e b0 bb e4 c3 b0 3b 20 94 ae bb 5d 7c f3 b9
       -0.005384266 0.0053944457 -0.0053277165 -0.0004644123
000010 6c 9e e5 bb 2d dd ca bb 32 01 1a 3b 3c e2 15 bc
       -0.0070074107 -0.006190917 0.0023499248 -0.009148177
000020 d4 f1 e2 bc 4e 87 7e bc 5f 61 00 3c af f5 b3 bb
       -0.027703203 -0.015535189 0.007835715 -0.0054919343
000030 5c 46 2b bc 22 5b dc bb 2b 91 1f bc d9 08 ee bb
       -0.010453787 -0.006724731 -0.009739201 -0.0072642383
000040 ca c6 a6 bb bb 8d 10 3b df d5 a5 3c 84 09 11 39
       -0.0050896155 0.0022057134 0.020243583 0.00013831822
000050 04 16 63 bb 64 55 2f bc 3b 47 3e bc 1f 6e db 3b
       -0.0034650574 -0.010701511 -0.011613662 0.006696477
000060 63 bc 2b bb c1 ab 9b bc cb fe 63 bc a3 19 30 3b
       -0.0026204817 -0.019002797 -0.013915728 0.002687075
000070 2a 36 b4 ba fb 13 4b bb d1 90 9c bc 3b f0 ef bb
       -0.0013749052 -0.003098725 -0.019112023 -0.007322339

weight_function_network.initial_cnn.9.running_mean f4 [32]
000000 a8 4a c2 3e a9 07 53 bf a5 d8 23 bf 6e ce 1e 3f
       0.37947583 -0.82433563 -0.6400245 0.62033737
000010 10 82 79 3d 77 72 a8 3e 5d be e4 3e af a4 01 3f
       0.060915053 0.3289983 0.44676486 0.5064191
000020 bc 8b a0 3e f7 c6 4c bd 91 34 4d bd 43 9d 7c be
       0.3135661 -0.049994435 -0.05009896 -0.24669366
000030 c3 53 b0 be a2 1d fc 3d 25 f2 7e 3d 6b 64 cf 3e
       -0.34438905 0.123103395 0.062242646 0.405063
000040 76 78 01 3d ca 83 29 be 5f 34 53 be 24 bc ac be
       0.03160902 -0.1655418 -0.20625447 -0.3373729
000050 63 75 23 3f 62 fb 3a 3e 4e 39 12 3f dc 2a ba 3d
       0.6385099 0.18259957 0.5711869 0.09090206
000060 34 56 ed be 96 33 4a 3f 5b 61 32 3e 81 eb 54 be
       -0.4635483 0.78984964 0.1741995 -0.20792963
000070 a9 17 09 3f e0 7a b8 bd 9c 7a 17 bf 1a 00 bc be
       0.5355173 -0.090078115 -0.5917146 -0.36718827

weight_function_network.initial_cnn.9.running_var f4 [32]
000000 42 1b 02 3e 7d 2b a3 3e 4e 0a 3b 3e 45 fd 63 3e
       0.1270571 0.31869116 0.1826565 0.22264583
000010 70 6a 4e 3e 68 9e 6b 3e e0 7a 2d 3e c0 86 79 3e
       0.2015779 0.23009646 0.16941404 0.2436781
000020 fe 25 79 3e 4b 56 51 3e 1a d7 b4 3d cd 7c 03 3e
       0.24330899 0.20443074 0.0883009 0.12840576
000030 1b f7 64 3e 56 48 1b 3e c5 64 fb 3d 60 09 1f 3e
       0.22359888 0.15164313 0.1227508 0.1553092
000040 ed 36 d0 3d 6b 36 18 3e bf 26 0c 3f 83 47 6f 3e
       0.10166726 0.14864509 0.5474662 0.23367123
000050 9d 33 57 3e 20 45 fd 3d 5f 62 64 3e 77 47 64 3e
       0.21015783 0.123667 0.2230315 0.22292887
000060 21 e2 b3 3e e9 a0 89 3e 69 38 59 3e 66 8d 0d 3e
       0.3513346 0.26880577 0.21212925 0.1382347
000070 fd f3 41 3e cf db 65 3e 9f 7c 57 3e 0d 0f 22 3e
       0.1894073 0.22447132 0.21043633 0.15826054

weight_function_network.initial_cnn.11.weight f4 [32, 32, 3, 3]
000000 0a 38 9c bc eb 01 2d 3d 1e e7 c2 3a a6 6c 70 3c
       -0.01906969 0.042238157 0.0014869904 0.014674341
000010 6a c4 bd bc dc 88 b3 bc 80 3a 46 3d 2e 20 83 bc
       -0.023164947 -0.021915846 0.048395634 -0.016006555
000020 be c4 00 3d 54 46 96 3c 77 31 9d 3c f9 24 84 bb
       0.031437628 0.018344082 0.019188626 -0.004032728
000030 71 52 00 3c 79 e9 4d 3d c4 32 36 3d ed d9 c4 3c
       0.007832156 0.050271485 0.044482008 0.024029696
000040 2e 40 9a 3b 0d ac 45 3d 3e 6f 58 3c 03 be 4b bd
       0.004707358 0.048259784 0.013210116 -0.049741756
000050 ac f5 8b 39 98 fa 63 3d 60 24 46 bd c0 f4 2c bd
       0.00026695186 0.055658907 -0.048374534 -0.0422256
000060 3d 50 6c 3c f9 50 58 bd 6d 15 b9 3c 0b 72 84 3c
       0.014423427 -0.052811597 0.022593224 0.016167661
000070 67 14 c7 bc 3b 0b c7 3c ca 27 1b 3d 38 b6 cf 3b
       -0.02430172 0.024297347 0.037879743 0.006338861
000080 be f2 b0 bc eb bc 61 3d 56 df 87 3d db 8e 33 bc
       -0.021600123 0.055111807 0.06634395 -0.010959352
000090 3d 16 80 bd b8 af 4f 3d 82 29 26 3d 67 a2 3b 3d
       -0.062542416 0.050704688 0.04056693 0.045809176
0000a0 c7 a6 5f bd 7e e0 d2 3c 5f 10 b1 bc 74 d1 73 3c
       -0.05460241 0.025741812 -0.021614252 0.0148814805
0000b0 37 95 e3 bb 11 bc 93 3d 76 a0 a7 bb 5f 4e 92 3c
       -0.006945278 0.07213605 -0.005115564 0.017859636
0000c0 aa 5f 30 bc cd d7 5d bd 50 49 37 bd f4 00 29 3d
       -0.010764996 -0.05416088 -0.04474765 0.041260675
0000d0 7e d0 35 bd fc 00 2d bd 4f b6 08 3d 69 c0 9a 3d
       -0.044388287 -0.042237267 0.033376988 0.075562306
0000e0 d2 ee 1c bd 33 8b 7b bd d4 9c 8a 3d 4b 38 c7 3c
       -0.038313694 -0.061412048 0.06768194 0.024318835
0000f0 10 61 22 bc 5a 96 30 3c 33 f7 e3 3b 91 05 2e bc
       -0.009910837 0.010778034 0.0069569587 -0.010621444
000100 45 6a ea 3c d8 47 1b 3d 87 63 7f 3d c4 cf e9 bc
       0.028615126 0.037910312 0.062350776 -0.028541453
000110 45 b8 c2 3c 3d 78 d8 bc 45 f7 5d bc 9b 03 5d bd
       0.023769507 -0.026424522 -0.013547723 -0.053958517
000120 25 b0 0a 3d 6d e3 1c bc fb d8 0e 3c 17 4d 43 3c
       0.03385939 -0.009575707 0.008718724 0.011920235
000130 3b 27 62 bd 29 99 df 3c 6c 82 c4 bc d0 43 3e 3c
       -0.055213194 0.027294712 -0.023987971 0.011612847
000140 22 ef 22 bc b1 48 43 3c 64 18 60 bd b5 74 fc 3c
       -0.009944709 0.011919186 -0.05471076 0.030817369
000150 cd 18 41 bd c2 c9 4a 3d a1 7f cf bc 0b 7a 83 3c
       -0.047142792 0.049508817 -0.025329413 0.016049406
000160 48 bb 4b 3d 62 50 49 3c ed 39 7b bd 5c 79 38 3c
       0.049739152 0.012287231 -0.06133454 0.011259403
000170 22 22 1e 3d a8 c4 f1 bb 9c 42 4d bd 47 3b ad bb
       0.03860677 -0.0073781796 -0.05011235 -0.0052866074
000180 c2 9b 47 3d 00 fe 42 3d 3d 4b 66 3d 77 29 3e 3d
       0.048732527 0.047605515 0.056224097 0.046426263
000190 6b 3d 03 3d f7 b0 d3 3c 80 2e 97 3b 42 fb 23 bd
       0.032040995 0.02584122 0.0046136975 -0.04003454
0001a0 79 e5 ba bc fe f7 04 3d 5d 8d 74 bc 70 6c 11 3c
       -0.0228145 0.032463066 -0.014926282 0.008875951
0001b0 f0 50 49 bc 3b be 05 3b 6a 85 4b bc 86 80 6c bd
       -0.012287363 0.0020407576 -0.012421945 -0.057739757
0001c0 58 cc 21 3d 13 26 12 bd df f7 7a bc da af 3e bd
       0.039501518 -0.03568084 -0.015317886 -0.046554424
0001d0 b6 35 ca bc 9e 60 19 bd 4e ab 57 bd 2f 08 16 3c
       -0.024683814 -0.037445657 -0.052653603 0.009157225
0001e0 3a 00 3e bd 99 57 de 3c e5 1b 52 3d ed 5f 29 bd
       -0.046386935 0.02714138 0.051296134 -0.041351248
0001f0 10 61 b8 3b 4e 8f 0a bd 80 e9 04 3c bb 0e 6f bd
       0.005626805 -0.033828072 0.008112311 -0.058363657
000200 30 48 10 3d 15 4c d1 bb 11 78 8e bd 54 e5 16 bc
       0.035225093 -0.0063872435 -0.069564946 -0.0092099495
000210 2a 59 73 3d 06 2d 60 bc 86 91 48 3c dc e1 d6 3c
       0.059411205 -0.013682609 0.012241727 0.026230745
000220 19 c3 42 bd 22 4f 0a bc 92 cc 46 bd 1c 62 f3 3a
       -0.04754934 -0.008441718 -0.048534937 0.0018568668
000230 51 59 34 3d fb 01 2a bd f3 1a 14 bc 2a aa 4e 3c
       0.04403049 -0.041505795 -0.009039628 0.012613812
000240 84 8f a6 bc 18 66 92 3b 3b d8 98 bc 6d f4 28 bc
       -0.020332105 0.004467737 -0.018657794 -0.010312182
000250 9d 61 de ba ea 64 90 bc 04 ae da 3c d9 81 90 bc
       -0.0016966347 -0.017626245 0.026694305 -0.017640041
000260 7b 9a e3 bb b8 ad b7 3c 8f 7b cc bc 10 86 d1 3b
       -0.0069459057 0.022421703 -0.024961261 0.0063941553
000270 50 ca 31 3d b0 b5 06 bd dc af 27 3d 55 16 7b bc
       0.04340583 -0.032888114 0.040939197 -0.015325149
000280 9d ce 02 3d c4 f0 a8 3c 81 62 08 3d 79 b8 6d bc
       0.031935323 0.020622618 0.033297066 -0.014509314
000290 5c ad 6f bd 62 a1 24 bd 31 ec 6e 3d 9d 9a d8 3c
       -0.058514938 -0.04019297 0.05833072 0.026440913
0002a0 44 70 09 3d c3 8a 83 3d 85 72 f3 bb 85 db 74 3b
       0.03355433 0.06422951 -0.0074294233 0.003736229
0002b0 e0 9d 6c bc 0d 9c 36 bd 64 24 1c bb be 11 22 3d
       -0.014441937 -0.044582415 -0.0023825401 0.0395677
0002c0 d0 6c 9b 3c da c3 e6 bc ce da 6f bb c6 3b 59 3d
       0.018972784 -0.028169561 -0.0036598924 0.05303552
0002d0 99 25 14 3d ac ec d1 3c ed 82 08 b9 5a e5 3c bb
       0.03616867 0.02562555 -0.00013018744 -0.0028823228
0002e0 94 61 bd 3c 7e 74 8d bc 48 d9 44 3c fb 3c 44 bd
       0.023117818 -0.017267462 0.0120146945 -0.047909718
0002f0 98 02 ab bc 59 80 cf 3b 03 e5 2a 3c 4b f3 a1 3c
       -0.02087526 0.006332439 0.010430577 0.019769331
000300 83 ce 73 bd d0 04 0a bd fc 65 84 3d 63 25 5d 3c
       -0.059523117 -0.033695996 0.064647645 0.013497683
000310 ae 95 52 3c 29 fa e0 3c 92 f0 97 bc 5c 0a e1 3a
       0.012853069 0.027463036 -0.01854733 0.0017169225
000320 13 cb c8 bc a7 b7 20 3d 44 85 97 3c 56 19 93 3d
       -0.024510896 0.039237645 0.018496163 0.07182567
000330 7c fe f3 3c ce 37 e7 3c b7 f2 0d bd c0 66 72 3d
       0.029784434 0.028224852 -0.0346553 0.05918002
000340 6b 8c 23 bd ad 29 86 bd b0 a2 dd bc 08 25 28 bd
       -0.039928835 -0.06550918 -0.027055115 -0.04105094
000350 5e 08 2b 3d 1a 2c 6f 3d 31 12 1c bd db 64 3f 3c
       0.041756026 0.058391668 -0.038103286 0.011681761
000360 05 9f 40 3b 7d 58 0d 3c 9a 00 6d 3d 5a 33 19 bd
       0.0029391658 0.008627054 0.0578619 -0.03740249
000370 c3 69 6c bd 71 1b f8 bc 6b 45 1e 3d 2b d6 0c 3b
       -0.05771805 -0.030286523 0.03864042 0.0021489959
000380 5a 84 ea bc 72 07 a5 3b 5c 4c b2 bc 65 15 06 bd
       -0.028627563 0.005036288 -0.021764927 -0.032735247
000390 0f ee 9b 3c db a0 c0 bc 98 cc 95 bc be 6e c9 3c
       0.019034414 -0.023514202 -0.018286034 0.024588939
0003a0 bd 3c 13 bd 80 78 3b 3d 9e 4b f2 bc f2 1c e4 bc
       -0.035946596 0.045769215 -0.029577073 -0.027845833
0003b0 11 37 a4 bc ac c3 1c bc 54 56 98 3a 79 a1 62 bd
       -0.020045789 -0.009568136 0.0011622407 -0.055329774
0003c0 f6 1f 32 bd 35 b8 2c 3d db 4f 5b 3c 28 82 c4 3c
       -0.04348751 0.04216786 0.013385738 0.023987845
0003d0 56 19 a0 bc 16 19 c2 bc a5 59 40 bc 0e ad 46 bc
       -0.019543331 -0.023693603 -0.011740123 -0.01212622
0003e0 1b d3 4c 3d 57 a0 9c 3c 6e 68 4f bd ac 0b a7 bb
       0.050006013 0.019119425 -0.0506367 -0.005097827
0003f0 02 38 26 3d e7 cc 21 3c 27 bd 9a bc fa 42 cb bc
       0.040580757 0.009875513 -0.018889023 -0.02481221

weight_function_network.initial_cnn.11.bias f4 [32]
000000 8b 4b 4c bd c2 6f d6 3c 45 c7 9e 3b 65 dd 15 3c
       -0.04987673 0.026176337 0.004845532 0.009147023
000010 c1 6d 00 3d a0 7a 6e 3d c7 48 1b bc e3 2b 8c 3b
       0.03135467 0.058222413 -0.009477801 0.0042776926
000020 82 69 4d 3d dd 1b 84 3c 94 b0 e4 bc 94 c3 a0 bb
       0.05014945 0.016126567 -0.02791623 -0.004906127
000030 0d 79 8e bc d9 ee 0b 3d c4 e9 f4 3c 94 18 12 bd
       -0.017391706 0.03416333 0.029896624 -0.03566797
000040 4c c7 46 bd 01 7f 38 bd 46 c8 3f 3d 60 d8 54 bd
       -0.048529908 -0.045042995 0.046821855 -0.051964164
000050 03 e6 27 bd 6b ab d1 3c c6 8d f4 3c 72 50 37 3d
       -0.04099084 0.025594434 0.02985276 0.044754453
000060 94 3e 3c bd d9 14 13 bd 1c 05 dc 3c ed 56 62 3d
       -0.045958117 -0.035908554 0.026857905 0.05525868
000070 a3 8a 11 3d 02 ff 09 bd 42 7e 52 3b 8e 6d 38 bd
       0.035532605 -0.03369046 0.0032118713 -0.045026354

weight_function_network.initial_cnn.12.weight f4 [32]
000000 fe 23 82 3f d6 61 80 3f 0f 61 7f 3f 37 05 7e 3f
       1.0167234 1.0029857 0.99757475 0.9922671
000010 85 3c 7e 3f c2 3e 81 3f 68 4c 7d 3f 43 21 80 3f
       0.99311095 1.0097277 0.9894471 1.0010151
000020 81 68 7f 3f 89 d9 7e 3f 20 4f 7f 3f df ff 7c 3f
       0.99768835 0.9955068 0.9973011 0.9882793
000030 6b 05 80 3f d5 7f 7f 3f fc 11 7f 3f 62 0c 81 3f
       1.0001653 0.9980443 0.99636817 1.0081904
000040 4c 8f 7f 3f a2 2b 80 3f d9 e2 7c 3f af 86 7d 3f
       0.9982803 1.0013316 0.9878364 0.99033636
000050 dc 59 7d 3f c4 15 7f 3f 10 30 81 3f 93 df 7f 3f
       0.9896524 0.99642587 1.0092793 0.9995052
000060 49 dd 80 3f dc 9d 80 3f 8c 56 80 3f 7f 58 80 3f
       1.0067531 1.0048175 1.0026412 1.0027007
000070 b2 f8 7e 3f 57 15 81 3f fe 83 7f 3f f8 f1 80 3f
       0.9959823 1.0084637 0.9981078 1.0073843

weight_function_network.initial_cnn.12.bias f4 [32]
000000 4d d9 16 bc 80 7c 32 bc 30 83 6b bc 2b 08 d9 bb
       -0.009207082 -0.010893941 -0.014374539 -0.006623288
000010 cf dd 63 bc e5 d8 4a 3c a9 a6 b3 bc e2 42 e7 ba
       -0.013907864 0.012380813 -0.021930056 -0.0017643834
000020 df d6 74 ba 0f 58 8b 3b 7b e5 6d bc 63 18 aa bc
       -0.00093398796 0.0042524408 -0.014520044 -0.020763582
000030 8e aa 79 bc 6d ee 52 bb 73 96 3c bc 33 24 b9 ba
       -0.015238417 -0.003218557 -0.011510479 -0.0014125168
000040 7a 71 80 bc 7a 22 fc 3b e0 14 c4 bb ce db 9a bc
       -0.01567911 0.0076945396 -0.005983934 -0.01890364
000050 54 48 9c bc ed 71 17 3a 2b 83 39 bc 59 f6 49 bc
       -0.019077457 0.0005777169 -0.011322777 -0.0123268
000060 a7 d3 a2 3a c0 d0 cc ba d5 b0 5f bc 81 7b 5c bc
       0.0012422696 -0.0015626177 -0.013653 -0.01345718
000070 be 1d 3a bc 7e 5f 9b bb a3 58 25 bc 64 cf ea bb
       -0.01135963 -0.004741608 -0.010091933 -0.007165836

weight_function_network.initial_cnn.12.running_mean f4 [32]
000000 de 9f 83 bb f6 cb 4b 3e 43 f4 89 3e 99 6a 89 3d
       -0.0040168604 0.19902024 0.2694417 0.06709785
000010 13 82 e3 be 81 8d 9c be 3a fe 3d 3e 20 d2 3b bc
       -0.44435176 -0.3057671 0.18554011 -0.011463672
000020 50 ff 30 be 61 dd 4f 3e b4 dd a9 be 3b fd 69 3e
       -0.17284894 0.20299293 -0.3317696 0.22850506
000030 5a 63 3e 3d af a2 fa 3d e4 e3 3c 3d b7 2e 96 3d
       0.046481468 0.12238061 0.04611577 0.07333129
000040 e6 f7 02 3e b1 43 cf bd 2c 69 a0 3e 09 14 29 be
       0.12789878 -0.10120333 0.3133024 -0.16511549
000050 6f 73 ac 3c 5b e3 2d be 60 9a 31 3e ec 83 4d be
       0.021051137 -0.1698126 0.17344046 -0.20069855
000060 25 b3 4d 3d 15 66 9c 3e fa eb 40 3d f1 01 86 be
       0.050219674 0.30546632 0.047100045 -0.26173356
000070 76 4e 83 3d 76 72 8b 3d d1 c4 91 3e 01 37 eb 3b
       0.064114496 0.06808941 0.28470472 0.007178188

weight_function_network.initial_cnn.12.running_var f4 [32]
000000 58 dd b4 3d d3 4a df 3d 25 0f d2 3d 13 e2 1b 3e
       0.088312805 0.109029435 0.10256795 0.15222959
000010 ff 8d e2 3d a5 d1 48 3e 96 23 39 3e dc c6 04 3e
       0.1106224 0.19611223 0.18079981 0.12966484
000020 5f 25 4d 3e ac b4 1e 3e b7 a5 05 3e 4d 26 f7 3d
       0.20033787 0.15498608 0.13051496 0.12067852
000030 3b 93 c5 3d 72 a2 e3 3d 87 cc 92 3d 16 86 9b 3d
       0.096472226 0.11114968 0.07167917 0.07593934
000040 63 a1 a8 3d e9 ae 0b 3e f0 f9 3e 3e 53 42 ba 3d
       0.08233907 0.13640942 0.18650031 0.090946816
000050 9e ef bf 3d ed a5 18 3e a8 7c cd 3d c2 bb b2 3d
       0.09371875 0.14907046 0.10033542 0.08727218
000060 ef 03 b2 3d ee 24 a3 3d 0f 1d ec 3d e9 13 b1 3d
       0.086921565 0.07966028 0.1152898 0.08646376
000070 ba 69 f1 3d e2 b2 0d 3e a3 48 09 3e b8 cc d9 3d
       0.11787744 0.1383777 0.13406615 0.1063475

weight_function_network.adaptive_layer.1.weight f4 [64, 32, 3, 3]
000000 eb 7b 4a 3c 7b a0 a4 ba 3b ff 8c 3c 23 17 7c bd
       0.012358646 -0.0012560034 0.017211547 -0.061545502
000010 13 34 d1 bc 70 14 78 3c 0c 97 6c bc ef a7 ff 3a
       -0.025537526 0.015141591 -0.014440309 0.0019505004
000020 8c d2 02 bc c6 88 77 bd b9 6b 2a bd fe e5 2c bd
       -0.007984769 -0.06043317 -0.04160664 -0.042211525
000030 c9 63 d2 3c 17 ff 69 bd 8f 8e 3e 3d 7b 9a 1e bd
       0.025682347 -0.05712804 0.046522673 -0.038721543
000040 43 af 4c bd fa 46 46 bc 8d 3d 38 3d ca 48 d1 3c
       -0.04997183 -0.012101883 0.044980574 0.025547404
000050 32 23 13 bc 9e c8 99 bb d6 8a af 3c 03 16 84 bc
       -0.008980559 -0.004693105 0.021428507 -0.016123777
000060 70 04 c4 3b 8f a4 e5 3c 9c 3a 54 3c c7 7e 33 bd
       0.0059819743 0.02803257 0.012953427 -0.043822076
000070 d7 81 8c 3b 7d e2 2f 3d 67 5e 57 bd ca b7 a8 3b
       0.004287939 0.042940605 -0.052580263 0.0051488625
000080 14 9e 97 bb 4d 24 b4 3b 8a b7 25 3d ea c7 93 bc
       -0.0046269987 0.0054974915 0.04045824 -0.018039662
000090 04 a3 21 bc 42 64 d1 3b 9a 64 1c bd 53 a4 1c bd
       -0.009865526 0.0063901255 -0.03818188 -0.03824265
0000a0 85 07 5c 3d 8b ea d6 3c d9 71 39 3d 62 88 a4 3c
       0.05371811 0.026234886 0.04527459 0.020084564
0000b0 0a 8c 4d 3d 25 60 80 3b fe d0 20 3d dd 7a 01 bd
       0.05018238 0.0039177113 0.03926181 -0.031611312
0000c0 eb ec 39 bd e5 be 8a 3c f1 7e 06 3d ea a3 9b bc
       -0.04539196 0.016936729 0.032835905 -0.018999059
0000d0 ce 77 33 3d 1a 98 53 bd da 55 53 3c ac ff 87 bc
       0.043815427 -0.051658727 0.012898887 -0.016601406
0000e0 29 4f 3c bd 04 17 40 3c 7e cb c1 3b da 99 48 3d
       -0.04597393 0.011724237 0.0059141507 0.04897485
0000f0 ac 5d fe bc 82 e7 20 bd 8c 73 5c 3d 0d 17 2e bc
       -0.031050526 -0.039283283 0.05382113 -0.010625613
000100 36 67 51 bd 3f e0 62 bc f9 ff 69 3d c0 24 bb bc
       -0.05112382 -0.01384741 0.05712888 -0.022844672
000110 7a 38 29 bd 03 01 4d bd 0e 44 51 3c 41 51 63 3b
       -0.041313626 -0.050049793 0.012772573 0.0034685882
000120 40 0d 26 bd 46 42 4d bb e5 6b 54 3d 1f d6 ad 3c
       -0.04053998 -0.003132002 0.05186071 0.021220265
000130 f5 cb 68 bd af 73 2f bd 8b da 7b bd 48 4e 4b bc
       -0.056835134 -0.042834934 -0.061487716 -0.0124088
000140 0e 6d 7d bb fe 3a 3a 3c 7a ce b3 ba 6b 2b 13 3c
       -0.0038669738 0.011366604 -0.0013718151 0.00898252
000150 f4 d8 2e 3d ea 87 68 3d f9 2c 2b bb e6 a8 c8 3b
       0.04268737 0.056770243 -0.0026119335 0.00612365
000160 72 d2 f5 bb 23 47 d2 bb 27 93 25 3d 0c b7 a6 bc
       -0.0075018937 -0.0064171716 0.04042354 -0.020350955
000170 69 ff 00 3d 6f 3d 85 3b bd b1 32 bd 08 07 c7 3c
       0.031493578 0.0040661613 -0.043626536 0.024295345
000180 58 97 ec bc 0f b4 1d 3c eb 64 35 3d a4 94 50 bd
       -0.02888076 0.009625449 0.044285696 -0.050923005
000190 3c 60 8c bc 98 2e 35 3c 35 9d 4f 3d 18 fd a8 bb
       -0.017135732 0.011058472 0.050687034 -0.0051571243
0001a0 ff dd f8 3b dc ba d1 bc 08 4c 1b bd 6d e2 21 3d
       0.0075948234 -0.025601797 -0.037914306 0.039522577
0001b0 e2 84 9b bb 39 82 2e bb fa 97 41 3d 47 a9 db 3c
       -0.0047460655 -0.0026627912 0.047264077 0.026814116
0001c0 9e 10 82 bc c9 4a 02 bd 31 ad 26 3d db 76 25 3d
       -0.015877064 -0.031809602 0.040692512 0.040396553
0001d0 8f a2 42 3c 24 9c 2d 3d d1 e8 95 3c fd ef 79 bd
       0.011879577 0.042385235 0.018299492 -0.061019886
0001e0 fb 3c 20 bd af a4 06 3d 28 08 e9 3c 7e c4 85 bd
       -0.039120656 0.0328719 0.028446272 -0.065316185
0001f0 8a f4 1e bd 76 4c 16 bc af de b7 3c 23 43 43 bd
       -0.03880743 -0.009173503 0.022445051 -0.04767145
000200 a7 bd 64 3d 9c 7e 03 bd 09 5c a7 bc 85 52 42 bc
       0.05584493 -0.032103166 -0.020429628 -0.0118604945
000210 41 c7 1d bd 42 97 12 bd 01 56 39 bd 38 d9 70 3d
       -0.0385201 -0.035788782 -0.045248035 0.058800906
000220 18 7e ea 3c 99 73 03 3d 52 95 53 bd 04 00 3b 3d
       0.02862458 0.032092664 -0.051656075 0.04565431
000230 10 b8 55 3d e0 71 e9 bc df ab 40 bc 59 c7 1f 3c
       0.05217749 -0.028496683 -0.011759727 0.009752118
000240 62 a3 58 3d db 46 32 bd 8c 03 46 bb ff ac 1c bc
       0.05289019 -0.043524604 -0.0030214516 -0.00956273
000250 12 60 a0 bc 8b 23 04 3d 3b 86 aa 3c b9 3b c3 bc
       -0.01957706 0.03226046 0.02081596 -0.023832189
000260 d4 0d d2 3c e5 db aa bc 86 52 a7 3c 8e a4 41 bd
       0.02564136 -0.020856807 0.020425092 -0.047276072
000270 bd 41 20 3d ba 0b 71 bd 45 07 3e bd 15 ba 3d 3c
       0.039125193 -0.058849074 -0.04639365 0.01158001
000280 77 86 69 bd 30 7e 6d bc 9a 11 74 3c ac 37 14 bd
       -0.057013 -0.0144954175 0.014896775 -0.036185905
000290 55 bd d0 3c 84 d2 4e bd c7 ff 4d 3a c5 25 40 3c
       0.025480906 -0.050493732 0.0007858243 0.011727755
0002a0 57 dc 61 3d fe 1a 6f 3b 9c cc d9 bc f0 36 c8 bc
       0.055141773 0.0036484594 -0.026586823 -0.024440259
0002b0 0a c8 4e bc 73 93 ec bc 39 ee ab bc ba 3f 8d bd
       -0.012620935 -0.028878903 -0.020987617 -0.068969205
0002c0 54 b6 9a bc e2 d2 86 bc 60 03 66 3b d9 3e e5 bc
       -0.018885769 -0.016457979 0.0035097227 -0.02798407
0002d0 f6 5b 74 3d 3a 14 1b 3d 08 29 58 3d aa a7 0b 3c
       0.059658013 0.037861086 0.052773505 0.008523861
0002e0 97 1f 75 bc b2 ba 69 bc ea e4 97 3b ba 71 0f 3d
       -0.014961145 -0.014265703 0.004635443 0.035020567
0002f0 df f6 44 bd b0 cf 0d bd 91 b3 09 bd 70 9e b3 bb
       -0.048086997 -0.034621894 -0.033618513 -0.0054815337
000300 81 17 2c bc ec 6d 1a bd e1 7f 6b 3d ae c4 88 3c
       -0.010503651 -0.037702486 0.057495 0.016695347
000310 0c c2 45 3d 61 db 68 3d c2 5a 67 bd df 8b ce 3b
       0.04828076 0.05684984 -0.056483038 0.006303295
000320 33 aa f8 bc 7b 7c 54 bd 18 f6 91 bc e0 e3 c4 bc
       -0.030354595 -0.051876526 -0.017817542 -0.02403444
000330 57 f7 20 bd 53 da 83 bd 3d 9d 7d bd a4 b9 3c 3d
       -0.03929838 -0.064381264 -0.061917532 0.04607548
000340 b9 1c 23 3c 95 77 00 bd 55 76 5d bd 0e 10 08 3d
       0.0099555785 -0.031364042 -0.05406793 0.033218436
000350 80 af 6a 3c f9 6b b9 bc f8 d4 9a bc aa 5a 55 bb
       0.014324069 -0.022634493 -0.01890038 -0.003255526
000360 06 0f 41 bd d5 31 84 bd 2f 9d 02 3d 5b 21 5e bc
       -0.047133468 -0.06454817 0.031888183 -0.013557757
000370 2d 50 2d bd 37 71 0b 3d 76 52 0b 3c e6 dc c7 3b
       -0.04231279 0.034043517 0.008503547 0.006099331
000380 60 6f a0 3c bd 24 1e bd 68 2e d9 bc 7d 82 6f bd
       0.019584358 -0.038609255 -0.026511386 -0.058474053
000390 48 77 bc 3c 29 64 28 bd 76 17 12 b9 f0 94 45 3d
       0.023006096 -0.041111145 -0.00013932385 0.04823774
0003a0 57 9c 9c bc 90 93 70 bd 6d 7f 04 bd 7a 01 b1 3c
       -0.019117517 -0.058734477 -0.032348085 0.02160715
0003b0 7f c9 c4 bc a5 c2 0d 3d 97 73 22 bd 07 44 22 3d
       -0.024021862 0.034609456 -0.039661016 0.039615657
0003c0 31 29 6e 3c dd 7a f0 bc 84 95 50 bd 68 41 a8 3c
       0.014536188 -0.02935546 -0.05092384 0.020539
0003d0 08 47 cc 3c 26 c4 4d 3d d5 fe 88 3d 08 c6 3a bd
       0.024936214 0.05023589 0.0668923 -0.045599014
0003e0 2c 30 43 3c 42 af 3c 3d a0 6d a9 3b 3f bc 17 bd
       0.011913341 0.046065576 0.005170539 -0.03704476
0003f0 0d fa 39 3d 6d 92 a3 ba 95 04 6b ba 9d 39 57 3d
       0.045404483 -0.0012479551 -0.00089652214 0.05254518

weight_function_network.adaptive_layer.1.bias f4 [64]
000000 98 05 a4 bb 96 a2 56 3d 08 7b f3 3c 4f 63 6a bd
       -0.0050055496 0.052401148 0.029721752 -0.057223614
000010 f6 4a 1d bd 1a 9b 53 bd 89 3a 53 bd 73 87 8a 3c
       -0.038401566 -0.05166159 -0.051569495 0.01691029
000020 e3 2b c7 3b b2 6f 35 bd 7b 84 1a 3d e4 ab 67 3c
       0.0060782298 -0.044295974 0.037724 0.014140103
000030 60 01 32 3d 83 2b 0c 3d 07 23 bf bc f7 d3 4b 3d
       0.043458343 0.034221184 -0.023332132 0.049762692
000040 19 90 40 3d 7a 42 0e 3c 8f 54 63 3d 97 fa 10 3c
       0.047012422 0.008682841 0.055500563 0.008848808
000050 c6 91 51 bd e1 00 03 bd f8 fb 59 3c 67 58 6d 3d
       -0.05116441 -0.03198326 0.013304703 0.057945635
000060 1a 27 46 3d 08 87 03 bd 1f f5 b5 bc 3c 03 63 bc
       0.048377134 -0.032111198 -0.02221161 -0.013855752
000070 a4 d1 3c 3d 66 0c c0 bc de 32 05 3d 98 0f 16 3d
       0.046098366 -0.023443412 0.032519214 0.036635965
000080 b6 fb b5 3c cc 79 07 3d 27 9f 50 3d f2 43 03 bd
       0.022214752 0.03307514 0.05093303 -0.03204722
000090 4b 4a 5e 3d d7 97 1f bc cf f0 22 bd 2a 2e 17 bd
       0.05427007 -0.009740791 -0.039780434 -0.03690926
0000a0 ea 0d 90 3c 4d c1 1a bb 75 6a 80 3c 02 72 8c bb
       0.01758476 -0.0023613751 0.015675763 -0.0042860517
0000b0 27 bc 1f 3d 9d 31 16 3c 93 ec 3e 3d 74 5d a3 bc
       0.038997795 0.009167102 0.046612334 -0.019942023
0000c0 46 7f 59 bd 06 27 17 3c 69 8b 22 bd 35 1d 31 bd
       -0.053099893 0.0092256125 -0.039683733 -0.043240745
0000d0 1e 84 ae bc f7 dc 9e 3c ca 19 83 3c ce 87 40 3d
       -0.021303233 0.019392474 0.016003508 0.047004513
0000e0 d9 c2 e3 bc f0 5d 5f bd a2 5e f0 3c f5 0a 52 3b
       -0.027802872 -0.054532945 0.029342 0.0032049988
0000f0 7e b8 cd bc d7 af 47 3d 1c a7 c3 bc b3 8b 26 3d
       -0.025112387 0.04875168 -0.023883395 0.04066057

weight_function_network.adaptive_layer.2.weight f4 [64]
000000 99 26 81 3f d5 24 80 3f 2d 6e 80 3f ee c1 81 3f
       1.0089904 1.001124 1.0033623 1.0137308
000010 af 26 7c 3f 5c 9d 81 3f e2 7a 7d 3f 81 e1 7e 3f
       0.98496526 1.0126147 0.9901563 0.9956284
000020 fb 05 7c 3f ee f1 80 3f f3 64 7e 3f 28 db 80 3f
       0.98446625 1.0073831 0.99372786 1.0066881
000030 de 5f 7f 3f 2b a0 81 3f 65 4c 81 3f 2b 3c 7d 3f
       0.99755657 1.0127004 1.0101439 0.98919934
000040 bf 30 7f 3f cd f9 7e 3f c1 4e 81 3f 16 61 80 3f
       0.99683756 0.99599916 1.0102159 1.0029628
000050 69 fd 7e 3f 92 64 7f 3f 60 f1 7d 3f 0d 80 80 3f
       0.99605423 0.99762833 0.99196434 1.0039078
000060 c3 21 7f 3f 09 0c 81 3f c5 60 7e 3f f4 f7 80 3f
       0.9966089 1.0081798 0.9936641 1.0075669
000070 2e 0c 80 3f 03 a8 7a 3f 98 16 7f 3f 42 cb 7d 3f
       1.0003717 0.97912616 0.9964385 0.9913827
000080 d9 93 81 3f c1 62 7f 3f e6 d3 80 3f 56 08 7e 3f
       1.0123245 0.9976006 1.0064666 0.9923147
000090 5f f0 7d 3f 19 4b 80 3f 0e 71 7e 3f 9f 7b 7e 3f
       0.991949 1.0022918 0.9939126 0.9940738
0000a0 95 82 80 3f 81 6f 7c 3f 76 0c 81 3f 38 7b 81 3f
       1.003985 0.9860764 1.0081928 1.0115728
0000b0 a8 0d 80 3f 7f 9f 7c 3f 55 7a 7f 3f 6d 71 7f 3f
       1.0004168 0.9868087 0.9979604 0.9978245
0000c0 56 23 81 3f 59 97 7f 3f 55 9f 80 3f 22 4d 7f 3f
       1.0088909 0.99840313 1.0048624 0.9972707
0000d0 cb 0e 7e 3f dc 12 80 3f bb 19 80 3f 85 c2 7f 3f
       0.9924132 1.0005755 1.0007852 0.9990619
0000e0 5c 7c 80 3f c1 fe 7c 3f 02 43 7f 3f 34 57 7e 3f
       1.0037951 0.98826224 0.9971162 0.9935181
0000f0 71 01 80 3f 54 d8 7f 3f c2 bc 7f 3f 87 e2 7c 3f
       1.000044 0.99939466 0.99897397 0.98783153

weight_function_network.adaptive_layer.2.bias f4 [64]
000000 8e c3 78 ba d5 ec 84 bc 17 b7 18 bc 34 c1 a7 b9
       -0.0009489589 -0.016226212 -0.009320996 -0.0003199667
000010 4e 84 81 bb 34 76 38 3c 7e 09 01 bb 4d e9 24 bb
       -0.0039525395 0.011258651 -0.0019689496 -0.0025163472
000020 49 31 c6 bc b0 8d c5 3a bf 43 fe bb f1 75 1e 3c
       -0.024193423 0.0015072133 -0.007759541 0.009671674
000030 61 4a 75 bc 9c 5d fd 3b 67 7d 9e bb b3 2e 34 bc
       -0.014971347 0.0077321064 -0.0048367265 -0.010997462
000040 b3 07 39 3b 10 40 bb bc 25 86 4b 3c e9 bd 61 3b
       0.002823335 -0.022857696 0.012422119 0.003444547
000050 0e 1b 2f bc 21 ec 61 ba c4 89 cf bb c5 97 b1 bb
       -0.010687603 -0.0008618255 -0.0063335616 -0.0054197037
000060 0c ab 45 bb 7f c8 0a bc 0a 67 df bb ca 9f e3 bb
       -0.0030161766 -0.008470654 -0.006817703 -0.0069465386
000070 96 d2 08 bc 9b f1 3e bc 2e 32 59 3a e5 9f ab bb
       -0.008350989 -0.011654283 0.00082853704 -0.005237567
000080 53 7a 9e bb 2c 6d cf bc 85 15 f6 3b 04 a9 6a bc
       -0.0048363595 -0.025320612 0.0075098895 -0.014322523
000090 44 53 4b bb e2 c8 3b bb 37 8e 5a bc 0a 05 1d bc
       -0.0031024972 -0.002865367 -0.013339571 -0.009583721
0000a0 99 fb 83 bb 80 44 94 bc f0 d1 81 bb 63 01 92 bb
       -0.0040277955 -0.01809907 -0.003961794 -0.0044557317
0000b0 76 9b 44 3c 9d b0 37 bb 62 d1 8b bc 99 09 89 bb
       0.011999955 -0.0028028854 -0.017067615 -0.0041820523
0000c0 34 7e 57 3a a7 20 24 3c 3b 51 0a 3c ad 3f 31 bb
       0.0008220405 0.010017551 0.008442218 -0.002704601
0000d0 c6 26 6e bc 07 d4 4a 3a a7 22 2d bb 24 7e 11 bc
       -0.0145356115 0.0007737283 -0.002641836 -0.008880172
0000e0 c1 b2 fc ba 75 06 c4 bb 42 7b 09 bc 07 50 20 bc
       -0.0019279347 -0.005982215 -0.008391203 -0.009784705
0000f0 5d 3f 04 ba 5a 97 69 bc 40 dd d3 bb e8 06 fa bb
       -0.0005044842 -0.014257276 -0.006465584 -0.007630218

weight_function_network.adaptive_layer.2.running_mean f4 [64]
000000 11 18 83 be c9 e4 cb 3d ab 16 11 3e e1 43 91 bd
       -0.256043 0.09955747 0.14168803 -0.07093025
000010 79 8e 7a be 20 c6 8e be bc 6b 25 bf 91 68 ae be
       -0.24468412 -0.27885532 -0.64617515 -0.34064153
000020 a0 41 29 be 83 4b a2 bd 8d 90 f2 bd b5 2f 1f 3f
       -0.1652894 -0.07924559 -0.11843977 0.6218217
000030 95 87 35 3f 1e a2 07 be 62 20 1d 3e 80 01 40 be
       0.70910007 -0.13245437 0.15344384 -0.18750572
000040 8b ac 8a 3e 65 b4 1a be 69 3a 0d be d5 8d f3 be
       0.27084765 -0.15107878 -0.13791813 -0.47569147
000050 4e 2b 1d be 76 a3 c5 be af 29 95 be b8 8a 09 3f
       -0.1534855 -0.38601273 -0.29133365 0.53727293
000060 5c 98 58 be 23 2c cc be 0a fc 59 3e f2 b6 06 be
       -0.2115187 -0.39877424 0.21287552 -0.13155726
000070 5c 4e 27 3e fd 20 14 3e 22 40 45 be d7 05 a4 be
       0.16338485 0.14465709 -0.19262746 -0.32035705
000080 07 87 ad be 0a 80 c3 3e af bd 03 bf d0 08 a2 bd
       -0.3389208 0.38183624 -0.5146131 -0.07911837
000090 d7 67 1c bf 66 8b f0 bd 82 42 89 bc b2 5d a2 be
       -0.6109595 -0.11745338 -0.016755346 -0.3171211
0000a0 a4 6a 90 be 4f ec fa 3e 01 99 4f 3e 34 a4 38 be
       -0.2820636 0.49008414 0.2027321 -0.18031389
0000b0 09 9d 8f bd 93 b3 8f 3c f8 8c c6 3e 69 b5 84 be
       -0.07012374 0.017541682 0.38779426 -0.25919655
0000c0 12 2d 89 be 5e 35 84 be 07 07 04 be c8 d1 76 bd
       -0.26792198 -0.25821966 -0.12893306 -0.060258657
0000d0 40 0e 76 be b8 4b 8a 3e 9f e3 df bd 6d 2c 58 3e
       -0.24028873 0.27010894 -0.10932087 0.21110697
0000e0 65 19 42 3d 93 f2 1b be 8e fe ae bd e7 67 0f 3f
       0.0473875 -0.15229253 -0.08544646 0.5601792
0000f0 7a d4 29 be 6b 43 d7 be 95 d6 ec 3d 00 dd 1e bf
       -0.1658496 -0.42043623 0.11564366 -0.6205597
