549logs/测试preditor激活函数与global_pool_size(不含mse label_smoothin=0.1)/preditor_network.MLP.act_fun=tanhweight_network.AdaptiveCNN.global_pool_size=1/test_model_20250427_203042.pth (torch, 907107 bytes, 78 tensors)

weight_function_network.initial_cnn.0.weight f4 [8, 1, 3, 3]
-0.2129107 0.32841587 -0.31719106 -0.13740863 -0.21671906 0.33063632 0.044627182 -0.14077486
0.32208157 -0.17290875 0.08780332 -0.21517546 -0.3136174 -0.3236181 0.21133505 0.27680865
0.053181853 0.02844444 -0.2877482 -0.10438594 -0.21672617 -0.2097799 0.07193339 -0.21366878
-0.1020519 -0.23195536 -0.14197373 0.058576316 -0.13365462 0.19790193 0.014525734 0.33083293
-0.30720785 -0.21875475 0.052561417 -0.013572291 -0.2444179 -0.055676393 0.2879288 -0.10612319
-0.039743196 -0.17000782 -0.013902732 0.055160277 0.2937655 -0.018823406 -0.119909525 0.15277882
0.29790232 0.11313548 0.17391527 0.17665297 -0.19367526 -0.32412165 0.065168776 -0.21767516
-0.24059704 -0.22937188 -0.19366558 0.0067906138 0.19194745 0.14896236 -0.26942462 0.33136097
0.010897912 -0.18239214 0.26006535 -0.00085005607 -0.022103753 -0.11322367 0.08055929 0.028039074
00000000: 4305 5abe 2026 a83e de66 a2be d9b4 0cbe
00000010: 9aeb 5dbe 2a49 a93e feca 363d 4927 10be
00000020: e0e7 a43e fe0e 31be 3ad2 b33d f556 5cbe
00000030: 7692 a0be 46b1 a5be 3768 583e ddb9 8d3e
00000040: 37d5 593d 5004 e93c bb53 93be 4cc8 d5bd
00000050: 77ed 5dbe 8bd0 56be d051 933d fdcb 5abe
00000060: 9600 d1bd b585 6dbe 9061 11be b8ed 6f3d
00000070: c2dc 08be cea6 4a3e 58fd 6d3c ef62 a93e
00000080: 594a 9dbe 3f01 60be a44a 573d 505e 5ebc
00000090: b048 7abe ee0c 64bd 676b 933e 1d57 d9bd
000000a0: c3c9 22bd 8816 2ebe 49c8 63bc beef 613d
000000b0: 6e68 963e 8b33 9abc 2093 f5bd 0d72 1c3e
000000c0: a786 983e 93b3 e73d d816 323e 84e4 343e
000000d0: cf52 46be 46f3 a5be 3577 853d 3de6 5ebe
000000e0: 125f 76be 76e0 6abe 4550 46be cc83 de3b
000000f0: df8d 443e 9789 183e 06f2 89be 25a8 a93e
00000100: 288d 323c 01c5 3abe 4927 853e 4cd6 5eba
00000110: ee12 b5bc d0e1 e7bd 45fc a43d 33b2 e53c

weight_function_network.initial_cnn.0.bias f4 [8]
0.29575434 -0.07839725 -0.1904167 -0.0985643 -0.05977238 -0.036846235 -0.15929279 -0.0094687585
00000000: 1d6d 973e bd8e a0bd 98fc 42be 14dc c9bd
00000010: e2d3 74bd 14ec 16bd a61d 23be da22 1bbc

weight_function_network.initial_cnn.1.weight f4 [8]
1.004734 0.99903625 0.9935012 1.006418 1.0033966 1.0036968 0.99827933 0.9850807
00000000: 209b 803f d7c0 7f3f 1856 7e3f 4ed2 803f
00000010: 4d6f 803f 2379 803f 3c8f 7f3f 402e 7c3f

weight_function_network.initial_cnn.1.bias f4 [8]
0.0059484085 -0.007453861 -0.013216139 -0.006990191 0.00070618856 0.0030325402 0.0017290479 -0.006757027
00000000: deea c23b 853f f4bb 8188 58bc f90d e5bb
00000010: 831f 393a 95bd 463b 38a1 e23a 0d6a ddbb

weight_function_network.initial_cnn.1.running_mean f4 [8]
0.2962602 -0.24154174 -0.82781845 -0.106922634 -0.056717124 0.07768302 -0.48673233 0.16460897
00000000: 6baf 973e b856 77be e9eb 53bf 41fa dabd
00000010: 3750 68bd 4618 9f3d fb34 f9be 418f 283e

weight_function_network.initial_cnn.1.running_var f4 [8]
0.007030131 0.0288523 0.3209846 0.0014911348 0.008764808 0.016895968 0.09309663 0.030111788
00000000: 035d e63b a95b ec3c 1858 a43e 2e72 c33a
00000010: 459a 0f3c 6a69 8a3c 72a9 be3d ffac f63c

weight_function_network.initial_cnn.4.weight f4 [16, 8, 3, 3]
0.011911941 0.019729191 0.00050995254 -0.04030402 0.008839344 -0.07822019 -0.08092071 0.02497142
0.016262576 0.055499423 0.058341954 0.029787509 -0.080946244 0.090196334 -0.104260184 -0.08019746
0.0803698 -0.01378616 0.10942494 -0.038532898 0.09162867 0.084004864 -0.062273093 0.016634863
0.054774586 -0.02514977 0.08640217 0.09362705 -0.058140054 -0.10229387 0.1181943 -0.02662374
-0.051199008 0.07142326 -0.058401424 -0.013298092 0.08365856 0.102300495 0.11796478 -0.056221068
-0.09269539 0.008870497 0.019851187 0.048573505 -0.10194603 -0.024844075 0.064066574 -0.064950876
0.051348448 0.07030045 0.108818464 -0.087722324 -0.09682721 -0.0716762 -0.013250411 -0.017143343
0.01273813 0.012321112 0.0993097 0.016055424 -0.076536834 -0.07484653 -0.00025449053 -0.032562785
0.10208801 0.021321336 0.059170846 0.035006404 -0.039529018 0.08757594 0.054216586 -0.02109679
0.07977338 0.11706968 -0.07030659 -0.050543662 -0.10194 0.078176335 -0.048792727 0.10613527
-0.015982572 -0.02760765 -0.08445381 -0.05709288 0.053566232 0.027320327 0.0068283486 -0.022375448
-0.020947015 0.0805232 -0.09286021 -0.019678894 0.049323905 0.088527836 0.040162586 -0.051176023
0.10142525 0.041743774 -0.038615845 -0.09330211 0.07325642 0.06789402 -0.03938879 -0.008414123
-0.05111116 0.051971424 0.028165057 -0.044074107 -0.06020531 0.0041984553 0.09465243 -0.08804643
0.06449699 -0.014589149 -0.038211998 -0.100044854 0.074369974 0.051877245 0.112659365 0.035480544
0.0385542 0.009932354 0.043474488 -0.029522879 -0.099333994 0.07673402 0.032552306 0.010757005
0.12014612 0.10905144 0.10944862 -0.022830652 -0.0773322 0.0073421462 0.05580567 0.08344725
0.09505899 0.08738364 0.07004116 0.09923218 -0.073256865 0.018012615 0.06430902 -0.015365627
0.055284508 0.03471028 -0.10398083 0.08998803 0.047597338 0.038840342 0.009643043 0.08299519
-0.011448568 -0.05778173 -0.030341553 0.082475856 -0.007782536 0.08658505 -0.04057789 0.089045055
0.10037835 0.12307504 0.04878072 -0.09576596 -0.03340484 0.08379429 -0.046920683 -0.047226492
-0.06982737 0.0872813 -0.10887597 -0.11170324 -0.10255752 0.0031388376 0.055527423 -0.10077548
-0.11352885 0.026384514 0.026253624 -0.05413561 -0.037214853 0.108737186 -0.08932122 -0.050116353
0.106168106 0.04160685 -0.052384254 -0.06522168 0.05488039 0.002342945 0.11934813 0.041648164
0.000667925 0.1100579 0.07851015 -0.04816213 0.057993352 -0.092941016 0.051950943 0.113417074
-0.096373215 -0.1035318 0.020025581 0.10824542 -0.08300296 0.11327045 -0.08446238 0.029009283
0.05282151 0.08888945 0.028941637 -0.08951973 -0.09594878 0.062116057 -0.08157671 0.03129972
-0.013950909 0.08486374 -0.046923064 0.0039735115 0.019254752 0.117250755 -0.08316307 0.013415348
-0.02169982 0.084846176 0.11533259 0.07615212 -0.09178754 0.090595074 0.053913824 -0.111402676
-0.03232479 -0.05744365 -0.016662542 -0.097227275 -0.063879736 -0.06684892 -0.07121039 0.018493973
-0.003140303 0.007140707 -0.065726615 0.11036477 0.10012676 -0.057559095 -0.025680974 0.03243931
0.0015321121 -0.010138534 0.09597329 -0.023245791 0.04350906 0.1117249 0.007928262 -0.03703375
00000000: 4d2a 433c 1d9f a13c 56ae 053a d415 25bd
00000010: e5d2 103c e831 a0bd c2b9 a5bd dd90 cc3c
00000020: 1839 853c 5d53 633d f9f7 6e3d ef04 f43c
00000030: 25c7 a5bd dbb8 b83d 5d86 d5bd 913e a4bd
00000040: ec98 a43d 59df 61bc 2f1a e03d acd4 1dbd
00000050: d0a7 bb3d be0a ac3d 1212 7fbd d645 883c
00000060: 515b 603d e406 cebc 9ff3 b03d 8abf bf3d
00000070: 4424 6ebd 737f d1bd da0f f23d 081a dabc
00000080: 0db6 51bd 5c46 923d 5536 6fbd 3ee0 59bc
00000090: 2e55 ab3d ec82 d13d 8597 f13d 1048 66bd
000000a0: 15d7 bdbd 9055 113c f59e a23c 03f5 463d
000000b0: 15c9 d0bd cd85 cbbc 5635 833d f704 85bd
000000c0: c052 523d aff9 8f3d 37dc de3d c3a7 b3bd
000000d0: 584d c6bd f9ca 92bd 4018 59bc 3270 8cbc
000000e0: 97b3 503c 7dde 493c e262 cb3d aa86 833c
000000f0: 58bf 9cbd 2349 99bd 246d 85b9 8e60 05bd
00000100: 8513 d13d 15aa ae3c 215d 723d e062 0f3d
00000110: 2ee9 21bd 045b b33d 3612 5e3d 2dd3 acbc
00000120: 3a60 a33d 3ac2 ef3d e7fc 8fbd df06 4fbd
00000130: ebc5 d0bd ea1a a03d e2da 47bd 735d d93d
00000140: e2ed 82bc 7029 e2bc 1ef6 acbd 39da 69bd
00000150: 4468 5b3d e1ce df3c 57c0 df3b b74c b7bc
00000160: 1399 abbc 59e9 a43d 7e2d bebd a235 a1bc
00000170: dd07 4a3d 154e b53d 8681 243d f39d 51bd
00000180: 0bb8 cf3d 85fb 2a3d a62b 1ebd 2d15 bfbd
00000190: 7607 963d 050c 8b3d 2456 21bd 64db 09bc
000001a0: f059 51bd fddf 543d 68ba e63c 0d87 34bd
000001b0: d899 76bd 3293 893b 22d9 c13d b051 b4bd
000001c0: ff16 843d 5307 6fbc 2f84 1cbd 51e4 ccbd
000001d0: 494f 983d 3c7d 543d f4b9 e63d 0c54 113d
000001e0: 02eb 1d3d 50bb 223c 4e12 323d f7d9 f1bc
000001f0: 9f6f cbbd ba26 9d3d 9155 053d 263e 303c
00000200: 2b0f f63d 5d56 df3d 9926 e03d 5907 bbbc
00000210: 5860 9ebd 6396 f03b 7c94 643d 64e6 aa3d
00000220: 4aae c23d 32f6 b23d bd71 8f3d 3e3a cb3d
00000230: b207 96bd 318f 933c 73b4 833d 1cc0 7bbc
00000240: 0272 623d 5e2c 0e3d e7f3 d4bd a54b b83d
00000250: 6df5 423d 0d17 1f3d dbfd 1d3c 62f9 a93d
00000260: c692 3bbc 89ac 6cbd d98e f8bc 1ae9 a83d
00000270: a504 ffbb 8153 b13d 0035 26bd 415d b63d
00000280: 2a93 cd3d c40e fc3d 4bce 473d f220 c4bd
00000290: 83d3 08bd 579c ab3d e72f 40bd 9170 41bd
000002a0: a701 8fbd 8ac0 b23d 5dfa debd abc4 e4bd
000002b0: ad09 d2bd f5b4 4d3b b970 633d 6063 cebd
000002c0: d081 e8bd 5624 d83c d711 d73c 4dbd 5dbd
000002d0: 9a6e 18bd 9ab1 de3d 0bee b6bd ce46 4dbd
000002e0: aa6e d93d f26b 2a3d df90 56bd f292 85bd
000002f0: 43ca 603d 188c 193b cb6c f43d 4497 2a3d
00000300: b017 2f3a 0966 e13d eec9 a03d a745 45bd
00000310: 708a 6d3d dc57 bebd 83ca 543d 3647 e83d
00000320: 525f c5bd 7b08 d4bd b00c a43c c6af dd3d
00000330: 75fd a9bd 56fa e73d 9dfa acbd e0a4 ed3c
00000340: 5e5b 583d ac0b b63d 0317 ed3c 1f56 b7bd
00000350: cb80 c4bd 686d 7e3d b111 a7bd 2334 003d
00000360: 5a92 64bc 0acd ad3d 6632 40bd 3b34 823b
00000370: 24bc 9d3c 2a21 f03d 6651 aabd 0ccc 5b3c
00000380: d2c3 b1bc d5c3 ad3d 7e33 ec3d a5f5 9b3d
00000390: 1bfb bbbd e989 b93d bed4 5c3d 1627 e4bd
000003a0: 0067 04bd 084a 6bbd e27f 88bc 181f c7bd
000003b0: 61d3 82bd 16e8 88bd c1d6 91bd ac80 973c
000003c0: 8bcd 4dbb 98fc e93b ad9b 86bd ed06 e23d
000003d0: 420f cd3d 16c3 6bbd e860 d2bc 15df 043d
000003e0: 27d1 c83a 181c 26bc a58d c43d f56d bebc
000003f0: 8e36 323d 06d0 e43d 8be5 013c b4b0 17bd

weight_function_network.initial_cnn.4.bias f4 [16]
0.034983512 0.06601884 -0.013329891 0.08678964 -0.018045096 -0.015089819 0.09265367 0.07139306
-0.043857712 -0.1049958 0.084989406 -0.09761581 -0.04827032 0.021949852 -0.079942465 0.07719768
00000000: df4a 0f3d e334 873d 9d65 5abc c4be b13d
00000010: 4fd3 93bc 4a3b 77bc 35c1 bd3d 8636 923d
00000020: 25a4 33bd 0a08 d7bd ed0e ae3d ccea c7bd
00000030: 19b7 45bd 2dd0 b33c e0b8 a3bd d119 9e3d

weight_function_network.initial_cnn.5.weight f4 [16]
1.0063255 1.0021034 0.99627376 1.0027773 0.9880948 1.0005141 0.9971141 1.006025
0.9969379 1.0100602 1.0001485 0.9992864 0.9868309 0.9957139 1.000959 1.0049815
00000000: 46cf 803f ed44 803f cc0b 7f3f 025b 803f
00000010: c8f3 7c3f d910 803f df42 7f3f 6dc5 803f
00000020: 5237 7f3f a749 813f de04 803f 3cd1 7f3f
00000030: f3a0 7c3f 1be7 7e3f 6d1f 803f 3ca3 803f

weight_function_network.initial_cnn.5.bias f4 [16]
0.0061627966 -0.0052675228 -0.006650171 -0.0059866738 -0.008564188 -0.0001671842 -0.0024799972 -0.0039520026
-0.0015697937 -0.004423302 0.006000526 -0.017065769 -0.012230427 -0.009755193 0.004948072 -0.008848888
00000000: 49f1 c93b 2f9b acbb ade9 d9bb dc2b c4bb
00000010: cf50 0cbc 2b4e 2fb9 7387 22bb cd7f 81bb
00000020: 89c1 cdba 59f1 90bb 0fa0 c43b 83cd 8bbc
00000030: 2162 48bc 3fd4 1fbc 7023 a23b edfa 10bc

weight_function_network.initial_cnn.5.running_mean f4 [16]
0.2517741 0.60871696 0.20092338 0.16701603 -0.19952384 0.20239225 0.08181293 -0.013714392
0.28926033 -0.014298211 0.66023546 -0.37235722 0.29028085 0.29386777 -0.10816562 -0.15027586
00000000: 89e8 803e e0d4 1b3f dcbe 4d3e 4006 2b3e
00000010: fa4f 4cbe ea3f 4f3e 8a8d a73d 54b2 60bc
00000020: ee19 943e 0b43 6abc 3105 293f 9ba5 bebe
00000030: b19f 943e d675 963e f085 ddbd eae1 19be

weight_function_network.initial_cnn.5.running_var f4 [16]
0.11186896 0.11905145 0.07783254 0.18475819 0.1504581 0.16059293 0.20607027 0.05017226
0.14439611 0.07302809 0.23093505 0.11898119 0.21402 0.29898134 0.13675682 0.09024669
00000000: 8e1b e53d 3fd1 f33d ab66 9f3d 4031 3d3e
00000010: b011 1a3e 7972 243e 1604 533e 6d81 4d3d
00000020: 93dc 133e c08f 953d 3d7a 6c3e 69ac f33d
00000030: 0f28 5b3e 1514 993e fb09 0c3e 42d3 b83d

weight_function_network.initial_cnn.8.weight f4 [32, 16, 3, 3]
-0.055328906 0.015477269 -0.058133435 0.03770193 0.053421732 0.013453363 0.086444795 0.044794865
-0.0007636741 -0.07103075 0.0048699314 0.018117987 -0.080983914 0.040088255 -0.01961856 0.03723242
-0.02533876 -0.039384294 0.009908091 -0.01001713 0.088829495 -0.04374132 0.06834091 0.023768065
0.07177092 0.021883987 -0.0746463 -0.06797065 -0.026777783 0.017024184 0.01364741 -0.007788192
0.024396317 -0.0025525428 0.09382655 -0.015766934 -0.019494789 -0.066775374 0.017194925 -0.03589426
-0.0004153552 0.0127878 0.035458073 -0.017825183 -0.07786344 0.009393354 -0.1044402 0.01222167
0.085757285 0.06390867 -0.06678076 -0.06752728 -0.083735734 0.027474776 -0.08561968 -0.021850113
-0.033550706 -0.0011597843 0.012020966 0.078532524 -0.065881476 -0.002269421 -0.025992189 0.037319507
-0.048398145 -0.011392574 -0.038247716 -0.00972819 -0.09112117 -0.06961694 -0.05698714 -0.061476473
-0.03796955 0.046152063 0.04431642 0.054316174 -0.0024170051 0.0031695487 -0.06112651 -0.010101522
0.011333994 0.01861836 -0.06408172 0.014487267 -0.05402352 -0.048435148 0.06055704 0.058147233
-0.028489398 -0.030009683 -0.07664973 -0.03731384 -0.029055387 0.067388095 -0.014961798 0.030855823
0.06220356 -0.06487161 -0.07383631 -0.049467657 0.04100979 -0.0078779645 0.03629271 0.015785417
-0.015148892 -0.037404403 0.07156941 -0.08211155 -0.061028384 0.030788645 -0.07687831 0.0053791353
-0.028411543 0.012678613 0.028140893 0.043944485 -0.07228617 0.07499148 -0.045273796 0.053322457
-0.044864416 0.05910095 -0.06945647 0.07499715 -0.051900722 0.03384859 -0.03043945 0.0026591427
-0.054464146 -0.002005644 0.075010434 -0.07155338 0.023383463 -0.04432365 0.03601729 -0.029371668
0.06545371 -0.08526932 0.013345567 -0.0010631408 -0.020313403 0.04279149 -0.033450987 0.048331097
-0.051330425 0.07485506 -0.034661725 0.09298739 0.034643125 -0.058752995 -0.05153354 -0.048295677
-0.06809537 -0.039085165 -0.021473538 0.036422633 -0.030329123 -0.053118814 0.0008037742 -0.03042426
0.04398693 0.08125139 -0.059286267 -0.045891702 0.08455693 0.029320639 0.046588007 -0.081691235
-0.037230615 0.028612414 0.01640367 -0.035803996 -0.028267743 -0.07721358 -0.006778201 0.03184785
0.051028047 -0.02412369 -0.060183134 -0.05226348 0.06252453 0.0603773 -0.045989886 0.02578891
-0.080327705 -0.05143485 0.045344174 -0.010516538 0.010109229 -0.05087731 -0.06759614 0.052790634
0.082556225 0.05710945 -0.08098018 -0.040323827 -0.07657942 -0.031592343 -0.015720999 -0.06838194
0.087587245 0.0712213 0.073304884 -0.044950683 0.0426367 -0.03347975 -0.028053034 0.01928268
0.023337025 -0.08201028 -0.059347708 0.016528832 0.09111552 0.01808644 -0.028326375 0.05552726
0.08424697 0.03924345 0.031934347 0.016431091 0.05752599 0.0737828 0.040200092 0.051373973
-0.031652723 -0.023565995 -0.019927975 -0.06378607 0.016525486 0.0750529 -0.056833968 -0.05251475
0.03371692 -0.01573391 -0.038891643 0.072442606 0.003096641 0.02405239 0.08372887 -0.03317977
-0.008146178 -0.0018244181 0.0645291 -0.07447263 -0.06108699 0.06983859 0.046617325 0.028581979
-0.028252028 -0.031949073 -0.0775303 0.052850682 -0.040128574 0.06872394 0.051888056 0.071626425
00000000: 90a0 62bd 5f94 7d3c 531d 6ebd 576d 1a3d
00000010: bfd0 5a3d 7f6b 5c3c f809 b13d d27a 373d
00000020: 4d31 48ba 9278 91bd f293 9f3b 2c6c 943c
00000030: e5da a5bd 9533 243d 1ab7 a0bc 0681 183d
00000040: 3b93 cfbc 6d51 21bd 8c55 223c e31e 24bc
00000050: 3dec b53d 192a 33bd 52f6 8b3d 3fb5 c23c
00000060: a2fc 923d 0c46 b33c 29e0 98bd 3234 8bbd
00000070: 155d dbbc 4d76 8b3c 6399 5f3c 1734 ffbb
00000080: c9da c73c 9048 27bb 2228 c03d a829 81bc
00000090: 89b3 9fbc 87c1 88bd 5fdc 8c3c dc05 13bd
000000a0: 08c4 d9b9 ec83 513c 7c3c 113d 1e06 92bc
000000b0: de76 9fbd 95e6 193c bee4 d5bd 663d 483c
000000c0: 84a1 af3d 8ce2 823d 5ac4 88bd be4b 8abd
000000d0: a47d abbd c812 e13c 5f59 afbd 02ff b2bc
000000e0: 776c 09bd e703 98ba 96f3 443c a9d5 a03d
000000f0: deec 86bd 91ba 14bb 92ed d4bc 57dc 183d
00000100: 223d 46bd eba7 3abc a3a9 1cbd fc62 1fbc
00000110: bc9d babd 5493 8ebd 596b 69bd c1ce 7bbd
00000120: f585 1bbd f209 3d3d 2285 353d a37a 5e3d
00000130: 9e66 1ebb 34b8 4f3b cb5f 7abd db80 25bc
00000140: 37b2 393c 8885 983c 473d 83bd 005c 6d3c
00000150: c447 5dbd ef63 46bd a90a 783d cb2b 6e3d
00000160: 9962 e9bc ded6 f5bc 89fa 9cbd 66d6 18bd
00000170: 9005 eebc c502 8a3d 5422 75bc 5ac5 fc3c
00000180: 29c9 7e3d 68db 84bd 7e37 97bd 999e 4abd
00000190: e2f9 273d 9412 01bc aaa7 143d 6b50 813c
000001a0: 0f33 78bc 5c35 19bd fc92 923d 1a2a a8bd
000001b0: e6f8 79bd 7838 fc3c 6072 9dbd 7543 b03b
000001c0: 53bf e8bc f5b9 4f3c bb87 e63c 22ff 333d
000001d0: c60a 94bd 2295 993d 0471 39bd a668 5a3d
000001e0: c0c3 37bd d613 723d 323f 8ebd 1b98 993d
000001f0: da95 54bd d2a4 0a3d 275c f9bc 0345 2e3b
00000200: cc15 5fbd 1f71 03bb 129f 993d 948a 92bd
00000210: ad8e bf3c b78c 35bd de86 133d da9c f0bc
00000220: 980c 863d aea1 aebd 5da7 5a3c 1659 8bba
00000230: 4b68 a6bc 2146 2f3d e703 09bd d4f6 453d
00000240: da3f 52bd 9c4d 993d 74f9 0dbd 2c70 be3d
00000250: f3e5 0d3d fba6 70bd d514 53bd b0d1 45bd
00000260: 9675 8bbd c417 20bd 46e9 afbc e62f 153d
00000270: c874 f8bc 1d93 59bd 60b4 523a 4c3c f9bc
00000280: a42b 343d 2167 a63d 28d6 72bd f0f8 3bbd
00000290: 2f2c ad3d d631 f03c 11d3 3e3d bc4d a7bd
000002a0: 217f 18bd 9564 ea3c fd60 863c 36a7 12bd
000002b0: c191 e7bc 2722 9ebd ac1b debb e472 023d
000002c0: c902 513d 0b9f c5bc 9782 76bd 3b12 56bd
000002d0: dc0c 803d 304e 773d e45f 3cbd 4443 d33c
000002e0: da82 a4bd 59ad 52bd d0ba 393d 8f4d 2cbc
000002f0: 2ea1 253c ba64 50bd d86f 8abd fe3a 583d
00000300: 3d13 a93d 99eb 693d f0d8 a5bd 992a 25bd
00000310: acd5 9cbd f966 01bd 53c9 80bc d50b 8cbd
00000320: f160 b33d 79dc 913d df20 963d 351e 38bd
00000330: d2a3 2e3d 1022 09bd 7acf e5bc b6f6 9d3c
00000340: 4a2d bf3c 01f5 a7bd 9516 73bd 7967 873c
00000350: c69a ba3d 042a 943c b70c e8bc 8d70 633d
00000360: ad89 ac3d bdbd 203d 97cd 023d 7f9a 863c
00000370: 5fa0 6b3d 701b 973d daa8 243d 846d 523d
00000380: 49a6 01bd 790d c1bc fe3f a3bc 45a2 82bd
00000390: 7560 873c 56b5 993d bcca 68bd b519 57bd
000003a0: c11a 0a3d 67e4 80bc d84c 1fbd ca5c 943d
000003b0: 04f1 4a3b 8509 c53c 0b7a ab3d 83e7 07bd
000003c0: 8c77 05bc 5021 efba d527 843d 1b85 98bd
000003d0: 5a36 7abd 8907 8f3d cff1 3e3d c124 ea3c
000003e0: cc70 e7bc 08dd 02bd 35c8 9ebd f579 583d
000003f0: dc5d 24bd 23bf 8c3d 9288 543d e0b0 923d

weight_function_network.initial_cnn.8.bias f4 [32]
-0.03968409 -0.072365426 0.015206164 0.037724532 -0.08084986 -0.034592964 -0.025467543 -0.056138694
0.050121095 -0.047446355 -0.052320566 0.008043203 0.0025478508 -0.032848097 0.033255022 0.033852983
-0.072894484 0.029298076 0.053076506 -0.024606591 -0.0041681402 0.050755296 -0.0690439 0.08195601
0.038501825 -0.0013003857 0.03118309 0.08039186 0.037297945 0.020985072 0.05425438 0.028383551
00000000: c98b 22bd 5334 94bd 4623 793c 0a85 1a3d
00000010: 9d94 a5bd 5ab1 0dbd 4fa1 d0bc b0f1 65bd
00000020: c74b 4d3d 1c57 42bd 174e 56bd a3c7 033c
00000030: d8f9 263b ba8b 06bd 6b36 083d 6da9 0a3d
00000040: b449 95bd 8502 f03c c066 593d c393 c9bc
00000050: e594 88bb c9e4 4f3d e366 8dbd 8dd8 a73d
00000060: 17b4 1d3d b471 aaba ae73 ff3c 7da4 a43d
00000070: bbc5 183d e3e8 ab3c d739 5e3d 9f84 e83c

weight_function_network.initial_cnn.9.weight f4 [32]
0.99687505 0.99714667 1.000085 0.99629205 0.99545246 0.99560964 0.99872184 1.0065653
1.0089008 1.0125281 0.9941204 1.0121099 1.0006263 1.0058967 1.0076158 0.99344844
1.0055144 0.99645656 1.0071381 0.99774086 1.0022489 0.9992424 0.98837525 1.0108012
0.9975398 1.0051928 0.99889547 0.9959337 0.9932623 0.99963796 0.99485564 1.0047021
00000000: 3433 7f3f 0145 7f3f c902 803f ff0c 7f3f
00000010: f9d5 7e3f 46e0 7e3f 3cac 7f3f 22d7 803f
00000020: a923 813f 859a 813f ad7e 7e3f d18c 813f
00000030: 8614 803f 39c1 803f 8ef9 803f a352 7e3f
00000040: b2b4 803f c717 7f3f e7e9 803f f26b 7f3f
00000050: b149 803f 5ace 7f3f 2906 7d3f ef61 813f
00000060: c55e 7f3f 28aa 803f 9db7 7f3f 83f5 7e3f
00000070: 7046 7e3f 46e8 7f3f dcae 7e3f 149a 803f

weight_function_network.initial_cnn.9.bias f4 [32]
-0.017130258 0.0019528401 0.0013324788 0.002930368 -0.007143205 -0.007919945 0.00026691434 0.0046991175
-0.011412934 -0.00358297 -0.01792055 0.0012847667 -0.007698151 -0.0035871854 -0.0055773202 -0.007198958
-0.0028367671 -0.00859019 -0.0027542794 -0.0054447805 -0.015219897 0.00016493315 -0.013353957 -0.0009292932
-0.0037282035 -0.00047275482 0.0035449462 -0.005619161 -0.011902859 -0.009502974 -0.011978912 -0.0031048388
00000000: c154 8cbc 71f6 ff3a 92a6 ae3a 6b0b 403b
00000010: 8c11 eabb a8c2 01bc a3f0 8b39 0efb 993b
00000020: 51fd 3abc 43d0 6abb 1ece 92bc 9e65 a83a
00000030: c540 fcbb fc16 6bbb f4c1 b6bb 3de5 ebbb
00000040: 0ee9 39bb debd 0cbc 2481 34bb 216a b2bb
00000050: e05c 79bc e8f1 2c39 8eca 5abc d09b 73ba
00000060: e054 74bb 14dc f7b9 5452 683b f020 b8bb
00000070: 3604 43bc 5db2 1bbc 3343 44bc 8d7a 4bbb

weight_function_network.initial_cnn.9.running_mean f4 [32]
-0.34538046 -0.0141520295 -0.64482266 -0.52669567 -0.497783 -0.5478351 -0.11152446 -0.42290726
0.17128189 0.0031987322 -0.2609701 -0.01777695 -0.24142456 -0.04103293 -0.03636336 -0.09002985
-0.1041889 -0.11065758 0.30524325 -0.29907697 0.22655076 -0.07490114 -0.30556333 0.058805417
0.21770865 0.10297276 -0.49747223 -0.293192 0.02006125 0.77823555 0.14130883 0.4058656
00000000: b5d5 b0be eadd 67bc 1913 25bf 87d5 06bf
00000010: 6add febe ec3e 0cbf f066 e4bd 4d87 d8be
00000020: 8564 2f3e d2a1 513b df9d 85be f7a0 91bc
00000030: 0038 77be 2512 28bd bff1 14bd 9261 b8bd
00000040: fd60 d5bd 71a0 e2bd d848 9c3e 9e20 99be
00000050: ecfc 673e c565 99bd cc72 9cbe f3dd 703d
00000060: 04ef 5e3e 62e3 d23d aeb4 febe 431d 96be
00000070: 7e57 a43c 723a 473f 43b3 103e 9ecd cf3e

weight_function_network.initial_cnn.9.running_var f4 [32]
0.13752985 0.17319107 0.19355093 0.17761995 0.1348051 0.18206045 0.26834553 0.22786218
0.16223013 0.10519891 0.08800406 0.2044961 0.22245333 0.14342162 0.25250387 0.17042504
0.087626524 0.13245676 0.11748129 0.1857898 0.16474156 0.19721586 0.22456849 0.08887072
0.13928777 0.13826121 0.29744458 0.19159791 0.20382936 0.26520586 0.17360635 0.17541403
00000000: a0d4 0c3e 0059 313e 3732 463e 01e2 353e
00000010: 590a 0a3e 0e6e 3a3e 9664 893e b454 693e
00000020: a81f 263e 8772 d73d 793b b43d 6d67 513e
00000030: ceca 633e 1edd 123e 3048 813e e783 2e3e
00000040: 8975 b33d bfa2 073e 089a f03d ae3f 3e3e
00000050: 03b2 283e f4f2 493e 48f5 653e da01 b63d
00000060: 74a1 0e3e 5994 0d3e a84a 983e 3e32 443e
00000070: a5b8 503e 10c9 873e ddc5 313e bc9f 333e

weight_function_network.initial_cnn.11.weight f4 [32, 32, 3, 3]
-0.01590904 0.053679638 0.009926721 0.04357395 -0.019884156 0.047880236 0.04228772 0.028514676
0.010817644 -0.040419802 -0.0081230085 -0.014778416 -0.05442383 0.012727677 -0.021453502 0.0245611
0.030842813 -0.050068054 -0.03821192 0.019627137 0.024897834 0.026304493 0.014566595 0.042798426
-0.05846965 0.051912703 0.0031353757 0.049138118 -0.055208024 0.028662581 0.020144667 0.044693623
-0.025066964 -0.017657066 -0.046259794 0.029946527 0.0437942 0.06451351 0.011084094 0.010515294
0.014535772 -0.045559216 -0.016241709 -0.04985718 0.027565178 0.026677545 -0.03275607 0.023967693
0.042677056 0.044852413 0.040829692 0.05240602 0.048592895 0.059436172 -0.04432226 -0.019855015
-0.002249198 -0.046746008 -0.040008668 0.05114235 0.05436587 0.040614642 0.0052117757 0.049595486
0.020986503 -0.0053091138 0.00020368365 0.07114165 0.0058216625 -0.0034741121 -0.03697174 -0.008717758
-0.024790123 0.040283777 -0.0007783656 0.020662688 -0.019745748 0.051094323 -0.031346362 0.0047100848
0.041297045 0.062135603 -0.043989845 0.05408908 0.021587268 0.028609194 -0.0022499987 0.004103989
0.031927362 0.00093310245 0.0011996069 0.026118437 -0.00047353495 -0.0088735735 0.017887937 0.018417161
-0.046754863 -0.033308715 0.047031824 0.040667977 -0.047075067 -0.038813215 0.051853422 -0.027703803
0.050320197 0.05245062 0.04575063 0.007218017 0.055091597 -0.059059627 0.01887995 0.0440757
-0.05218868 -0.03475259 -0.04456759 0.047785155 -0.041826665 0.057677794 0.05353651 -0.0014189372
-0.021504393 0.03268799 -0.011601166 -0.03301831 -0.031851698 0.004477719 -0.038765192 0.026266897
-0.042815547 -0.014536637 0.02447522 0.02020327 0.012175297 0.010648173 0.064238034 -0.025715388
0.05181825 -0.02678283 -0.023535207 -0.032528244 0.049386565 0.032802805 -0.02989198 -0.043277133
0.030177547 0.056976344 0.06560541 0.05745584 0.02646704 -0.026616974 -0.0030692923 0.045670167
-0.022388909 -0.020351304 0.059126217 -0.0027079396 0.0053152074 -0.0040547075 0.0015265924 0.05907837
-0.004354729 0.04999842 0.046106543 0.033850443 -0.04567803 -0.014887895 0.009248086 0.044849146
-0.012778774 -0.010479452 0.05259434 0.0119633535 0.0022826053 0.031964477 -0.052352525 0.00039544137
0.012262801 0.06661853 0.04835738 -0.047133792 0.034666836 -0.018796256 -0.005517847 -0.030847672
-0.0019563683 0.0062167267 -0.014439358 -0.008622629 0.059720837 0.05284417 0.0032943483 0.04358593
0.035229966 0.02957393 -0.011515182 0.014441752 -0.005100461 -0.052138712 -0.0328441 -0.009588119
0.023582563 -0.0076511772 -0.031251498 0.0049718446 -0.03242926 -0.029139109 -0.030311747 -0.024600472
-0.054216597 0.06705649 0.040035725 0.05282888 0.014555303 -0.03925251 0.051496245 -0.028118214
0.04246027 0.045169603 -0.035502385 -0.036677755 0.043810338 0.05166436 -0.04247149 0.01069611
0.02053199 0.042865563 0.056636516 -0.003157948 0.0135125 0.042324517 -0.002754163 0.049123965
0.008149301 -0.0479638 0.056247685 0.028430061 0.060827628 0.03765782 -0.012593638 0.036134586
-0.05620963 -0.0031949764 -0.018606665 -0.028285768 0.020864842 -0.038929123 0.0019808323 0.025376761
0.049676437 -0.009945503 0.029589852 0.043776203 -0.0020886068 -0.020555241 0.022728223 0.04581759
00000000: ad53 82bc 2edf 5b3d b0a3 223c 997a 323d
00000010: 19e4 a2bc 111e 443d e335 2d3d 9c97 e93c
00000020: 7d3c 313c 3c8f 25bd 5e16 05bc 2b21 72bc
00000030: 86eb 5ebd bf87 503c 41bf afbc 5c34 c93c
00000040: 11aa fc3c 2914 4dbd 1a84 1cbd 17c9 a03c
00000050: 8bf6 cb3c 857c d73c baa8 6e3c 674d 2f3d
00000060: df7d 6fbd 6aa2 543d e07a 4d3b 0d45 493d
00000070: cf21 62bd cacd ea3c 6e06 a53c a910 373d
00000080: 3c59 cdbc 8da5 90bc e97a 3dbd 6b52 f53c
00000090: 8c61 333d a91f 843d 0f9a 353c 5748 2c3c
000000a0: 7227 6e3c 4d9c 3abd 550d 85bc 0b37 4cbd
000000b0: 5ed0 e13c de8a da3c 3b2b 06bd e557 c43c
000000c0: 23ce 2e3d 2ab7 373d 093d 273d b2a7 563d
000000d0: 5809 473d 5873 733d 428b 35bd fca6 a2bc
000000e0: 4867 13bb be78 3fbd 21e0 23bd a47a 513d
000000f0: bfae 5e3d 8a5b 263d 8bc7 aa3b a324 4b3d
00000100: e3eb ab3c 13f8 adbb ea93 5539 b7b2 913d
00000110: a5c3 be3b eead 63bb ae6f 17bd edd4 0ebc
00000120: a814 cbbc 9a00 253d 3b0b 4cba cc44 a93c
00000130: d6c1 a1bc 4848 513d 0b65 00bd 0e57 9a3b
00000140: 1727 293d e781 7e3d b22e 34bd 838c 5d3d
00000150: c8d7 b03c d45d ea3c b774 13bb c17a 863b
00000160: 44c6 023d 729b 743a 213c 9d3a 55f6 d53c
00000170: c944 f8b9 7762 11bc b989 923c 96df 963c
00000180: 0782 3fbd b86e 08bd 71a4 403d 7793 263d
00000190: c9d1 40bd 9bfa 1ebd 4164 543d 16f3 e2bc
000001a0: 8d1c 4e3d 76d6 563d 0365 3b3d 1d85 ec3b
000001b0: baa7 613d 82e8 71bd 20aa 9a3c b988 343d
000001c0: ccc3 55bd bb58 0ebd 818c 36bd 5eba 433d
000001d0: 7052 2bbd 8d3f 6c3d 1949 5b3d a2fb b9ba
000001e0: fb29 b0bc d8e3 053d d112 3ebc 353e 07bd
000001f0: ed76 02bd d4b9 923b 40c8 1ebd ad2d d73c
00000200: 5b5f 2fbd 132b 6ebc 4280 c83c 5481 a53c
00000210: e67a 473c ad75 2e3c 3b8f 833d 14a9 d2bc
00000220: 603f 543d aa67 dbbc e8cc c0bc 563c 05bd
00000230: 9149 4a3d 3c5c 063d 07e0 f4bc 5d43 31bd
00000240: e736 f73c 0760 693d 215c 863d d156 6b3d
00000250: 68d1 d83c d70b dabc 2e26 49bb a410 3b3d
00000260: f268 b7bc c7b7 a6bc 552e 723d b077 31bb
00000270: 312b ae3b 5add 84bb f117 c83a 29fc 713d
00000280: 1db2 8ebb 25cb 4c3d 37da 3c3d c3a6 0a3d
00000290: e318 3bbd 5cec 73bc 4985 173c bdb3 373d
000002a0: 105e 51bc 02b2 2bbc 2a6d 573d f101 443c
000002b0: c397 153b 2fed 023d 9a6f 56bd 3e53 cf39
000002c0: eae9 483c 4c6f 883d 6312 463d 5d0f 41bd
000002d0: d0fe 0d3d 9bfa 99bc 0ecf b4bb 42b4 fcbc
000002e0: 6a36 00bb afb5 cb3b 0f93 6cbc ed45 0dbc
000002f0: d69d 743d 2173 583d fee5 573b 2987 323d
00000300: 4c4d 103d 0745 f23c 2daa 3cbc 199d 6c3c
00000310: c521 a7bb 678f 55bd 8987 06bd 7c17 1dbc
00000320: 3830 c13c bab6 fabb 9201 00bd dbea a23b
00000330: 8bd4 04bd 24b5 eebc 5750 f8bc ee86 c9bc
00000340: 3912 5ebd ea54 893d 80fc 233d 1863 583d
00000350: 5e79 6e3c 3dc7 20bd baed 523d 2b58 e6bc
00000360: d2ea 2d3d c303 393d f36a 11bd 6a3b 16bd
00000370: 7872 333d 029e 533d 96f6 2dbd bd3e 2f3c
00000380: b432 a83c cd93 2f3d b1fb 673d 93f5 4ebb
00000390: 8863 5d3c 795c 2d3d 307f 34bb 3636 493d
000003a0: a584 053c b175 44bd f963 663d 29e6 e83c
000003b0: 6426 793d 163f 1a3d 8c55 4ebc dc01 143d
000003c0: 123c 66bd cf62 51bb 016d 98bc 8eb7 e7bc
000003d0: bfec aa3c 2574 1fbd dad0 013b ede2 cf3c
000003e0: 8579 4b3d 77f2 22bc 6b66 f23c ad4e 333d
000003f0: 02e1 08bb 7763 a8bc 8a30 ba3c 3aab 3b3d

weight_function_network.initial_cnn.11.bias f4 [32]
-0.0447653 -0.013747394 -0.0030053158 0.05004126 0.050745774 0.018169796 -0.0048510013 0.019372515
0.036108673 0.048189685 0.044282816 -0.014820476 -0.006923122 -0.05116793 0.014534901 0.03436663
-0.059275266 0.003937627 0.015056582 0.0561019 0.018063465 0.0106413 0.04232908 0.0008871112
-0.02759487 -0.044931717 -0.04297991 -0.023144484 0.026634604 0.019393425 -0.02378289 -0.0439231
00000000: d25b 37bd c03c 61bc d5f4 44bb 10f8 4c3d
00000010: cdda 4f3d d3d8 943c 26f5 9ebb 1cb3 9e3c
00000020: b0e6 133d 8c62 453d e661 353d 95d1 72bc
00000030: 5bdb e2bb 7795 51bd cb23 6e3c 06c4 0c3d
00000040: 9fca 72bd 3607 813b e2af 763c 1bcb 653d
00000050: d5f9 933c d958 2e3c 4261 2d3d 068d 683a
00000060: a30e e2bc 520a 38bd b40b 30bd 8099 bdbc
00000070: d030 da3c f6de 9e3c 56d4 c2bc b5e8 33bd

weight_function_network.initial_cnn.12.weight f4 [32]
0.9955531 1.0024995 1.0063376 0.9991547 0.9990439 1.0075343 0.998242 1.0014594
1.0031432 0.9961442 1.0032066 0.9927975 0.9924382 1.0008126 1.0100646 1.0048113
1.00866 1.0068444 0.9902286 1.0042574 1.001468 0.9960942 0.9963908 0.9816153
0.99916095 1.0047336 1.0062824 0.99929166 1.0013664 0.99641204 0.99749243 0.9931768
00000000: 91dc 7e3f e751 803f accf 803f 9ac8 7f3f
00000010: 57c1 7f3f e2f6 803f ca8c 7f3f d22f 803f
00000020: ff66 803f 4e03 7f3f 1369 803f fa27 7e3f
00000030: 6e10 7e3f a11a 803f cc49 813f a89d 803f
00000040: c51b 813f 47e0 803f 9f7f 7d3f 828b 803f
00000050: 1a30 803f 0800 7f3f 7813 7f3f 244b 7b3f
00000060: 03c9 7f3f 1c9b 803f ddcd 803f 94d1 7f3f
00000070: c62c 803f dc14 7f3f aa5b 7f3f d640 7e3f

weight_function_network.initial_cnn.12.bias f4 [32]
-0.005287544 -0.0038811425 -0.011349538 -0.0032172373 0.0010482739 -0.0026436117 -0.0065691676 0.006307241
-0.014306612 -0.005567682 -0.002202695 -0.0144884065 -0.013761322 -0.0072523155 -0.0025405507 -0.009019636
-0.0037454357 0.0015023486 -0.016882977 -0.005558557 -0.0022146394 -0.007822087 -0.0096230535 -0.012357284
-0.0067223664 0.0017337849 -0.005877968 -0.0083498815 -0.016107574 -0.0025843645 0.004502573 -0.011796353
00000000: 2243 adbb c45a 7ebb 6af3 39bc 49d8 52bb
00000010: 3c66 893a 7240 2dbb 2c42 d7bb f9ac ce3b
00000020: 4866 6abc 1a71 b6bb 175b 10bb c860 6dbc
00000030: 2b77 61bc d5a4 edbb 5e7f 26bb 18c7 13bc
00000040: fc75 75bb 74ea c43a 2b4e 8abc 8e24 b6bb
00000050: 7c23 11bb 3628 00bc 03aa 1dbc 3576 4abc
00000060: 4c47 dcbb 2b40 e33a f89b c0bb f1cd 08bc
00000070: 08f4 83bc 715e 29bb 528a 933b 7e45 41bc

weight_function_network.initial_cnn.12.running_mean f4 [32]
0.7106017 -0.29771283 0.13695237 0.0043536345 -0.30544662 0.027125955 -0.09526663 0.11440216
0.36999038 0.046063326 0.4124793 0.27860734 0.024264129 -0.016203497 0.041061528 0.064442545
0.13796493 0.21782024 0.22236909 -0.054121222 -0.28622273 -0.053501908 -0.027150165 0.2643354
-0.08987178 0.14479116 0.06350743 -0.100224964 0.2537836 -0.2464716 0.0139781395 -0.117494784
00000000: fee9 353f d16d 98be 3e3d 0c3e efa8 8e3b
00000010: 8063 9cbe 4037 de3c 271b c3bd ae4b ea3d
00000020: 616f bd3e e6ac 3c3d 7d30 d33e 9fa5 8e3e
00000030: 91c5 c63c 32bd 84bc 2230 283d 74fa 833d
00000040: ae46 0d3e 450c 5f3e b9b4 633e 37ae 5dbd
00000050: c98b 92be d124 5bbd 066a debc f856 873e
00000060: b20e b8bd 2244 143e 2f10 823d bf42 cdbd
00000070: edef 813e 0d63 7cbe 9104 653c 1ba1 f0bd

weight_function_network.initial_cnn.12.running_var f4 [32]
0.14175518 0.13966711 0.10865724 0.09531521 0.12898079 0.09874984 0.088696174 0.08712573
0.086875565 0.11359871 0.13228422 0.14096963 0.085622266 0.12273602 0.081077635 0.06962409
0.14701715 0.07883264 0.13492295 0.113418974 0.17022184 0.06854948 0.091693304 0.09650648
0.14391613 0.108483985 0.13548322 0.10090013 0.12005566 0.110058546 0.08647363 0.14486007
00000000: 4528 113e e504 0f3e b087 de3d 9f34 c33d
00000010: 8a13 043e 5b3d ca3d 57a6 b53d fa6e b23d
00000020: d1eb b13d 71a6 e83d 8475 073e 585a 103e
00000030: ba5a af3d 065d fb3d 080c a63d 1397 8e3d
00000040: aa8b 163e 0273 a13d 3e29 0a3e 3548 e83d
00000050: a24e 2e3e ab63 8c3d b3c9 bb3d 30a5 c53d
00000060: c05e 133e da2c de3d 1dbc 0a3e baa4 ce3d
00000070: bedf f53d 6066 e13d 1619 b13d 3356 143e

weight_function_network.adaptive_layer.1.weight f4 [64, 32, 3, 3]
-0.054983977 -0.048142847 0.039559178 0.015846925 0.0074457265 -0.04188777 0.044347826 0.011331041
0.008260636 0.053622153 0.05399667 -0.035687767 0.020833706 -0.033435978 -0.044787195 -0.009350205
0.016808137 0.0037562305 -0.04694257 0.016915368 -0.018190013 -0.026961839 0.003682715 0.040871684
-0.037553728 0.016549796 0.0053621186 0.025665293 -0.03555596 0.016482223 -0.028688196 0.008350676
-0.030429129 -0.020452354 0.029388916 0.037942506 -0.0038066825 0.01069625 -0.02629777 -0.014183609
0.04510339 0.011998968 -0.068326935 0.043279346 0.042326014 0.04232838 0.06380694 0.007953517
0.06258681 -0.033509817 0.02597292 -0.022511357 0.060205437 0.005505671 0.030973202 0.014274136
0.00022863154 -0.02525317 -0.0064397547 -0.050488617 0.037776362 -0.00014962343 0.002038708 -0.050597224
-0.06410767 -0.065041296 0.03947212 -0.035578847 0.0020011999 -0.028027538 0.03201779 0.022626497
-0.03942689 0.040548384 0.038524847 -0.03423392 0.05714903 -0.0219916 0.024128646 0.060843784
0.032087535 0.018922733 -0.023226423 0.0077824816 0.0033299138 -0.043771356 -0.00018365252 0.041789632
0.065620184 -0.0336591 0.03539771 -0.03385048 -0.023872854 0.05020926 0.05750117 0.047258608
-0.043996874 -0.0093413675 0.04217368 -0.020970525 0.04896115 0.055279672 0.02998763 0.005504388
-0.00025582107 0.0321939 -0.052314106 0.030322902 -0.046433844 -0.016390378 -0.0330361 -0.04835003
0.034819197 0.033715487 -0.051156882 0.023865085 -0.0583032 0.040032595 0.035706166 0.0076930756
-0.022688571 -0.044257734 -0.0052906442 -0.014545281 0.015509428 0.0063274093 -0.016872773 0.042269178
-0.009659309 0.00196583 0.020324152 0.018253451 -0.024304917 -0.021319652 0.01721847 -0.043334085
-0.053640712 -0.060781617 -0.035281587 0.012249192 -0.017529752 -0.053142685 -0.0433752 -0.0324063
-0.03056687 -0.033093315 -0.029403552 -0.004735424 0.044637624 0.009796253 0.060591258 0.04979551
0.019780194 0.04240528 0.033000454 -0.016345447 -0.04660442 -0.009737744 -0.026627775 0.05563271
0.050688967 -0.009055117 -0.015240175 0.021019666 -0.04373512 -0.06715629 -0.051682867 -0.024044827
-0.044162083 -0.018554056 -0.018470509 -0.0111886645 0.025004718 -0.06091532 0.019064859 0.022106368
-0.010386032 -0.025894718 -0.012637017 -0.038160484 -0.022659155 0.027834352 -0.036256187 -0.011935356
0.0018663773 0.009696219 -0.018070208 0.01955675 -0.023752887 -0.01392746 -0.02112658 0.039807923
0.019867677 0.023041131 0.02835337 0.025604647 -0.03156003 -0.054291703 0.014427607 -0.048024196
0.057635054 0.007361083 0.03003635 -0.0267807 0.03173886 0.05084101 -0.0032741614 0.040673826
-0.05554211 0.027699232 0.055149823 -0.004651448 0.012963524 -0.030139526 0.031966466 -0.011443918
0.039827935 -0.0040360973 -0.029393703 0.01851976 -0.052589674 -0.012535847 0.034298208 0.041103568
0.032721348 -0.058646664 0.007388488 -0.021224147 -0.035458993 0.031524256 0.001859091 -0.042535096
0.036824126 0.049761336 0.039277926 0.039696217 -0.031399556 0.050712805 -0.05492189 0.02868846
0.0062870206 -0.033308297 -0.047660634 -0.010788775 0.036968492 0.032442767 0.0248277 -0.051124662
-0.02041269 0.029375399 -0.0058815936 -0.028247282 -0.012115573 -0.05083673 -0.044375647 0.035027392
00000000: e136 61bd 6f31 45bd ce08 223d 69d1 813c
00000010: 48fb f33b 8392 2bbd 11a6 353d d5a5 393c
00000020: 9e57 073c e7a2 5b3d 9d2b 5d3d 562d 12bd
00000030: 73ab aa3c 2af4 08bd c772 37bd 9a31 19bc
00000040: 38b1 893c 172b 763b da46 40bd 1992 8a3c
00000050: 3903 95bc 13df dcbc b459 713b 1169 273d
00000060: f0d1 19bd 7093 873c b6b4 af3b 0540 d23c
00000070: 20a3 11bd ba05 873c 8203 ebbc 46d1 083c
00000080: 8246 f9bc b28b a7bc 06c1 f03c 9a69 1b3d
00000090: 8979 79bb 533f 2f3c 6c6e d7bc 5e62 68bc
000000a0: 55be 383d 5297 443c feee 8bbd af45 313d
000000b0: 0b5e 2d3d 8660 2d3d 37ad 823d 784f 023c
000000c0: 832d 803d 9741 09bd 29c5 d43c bd69 b8bc
000000d0: fa99 763d ea68 b43b 83bb fd3c 11de 693c
000000e0: d0bc 6f39 bcdf cebc 9404 d3bb 27cd 4ebd
000000f0: 63bb 1a3d 3ce4 1cb9 d89b 053b 093f 4fbd
00000100: e24a 83bd 5f34 85bd 85ad 213d 20bb 11bd
00000110: 9026 033b 029a e5bc 1625 033d 345b b93c
00000120: 177e 21bd 1016 263d 3bcc 1d3d de38 0cbd
00000130: 1a15 6a3d ba27 b4bc 70a9 c53c 5537 793d
00000140: 386e 033d d903 9b3c 5745 bebc 3004 ff3b
00000150: af3a 5a3b 9849 33bd d992 40b9 9b2b 2b3d
00000160: e063 863d 20de 09bd 30fd 103d cda6 0abd
00000170: 0191 c3bc 3aa8 4d3d 5986 6b3d 3e92 413d
00000180: 1136 34bd 890c 19bc 4fbe 2c3d 61ca abbc
00000190: 7d8b 483d f06c 623d 9ea8 f53c 275e b43b
000001a0: b91f 86b9 c0dd 033d 5147 56bd bc67 f83c
000001b0: 6a31 3ebd 1d45 86bc dd50 07bd ae0a 46bd
000001c0: 939e 0e3d 4019 0a3d e189 51bd b680 c33c
000001d0: 56cf 6ebd 38f9 233d a140 123d 3216 fc3b
000001e0: 62dd b9bc 9947 35bd 245d adbb 554f 6ebc
000001f0: 421b 7e3c 2856 cf3b c538 8abc 7222 2d3d
00000200: 1442 1ebc 28d5 003b d67e a63c 4388 953c
00000210: 1b1b c7bc 8da6 aebc c00d 8d3c 157f 31bd
00000220: 5db6 5bbd 25f6 78bd 6d83 10bd d6b0 483c
00000230: 8e9a 8fbc 25ac 59bd 32aa 31bd 78bc 04bd
00000240: 5f67 fabc db8c 07bd b8df f0bc 9e2b 9bbb
00000250: f1d5 363d 7780 203c 8a2e 783d 60f6 4b3d
00000260: 130a a23c 29b1 2d3d 7c2b 073d e3e6 85bc
00000270: 47e4 3ebd 0f8b 1fbc 7e22 dabc 20df 633d
00000280: 3c9f 4f3d ea5b 14bc edb1 79bc 6f31 ac3c
00000290: 9923 33bd 3d89 89bd 6ab1 53bd a8f9 c4bc
000002a0: 4de3 34bd adfe 97bc 774f 97bc a950 37bc
000002b0: b2d6 cc3c 5882 79bd e82d 9c3c 6a18 b53c
000002c0: 2d2a 2abc 2921 d4bc 7e0b 4fbc 2b4e 1cbd
000002d0: b19f b9bc de04 e43c 5e81 14bd 838c 43bc
000002e0: 3ba1 f43a e4dc 1e3c f907 94bc 7a35 a03c
000002f0: 6a95 c2bc 0030 64bc a611 adbc a20d 233d
00000300: 8ac1 a23c c1c0 bc3c 5445 e83c d6c0 d13c
00000310: 1745 01bd fa60 5ebd c561 6c3c 05b5 44bd
00000320: bc12 6c3d 3d35 f13b cb0e f63c 3363 dbbc
00000330: 9b00 023d aa3e 503d 5093 56bb 9999 263d
00000340: 2080 63bd 80e9 e23c c8e4 613d 2d6b 98bb
00000350: f664 543c 2be7 f6bc 45ef 023d 457f 3bbc
00000360: 9e22 233d 3d41 84bb 10cb f0bc c0b6 973c
00000370: 4568 57bd 2763 4dbc 477c 0c3d 375c 283d
00000380: d206 063d 7c37 70bd 211b f23b 43de adbc
00000390: 733d 11bd 941f 013d beac f33a 4839 2ebd
000003a0: e5d4 163d 8bd2 4b3d e4e1 203d 8098 223d
000003b0: d29c 00bd 3bb8 4f3d c7f5 60bd 1004 eb3c
000003c0: 5a03 ce3b 486e 08bd cc37 43bd 67c3 30bc
000003d0: 466c 173d b5e2 043d 7663 cb3c 1868 51bd
000003e0: 8338 a7bc ada4 f03c 62ba c0bb d866 e7bc
000003f0: 6580 46bc 2d3a 50bd 3dc3 35bd e278 0f3d

weight_function_network.adaptive_layer.1.bias f4 [64]
-0.006706728 -0.008235276 -0.03712451 -0.013955978 -0.00870461 -0.024301052 0.04046386 0.002439493
0.0200896 0.031896643 -0.020856071 -0.04367875 0.052439254 0.017337745 -0.010083532 -0.048192754
-0.05822658 -0.019664574 -0.03496181 0.03921326 -0.008331711 -0.021477962 0.0061458787 -0.055229545
0.03202492 -0.031804584 -0.011607809 -0.030543704 0.041081708 -0.0022364256 -0.0043000947 -0.020020913
-0.031561065 0.02976962 -0.00824796 -0.0367918 0.042550284 0.049436137 -0.043156218 0.0027164796
-0.01958301 -0.04681395 -0.009632204 0.023155263 -0.0005013957 -0.016727135 -0.04231403 -0.051511057
-0.05290147 -0.049655467 -0.03179857 -0.0044863583 0.042484544 -0.031035911 0.027078468 0.0060580126
0.03820904 -0.002237837 -0.007466939 0.017310102 -0.031128285 -0.057437204 0.027674127 0.007159498
00000000: 1dc4 dbbb 40ed 06bc df0f 18bd 9da7 64bc
00000010: c89d 0ebc 0013 c7bc 6fbd 253d e7df 1f3b
00000020: f292 a43c 0ea6 023d 5ada aabc 7de8 32bd
00000030: 8bca 563d e307 8e3c 6635 25bc c465 45bd
00000040: ff7e 6ebd 9a17 a1bc 1d34 0fbd 159e 203d
00000050: bb81 08bc 8df2 afbc 5e63 c93b 6038 62bd
00000060: 902c 033d 8645 02bd ae2e 3ebc ca36 fabc
00000070: 4b45 283d ff90 12bb cfe7 8cbb e602 a4bc
00000080: 2d46 01bd 6bdf f33c 7422 07bc 00b3 16bd
00000090: 3549 2e3d 8c7d 4a3d 93c4 30bd f706 323b
000000a0: 8c6c a0bc fcbf 3fbd 64d0 1dbc 1bb0 bd3c
000000b0: 1970 03ba 5807 89bc 7a51 2dbd 42fd 52bd
000000c0: 36af 58bd 8863 4bbd 383f 02bd 4d02 93bb
000000d0: 4604 2e3d 063f febc aad3 dd3c 4b82 c63b
000000e0: 1581 1c3d ada8 12bb 39ad f4bb eacd 8d3c
000000f0: bf00 ffbc 4643 6bbd dab4 e23c 399a ea3b

weight_function_network.adaptive_layer.2.weight f4 [64]
0.98855376 0.9974578 0.99243915 0.9990694 1.0020183 0.99592865 1.0063485 1.0061231
1.0105966 1.0029451 1.0047082 1.0006367 0.9999396 0.9966705 0.9919148 1.0057048
1.0007426 1.0008727 1.0020182 1.0083504 1.0070643 1.0096619 0.9985881 1.0013564
0.99916625 1.0028899 0.9905844 0.9919521 1.0001647 0.9891233 0.983222 0.9976808
1.0016689 0.9982126 0.99667203 1.0027897 1.0134113 0.9923196 1.0086275 0.991233
0.9974599 0.99776137 1.0026001 1.0044484 1.0055436 1.0038503 0.99556184 1.0092338
0.99251854 0.9873891 1.0092732 1.003205 0.9943333 0.9813741 0.9896796 0.99611276
0.9933818 0.998123 1.0040765 0.99577 0.9995838 0.99437696 1.00788 0.9993205
00000000: dc11 7d3f 6559 7f3f 7e10 7e3f 03c3 7f3f
00000010: 2342 803f 2ef5 7e3f 07d0 803f a4c8 803f
00000020: 3b5b 813f 8160 803f 479a 803f dd14 803f
00000030: 0bfc 7f3f cc25 7f3f 21ee 7d3f efba 803f
00000040: 5518 803f 991c 803f 2242 803f a011 813f
00000050: 7ce7 803f 9a3c 813f 78a3 7f3f 722c 803f
00000060: 5cc9 7f3f b25e 803f f096 7d3f 93f0 7d3f
00000070: 6605 803f 2f37 7d3f 70b4 7b3f 0268 7f3f
00000080: b036 803f dc8a 7f3f e625 7f3f 6a5b 803f
00000090: 76b7 813f a808 7e3f b51a 813f 72c1 7d3f
000000a0: 8859 7f3f 4a6d 7f3f 3355 803f c491 803f
000000b0: a7b5 803f 2b7e 803f 24dd 7e3f 932e 813f
000000c0: b215 7e3f 88c5 7c3f dd2f 813f 0569 803f
000000d0: a18c 7e3f 553b 7b3f a45b 7d3f 3f01 7f3f
000000e0: 454e 7e3f fd84 7f3f 9485 803f c8ea 7e3f
000000f0: b9e4 7f3f 7d8f 7e3f 3602 813f 78d3 7f3f

weight_function_network.adaptive_layer.2.bias f4 [64]
-0.011789539 -0.010362399 -0.0028812822 0.00079765695 -0.01905603 -0.006238147 -0.020118346 0.0033334957
0.012978949 -0.0010247591 -0.0056087947 -0.0071184565 -0.011328555 -0.002110816 -0.011180091 0.015809326
-0.0008607991 -0.0018009158 -0.0021716715 0.0012663004 0.006512922 0.003507813 -0.010231068 0.00785893
-0.0048606526 -0.008449463 -0.010732399 -0.01942291 0.0015194344 -0.0028358526 -0.017653283 -0.016784115
-0.009717656 -0.0063453177 -0.009568164 -0.009108591 0.005432093 -0.016674513 -0.0064776153 -0.0052494225
-0.010343369 -0.00983884 -0.0077618184 -0.0064292895 0.0021158694 -0.0062848073 -0.0019581376 -0.008775724
-0.011956801 -0.009636914 9.323358e-05 -0.0058755567 -0.0072556525 -0.013354517 -0.023190668 -0.00734353
-0.006357536 4.690557e-05 -0.018356329 -0.012999774 -0.0026433172 -0.014171975 -0.007091433 -0.00728233
00000000: e928 41bc 0dc7 29bc e5d3 3cbb da19 513a
00000010: 641b 9cbc 5f69 ccbb 3bcf a4bc c776 5a3b
00000020: a8a5 543c 3651 86ba fbc9 b7bb f141 e9bb
00000030: 679b 39bc 9e55 0abb b32c 37bc 8f82 813c
00000040: 40a7 61ba b50c ecba 9a52 0ebb fef9 a53a
00000050: 596a d53b 56e3 653b 36a0 27bc bec2 003c
00000060: 1c46 9fbb 9e6f 0abc f2d6 2fbc cb1c 9fbc
00000070: c227 c73a b6d9 39bb 9e9d 90bc d77e 89bc
00000080: ce36 1fbc 62ec cfbb cac3 1cbc 333c 15bc
00000090: b3ff b13b fd98 88bc 2d42 d4bb 5903 acbb
000000a0: 3c77 29bc 1633 21bc da56 febb caac d2bb
000000b0: 66aa 0a3b c9f0 cdbb 1954 00bb 0ec8 0fbc
000000c0: 75e6 43bc 26e4 1dbc 6686 c338 be87 c0bb
000000d0: d3c0 edbb e7cc 5abc 5bfa bdbc ffa1 f0bb
000000e0: e152 d0bb 79bc 4438 0360 96bc 01fd 54bc
000000f0: 813b 2dbb 9231 68bc 405f e8bb 9da0 eebb

weight_function_network.adaptive_layer.2.running_mean f4 [64]
-0.043364275 -0.05959116 0.13330784 -0.26583266 0.03645442 -0.12453845 0.3776825 -0.68662065
0.5624084 0.08678146 0.22347349 0.25779393 0.17394638 -0.44405675 -0.11122537 -0.66975254
-0.27893648 -0.69565 -0.047853857 -0.49278435 -0.0067200623 0.19536093 0.016029518 -0.039120026
0.37191236 0.11140342 -0.09935045 -0.2674378 0.1309179 -0.51011866 -0.012969311 0.26045534
0.35258645 0.09441791 0.3458739 -0.048083242 -0.012889893 -0.1663479 -0.09919996 0.19395883
0.23771356 -0.070596725 0.12468029 -0.12638739 0.2143996 -0.44231907 -0.2792484 0.1566576
-0.24862729 0.24076682 -0.46012506 0.023163022 -0.03691875 -0.544844 0.030879721 -0.06312115
0.20723517 -0.034909338 0.2707396 0.14543796 -0.042458348 0.16858777 0.43326595 0.10362688
00000000: bd9e 31bd dc15 74bd da81 083e 381b 88be
00000010: 3b51 153d 040e ffbd 9a5f c13e 5fc6 2fbf
00000020: fff9 0f3f 7aba b13d 3cd6 643e 91fd 833e
00000030: 001f 323e 685b e3be 20ca e3bd e774 2bbf
00000040: c3d0 8ebe 1e16 32bf 6802 44bd 3b4e fcbe
00000050: f833 dcbb b20c 483e 5650 833c 523c 20bd
00000060: 4c6b be3e 7a27 e43d 4078 cbbd 9bed 88be
00000070: 580f 063e 2397 02bf 3c7d 54bc 675a 853e
00000080: 3686 b43e 2d5e c13d 6216 b13e eff2 44bd
00000090: 2130 53bc 1b57 2abe 5929 cbbd 259d 463e
000000a0: 2f6b 733e 0495 90bd 6158 ff3d b26b 01be
000000b0: 928b 5b3e a577 e2be a5f9 8ebe da6a 203e
000000c0: 2798 7ebe 948b 763e 8395 ebbe 61c0 bd3c
000000d0: 1d38 17bd e57a 0bbf 78f7 fc3c a945 81bd
000000e0: 7535 543e 18fd 0ebd 619e 8a3e b0ed 143e
000000f0: cee8 2dbd 46a2 2c3e 09d5 dd3e 543a d43d

weight_function_network.adaptive_layer.2.running_var f4 [64]
0.16652079 0.10059935 0.21252689 0.21213703 0.12441552 0.16960917 0.1515056 0.28549054
0.35205823 0.21996422 0.13250732 0.23984441 0.13957255 0.18117358 0.123162135 0.41869426
0.17877497 0.25259206 0.14973477 0.2898585 0.1760644 0.15491317 0.13391235 0.20007801
0.17353958 0.20970136 0.10944812 0.20759979 0.18255915 0.31021044 0.15734318 0.22030504
0.2539774 0.29114798 0.17238545 0.2294611 0.25133365 0.117779694 0.2708637 0.25761482
0.22111164 0.16663764 0.16699983 0.14291096 0.20965885 0.26580793 0.14879824 0.24067457
0.15494613 0.16626859 0.33520544 0.18301244 0.10350181 0.29628474 0.11396725 0.14586592
0.28947335 0.22764835 0.15349247 0.095838346 0.13544457 0.1620367 0.14976285 0.19445609
00000000: 6d84 2a3e 0807 ce3d a6a0 593e 733a 593e
00000010: 90cd fe3d 07ae 2d3e 4924 1b3e d12b 923e
00000020: fa40 b43e 4d3e 613e 00b0 073e c699 753e
00000030: 1bec 0e3e 9185 393e 6e3c fc3d 185f d63e
00000040: c910 373e bf53 813e 1254 193e 5568 943e
00000050: 3a4a 343e 8fa1 1e3e 5220 093e 40e1 4c3e
00000060: 5cb4 313e f4bb 563e 5626 e03d 0a95 543e
00000070: c9f0 3a3e e7d3 9e3e 921e 213e a597 613e
00000080: 5309 823e 5911 953e d085 303e daf7 6a3e
00000090: ceae 803e 7b36 f13d a6ae 8a3e 17e6 833e
000000a0: 176b 623e 0fa3 2a3e 0102 2b3e 4057 123e
000000b0: cfb0 563e fa17 883e 915e 183e 6573 763e
000000c0: 33aa 1e3e 5042 2a3e 0ca0 ab3e 9d67 3b3e
000000d0: c2f8 d33d a2b2 973e a967 e93d e05d 153e
000000e0: da35 943e a61c 693e 212d 1d3e e546 c43d
000000f0: fbb1 0a3e f3ec 253e 6f5b 193e 7f1f 473e
