logs/测试学习率策略对训练准确度与稳定性的影响/model.lr=0.005scheduler.MultiStepLR.milestones=[10, 20, 30]scheduler.MultiStepLR.gamma=0.5/test_model_20250419_134350.pth (torch, 193285 bytes, 32 tensors)

weight f4 [128, 1]
00000000: 3487 df3e 08a7 193f 6d5c dcbe 6475 c3be
00000010: 8020 c43c b97d e43e 680a 39bf cb3b 17bf
00000020: 75eb 45be 8d20 24bf e8d3 42be e6a7 843f
00000030: 008e 0e3b 3643 eb3d 5336 2abf 8d45 403f
00000040: cc6f 6e3e 83c3 f1bd f9e6 43bf 2145 883c
00000050: 5f0b 423f d9be 7c3f 35d6 04bf 9e64 9ebd
00000060: bd26 49bf 96b0 3a3f c92e 5f3f 7479 e0be
00000070: 28d1 cfbe 8a7a 523f 1b35 5b3f cc54 063f
00000080: 5566 29bf 6169 343f 5635 a53e 7108 49bf
00000090: 32d3 80bf d29f 12bf 80c8 97bc 583d 43bf
000000a0: ef3f fbbd 475e 343e f6c2 acbd b019 023e
000000b0: 06ab 223f ffe5 823e dd33 503f b4af 853f
000000c0: a9ab 43bf 58c2 0d3f 94da 5e3f 7bf4 1d3f
000000d0: 60f7 263e 2f0c 453f 7e74 a5bc d43e a73c
000000e0: 4669 3a3f a307 0abf 8239 823f b770 c8be
000000f0: 1924 5ebf 9cd0 06bf c9a7 33bf 62c0 4e3f
00000100: 38cf 0ebe 2f24 6c3f 95d0 4cbf dffd 0dbf
00000110: f038 e03d 507a 323f 44cb 533f 5167 593f
00000120: ca4c 193f 21df 10bf d0d2 8c3e bb26 71bf
00000130: fe1c 1cbf 8001 1b3f 8579 96be 9b0b 2fbf
00000140: 5e0d 263f 7fc7 693f cf63 1a3f 8072 0dbe
00000150: 5d88 d93e 979e 263f c091 4a3e 0b34 743f
00000160: ba49 1c3e 5640 b6be 7919 623f fc7b b0be
00000170: 4f73 293f ea38 68bf 347b 77bf 85c2 093f
00000180: a4e6 123f ec26 6a3f 5a24 5cbe fcf0 6f3f
00000190: e986 523f cf33 f4be 208f 21bd 80b7 243f
000001a0: 0268 353f 3199 383f 8900 e3bd b054 41be
000001b0: 783c 5ebf 7032 3dbe 449f 5f3f 2477 463f
000001c0: e07b 343d 56b0 443f 52cb 3cbe 2a5f 2a3e
000001d0: c163 07bf f8dd c63e 1b7f 6cbf 0a47 0dbf
000001e0: b61b 7dbf a981 0abf 2603 55bf c4c2 203f
000001f0: d912 b93e baff 6e3f 6aac 0cbf acaf 59bf
0.4365784 0.60020494 -0.43039265 -0.381755 0.023941278 0.4462717 -0.72281504 -0.5907561
-0.19328101 -0.6411217 -0.19026148 1.0363739 0.002175212 0.11487429 -0.6648914 0.75106126
0.23284835 -0.11804869 -0.7652431 0.016634526 0.757986 0.9872871 -0.51889354 -0.07734035
-0.78574735 0.729257 0.87180763 -0.4384266 -0.4058926 0.8221823 0.8562791 0.5247314
-0.6617177 0.70473295 0.32267255 -0.78528506 -1.0064452 -0.57275116 -0.018528223 -0.7626548
-0.12268054 0.17614089 -0.08435623 0.12705112 0.6354221 0.25566098 0.8132914 1.0444245
-0.7643381 0.5537467 0.87052274 0.6170117 0.16305304 0.76971716 -0.02019715 0.020415701
0.72816885 -0.539179 1.01738 -0.39148495 -0.8677383 -0.5266206 -0.70177895 0.807623
-0.13946235 0.9224271 -0.8000577 -0.554655 0.1094836 0.69717884 0.82732034 0.84923273
0.59882796 -0.5659047 0.27504587 -0.94199723 -0.6098174 0.60549164 -0.29389587 -0.68377084
0.64864147 0.9132003 0.60308546 -0.1381321 0.4248685 0.6508574 0.19782162 0.9539191
0.152625 -0.3559596 0.8832012 -0.34469593 0.6619157 -0.90711844 -0.9667237 0.5381244
0.5738318 0.9146564 -0.21498242 0.9372709 0.82237107 -0.47695777 -0.039443135 0.643425
0.7086183 0.7210875 -0.110840864 -0.18879962 -0.8681102 -0.18476272 0.87352395 0.77525544
0.04406345 0.7683157 -0.18436936 0.16637865 -0.5288659 0.38841224 -0.9238145 -0.5518652
-0.9887041 -0.54104096 -0.8320793 0.6279719 0.36147192 0.9335896 -0.54950583 -0.8503368

bias f4 [128]
00000000: 6ed8 263f 1b77 2ebc 90c9 7d3f 00ed f8be
00000010: 1009 a3be f44b ad3e 0625 43bf 2248 793f
00000020: 5ef0 e3bb e3c2 96be 42c2 7cbf 2279 91be
00000030: 58c7 48be c65b aa3e 3926 19be 07a7 893e
00000040: 4f71 5a3f 8d64 6a3e 4486 0bbf 3b0b f73e
00000050: b9e8 70be e538 45bf f399 303f 7215 f43e
00000060: 26d7 3e3f c09f de3e 9d2a 203f de0c 03bf
00000070: 2228 5dbf a4f7 493f 33ef 1e3f 3e77 72be
00000080: b2b0 7f3f 04b4 bbbe 2fcc a73e 7d32 b2be
00000090: 6e81 733f 0019 6dbf 522d 1dbf 62f6 d53e
000000a0: 8610 293f bd36 da3d f914 15bc 0c9c 18bf
000000b0: 76ac 53bf 309f 4a3f b5b9 ccbe f79e d63e
000000c0: 0229 b83d 2cac 1b3f 58fe 7a3f 626a 073f
000000d0: 1040 35be 049b a0be 7093 443f 18b9 123f
000000e0: 288e 66bf b16b 0f3f 8de1 c33c 15dd 92be
000000f0: 641e 61bf 5d84 d7be da0e 7d3f a8f3 5bbf
00000100: 1c0e d3be 4165 3ebf cefd 9a3e 70f2 fb3e
00000110: a20e c33e 0d23 c73e 3fc1 61be 3193 1dbf
00000120: e8cf 0d3f 002c dc3e 961a 08bf f5d7 7bbf
00000130: ccd0 2bbe 07b4 953d 6e3e a43e f2f3 9f3e
00000140: 983f 39bf afe9 32bf 0e95 293f 91ec 5b3f
00000150: c215 b03d 3302 83be a827 14bf 2747 613f
00000160: a5e2 743f fdd8 353f cc26 7bbd 5902 3a3f
00000170: 02d2 eb3e b2d6 1a3f 2fbc 323f af53 96bd
00000180: ae41 73bf 97cc 053f 7ade 1b3e 8536 9dbe
00000190: 9073 1c3f 386f 4e3f 16a4 35bf 2578 473e
000001a0: 1c5f fdbd 6050 653f e235 b53d 485c 89be
000001b0: 9ced 9e3e c12c 733f b21c 163f 6fca 28bf
000001c0: f81e 2bbe 0ea1 493f a6e1 013f 4702 a33d
000001d0: 3b2f b03e 8886 5ebf bc74 9dbe 84f8 6dbf
000001e0: 04ea 01bf 844e 813f 86dc 72bf 58c1 133f
000001f0: 1da7 5c3f df13 30bf 52c3 3f3f e869 79be
0.65173995 -0.010648514 0.99135685 -0.48618317 -0.31842852 0.3384701 -0.7622837 0.9737569
-0.0069561442 -0.29445562 -0.98733914 -0.2841273 -0.19607294 0.33273143 -0.14955987 0.26885244
0.85329145 0.2288992 -0.5450175 0.48250756 -0.23526277 -0.7703994 0.6898491 0.4767261
0.7454704 0.43481255 0.6256502 -0.5119151 -0.8638936 0.78893495 0.6208374 -0.236783
0.9987899 -0.3666078 0.32772967 -0.34804145 0.9511937 -0.9261627 -0.6139728 0.41789538
0.6604084 0.10654972 -0.009099239 -0.5961311 -0.8268503 0.7914915 -0.39985433 0.41918156
0.089921966 0.6080959 0.9804435 0.528967 -0.17700219 -0.31368268 0.7678747 0.5731368
-0.90060663 0.560237 0.023911262 -0.28684297 -0.87937 -0.42093173 0.98850787 -0.85918665
-0.41221702 -0.7437325 0.30271763 0.49208403 0.380971 0.3889393 -0.22046374 -0.6155272
0.55395365 0.4300232 -0.53165567 -0.983764 -0.16778868 0.07309728 0.3207888 0.31240803
-0.7236266 -0.6988782 0.66243064 0.85907847 0.085979 -0.25587615 -0.5787301 0.87999195
0.9565833 0.7103422 -0.061316296 0.7265983 0.4605866 0.6048385 0.69818395 -0.0734018
-0.95022094 0.52265304 0.15221587 -0.30705658 0.61113834 0.80638456 -0.709535 0.19479425
-0.12371656 0.8957577 0.08848168 -0.26828218 0.31040657 0.94990164 0.58637536 -0.6593389
-0.16711032 0.78761375 0.5073494 0.07959419 0.34411034 -0.8692403 -0.30753124 -0.9295733
-0.50747705 1.0102086 -0.9486774 0.57716894 0.86192495 -0.6878032 0.7490741 -0.24356806

weight f4 [8, 128]
00000000: 00c8 693d 7505 ea3b d3c1 f73d 8170 afbd
00000010: e417 de3c ed8a ac3c f782 a1bd 7b0c d43c
00000020: 5b62 c23d 4d92 7c3c 5b07 a13d 5c59 a33c
00000030: bea6 333d aff0 e23c 9d13 19bd b001 00bd
00000040: fea0 d23d 9074 f53d d109 0f3d 17ca 06bd
00000050: 364a 723d f83b fdbc 7f7d 7f3d 483b f83d
00000060: 0621 a83d 9189 623d 1145 8cbb 396a 863d
00000070: 8f04 8dbd 755d d13c 657e 3bbd b7bb 20bd
00000080: ed76 f63d 963a a0bd e851 303d 051b ed3d
00000090: 2b82 1fbc 300d 14bc d025 183c 815a c0bc
000000a0: f905 ccbc 8725 303d 7451 9e3d 103b e5bb
000000b0: ded2 7c3d b8f3 f8bc c614 703d b345 a5bd
000000c0: 857e d53d f763 a83d ee78 3d3d 01cc d83c
000000d0: 9875 42bc 2046 893b 84a0 07bd 86c7 a53d
000000e0: b8d8 2f3c d056 153c 3128 3b3d c712 643d
000000f0: b2d8 0abc a713 0b3d cae8 b33c e0a6 f53c
00000100: a078 4b3b 7232 643d 252f 0c3e 7e26 6a3d
00000110: c947 543d fbc1 1ebd 7085 e0bc b067 b13b
00000120: ace8 9abc 3948 913b 6018 92bb 95ce aa3d
00000130: dff2 43bb 5d35 61bd 37dc 31bb f6af 133e
00000140: d02e 6fbc 87fc 93bd 9175 573b 8709 d3bc
00000150: 8254 3bbd 1a53 32bd 52a5 adbd c68e 4fbd
00000160: 4d58 6fbc c7e8 5c3d 752e 3ebd 9dc3 823d
00000170: 1970 d63c 35ac 093c f6de 8fbc 8f08 4fbd
00000180: 9f3e 5fbd 3e2f 32bd 9ccc ef3c f175 89bd
00000190: 3c86 093d b68b 593c e0cb 713c 0f1f 94bd
000001a0: f01f a03b 0a95 85bd a297 dc3d 3cbb 803c
000001b0: 0dd1 533d aa88 10bd 22e0 17bd 39ac 1ebd
000001c0: 2c4f 153d 6db9 63bd e88f 873d 4eb3 6cbc
000001d0: f93e debc 7d79 b03d c26c b73d 5ce8 eebc
000001e0: d3ed 153d 5c00 1b3d 015d 48bd efb8 89bd
000001f0: 34d1 8abd 6f7b 20bd fd29 cd3c 0601 843d
00000200: 9f8a 9d3d 1218 f83d 74d7 483d 761e 5e3d
00000210: e679 90bd 8760 313b d235 a0bd 2639 88bd
00000220: 8136 b9bc 08ce 97bd e7c9 3dbd 7c94 d73d
00000230: 33a6 83bd 3a33 6a3d b256 c2bc 6a61 943d
00000240: a823 5ebd 0e48 6b3d 774e 88bd 3eeb e53d
00000250: 79ac 1ebb 1f57 633d 4f8e 083d 44c4 c43d
00000260: ad23 9ebd 4455 043c 7736 34bd 989e 0f3d
00000270: f8b0 cf3c b9a6 b43d c4db da3b 78fe d73d
00000280: 1d68 433c d75f d13d fecc 2a3d a1e4 673b
00000290: 8700 9ebc 4cc5 be3c 2c32 aabc baba 3dbd
000002a0: 64c8 a23c febf 193c 61fe 71bc 0077 323c
000002b0: 7f1b 8c3d edd1 74bb bf2a c53c 3f1e 013d
000002c0: 168a 513d 8461 0a3d 9af6 663d 6273 bf3c
000002d0: cccf db3c 2d3a df3d 792f 433d b995 dd3d
000002e0: 66ad 32bd d84c 3e3d 9c0f 813d 599b 91bd
000002f0: 8a2e 4e3b 1a64 9bbc e94a bd3d 00ae 88ba
00000300: 408e efba bd65 ac3d d285 b93d 1e7c 17bd
00000310: b5f6 d83c cbff e53d b87f ad3d 4843 bd3c
00000320: 501a 0d3d 59a8 893c be17 7bbd 5147 60bc
00000330: cb3e 063c 5331 e43d f4e5 9ebd bb2b 1abd
00000340: 807a 19ba 154c 9e3d e0f0 173d 26cf c1bc
00000350: 35f9 80bb 8e87 e23d d811 8c3c 8437 00bd
00000360: 44d4 ca3d 8365 a53d 41c9 ee3d 3a1a c53d
00000370: 3682 4fbd e8c8 be3c 5678 883d 753b c7bc
00000380: 2530 ab3d 220a 5dbc ae35 85bb 60dc b63d
00000390: e9c7 003d 7890 943c 5c12 fe3c 0b19 b93c
000003a0: 19ea 2cbd a62a eb3d d1bc 9b3d 603d e13b
000003b0: 682c 2fbc e458 6c3d ab58 b63d eb85 ea3d
000003c0: 3227 e9bc ab55 ae3c 0b6d 1bbd eeae 4b3d
000003d0: 35cb a03d c4bc d13c 20de 41bd ebef 963d
000003e0: 15d3 873d 9e44 7ebd 5052 ab3c 7a7b ac3d
000003f0: 672f 8a3c 4303 c13d 6664 a63d a9f7 4d3d
0.0570755 0.007141764 0.12097516 -0.0856638 0.027111001 0.021062339 -0.07886308 0.025884857
0.09491416 0.01541574 0.07862731 0.01994007 0.04386019 0.027702658 -0.03737222 -0.03125161
0.10284613 0.11985123 0.03492147 -0.03290757 0.059152804 -0.030912384 0.06237554 0.12120682
0.08209424 0.055306975 -0.0042806943 0.06563229 -0.06885635 0.02555726 -0.045774836 -0.03924152
0.12034402 -0.078236744 0.043046862 0.11577419 -0.009735624 -0.009036347 0.009286359 -0.023480656
-0.024905192 0.04300454 0.0773038 -0.006995566 0.061724536 -0.030389652 0.05861356 -0.08069935
0.10424522 0.08222192 0.046257906 0.026464464 -0.011868857 0.0041892678 -0.033112064 0.08094697
0.010732822 0.009114936 0.045692626 0.05568197 -0.008474516 0.03395429 0.021961588 0.029986799
0.003104724 0.05571217 0.13689859 0.057165615 0.051826272 -0.038759213 -0.027407378 0.005413972
-0.018909775 0.0044336584 -0.004458472 0.08340184 -0.00298994 -0.05498253 -0.0027139315 0.14422593
-0.014598563 -0.072259 0.0032876472 -0.025761379 -0.04573489 -0.043536283 -0.08478798 -0.05067327
-0.014608455 0.05393293 -0.046431024 0.063849665 0.0261765 0.008402874 -0.01756237 -0.05054527
-0.05450308 -0.043502085 0.02927237 -0.06711949 0.03357528 0.013277939 0.01475808 -0.072324865
0.0048866197 -0.065225676 0.10771109 0.01571428 0.05171304 -0.035286583 -0.037078984 -0.038738463
0.036452457 -0.055596758 0.06619245 -0.014447046 -0.027129637 0.08616922 0.08956291 -0.029163532
0.03660376 0.03784214 -0.04891682 -0.067247264 -0.067781836 -0.039180215 0.025044436 0.06445508
0.076924555 0.12113966 0.049033597 0.05422827 -0.070545 0.0027065591 -0.078227654 -0.06651525
-0.022608997 -0.07412344 -0.046335127 0.10526368 -0.06428184 0.05717776 -0.02372298 0.07245143
-0.054233223 0.057441764 -0.06655591 0.112265095 -0.0024211688 0.055503007 0.03333884 0.09607747
-0.07721648 0.0080769695 -0.043997254 0.035063356 0.02535294 0.08820862 0.00667903 0.10546583
0.011926678 0.10223358 0.041699402 0.0035384076 -0.01928736 0.023287438 -0.020775877 -0.046320654
0.019870944 0.009384153 -0.014770121 0.01089263 0.06841182 -0.003735657 0.024068234 0.031522986
0.05115708 0.033784404 0.05638752 0.023370448 0.026832484 0.10899768 0.047652695 0.10819573
-0.043622397 0.046460003 0.063018054 -0.07109708 0.0031460845 -0.01896863 0.092428036 -0.0010427833
-0.0018276647 0.084178425 0.09058727 -0.0369836 0.026484827 0.11230429 0.08471626 0.023103371
0.03444892 0.016803907 -0.06130194 -0.013688878 0.008193682 0.1114222 -0.07758704 -0.03763936
-0.0005854741 0.07729355 0.03709495 -0.023658346 -0.003935958 0.11061011 0.017098352 -0.031302944
0.09903768 0.080760024 0.1165948 0.09624143 -0.05066129 0.023289159 0.06663577 -0.024320344
0.08358792 -0.013491185 -0.004065237 0.08928752 0.03144065 0.018135294 0.031014614 0.02259495
-0.04221544 0.11482744 0.07604373 0.0068737715 -0.01069174 0.05770196 0.08903631 0.11451324
-0.028461073 0.021281084 -0.03794579 0.049727373 0.07851259 0.025602706 -0.047330976 0.073699795
0.066320576 -0.062077157 0.020913273 0.08421989 0.016868306 0.0942445 0.08124618 0.050285015

bias f4 [8]
00000000: 004a 72bc c4bd d13d ab58 df3c 36e2 323d
00000010: e914 c6bd b963 1a3d fdf9 1f3c 88d4 07be
-0.014788151 0.10241273 0.02726396 0.043672763 -0.09671957 0.03769276 0.009764192 -0.13264668

weight f4 [16, 2]
00000000: 0245 223d 2ea2 01be 9dfa 21bf e739 2ebf
00000010: f0c7 53bd 53b4 82be c993 f4be beef 2d3e
00000020: 92a8 cf3d 1971 97be 2a36 1cbf c1d5 e63e
00000030: 9b9c 07bf b04f a5bd 258c 0e3f a64a 70bd
00000040: 29d5 bdbb 2734 b6bd c716 3c3f 6f08 d23d
00000050: d1b2 f93e 6831 9bbe 3b4f 22bf 92cc e83e
00000060: 6fcc c23d 0216 523e 03f1 f03c 076e 37bf
00000070: 456c 08bf e907 5b3e a66e 6b3e 62a0 d53c
0.039616592 -0.12659523 -0.6327303 -0.680571 -0.051704347 -0.255282 -0.47769 0.16985986
0.10139574 -0.29578474 -0.6102015 0.45084956 -0.52973336 -0.0807184 0.55682594 -0.05866494
-0.005793233 -0.08896666 0.73472255 0.10255515 0.4876924 -0.3031113 -0.63402146 0.45468575
0.09511649 0.20516208 0.029411798 -0.71652263 -0.53290206 0.21389736 0.22991428 0.026077453

bias f4 [16]
00000000: 27ae 23bf 4f8b 9cbe 580b 8abd 5ed4 de3e
00000010: ccfa 1a3e fc95 a6bd e092 fe3c add2 da3e
00000020: 0cc1 b13e 0d7b 0cbf 8259 bebd 29de 1dbf
00000030: b54f 133f 5595 fcbe b4ba acbd aa8f f6b9
-0.6393761 -0.30575034 -0.06740445 0.43521398 0.15134734 -0.08134076 0.031075895 0.42738858
0.34717596 -0.5487526 -0.09294416 -0.61667114 0.575435 -0.4933268 -0.08434048 -0.00047027814

weight f4 [16, 16]
00000000: f0f7 f73d 4870 583d aaba 573e b2de 90be
00000010: 71ce e03d b5ab 143e 4c31 673e 831e 123e
00000020: 2f8a 95bd 7e54 bb3a 8779 ef3c 5ce4 cc3d
00000030: 4f11 8fbe 3991 25be 059a 2ebe 7c3b 33be
00000040: 4ee1 0dbe b47f b53d b084 4b3e 9a7f 1f3e
00000050: c07c 14bc bb5d 673e 5873 c23d 30e5 32bb
00000060: 687e 4bbe 21ac 2ebe f81b 6f3d f2fa 7ebd
00000070: da9b 09be f4fc 6d3e e866 613c 3acc 37bc
00000080: 6a27 52be 3422 c23d ac60 ee3d 0087 cabb
00000090: 1a66 de3d 582e 31be a03b b53c eb06 fcbd
000000a0: 3bc5 0f3e 3ee1 babd 045e 423e fa0d 53be
000000b0: 18b6 48be aac2 003e 8892 b4bd 88eb 07bd
000000c0: 850a 0cbd 5647 253e 08f6 253d d7a2 4c3e
000000d0: e412 23be 92b2 68be f4bd 013e 2008 13ba
000000e0: 7c09 ea3d d7b2 febd 4df8 82bd 21d2 443d
000000f0: 4fec 633e 492f 603d 0300 1fbe a2ab 273e
00000100: 421a 233e f01b e8bd b887 59be 8086 1c3c
00000110: 90d4 2ebd 76a7 2e3e acdd e93d e01d 11bc
00000120: 9428 0f3e 74be 33be 2cbd aabd 6e24 1ebe
00000130: 40d9 21be 9c03 7ebe 0ccc 1fbe 76dc 10be
00000140: 8022 c5bd b085 4f3d 9278 4b3e 1890 a03d
00000150: d066 353e 4c7d ffbd 86e9 03be 88a2 aa3d
00000160: e4f2 08be be68 5dbe d230 0ebe 84a4 8abd
00000170: 08d6 743d d8af 253d cc2b ce3d cedc 58be
00000180: f053 fdbd b4c3 c1bd 3cf4 c2bd 9238 58be
00000190: 8859 3f3e 279e 2bbe c057 99bc bac3 813b
000001a0: 7412 71be 689f 82be 38da b3bd 8bd5 eb3d
000001b0: 5464 163e c487 d4bd d96d d53d 3af3 f03c
000001c0: befc 023d 90a9 4e3d be4a 383e 4483 5bbe
000001d0: 9656 413e 6570 2d3e aae5 663e 269b 3abe
000001e0: 2994 ef3d 984b 55be 6e07 5b3e f83b 8dbe
000001f0: d485 1a3e 1ce0 89bd 1b6b 41be 3b16 403e
00000200: e0d0 633d 821c 4e3e 821c 15be dfb6 cdbc
00000210: 30b1 60be 2eef 38bc 6c7a 3bbe aa11 a5bd
00000220: 0fb0 48be e2bf 7ebc 6f0b 8abd 1ab5 a23c
00000230: d13b 08ba 5067 4fbe 2f9c 04bd 6701 683d
00000240: 7618 4dbe f4e1 743e 4c90 0a3e f4bd 583e
00000250: d431 6d3e 7a2e 11be 5cd8 743e d5c7 973d
00000260: e92f 20be a9b1 963e 88ed 8c3d 5c26 5c3c
00000270: e98e 4d3d eb9c 193d babf 18be 0b2f 473e
00000280: 218d 34be e487 9abd e0e2 33bc 10c8 5d3e
00000290: cb6b 28be 613c 6ebe 3626 623e a817 2c3e
000002a0: 4e2d 1e3e 176f 623e d5aa 6e3d 4916 81be
000002b0: 7dc7 07be 593f 45be 6c04 a1bd 7b2d 083d
000002c0: bba4 09bc 80d7 463b 8ced 01be 275f 36bd
000002d0: caed 093e 18f4 1ebe bc4c ef3d 6105 113d
000002e0: c755 aa3d 7ddc 7e3e c76e 2f3e 7a4d c2bd
000002f0: 2d04 573e 0e54 e4bd 799f 8bbd e388 583c
00000300: e80e 363e 4ce0 4e3e 347a 963d d512 2e3e
00000310: 6c16 4c3e def8 003e 8861 16bd f615 ad3d
00000320: 9ee4 babd 9db2 05be 3c3a 803e 448b 47bd
00000330: 2d8a 0fbd f66a 9c3d 3050 dc3d 7c5f 053e
00000340: b864 34bd b4d0 2bbe 34c8 40be 02a7 393e
00000350: 1467 7c3e 46b9 43be 3c97 193e b943 60be
00000360: cce7 293e c91a b3bb 46cc 303e d926 423e
00000370: 7d6f 63be 644a 5a3e cea7 ff3c eeb2 7fbe
00000380: 2c73 77be 0099 603e a80f 053e fcb5 09bd
00000390: 4087 693e ec7d 593d ccc3 213e c4da 613d
000003a0: d282 5a3e 4f3d 883e 7ec7 1bbe 233d 4d3e
000003b0: d05c 9b3c c738 173e df63 6e3d 1940 05be
000003c0: a4af 80bd f03c 3c3e 8844 3abe 3aba 6bbe
000003d0: ac06 afbd 6252 63be 46b3 54be c0d9 12bc
000003e0: 4667 17be 388b 78bd a03b 01bc d860 28be
000003f0: 8c80 29be a0cd aebc 0062 7dbe b48d 11be
0.12107837 0.052841455 0.210673 -0.28294903 0.109768756 0.14518626 0.22577399 0.14269452
-0.07301747 0.0014292148 0.029232753 0.100044936 -0.27942893 -0.1616868 -0.17050941 -0.1750316
-0.13855478 0.08862248 0.19874835 0.1557602 -0.009062946 0.22594349 0.09494656 -0.002729725
-0.19872439 -0.1705785 0.058376282 -0.06225104 -0.13438359 0.23241025 0.013757445 -0.011218125
-0.20522848 0.0947918 0.116395324 -0.006180644 0.10859318 -0.17302835 0.022123158 -0.12306007
0.14040081 -0.09124993 0.18981177 -0.206108 -0.19600713 0.12574258 -0.08817011 -0.033183604
-0.03418972 0.16140494 0.040517837 0.19983993 -0.15925175 -0.22724369 0.12670118 -0.00056088157
0.1142759 -0.12436455 -0.06395016 0.048051957 0.22258113 0.054732595 -0.15527348 0.16374066
0.15927985 -0.11333454 -0.21243179 0.009553552 -0.042683184 0.17056069 0.11419234 -0.00885722
0.13980323 -0.17553121 -0.08336863 -0.15443584 -0.1580553 -0.24806064 -0.15605181 -0.14146599
-0.09625721 0.050664604 0.19870213 0.07839984 0.17715001 -0.1247507 -0.12882051 0.083317816
-0.13373905 -0.21621987 -0.13885811 -0.0676966 0.05977443 0.0404509 0.10066947 -0.2117798
-0.123695254 -0.094611555 -0.0951924 -0.2111533 0.18686497 -0.16759549 -0.0187186 0.0039601
-0.23542196 -0.25512242 -0.08781856 0.115153395 0.1468671 -0.10377458 0.104213424 0.029412854
0.031979315 0.050454676 0.17997262 -0.21436793 0.18880686 0.16937406 0.22548547 -0.18223247
0.11698181 -0.20829618 0.21389553 -0.27584815 0.15090114 -0.067321986 -0.18888514 0.1875848
0.05561912 0.20128062 -0.14561656 -0.025111614 -0.21942592 -0.011287494 -0.18308419 -0.0806001
-0.19598411 -0.015548678 -0.06740462 0.019861747 -0.00051969016 -0.20254254 -0.03237551 0.056641962
-0.20028862 0.2391432 0.13531607 0.21166211 0.23163539 -0.14177886 0.2391066 0.07411162
-0.15643276 0.2943242 0.06881243 0.01343688 0.050185118 0.037503164 -0.14916888 0.19451539
-0.17631961 -0.0754545 -0.010979384 0.21658349 -0.1644737 -0.2326522 0.22084889 0.16805899
0.1544697 0.2211269 0.058268387 -0.25212315 -0.13259692 -0.19262446 -0.078621715 0.0332465
-0.008401091 0.003034085 -0.12688273 -0.044524338 0.13469616 -0.15522802 0.11684558 0.03540552
0.08317142 0.24888797 0.17132102 -0.09487434 0.20997687 -0.11148845 -0.06817526 0.01321623
0.17779124 0.2020275 0.07347527 0.16999371 0.19930428 0.12594935 -0.036714107 0.08451454
-0.091256365 -0.13056417 0.2504443 -0.0487168 -0.035043884 0.07637589 0.10757482 0.13024706
-0.044041365 -0.16778833 -0.18826371 0.18130115 0.24648696 -0.19113645 0.14999098 -0.21900834
0.1659233 -0.0054658395 0.17265424 0.18960132 -0.22210498 0.2131744 0.031207945 -0.249706
-0.24165028 0.21933365 0.12994254 -0.03362082 0.228055 0.053098604 0.15797347 0.05514027
0.21338966 0.26609275 -0.15212819 0.20042853 0.018965155 0.14767753 0.058200713 -0.13012733
-0.06283501 0.18382621 -0.18190205 -0.23020259 -0.085461944 -0.22199395 -0.20771512 -0.008963048
-0.1478549 -0.060679644 -0.007887751 -0.16443193 -0.16552943 -0.021338284 -0.24744415 -0.14214212

bias f4 [16]
00000000: 68b6 283e f5b2 903c de0e 083e ce36 ccbd
00000010: c409 f63d 584d 87bd 3269 df3b 5c74 80be
00000020: 7393 113e 6673 f03d 04db df3d 5c20 b8bd
00000030: b253 09bd bf6f 6dbe 33a2 abbd 788b 2dbd
0.16475832 0.017663458 0.13286921 -0.09971391 0.120135814 -0.06606549 0.00681796 -0.25088775
0.14216404 0.117407605 0.10930446 -0.08990547 -0.033527084 -0.23187159 -0.083805464 -0.042369336

weight f4 [32, 16]
00000000: d808 26be 2941 aebd f697 753d 87aa d6bd
00000010: 5c14 99bd 5c3d 9b3d ac0e 313d f7fb 013e
00000020: 5915 403d 0295 49be c9e1 4ebd f5d9 2cbe
00000030: f875 eabc 4c16 a7bd ab23 d73d d896 f5bd
00000040: 3156 0fbe 8d8c 42be 068f c83d 60a5 edbd
00000050: 86f5 333e 74b7 60be f564 84bd b316 923d
00000060: 298d 623d e810 93be 4dda dabd fcde a6bd
00000070: 7ff7 38be 4701 bcbd de9d 8f3d a028 563d
00000080: 62ff 62be e34e 5abe 9dd2 123e e6c7 6fbe
00000090: 80cc 27bd f4ad b6bd 85cf 0d3e a2b6 c7bc
000000a0: d7c0 a7bb adb5 30be 2881 abbd 88b0 a2bc
000000b0: 3300 1d3e 9a45 4cbe c6b2 4a3d 78ce 09be
000000c0: 7923 e73c 8817 b33d 89f6 193e 5ef0 4b3d
000000d0: a048 a4bc c090 fb3d ea13 8d3e 61c2 ae3d
000000e0: f5ca 623e 56a7 8bbe f5dc 9bbd 7e6b 1bbe
000000f0: 5df6 7bbc 2d4a 1bbe e8ed 863d 0ef2 3f3e
00000100: e8d4 0d3e 4add 123e 8e1a 3f3e 4db1 783e
00000110: 6619 643e f823 6e3d 8f48 563e 9b79 c63d
00000120: c3f1 85bd f88e 4bbe 7f0e 373e f2fc 273e
00000130: 12f6 0f3e 9515 44be 1f10 91bc c227 6e3e
00000140: 3e05 433d 3608 69bd 67e7 71be 7b56 493e
00000150: 7c7b 3cbe 8299 783e 2ec1 6a3d 158e 923e
00000160: bb9b 4cbe 76d6 ff3d 0ce3 2b3e 4d6f c9bd
00000170: 98b2 563e 5e59 c1bd 5172 51be 3eda 5cbe
00000180: 1e48 083d 96af 6cbd 359f 633e a18f 10be
00000190: 2afa 1c3e 3033 1abd 00fa d13d a853 c03e
000001a0: fef0 4bbe d652 2e3e e042 553e f536 6cbe
000001b0: f63a 10be 3afc 1cbe ac48 093e 10c0 e93c
000001c0: 43bf 17be bfc3 783d a663 803d f7a3 893d
000001d0: 1ea7 023e 20d3 debc 7ea0 443e d81e 683e
000001e0: 014c 9b3c b592 163e 865c ab3d f5e1 da3b
000001f0: c332 35bd 20fe ba3d 71d6 48be c809 453e
00000200: 5c3a 5bbe 7a6a 90bd 84c4 aeba 3e5b d63d
00000210: c4f8 99bd 9cee 4cbe c9c3 6e3e 3b47 6f3b
00000220: fb26 ff3d 7383 76bc 5031 82bd 67c7 923e
00000230: 22bf 313e 01bc fabc 9b74 58bd 6492 ffbd
00000240: 6c1c 02be 3a92 0fbe e4f5 c3bd 21c7 1c3d
00000250: 7cb0 bd3d 7c41 42be c209 8dbe 8259 d6bd
00000260: 9592 80be 9932 933e 009e dfbd 17dd 3e3e
00000270: 3e53 d3bd d3f5 81be 2464 d53d ba11 633e
00000280: ae72 183e a113 873d 9039 e0bc 5b0d a43c
00000290: c616 1cbe 8cc0 25be a6c1 5f3e 85cb 4c3d
000002a0: 7a34 18be 6857 1c3d e81c 0a3e 8101 2abe
000002b0: 6427 01be 10ad 25be f7d9 b63c 04af 533e
000002c0: 944e 9abd 11b8 503e b827 0b3e 5dc4 13be
000002d0: 9a0f 783e c835 2ebe b610 283d 1f2f 87bd
000002e0: 3559 ee3b 6125 de3c 60e0 8b39 3bd4 463e
000002f0: 0abc 71be 8aee 7ebe 8c4c d83c 3ee5 7c3e
00000300: b35b 4bbe 2a4a 1c3d 829b 3dbe 534e 693e
00000310: 80de bdbd 760b 37be c8ad c83d 46c5 8c3d
00000320: fe41 29bc b309 5abe 448a 44be 456d a3bd
00000330: 498b 73be 9736 413a 8496 df3b a0cd cb3d
00000340: 2bd0 5f3e f666 14be b445 8abc 2f5f 9c3e
00000350: 00d9 c5bd 000d aa3c 745d 233d 81ef 7dba
00000360: b63d 033e 90fd 753e f484 babc 6e53 adbc
00000370: 09d1 19be 0dfd 71be 45e1 723e 44d4 56be
00000380: c61f 293e e0c4 493e a53d 263e a7f8 683e
00000390: faf0 403e 5645 103e 5583 76bd 1aa3 2c3e
000003a0: c022 1dbe 9496 963e 6922 2f3e d237 913d
000003b0: e80a fdbd 3266 143e b7f0 5f3e 8c51 8d3d
000003c0: 9c43 a4bc 886c 663e 8f7d 1a3e f078 0e3e
000003d0: 9092 5dbe 480e 1fbe 79f6 363e 7826 ce3d
000003e0: 76af 42be 24f8 de3d 1553 4fbe b32c 8ebe
000003f0: e04e 083e cd9c ce3d bd10 ffbc 0683 6cbe
-0.16214311 -0.08508522 0.059959374 -0.10481744 -0.07474586 0.07580063 0.043226883 0.12693773
0.04689536 -0.19685748 -0.050508294 -0.16880019 -0.028620705 -0.0815855 0.1050485 -0.11991662
-0.13997723 -0.18998928 0.097929046 -0.116038084 0.17574129 -0.21944982 -0.064645685 0.07133236
0.055310402 -0.28723836 -0.10686169 -0.08148 -0.18063162 -0.09179931 0.07012533 0.052284837
-0.22167733 -0.21319155 0.14338155 -0.23416099 -0.04096651 -0.08919898 0.13848694 -0.024379078
-0.005119424 -0.17256804 -0.08374244 -0.019859567 0.15332107 -0.19948426 0.049486898 -0.13457668
0.028215157 0.087447226 0.15035452 0.04978978 -0.020054162 0.12283468 0.27554256 0.085331686
0.22147734 -0.27276105 -0.076105036 -0.15177724 -0.015378562 -0.15165015 0.06588346 0.1874468
0.13850749 0.14342228 0.18662474 0.24286385 0.22275314 0.05813977 0.20926116 0.09691163
-0.06540253 -0.19878757 0.17876624 0.16405085 0.14058712 -0.19148858 -0.017707882 0.23257354
0.04761242 -0.056892596 -0.23623429 0.19661896 -0.1840648 0.24277309 0.057313137 0.28624025
-0.19981281 0.12492077 0.1678583 -0.09835682 0.20966566 -0.094408736 -0.20453764 -0.21567628
0.0332719 -0.05778464 0.22228701 -0.1411729 0.15329805 -0.037646472 0.10252762 0.37563825
-0.1991615 0.17023787 0.20826292 -0.2306784 -0.14084992 -0.15330592 0.13406628 0.028533965
-0.14819054 0.060733553 0.062690064 0.06720727 0.12759063 -0.027200282 0.19201848 0.22668016
0.01895714 0.14704402 0.08367257 0.006679768 -0.044237863 0.09130502 -0.19613053 0.19242013
-0.21408981 -0.07051559 -0.0013333713 0.10466622 -0.075181514 -0.20012897 0.23316874 0.0036510963
0.12458607 -0.015045988 -0.06357062 0.28667757 0.17358068 -0.030607225 -0.05284558 -0.12479094
-0.12706155 -0.14020625 -0.09568384 0.03827584 0.09262177 -0.18970293 -0.27546507 -0.10466291
-0.25111833 0.2874954 -0.10918808 0.18639027 -0.103186116 -0.25382861 0.10419491 0.22174731
0.14887497 0.06595541 -0.027371198 0.0200259 -0.15243062 -0.16186732 0.21851215 0.04999878
-0.14863768 0.038169295 0.1348759 -0.16602136 -0.12612683 -0.161793 0.02232073 0.20672232
-0.07534519 0.20382716 0.1358937 -0.14430375 0.24224702 -0.17012703 0.04103156 -0.066007845
0.007273818 0.027117433 0.00026679318 0.19416897 -0.23606887 -0.24895683 0.026403688 0.24696824
-0.19859199 0.038156666 -0.18516353 0.22783785 -0.09270954 -0.17875466 0.09798771 0.068735644
-0.010330675 -0.21292762 -0.19193369 -0.07979826 -0.23783602 0.00073705 0.006823363 0.09951329
0.21856754 -0.14492401 -0.01687894 0.3054137 -0.0966053 0.020758152 0.039884046 -0.0009686873
0.1281651 0.24022508 -0.022768475 -0.021157946 -0.15021147 -0.23631687 0.23718746 -0.2097941
0.16516027 0.19704008 0.16234453 0.22751103 0.18841925 0.1408895 -0.06018384 0.16859093
-0.15345287 0.29411757 0.1710297 0.07090725 -0.12355596 0.1449211 0.21869169 0.069003195
-0.02005177 0.22502339 0.1508696 0.13913321 -0.2163794 -0.15532792 0.1786746 0.10065931
-0.19012246 0.10887173 -0.20246537 -0.27768478 0.13311338 0.10088501 -0.031135911 -0.23096856

bias f4 [32]
00000000: 5274 febd 1682 a4bd bb29 cf3d fc78 e9bd
00000010: bc41 6ebe 3f19 25be ade8 3ebe e017 81be
00000020: 42f6 363e cb26 8c3e 8cce 8dbc b82b 2bbe
00000030: 45d7 e6bd 4476 f83d 26fa 4c3e 378e 80be
00000040: f9de 803e 9ae0 1c3e 37eb 87bd 4189 02be
00000050: e71a 5dbd ba13 c33c 9c35 84bd e29a 873d
00000060: ffe4 c4bd b298 b9bd b51d f03d 57dc 993d
00000070: d8e9 02be 8ec2 0a3e 2d72 06be 1183 3f3d
-0.1242453 -0.080326244 0.10115381 -0.11400029 -0.23267263 -0.16122912 -0.18643446 -0.25213528
0.17867377 0.27373347 -0.017310403 -0.16715896 -0.11271528 0.121319324 0.20017299 -0.251085
0.25170115 0.15320054 -0.066366605 -0.1274767 -0.053980734 0.023813117 -0.06455538 0.066213384
-0.0961399 -0.090623274 0.11724416 0.075127296 -0.12784517 0.13550779 -0.13129492 0.046755854

weight f4 [16, 4]
00000000: 5c8b 3cbe 8076 5dbe 867c 92be 3055 733e
00000010: 7570 26bc c060 0dbe a07f a6be 0b46 d43e
00000020: 5056 273e 5f13 533e fc87 9f3e 9089 04be
00000030: 6d48 3f3e d173 0c3e 8a23 70be c7c6 1c3e
00000040: 53ab e13e 12e2 0ebc 38d2 e1be 5387 fc3d
00000050: 9c57 57be fccf 113e 8cfe 993e d296 a8be
00000060: 04a0 dcbe 30ee 8abe 662a 8abe cc0e f53e
00000070: dc84 cf3e 1f5d 96be f0eb b43e b316 203e
00000080: 306f a83e a405 6d3e 6f9d c83d cad0 693e
00000090: fcc0 08be 40f8 40bd 384f ba3d 20ec 71bd
000000a0: 606e 29bd c828 f03d 1c84 2c3e f08c a2bd
000000b0: 6846 9fbe fc02 cd3e 6431 7fbe c092 4bbe
000000c0: 6a67 a8be a834 e23d 8c40 373e c097 34be
000000d0: d091 bebe b006 38bd d476 513e 9055 e0be
000000e0: 88fa 953e bf9d 87be e173 3a3e f13b bb3e
000000f0: e43a ee3e 920e 1ebc 88e1 b7bd 92a0 163e
-0.18412536 -0.21627235 -0.2861063 0.23762965 -0.010158648 -0.13806438 -0.32519245 0.4145969
0.1634152 0.20612858 0.31158435 -0.12943101 0.18679972 0.13716055 -0.23451057 0.15310203
0.44076023 -0.008720892 -0.44105697 0.123304985 -0.21029514 0.14239496 0.30077016 -0.32927567
-0.43090832 -0.27134848 -0.26985472 0.47862852 0.4053105 -0.2936792 0.35336256 0.15633659
0.3289733 0.23146683 0.09795653 0.22833553 -0.13354868 -0.04711175 0.09097141 -0.059063077
-0.041365027 0.117265284 0.1684727 -0.07937038 -0.31108403 0.4004134 -0.24921185 -0.198802
-0.328914 0.110452 0.17895716 -0.17636013 -0.3722062 -0.044928253 0.20455486 -0.4381528
0.29292703 -0.26487538 0.18208267 0.3656917 0.46529305 -0.0096470285 -0.089785635 0.1470969

bias f4 [16]
00000000: e8bb e83e 5805 793e 02fc 6ebe e3f5 633d
00000010: 159b 0bbe 2427 2fbe 20ac e03e f0eb d53e
00000020: 0604 8ebd 7643 84be 3cbd 33be 20fc d83d
00000030: 54f0 babe 38a5 c13d 6bea f73e 0478 c4be
0.4545586 0.24318445 -0.23338321 0.055654418 -0.13633378 -0.17104775 0.4388132 0.4178157
-0.06934361 -0.2583272 -0.17552656 0.10594964 -0.3651148 0.09455341 0.48421034 -0.38372815

weight f4 [16, 16]
00000000: 985f 43bd 92d5 2e3d 8d03 7f3e 2c70 0dbe
00000010: e1f2 c73b 90f6 e6bd a0d3 27be 5f93 a23d
00000020: 74b9 983e ec68 e73d 1440 543e 9ca5 4c3e
00000030: 6013 5e3c 58e6 5a3d cd2c f7bd 81cd 4a3e
00000040: 6cc4 2cbe fcc3 d83d 8cfc 8c3d 9cd5 153e
00000050: 20e4 58bc 569f 0dbe 94c9 d63d 467d 35be
00000060: a6e1 5fbe 30f3 923c 6083 f6bd 3e30 38be
00000070: 341d 623e c02a cdbd 182c 35bd 40ff fdbd
00000080: 8c82 45be d628 393e 227c 0bbe 0cd1 eebd
00000090: c0ca a7bd de27 2fbe 40bc 50be 806a e2bc
000000a0: e017 54bd cc9f f0bd 646f c1bd 10d7 5fbd
000000b0: 4020 68bd 2c5f ea3d da0b 123e 8c74 c2bd
000000c0: 5e53 7a3e a822 d6bd 6cdd 723e b088 023e
000000d0: e0d5 5bbe 8ad6 113e e80a b13d 207a 3e3d
000000e0: b006 693d 18d1 4c3e 3871 723d 1c65 c23d
000000f0: 3859 34be 10ed bc3c 3842 da3d 209e bebd
00000100: 28dd 963d 40c6 023e 355a 3c3d 829e 623e
00000110: 4680 6c3e b4b6 c63d 34ae 0ebe d379 503e
00000120: 17e0 93bd 00e0 bb3c cafa 1dbe 941d 7b3e
00000130: cc36 7c3e 0084 ff3a 1964 243d b439 023e
00000140: b4cb a2bd 886c 1abd acd9 513e f0f2 3a3e
00000150: 7012 25be b850 313d 0012 b93a 2c59 7fbe
00000160: 6019 66bc 981f 353d 107b a03c 9c42 953d
00000170: b8da a7bd caf9 043e 9cc3 e43d d8bc 333d
00000180: f881 54be f608 e7bd 0b2a a23d c98b b53b
00000190: 1100 a5bb a8b4 243e d43c c93d 6cd2 3c3e
000001a0: 9a87 8e3e 163d 52be e8b1 60be 4ce5 a73d
000001b0: 70b4 6b3d 988a bd3d 9d6b c53d 4d09 3a3c
000001c0: 1072 253e 9a2b 2ebe 44dc 983d b49d 72be
000001d0: 2065 f73c 22ac 28be d46e 1ebe 24e8 8dbd
000001e0: f04f 4abe c050 85bc 1063 2b3e b40b 75be
000001f0: 2084 39be 0658 163e 18a9 203e fc96 a33d
00000200: 58d3 dcbd e91a 853d 93f2 e0bd c91f 11be
00000210: ca42 1e3e 8076 0c3d b049 99bc 0a10 1dbe
00000220: c993 813d e03e 4c3e a621 193e a4af c5bd
00000230: 5033 bbbc b6be 71be 1e21 edbc 168d 093c
00000240: f8ff 6abd acfa 0ebd 5377 8e3e 0097 153e
00000250: c183 8f3e c849 163d 02fa 153e 548a a0bd
00000260: 963d c83c d40b 353e 70bb 1c3e b6ed 3a3e
00000270: 806a ed3d 04a8 563e 9387 443e 7e23 293d
00000280: f09e f03c 5639 d1bd 31b7 293e f42c 4c3e
00000290: 2618 b8ba 5077 d23c d462 b93d 7060 823d
000002a0: 5672 7d3e cc3b 4dbe 787b 47be c80e 1ebd
000002b0: 7020 d43d 80e2 c8bc 22f0 823d b0a9 483e
000002c0: f697 743e 99cc 57bd 8c9f e4bd 2e9f 10be
000002d0: 25a8 6f3e 8679 5cbe 7808 00be 97f4 8f3d
000002e0: ee6e 7e3d 7a8b 143e 881a ad3d 4088 7e3d
000002f0: 0040 efb7 4c08 bd3d 5b06 883e de4b f4bd
00000300: 08bf 413d 8edd ff3d 1884 36bd 7eb4 83bc
00000310: 347e 95be c22b 1dbe 2015 12bc 8167 8d3d
00000320: 5093 003e 740d 163e 78fb 50be 58dd 0d3e
00000330: dc39 00be 5c17 023e 889a 8dbd f5ca ea3d
00000340: ece9 713e 98ea 94bd 7076 89bc 5c2e 1dbe
00000350: 2407 a7bd d0c9 cbbc 4001 7abe 40df dfbc
00000360: 80bc 573d f09c 49be a2ee 63be 589e 343d
00000370: 1a92 043e 546f 953d 701a 993c e0ec 3bbd
00000380: 60d8 7d3e 8654 3c3e c02a b33d 2ca5 563e
00000390: 16bd 7bbe 641a e03d 3487 463e 5a5c 013e
000003a0: 84a6 d6bd 8c34 4abe 901e 01bd d83e 6a3d
000003b0: 5466 da3d 0058 213d 6a55 3f3e 06e4 15be
000003c0: c09d ebbb 69c7 6cbe 92ca 493e 3f14 273e
000003d0: bc51 863b d41a 61be b812 e03d b3a4 673e
000003e0: d126 56be 1814 86bd aed0 333e 564f 66be
000003f0: 3e62 09be 907c 783d 5e77 023e 51d7 03be
-0.047698587 0.042684145 0.24903698 -0.13812321 0.0061019515 -0.11277497 -0.16389322 0.07938265
0.2982899 0.11299309 0.20727569 0.1998505 0.013554424 0.05344233 -0.12069092 0.19804956
-0.16871804 0.10584256 0.06884107 0.14632267 -0.013237983 -0.13830313 0.10487667 -0.1772357
-0.21863422 0.017938226 -0.120367765 -0.17987153 0.22081453 -0.100179195 -0.044231504 -0.12402201
-0.19288081 0.18081984 -0.13621572 -0.11660966 -0.08192968 -0.17105052 -0.20384312 -0.027638674
-0.05178058 -0.11749229 -0.09445074 -0.05464846 -0.05667138 0.11443934 0.14262334 -0.09494886
0.24445865 -0.10455829 0.23717278 0.12747455 -0.21468306 0.14241996 0.08644658 0.046503186
0.056891143 0.20001638 0.059190005 0.09491941 -0.17612159 0.023062259 0.106571615 -0.09307504
0.07366401 0.12770939 0.045984466 0.22130778 0.23095807 0.097028166 -0.1393364 0.20358972
-0.07220476 0.02293396 -0.154277 0.24523002 0.24630278 0.0019494295 0.040134523 0.12717324
-0.079490095 -0.03770116 0.20493191 0.18256736 -0.16120315 0.04328987 0.0014119744 -0.2493636
-0.014044136 0.044219583 0.01958993 0.07288095 -0.08196014 0.12985912 0.11170122 0.043881267
-0.20752704 -0.11281006 0.07918175 0.0055403453 -0.0050354083 0.1608454 0.09826055 0.18439645
0.2783783 -0.20531115 -0.21942866 0.08198032 0.057545125 0.0925495 0.09639666 0.011354757
0.16156793 -0.1700882 0.07463887 -0.23692971 0.030199587 -0.16471913 -0.15471965 -0.06929043
-0.19757056 -0.016273856 0.16737008 -0.23930246 -0.18116808 0.14682016 0.15689504 0.07987782
-0.10782498 0.06499273 -0.10983767 -0.14172281 0.15455166 0.034292698 -0.018711895 -0.1533815
0.06327016 0.1994586 0.14954242 -0.096526414 -0.022851616 -0.23607907 -0.028946456 0.008395454
-0.057373017 -0.034907028 0.27825412 0.14608383 0.28030208 0.036691457 0.14646152 -0.07838884
0.024443429 0.17680293 0.15305877 0.18254742 0.11592579 0.2096253 0.19192342 0.041293614
0.029372662 -0.10216014 0.16573788 0.19939023 -0.0014045283 0.025691658 0.09052053 0.0636605
0.24750647 -0.20042342 -0.19480693 -0.038588315 0.103577495 -0.024522066 0.06393458 0.1959598
0.23886093 -0.052685354 -0.11163244 -0.14123222 0.23403986 -0.21530733 -0.1250323 0.07029074
0.06211751 0.14506331 0.08452326 0.062141657 -2.8520823e-05 0.09230098 0.2656735 -0.11928533
0.047301322 0.1249343 -0.04455957 -0.016077276 -0.29197848 -0.15348724 -0.008916169 0.069045074
0.12556195 0.1465357 -0.20408428 0.13853967 -0.12522072 0.12704223 -0.0691424 0.11464492
0.2362439 -0.07271308 -0.016780108 -0.15349716 -0.08155659 -0.024876505 -0.2441454 -0.027328134
0.052670002 -0.19688773 -0.22259 0.04409632 0.12946358 0.07296625 0.018689364 -0.0458802
0.24789572 0.18391618 0.08748388 0.20961446 -0.2458385 0.109425336 0.19387513 0.12632886
-0.10480979 -0.19746608 -0.031523287 0.05718884 0.10664049 0.039390564 0.18684927 -0.14637765
-0.007190436 -0.23122944 0.1970618 0.16316317 0.004099099 -0.2198289 0.1094107 0.22621422
-0.20913245 -0.06546801 0.17560074 -0.22491202 -0.13416383 0.060665667 0.12740847 -0.12875105

bias f4 [16]
00000000: 4fd9 993e 586d 333e b0fc 5dbe 0067 ccbd
00000010: 88df ecbc 8436 b4bd b054 96bd f44a 10be
00000020: 3cfc 683d 0ac9 1d3d 8e72 343d 95f4 0f3d
00000030: 2b2a b7bd ea70 283e bcef 123e d18b 093e
0.30048606 0.1752218 -0.21678424 -0.09980583 -0.028915182 -0.087994605 -0.073403716 -0.14091092
0.056881174 0.038521804 0.04405456 0.03514536 -0.0894359 0.16449323 0.14349264 0.13432242

weight f4 [32, 16]
00000000: 8ffb 69be 324f 49be ee39 06be 0088 0f39
00000010: 6eaf 273e ec5e 99bd 4b21 48be c8c4 df3d
00000020: 8864 86bd 70e1 6ebe f0bb 52be 2704 65be
00000030: ad9f 2a3e 6868 35be d8db 68bd fca8 943d
00000040: 49b5 553e bebd 6b3e acac 37be 403b 7f3c
00000050: a0cd 833e b895 61bd 2537 54bd b858 15bd
00000060: 128d 6cbc 93b5 f3bd 5940 5c3e ba36 68bc
00000070: f8e6 e03d 30c2 4a3e b017 ae3c 90ec f7bd
00000080: 7588 82be 0074 19bb 4059 6cbe e0da 64bc
00000090: 7932 55bd 60aa 293d b0b0 973d 12cb 6ebe
000000a0: f56c 013e b0ae cc3d 8a5f 01be bb5e 333e
000000b0: 679a 89be baf6 783e 989b 62be 79f0 943d
000000c0: d56d 78be 82b2 3abe 6074 42bd 86e7 113e
000000d0: 87ae 1b3d 60bd 6cbc 3e2a 92be 7ea5 6cbe
000000e0: 54ee 113e 84e0 9fbd c677 96be 9577 72bd
000000f0: 4687 0ebd 86e5 16be 86b4 503e 662c 18bc
00000100: f7a3 68be 36f3 79be e4d9 6dbe 98f0 b0bd
00000110: 515d 22be d422 49be 1373 e5bd 0814 e5bd
00000120: 0838 bc3d 6e56 4ebd ae42 95bd 3457 2a3e
00000130: c497 f8bd 9088 79be b01a dd3c 7a34 77be
00000140: c7a4 97be d83c 68be b088 f2bd c07d 9dbc
00000150: b973 26be 80e3 ae3d c9be 7ebd 68a9 54be
00000160: 63e4 8cbe cc84 66be 6be9 8dbe 489c 3fbe
00000170: 3a6e 0d3e d20f 0d3e a8d4 263e b33f 2a3e
00000180: e6d0 323d 50b6 6c3e c8e5 903d 2cbd 46be
00000190: ff8d 62be 9cf2 93bd 8583 29be d06a bd3c
000001a0: fe65 29be 10e6 b9bc 5a8c ad3c 3e7d 75be
000001b0: 56f4 dabd 2c72 4fbe e2f8 2e3e 76b1 62be
000001c0: f061 50be 12ae 01be d83e c03d c620 0abe
000001d0: b8b8 0b3e d4ac 6cbe dab9 3bbd f48d a8bd
000001e0: a75b 9f3d 1fcc df3d aea6 32be a05a 5d3d
000001f0: d233 4dbe a880 6f3e 8afa 35be 9e8e 50be
00000200: 2db8 d639 b8c7 433e 3ed0 703e c4a5 ad3d
00000210: 6e85 1dbd faea 6dbe 89be 13be 4ad1 4ebe
00000220: f18b 1cbe e05c 9abe 214e 8ebe 1f3c a5bd
00000230: a3c2 9abe 8082 703b 48a8 c63d 4386 cabd
00000240: 0cd1 bdbc a830 743d 5a14 35be d2fb 1b3e
00000250: 43e1 893e 0879 74bd 4252 97ba 685c 9bbd
00000260: e72e a33d 09c7 bfbd 996d 933e 8455 1c3e
00000270: 61b0 aabd 5843 783e a0d3 a83c 2fef 643e
00000280: 63d1 bf3d 707b 01bd 1eb0 093e 002e 14bd
00000290: 4b2f 53be b665 463e d6c9 143e a0d5 86bc
000002a0: c9f7 3c3e 39a5 47be 4744 66be 9368 7dbe
000002b0: 1b3e 6dbd e0b7 32bc 444d 013e 94d6 1b3e
000002c0: e965 75be 1eaa 07be 489d 743e d457 c1bd
000002d0: 1d07 a2bd 7003 e3bd 31da 18be 4a83 113e
000002e0: f92f 15bd 3e4b 8abe fdaf 10bd 5222 1dbe
000002f0: 1463 bd3d a4c6 41be 082b 7f3d 9a74 3b3e
00000300: 99f7 503e 98f5 6ebd b0c4 b2bd e0be 843d
00000310: 52bd 033e a422 1f3e 03e5 edbd a865 47be
00000320: 61fd 27be 275e 53be a664 2d3d 7dd2 15be
00000330: b3a2 6ebe 90a4 37bd 50cd a7bc 1dc1 43be
00000340: 2e8b 923e 509b fdbc fe7b 05be c023 abbd
00000350: ab5e 153e 94cb 913d b68e 52bd 40d8 8cbd
00000360: f26c d83d 7d52 83bd 48d5 5f3e ae20 0c3e
00000370: 1534 c4bd 7cee 283e dafe 403e a885 853e
00000380: aabd 38be ece9 0c3e b0b3 a4bd 6015 9bbd
00000390: a7c4 003e 9411 283e 3a01 6c3e 4ea1 0cbe
000003a0: 8b1c 25bd 8495 1f3e 39c1 dc3d 5c8e d0bb
000003b0: ac41 683e eca9 483e 62af 39be 8ef4 ee3d
000003c0: 712d d5bb 5215 283e 10ab bfbd 4e70 783e
000003d0: 7516 afbc de77 623e 1b9d c5bd 286e 7ebd
000003e0: 9df4 613d 3696 6c3e fe35 4dbe 8459 703e
000003f0: e362 8c3e 3860 85bd 08a4 503d 76a5 2bbe
-0.22849868 -0.19659117 -0.13108036 0.00013688207 0.16375515 -0.07488808 -0.1954395 0.10926205
-0.065621436 -0.23328185 -0.20579505 -0.22364865 0.16662474 -0.17715609 -0.056850284 0.07258794
0.20869936 0.230216 -0.17936963 0.015578091 0.25742817 -0.055074424 -0.051810402 -0.036461562
-0.014437931 -0.11899867 0.21508922 -0.014173204 0.10981554 0.19800639 0.02125153 -0.121056676
-0.25494733 -0.0023415089 -0.23080921 -0.0139681995 -0.052050088 0.041422248 0.07406747 -0.23319653
0.1263922 0.099942565 -0.12634102 0.17516606 -0.26875612 0.24312869 -0.22129667 0.07272429
-0.24260648 -0.18232158 -0.047474265 0.14248475 0.03800824 -0.014449447 -0.28547853 -0.23110005
0.14251071 -0.07806495 -0.29388255 -0.059196074 -0.034796976 -0.14735994 0.20381364 -0.009287929
-0.22718798 -0.24409184 -0.2322765 -0.086396396 -0.1585591 -0.19642192 -0.11203589 -0.11185461
0.091903746 -0.050375395 -0.07288109 0.16634828 -0.12138322 -0.243685 0.026990265 -0.24141112
-0.29617903 -0.2267946 -0.11842477 -0.019225001 -0.16255082 0.08539486 -0.062193666 -0.20767748
-0.27517995 -0.22511595 -0.27717146 -0.1871196 0.1381158 0.13775566 0.1629206 0.16625862
0.043656252 0.23116422 0.07075077 -0.19408101 -0.2212448 -0.072240084 -0.16554077 0.023122221
-0.16542813 -0.02269271 0.021185089 -0.23973557 -0.10691135 -0.20258397 0.17087129 -0.22138008
-0.2034986 -0.12664059 0.093869865 -0.13489065 0.13644683 -0.23112804 -0.04583154 -0.082302004
0.07781153 0.10927605 -0.17446396 0.054041505 -0.20039299 0.23388922 -0.17771354 -0.20366904
0.00040954482 0.19119155 0.23516938 0.08478883 -0.038457327 -0.23234168 -0.14428152 -0.20197025
-0.15287758 -0.30148983 -0.27793983 -0.08068108 -0.3022662 0.0036698878 0.09700066 -0.0988889
-0.02317097 0.059616715 -0.17683545 0.1523278 0.26929674 -0.059685737 -0.00115449 -0.075859845
0.0796793 -0.09364135 0.28794554 0.15266997 -0.08334423 0.2424444 0.020608723 0.22356866
0.09366109 -0.03161186 0.1344609 -0.03617668 -0.2062351 0.19374737 0.1453012 -0.016459286
0.18453898 -0.19496621 -0.22486983 -0.24746923 -0.057920557 -0.010908097 0.12627131 0.15218574
-0.23964657 -0.13248488 0.23888123 -0.0944058 -0.07911513 -0.1108464 -0.14926983 0.14210239
-0.036422703 -0.2701053 -0.035324086 -0.15345123 0.09247413 -0.18923432 0.062296897 0.18306199
0.20406951 -0.058339685 -0.087289214 0.06481719 0.12865189 0.15540558 -0.11615946 -0.19472373
-0.1640525 -0.20641385 0.042332314 -0.14631076 -0.23304252 -0.044834673 -0.020483643 -0.19116636
0.2862181 -0.030957848 -0.1303558 -0.08356428 0.14586894 0.071189076 -0.05140563 -0.06877184
0.10567655 -0.06412218 0.21858704 0.13684341 -0.09580246 0.16497225 0.18847218 0.26078534
-0.18041101 0.13761109 -0.08042085 -0.07572436 0.12575017 0.16412956 0.23047343 -0.13733408
-0.040310424 0.1558438 0.10779042 -0.006364627 0.22681302 0.1959607 -0.1813331 0.11667739
-0.006505661 0.16414383 -0.093587995 0.24261591 -0.021373013 0.22116038 -0.09649106 -0.062116772
0.055164922 0.23104176 -0.20040128 0.23471648 0.27419195 -0.06512493 0.050937682 -0.16762337

bias f4 [32]
00000000: 7e9c d63d c9e4 563e b105 803d bd03 39be
00000010: 0535 fa3d 72d5 66be 747a 1f3e b2dc 74be
00000020: 85f4 03be 5a07 1e3d 133c c33d 5e0d 0c3d
00000030: 7b5e d83d cb2e 503e e078 79be 7714 03bd
00000040: d56f a0bd b948 dc3d 9b2e 243d 62a0 c3bd
00000050: 6c54 97bd 43f4 9fbd bb02 a23d 7b7c 4abe
00000060: b90e df3d 2e15 0c3e 927a 7d3d 6671 8dbe
00000070: 9d2c b83d 02c5 c73d f86a 403e f199 b2bd
0.10479067 0.20985712 0.062510855 -0.18067832 0.12217144 -0.2254236 0.15574056 -0.23912314
-0.12886246 0.03858123 0.095329426 0.034192435 0.10564896 0.2033035 -0.24362516 -0.03200194
-0.0783383 0.10756058 0.04008351 -0.09552075 -0.07389149 -0.07810261 0.07910677 -0.19774048
0.1089148 0.13679954 0.06188447 -0.2762558 0.08992884 0.09754373 0.18790805 -0.08720768

weight f4 [16, 2]
00000000: 02e2 cf3e 9392 22bf 9cd3 9abe d32b 0e3f
00000010: dcd1 4a3e 77d4 cabe d834 653e 409b 263d
00000020: 1b85 ebbe 440b 1bbe 8ebd a7be 406a 68bd
00000030: 3864 003e 873d 1fbf f81d 21bf f7b9 103f
00000040: 9f53 23bf 5270 d23e 80db f3bd e020 e83c
00000050: 8f10 223f 6024 8a3e e840 bcbd 5345 2e3f
00000060: 8ea3 2fbf b415 563e 72a5 863e ed8a 01bf
00000070: 908f 813d 809d 65bc b035 c1bd 70c1 cf3d
0.40602118 -0.63504905 -0.3023957 0.5553562 0.19806617 -0.39615223 0.2238344 0.0406754
-0.4599999 -0.15141016 -0.32761806 -0.056741953 0.1253823 -0.6220326 -0.62936354 0.5653376
-0.6379947 0.4110132 -0.11907101 0.028335989 0.63306516 0.26980877 -0.091920674 0.6807453
-0.6860894 0.20906717 0.262981 -0.5060261 0.063262105 -0.014014602 -0.09434068 0.10144317

bias f4 [16]
00000000: 4678 cebe 1c53 293e ac3d 073e 3f68 18bf
00000010: e888 a73d 834d cfbe a668 60be dd7a 34bf
00000020: a406 33be 2a96 ee3e 2f5f 303f 688c 4b3e
00000030: 33a0 8cbe 1d58 013f 80a9 0cbe 626c a93e
-0.40326136 0.1653561 0.1320712 -0.59534067 0.0818041 -0.40488824 -0.2191492 -0.70499974
-0.17483002 0.4659894 0.6889524 0.1987778 -0.27465972 0.50525075 -0.13736534 0.33090502

weight f4 [16, 16]
00000000: 209d 0d3c ecad cd3d a80b 65bd 688e 3fbd
00000010: 302c bb3d 7ea0 28be 28d5 523e 9228 033e
00000020: 702c 08bd 4af0 2dbe 58bc e2bd eed5 56be
00000030: 9ae8 1bbe 14b5 bb3d d895 11bd 4080 67be
00000040: 2a5d 72be 78f5 0fbe 0a7c 47be 3666 233e
00000050: 4406 48be dca2 bdbd 8882 f03d 6c44 853d
00000060: e021 75bc 4038 c0bd ec84 cbbd 8ca0 c13d
00000070: 0058 143e 3811 653d 9c4f 483e d4ff dfbd
00000080: b0e1 423d a46a b83d fc31 68be 6cbd 8c3d
00000090: 6c6b 103e 805e 60bb 0062 533b 103d bcbc
000000a0: 4c44 183e 029b 48be 903c f2bc 9012 963d
000000b0: 1864 0dbd ec6a 5fbe 803d e53b 96f1 7fbe
000000c0: 1e08 7ebe 5c0b 743e dcab 42be b242 2a3e
000000d0: 6cf5 4fbe 9496 60be 988d 81bd 1ae1 783e
000000e0: d00d 953c 808f 103e 8857 243d f4ca bc3d
000000f0: bcdd 713e ac73 5abe c0c9 bbbc b0b7 8bbd
00000100: 7ecd 2dbe fcb5 2cbe be35 50be ae00 023e
00000110: f458 143e 505c 8ebc 188a d0bd 5022 eabc
00000120: 0ccf 79be 98b3 523e 9070 6abe 7869 0c3d
00000130: 28a6 66be 08b4 debd 5a79 483e fc79 ddbd
00000140: 4ce2 eebd d8bb bdbd 12f2 7c3e ca44 41be
00000150: d0fd f43c 4456 c13d 84f2 ba3d a83f cf3d
00000160: a8cf b33d a8a1 3d3e 3ca2 62be 6840 2a3e
00000170: d0da 793d 501f a63c 1499 dfbd d8d4 53be
00000180: a4dc 7cbe a0b0 e3bc be90 343e c824 f03d
00000190: b4d0 473e d887 15be 8422 a8bd 08ce 50bd
000001a0: d6e8 4e3e 802a 623e d009 643d 548b c6bd
000001b0: 6899 353d e859 f53d 56a6 1bbe 30d0 e2bd
000001c0: 620a 29be 4c38 adbd 9a3f 7fbe 6c5a 2f3e
000001d0: b4e8 c3bd 584b 183d bef7 1c3e 347d 11be
000001e0: 6414 373e d05b 9dbc f8a9 073e 6663 2e3e
000001f0: 622f 21be 0838 7b3d 4043 74bc a4ff debd
00000200: b41b c03d a8ad 753d e8de bfbd e6c7 31be
00000210: 0c1b 5fbe 0e79 2b3e 3001 b33d fc24 74be
00000220: 10f7 d83d d042 bdbc 2886 1a3d d0c3 ec3c
00000230: 485b 12be a055 94bc f0a5 463e 8042 b23c
00000240: e2e6 3bbe 046b 79be b6a0 6b3e 5a6c 62be
00000250: b276 123e a000 cdbc fa51 693e 1ca4 353e
00000260: 28fd 9f3d 0013 ab3b 209d 17bc c24d 743e
00000270: a04e 873d 3055 ac3c 5ab9 23be 1ed4 49be
00000280: ccf4 5ebe 6896 a0bd 9e5e 10be 9c8a 24be
00000290: e218 7f3e e098 36bc 34cf 6c3e aeed 0abe
000002a0: e2bf 57be 403f 583c 60b1 1ebd 3e8c 21be
000002b0: 689d 473d 96c3 4bbe 683f 963d 6850 65bd
000002c0: d4f3 693e ee1b 2c3e 32b7 4b3e dea3 023e
000002d0: a4e0 a33d 8298 4a3e bc10 a83d e83f 31be
000002e0: fe13 58be 4cca 913d e4b3 6abe e8d4 43be
000002f0: c010 c1bb 74f4 753e 449d 703e e480 bfbd
00000300: 0033 f23d e060 1b3e 0015 fd3a 5c0d 94bd
00000310: 5cbb 193e 1cda abbd 8ac2 69be 802a 943b
00000320: 06fb 393e 3ad4 633e c24b 583e 3c19 d03d
00000330: c46f 95bd cc99 c4bd 1813 a6bd c457 b6bd
00000340: c024 afbd 6433 c3bd 0c68 6b3e 98e8 b6bd
00000350: 8acd 3dbe 3637 7fbe 3881 34bd e8f6 363d
00000360: c0b8 df3d b02e 1f3e 1812 c23d 468c 533e
00000370: e048 5a3e 681d a3bd 68b8 0a3d 1037 11bd
00000380: fcfd 003e 10ff f0bd 20f1 afbc 3a41 5abe
00000390: a2f1 3abe eea6 4ebe 0c05 fe3d 3cb4 513e
000003a0: 64b0 4d3e a2a0 4f3e 20a6 593e ae38 69be
000003b0: 1c53 72be 30d1 43bd f230 25be 7852 413e
000003c0: 7648 09be ce33 3b3e dc49 d2bd d0fa c5bc
000003d0: c061 45be 36a2 0d3e f4de da3d 1e94 7a3e
000003e0: 1825 01bd 42b2 3bbe 2217 193e bcfb 56be
000003f0: d4bc 7cbe d8d1 6bbd c06e abbb 80e6 e8bd
0.008643419 0.100429386 -0.05591932 -0.04676667 0.091392875 -0.16467473 0.20589125 0.12808445
-0.033245504 -0.16986194 -0.1107108 -0.20980045 -0.15225449 0.09165397 -0.035543293 -0.22607517
-0.23668352 -0.14058483 -0.19480911 0.15956959 -0.1953364 -0.092595786 0.11743647 0.06507191
-0.01496169 -0.09385729 -0.09937462 0.0945445 0.14486694 0.055924624 0.19561619 -0.10937467
0.047578514 0.09004715 -0.22675318 0.06872067 0.14103478 -0.0034236014 0.0032254457 -0.022978336
0.14869803 -0.19590381 -0.029569894 0.07327759 -0.034519285 -0.21818131 0.0069958568 -0.24994501
-0.24807784 0.23832458 -0.19010872 0.16627005 -0.20308465 -0.21932441 -0.06325835 0.2430462
0.018195063 0.14117241 0.04012254 0.09218398 0.23619741 -0.21333188 -0.02292335 -0.06822145
-0.1697292 -0.16866297 -0.20333001 0.12695572 0.14487058 -0.017378002 -0.10182589 -0.028580815
-0.24395388 0.20576322 -0.22894502 0.03428027 -0.22524321 -0.10874182 0.19577542 -0.10814282
-0.116642565 -0.09264344 0.24701717 -0.18873897 0.029906183 0.09440282 0.091282874 0.10119563
0.08779842 0.18518698 -0.221322 0.16626132 0.06099969 0.020278603 -0.10917869 -0.20686662
-0.24693543 -0.027794182 0.1763334 0.117257655 0.19513208 -0.14602602 -0.08209708 -0.050977737
0.20206007 0.22086525 0.05567342 -0.096945435 0.044335753 0.11980039 -0.15200171 -0.11074865
-0.16507867 -0.084580034 -0.24926606 0.17124337 -0.09565869 0.03718123 0.15328881 -0.14207917
0.17878872 -0.019208819 0.13248432 0.17030105 -0.15740731 0.061332732 -0.014908612 -0.10888603
0.09380284 0.059980065 -0.09368688 -0.17361411 -0.21787661 0.16745397 0.08740461 -0.23842233
0.105939984 -0.023103148 0.037725598 0.028901964 -0.14292634 -0.018107235 0.19399238 0.021760225
-0.18349794 -0.2435723 0.23010525 -0.22111645 0.14303091 -0.025024712 0.22785178 0.17738384
0.078119576 0.005220771 -0.00925377 0.23857787 0.066067934 0.021036714 -0.15988675 -0.19709823
-0.2177307 -0.07841188 -0.14098594 -0.160685 0.24911836 -0.011144847 0.23125917 -0.1356723
-0.21069291 0.013198674 -0.038743377 -0.15776154 0.0487341 -0.19898829 0.073363125 -0.055984885
0.2284692 0.1680753 0.19894102 0.12757823 0.08001831 0.1978474 0.08206317 -0.17309535
-0.21101376 0.07118663 -0.22920185 -0.19124186 -0.0058918893 0.24019033 0.23497492 -0.09350756
0.11826134 0.15173674 0.0019308627 -0.072291106 0.15012878 -0.083912104 -0.22828117 0.004521668
0.18162164 0.22248927 0.2112265 0.10161063 -0.07296708 -0.09599647 -0.081091106 -0.08903459
-0.085519314 -0.09531286 0.2298891 -0.089310825 -0.18535438 -0.24923405 -0.044068545 0.044669062
0.1092391 0.15545154 0.09476107 0.20658979 0.21316862 -0.07964593 0.03386727 -0.035452902
0.12596887 -0.11767399 -0.021477282 -0.21313944 -0.18256238 -0.20180866 0.12403306 0.2047891
0.20086819 0.2027612 0.21254778 -0.22775528 -0.23664516 -0.04780692 -0.16131952 0.18879116
-0.13406548 0.1828148 -0.10267994 -0.024167448 -0.1927557 0.1383141 0.10687056 0.24470565
-0.031529516 -0.18329719 0.1495023 -0.20994467 -0.24681407 -0.05757317 -0.0052317083 -0.113720894
