logs/测试preditor网络架构的影响/preditor_network.MLP.layer_number=3preditor_network.MLP.layer_size=[64, 64, 128]/test_model_20250427_190001.pth (torch, 946205 bytes, 80 tensors)

weight_function_network.initial_cnn.0.weight f4 [8, 1, 3, 3]
000000 dc a9 01 3e 96 28 8e be 5e 00 a3 be b2 e0 92 bc
       0.12662452 -0.2776534 -0.31836218 -0.017929409
000010 c0 80 97 3e 6c 55 3a be 05 f9 04 be 5c d0 04 3e
       0.29590416 -0.18196648 -0.12985618 0.12970108
000020 d6 88 16 3e 62 e1 61 be d7 dd 8e be 97 d6 18 be
       0.14700636 -0.22058633 -0.27903625 -0.1492561
000030 ae 24 13 3d 8b d7 26 3e 86 e9 25 3e ba 4a 22 be
       0.035923652 0.1629316 0.16202363 -0.15848818
000040 84 c6 b7 bd 08 4e 23 be c7 cb 8a be 10 f2 73 3e
       -0.08973411 -0.15947735 -0.27108595 0.23822808
000050 50 c0 6a 3e 35 ca 78 3e c9 a8 20 be a9 f7 17 3e
       0.22924924 0.24295886 -0.15689386 0.14840569
000060 bb 45 57 be e7 68 0e be 84 34 9f 3d d8 f9 01 3e
       -0.21022694 -0.13907205 0.077736884 0.12692964
000070 70 a0 44 3e d0 4c 9d be 1d d3 65 be 16 88 5d 3e
       0.19201827 -0.30722666 -0.22443815 0.21633944
000080 01 2a 7e 3e 9b 19 06 be 81 84 8c 3d bc 50 2e be
       0.2482071 -0.13095705 0.068612106 -0.17022985
000090 b9 85 48 3e d4 ba 46 be 75 3b 9a be 92 8d 9f be
       0.19582261 -0.19407207 -0.30123487 -0.31162697
0000a0 9d 39 4b be 60 86 87 bc a7 ab 73 3d 24 b0 18 be
       -0.19846196 -0.016543567 0.059489872 -0.14910942
0000b0 d4 44 98 be 69 1a 9c 3d f6 14 9f bc 66 3e 95 bd
       -0.29740012 0.07622225 -0.019419175 -0.07287292
0000c0 59 d5 04 be 4f 54 db 3d 19 84 ea 3d c2 72 a4 be
       -0.1297201 0.1070944 0.11450977 -0.32118803
0000d0 6d 7d 44 be 47 c0 64 be b7 d1 ed bc 65 d5 74 3d
       -0.19188471 -0.22338973 -0.029030664 0.05977382
0000e0 00 16 56 3e 74 3d 85 be da 75 63 3e 18 55 e1 3d
       0.2090683 -0.26023448 0.22212926 0.110025585
0000f0 58 a5 05 3e 86 19 3c 3d 78 2c 2e 3e 6a 4e e6 bd
       0.13051355 0.04592278 0.17009151 -0.11245425
000100 99 50 d0 3c a9 a9 5a be 1c cd ad be 93 92 74 be
       0.025429057 -0.21353783 -0.3394555 -0.23884039
000110 03 83 04 3e 27 92 42 be ea e8 f5 3c b9 1d 5c bd
       0.12940602 -0.19001065 0.030018289 -0.053739283

weight_function_network.initial_cnn.0.bias f4 [8]
000000 a0 5b 81 3e 81 ee bc bd bd e8 2e 3d 86 b7 4e 3e
       0.25265217 -0.092251785 0.042702425 0.20187196
000010 bc 08 1a be be a7 a3 be 01 df 38 be 78 97 9e be
       -0.15042394 -0.31963915 -0.18053819 -0.30974936

weight_function_network.initial_cnn.1.weight f4 [8]
000000 bf 50 80 3f 75 dd 82 3f 36 72 80 3f fc 9b 80 3f
       1.0024642 1.0223833 1.0034854 1.0047603
000010 54 1a 7e 3f d0 4f 80 3f 6d e4 7c 3f c4 ed 7a 3f
       0.99258924 1.0024357 0.9878605 0.9801905

weight_function_network.initial_cnn.1.bias f4 [8]
000000 4c eb 83 bc 2e 1a 55 3c 74 cd 47 3c 6d 59 18 bc
       -0.01610341 0.01300673 0.01219498 -0.0092986645
000010 dd bd 99 3b 84 7b 87 bb a4 8c f6 bc 4f 93 0f bc
       0.004691823 -0.0041345973 -0.03009636 -0.008763148

weight_function_network.initial_cnn.1.running_mean f4 [8]
000000 21 ba 1b 3e fc 49 cd be fa f7 e7 3d bc 56 57 3e
       0.15207721 -0.40095508 0.11326595 0.2102918
000010 8c 52 30 bf 4c dc 1c bf e7 8b e4 3d 8a b5 3c bf
       -0.68875957 -0.61273646 0.11159497 -0.73714507

weight_function_network.initial_cnn.1.running_var f4 [8]
000000 74 7f 61 3c 05 06 9a 3d 10 64 4b 3c fd d3 2a 3b
       0.013763297 0.075206794 0.0124139935 0.0026066296
000010 a4 84 74 3e ca a8 95 3d 05 17 96 3d 4e 13 19 3e
       0.23878723 0.073075846 0.073286094 0.1494877

weight_function_network.initial_cnn.4.weight f4 [16, 8, 3, 3]
000000 36 fe 61 3d 1a 4f 31 bd a8 d1 a4 bd 4c 21 a8 3d
       0.055174075 -0.043288328 -0.08047801 0.08209476
000010 73 b3 fb bc 0b 55 49 bd 8f 84 3c bd a8 9f da bc
       -0.030725216 -0.04915337 -0.046024855 -0.026687458
000020 f7 4f bd bd 2a 79 08 bd bf 10 3c 3d a1 26 8e 3c
       -0.09243768 -0.033318676 0.045914408 0.017352404
000030 85 e7 d5 bb 68 c8 3d 38 be c9 83 bd 45 e0 7d bc
       -0.0065278434 4.5247754e-05 -0.06434964 -0.015495365
000040 ec ed 84 3d a0 38 d8 bc 0a 30 e2 bc c9 de 87 bd
       0.064906925 -0.026394188 -0.027610797 -0.0663429
000050 12 45 e7 bd 8b 7e 9b bd d1 ad 1c bd 89 46 24 3d
       -0.11292471 -0.075924955 -0.0382517 0.04010633
000060 cc 54 f5 3d e9 f3 79 3d 84 3d b6 3d d8 66 a1 3c
       0.11979064 0.061023626 0.08898452 0.01970236
000070 0e a6 54 3d 7e b8 2f 3b 97 2a ad 3d cf 6c d2 3d
       0.051916175 0.0026812847 0.08455389 0.1027466
000080 54 46 b0 3d c6 bf f3 3d 89 6a 2f bd 6c 3b 41 bd
       0.08607164 0.11901812 -0.04282621 -0.04717581
000090 a3 02 db 3d 21 2b a8 3c 93 f8 ea 3d 15 3d 07 3d
       0.10693862 0.020528378 0.11473193 0.033017237
0000a0 c8 66 d7 3d f6 86 d4 3d 39 ee e6 bd 5f 8b 24 bd
       0.10517651 0.10377304 -0.11275906 -0.040171977
0000b0 dd 54 04 bd 74 06 da bb 4c 1a 70 bc f7 3c 24 bc
       -0.032307494 -0.0066536013 -0.014654707 -0.010024301
0000c0 17 d7 33 bc f9 00 78 3d 45 64 70 bd a6 ee 8c bd
       -0.010976574 0.060547803 -0.058689374 -0.06881456
0000d0 26 3e 2f 3d 8b f2 a0 3d ea ae 8f bd 11 df b2 3b
       0.04278388 0.078587614 -0.07015784 0.0054587205
0000e0 df 8e 0d bd 9c b6 f5 3d e7 ad 48 bd 21 82 d2 3d
       -0.03456008 0.119977206 -0.04899397 0.10278726
0000f0 db f7 ee bd d9 3a 98 3c 6e 77 2b bd 82 01 25 3d
       -0.116683684 0.018582748 -0.041861944 0.04028464
000100 be ef 67 bd 21 0d 3a 3c 0c 8c 3d bd 47 27 7b bb
       -0.05662512 0.011355669 -0.046276137 -0.0038322972
000110 8e cc a7 bc 8b f3 23 3d 72 15 16 3d a0 dc 00 3d
       -0.020483281 0.040027183 0.036641546 0.031460404
000120 48 18 df 3d 3d 7b d3 bd 09 29 e5 3d 24 42 a0 bd
       0.10893303 -0.1032624 0.111894675 -0.07825115
000130 be bd 3a bd e9 5f 97 bd 34 4d eb 3d 4c 1b 52 bd
       -0.04559111 -0.0739134 0.11489335 -0.051295564
000140 5b a8 cd 3d 49 d9 0b 3d 8f 0f 7c 3d 0f a3 9a bc
       0.10041877 0.034142766 0.061538275 -0.01887658
000150 df b2 65 bc 26 6c b7 bd 35 da a8 bd 75 01 41 3d
       -0.014019697 -0.089561746 -0.08244745 0.04712053
000160 2a b8 d4 3d cb 55 8a 3b 18 bc 94 bc 13 72 fc 3d
       0.10386689 0.004221653 -0.018156096 0.123264454
000170 08 67 3d 3d 97 8a 5c bd 0d b5 d3 3c 2a 81 84 bd
       0.046240836 -0.053843107 0.025843168 -0.064699486
000180 2e 69 e3 bd 26 63 bd 3d 47 5f a0 bd 95 59 27 bd
       -0.11104046 0.09247427 -0.07830673 -0.040856916
000190 b4 43 b9 3c e7 cf 39 bd be 09 8c bd b6 da a0 3d
       0.022615291 -0.045364287 -0.06837796 0.07854216
0001a0 c3 63 ac 3d 0a 2d 81 3d 1c 16 e3 bd 2b 68 a5 3d
       0.084174655 0.06307419 -0.110882014 0.08076509
0001b0 da 08 cc 3d 11 75 80 3d c5 13 26 3d 11 89 8c 3c
       0.09962626 0.06272329 0.040546197 0.017155202
0001c0 1a 0a f3 bc a3 e1 c4 bd 1b 69 6a 3d 11 64 d3 bb
       -0.029667903 -0.09613349 0.057229143 -0.006451138
0001d0 06 c4 a1 bd 39 5a ae bb 63 13 95 3d d7 8b 95 3d
       -0.07898717 -0.005320814 0.07279088 0.07302063
0001e0 99 0f e6 bc e7 bb e8 bb e6 10 b4 bd 6a 15 90 3d
       -0.02808361 -0.007102478 -0.087922856 0.070353344
0001f0 9e 99 96 bd 5a b0 c0 3d 67 c2 be 3d 75 f6 37 3d
       -0.07353519 0.094086364 0.09314423 0.044912774
000200 7c 01 a9 3c 03 44 6c bc ff ae 03 3d 95 ad c1 3d
       0.02063059 -0.014420512 0.03214931 0.09456936
000210 cc b0 43 3d a8 a7 8d bd 26 5d 1c bd 6d 25 e1 bd
       0.04777603 -0.069167435 -0.03817477 -0.109934665
000220 cc a9 98 3d fd 7b 87 3d 2a eb 85 bc 99 9a 94 bd
       0.07454261 0.06615446 -0.016347487 -0.0725605
000230 0b 78 ee bd ef f0 21 3c 75 2d f2 bd 8a 12 a6 3d
       -0.1164399 0.009884103 -0.118250765 0.08109005
000240 f8 d6 ec 3d e5 59 bf bd 8d 64 80 bd 82 06 9d 3d
       0.115644395 -0.09343318 -0.062691785 0.07667257
000250 67 80 b4 bd c6 8e 43 3d 37 94 b0 3d 45 71 c1 3d
       -0.08813553 0.04774358 0.0862202 0.094454326
000260 c9 4d af bd e3 6b c5 bd d1 1a 95 3d b9 d3 00 3e
       -0.08559758 -0.096397184 0.072805054 0.12580766
000270 c7 e2 d2 3c 88 ae 3a 3d e0 b3 1b bd 30 a1 14 bd
       0.025742901 0.045576602 -0.03801334 -0.036286533
000280 fc 89 30 bd c1 4d ef bc 29 32 18 3d 12 e1 bc bd
       -0.043100342 -0.02921188 0.03715721 -0.09222616
000290 9b e6 3d bd 30 1d b2 bd 46 f9 b9 bd fe 76 7c bd
       -0.0463625 -0.08696973 -0.09080748 -0.061636917
0002a0 51 33 61 bd fa 19 37 3d ac 9c 23 3d bc b0 d4 3d
       -0.05498058 0.044702508 0.039944336 0.10385272
0002b0 3c 1f 7f 3c bf 50 10 bb 03 29 c4 bd 85 01 01 be
       0.015571412 -0.0022020785 -0.09578135 -0.12598236
0002c0 13 e8 f3 bc 0b 49 0b 3d 7d ed 42 3c bd a5 ec 3d
       -0.029773748 0.034005206 0.011897442 0.115550496
0002d0 74 a1 b7 3d 7b 94 1b bd 06 51 98 bd ff 36 ce bd
       0.089663416 -0.0379834 -0.07437329 -0.100690834
0002e0 cb 04 13 bd ea 46 b9 3d 3d 0e 9c 3d 73 9e 83 bd
       -0.035893243 0.09046729 0.07619903 -0.06426706
0002f0 05 d3 f3 3d a7 fb 20 3d 95 4d 5e bd 38 ae ab 3d
       0.11905483 0.039302494 -0.054273207 0.08382839
000300 b6 46 94 3d e3 f3 e1 3d 1a de 8d bd c5 3e b5 bd
       0.072400495 0.11032846 -0.06927128 -0.08849863
000310 7b 93 d6 3d 2f b7 a8 bc 6f a1 93 3d 7a b1 25 3b
       0.104773484 -0.020595161 0.072085254 0.0025282786
000320 f2 b0 6a bc 50 ce cc bd 42 87 6a 3a 58 9c ee 3d
       -0.014324414 -0.100002885 0.00089465466 0.11650914
000330 b5 88 3e bd 71 fb 92 bd f3 ef 86 3b fb 96 5f 3b
       -0.046517093 -0.07176865 0.0041179596 0.003411709
000340 3e 1d 91 bd 41 bf b9 bd 28 87 ce 3d 43 4e 7c bd
       -0.07085656 -0.09069682 0.10084373 -0.061598074
000350 7e 4c 2d bd a4 26 b5 bc e7 d5 ef 3c 19 28 db 3d
       -0.042309277 -0.022113152 0.029276801 0.107010074
000360 0e 10 86 bc 0f 4a 63 3d d0 6f 81 3c 9a 0f 55 bd
       -0.016365077 0.05549055 0.015800387 -0.052016832
000370 a2 c1 35 bc de 12 6a bd a1 34 b8 3d b9 dd 3c bd
       -0.011093529 -0.0571469 0.08994413 -0.04610989
000380 39 77 b8 3d 02 fc be bc df fe 63 3d 0b e0 9d bd
       0.09007115 -0.023313526 0.055662986 -0.077087484
000390 f4 18 90 3d af d6 d4 3d 9e 0c f9 3d 0d 01 e2 bd
       0.070360094 0.1039251 0.1216061 -0.11035357
0003a0 4d 05 f4 bd d6 5c 82 bd 0d eb ec 3d 90 75 e7 bd
       -0.119150735 -0.06365363 0.1156827 -0.1130172
0003b0 da 2f 94 3d f1 2f 8c 3c 94 1d 9e 3b 2e 87 db 3d
       0.072356895 0.017112704 0.0048253033 0.10719143
0003c0 dd 60 67 3d 54 86 9f 3d e5 84 0a bd 36 7f c0 3d
       0.05648886 0.07789293 -0.033818144 0.093992636
0003d0 3a bf c6 3d bd 4a 96 bd 51 e2 e0 3c b9 46 cc bc
       0.09704442 -0.07338474 0.027451666 -0.024936067
0003e0 b8 c7 00 be 19 df aa 3d d0 3a 84 3d 61 4f 53 3d
       -0.12576187 0.08343334 0.0645653 0.051589373
0003f0 d1 49 87 3d 40 5f 23 3d ab 55 a5 3d 71 65 bf 3d
       0.06605876 0.03988576 0.080729805 0.0934552

weight_function_network.initial_cnn.4.bias f4 [16]
000000 bf c2 10 bd 6f ea 9d 3d 4e a5 6b 3d 03 86 48 3d
       -0.035341974 0.0771073 0.057530694 0.04895593
000010 ca 8b fb ba ad 25 dd 3d d7 cd 7b bd 9a 0d e2 bc
       -0.0019191441 0.10798202 -0.0614756 -0.027594376
000020 b8 a3 83 3d 9e 40 7a bd 82 f0 bf bc 63 01 a7 3d
       0.06427711 -0.06109678 -0.023430113 0.08154561
000030 58 41 e0 bb a6 7c 89 3d 4a 5c 9a bd 75 24 d0 bc
       -0.006843727 0.06713228 -0.07537134 -0.025408009

weight_function_network.initial_cnn.5.weight f4 [16]
000000 43 ef 7f 3f 9b 56 81 3f 33 ee 7f 3f b6 bf 7d 3f
       0.9997446 1.0104555 0.9997284 0.9912065
000010 2f 43 81 3f 13 cd 80 3f ab 00 81 3f 85 34 7f 3f
       1.0098628 1.0062584 1.0078329 0.99689513
000020 eb e4 7d 3f 9e 35 7c 3f d3 63 80 3f 45 7b 7e 3f
       0.99177426 0.98519313 1.0030464 0.99406844
000030 ca c8 81 3f 26 36 80 3f 48 ec 7d 3f 2c f5 7f 3f
       1.0139401 1.0016525 0.9918866 0.9998348

weight_function_network.initial_cnn.5.bias f4 [16]
000000 43 12 a7 bc 11 64 05 bb a9 1c a0 bc 4c cb 3c ba
       -0.02039445 -0.0020353834 -0.019544916 -0.00072019245
000010 37 f0 3d 3b 12 79 31 bc 96 1d 15 bc 25 84 37 bc
       0.002898229 -0.010832088 -0.009101292 -0.011200939
000020 10 a9 2a bc 88 d4 a7 bb 93 b0 19 bc 3a c6 d2 3a
       -0.010416284 -0.0051217712 -0.0093804775 0.0016080805
000030 be 65 25 3c 4d 16 9a 3b de 75 30 bb 5b 91 d2 bc
       0.010095058 0.0047023655 -0.0026925723 -0.025704077

weight_function_network.initial_cnn.5.running_mean f4 [16]
000000 e4 95 07 3e 6f 2e 31 3e 40 7b a0 bb 3a 64 eb 3e
       0.13240772 0.1730287 -0.004897505 0.45974904
000010 b2 a4 06 3f 7e 9f a5 bd 39 8f ad 3d 18 13 a8 bc
       0.52595055 -0.08087061 0.08474583 -0.020516917
000020 a7 ca 7a bd a6 e9 53 3c a6 64 81 bd d4 57 a8 3e
       -0.06122842 0.012934124 -0.06318025 0.32879508
000030 a8 ec a2 bd 3a c2 47 bc aa 94 40 3e 96 65 11 3d
       -0.07955295 -0.012192303 0.18806711 0.03549727

weight_function_network.initial_cnn.5.running_var f4 [16]
000000 41 72 9f 3d 18 34 e2 3d de b3 ec 3d de 24 72 3e
       0.07785464 0.11045092 0.115577444 0.23646876
000010 28 9a 00 3e 3f fa 4b 3e c0 7e 0e 3e a4 10 0f 3e
       0.12558806 0.1991968 0.13915539 0.13971192
000020 69 47 cc 3d 8d a4 a4 3d 16 c8 98 3d bc 08 de 3d
       0.09974558 0.08039198 0.07460038 0.1084151
000030 b6 d0 f9 3d c1 e9 03 3e da e7 d8 3d 65 9f 0d 3d
       0.121980116 0.12882139 0.10591097 0.03457584

weight_function_network.initial_cnn.8.weight f4 [32, 16, 3, 3]
000000 9c cd 9f 3d 07 1f d3 bc 64 31 ec bc d1 36 6e bd
       0.07802889 -0.02577163 -0.028832145 -0.058157746
000010 2d 36 a8 3d 47 7e 8b bc 77 af 79 3d e2 14 d8 bb
       0.08213458 -0.017027987 0.060958352 -0.0065942863
000020 73 f4 97 3d fe 9f 1f bd e3 d4 34 3d 97 15 90 bc
       0.07419672 -0.03897094 0.044148337 -0.01758842
000030 92 2e 9c 3d df 92 0c bb b1 0f a2 bb 2f 65 86 bb
       0.0762607 -0.0021449847 -0.004945718 -0.0041014175
000040 7f fb 48 bd 8b 66 84 bd f7 2c 68 bd 43 0c 1b 3c
       -0.04906797 -0.06464871 -0.056683507 0.009463373
000050 74 4a 3f 3d 6c ff 1b 3d f6 ec 38 3c d6 6b 9b bc
       0.046701863 0.038085386 0.011286965 -0.018972319
000060 e4 85 45 3d 9a 82 c3 bc 30 79 1e 3d 86 d6 87 bc
       0.04822339 -0.023865987 0.038689792 -0.016581785
000070 5e 85 9f 3d cf 70 76 3d 3c 05 98 3d 06 2c 71 bc
       0.0778911 0.060166176 0.074228734 -0.014719969
000080 53 c9 99 3d 65 ad 82 3d 47 7a 62 3d 39 36 1d 3d
       0.07509103 0.06380729 0.055292394 0.03838179
000090 47 8f 79 3d e9 20 83 bd 91 f3 ce bb f0 1f ef bc
       0.060927656 -0.064027615 -0.0063156565 -0.029190034
0000a0 cb 6e 84 3d 1e 60 70 3d 9c c7 9e 3d 5a 70 9a bb
       0.064664446 0.058685414 0.07752916 -0.0047131004
0000b0 78 04 83 bd 7d 84 f8 bc 3d 9e 8d 3d 9f 9d f3 3c
       -0.06397337 -0.030336613 0.06914947 0.029738246
0000c0 88 44 98 3c 2c 63 54 3d 2f 08 4a bd cb 9b 8d bd
       0.018587366 0.05185239 -0.04932421 -0.06914481
0000d0 9b 67 a1 3c 49 73 85 3c 37 59 7e 3d e0 a2 c8 bc
       0.019702723 0.016290324 0.0620968 -0.024491727
0000e0 96 64 6b 3c 47 6c ac bc 03 83 92 3c fe 5d 6c bd
       0.014367243 -0.021047724 0.017884737 -0.057706825
0000f0 5b 89 55 3d c1 52 82 3d bf f4 0f 3c e6 2d a9 bd
       0.052132946 0.0636344 0.008786379 -0.082607076
000100 e9 f8 35 bd b1 d8 a6 3d f7 e3 5b 3d 95 b5 26 bc
       -0.044426832 0.08146799 0.0536842 -0.0101751285
000110 32 67 39 bd d5 b2 06 bd 68 55 84 bd bb d7 4f 3d
       -0.04526443 -0.03288539 -0.064616024 0.050742846
000120 a0 36 bf bd 5f 2f 06 3c 50 ec 9c bd 6a 71 c9 bc
       -0.09336591 0.008190005 -0.076622605 -0.024590213
000130 6d 73 96 bd f8 38 3a bd 5c 08 bc 3c c4 f0 31 bd
       -0.073462345 -0.045464486 0.022953205 -0.043442503
000140 97 8f 96 3d 6c e6 fb 3b 9d c6 d8 bc cf b8 77 bd
       0.07351606 0.0076873805 -0.026461894 -0.06047898
000150 b8 43 2d bb 90 4d a0 bc 63 a4 04 3d 12 e5 ce bc
       -0.0026438069 -0.019568235 0.032383334 -0.025255714
000160 d8 1d 80 bd 36 0a b5 3d 6f c1 10 3d 29 22 24 3d
       -0.06255692 0.08839838 0.035340723 0.04007164
000170 ee f4 5f bd 8d 4b 14 bd de 77 a8 3d 10 ea 5a bd
       -0.054676943 -0.036204863 0.08225988 -0.053445876
000180 04 a5 38 bd f0 37 2b bd 79 8d 6f bd 74 f0 35 3d
       -0.045079246 -0.041801393 -0.05848453 0.044418767
000190 9e be a0 3d fb 54 62 3d 7a a5 87 bd fc 9f a7 bc
       0.07848857 0.055256825 -0.06623359 -0.020462029
0001a0 a8 ff d7 bc f6 f8 5b bd 9f 3e 0f bd 28 43 04 bd
       -0.026367024 -0.053704225 -0.03497183 -0.032290608
0001b0 8b d8 6c 3c 68 47 68 3d 51 52 91 3d f5 f1 99 3d
       0.014455925 0.056708723 0.07095779 0.07516853
0001c0 1d 09 94 3c a3 58 23 bd f6 b3 98 bd cb 28 10 3d
       0.018070752 -0.039879452 -0.074562 0.035195153
0001d0 85 ee 61 3d e2 cf 28 3d 5f e5 3a bd d3 e8 c1 3c
       0.05515911 0.041213877 -0.0456289 0.02367059
0001e0 5f a6 87 bd 07 cf 18 3c ef 44 02 3d fe f4 02 3d
       -0.0662353 0.009326703 0.03180402 0.031971924
0001f0 41 dd 47 bd ff 3f aa 3d 1a d1 5a bd c4 01 b4 bc
       -0.04879499 0.083129875 -0.05342207 -0.021973498
000200 ae 73 13 3d 62 b4 8c 3d a2 30 32 3d 2a 5f 06 bc
       0.035998993 0.06870343 0.04350341 -0.0082014
000210 8c 53 49 bd 89 e0 a6 3d 44 56 81 3c ef 74 b6 3d
       -0.049151942 0.081482954 0.015788205 0.08909022
000220 3e 04 f6 3c 60 a4 81 bd 31 bf b6 bb 85 5a c5 bc
       0.03003132 -0.0633018 -0.005576991 -0.024091015
000230 4b 25 62 bc d5 d2 90 bd b4 ec 27 bd 11 0e 35 3d
       -0.013802837 -0.07071463 -0.040997222 0.044202868
000240 47 09 90 3b a6 de 69 bd 61 9a 2f 3b 69 68 8c bd
       0.004395637 -0.0570971 0.0026794898 -0.06855852
000250 11 3b b1 bc b4 66 81 3d 92 97 96 bd 37 32 54 3d
       -0.02163461 0.06318417 -0.073531285 0.0518057
000260 07 9c 46 bd 87 2d 60 3c 9b d1 8f bd 6a 14 3e 3d
       -0.048488643 0.01368273 -0.07022401 0.046406187
000270 11 51 8c bd de 8f f0 bc 5a 19 20 3d ec 67 16 3d
       -0.068514 -0.029365476 0.039086677 0.0367202
000280 6d 06 ab 3c 8b 60 0a 3d a9 9c 6a bd 5d 1d dc 3c
       0.020877087 0.033783477 -0.05727831 0.02686947
000290 84 08 23 bb e6 d5 91 bd 2c 5b 5f bd fe 73 12 bd
       -0.0024876902 -0.07120876 -0.054530308 -0.03575515
0002a0 fc 55 74 3d 93 43 07 bd 13 da 41 3d b8 17 49 3d
       0.059652314 -0.03302343 0.047327112 0.049094886
0002b0 ee 32 1a bd dc 96 8e 3d 4a 75 8b 3d c4 c8 82 3d
       -0.037646227 0.06962368 0.068094805 0.06385949
0002c0 b0 2b 78 3d d0 82 c7 3c 73 7a ba bd c8 cc 9a bc
       0.06058854 0.024354368 -0.091053866 -0.018896475
0002d0 d4 cb b0 3c 41 7e 26 3d 67 f1 65 3d 8e c8 81 3c
       0.021581568 0.04064775 0.056138422 0.015842702
0002e0 f0 ba 22 3c df 82 d7 3d 15 77 74 3d 14 45 59 3d
       0.009932265 0.105230086 0.059683878 0.053044394
0002f0 d7 b8 91 bd 0f 77 af bd 5c 71 af ba fe 15 34 3d
       -0.071153335 -0.085676305 -0.0013385224 0.043966286
000300 8a 04 7c 3c 0a 8b 2e bd 29 9a 3c bc c3 fc 2f bc
       0.015381942 -0.042613067 -0.011511364 -0.010741415
000310 02 3e 92 bd 39 9d 9c bd 20 8b 93 bd 19 3c 3e bd
       -0.07140733 -0.07647175 -0.0720427 -0.046444032
000320 74 1b a6 bc 13 4e 9a bd 01 ab 31 3d d1 b9 cf bc
       -0.020276763 -0.07534423 0.043375973 -0.025357159
000330 b1 de ac bc 02 bc 07 bd 5d 7d af bd 59 a2 98 bd
       -0.021102281 -0.033138283 -0.08568833 -0.0745284
000340 ea d6 61 bd 25 61 d8 3c f0 ab 9e bc d1 3e 0c bc
       -0.0551366 0.02641351 -0.019369096 -0.0085598985
000350 dc ec 6c 3d 92 dc bb bc 1f 09 7c bd 1a 22 2e bd
       0.057843074 -0.022932325 -0.061532136 -0.04251299
000360 66 64 0f bd 99 24 95 3d 2a 1a fc bc ed 44 4c 3d
       -0.035007857 0.07282371 -0.030774195 0.04987042
000370 ba 04 be 3c 7b 0c 99 bc 96 cd db b9 9a e1 97 3d
       0.023195613 -0.018682709 -0.00041924109 0.07416077
000380 af 04 5e 3d 70 8f 11 3d ec 01 8b bd a7 20 a6 3d
       0.054203685 0.035537183 -0.06787476 0.08111697
000390 69 b6 c1 bc 14 8e b6 bc d9 32 0e bd 82 66 3b bc
       -0.02364655 -0.022284545 -0.03471646 -0.011438014
0003a0 85 ec c3 3c 1f a5 a6 3c 6e 2c 69 3c 9b 60 e2 3c
       0.023916492 0.020342408 0.014231784 0.027633956
0003b0 1f 43 93 bd d0 5d 13 bd 01 d3 b7 3c f1 0a 0f bd
       -0.07190537 -0.03597814 0.022439482 -0.034922544
0003c0 d9 3a 9a bd b5 ef 62 3d ad 13 20 3d a6 01 64 3d
       -0.075307555 0.055404384 0.039081264 0.055665635
0003d0 36 1f ac bc 69 77 f5 3c ed db 80 bd b9 6e 19 3d
       -0.021010976 0.029964166 -0.062919475 0.03745911
0003e0 17 ba 10 3d 9b e1 02 bb e5 84 7d bd 4d a5 5f 3c
       0.03533372 -0.0019970897 -0.061894316 0.013650251
0003f0 5f af 4e bd 2e 19 79 3c f1 be b6 3b 33 1d 07 bd
       -0.050460216 0.015203757 0.005576961 -0.03298683

weight_function_network.initial_cnn.8.bias f4 [32]
000000 b9 0e 41 bd 09 ec 44 bd c5 f9 85 bd 2d ed 3f 3d
       -0.04713318 -0.048076663 -0.065417804 0.046857048
000010 e6 f3 ec 3c 9f 3d 68 3d e8 99 f4 bc 31 d2 e5 bc
       0.028924894 0.05669939 -0.029858544 -0.028054329
000020 e7 6f 7d bd e3 67 2e 3c be 22 2a bd 69 3b 0e bc
       -0.061874297 0.010644886 -0.04153704 -0.008681157
000030 09 58 59 bd 6d c4 61 bd b8 b4 fd 3c d8 bb bf 3c
       -0.053062472 -0.055118967 0.030969962 0.023405
000040 3e d7 71 bd 4f fc 0f 3d 4a 3b a1 3b fa e8 45 3d
       -0.05904316 0.03515273 0.004920398 0.048317887
000050 da f1 8f 3d 18 8d 8f bd 44 47 48 3b 4c e9 9c 3c
       0.070285514 -0.07009333 0.0030560056 0.019154213
000060 2c 50 89 3c 0c 21 6e bd c7 8d d8 3c 55 83 88 bd
       0.016761862 -0.058136985 0.026434792 -0.066656746
000070 81 f8 c8 3c 24 14 82 bd dd c1 8e 3d 46 f7 32 3d
       0.024532558 -0.06351498 0.0697057 0.04369285

weight_function_network.initial_cnn.9.weight f4 [32]
000000 06 24 80 3f da 9c 80 3f fa 5f 80 3f 98 de 7c 3f
       1.0010993 1.0047867 1.002929 0.9877715
000010 15 e2 7f 3f 93 92 7f 3f 13 e4 7e 3f e7 74 7f 3f
       0.9995435 0.9983303 0.99566764 0.99787754
000020 05 37 80 3f 50 a7 82 3f c7 97 80 3f e8 3d 7e 3f
       1.0016791 1.020731 1.0046319 0.9931321
000030 86 fa 7e 3f 7a d2 82 3f d2 47 81 3f 85 aa 7e 3f
       0.9960102 1.0220482 1.0100043 0.9947894
000040 3c 5b 7e 3f 34 95 7c 3f f3 c6 7e 3f 1d 7a 81 3f
       0.9935796 0.98665166 0.9952232 1.0115391
000050 76 5d 7f 3f de 08 7f 3f cb e8 7d 3f 70 36 7e 3f
       0.99751985 0.99622905 0.9918334 0.99301815
000060 08 8a 7e 3f 55 8e 80 3f c9 5a 7f 3f 1a a4 80 3f
       0.9942937 1.0043436 0.997479 1.005008
000070 9d dd 7d 3f c3 68 81 3f f1 89 7e 3f 2d 3a 7e 3f
       0.9916628 1.0110096 0.9942923 0.9930752

weight_function_network.initial_cnn.9.bias f4 [32]
000000 db e8 e8 bb c1 5d a3 bb 30 51 5e 3b 61 10 87 bc
       -0.0071078367 -0.0049855416 0.0033922903 -0.016487302
000010 98 8b 3f b9 06 f1 b1 3b c3 c0 06 bc 6f bd b4 bc
       -0.00018267182 0.0054303436 -0.008224669 -0.022062985
000020 0b e0 ee 39 5c 08 67 3a 73 2e 7c 3b 41 55 5c bc
       0.00045561822 0.00088131963 0.0038479834 -0.0134480605
000030 13 58 2b bc 8e 7b 1f 3c 15 fc ba ba 49 ea a0 bb
       -0.01045801 0.009734048 -0.00142658 -0.0049107415
000040 95 20 71 bc e2 d7 4a bb 8c e3 80 bc 42 f3 ed ba
       -0.014717241 -0.003095143 -0.015733503 -0.0018154162
000050 ef d2 19 3c 32 ed 7e ba 7f 65 bd bc 25 25 1b bc
       0.009388669 -0.0009724676 -0.023119686 -0.009469305
000060 6e b8 bf b9 1a 9c 56 bc b8 80 20 bc 61 af 04 3c
       -0.0003656777 -0.013098741 -0.009796314 0.008098454
000070 fa 73 3b bc 54 66 c1 bb ad d1 60 bc b8 66 85 bc
       -0.011441225 -0.005902091 -0.013721866 -0.016284332

weight_function_network.initial_cnn.9.running_mean f4 [32]
000000 1f d1 8c 3e a3 1a 87 be 0d e7 87 be 3d 3f f0 bd
       0.27503297 -0.2638751 -0.26543465 -0.11730812
000010 a5 0c 5c 3e 5f 9e 59 be 39 71 5d be 90 af 64 3b
       0.21489199 -0.2125182 -0.21625222 0.0034894682
000020 88 f8 ad bd bd 0d 27 be e8 0c 43 bf 82 50 c9 3d
       -0.08494669 -0.16313834 -0.7619157 0.09829809
000030 a7 00 d2 bd c3 b9 3d be e8 1e de 3e 32 65 dc 3e
       -0.10254031 -0.18527894 0.43382955 0.43045956
000040 b4 ae 02 be 0b 8d 3a bd 5f f9 4c be 22 81 46 3f
       -0.12761956 -0.045544665 -0.20017003 0.7754079
000050 d9 8f c8 3d 95 c3 55 3e a1 60 25 3f ce 8e 62 3e
       0.09793062 0.2087539 0.6460057 0.22124788
000060 24 44 5b 3e db b3 ae 3e 9c 46 bb bd 9d 07 f0 be
       0.21412712 0.34121594 -0.09144327 -0.46880808
000070 f4 2c 04 3e b0 58 67 3d 41 5b 2d 3e 68 f4 7c be
       0.12907773 0.056481063 0.16929342 -0.24702609

weight_function_network.initial_cnn.9.running_var f4 [32]
000000 47 8d 0d 3e 22 d0 83 3e 91 96 01 3e 48 c8 09 3e
       0.13823424 0.2574473 0.12655093 0.13455307
000010 70 70 b1 3e 28 99 05 3e 26 6c 8e 3e 1f 3e e9 3d
       0.34656096 0.13046706 0.27816886 0.11388802
000020 52 df b7 3d 3e 28 bf 3d 4b f3 d9 3e ec 66 1c 3e
       0.08978142 0.093338475 0.4256843 0.15273637
000030 0d d7 bd 3e 84 8b 14 3e 16 61 e3 3d 70 18 8b 3e
       0.37078133 0.14506346 0.11102502 0.27167082
000040 49 88 40 3e 49 c1 40 3e 4c 45 45 3e b5 ba 5f 3e
       0.18801989 0.18823732 0.19264716 0.21848567
000050 f5 90 2c 3e 21 fa 35 3e 3d 43 75 3e 9a 32 99 3e
       0.16852172 0.17771198 0.2395143 0.29921418
000060 eb f0 3e 3e fb 83 47 3e f2 fe ec 3d bd 78 58 3e
       0.1864659 0.1948394 0.115720645 0.21139808
000070 f2 0b f3 3d 6b f2 e0 3d 71 02 83 3e 80 94 c2 3e
       0.11867513 0.109837376 0.255878 0.38003922

weight_function_network.initial_cnn.11.weight f4 [32, 32, 3, 3]
000000 8a 7f f6 bc 70 a2 6d bc bf 14 38 bd 5d 23 e7 3c
       -0.030090112 -0.01450406 -0.04494166 0.028215105
000010 6e 47 02 b9 59 ce 32 3d 04 9f 37 3c fd 12 bf 3c
       -0.00012424376 0.04365382 0.011207346 0.023324484
000020 a2 c6 49 3d 3e 64 8c bd 59 8c 02 bd 25 80 28 bd
       0.049261697 -0.06855057 -0.031872127 -0.041137833
000030 8b b0 03 3d e3 85 42 3d e8 6a 18 3d 32 1e 1d 3a
       0.032150786 0.047490966 0.03721133 0.0005993574
000040 f6 97 9d 3a a7 a6 7a 3d fe 18 74 3c da 8e 51 bc
       0.0012023437 0.06119409 0.014898537 -0.012790406
000050 ee 52 82 3d 66 9b af bc bd 6a 76 3d 5b a4 28 bd
       0.06363474 -0.021436404 0.060160387 -0.041172367
000060 5f f0 09 bb 86 18 7a bd 31 be 6c bd 32 84 f5 3c
       -0.0021047813 -0.061058544 -0.05779857 0.029970262
000070 c7 01 e8 bc d1 69 74 3c 45 bd 4b bd fa 2a 32 ba
       -0.02832116 0.014917807 -0.04974105 -0.0006796565
000080 39 04 de bc d0 2b c6 bc 5c 6a 52 3c 9c 27 bf ba
       -0.027101623 -0.024190813 0.012842741 -0.0014583948
000090 fd be 2b 3c 21 1d e2 bb dd d0 93 3b 6f 7e 90 bc
       0.010482547 -0.006900445 0.0045109824 -0.017638413
0000a0 8e d2 2c ba aa 7e 0e 3d 92 59 06 bd 0d 98 01 3d
       -0.00065926544 0.034788765 -0.032800265 0.031639148
0000b0 ec 84 f6 bc c3 1b 54 3c 8a 46 81 3d 7c 86 7d bd
       -0.030092679 0.012946072 0.063122824 -0.061895832
0000c0 95 61 7b bd a5 4c 17 bd f4 64 10 3d 46 89 d7 bc
       -0.06137236 -0.03693833 0.035252526 -0.026310574
0000d0 72 fd b3 bc c2 70 cf 3c 7d 19 33 bd 79 6d 20 3b
       -0.021971438 0.025322322 -0.04372548 0.0024479313
0000e0 0b b4 7b 3b 22 16 18 3d d6 2d 5f 3c 2d 1c 7a 3d
       0.0038406875 0.037130482 0.013621768 0.061062027
0000f0 1f 12 6e bd 2e 0d 71 bd 4a bc 07 bd 84 47 6c bd
       -0.05812275 -0.05885046 -0.03313855 -0.05768539
000100 4f 3e d4 3c bd c2 0d 3d 74 21 7d bd d4 9d 4e bd
       0.025908617 0.034609545 -0.06179948 -0.050443485
000110 1b 81 4d 3c f1 f9 0d bc 33 41 53 bd ba 3e 50 bc
       0.012542988 -0.008665548 -0.05157585 -0.012710268
000120 70 73 2e bc 5e 5f 1f bd 2f 6a b5 3c 3b 3b 27 bd
       -0.01064764 -0.03890931 0.022145359 -0.04082797
000130 40 b2 48 3d 8e 7f 66 3b 19 23 1b bd c6 94 60 bd
       0.048998117 0.0035171243 -0.03787527 -0.05482938
000140 4f 30 2b 3d 93 15 68 3d 88 74 6c 3d 63 28 9a 3d
       0.041794118 0.0566612 0.05772832 0.075272344
000150 88 55 84 bc 43 67 45 3d e7 97 94 bc 1b 81 77 3d
       -0.016154066 0.04819418 -0.018138839 0.06042586
000160 74 38 89 3d 91 58 63 3c f7 82 02 bd df f2 17 38
       0.06700221 0.013876096 -0.03186318 3.6227397e-05
000170 55 03 ae bc e6 12 2e bc 86 6d 7d 3d 75 59 13 bd
       -0.021241823 -0.010624623 0.061872028 -0.035973985
000180 53 81 38 3d a8 bf ed 3c 54 73 8e bd bf 73 b3 bc
       0.04504521 0.029022053 -0.06955591 -0.021905778
000190 a3 2d d0 3c 3b 90 4a 3d 4c eb f5 3c 28 68 31 3d
       0.025412386 0.049453955 0.030019425 0.04331222
0001a0 90 31 10 3c a4 d0 0e 3d 4d 06 43 3d 30 20 43 3c
       0.008800879 0.034866944 0.04761343 0.01190953
0001b0 1d d7 0f 3c 27 f1 8c 3c 45 e2 bc 3c 37 67 1d 3d
       0.008779314 0.017204834 0.023057112 0.03842851
0001c0 14 d3 ca bb 8c 3f 96 bb 5a 5c 02 3d 89 e7 ca bc
       -0.0061897133 -0.004585212 0.031826355 -0.024768608
0001d0 98 dc 67 3d 60 a3 09 bc 83 9d 5d 3d 98 d5 de bc
       0.05660686 -0.008400768 0.054105293 -0.027201459
0001e0 52 69 b2 ba d8 3e 7e bc 92 01 49 3d a9 77 52 bd
       -0.001361171 -0.015517913 0.049073763 -0.051383648
0001f0 c0 1a 2f 3c 50 02 2d bd a7 df 88 3b 0a 56 42 bc
       0.01068753 -0.042238533 0.004177052 -0.011861334
000200 7d 3a 56 3d 7a c0 15 3d a0 78 14 bd 84 a7 12 bd
       0.052301873 0.036560513 -0.03624785 -0.035804287
000210 2d 63 64 3d 3e 9e 04 3c 4e 5f f4 3c 7f 54 67 3c
       0.055758644 0.0080943685 0.029830601 0.0141192665
000220 01 7b 15 bd 65 85 8e 3d d2 7a f7 bc 74 70 e9 bc
       -0.03649426 0.06959037 -0.030209932 -0.028496005
000230 0e 0b 6a 3d d3 e5 ca bc 6b a7 04 bb db 16 f1 3c
       0.05713945 -0.024767792 -0.002024139 0.029429844
000240 45 ba 78 3b e2 a4 d8 bc b3 24 e9 bc 0b d1 4b 3d
       0.0037952822 -0.02644581 -0.028459882 0.049759906
000250 51 2f 18 3d ab f7 4c 3d 85 c1 6a bd c4 8f d1 bc
       0.0371545 0.050040882 -0.05731346 -0.025581248
000260 a7 b2 0d 3d 00 54 e3 3b 18 41 ea bc d4 69 27 3c
       0.034594204 0.006937504 -0.028595492 0.0102181025
000270 93 76 fa bc c2 be d9 3c da 88 2a bd 6d 1d be 3c
       -0.030574119 0.026580218 -0.041634418 0.02320739
000280 3e c0 8d 3c d0 8c 76 39 f0 d8 1b 3d b3 73 90 3c
       0.017303582 0.00023512845 0.038048685 0.017633295
000290 9e b1 e2 3c b8 66 09 3d ee 23 92 3b 06 ae c0 3c
       0.027672585 0.033545226 0.0044598496 0.02352048
0002a0 20 1b 4a 3d d6 70 23 bd 49 a8 31 bd 19 d7 77 3d
       0.049342275 -0.03990253 -0.04337338 0.060507867
0002b0 1f df a9 b9 68 6c 8e 3d 22 15 6a 3d 1e b4 0f 3d
       -0.0003240043 0.069542706 0.05714906 0.035083883
0002c0 11 42 22 3d c4 f0 a2 bc 1b d2 11 bc b8 3b 38 bb
       0.039613787 -0.019890197 -0.008900191 -0.0028111767
0002d0 60 2c 26 bb 59 25 0b bd c2 01 93 3a bb 54 9d bc
       -0.002535604 -0.033971164 0.0011215734 -0.019205442
0002e0 97 03 d8 bc 30 2e 6c bc 6b fa 0e 3c c0 cf 42 3d
       -0.0263689 -0.014415309 0.0087266965 0.047561407
0002f0 a8 72 c4 3c b7 8b 4a bc 88 55 0f 3d 9a 44 17 bd
       0.023980454 -0.012362412 0.03499368 -0.036930658
000300 dd 33 4e 3c 67 ba eb 3c 88 9d 90 bc 73 2d 95 3b
       0.012585607 0.028775407 -0.017653242 0.004552537
000310 79 b7 37 bd d6 24 6d 3d d0 ad f7 bc 84 4d 22 bd
       -0.044852708 0.057896458 -0.030234247 -0.039624706
000320 6a c3 19 3d 6e 35 c8 bc 05 c9 1b b9 d7 bc 0b bc
       0.037539877 -0.02443954 -0.00014856838 -0.00852891
000330 3a d8 4d bd 9e 42 8f 3d b1 33 6e bd 54 11 16 3b
       -0.050255038 0.06995128 -0.058154766 0.0022898512
000340 e2 0a f8 bc 5a 9f 3c 3d 36 1d 24 3b ba 49 6b bd
       -0.030278627 0.046050407 0.0025041825 -0.057443358
000350 d2 d5 d1 39 a4 e5 04 3d b6 8e b8 bc d2 3a ee bc
       0.00040022895 0.032445565 -0.022528987 -0.029080782
000360 f7 b0 4a 3d 42 e4 e1 3c 25 ad d9 bc 21 21 0d bc
       0.049485173 0.027574662 -0.02657182 -0.008613856
000370 28 93 8a 3c 81 08 a8 bc e9 0d ec bc 88 fb 57 3d
       0.016915873 -0.020511867 -0.028815227 0.052730113
000380 ad 7a 6c 3d d0 65 a8 3c 5b 9a ba bc 0e b9 72 3d
       0.05773418 0.02055636 -0.02277868 0.059258513
000390 d4 b5 be bc eb 2b 23 bd fa 61 7b 3d 97 b8 c4 3b
       -0.023280062 -0.039836805 0.061372735 0.00600345
0003a0 83 46 ee bc 4a ba 7f bc 28 8d ae bc c0 e9 71 bd
       -0.029086357 -0.01560838 -0.021307543 -0.059060812
0003b0 3a d0 88 ba 7f f8 20 bd c0 96 30 3c f5 57 8c bc
       -0.0010438033 -0.039299484 0.010778129 -0.017131785
0003c0 4b 1b 79 bc ae b5 76 3c a7 1a 47 bb de b2 fb 3c
       -0.015204261 0.015057964 -0.0030380876 0.030724939
0003d0 b4 40 12 3d 79 e1 20 3d 61 6a 15 bc e1 6d 04 3c
       0.035706237 0.039277527 -0.009119601 0.008082838
0003e0 71 02 13 3b 95 d6 cf 3a 11 1e a1 bb 78 f5 c9 bc
       0.0022431875 0.0015856797 -0.0049169143 -0.024653181
0003f0 7a c5 31 3d 20 33 26 bc 99 7a 30 3b 3e c1 b1 3c
       0.04340122 -0.010144025 0.0026928543 0.02169859

weight_function_network.initial_cnn.11.bias f4 [32]
000000 1e a2 fb bc ef 53 53 bd f5 1e 1c 3d 8a 29 2a bd
       -0.030716952 -0.051593717 0.03811546 -0.04154352
000010 0d 43 99 3c 01 d9 45 bd 0f f4 fc 3c 8a 55 33 bc
       0.01870873 -0.048302654 0.030878095 -0.010945687
000020 f0 be e0 3c 20 ec 33 bd 67 6a 50 bd d8 50 f6 3c
       0.027434796 -0.04392636 -0.050882723 0.030067846
000030 84 a8 17 bd e3 16 62 bd 35 f0 d8 3c 34 b5 96 bb
       -0.037025943 -0.055197608 0.026481727 -0.004599238
000040 71 a2 db 3b f0 62 68 3d a2 62 31 3d ac 40 73 3d
       0.006702714 0.05673498 0.043306954 0.059387848
000050 eb 45 57 3d 1c 39 ea bc 99 60 e0 bc 5c 7b 33 bd
       0.052556913 -0.028591685 -0.027389811 -0.043818817
000060 b1 78 1e 3d ea d8 68 3b 79 0d a3 3c 63 e8 69 bd
       0.03868932 0.0035529681 0.019903885 -0.057106387
000070 a8 51 38 3d fa f8 5b bd 50 15 d2 3c 3e b1 2b bd
       0.04499975 -0.05370424 0.025644928 -0.04191708

weight_function_network.initial_cnn.12.weight f4 [32]
000000 f3 b8 81 3f c2 89 7c 3f b1 11 82 3f 85 b4 80 3f
       1.0134567 0.986477 1.0161649 1.005509
000010 66 f1 7c 3f b8 22 7f 3f 55 62 7b 3f c6 e8 7d 3f
       0.98805845 0.9966235 0.9819692 0.9918331
000020 65 58 7e 3f fd 70 80 3f 2b f5 80 3f 43 d4 7f 3f
       0.9935363 1.0034481 1.0074819 0.9993326
000030 c0 81 7c 3f f1 b6 7a 3f 63 5b 81 3f 10 2a 7d 3f
       0.9863548 0.97935396 1.0106014 0.9889231
000040 30 0b 80 3f a8 b3 80 3f db 26 81 3f 98 3f 80 3f
       1.0003414 1.0054827 1.0089983 1.0019407
000050 1e 5f 80 3f fe 37 80 3f 54 d9 80 3f 8f 98 81 3f
       1.0029027 1.0017087 1.0066323 1.0124682
000060 1e 50 80 3f 6a d4 80 3f 07 69 7e 3f 6e 8e 7f 3f
       1.002445 1.0064824 0.9937901 0.99826705
000070 4f dd 7e 3f a6 bf 81 3f dd ed 80 3f b9 fd 7e 3f
       0.9955644 1.0136611 1.007259 0.996059

weight_function_network.initial_cnn.12.bias f4 [32]
000000 e4 12 4c bc 8a 57 9e bc e2 7b 19 3c be 4a 56 bb
       -0.012455676 -0.019328851 0.009367915 -0.0032698358
000010 6d 19 9c bc af 5e 8a bc af 89 69 bc d2 8e 06 bd
       -0.019055093 -0.016890852 -0.014254018 -0.032851048
000020 c1 6d 9a bb 1d a1 27 bc e8 89 44 bc 1f 98 8c bc
       -0.0047127907 -0.0102312835 -0.01199577 -0.01716238
000030 78 c7 a4 bc f1 36 26 bc 6a 9e e8 bb 30 ec 9d bc
       -0.020114645 -0.010144935 -0.0070989626 -0.019277662
000040 a3 f7 f7 bc 69 54 5c bb 53 ac 51 ba 8f ba a9 bb
       -0.03026945 -0.0033619648 -0.00079983956 -0.00517971
000050 6d cd b1 bc 55 f5 a9 ba a3 28 db bb 9d ae f8 bb
       -0.0217044 -0.0012966791 -0.006688194 -0.007589175
000060 6a 30 c6 bb 50 eb 79 bb 54 bd 59 bc 23 bd 87 bc
       -0.006048252 -0.0038134642 -0.013289768 -0.01656968
000070 67 72 0e bc a3 6c 42 bb 3c e5 a7 3c 32 a0 95 bc
       -0.008694268 -0.0029666803 0.02049505 -0.018264864

weight_function_network.initial_cnn.12.running_mean f4 [32]
000000 ff 51 6a 3e 8f 34 43 3e 55 c9 91 be 72 97 6c be
       0.22882842 0.19063018 -0.28473917 -0.23104647
000010 1f 95 21 3d 1d 81 0c be 18 7d 8c be 4d da b8 3e
       0.039448854 -0.13721128 -0.2743919 0.3610405
000020 f8 f5 3e bd 50 c3 1e be d7 cb 96 3e e6 91 e0 bd
       -0.046621293 -0.15504193 0.29452392 -0.10965328
000030 c4 81 ef bd 75 50 01 3e 0c 52 09 3d d7 77 61 3e
       -0.11694673 0.12628348 0.03352551 0.22018372
000040 ff 6f c4 3d e8 a8 74 be e3 6d 36 3d c0 3e a9 be
       0.09591674 -0.23892558 0.04453839 -0.33055687
000050 4e f7 13 bc 37 a7 fa bd fc 33 b0 bd 14 7a ce 3e
       -0.00903113 -0.12238925 -0.08603665 0.40327513
000060 f5 90 4c bd 22 2f 3a 3b 3c 3d 20 be 75 fc 8d 3d
       -0.04994293 0.002840944 -0.15648359 0.06932918
000070 0e 03 af be 08 34 87 3e 05 bc 95 be e1 b8 dd b9
       -0.34182018 0.26406884 -0.2924501 -0.0004229015

weight_function_network.initial_cnn.12.running_var f4 [32]
000000 2c d9 d7 3d ca 22 84 3e 1e 34 f1 3d b2 59 e7 3d
       0.10539469 0.25807792 0.11777519 0.11296405
000010 d5 96 cb 3d da 94 eb 3d 1f eb 3b 3e 0a 94 df 3d
       0.09940878 0.115030006 0.1835141 0.10916908
000020 a3 e7 24 3e b1 73 ef 3d 50 71 ee 3d c9 d9 14 3e
       0.16103987 0.11691988 0.116427064 0.14536203
000030 70 54 e3 3d 9e f2 e9 3d 4e cb c7 3d ba ab d9 3d
       0.111000896 0.11423229 0.09755574 0.10628457
000040 d3 d9 aa 3d c0 5b 32 3e b3 7a d2 3d 64 cd 3f 3e
       0.08342328 0.17417812 0.10277309 0.18730694
000050 e8 b5 ce 3d 55 24 06 3e 41 6c 00 3e b5 e9 bb 3d
       0.100932896 0.13099797 0.12541296 0.091754355
000060 fa e9 c7 3d 57 01 23 3e 29 24 db 3d 44 90 13 3e
       0.09761424 0.1591848 0.107002564 0.14410502
000070 e0 4c f8 3d 89 e9 2c 3e c4 68 0b 3e 71 eb 41 3e
       0.12124038 0.16885962 0.13614184 0.1893747

weight_function_network.adaptive_layer.1.weight f4 [64, 32, 3, 3]
000000 fd e7 75 bb 0e 15 6d 3b 34 e2 06 3d 57 56 7d 3d
       -0.003752231 0.003617588 0.032930568 0.06184992
000010 32 a4 63 3d 66 3f 3d 3b c8 5b 07 bd c2 41 01 3c
       0.05557651 0.00288769 -0.033046514 0.007889213
000020 1f 3c 7c 3d 74 60 59 bc 6f 00 78 bc 52 41 3c 3d
       0.061580773 -0.013267625 -0.015136822 0.04596073
000030 08 2d a5 bc bc 88 7e 3d 34 65 0c bd a6 a9 b2 3b
       -0.020163074 0.06214212 -0.034276202 0.0054523526
000040 44 5e bf bc b4 21 1d 3c 25 da 17 bd 9f 19 86 3c
       -0.023360379 0.009590555 -0.037073273 0.016369639
000050 a6 1f 8f 3d b7 d8 18 3a 8f 00 9d bc b4 52 10 bd
       0.06988458 0.0005830633 -0.019165305 -0.03523512
000060 e8 11 bd 3c a2 7e 18 3c 9f 92 56 3d 78 b5 41 3d
       0.023079827 0.009307535 0.052385923 0.047292203
000070 fc 34 1a bd 86 0e 59 bd 44 3b 42 3d 0f 5a 52 bd
       -0.037648186 -0.052992366 0.0474198 -0.051355418
000080 98 74 7b bc 09 58 dd b9 7a 04 51 bd 19 da 47 bd
       -0.015347622 -0.00042217996 -0.05102966 -0.04879198
000090 db a5 4b 3d ae 28 63 bc 73 21 64 bd 0e ab 65 3d
       0.04971872 -0.013864679 -0.055695962 0.056071334
0000a0 71 3c 6b bc e8 b3 0d 3c 95 01 33 3d 32 35 57 bd
       -0.014357672 0.00864885 0.04370268 -0.052540965
0000b0 75 58 6f 3d 08 ee e2 3c b2 87 80 3b 7d eb 41 3d
       0.05843397 0.027701393 0.003922426 0.04734372
0000c0 50 82 58 3b a9 39 27 3d 38 58 ca bb e3 9c b0 bc
       0.0033036657 0.040826473 -0.0061750673 -0.021559184
0000d0 86 0b f0 bc db 26 35 bd 71 b1 01 3d b0 e7 0c 3b
       -0.02930237 -0.04422651 0.031663362 0.0021500401
0000e0 cc 07 ab 39 aa 80 d9 bb 30 ad d8 bc 6a b5 90 3c
       0.0003262147 -0.0066376524 -0.02644977 0.01766463
0000f0 85 65 a2 bc 76 62 0a bd 4b ce e7 3c 49 00 34 bd
       -0.019823799 -0.033785306 0.02829661 -0.043945584
000100 f4 5c 68 3d a6 30 7f 3d c9 dd 43 bd 9d 5b 71 bb
       0.056729272 0.062302254 -0.047818933 -0.0036828287
000110 66 f9 2e 3d 50 77 31 bd 7a 76 2f 3d 67 5a 5f 3c
       0.042718314 -0.043326676 0.042837597 0.013632393
000120 bf 96 3b bd ea 42 fe 3b ba 94 49 bb f4 33 aa bc
       -0.04579806 0.0077594416 -0.0030758814 -0.020776726
000130 be fb 02 3b ff e0 71 bd 18 5f cf bc 12 39 3a 3c
       0.0019986476 -0.059052464 -0.025313899 0.011366146
000140 ff 33 4f bd 4a 4a 51 bd 64 8d 60 3d 67 ab 46 bd
       -0.050586697 -0.05109624 0.05482234 -0.048503306
000150 2c 92 a6 3b 6f e3 86 bc 32 64 36 3d 1d 4d 91 3c
       0.005083343 -0.01646587 0.044529147 0.017736966
000160 21 dc 93 3c 70 3f 50 bd 56 76 11 3d 20 fd b3 bc
       0.018049302 -0.05084175 0.035513245 -0.021971285
000170 32 5d 3f 3d 52 1b 4a 3d 31 08 9a bc 4f 8d 3f 3a
       0.046719737 0.04934246 -0.018802734 0.00073071284
000180 39 ac cd 3b bf 33 84 3d 5c a8 a2 3a 72 ac 9d 3b
       0.006276634 0.06455182 0.0012409794 0.004811817
000190 f2 b9 f2 3c d3 2b 41 bd 81 4c 09 3d 72 0b 63 bd
       0.029629681 -0.047160935 0.033520225 -0.055430837
0001a0 3d 80 f3 bc e3 77 3a 3c 00 0d 0e 3d a4 56 16 bc
       -0.029724235 0.011381122 0.034680367 -0.00917593
0001b0 7b 4e 5e bc 4a d6 c0 3c ff f4 29 3d 57 70 76 bd
       -0.013568516 0.023539681 0.041493412 -0.06016573
0001c0 20 0d 24 3d 4b 64 bd 3c a0 d5 33 3d 23 bc 39 3c
       0.04005158 0.023119112 0.0439049 0.011336359
0001d0 16 3b 93 bd b9 c9 00 bd b8 90 5a 3d d2 d4 51 3d
       -0.07189004 -0.031442378 0.05336067 0.051228352
0001e0 e6 22 a2 3c 2f 1d 9c bc 44 6a e3 3c f7 1c 41 3d
       0.019792031 -0.019056885 0.027760632 0.047146764
0001f0 15 92 60 bd 13 8c 1f bd 55 ee 41 3d fe ae 91 3b
       -0.054826815 -0.038951945 0.04734643 0.0044459095
000200 d9 56 55 3d 10 6c 0f 3c 06 17 e6 bc 3d 25 5c 3d
       0.052084778 0.008753791 -0.02808715 0.05374645
000210 36 5e 1d 3d 67 4a a1 bc cd 38 d0 3c 26 f8 6c 3c
       0.038419925 -0.019688798 0.02541771 0.01446346
000220 1c 82 5a bd 9d 1f 56 3c 10 a4 3e bd 47 55 24 3d
       -0.05334674 0.013069061 -0.04654318 0.04012039
000230 43 60 82 bc e0 0f e2 bb 20 29 12 3d db ab 45 3d
       -0.015915042 -0.006898865 0.03568375 0.048259597
000240 01 ae ac 3a 66 57 fb 3c 63 e1 8a bc c5 bb 7d bc
       0.0013174416 0.030681323 -0.016953176 -0.015486662
000250 4b 14 f8 bc 82 38 8d bc b2 c7 b8 3c 2f a2 16 3d
       -0.030283114 -0.01723886 0.02255616 0.036775764
000260 f2 c1 04 3d b2 18 22 bd c7 6c 37 bd d2 2b 76 3d
       0.032411523 -0.039574333 -0.044781473 0.060100384
000270 c5 ca c0 bc 2a 73 eb 3b 08 87 d9 bb f4 2d 73 bb
       -0.023534188 0.0071853595 -0.0066384114 -0.0037106248
000280 14 f6 10 bd cc 0a 5b bd bb 5e 8f bb 5c 29 fc bc
       -0.03539093 -0.053477094 -0.0043753064 -0.03078144
000290 47 25 ae 3c 30 39 09 3d c4 31 54 3d 63 40 42 3d
       0.02125801 0.033501804 0.051805273 0.047424685
0002a0 a1 a1 38 3d bd 2a 26 3d d5 db 0f 3c 16 d5 fa bb
       0.045076016 0.040568102 0.008780439 -0.0076547964
0002b0 54 2d 08 3c c9 c4 68 3d 8d 4c 6f 3c 37 d5 de bc
       0.008311588 0.056828294 0.0146056535 -0.027201278
0002c0 c0 5c d3 3b 43 4b bf bb bf cb 56 bd 45 cd 74 bd
       0.0064502656 -0.0058378293 -0.0524404 -0.059766073
0002d0 ac ff 13 3d 10 f7 da bc 66 4f 62 3c 22 74 e2 3c
       0.0361325 -0.026729137 0.013812875 0.027643267
0002e0 a7 8e 40 bd e0 f5 f4 3c 81 64 dd bc b1 f5 f5 3c
       -0.047011044 0.029902399 -0.027025463 0.030024381
0002f0 88 99 00 bd 01 6f 83 3d 3b 12 01 3b 7d b8 6b 3d
       -0.03139642 0.06417657 0.0019694704 0.05754899
000300 d6 98 61 bc 60 54 bf bc fa 25 9c bc 8e 9e 81 3d
       -0.013769349 -0.023355663 -0.019061077 0.0632907
000310 de fd 24 bd a7 fc ce bc b3 53 55 3d 5b 55 0b bd
       -0.04028117 -0.025266958 0.052081775 -0.03401695
000320 cc cd cf 3c 53 ab c8 bc 02 ae 19 bd 3e 68 2e 3c
       0.025366686 -0.024495756 -0.037519462 0.01064497
000330 88 10 0e bd 83 6c 98 3c bc ef 0f bd ef 24 7e 3b
       -0.034683734 0.01860643 -0.035140738 0.0038779338
000340 82 52 26 bc bc 18 11 bb f6 43 58 3d 15 8e 28 3d
       -0.010151507 -0.0022139987 0.052799188 0.041151125
000350 e1 a5 45 3d ce 04 78 3d d4 1d 36 3d d4 11 25 3d
       0.048253898 0.060551457 0.04446204 0.040300205
000360 82 61 b1 3c 80 0c 8f 3b 39 60 63 bd 40 a0 0b 3d
       0.02165294 0.004365504 -0.055511687 0.034088373
000370 10 65 89 bc c2 79 7b 3b 1a f2 2f bd d6 ae 41 bd
       -0.016771823 0.0038372134 -0.042955495 -0.047285877
000380 e6 0a 9f bc e1 ed 51 3d 5f cd 04 bd 83 4e 2f bd
       -0.019414376 0.05125225 -0.03242242 -0.042799484
000390 42 43 57 3d de 70 e7 3b f0 1d a6 3c 56 6d b9 3c
       0.052554376 0.0070630154 0.020277947 0.022635143
0003a0 38 41 45 3d 3b a9 2d 3d 39 87 ae bc f7 d0 7a bc
       0.0481579 0.04239772 -0.021304714 -0.01530861
0003b0 8d 46 8c bb ed 13 56 3d ee 34 10 bc a4 a5 b6 bc
       -0.0042808712 0.052265096 -0.008801682 -0.02229578
0003c0 ea 17 61 bd a4 fd 67 3d 36 82 dd bc 2f d0 52 bd
       -0.054954447 0.056638375 -0.027039628 -0.05146807
0003d0 a5 5a 55 3d 7e 79 08 3d af d9 1e 3c f8 4d 6d bc
       0.0520884 0.03331899 0.0096954545 -0.014483921
0003e0 de 38 31 3c bc 3a c9 bc bd 46 dd 3c ae 7f 71 3d
       0.010816781 -0.02456414 0.02701127 0.058959655
0003f0 69 3f 38 bd c9 1b 40 3d aa 89 20 bd de 43 87 3c
       -0.044982348 0.046901498 -0.039193787 0.016511854

weight_function_network.adaptive_layer.1.bias f4 [64]
000000 ff 26 5b bd 3b 8c f1 3c ef 64 b7 bc 06 3f 32 3c
       -0.053503986 0.029485812 -0.022386996 0.010879284
000010 27 b3 8c 3c bc ae 5d bd 76 f4 6d bc db 15 db 3c
       0.01717527 -0.054121718 -0.014523616 0.02674382
000020 94 62 42 3d 16 85 22 3d 4b 7f 4b 3d f6 45 1a 3c
       0.047457293 0.039677702 0.049681943 0.009416094
000030 6d ad 0d 3c b6 72 db bb 81 7e 47 3d 63 17 46 3d
       0.008647305 -0.006697024 0.048704628 0.048362147
000040 ef af 27 bd df be 44 3c 62 cc 08 bd bf fa 68 bd
       -0.040939268 0.012008398 -0.03339804 -0.056879755
000050 b5 cc 6f bd ec 66 ad bc cc 70 2d bc ed fd 10 bd
       -0.058544833 -0.021167241 -0.010585975 -0.035398412
000060 37 72 05 3d 72 26 df 3c 4c ba 24 bd fc 50 3f 3d
       0.032579627 0.027240012 -0.04021673 0.046708092
000070 dd ac 55 3d 45 7c 48 3c c2 c5 40 bd 8e 6c be bc
       0.05216681 0.012236659 -0.047063597 -0.023245122
000080 25 5b 12 3d 9d 6a 2e 3d f1 b4 51 3d 6a 6f 5f bd
       0.035731453 0.042582143 0.05119795 -0.054549612
000090 35 9f eb 3b 8d ed 15 3c 8c 5a 18 bd ba dd b6 3c
       0.00719061 0.009150875 -0.037195727 0.022322524
0000a0 3b 46 39 bc 17 a3 80 bb d7 72 4f bc 35 8c 4b bd
       -0.011308248 -0.003925692 -0.012661657 -0.04969426
0000b0 52 18 19 3d 82 6d a2 bc 49 53 d0 bb 91 45 2e bd
       0.03737671 -0.019827608 -0.0063575846 -0.042546812
0000c0 4b bd 9d 3c a2 1f 3c bd ce e7 e3 bc a3 dd 3a bd
       0.019255301 -0.045928605 -0.027820494 -0.045621525
0000d0 f0 f1 21 3d b7 de c0 3c 4b 2a 29 3d 16 22 6f bd
       0.03953737 0.023543699 0.0413001 -0.058382116
0000e0 c7 b5 b5 bc 62 4d 32 bd ed 9f 35 bd 23 cc f0 3c
       -0.022181405 -0.04353083 -0.04434197 0.029394215
0000f0 db b5 c5 bc 26 91 c4 bb 9b b8 9e bc a4 ee ad bc
       -0.024134567 -0.0059987484 -0.019375136 -0.021231957

weight_function_network.adaptive_layer.2.weight f4 [64]
000000 c2 8d 80 3f 94 c1 81 3f e2 61 80 3f 04 3f 80 3f
       1.0043261 1.01372 1.0029871 1.0019231
000010 0d db 81 3f 50 e3 7f 3f 27 43 7e 3f 3c ef 7c 3f
       1.0144974 0.99956226 0.99321216 0.9880254
000020 32 80 7e 3f 47 b0 7b 3f f6 00 80 3f 58 77 7f 3f
       0.9941436 0.9831585 1.0000293 0.9979148
000030 eb 52 81 3f dd 9e 7f 3f 8a 57 7f 3f 1f 09 80 3f
       1.010343 0.9985178 0.9974295 1.0002784
000040 60 f6 7d 3f dd 01 7b 3f 13 8a 7e 3f f3 2e 80 3f
       0.99204063 0.9804972 0.99429435 1.0014328
000050 35 5c 81 3f 1e dd 80 3f d2 a6 80 3f ff a9 7d 3f
       1.0106264 1.006748 1.005091 0.9908752
000060 1c 6c 7f 3f 56 9c 81 3f d1 31 80 3f 9c 69 7e 3f
       0.99774337 1.0125835 1.0015203 0.993799
000070 da 61 7c 3f d2 15 80 3f 00 71 7f 3f e7 0b 7b 3f
       0.9858681 1.0006659 0.997818 0.98065037
000080 e3 dd 80 3f c5 01 80 3f c8 69 7f 3f 97 fd 7f 3f
       1.0067714 1.000054 0.99770784 0.9999632
000090 ae dc 80 3f 29 39 80 3f 8a 79 80 3f 1f 77 7f 3f
       1.0067346 1.0017444 1.0037091 0.9979114
0000a0 8a 09 7f 3f 2e 7e 7f 3f cc 4d 7f 3f 50 a9 7e 3f
       0.9962393 0.9980191 0.99728084 0.994771
0000b0 5e 1a 80 3f 58 fa 80 3f 98 37 7e 3f 9b ed 7f 3f
       1.0008047 1.0076399 0.9930358 0.9997193
0000c0 a8 74 7e 3f 8c 54 7e 3f e5 33 80 3f 56 31 82 3f
       0.99396753 0.9934776 1.0015837 1.0171306
0000d0 09 7e 7f 3f bf 7f 7b 3f 0f ec 80 3f ad bf 7f 3f
       0.9980169 0.982418 1.0072039 0.9990185
0000e0 fa c6 81 3f 38 d5 7d 3f 78 a4 7a 3f 25 49 81 3f
       1.0138848 0.9915347 0.9790721 1.0100447
0000f0 c5 ce 7e 3f 0b d7 7e 3f ac 38 7d 3f df b9 7f 3f
       0.99534255 0.9954688 0.989146 0.9989299

weight_function_network.adaptive_layer.2.bias f4 [64]
000000 7f a9 6e bc f4 e4 14 bd 65 f2 4b 3c 06 6f 5f bc
       -0.014566778 -0.03635116 0.012447928 -0.01363731
000010 35 49 4e bc 2d 83 94 bc 63 39 af bc 30 9f 74 bc
       -0.012590696 -0.018128956 -0.021389669 -0.014930531
000020 1e db e2 bb 86 5b 54 bc ae e9 c0 bc 09 aa 96 bc
       -0.0069230935 -0.012961274 -0.023548927 -0.018391626
000030 59 fa b3 bb 69 78 c2 bc d0 dd 64 bc a7 01 14 ba
       -0.0054924903 -0.023739057 -0.0139689 -0.0005645998
000040 6a 0f 22 bc e3 7e e4 bc 35 d0 b6 bb 75 71 f4 bc
       -0.00989137 -0.027892536 -0.0055790194 -0.029839257
000050 ed 41 16 bc e5 ae 3c bc b6 03 08 bc 2d ee 5c bc
       -0.009170991 -0.0115163075 -0.008301666 -0.01348452
000060 94 61 2d bc 99 06 2c bc 55 47 e4 bb f3 41 e2 bc
       -0.0105823465 -0.01049962 -0.0069665113 -0.027619338
000070 c8 b6 98 bc 7e 12 41 3c b1 35 45 bc 5d 7d 84 bc
       -0.018641844 0.011784194 -0.012036727 -0.01617306
000080 ce ff f1 bb ff c4 22 bc 71 05 05 bd be 05 d0 bc
       -0.0073852306 -0.009934663 -0.032475892 -0.025393363
000090 1d a6 59 3c f5 95 56 bc 90 63 f5 bc b7 a3 a9 3a
       0.013284233 -0.013097276 -0.029954702 0.0012942468
0000a0 28 48 80 bc cf 39 ac bb da 46 d1 bc 79 e7 90 bc
       -0.015659407 -0.0052559148 -0.02554648 -0.0176885
0000b0 8a 40 13 bc 52 56 ef bc 32 fa cf bc bb 80 12 3c
       -0.008987555 -0.029215965 -0.025387857 0.008941825
0000c0 2e af 85 bc 3e e9 76 3a 81 37 ae bc 7d 84 5b 3b
       -0.016318884 0.0009418911 -0.0212667 0.0033495717
0000d0 1a cf aa ba 6c a5 81 bc f5 09 b7 bc 60 70 14 bc
       -0.0013031692 -0.01582595 -0.022343615 -0.009059995
0000e0 2c 9d 4b bc e6 2f 57 bc 24 cb aa bc 7b 9f bd 3c
       -0.012427609 -0.0131339785 -0.020848818 0.023147335
0000f0 37 b2 55 3b a4 cc 9e bb b5 1c 58 bc 61 ec 26 bc
       0.0032607445 -0.0048461724 -0.013190438 -0.010188193

weight_function_network.adaptive_layer.2.running_mean f4 [64]
000000 3a 36 fc 3e 01 e4 4a 3f 55 ca 00 bf b3 36 16 3c
       0.49260122 0.79254156 -0.50308734 0.009168315
000010 97 83 2c 3e 6d fa fa be 42 e6 a7 3d 37 8a 1f bf
       0.16847073 -0.49019185 0.08198215 -0.62320274
000020 e3 74 f1 be 82 cd 4f 3e 16 3b 3a be 65 3d 8f 3e
       -0.4715949 0.20293239 -0.18186602 0.27976528
000030 5e 03 4d bd 56 88 7d 3d 49 68 45 be 4f 28 b3 3e
       -0.05005204 0.0618976 -0.19278063 0.3499169
000040 fd da 0e be c5 34 00 3e 77 3a c6 bd 39 d6 25 3f
       -0.13950725 0.1252013 -0.0967912 0.6478
000050 3b 88 6f be c4 c3 3d 3e a7 da 0b 3e 9f 4d 6a 3e
       -0.23391812 0.1853171 0.13657628 0.22881173
000060 52 9c 4f be 3e 38 33 3f e0 75 58 be 52 e8 98 be
       -0.20274475 0.70007694 -0.21138716 -0.29864746
000070 fe 99 01 3e 80 95 ca be 03 f0 28 bd 50 60 a1 bc
       0.126564 -0.39567184 -0.041244518 -0.019699246
000080 96 fb b4 3e 4f 22 bb 3e 2c 28 87 be 99 fd bf 3e
       0.35348195 0.36549613 -0.26397836 0.37498167
000090 9f 0a e7 be 35 5e aa 3e c6 8d de be 4e c6 a7 bd
       -0.4512529 0.33275 -0.4346754 -0.081921205
0000a0 4a c5 c8 be c0 0e 01 bd 84 72 58 bc e0 d5 c7 be
       -0.3921302 -0.031508207 -0.013210896 -0.3903036
0000b0 87 be c8 3c f8 0d c9 be ab 46 a5 3d 71 08 48 bf
       0.024504913 -0.3926847 0.080701195 -0.7813788
0000c0 3e 3d 69 3e 94 8a fe be 12 e6 6e bd a3 57 20 3d
       0.22777268 -0.49715102 -0.05832488 0.039146077
0000d0 c5 2a 77 3e 45 4a 0b bf a2 7f 81 3e 6c f9 74 3d
       0.24137409 -0.544102 0.2529269 0.05980818
0000e0 8d 94 68 be bb 45 78 be 71 23 22 3e d8 dd 00 bf
       -0.22712918 -0.2424535 0.15833832 -0.50338507
0000f0 46 9f 31 bc 34 1a 0a be 8f ec 97 3e 7e d9 33 be
       -0.010841196 -0.13486558 0.29672667 -0.17563435
